results/Test06/MoveToGoal/MoveToGoal-3499937.onnx (onnx, 851575 bytes, 11 tensors)

action_model._continuous_distribution.log_sigma f4 [1, 2]
0	0xbe9d6502	-0.30741125
1	0xbe2e8ff3	-0.170471

action_model._continuous_distribution.mu.bias f4 [2]
0	0x3d1f406c	0.038879797
1	0x3cc9d0f9	0.024635779

action_model._continuous_distribution.mu.weight f4 [2, 256]
0	0xb999bd87	-0.00029323643
1	0xbc899557	-0.016794844
2	0xbcb14a40	-0.02164185
3	0x38dce101	0.00010532328
4	0xbce54ed6	-0.027991693
5	0x3a65bf6a	0.00087641797
6	0xbba36b5f	-0.004987165
7	0x39951570	0.00028435467
8	0xb94960c9	-0.00019204909
9	0x39fa4810	0.00047737407
10	0xb9d70ae7	-0.00041016118
11	0xbab625ab	-0.0013896724
12	0xbc41146f	-0.011784657
13	0x3a833cef	0.0010012666
14	0xbcbe0d6f	-0.023199765
15	0xbcd29a70	-0.025708407
16	0xbc01ff38	-0.007934384
17	0xba84aa49	-0.001012155
18	0xbbdf34c9	-0.0068117124
19	0xbcf72973	-0.030171132
20	0xbd01401f	-0.03155529
21	0xb749a05c	-1.201787e-05
22	0xbd0b0117	-0.033936586
23	0xbb3d90de	-0.002892546
24	0xbc18b861	-0.009321303
25	0xbd0588f2	-0.032601304
26	0x3b36a7dc	0.0027871048
27	0x39add004	0.00033152115
28	0xbb9bd7b7	-0.00475594
29	0xbd1e0f12	-0.03858859
30	0xba50146a	-0.0007937612
31	0xbcd3940c	-0.02582743
32	0xb8e2f1a2	-0.000108215274
33	0xb888ebde	-6.528919e-05
34	0xb88a0025	-6.58038e-05
35	0xb95f9596	-0.00021322662
36	0xba5b495e	-0.00083651196
37	0xbcdf5f67	-0.027267171
38	0x374145f6	1.15199855e-05
39	0xbd3ba7cc	-0.04581432
40	0xbceabeaa	-0.028655369
41	0xb9260b11	-0.00015835116
42	0x3a192752	0.0005842346
43	0xbd05dda1	-0.032682065
44	0xbc938204	-0.018006332
45	0xba86d545	-0.0010286948
46	0x3a3a5838	0.00071084825
47	0xbd51d04e	-0.051224045
48	0xbc73ca0d	-0.014879716
49	0xbb0ab0f9	-0.0021162613
50	0xbca9ebc9	-0.020742314
51	0xbd2ff8ba	-0.042961814
52	0xba8b3bae	-0.0010622644
53	0xbcf9cfe8	-0.030494645
54	0xbc1d706b	-0.009609322
55	0xb9e872b7	-0.00044335958
56	0x3a01e91f	0.0004955697
57	0xbbea5dba	-0.0071522864
58	0x39821a74	0.0002481524
59	0xbd632090	-0.055450976
60	0xb9f0390c	-0.0004581887
61	0xbac0345c	-0.0014664042
62	0x3a169402	0.0005744101
63	0xbd43d096	-0.047806345
64	0x391d872b	0.00015023041
65	0xbd0dcc0d	-0.034618426
66	0xbcb4fcf3	-0.022093272
67	0xbccadab3	-0.024762487
68	0x3a876c8d	0.0010332033
69	0xbd371955	-0.044701893
70	0xb99c5bf2	-0.00029823143
71	0xbb8a2938	-0.0042163394
72	0xbbb6c78a	-0.005577986
73	0x3988ee43	0.0002611746
74	0xbd01dcc6	-0.031704687
75	0xbc833614	-0.016016997
76	0xbbeb0d96	-0.0071732504
77	0xbd1493df	-0.036273833
78	0xb70587fd	-7.95908e-06
79	0x3a16e1df	0.00057557033
80	0xbcaa7201	-0.020806314
81	0xbd1d0d8a	-0.03834299
82	0x3a2b41cb	0.0006532936
83	0xbaae24f2	-0.0013286157
84	0xb963fa24	-0.00021741592
85	0x3a424eca	0.0007412253
86	0xbb440861	-0.002991222
87	0xbd25e887	-0.04050496
88	0xbc9e66dc	-0.019336157
89	0xb8c9612a	-9.602525e-05
90	0xbd0e20ef	-0.034699377
91	0xbc9138c1	-0.017727258
92	0xbc916df6	-0.017752629
93	0xb9b6a000	-0.00034832954
94	0xbce095e2	-0.02741522
95	0xbc832b05	-0.016011724
96	0xbd0631d5	-0.032762367
97	0xbcbc85e1	-0.023013057
98	0xbca9e75e	-0.020740207
99	0xbd23b71c	-0.03996955
100	0xbbd5b1a0	-0.0065214187
101	0xbbb87ebf	-0.0056303437
102	0x39b71d50	0.0003492632
103	0xbc1dc362	-0.009629102
104	0xbcee5478	-0.029093012
105	0xbd0ed820	-0.03487408
106	0xbd584baf	-0.052806552
107	0xbbc6b4c1	-0.006064028
108	0xbd02f8df	-0.031975623
109	0xbc09421d	-0.008377579
110	0x39c4f8c3	0.00037569375
111	0xbd298526	-0.041386746
112	0xbcb3800a	-0.02191164
113	0xbd26c465	-0.04071464
114	0x38ecc3d4	0.00011289833
115	0xbd462b99	-0.04838142
116	0x396f796e	0.00022838052
117	0x38b4cd38	8.621294e-05
118	0xbba03aef	-0.004889838
119	0xbd01871f	-0.031623002
120	0xb932b7bb	-0.00017043848
121	0x3ba5e56c	0.0050627496
122	0xbd5eca9c	-0.054392442
123	0xbcf8b593	-0.030360019
124	0xbd576d05	-0.052594204
125	0x39c92e00	0.0003837198
126	0xbd084c25	-0.033275742
127	0xbcc1e4cd	-0.023668671
128	0x398d6990	0.00026972266
129	0xbd2abf31	-0.04168624
130	0xbd1585a1	-0.03650439
131	0xb977ab31	-0.0002361953
132	0xbc6879ca	-0.014189193
133	0xb95dd831	-0.0002115674
134	0xbb1f1480	-0.0024273694
135	0xbd183d21	-0.037167672
136	0x3927b64b	0.0001599427
137	0xbd2def35	-0.042464454
138	0xbb2e3343	-0.0026580847
139	0xbb5bddf5	-0.0033549045
140	0x39e580ee	0.00043774344
141	0xbbfa9bab	-0.0076479516
142	0xbb1a9665	-0.0023588177
143	0xbb92fbb5	-0.004485572
144	0xbd368009	-0.044555698
145	0xb93babb0	-0.00017897668
146	0xbd1acb31	-0.037791435
147	0x39ad7d05	0.00033090278
148	0xbd6eab27	-0.058268692
149	0x381f0717	3.7915157e-05
150	0x3ae04f8d	0.0017113552
151	0xbd3bb924	-0.04583086
152	0xbd052faa	-0.03251616
153	0xbd0436f2	-0.032278962
154	0xbd011b24	-0.031520024
155	0x3a1b464f	0.00059232576
156	0xbd461e8d	-0.04836898
157	0xbbdc765a	-0.006727976
158	0xba6e3275	-0.0009086498
159	0xbcf30c18	-0.029668853
160	0x399c75e5	0.00029842477
161	0xba6bf68b	-0.00090012763
162	0x39bf89f8	0.00036533154
163	0xbca01289	-0.019540088
164	0x3945f0be	0.00018877067
165	0xbd131be9	-0.03591529
166	0xbb4c106e	-0.0031137723
167	0xbc04b65c	-0.0081001185
168	0xb99170cb	-0.00027740592
169	0xbc0676a4	-0.008206997
170	0xbc9d1e10	-0.019179374
171	0x3a7b404d	0.00095844717
172	0xbd3b7aaf	-0.045771297
173	0x3a0e4d60	0.00054284
174	0xbae4280c	-0.0017406954
175	0xbd19cb66	-0.03754749
176	0xbd200dd9	-0.039075706
177	0xb9826d95	-0.00024877177
178	0x380e2520	3.3890014e-05
179	0x398c5d80	0.00026772544
180	0x399a5595	0.00029436933
181	0xbc55ca22	-0.0130486805
182	0xbb40bd22	-0.0029409607
183	0xbb80f6a2	-0.003935651
184	0xb81295d1	-3.494864e-05
185	0xbd3f2e91	-0.04667527
186	0xb9fa4042	-0.00047731592
187	0x3a52bc7b	0.000803895
188	0x399faee3	0.00030457144
189	0xbd2424aa	-0.040074028
190	0xbd01c934	-0.031686023
191	0xbc6a9b4a	-0.01431925
192	0xbc6472a3	-0.013943347
193	0xbd3e90c3	-0.046524774
194	0x39a8d67c	0.0003220326
195	0xbaa982da	-0.0012932674
196	0xb98d1509	-0.00026909288
197	0xbbe65b02	-0.007029892
198	0xbd3cde42	-0.0461104
199	0x398b8f98	0.00026619132
200	0x3a200d56	0.0006105503
201	0xbd342901	-0.043984417
202	0xbcf1dd31	-0.029524418
203	0x38cbaba8	9.711768e-05
204	0xba86f600	-0.0010296702
205	0xbd0a68f8	-0.033791512
206	0xbba343a2	-0.0049824277
207	0xbb832471	-0.004002147
208	0xbd08619c	-0.033296213
209	0xb90fdcef	-0.00013719847
210	0x3a16580f	0.00057351677
211	0x39b79162	0.000350128
212	0xbbaeb16b	-0.0053312085
213	0x394996ff	0.00019225104
214	0xbd3785ac	-0.044805214
215	0x39f38b71	0.00046452464
216	0xbb2c5b3b	-0.0026299495
217	0xbc742ac8	-0.014902778
218	0xbc5b91de	-0.013401477
219	0x39408514	0.00018360122
220	0x3a2c73aa	0.00065785146
221	0xbbdb0ddd	-0.0066850022
222	0xbce9cec3	-0.028540974
223	0xbcf20b4d	-0.029546404
224	0xbc820634	-0.015872099
225	0xbd32e5be	-0.04367613
226	0xbd07d653	-0.03316338
227	0xbd1415e8	-0.036153704
228	0xbd3e3d9f	-0.046445485
229	0x3abae872	0.0014259948
230	0xbbd69bf7	-0.006549354
231	0xbbb8f45e	-0.005644365
232	0x3ad37be7	0.0016134948
233	0x39286a24	0.00016061269
234	0xbd228a11	-0.03968245
235	0x39d32a9b	0.000402768
236	0xbca06a4c	-0.019581936
237	0xb9018d73	-0.00012355093
238	0xbbe4bd33	-0.006980562
239	0x3a811e78	0.0009850999
240	0x3859708a	5.1841642e-05
241	0xbca27500	-0.01983118
242	0xbcf2496f	-0.029576031
243	0xbb4d1e80	-0.0031298697
244	0xbc8d1a39	-0.017224418
245	0x39a62aaf	0.0003169379
246	0xbd758691	-0.059942786
247	0xbca2cfca	-0.019874472
248	0xbd3fb446	-0.04680278
249	0xbaa87b82	-0.0012854191
250	0xba5c69ff	-0.00084081286
251	0x3980c4fb	0.00024560824
252	0xbd516e89	-0.051130805
253	0xbcea96dd	-0.02863639
254	0xbd0ad6f0	-0.033896387
255	0xbc01b2ce	-0.0079161655

network_body._body_endoder.seq_layers.0.bias f4 [256]
0	0xbc59c05a	-0.013290489
1	0xbcc002cc	-0.023438834
2	0xbc952cab	-0.018209776
3	0xbd95fa65	-0.073231496
4	0x3b318844	0.0027089277
5	0xbc46659d	-0.012109187
6	0x3cae806a	0.021301467
7	0xbc02032c	-0.007935327
8	0xbd499105	-0.049210567
9	0xbc167c71	-0.009184943
10	0xbc7d5bbb	-0.015463765
11	0xbd38f740	-0.04515767
12	0xbc282422	-0.010262521
13	0xbca1ff86	-0.019775163
14	0xbd33c715	-0.04389103
15	0xbd0295dd	-0.031881202
16	0xbc429c6e	-0.011878116
17	0xbd2fbb95	-0.0429035
18	0xbd1a54c7	-0.037678506
19	0xbbba9f25	-0.005695241
20	0xbd05ebeb	-0.032695692
21	0xbd065c5a	-0.032802917
22	0x3bf2b889	0.007407252
23	0xbb75158b	-0.0037396874
24	0x3990270c	0.00027494913
25	0xbcdcc866	-0.026951026
26	0xbd073a43	-0.033014547
27	0xbd084985	-0.03327324
28	0xbca2a657	-0.019854708
29	0xbd277b37	-0.04088899
30	0x3b1aa9c4	0.0023599723
31	0xbc77ce9a	-0.015124941
32	0xbb89d82c	-0.004206678
33	0xbd1a12e0	-0.037615657
34	0xbcd2df2f	-0.025741188
35	0xbc9db9af	-0.01925358
36	0x3bce6bd3	0.0062994747
37	0xbb6d3bae	-0.0036198902
38	0xb9834f87	-0.0002504552
39	0xbc374278	-0.011185281
40	0xbcff924c	-0.03119769
41	0xbce41c27	-0.027845455
42	0xbd0dcb1e	-0.034617536
43	0xbb3bf991	-0.0028682689
44	0xbd2961df	-0.041353103
45	0xbb8d3331	-0.004309081
46	0xbdca419f	-0.098757975
47	0xbcc176ef	-0.023616282
48	0xbd236aff	-0.03989696
49	0xbbbe26f0	-0.0058029816
50	0xbc9fc3b2	-0.019502494
51	0xbcd3edfe	-0.02587032
52	0xbd4124e4	-0.047154322
53	0xbc15913e	-0.009128867
54	0xbd21c7b5	-0.039497096
55	0xbcbcf6bf	-0.023066876
56	0x3be643d3	0.0070271282
57	0xbbbecdfa	-0.005822894
58	0xbd074c37	-0.03303167
59	0xbbc9a9cf	-0.006154276
60	0xbbdfd790	-0.006831117
61	0xbc326c2f	-0.010890051
62	0x3b839e33	0.0040166616
63	0xbd2c4cbd	-0.04206537
64	0xbd1ef2fb	-0.038805943
65	0xbd039c9d	-0.03213178
66	0xbc16337b	-0.009167547
67	0xbc2413ef	-0.010014518
68	0xbcd554c0	-0.026041389
69	0x3c19f2ef	0.009396299
70	0xbc405acb	-0.011740397
71	0xbc55a7b2	-0.01304047
72	0xbd08de91	-0.03341538
73	0xbc5c3fc4	-0.013442937
74	0xbcb789c4	-0.022404559
75	0x3c184395	0.009293457
76	0xbc1fd58a	-0.0097555015
77	0xbd906198	-0.070498645
78	0xbcb37920	-0.021908343
79	0x3ba3ba28	0.004996557
80	0xbdd0150d	-0.10160265
81	0x3c24998c	0.010046374
82	0xbd09ead8	-0.03367123
83	0xbc48d5fc	-0.012258049
84	0xbd386577	-0.04501864
85	0xbd3214dd	-0.043476928
86	0xbb6b3ea3	-0.0035895489
87	0xbb36d531	-0.0027898068
88	0xbbcaf6ef	-0.0061939876
89	0xbd127785	-0.035758514
90	0xbcdc1d82	-0.02686954
91	0xbc1a9b8b	-0.009436498
92	0xbd167964	-0.03673686
93	0xbc7981cf	-0.015228703
94	0xbc288eca	-0.01028795
95	0xbc33c3a7	-0.01097194
96	0xbcbb5e08	-0.022871986
97	0x3c7f0a95	0.015566488
98	0xbc3a0e91	-0.011356012
99	0xba20e1b9	-0.0006137151
100	0x3b259d62	0.002527081
101	0xbcbb8a97	-0.022893233
102	0xbd1a6d00	-0.037701607
103	0xbc1c93db	-0.009556736
104	0xbcab8a67	-0.020940019
105	0xbd27a475	-0.040928323
106	0xbc8290b4	-0.01593814
107	0xbc56d995	-0.013113399
108	0x36aeffbc	5.2153755e-06
109	0x3d330546	0.0437062
110	0xbc52f18a	-0.01287497
111	0x3c78e3c2	0.01519102
112	0xbd1c686b	-0.03818552
113	0xbd0013dc	-0.03126894
114	0xbcb70822	-0.022342745
115	0x3bb08142	0.0053865025
116	0xbbc1d927	-0.005915779
117	0xbd232503	-0.03983022
118	0xbc713a78	-0.014723413
119	0xbd55bfc6	-0.052184843
120	0xbcec65d9	-0.028857158
121	0xbc58ad4c	-0.013224911
122	0xbd06486c	-0.03278391
123	0x3c60db53	0.013724166
124	0xbd12977e	-0.035789005
125	0xbd1463c8	-0.03622797
126	0xbc93cde3	-0.01804251
127	0xbc55b74f	-0.013044192
128	0xbd3d562a	-0.04622475
129	0xbc86b55a	-0.016443897
130	0xbc83b19a	-0.016075898
131	0xbcdf45b8	-0.027254924
132	0xbcaa75b9	-0.020808088
133	0xbd092db6	-0.03349086
134	0xbd1451d9	-0.03621087
135	0x3b9a701b	0.004713071
136	0xbd06f6cf	-0.03295022
137	0xbbd3f7c9	-0.0064687473
138	0x3c519f5b	0.012794341
139	0xbbff4a09	-0.007790808
140	0xbcbd908f	-0.02314022
141	0xbd2c8453	-0.04211838
142	0xbc315e31	-0.01082568
143	0xbc5a46a6	-0.013322508
144	0xbc43a796	-0.011941811
145	0xbc30ba55	-0.0107866125
146	0xbc8b26f3	-0.016986346
147	0xbbbc9504	-0.0057550687
148	0xbcb17bdf	-0.021665512
149	0xbd3074d3	-0.043080162
150	0xbd35d4d5	-0.044392426
151	0xbd6e7c93	-0.058224272
152	0xbc92d071	-0.017921658
153	0x3c6e4f26	0.014545238
154	0xbc902f04	-0.017600544
155	0xbd4833de	-0.04887759
156	0xbce80707	-0.028323663
157	0xbc8cdd86	-0.017195474
158	0xbc4ab28c	-0.01237167
159	0xbcf2b10f	-0.029625444
160	0xbcbea118	-0.023270175
161	0xbd7319b3	-0.05935068
162	0xbb598115	-0.003318851
163	0xbd87fc5c	-0.066399306
164	0xbc7f1cf7	-0.015570871
165	0xbca33d0d	-0.019926572
166	0xbcbaaf9a	-0.022788811
167	0xbd551cc7	-0.052029397
168	0xbb2209b5	-0.0024725024
169	0x3c5a2116	0.013313552
170	0xbd46288e	-0.04837852
171	0xbcd305ac	-0.02575954
172	0xbc7bcefa	-0.015369171
173	0xbcba0a26	-0.022709917
174	0x3b9ebacd	0.0048440457
175	0xbd069681	-0.032858375
176	0x3d50f16e	0.051011495
177	0xbc33d777	-0.010976664
178	0x3c5aaab6	0.013346365
179	0xbcc390f3	-0.023872828
180	0xbc34b2c1	-0.011028946
181	0xbd169020	-0.036758542
182	0xbbbc9e95	-0.005756209
183	0xbc8ecd22	-0.0174318
184	0xbcd4f066	-0.025993537
185	0xbcaf74c3	-0.021417981
186	0x3c44abf3	0.0120038865
187	0xbc626b7f	-0.013819574
188	0xbb2ff9ea	-0.0026851841
189	0x3bc44693	0.0059898584
190	0xbb20c7f3	-0.0024533242
191	0xbd1eeee3	-0.03880204
192	0xbce75563	-0.028238958
193	0xbd0c7518	-0.034291357
194	0xbd0be077	-0.034149613
195	0xbd194073	-0.03741498
196	0xbcc6af75	-0.024253586
197	0xbcef06bd	-0.029178018
198	0xbd45ca8c	-0.048288867
199	0xbd234c99	-0.03986797
200	0xbcd13ba2	-0.02554113
201	0xbd6d6958	-0.05796179
202	0xb98b15ab	-0.0002652829
203	0xbcc3fc91	-0.023924144
204	0xbd261aea	-0.04055301
205	0x3b165dbe	0.0022944058
206	0xbcc928bd	-0.024555558
207	0xbd0e7316	-0.034777723
208	0xbd8af52e	-0.067850456
209	0xbc20de4d	-0.009818626
210	0xbc94c617	-0.018160863
211	0x3c690b02	0.014223816
212	0xbbe5ee05	-0.0070168995
213	0xbcb7251a	-0.022356559
214	0xbccbab86	-0.024862062
215	0xbbe6fcc9	-0.0070491773
216	0xbcbe7d3d	-0.023253078
217	0xbc66927f	-0.014073013
218	0xbbfeafae	-0.0077724075
219	0xbc8e1853	-0.017345583
220	0xbd4bb5de	-0.04973399
221	0x3c110bdb	0.008852924
222	0xbca04f9e	-0.019569214
223	0xbaa4aa10	-0.001256289
224	0xbc1c3b91	-0.009535686
225	0xbb97344c	-0.0046143886
226	0x3b0b667f	0.002127081
227	0x3a45dfb6	0.0007548289
228	0xba5e6194	-0.0008483168
229	0xbc7c0f73	-0.015384543
230	0xbca9e8b9	-0.020740854
231	0xbd20bc19	-0.039241884
232	0xbd414a45	-0.04718997
233	0xbd15e6f7	-0.03659722
234	0xbd1a5667	-0.037680056
235	0xbdab8170	-0.083742976
236	0xbcc4e251	-0.024033697
237	0xbcc190fe	-0.023628708
238	0xbcbe4979	-0.023228394
239	0xbce7bf20	-0.028289378
240	0x3c017688	0.007901795
241	0xbcc9b579	-0.024622666
242	0xbd66e829	-0.05637375
243	0xbc408909	-0.011751422
244	0xbcd326f4	-0.02577541
245	0xbca223f9	-0.019792544
246	0x3c646ecd	0.013942433
247	0xbab1f16d	-0.0013575979
248	0xbcf4299f	-0.029805003
249	0xbd22fd5e	-0.03979241
250	0x3bda5732	0.0066632265
251	0x3c9f37e6	0.019435834
252	0xbcfc50d1	-0.030800255
253	0x3c57f3c4	0.013180677
254	0xbd8a59fd	-0.06755445
255	0xbcdc0082	-0.02685571

network_body._body_endoder.seq_layers.0.weight f4 [256, 55]
0	0xbcc7c45f	-0.02438563
1	0x3dd28d0c	0.10280809
2	0xbe227dd7	-0.15868317
3	0xbccc44a2	-0.02493507
4	0x3d4984f8	0.049199075
5	0x3a3e86ec	0.000726803
6	0x3e77e3a5	0.24207933
7	0x3da93722	0.08262469
8	0x3dc339c4	0.09532502
9	0xbd6d7989	-0.057977233
10	0x3e0ab239	0.13544549
11	0xbe5637e2	-0.20919755
12	0xbc954570	-0.018221587
13	0x3e204a30	0.156533
14	0xbd9af920	-0.07567048
15	0xbd7b371a	-0.061331846
16	0xbe110949	-0.14163698
17	0xbea2ef77	-0.31823322
18	0xbe93bfe8	-0.2885735
19	0x3cde9786	0.027171861
20	0xbc786ecc	-0.015163135
21	0xbd8dbf65	-0.06921271
22	0xbde185f6	-0.11011879
23	0xbe6d5478	-0.23176754
24	0xbe6bee3c	-0.23040098
25	0x3d9f858d	0.07789145
26	0xbd09a2e0	-0.033602595
27	0xbe01e9f7	-0.12686907
28	0xbde33c35	-0.11095468
29	0x3ae694b4	0.0017591924
30	0xbe128239	-0.14307489
31	0x3cbaaa29	0.022786217
32	0x3d49aeb0	0.04923886
33	0x3e7afc31	0.24510266
34	0x3bbb7d35	0.005721713
35	0x3e3a0c91	0.18168856
36	0xbced77df	-0.028987823
37	0x3db85260	0.09000087
38	0x3e1786f0	0.14797568
39	0x3cfeca8a	0.031102438
40	0x3c2bf48f	0.010495319
41	0xbdd8dd1f	-0.105890505
42	0x3dcc1b48	0.09966141
43	0xbe2ed65b	-0.17073958
44	0xbd4b741e	-0.049671285
45	0x3d5963ef	0.05307382
46	0x3e728d85	0.23686798
47	0xbeb47533	-0.35245666
48	0x3e33417a	0.17505446
49	0xbd0bb008	-0.034103423
50	0xbd95fa8d	-0.073231794
51	0x3dd3cff8	0.10342401
52	0xbe809941	-0.25116923
53	0x3da44d63	0.08022573
54	0x3decc234	0.11560479
55	0xbe9b0baf	-0.3028235
56	0x3e4315b5	0.1905125
57	0x3cb9d114	0.022682704
58	0x3c2c976c	0.010534149
59	0xbe14b3a1	-0.14521648
60	0xbdcf8a76	-0.10133831
61	0x3e8ad353	0.27114353
62	0xbe746cf2	-0.23869684
63	0x3d670686	0.056402706
64	0xbe473ff4	-0.1945799
65	0x3e009e09	0.12560286
66	0x3db280e7	0.087159924
67	0xbdb2d927	-0.08732825
68	0xbdd4d813	-0.103927754
69	0xbc5bbc3b	-0.013411577
70	0x3db1c311	0.08679784
71	0xbe9144da	-0.28372842
72	0x3e929ae8	0.2863381
73	0x3d0fc10f	0.035096224
74	0x3d1be5f7	0.03806111
75	0xbd99409a	-0.07483025
76	0xbe164c46	-0.14677534
77	0xbd3eccd6	-0.046582066
78	0x3ae5f62f	0.0017544682
79	0xbe5c7357	-0.21528374
80	0x3c6c8e19	0.014438176
81	0xbe6a6b05	-0.22892387
82	0xbd8be3ff	-0.06830596
83	0x3d12f289	0.03587583
84	0x3da21b91	0.07915414
85	0x3db570f9	0.088594384
86	0x3dda6f38	0.106657445
87	0x3e1b7d8f	0.15184616
88	0xba8adda4	-0.0010594619
89	0xbd3b5320	-0.04573357
90	0xbd4015d1	-0.046895806
91	0x3df94c03	0.12172701
92	0x3d9a7fbc	0.07543895
93	0x3d9ce854	0.076615006
94	0x3c85b82a	0.016323168
95	0xbdeca6c1	-0.11555243
96	0x3c1c1935	0.009527494
97	0x3db9f523	0.09079959
98	0xbd3f466b	-0.046698015
99	0xbe9d2e75	-0.30699506
100	0xbe7b53f3	-0.24543743
101	0xbe314869	-0.17312779
102	0xbd01af2f	-0.03166121
103	0x3e804c3e	0.25058168
104	0xbd70907f	-0.058731552
105	0xbe055488	-0.13020527
106	0xbd572e37	-0.05253431
107	0x3c8a8bcd	0.016912365
108	0xbc854e68	-0.016272739
109	0xba9fa8a0	-0.0012180991
110	0xbe07d53b	-0.13264935
111	0x3dced2dd	0.10098813
112	0x3d434472	0.047672696
113	0xbdc8dac9	-0.09807355
114	0xbd474713	-0.048651766
115	0xbdc760a0	-0.09735227
116	0xbdf0e884	-0.11763099
117	0xbdfba0d1	-0.12286533
118	0xbe23bc03	-0.1598969
119	0x3ddd1118	0.10794276
120	0xbe25e0f3	-0.16199093
121	0x3ca34479	0.019930111
122	0x3db5ba44	0.08873418
123	0x3ba5832f	0.0050510387
124	0xbd45ca1c	-0.04828845
125	0x3e58a6d4	0.2115739
126	0xbd28ee40	-0.041242838
127	0x3deee9cc	0.11665687
128	0xbda4e32e	-0.080511436
129	0xbe2610b9	-0.16217317
130	0x3bfc37f5	0.0076971003
131	0xbe0d60bf	-0.13806437
132	0xbe58caf5	-0.21171172
133	0x3d668364	0.056277648
134	0x3df6fbaa	0.1205972
135	0x3e91e564	0.28495324
136	0xbe6c7b70	-0.23093963
137	0x3c583736	0.013196757
138	0xbd47fcb4	-0.04882498
139	0xbe9eccc5	-0.31015602
140	0xbe02d649	-0.12777056
141	0xbd55d81a	-0.052208044
142	0x3e380cec	0.1797368
143	0xbc117c5f	-0.00887975
144	0xbe420495	-0.1894706
145	0xbdd4793a	-0.10374685
146	0x3ec17a88	0.37788796
147	0x3db256fe	0.08707999
148	0x3bf99163	0.0076162084
149	0xbd86545f	-0.06559061
150	0x3d921a24	0.07133892
151	0x3cfdd910	0.030987293
152	0xbda79bc3	-0.08184006
153	0xbe49d7ba	-0.197112
154	0x3d8022b5	0.0625662
155	0xbe14796f	-0.14499448
156	0x3dc0aef1	0.094083674
157	0xbdca3fe7	-0.0987547
158	0x3de2f1ab	0.11081251
159	0xbda8da76	-0.08244793
160	0x3e0104de	0.12599513
161	0x3e0a6d6e	0.13518307
162	0xbc4f4bed	-0.012652379
163	0xbd46c572	-0.048528142
164	0x3d15cd35	0.036572654
165	0xbcf3ed4e	-0.029776242
166	0x3d97ab4f	0.074057214
167	0xbbbd41ac	-0.005775651
168	0xbe0a4c69	-0.1350571
169	0x3b8e33f6	0.0043396903
170	0x3e11b174	0.14227849
171	0x3e1ec5be	0.1550512
172	0xbe00366a	-0.12520757
173	0xbe324300	-0.17408371
174	0x3d7deb83	0.06199218
175	0x3e17d93d	0.14828964
176	0x3c89119b	0.016732028
177	0x3ce32ae8	0.02773042
178	0xbdc31107	-0.09524732
179	0x3ce656c5	0.028117547
180	0x3d9e0ed3	0.07717671
181	0x3b7d4361	0.0038644897
182	0xbe21e492	-0.15809849
183	0xbe9d829e	-0.30763716
184	0x3e33ec59	0.17570628
185	0xbe5336a5	-0.20626314
186	0x3d4dc7a7	0.05023923
187	0xbe246a89	-0.16056265
188	0x3c9ab75e	0.018886264
189	0xbdeb767a	-0.11497207
190	0x3c750106	0.014953857
191	0x3e228dbe	0.15874383
192	0xbda8366b	-0.082135044
193	0xbe2e9a7e	-0.17051122
194	0xbdb59d34	-0.08867875
195	0xbc904a36	-0.017613512
196	0x3e55a4c7	0.20863639
197	0x3b19af3d	0.0023450397
198	0xbcd6c7cb	-0.026218316
199	0xbdb65edf	-0.08904814
200	0xbdfdf85c	-0.124008864
201	0x3da04653	0.07825913
202	0x3e4f4b52	0.20243576
203	0xbd996dc9	-0.07491643
204	0xbd2c64ef	-0.042088445
205	0xbdc29887	-0.095017485
206	0x3d18e75b	0.037330013
207	0xbdc0bdbe	-0.094111905
208	0x3db916f5	0.09037582
209	0x3b2507bf	0.002518162
210	0x3db1dbd4	0.08684507
211	0x3e402ad8	0.18766344
212	0xbd1c420d	-0.03814893
213	0xbdc417a2	-0.0957482
214	0x3d628cf8	0.05531022
215	0xbccef7fe	-0.025264736
216	0x3e3858f1	0.18002678
217	0x3e6a6604	0.22890478
218	0x3d547554	0.051869705
219	0x3eb9a120	0.3625574
220	0xbd1ca27d	-0.0382409
221	0x3de6f247	0.112766795
222	0x3e15c4e2	0.14625886
223	0xbb24b15a	-0.0025130124
224	0x3d9b3be9	0.07579786
225	0xbd816d9d	-0.06319735
226	0x3e094232	0.13404158
227	0xbdbe7c26	-0.09301023
228	0x3e2ef897	0.17087017
229	0x3dd4b8f7	0.10386842
230	0x3d39e831	0.04538745
231	0xbe6908fe	-0.22757336
232	0xbda3a8b8	-0.07991165
233	0xbd562e25	-0.0522901
234	0xbe2a6431	-0.16639782
235	0x3c41e8b7	0.011835269
236	0xbc7aeb20	-0.015314847
237	0xbd4f7671	-0.050650064
238	0xbe0df509	-0.13863005
239	0x3d1c3411	0.038135592
240	0xbe84044e	-0.25784534
241	0x3e11f8fd	0.14255138
242	0x3dca1cc0	0.09868765
243	0xbebece7e	-0.37266916
244	0xbe27ce54	-0.16387302
245	0x3e42d0c0	0.19024944
246	0x3d4abf7d	0.049499024
247	0xbe3222db	-0.17396109
248	0xbd74ba84	-0.059748188
249	0x3d307a68	0.043085486
250	0x3d81d615	0.06339661
251	0xbe8e55f0	-0.2779994
252	0xbd8c101f	-0.06839012
253	0xbdcb89c2	-0.099383846
254	0xbd4a5a15	-0.049402315
255	0xbdd4a442	-0.10382892

network_body._body_endoder.seq_layers.2.bias f4 [256]
0	0xbcaaab16	-0.020833533
1	0xbc9a56d7	-0.018840237
2	0xbcf382b1	-0.029725404
3	0xbd1ed6e4	-0.038779154
4	0xbca1a791	-0.019733222
5	0xbc1cdfcc	-0.009574842
6	0xbd1c519d	-0.03816377
7	0xbce9a285	-0.028519878
8	0xbcfad27c	-0.030617945
9	0xbcf96aca	-0.030446429
10	0xbcf8d584	-0.03037525
11	0xbc812ae2	-0.015767518
12	0xbcabe086	-0.020981085
13	0xbc9b28bc	-0.018940322
14	0xbc756c9d	-0.014979509
15	0xbbd43741	-0.0064763133
16	0xbbbb69a3	-0.00571938
17	0xbd01f99b	-0.031732183
18	0xbcfed00b	-0.031105062
19	0xbcbba6c2	-0.022906665
20	0xbd0c2f12	-0.034224577
21	0xbce65b1d	-0.028119618
22	0xbcde0ebc	-0.027106635
23	0xbc7a5705	-0.015279536
24	0xbd09ad9d	-0.033612836
25	0xbd0bb2e6	-0.034106158
26	0xbc6fade9	-0.014628866
27	0xbc70aca8	-0.014689602
28	0xbccc41b8	-0.02493368
29	0xbd0543c1	-0.03253532
30	0xbc8883e2	-0.01666445
31	0xbcd29626	-0.025706362
32	0xbc855a16	-0.016278308
33	0xbcd4b6ac	-0.025966011
34	0xbc451530	-0.012028977
35	0xbd1c7982	-0.038201816
36	0xbd22ab43	-0.03971411
37	0xbc0ab59e	-0.0084661525
38	0xbcb97620	-0.022639334
39	0xbc7f8626	-0.015595948
40	0xbcf5599c	-0.029949956
41	0xbc5838ea	-0.013197163
42	0xbcdfe599	-0.02733116
43	0xbce193c7	-0.027536286
44	0xbd00da3f	-0.031458136
45	0xbd12bbf0	-0.035823762
46	0xbd009f0e	-0.031401686
47	0xbcabf75d	-0.020991975
48	0xbd1d51c3	-0.038408052
49	0xbcce708d	-0.025200153
50	0xbcacf961	-0.021115007
51	0xbbdb7d67	-0.0066982987
52	0xbcfc464a	-0.030795235
53	0xbca87d0e	-0.020567443
54	0xbcee3b08	-0.029080883
55	0xbd1c963a	-0.038229205
56	0xbd1841f8	-0.037172288
57	0xbceb9e6d	-0.028762067
58	0xba928bb7	-0.0011180554
59	0xbd10df2c	-0.035369083
60	0xbbbd3bb5	-0.00577494
61	0xbd046ae5	-0.032328505
62	0xbce454dd	-0.027872497
63	0xbd05cffe	-0.03266906
64	0xbc3f8c0c	-0.011691105
65	0xbc80f86d	-0.015743459
66	0xbcb74ec8	-0.022376433
67	0xbd19b13f	-0.03752255
68	0xbc1942f4	-0.009354342
69	0xbd007ee5	-0.031371016
70	0xbd1e5079	-0.038650963
71	0xbcb27a2f	-0.021786777
72	0xbd19f596	-0.037587725
73	0xbd320e9c	-0.043470964
74	0xbcd1430b	-0.025544664
75	0x3c230385	0.00994957
76	0xbc579c27	-0.013159788
77	0xbd04fd29	-0.032467995
78	0xbd07816d	-0.033082414
79	0xbce3a8b4	-0.027790405
80	0xbd31edf9	-0.04343984
81	0xbcd7f32e	-0.026361074
82	0xbd4d8fec	-0.050186083
83	0xbcbccc3f	-0.02304661
84	0xbd17397e	-0.036920063
85	0xbd0e0707	-0.03467467
86	0xbc8d0f29	-0.017219143
87	0xbd18650f	-0.037205752
88	0xbce4bcd2	-0.027922068
89	0xbc9f48f0	-0.019443959
90	0xbcc7c14f	-0.024384169
91	0xbc83a570	-0.016070098
92	0xbb978d44	-0.0046249945
93	0xbcbdea70	-0.023183078
94	0xbd140689	-0.036139045
95	0xbd078d5e	-0.033093803
96	0xbcbd7add	-0.023129875
97	0xbd04c225	-0.032411713
98	0xbd14f832	-0.03636951
99	0xbcf22ec6	-0.029563319
100	0xbc04e6cc	-0.008111667
101	0xbccf2f3f	-0.025291083
102	0xbd228ffb	-0.03968809
103	0xbd07d31e	-0.03316032
104	0xbcb6b692	-0.022303853
105	0xbd0c5194	-0.034257486
106	0xbc81bd5b	-0.015837362
107	0xbba84eec	-0.0051363613
108	0x3a1fee21	0.00061008526
109	0xbd0028e2	-0.03128899
110	0xbc83cf8d	-0.016090179
111	0xbcfb111d	-0.030647809
112	0xba12365c	-0.0005577558
113	0xbc84c9c6	-0.016209494
114	0xbc756658	-0.014978014
115	0xbcaf8e8b	-0.021430274
116	0xbce873a9	-0.028375464
117	0xbcef3b88	-0.029203191
118	0xbcd8645d	-0.026415044
119	0xbd1767aa	-0.036964096
120	0xbd0b7b1c	-0.034052953
121	0xbc2e6998	-0.010645293
122	0xbcfa8378	-0.030580267
123	0xbc6ba29f	-0.014382034
124	0xbd0efd04	-0.034909263
125	0xbaf02f3c	-0.0018324624
126	0x3a912fe6	0.0011076897
127	0xbcef6698	-0.029223725
128	0xbce946f4	-0.028476216
129	0xbce623df	-0.028093277
130	0xbcee8035	-0.029113868
131	0xbc32bb6e	-0.0109089445
132	0xbd1dad4b	-0.038495343
133	0xbcae5a49	-0.021283286
134	0xbd18f445	-0.03734233
135	0xbd057356	-0.032580696
136	0xbd03bfd8	-0.03216538
137	0xbc88e806	-0.0167122
138	0xbd0ab030	-0.03385943
139	0xbcdc06b8	-0.026858672
140	0xbc78cdf3	-0.015185821
141	0xbd2a865d	-0.041632045
142	0xbcb9b2ed	-0.022668326
143	0xbcd54fc6	-0.026039016
144	0x3aefdf96	0.0018300887
145	0xbcd31df3	-0.025771117
146	0xbcc24b07	-0.023717416
147	0xbd18398c	-0.037164256
148	0xbcced4fe	-0.025248047
149	0xbbfd114d	-0.0077230097
150	0xbcb6e74e	-0.022327092
151	0xbcfa8d15	-0.030584851
152	0xbc8b439a	-0.017000008
153	0xbd0c8e34	-0.034315303
154	0xbd1a7274	-0.037706807
155	0xbcdba450	-0.026811749
156	0xbc943c8c	-0.018095277
157	0xbd25d84f	-0.04048949
158	0xbcbbc3e6	-0.02292056
159	0xbc8b4f06	-0.017005455
160	0xbce0e5df	-0.027453361
161	0xbc494e7c	-0.012286779
162	0xbd028c56	-0.031872116
163	0xbc518847	-0.012788839
164	0xbd3be7b2	-0.04587526
165	0xbce41bdb	-0.027845314
166	0xbcec07b7	-0.028812272
167	0xbc0b9c39	-0.008521133
168	0xbd24da0c	-0.04024701
169	0xbcffee2a	-0.031241495
170	0xbbcd0f2a	-0.006257911
171	0xbc61bd06	-0.013777977
172	0xbb0178fe	-0.0019755955
173	0xbd153060	-0.036423087
174	0xbc889228	-0.016671255
175	0xbd062a2f	-0.032755073
176	0xbc5c7a4d	-0.013456893
177	0xbca27ac3	-0.019833928
178	0xbbeba1cc	-0.0071909185
179	0xbbf46237	-0.007457997
180	0xbc429a66	-0.011877632
181	0x3a103a39	0.000550184
182	0xbc409b99	-0.011755847
183	0xbc9b6129	-0.018967228
184	0xbcf02567	-0.02931471
185	0xbcb53902	-0.02212191
186	0xbc8239de	-0.015896734
187	0xbd1d88bc	-0.03846048
188	0xbcfec888	-0.03110148
189	0xbd173869	-0.03691903
190	0xbd23af52	-0.03996212
191	0xbcb2ade7	-0.021811439
192	0xbceced96	-0.028921884
193	0xbcf65d86	-0.030073892
194	0xbd0057f9	-0.031333897
195	0xbc9ac434	-0.018892385
196	0x3b8694fc	0.004107116
197	0xbcbf0dfc	-0.023322098
198	0xbd335162	-0.043778785
199	0xbc9f3a68	-0.01943703
200	0xbcaf9f16	-0.021438163
201	0xbc049fbb	-0.008094723
202	0xbc139a95	-0.009009023
203	0xbc15b559	-0.009137475
204	0xbbe6a9e7	-0.007039297
205	0xbcbeefc4	-0.023307689
206	0x3c09e35b	0.008416022
207	0xbbf4d93a	-0.0074721845
208	0xbcea0f11	-0.028571637
209	0xbc9580fc	-0.018249981
210	0x3c948155	0.018128077
211	0xbd060a6c	-0.032724783
212	0xbd215216	-0.039384924
213	0xbc950e4e	-0.018195298
214	0xbd1254a3	-0.035725247
215	0xbd36b681	-0.044607643
216	0xbd07a927	-0.0331203
217	0xbc4450d6	-0.011982163
218	0xbca422a2	-0.020036045
219	0xbd0198d0	-0.031639874
220	0xbca77e7f	-0.02044606
221	0xbc599561	-0.013280244
222	0xbba1f448	-0.0049424507
223	0xbcb9cc07	-0.022680296
224	0xbcc988ca	-0.024601359
225	0xbc89b82a	-0.01681145
226	0xbd1677da	-0.036735393
227	0xbcacfcfc	-0.021116726
228	0xbcc8eb5b	-0.024526289
229	0xbcc5fb6a	-0.024167735
230	0xbcfa6339	-0.030564891
231	0xbcfe4f16	-0.03104357
232	0xbcbe67cd	-0.023242855
233	0xbcd77531	-0.026300998
234	0xbcf2d2ed	-0.029641593
235	0xbc91c16b	-0.017792424
236	0xbd0f3661	-0.03496397
237	0xbd06a6f5	-0.032874066
238	0xbcfe6a76	-0.031056624
239	0xbcd552b4	-0.026040412
240	0xbc903b74	-0.017606474
241	0xbc9b2e4e	-0.018942978
242	0xbcd5faa1	-0.026120486
243	0xbcd12611	-0.025530847
244	0xbcf7d851	-0.030254515
245	0xbcc24902	-0.023716453
246	0xbd0fb7d5	-0.035087425
247	0xbd013dab	-0.03155295
248	0xbc54e35b	-0.012993659
249	0xbcd25ba0	-0.025678456
250	0xbd0aaf5a	-0.033858635
251	0xbcc35ae4	-0.023847051
252	0xbd028e35	-0.0318739
253	0xbc2a0156	-0.010376295
254	0xbd0cdc80	-0.034389973
255	0xbd10c2bf	-0.035341974

network_body._body_endoder.seq_layers.2.weight f4 [256, 256]
0	0x3c9abdf2	0.018889401
1	0x3d0e9e79	0.0348191
2	0xbccb1613	-0.0247908
3	0x3bac1a83	0.005252184
4	0x3d463a88	0.048395663
5	0x3c9800c2	0.018555049
6	0x3c604250	0.013687685
7	0x3cddc7ff	0.027072905
8	0x3d3f4054	0.046692207
9	0xbe105ce6	-0.14097938
10	0xbd9f83f6	-0.077888414
11	0x3d4609fb	0.048349362
12	0x3cdcddfb	0.026961317
13	0xbe19c713	-0.15017347
14	0x3d6b98ba	0.0575187
15	0xbd94ba8f	-0.07262146
16	0xbd6bdc2b	-0.057583015
17	0x3dab2391	0.08356393
18	0x3d73735c	0.059436187
19	0x3cd1c615	0.025607148
20	0x3d594d41	0.05305219
21	0xbdd5011b	-0.104006015
22	0x3d9bc73b	0.076063596
23	0xbd243690	-0.040091097
24	0xbd176e92	-0.036970682
25	0xbd94abce	-0.07259332
26	0xbc5fcba8	-0.013659395
27	0xbd990543	-0.07471707
28	0x3d9d7ac0	0.07689428
29	0x3d31cc2f	0.043407615
30	0xbc8eb54b	-0.017420432
31	0xbda3f2dc	-0.08005306
32	0x3d690372	0.05688805
33	0x3cada66c	0.02119752
34	0x3d43957f	0.047749992
35	0xbdc2c2f7	-0.09509843
36	0xbd55f724	-0.052237645
37	0xbc55d9d5	-0.0130524235
38	0x3cddd082	0.027076963
39	0x3d12e5ce	0.03586369
40	0xbc7569d7	-0.0149788475
41	0xbb7c302e	-0.0038480866
42	0xbd904be7	-0.07045727
43	0xbce34718	-0.027743861
44	0x3d0c7b3c	0.034297213
45	0xbd87bc89	-0.06627757
46	0x3d2b3cd1	0.041806046
47	0x3c143f9c	0.009048369
48	0xbde2fb3b	-0.11083075
49	0xbd6f0d58	-0.058362335
50	0x3cc56deb	0.024100265
51	0x3e096726	0.13418254
52	0x3d2eac7c	0.042644963
53	0x3d90ad28	0.07064277
54	0xbca80a22	-0.020512644
55	0x3d417f7c	0.04724072
56	0x3db696d6	0.089154884
57	0x3df04bac	0.11733183
58	0x3cc1a898	0.023639962
59	0x3d6c8df5	0.05775257
60	0x3c7dcd78	0.015490882
61	0x3d4dcdca	0.050245084
62	0xbd705c0c	-0.058681533
63	0x3d7e1050	0.062027276
64	0x3c51814b	0.0127871735
65	0xbc561ea0	-0.013068825
66	0xbcffc4af	-0.031221716
67	0xbd41dd62	-0.047330268
68	0x3d02fdcd	0.031980325
69	0x3c9fbf1e	0.019500311
70	0xbc001fe0	-0.0078201
71	0xbcfd5b01	-0.030927183
72	0xbda6f712	-0.08152594
73	0xbd3f8acd	-0.04676323
74	0x3ca7d102	0.020485405
75	0xbd02a420	-0.031894803
76	0xbce0a766	-0.027423572
77	0x3e15dc23	0.14634757
78	0x3dda525f	0.10660242
79	0x3dae3742	0.08506633
80	0xbd681ce1	-0.056668166
81	0x3db5d5c3	0.088786624
82	0xbcf5b7ed	-0.02999493
83	0xbbedc86b	-0.0072565577
84	0x3ca388b9	0.019962655
85	0x3dc1fe03	0.09472277
86	0xbdc76d04	-0.0973759
87	0xbd56b271	-0.05241627
88	0xbdccbeb9	-0.09997315
89	0x3dae1259	0.08499593
90	0xbdbe71b4	-0.09299031
91	0x3de91321	0.11380602
92	0x3d43dc27	0.047817376
93	0xbca180e3	-0.019714778
94	0x3c0aa734	0.008462716
95	0xbc1d9120	-0.00961712
96	0xbceb9da5	-0.028761694
97	0xbd70261d	-0.058630098
98	0x3d9a6f96	0.075408146
99	0xbc9a3713	-0.01882509
100	0x3d4dafdc	0.05021654
101	0x3db85038	0.089996755
102	0xbd916d63	-0.07100942
103	0x3e5d58dc	0.21615928
104	0x3bcd0283	0.006256403
105	0x3d13cd57	0.0360845
106	0x3c54f6ff	0.012998342
107	0x3dbdac1d	0.09261344
108	0x3d3eb4d6	0.046559177
109	0xbc70d09b	-0.014698173
110	0xbd5cc214	-0.053896025
111	0x3d7d37a8	0.061820656
112	0x3aa0ac29	0.0012258339
113	0x3d6b110b	0.0573893
114	0xbdad4d39	-0.08461995
115	0xbd44d12f	-0.048051056
116	0x3e01b8d6	0.12668166
117	0xbe026f3e	-0.12737748
118	0x3dd54777	0.104140215
119	0xbd852d9b	-0.06502839
120	0xbd5fdd60	-0.05465448
121	0x3ca25f67	0.019820882
122	0xbd3d7240	-0.046251535
123	0x3d93808f	0.07202255
124	0xbd19c33f	-0.037539717
125	0x3ce9c6dd	0.028537208
126	0xbded1ca8	-0.11577731
127	0xbc3782bf	-0.011200606
128	0x3c862d9c	0.01637917
129	0xbe11adac	-0.14226407
130	0x3c6c92a5	0.01443926
131	0xbd55c024	-0.052185193
132	0x3d4bfea4	0.04980339
133	0x3d8dfa38	0.06932491
134	0x3cadcf2f	0.021216957
135	0xbdd66851	-0.104691155
136	0xbc7acc48	-0.0153074935
137	0x3e16a663	0.14711909
138	0x3c6314db	0.013859953
139	0x3c5150dd	0.012775627
140	0x3c6fb49e	0.014630465
141	0x3cee71d0	0.029107004
142	0xbc569d96	-0.013099095
143	0x3d201980	0.03908682
144	0x3c57055e	0.013123838
145	0x3d3c835f	0.046023723
146	0x3e1ee6a4	0.1551767
147	0x3db7df50	0.0897814
148	0x3d10b90a	0.035332717
149	0x3d743759	0.059623096
150	0xbd32993d	-0.04360317
151	0xbe2c284b	-0.16812246
152	0x3dea16bf	0.1143012
153	0xbbfe7d73	-0.0077664196
154	0x3d275eeb	0.040862005
155	0xbc8dea36	-0.017323595
156	0x3d9aeb3c	0.07564399
157	0xbd6c3212	-0.05766494
158	0x3d11fc9c	0.035641298
159	0x3d5727f9	0.052528355
160	0x3ce9c9e4	0.028538652
161	0xbd921e79	-0.071347184
162	0xbd815221	-0.06314493
163	0x3b2c4a8a	0.0026289546
164	0xbc39ff99	-0.011352443
165	0x3c8a4342	0.016877774
166	0xbdd1b404	-0.102394134
167	0xbd1bf140	-0.03807187
168	0xbd55e5e0	-0.05222118
169	0xbdd20911	-0.102556355
170	0xbd89b61e	-0.06724189
171	0x3c9114eb	0.01771017
172	0x3ca97602	0.020686153
173	0xbdacd8f4	-0.08439818
174	0x3c80ac2e	0.015707102
175	0xbca9507b	-0.020668259
176	0x3d8b7504	0.06809428
177	0x3da20f27	0.07913046
178	0xbcab821a	-0.02093606
179	0xbd54ba3d	-0.051935423
180	0x3d02e418	0.03195581
181	0xbe0d7220	-0.13813066
182	0xbd115b28	-0.035487324
183	0xbd613159	-0.054978702
184	0xbe186e76	-0.14885888
185	0x3d64f987	0.05590203
186	0xbdb3c6ea	-0.08778174
187	0xbd69d5d0	-0.057088673
188	0xbd007014	-0.031356886
189	0xbddfffc6	-0.10937457
190	0x3ccd2c2d	0.025045479
191	0xbcfed28f	-0.031106262
192	0xbd7f0cbc	-0.062268004
193	0x3dc5b039	0.096527524
194	0xbafbdf34	-0.00192163
195	0xbcdae2e4	-0.026719518
196	0xbd0d99aa	-0.034570374
197	0xbbdaea30	-0.0066807494
198	0xbd80206c	-0.06256184
199	0xb82124ef	-3.841979e-05
200	0x3dc55daa	0.096370056
201	0xbcdc2594	-0.026873387
202	0xbbd8aba3	-0.0066122576
203	0xbbe53e97	-0.0069959867
204	0x3d98cf76	0.07461445
205	0xbddca031	-0.107727416
206	0x3c72b109	0.014812716
207	0xbce2cb36	-0.02768479
208	0x3d0478f0	0.032341897
209	0xbd84cec2	-0.064847484
210	0xbd9dc0a6	-0.077027604
211	0xbba746c8	-0.0051048733
212	0x3d4f512b	0.050614517
213	0x3ba40abe	0.0050061634
214	0x3c1d89a6	0.0096153375
215	0xbd52357c	-0.051320538
216	0x3c726699	0.014794969
217	0x3c1561de	0.009117572
218	0xbd2ad2b9	-0.041704867
219	0x3a7eb4ff	0.00097163016
220	0x3d5f42fc	0.05450724
221	0x3d0714d7	0.03297886
222	0x3d79d874	0.06099744
223	0x3d6ceb61	0.057841662
224	0x3d7918d8	0.06081471
225	0xbdb175bb	-0.086650334
226	0x3dfc671e	0.123243555
227	0xbd7cfc6d	-0.06176417
228	0xbd8509c6	-0.06496005
229	0x3cf83e82	0.030303244
230	0x3e1ee2f3	0.15516262
231	0xbd8edaa3	-0.069752954
232	0x3d46cf9b	0.04853783
233	0xbd73514e	-0.05940371
234	0x3dfaea78	0.122517526
235	0x3d0fc1a6	0.035096787
236	0x3d139068	0.03602639
237	0x3d30f71b	0.04320441
238	0x3d3901fa	0.0451679
239	0xbc8c97a3	-0.01716215
240	0xbd885fd3	-0.06658902
241	0xbda6ec45	-0.081505336
242	0xbd7427bb	-0.059608202
243	0xbd9a3459	-0.07529516
244	0xbb6709c3	-0.0035253621
245	0xbc3cdb33	-0.011526871
246	0x3c865bdb	0.016401222
247	0xbd63bbd8	-0.055599064
248	0x3e0875b6	0.13326153
249	0xbbfec6e8	-0.0077751763
250	0x3dbd5f63	0.09246709
251	0xbc965abe	-0.018353816
252	0xbe10c520	-0.14137697
253	0xbcea653d	-0.028612727
254	0x3d89c497	0.0672695
255	0xbd0beca0	-0.03416121

network_body._body_endoder.seq_layers.4.bias f4 [256]
0	0xbc27fce2	-0.010253163
1	0xbc00d4e8	-0.007863261
2	0xbd0b4208	-0.03399852
3	0xbc7bde3f	-0.015372812
4	0xbd30e1a5	-0.04318394
5	0xbd8aff16	-0.06786935
6	0x3b29b415	0.002589469
7	0x3c657272	0.014004337
8	0xbce51bd4	-0.027967371
9	0xbc1ecbf1	-0.009692178
10	0xbce71743	-0.028209334
11	0xbc991071	-0.018684598
12	0xbca0ad26	-0.019613814
13	0xbc885b9f	-0.01664525
14	0xbcc0ccca	-0.023535151
15	0x3b8c671b	0.004284752
16	0xbc8a5155	-0.016884485
17	0xbc73d9d8	-0.014883481
18	0xbd1d97c1	-0.038474802
19	0xbd2e83e3	-0.042606246
20	0xbc7e8e2b	-0.015536825
21	0xbb260f5b	-0.0025338742
22	0x3b97b695	0.00462992
23	0xbd5b8ffc	-0.05360411
24	0xbcb27b5b	-0.021787336
25	0xbce9c4d2	-0.028536234
26	0xbd4deb90	-0.050273478
27	0x3b34e54b	0.002760249
28	0xbb048bee	-0.0020225006
29	0xbcfd0385	-0.030885467
30	0xbd0702cc	-0.03296165
31	0xbd7237c6	-0.05913522
32	0xbcb3d174	-0.021950461
33	0xbc0c173b	-0.00855046
34	0xbc5aa015	-0.013343831
35	0xbc37ac39	-0.011210495
36	0xbbf644a0	-0.007515505
37	0xbcefa56f	-0.02925369
38	0xbd0dbef0	-0.03460592
39	0xbcb3c533	-0.021944618
40	0xbcde44f4	-0.027132489
41	0xbcb9d807	-0.022686018
42	0xbc9663ba	-0.0183581
43	0xbaf5b32e	-0.0018745416
44	0x3be8d101	0.0071049933
45	0xbd8c5679	-0.06852431
46	0x3c649146	0.0139506515
47	0xbce2b5c9	-0.027674573
48	0xbd86e448	-0.0658651
49	0xbbbfe8fa	-0.0058566304
50	0xbc4d078d	-0.012514007
51	0xbc204f8d	-0.009784591
52	0xbd1749dc	-0.036935672
53	0xbbdd8cad	-0.0067611546
54	0x3bf0a975	0.0073444196
55	0xbd290987	-0.04126885
56	0xbb974fc7	-0.0046176645
57	0xbcc9bf93	-0.024627483
58	0xbc3fbfb9	-0.011703425
59	0xbc250985	-0.01007307
60	0x3cc424e6	0.023943376
61	0xbd06c989	-0.032907043
62	0xbd15bb88	-0.036555797
63	0xba5e69d8	-0.00084844
64	0xbc9245a8	-0.01785548
65	0xbc38db1b	-0.011282708
66	0xbb01dee0	-0.0019816682
67	0xbcde00e9	-0.027100043
68	0x3ba4e91c	0.0050326716
69	0xbcf3fcd5	-0.029783646
70	0xbc52797d	-0.012846348
71	0xbd1e1f71	-0.038604204
72	0x3b91b4a1	0.0044465815
73	0xbcfab35e	-0.030603107
74	0xbcc73d33	-0.024321174
75	0x3b5b8f8b	0.0033502306
76	0xbd3aab83	-0.045573723
77	0xbd388c34	-0.045055583
78	0xbd96dca6	-0.07366304
79	0xbca065ca	-0.019579787
80	0xbca86c29	-0.020559387
81	0xbc808722	-0.015689436
82	0xbc20d6bb	-0.009816821
83	0xbc785387	-0.015156633
84	0xbccdd7e9	-0.025127368
85	0xbcc61f0f	-0.024184732
86	0xbd56f845	-0.052482862
87	0xbca70191	-0.02038649
88	0xbaf0fcbb	-0.0018385866
89	0xbcd023e8	-0.025407746
90	0xbbd08a26	-0.006364125
91	0xbd41670a	-0.047217406
92	0x3b14780c	0.0022654561
93	0xbd601a70	-0.054712713
94	0xbc576d22	-0.013148578
95	0xbcdf1f4b	-0.027236601
96	0xbd265da3	-0.040616643
97	0x39bd05e8	0.0003605329
98	0x3b96120d	0.0045797885
99	0xbc9db1f3	-0.019249892
100	0xbd7809af	-0.06055611
101	0x3c7dcf5b	0.015491332
102	0xbc35b300	-0.01109004
103	0xbd85e1c0	-0.06537199
104	0xbafb5899	-0.0019176184
105	0x3bea52d2	0.007150986
106	0x3ad5ddfa	0.0016316765
107	0xbd2e75a9	-0.04259268
108	0xbb3c959f	-0.0028775705
109	0xbc5d3c91	-0.01350321
110	0xbbde66fa	-0.006787178
111	0x3bacc09b	0.005271984
112	0xbc946653	-0.018115198
113	0xbc48e2d4	-0.012261111
114	0xbaa35dac	-0.001246383
115	0x3c369f0a	0.011146316
116	0x3be9a440	0.007130176
117	0xbc60ea63	-0.013727757
118	0xbb104700	-0.0022014976
119	0xbc9a6279	-0.018845784
120	0xbce2a023	-0.02766425
121	0x3b3b3f92	0.0028571826
122	0xbb67bda2	-0.0035360833
123	0xbc8e08e8	-0.017338231
124	0xbc24da01	-0.010061742
125	0xbc546846	-0.012964314
126	0x3c5384ae	0.012910051
127	0xbd5200c0	-0.051270247
128	0x3b026c3a	0.0019900934
129	0xba11ea34	-0.000556621
130	0xbca592fc	-0.02021169
131	0xbc7b04b2	-0.015320944
132	0x3c2b6c86	0.010462886
133	0xbc4dd6ee	-0.01256345
134	0xbbb69d23	-0.0055729314
135	0x3c41958c	0.01181544
136	0xbc97c00c	-0.018524192
137	0xbd0a8d32	-0.03382606
138	0xbd411e14	-0.047147825
139	0xbc86287e	-0.01637673
140	0xbd5656f9	-0.052329037
141	0x3c034df5	0.008014192
142	0xbd2ef8e6	-0.042717837
143	0xbc83d60c	-0.016093276
144	0xba96e401	-0.0011512042
145	0xbca3a187	-0.019974483
146	0xbc9677d3	-0.018367684
147	0xba9f2729	-0.0012142408
148	0xba99a198	-0.0011721132
149	0xbd44bc0f	-0.04803091
150	0xbc422bb5	-0.011851241
151	0xbcc69cfe	-0.024244782
152	0xbbc410e8	-0.0059834607
153	0xbca7a99c	-0.020466618
154	0xbcba5e5f	-0.022750078
155	0xbd1c02e6	-0.0380887
156	0xbcd36473	-0.025804734
157	0xbc9d23d0	-0.019182116
158	0xbc7ab1fd	-0.015301225
159	0xbd493d65	-0.049130816
160	0xbbffe6c6	-0.0078094928
161	0xbbe8a9e7	-0.007100332
162	0x38c7a045	9.518912e-05
163	0xbd6e0599	-0.058110807
164	0xbcce0971	-0.025150986
165	0xbb1190cf	-0.0022211557
166	0xbc98f770	-0.018672675
167	0xbcf48128	-0.029846743
168	0x3a3b00f3	0.00071336253
169	0xbba8f8cd	-0.0051566125
170	0xbc97a963	-0.018513387
171	0x3bb3a657	0.0054824757
172	0xbcb2966f	-0.021800248
173	0xbcc54e4e	-0.02408519
174	0xbd33b562	-0.043874152
175	0xbc96e3f9	-0.018419253
176	0xbcded6fd	-0.027202124
177	0xbc17f490	-0.009274617
178	0xbd05cdb2	-0.03266687
179	0xba88544c	-0.0010401099
180	0xbc0aa2d9	-0.0084616775
181	0xbb3da11e	-0.0028935145
182	0xbd337da8	-0.043821007
183	0xbc772713	-0.015085
184	0x3bab1e16	0.0052220924
185	0xbcd9d86d	-0.026592458
186	0xbc23e70e	-0.010003818
187	0xbb885a21	-0.004161135
188	0xbd5fe224	-0.054659024
189	0xbd9d127e	-0.07669543
190	0xbc31088f	-0.010805263
191	0x3ba1806a	0.004928638
192	0xbc7194de	-0.014744965
193	0x3be10f39	0.0068682698
194	0xbcf73be8	-0.030179933
195	0xbd3207ba	-0.0434644
196	0x3ba06d0a	0.004895811
197	0xb9d9d204	-0.0004154594
198	0xbc702da8	-0.014659323
199	0xbc5cab60	-0.013468593
200	0xbbeddd67	-0.007259059
201	0xbbf7efde	-0.007566436
202	0x3c217df3	0.009856689
203	0xbc14c143	-0.00907928
204	0xbd0c612c	-0.034272358
205	0x3c91648d	0.017748142
206	0xbc974e02	-0.018469814
207	0xbba919db	-0.005160553
208	0xbc82ec5e	-0.01598185
209	0xbccd4b65	-0.025060365
210	0xbcab83a1	-0.020936789
211	0xbcc392ee	-0.023873772
212	0xbb14980a	-0.002267363
213	0xbcd51a5f	-0.026013551
214	0xbaee1a3e	-0.001816578
215	0xbc8b4f91	-0.017005714
216	0xbc4d502e	-0.012531323
217	0xbc8a9928	-0.016918734
218	0xbb08e086	-0.002088578
219	0x3cf45a0a	0.02982809
220	0xbb6fdaa1	-0.003659882
221	0xbd4a751b	-0.049428087
222	0x3c1f8a48	0.009737559
223	0xbcc113f0	-0.023569077
224	0x3c6f0f78	0.01459109
225	0xbc7f7720	-0.015592366
226	0x3bc4b25c	0.0060027074
227	0xba14465e	-0.00056562375
228	0xbcced997	-0.02525024
229	0xbd44dfb4	-0.048064902
230	0xbc80d960	-0.015728652
231	0xbc924741	-0.017856242
232	0xbc1316d3	-0.00897761
233	0xbcb08326	-0.021546911
234	0xbd0423cb	-0.032260697
235	0xbb12563e	-0.0022329236
236	0xbc1a81ab	-0.009430329
237	0xbccc52a3	-0.024941748
238	0xbcc31245	-0.023812423
239	0xbc3a27c9	-0.011362025
240	0xbcbf6ce5	-0.023367355
241	0x3c1c0b10	0.009524122
242	0xbcd364ba	-0.025804866
243	0x3b4c253b	0.003115012
244	0xbc4e8088	-0.012603886
245	0xbce4ffe6	-0.027954053
246	0xbd4245af	-0.047429737
247	0xbbb681e6	-0.0055696843
248	0x3bbd3dfc	0.0057752114
249	0xbd1cca0f	-0.038278636
250	0xbd7acc72	-0.06123013
251	0xbc57006d	-0.01312266
252	0xbccd3a0e	-0.025052097
253	0xbcf87be2	-0.03033251
254	0xbc28c8a5	-0.010301744
255	0x3badb727	0.0053013745

network_body._body_endoder.seq_layers.4.weight f4 [256, 256]
0	0x3b6ab5c7	0.0035813914
1	0x3c13e0e9	0.009025791
2	0x3c76f5a5	0.015073215
3	0xbcc1ae40	-0.02364266
4	0x3d1d1805	0.038352985
5	0xbd367d49	-0.044553075
6	0x3d88911f	0.06668305
7	0x3d36afac	0.044601128
8	0x3d328f9d	0.04359399
9	0xbdcec18f	-0.10095512
10	0xbcb9be5a	-0.022673775
11	0x3d41243b	0.047153693
12	0x3d785d03	0.060635578
13	0xbc313cff	-0.010817765
14	0x3d6f18d2	0.05837328
15	0x3b996976	0.0046817614
16	0x3d8f2a7d	0.06990526
17	0x3c3b96ee	0.011449559
18	0xbda8126e	-0.0820664
19	0xbde51189	-0.11184985
20	0x3d451693	0.04811723
21	0x3d9228ef	0.07136714
22	0xbc97f7ca	-0.018550772
23	0xbba35579	-0.0049845544
24	0x3cba0395	0.022706786
25	0x3cde46a0	0.027133286
26	0x3b375266	0.0027972697
27	0xbe071328	-0.13190901
28	0xbd86b3f4	-0.06577292
29	0x3c57bb5b	0.013167228
30	0xbb7a4505	-0.0038188112
31	0xbca98a4a	-0.020695824
32	0x3c188f7b	0.009311552
33	0x3d09385e	0.03350102
34	0xbd678e0d	-0.056531955
35	0xbd03eead	-0.03221004
36	0xbce729e0	-0.02821821
37	0xbc4da886	-0.012552386
38	0xbdb8a504	-0.09015849
39	0xbc2a7f6e	-0.010406358
40	0xbb5db990	-0.0033832528
41	0xba676105	-0.0008826408
42	0x3c85f640	0.016352773
43	0x3cf3eaa8	0.029774979
44	0x3aca3172	0.0015426113
45	0x3da09497	0.07840841
46	0x3c1af2f7	0.009457341
47	0xbc94ed8a	-0.018179674
48	0xbdf3def0	-0.11907756
49	0xbd8fe28f	-0.070256345
50	0xbd9a3e75	-0.07531444
51	0x3dadfdbd	0.08495662
52	0xbd97658f	-0.07392418
53	0x3cee629b	0.029099753
54	0x3d19e55c	0.03757225
55	0x3dabeb6e	0.08394514
56	0x3c8ba381	0.017045738
57	0x3cae9d3f	0.021315215
58	0x3d95dff2	0.07318105
59	0x3dde4194	0.10852352
60	0xbdf06a77	-0.117390566
61	0xbd5ee90b	-0.054421466
62	0xbd7bf18a	-0.061509646
63	0x3d9ad33f	0.07559823
64	0xbdc6f799	-0.09715194
65	0xbcdad907	-0.026714815
66	0xbd6f9a32	-0.05849666
67	0xbd3a03a2	-0.04541362
68	0x3d04ecb4	0.0324523
69	0x3b0813cd	0.0020763755
70	0x3b6e49b5	0.003635985
71	0xbbddc999	-0.006768417
72	0x3c43059b	0.011903192
73	0xbca5963a	-0.020213235
74	0x3d66222a	0.056184925
75	0x3e4088da	0.18802205
76	0x3c839a53	0.016064798
77	0x3dfdfc5a	0.12401648
78	0xbd8786ef	-0.066175334
79	0xbd8cfcf8	-0.068841875
80	0x3bf46e75	0.0074594566
81	0x3d5626e9	0.0522832
82	0x3ce27966	0.027645778
83	0xbd004de8	-0.031324297
84	0x3dd21fc3	0.10259964
85	0xbdb7246b	-0.08942493
86	0xbc97ead8	-0.0185446
87	0x3cacefd1	0.021110447
88	0xbd1a19e9	-0.037622366
89	0xbc567be7	-0.013091064
90	0xbdb330bf	-0.08749532
91	0xbd514e90	-0.051100314
92	0x3c9ecc01	0.019384386
93	0xba87e0a1	-0.0010366627
94	0x3c988a52	0.018620644
95	0xbd09917c	-0.03358601
96	0xbcd1e15a	-0.025620151
97	0x3d5b972b	0.053610962
98	0xbdc83f36	-0.097776815
99	0x3c9db5d7	0.019251747
100	0x3d5eac98	0.054363817
101	0xbcc32728	-0.023822382
102	0x3c4b41eb	0.012405853
103	0xbb8d44f6	-0.0043111993
104	0x3db9f232	0.09079398
105	0xbe19962f	-0.14998697
106	0xbd7b2072	-0.06131024
107	0x3bfdd28b	0.007746046
108	0xbd9d0b9b	-0.07668229
109	0x3d9dcc32	0.07704963
110	0xbc622ea4	-0.013805065
111	0xbd33f773	-0.043937158
112	0x3d1c7d3d	0.038205374
113	0x3dc31c61	0.09526897
114	0x3d0509cf	0.032480057
115	0xbd3c0c1f	-0.045909997
116	0x3c26d183	0.010181787
117	0xbc628694	-0.013826031
118	0x3c370813	0.011171359
119	0x3d0eee7c	0.034895405
120	0x3d5f7f07	0.054564502
121	0xbcb2f97c	-0.021847479
122	0xbd118f3b	-0.035536986
123	0xbdb97414	-0.09055343
124	0xbd42a8a0	-0.047524095
125	0xbd34ce27	-0.044141915
126	0x3c032e2a	0.008006612
127	0xbc28c008	-0.01029969
128	0x3e023ca6	0.12718448
129	0xbdd552f3	-0.10416212
130	0xbc6c3997	-0.014418027
131	0xbcbb6b55	-0.022878328
132	0xbdc588d3	-0.09645238
133	0x3b85618e	0.0040704673
134	0x3d733140	0.05937314
135	0x3dbfc673	0.09364023
136	0xbdd4a340	-0.103827
137	0xbdc8f8b0	-0.098130584
138	0xbcc65d8c	-0.024214529
139	0x3d49ea14	0.0492955
140	0xbd5fa7bb	-0.05460332
141	0xbc09c603	-0.008409026
142	0x3d4c8e60	0.049940467
143	0xbd64e65b	-0.055883747
144	0xbd936e9e	-0.07198833
145	0xbd0f69e6	-0.035013102
146	0xbd8e9264	-0.069615155
147	0xbdc37a1c	-0.09544775
148	0xbdbbf977	-0.09178441
149	0xbc303026	-0.010753667
150	0x3d7ead92	0.06217725
151	0xbc7089a1	-0.014681251
152	0xbdb49329	-0.08817131
153	0xbd6f227d	-0.0583825
154	0x3d163adb	0.036677223
155	0xbb3b24aa	-0.002855579
156	0xbc991381	-0.018686058
157	0x3d3f9c4d	0.04677992
158	0xbd5e1938	-0.05422327
159	0xbd9ec097	-0.07751577
160	0xbd2140cb	-0.039368432
161	0x3d2ed291	0.04268128
162	0xbd010b61	-0.031504992
163	0xbb8d8ede	-0.0043200096
164	0x3ae26e6b	0.0017275339
165	0x3cba5f97	0.022750659
166	0x3d44c857	0.04804262
167	0xbd0b9057	-0.0340732
168	0xbd02eb02	-0.031962402
169	0x3d015e56	0.031584106
170	0x3cdac4a3	0.026705092
171	0x3da58097	0.08081167
172	0xbd2c115a	-0.042008735
173	0x3c0c6c98	0.008570813
174	0x3d8d2eea	0.06893714
175	0x3d04c260	0.032411933
176	0x3d438b68	0.04774037
177	0x3cc650ef	0.024208514
178	0x3ca4847d	0.020082707
179	0x3db16563	0.08661916
180	0x3da46ccf	0.08028566
181	0xbcda73d8	-0.026666567
182	0xbdbbf79c	-0.09178087
183	0xbdbeb91b	-0.0931265
184	0xbc6a56f9	-0.014302962
185	0xbd0bec9c	-0.034161195
186	0xbc565a78	-0.013083093
187	0x3d4280a9	0.04748598
188	0xbd069590	-0.032857478
189	0xbc04ae90	-0.00809826
190	0x3c5b585e	0.013387768
191	0xbddfa483	-0.1092005
192	0x3d869d01	0.06572915
193	0x3bc56751	0.006024279
194	0x3cb03500	0.021509647
195	0xbd8f6bf9	-0.07003016
196	0x3d656ba8	0.056010872
197	0x3d417f5d	0.047240604
198	0x3e083c48	0.13304245
199	0xbe04326e	-0.12909862
200	0x3d67ab55	0.05655988
201	0x3d9a0d57	0.075220756
202	0xbaf04e32	-0.0018333851
203	0x3b56413b	0.003269269
204	0xbc2f4c7b	-0.010699387
205	0x3d7d202f	0.06179827
206	0xbdef7dae	-0.116938934
207	0x3daa509a	0.08316155
208	0x3c51f702	0.012815239
209	0xbd3640be	-0.044495337
210	0xbdb34d49	-0.08754975
211	0xbe11d211	-0.1424029
212	0x3d3a89cb	0.045541566
213	0x3dac5b5c	0.08415863
214	0x3db55819	0.08854694
215	0x3d51d40c	0.051227614
216	0xbcda1d0a	-0.026625175
217	0xbdb5a0b4	-0.08868542
218	0xbdc49526	-0.0959876
219	0xbbd7a865	-0.0065813535
220	0x3d39caa1	0.045359258
221	0x3c54d4c7	0.012990183
222	0x3d633a66	0.055475615
223	0xbde1734b	-0.110083185
224	0xbdb6f7f8	-0.08934015
225	0x3bb33feb	0.005470266
226	0xbcd7b2c3	-0.026330357
227	0xbcde299d	-0.027119452
228	0x3dd26921	0.10273958
229	0xbc035fab	-0.0080184145
230	0x3d236e5f	0.03990018
231	0xbda93cf1	-0.08263577
232	0xbc788a07	-0.015169627
233	0x3c895854	0.016765751
234	0x3d6f35a3	0.05840076
235	0x3c916a8f	0.017751006
236	0x3d0f8f25	0.035048623
237	0x3c9b6791	0.018970283
238	0xbd57e26b	-0.052706163
239	0xbca5c726	-0.020236563
240	0xbcba9d79	-0.022780167
241	0xbcabc44a	-0.020967621
242	0xbd643b64	-0.0557207
243	0x3c6ea012	0.014564531
244	0x3e07b722	0.13253453
245	0xbb881f71	-0.0041541387
246	0x3de7ed3a	0.11324544
247	0xbd3ccdbf	-0.046094652
248	0xbdff9c16	-0.12480943
249	0xbd45d7c3	-0.04830147
250	0xbdff84f3	-0.1247653
251	0x3d5680b5	0.05236884
252	0x3c9afb63	0.018918699
253	0xbc7ff8c4	-0.015623275
254	0xbd5421d5	-0.051790077
255	0x3c9c36a1	0.019069018
