results/Test03/MoveToGoal/MoveToGoal-461737.onnx (onnx, 846455 bytes, 11 tensors)

action_model._continuous_distribution.log_sigma f4 [1, 2]
000000 39 46 b2 bb d8 fc 6b bc
       -0.0054405 -0.014403544

action_model._continuous_distribution.mu.bias f4 [2]
000000 4d 50 88 bb 59 08 ca bb
       -0.004159963 -0.006165546

action_model._continuous_distribution.mu.weight f4 [2, 256]
000000 34 31 02 3c b8 3f 6b 3c 56 71 7f bb 91 f9 f1 3c
       0.007946301 0.014358453 -0.0038977466 0.029537948
000010 a5 a3 08 3d e5 0a 21 3c 3a d3 6d 3c d6 ec 03 bb
       0.03335919 0.009829258 0.014515692 -0.002013018
000020 8b 2e 48 bc 49 94 a9 3b 8f 5c c2 bc 5e 81 7d 3c
       -0.012218128 0.0051751477 -0.023725776 0.015472738
000030 e5 33 18 3d bd 28 b2 3b aa e5 07 3c 35 be 54 3c
       0.037158865 0.0054369853 0.008294502 0.012984802
000040 08 b7 eb bc 0a 98 fb 3b 84 c9 83 3c 43 73 f7 bb
       -0.0287738 0.0076780366 0.016087301 -0.007551582
000050 8e 26 0d bc fa 46 01 3b ac a9 15 3c af c0 b1 bb
       -0.008615149 0.0019726143 0.009134691 -0.005424581
000060 2e 2e dd ba c6 03 20 3b 22 00 cb bb 66 05 70 3b
       -0.0016874725 0.0024416312 -0.006195084 0.0036624311
000070 a7 8b ea 3b 59 e7 eb 3b eb 21 e4 39 a0 05 53 3c
       0.007157761 0.0071992096 0.0004351282 0.012879759
000080 56 4d e7 3c 80 a2 90 3c 8f c9 c5 ba bf d7 41 bc
       0.028235119 0.017655611 -0.0015089976 -0.011831223
000090 7d 2e 0d 3b f6 ec 89 3a 2f d2 6f bb 81 cc f4 3b
       0.0021542602 0.001052289 -0.0036593785 0.007470668
0000a0 94 78 e2 bb 04 e9 93 3c de 0f b0 bb fe 49 86 3b
       -0.0069113467 0.018055446 -0.0053729853 0.004098176
0000b0 8f 1c 64 3a f4 97 86 3c 8e f0 ba bb ce 0e 8a bb
       0.00087017653 0.016429879 -0.005704946 -0.0042131906
0000c0 62 d4 7d 3b 83 a2 79 3c 5e d8 f7 3a 2b 1c b9 3c
       0.0038731326 0.0152365 0.0018909087 0.02259644
0000d0 2c c0 6c bc 09 8b 16 3c 69 49 95 ba 73 83 70 3c
       -0.014450114 0.009188422 -0.0011389676 0.014679777
0000e0 15 bf 77 3c 63 a0 9a bb 56 3c 43 bc de c1 6d bc
       0.015121241 -0.0047188266 -0.011916241 -0.014511554
0000f0 5b 87 53 3c dc 83 3e bc 22 9d 05 bd 10 e2 b9 ba
       0.012910689 -0.011628117 -0.032620557 -0.0014181752
000100 a7 a1 e9 3b 69 4f 9f ba 9f d7 41 bb 94 e3 97 3c
       0.007129866 -0.0012154403 -0.0029577983 0.018541135
000110 69 97 b9 ba dd 4c 99 3c a3 3d e7 3b b2 d4 97 bb
       -0.0014159504 0.01871341 0.007056908 -0.0046335096
000120 04 48 a3 bb 7c 9e 3a bc 78 34 11 bc 20 da 32 3c
       -0.00498295 -0.011390325 -0.008862607 0.010916263
000130 23 a9 f0 bb 73 0e 0e 3c 81 f3 aa 3c 87 c0 f5 3b
       -0.0073443814 0.008670437 0.020868065 0.0074997577
000140 13 f0 af 3c 17 fb c2 3c 5b c7 8e 3c e6 fe 22 3b
       0.021476781 0.02380137 0.017429044 0.002487117
000150 e8 8e b3 3b ba f4 68 ba af b9 84 3b d8 85 0a bc
       0.0054796822 -0.0008886565 0.0040504555 -0.008454762
000160 ff df 0a 3c 1f 2c 58 bb 1c 41 c1 3c e7 d5 a7 bb
       0.008476256 -0.0032985283 0.023590617 -0.0051219347
000170 1d 9d 4a 3b 8c bb 60 bc 84 55 27 bc 87 07 5b 3b
       0.00309164 -0.01371659 -0.01021326 0.0033421235
000180 24 f9 13 3c 51 0f 21 3c bf a9 d4 3c ce d6 a9 3b
       0.009031568 0.009830312 0.025959847 0.0051830774
000190 4a fd 91 39 5b 16 f4 bc 1c 16 8e 3b ac 18 be ba
       0.0002784527 -0.029795816 0.0043361317 -0.0014503202
0001a0 d1 94 88 bc 98 6d 56 bc ce 42 b1 3c 37 12 6a 3c
       -0.016672524 -0.013087653 0.0216383 0.014286569
0001b0 9e 77 b6 3b 97 73 07 bc 5f 98 84 3c 5d b0 aa 3c
       0.0055684587 -0.008267305 0.016185937 0.02083605
0001c0 cb d7 e7 ba e1 3f a4 3b 2a b6 aa 3c d5 9d 68 3c
       -0.0017688213 0.005012498 0.020838816 0.014197786
0001d0 1a 0b aa 3c 7e f5 17 3c 75 18 a4 3c 6d 1a 8f b9
       0.020757247 0.0092748385 0.020031193 -0.00027294774
0001e0 27 de 58 bc 97 d1 5e 3c 3c 5f ee 3b c0 b7 a5 3b
       -0.013236559 0.013599775 0.0072745364 0.005057305
0001f0 cd 5a ef bb c7 4d a9 3b 6e d2 ad 3b 90 3d bd 3c
       -0.0073045255 0.0051667425 0.005304626 0.023100644
000200 de e1 d8 bc 91 b5 1d 3b 5a af 6d 3c 78 a7 05 bc
       -0.02647489 0.002406452 0.014507139 -0.008157603
000210 03 bd 69 3b 8b cb 13 3b b4 db 86 bc 66 b7 e3 bb
       0.0035665638 0.002255174 -0.016462184 -0.006949353
000220 66 2d 80 bb 57 66 a5 b9 56 31 c1 3c 63 0b ab 3c
       -0.003911662 -0.00031547502 0.023583096 0.020879453
000230 06 11 99 bc ba e5 3b bb ec 58 b4 3c 7a 5f 91 3c
       -0.018684875 -0.0028670863 0.022015058 0.017745722
000240 a9 2b ff 3c b5 5d 7e 3a 50 ec fc bb 67 f0 06 3c
       0.031148748 0.00097032945 -0.0077186003 0.008236027
000250 26 58 8a bb 10 26 b0 bc 58 1a a5 3b 3f ba aa bc
       -0.004221934 -0.021502525 0.005038541 -0.020840762
000260 28 7c 08 3c ae 5e f7 3c ec ed b5 3c 4a eb 55 3b
       0.008330382 0.030196514 0.022208177 0.0032641464
000270 8d 6b 3e 3c af 56 7c bc 9f 8b 51 3b 7f 0f 8b bb
       0.011622322 -0.015401526 0.003197409 -0.0042437906
000280 2e 1a a9 3a 11 8d 52 3c 3f 7e 80 3c c1 d2 68 bb
       0.0012901479 0.012851016 0.015685199 -0.003552601
000290 c4 b5 15 bc f7 59 65 bc 83 c6 bb 3c 59 25 1a 3c
       -0.009137575 -0.0139985 0.022921806 0.009408318
0002a0 ee 8c 87 3c 0d 67 81 3b cd 20 cb bb 60 c7 83 3b
       0.016546693 0.003949052 -0.0061989785 0.00402157
0002b0 f7 2e 13 3c 9a 12 0a 3c 60 a5 6f bb 38 22 d8 bb
       0.008983365 0.0084272865 -0.0036567077 -0.006595876
0002c0 f8 88 4a 3a 8a ad c6 3c 63 b9 a9 bb d4 06 43 bc
       0.00077260984 0.024252672 -0.0051795705 -0.011903483
0002d0 79 be bc 3b 40 d8 1c 3c a3 8f 85 bb b2 b9 48 3c
       0.005760011 0.009573042 -0.0040759607 0.012251304
0002e0 3d 8e d9 ba 5f a7 2c 3c da 10 7d 3a 55 50 99 bb
       -0.0016598176 0.010537951 0.0009653695 -0.004678766
0002f0 73 6c 7b bb 7c 3b 28 bb 14 54 9d b9 06 94 57 3b
       -0.0038364201 -0.002567022 -0.00030008017 0.0032894625
000300 7b 08 31 3b c5 5e 27 3d 12 1d bc bb db 49 8c bc
       0.0027013111 0.040861864 -0.00574077 -0.01712506
000310 8e 03 63 3c 97 60 83 bb 3f 47 e1 3b 7c 48 96 bc
       0.013855828 -0.004009317 0.0068749483 -0.01834511
000320 df 15 23 3c 27 87 37 bb 58 0d 05 bc 13 2a 51 3c
       0.009953945 -0.002800414 -0.008120857 0.012766379
000330 2a 68 98 ba 62 c6 09 bc b8 50 1e bb 19 08 3d bb
       -0.0011627723 -0.008409115 -0.0024157 -0.0028843938
000340 6b 84 04 3b 9f 76 ab 3c b1 b8 4a 3b 04 6a 1a ba
       0.0020220529 0.020930586 0.0030932839 -0.00058904313
000350 76 1f 42 3c ad 65 f6 3b 39 77 a7 bb 4f 8f 24 3c
       0.011848321 0.007519445 -0.005110648 0.010043933
000360 1c 6b c2 3b c9 e4 6e bc b4 1a 88 3c 14 44 4b 3c
       0.0059331786 -0.014580914 0.016614296 0.012406368
000370 10 02 a1 bc 36 bb 36 bb 9b a6 dc 3a 6f 7d 0d 3c
       -0.019654304 -0.0027882583 0.001683432 0.008635863
000380 6f c7 77 bb 65 60 d6 bb 66 23 a8 3b f2 31 d1 3a
       -0.003780808 -0.006542253 0.005131173 0.001596032
000390 db 82 1a 3a 24 57 15 bb 1d ee 12 bc 1a ea f2 bc
       0.0005894133 -0.0022787536 -0.008967903 -0.029652644
0003a0 5e ea 98 bb f4 88 64 bc bb 11 9b bb fd c9 75 3c
       -0.0046666106 -0.013948668 -0.0047323382 0.015001771
0003b0 a8 54 a4 3c 0c 98 b8 ba ce 9e 55 bc f2 2e 1b bd
       0.020059898 -0.00140834 -0.01303835 -0.037886567
0003c0 0f bb 84 3b bb d0 55 bb 16 0a 79 3c fc b4 ae 3c
       0.0040506194 -0.0032625634 0.015200159 0.021326534
0003d0 26 02 26 bc 2e 36 12 bc e2 a6 83 bc 73 42 20 3b
       -0.010132348 -0.00892405 -0.016070787 0.002445367
0003e0 e9 0a 26 3c be 4a 36 bb 39 73 87 39 3d 07 9b 3c
       0.010134437 -0.0027815546 0.00025835054 0.01892435
0003f0 a1 5b 38 3c 02 6a 3d bc 7f 7b 1c 3d 77 4b 9b 3b
       0.011252315 -0.011560919 0.038203713 0.0047392207

network_body._body_endoder.seq_layers.0.bias f4 [256]
000000 87 b9 c9 b9 06 2c d4 bb 16 63 ca bb e6 1d 70 bb
       -0.00038475936 -0.0064749746 -0.0061763627 -0.0036638915
000010 d9 6c 09 bb 35 d7 5b bb 72 3a 31 bb f0 d8 88 ba
       -0.002096942 -0.0033545021 -0.0027042893 -0.0010440629
000020 f9 b3 d5 3a f1 c5 ea ba 51 c4 6d bb 34 6f 06 bb
       0.0016304246 -0.0017911774 -0.0036280344 -0.002051306
000030 28 90 49 bb 19 4f 7b 3a ef 93 aa ba 81 c7 d4 bb
       -0.003075609 0.00095866766 -0.0013014058 -0.0064935093
000040 fd de 75 3b a7 4b b9 ba f6 a0 df ba 14 55 57 bb
       0.0037516945 -0.0014136926 -0.001706152 -0.0032857107
000050 43 de 33 bb 6d 51 93 39 c9 57 22 bc 2b d8 19 bc
       -0.002744571 0.00028098692 -0.009908625 -0.009389917
000060 35 88 33 bb 73 ad b6 3a 80 09 ec bb 7f 59 0c bb
       -0.0027394418 0.001393719 -0.007203281 -0.0021415649
000070 3d 38 01 b9 71 8a c8 ba 60 7e 09 bb 6a 23 93 ba
       -0.00012323349 -0.0015300048 -0.0020979866 -0.0011225764
000080 0a 83 be 3a de 72 b0 3b b8 7e ce ba 08 8e b4 bb
       0.0014534902 0.005384787 -0.0015754318 -0.0055100955
000090 51 52 62 ba 2c 16 14 bc 53 77 68 bb 62 69 0d bc
       -0.0008633482 -0.009038489 -0.0035471513 -0.008631082
0000a0 fa c7 28 bb 7a fc 26 bc 81 77 35 38 68 3e 5d bb
       -0.002575396 -0.010192031 4.326506e-05 -0.003375912
0000b0 96 da 03 bb ff c4 14 3b 4c ad 26 bb 7d f1 5d bb
       -0.00201193 0.0022700427 -0.0025432883 -0.0033865862
0000c0 fd 44 2b 3a 06 0f 68 39 3c 4a 7a ba a4 c7 67 ba
       0.00065334124 0.00022130841 -0.0009547805 -0.00088416995
0000d0 fc 5c 7f 37 a5 d5 36 bb 18 27 27 bc cc 25 17 bc
       1.5220834e-05 -0.0027898338 -0.010202192 -0.00922532
0000e0 c7 07 aa b9 4d 53 9c b9 29 2c 36 b9 05 48 0b 3b
       -0.0003243072 -0.00029816703 -0.00017373323 0.0021252644
0000f0 36 27 7b ba 64 b3 08 bc b3 21 00 bc 09 64 86 3b
       -0.0009580733 -0.008343551 -0.0078205345 0.0041012806
000100 69 ec 31 ba 0e 0d f3 ba 55 ee a7 bb 4f 2f f2 3a
       -0.0006787242 -0.0018543319 -0.005124847 0.0018477234
000110 1a 98 2a b9 a1 ef bf bb 39 26 a6 3b 55 b9 6d bb
       -0.00016269126 -0.0058574234 0.0050704745 -0.0036273797
000120 e3 65 e0 39 b4 0e 91 3a d1 b1 15 3b 20 8b 8d bb
       0.0004280052 0.0011067004 0.0022841583 -0.0043195635
000130 a4 68 17 3c 5c 63 88 bb 07 8f ca bb ed 58 6d bb
       0.009241257 -0.004162235 -0.006181601 -0.0036216334
000140 cc bd 18 bb 32 40 94 3b 53 3f 9a b9 37 43 8a bb
       -0.0023306487 0.0045242542 -0.0002942035 -0.0042194384
000150 c2 ce 20 ba d2 44 3b bb c9 e6 6d 3b c4 7e 8f bb
       -0.0006134325 -0.0028574956 0.0036300889 -0.0043791253
000160 87 2f 74 ba 14 9f cc ba d5 50 a4 ba 78 e6 5e bb
       -0.00093149435 -0.0015611374 -0.0012536297 -0.0034011882
000170 78 5b 01 39 ab 6b ab bb 5a 2d 5b 3a ee 94 99 bb
       0.00012336473 -0.005231341 0.0008360945 -0.0046869433
000180 23 4d b6 3b 38 38 3d bb 68 12 c5 ba e5 91 ab 3a
       0.0055633946 -0.002887262 -0.0015035393 0.0013089745
000190 46 59 f6 39 56 06 3e 39 ea 8e 1d 3b 11 22 50 bc
       0.0004698729 0.00018122172 0.0024041482 -0.012703435
0001a0 b5 59 cf ba dd 10 e1 ba 6f 4d 5e bb dc 8b ad ba
       -0.0015819581 -0.0017171163 -0.0033920666 -0.0013240534
0001b0 b8 6e d2 bb ef 3c 49 bb f7 44 8c bb 66 b6 9e bb
       -0.00642189 -0.0030706485 -0.004280682 -0.004843521
0001c0 3f 75 8a bb ff a6 52 3b c0 2c 80 b9 44 e9 50 bb
       -0.0042254026 0.0032142994 -0.00024447404 -0.0031877318
0001d0 5f e6 d3 ba 13 7f 4f 39 8b 1f 75 bb cd 14 c6 3a
       -0.0016166678 0.00019788397 -0.0037402834 0.00151124
0001e0 a9 79 2f 3b 3a 9c 58 3b c5 98 69 3a 8e d4 36 bb
       0.0026775396 0.0033052103 0.0008911009 -0.0027897689
0001f0 9b e8 41 3b 1c ef 59 bb 54 57 11 bb 1d af aa 39
       0.0029588107 -0.0033254093 -0.0022177296 0.00032555396
000200 34 69 77 bb 45 d2 93 3b c8 0c 04 bb c0 82 c7 3b
       -0.0037751915 0.00451115 -0.002014922 0.0060885847
000210 80 59 d8 ba b6 3f 98 bb f9 d0 81 ba 13 e4 47 bb
       -0.0016506165 -0.004646267 -0.0009904198 -0.0030500933
000220 1d 5e ce 3a 1d 70 9f ba cd ba 34 bb 9d ca 8e bb
       0.0015744601 -0.001216415 -0.0027577162 -0.0043576495
000230 14 7b 6d ba 1a 26 8b bb 56 0e 62 ba 42 d9 8c 39
       -0.00090591726 -0.0042464854 -0.0008623352 0.0002686475
000240 2e 8c 90 bb 36 df c4 ba 94 eb 53 bb 60 d6 9d 39
       -0.004411242 -0.0015020135 -0.003233646 0.00030105095
000250 da dc d0 ba cf 37 6a bb 2a cd c2 bb 20 44 a4 bb
       -0.001593496 -0.003573883 -0.0059448676 -0.005013004
000260 2c d2 8e bb 2a 4c 66 bb e4 e7 ef ba 9e 9b 6a 3a
       -0.0043585505 -0.0035140612 -0.0018303362 0.00089495804
000270 8f ea 3e b9 e0 3e 7b ba 65 bf df bb 20 04 2b bb
       -0.00018207192 -0.0009584259 -0.006828236 -0.0026094988
000280 6d 67 4f 3a 8a a4 86 3b 03 f9 7f bb 61 20 97 3a
       0.0007911835 0.00410897 -0.0039058335 0.0011530035
000290 8c 2c 17 ba 35 1a 23 39 f9 93 b8 3a 98 ba 59 3a
       -0.0005766831 0.00015554654 0.0014082185 0.00083056977
0002a0 2d eb 0b bb 7b 72 7b 3b 63 84 98 bb 27 87 1c bc
       -0.0021349892 0.0038367796 -0.0046544536 -0.009553707
0002b0 15 87 00 3a 6a 22 77 3b a3 6f e6 39 01 93 86 3a
       0.00049029413 0.0037709721 0.00043952194 0.0010267199
0002c0 69 89 56 bb 0b aa b3 ba 93 35 e4 3a 34 99 9b 3a
       -0.0032735711 -0.0013707293 0.0017410986 0.001187122
0002d0 be ad 7e 3b f0 6b 09 bb c8 cd 84 3b e5 d2 ba bb
       0.0038860883 -0.0020968877 0.0040528513 -0.00570141
0002e0 9d 95 34 bb bb 57 0b bb ea 01 11 bb 37 1e c3 bb
       -0.0027554997 -0.0021262008 -0.0022126385 -0.0059545296
0002f0 57 74 1d bb eb d4 d9 ba 68 bc 58 3a d2 b9 2b bb
       -0.0024025643 -0.0016619241 0.0008267821 -0.0026203287
000300 f1 fa 26 bb 3a 55 29 bb cf 46 67 3a 60 94 6b 3b
       -0.0025479163 -0.0025838153 0.0008822502 0.0035946593
000310 c5 08 78 bb 13 44 40 bb 25 73 a4 3a 5e 36 17 3a
       -0.0037847024 -0.002933745 0.0012546523 0.0005768294
000320 af d8 09 3b 85 c5 90 bb 45 13 89 bb 23 83 67 39
       0.0021033695 -0.0044180774 -0.0041832053 0.00022078729
000330 6b df 28 bb 99 4f 83 bb 61 7b e2 ba 2b 8b 05 bb
       -0.0025767933 -0.0040072915 -0.0017279201 -0.002037714
000340 a0 15 55 ba 25 5f 04 bb fa 6d 39 3b 3a 59 e2 3a
       -0.00081285276 -0.0020198312 0.002829431 0.0017269023
000350 88 07 a4 ba 73 23 bb 3a d6 ea 6f 3a c4 d5 36 3b
       -0.0012514452 0.0014277532 0.000915212 0.002789841
000360 82 a8 54 bb 57 53 50 bb 75 24 6a ba d8 96 41 b9
       -0.0032449071 -0.0031787956 -0.0008931824 -0.00018462108
000370 a5 e8 95 bb 81 11 09 ba d4 a9 9d bb 55 dd 10 bb
       -0.0045748525 -0.00052287435 -0.004811505 -0.002210458
000380 6f a3 1d bb b1 87 01 bb 95 6c 84 ba eb 4d 39 bb
       -0.0024053713 -0.0019764716 -0.0010103161 -0.0028275202
000390 6c 22 ee ba 0f 78 cb 3a 96 fc fd bb 7c dc 9c b8
       -0.0018168218 0.0015523451 -0.007751058 -7.479728e-05
0003a0 ad c7 a2 3b e1 48 a4 bb dd 4c 4e bb ec fc da ba
       0.004967651 -0.0050135707 -0.003147892 -0.0016707457
0003b0 4a c4 d1 ba fd 8b e6 ba f0 fb 54 bb 98 ff ce 3a
       -0.0016003933 -0.0017589327 -0.00324988 0.0015792726
0003c0 f1 f0 dd b9 68 8b 5e 38 f2 e4 54 39 b6 cf fb b9
       -0.0004233192 5.3058757e-05 0.00020303184 -0.00048029207
0003d0 59 ce 01 bb 52 34 13 3b 7e 7f a4 ba 13 20 d0 39
       -0.001980683 0.0022461605 -0.0012550203 0.0003969675
0003e0 ad 2b ac bb 55 51 d1 b9 aa ac 5e 3a a8 fd 95 ba
       -0.00525423 -0.00039924184 0.0008494357 -0.0011443393
0003f0 c5 19 ec 3a ac 05 92 ba 56 66 6a bb 14 a2 39 37
       0.0018013051 -0.0011140606 -0.0035766563 1.1064596e-05

network_body._body_endoder.seq_layers.0.weight f4 [256, 50]
000000 73 35 16 3e 61 9e 8e bc f2 ed b5 bd 84 ef 94 3c
       0.14668827 -0.017409505 -0.08883275 0.018180616
000010 ee 33 93 3c 2f b3 79 3d c2 2c fc bd 7d 09 b3 3d
       0.017969098 0.0609619 -0.123132244 0.08742044
000020 dd c5 85 3e 45 89 1c bc 74 f3 d7 3e 1d ec bf bd
       0.2612752 -0.009554212 0.42177927 -0.09371207
000030 23 65 a8 3d 99 51 1f 3e d5 ed 43 3d 35 5e 75 3e
       0.08222415 0.15558471 0.047834236 0.23961718
000040 79 dd 81 bd b3 a0 48 3e c2 c3 e6 bd b0 3f f4 bd
       -0.06341071 0.19592552 -0.112678066 -0.1192621
000050 3a cb 9e 3d f8 39 90 3d 58 8c 9b 3d d7 80 90 3c
       0.07753606 0.07042307 0.07595128 0.01763956
000060 ca f9 c1 3d b3 c8 9d be 5d 23 8c 3e c3 d3 1b bd
       0.094714716 -0.30817184 0.2737073 -0.03804375
000070 dc d8 41 3d 29 0f 3b 3d b2 c7 fe 3d 14 a0 11 be
       0.047325954 0.045668755 0.124404326 -0.14221221
000080 64 d6 03 be d5 0e 0b be ce b5 d5 3d d9 47 12 3e
       -0.12874752 -0.13579877 0.10435067 0.1428522
000090 56 54 53 be 1f c7 2a bd 07 38 60 3d 93 e6 6e be
       -0.2063764 -0.041693803 0.05474093 -0.23330145
0000a0 ab de 8f be 88 85 21 3e c0 34 76 3e 4f 5e 98 be
       -0.2809957 0.15773594 0.2404356 -0.29759452
0000b0 00 47 97 bd a6 17 34 3e ff 2b 18 3e b2 48 66 bd
       -0.07386589 0.17587146 0.14860533 -0.05622167
0000c0 e4 e4 81 3e ba 18 2b 3e c6 a7 22 bd de e3 15 be
       0.25369942 0.16708651 -0.039710782 -0.14637706
0000d0 2c 01 e8 3d f1 81 53 3d b4 0c 8f bd 22 29 89 3d
       0.113283485 0.051637594 -0.06984845 0.066972986
0000e0 55 15 ad bd 64 e2 7f 3e 1b ea 95 bd b6 8c a7 bd
       -0.084513344 0.24988705 -0.07320043 -0.08181135
0000f0 8c 61 1d be d8 b6 d8 3d f6 0e e7 3d 39 d3 ef bd
       -0.15369242 0.1058175 0.112821504 -0.117102094
000100 8d 38 1b bd 58 85 da 3d a6 ea 5b 3e fa ad df 3b
       -0.037895728 0.106699646 0.2147623 0.0068261595
000110 c3 a2 92 bd 93 04 c0 bd 0c ba 83 bd 21 ef 65 bd
       -0.071599506 -0.093758725 -0.0643197 -0.056136254
000120 f6 d9 40 3e 2b 9d d4 3d c7 d4 08 be 9d ba 50 3d
       0.18833145 0.1038154 -0.13362418 0.05095922
000130 be 92 18 3e 58 a2 c0 3c 58 b2 1c 3e f9 12 82 be
       0.14899728 0.023514912 0.15302408 -0.254051
000140 1f e6 32 be 4a 06 48 3c e3 f6 ec 3c f8 d1 87 be
       -0.17470597 0.012208531 0.028926319 -0.2652738
000150 c1 42 39 3c c7 82 d8 bc de 09 dc bd 7f 34 34 3e
       0.011307419 -0.026429547 -0.107440695 0.1759815
000160 f4 a0 88 3c 83 31 4a 3c 50 05 20 3e 71 42 54 3d
       0.01667831 0.012340906 0.15627027 0.051821176
000170 07 df b1 3c 15 90 b6 bd d6 59 00 be eb ac 3d bd
       0.021712793 -0.089142 -0.1253427 -0.046307486
000180 36 f3 99 3e 47 6b 6c be df 15 59 be c3 b7 43 3e
       0.30068368 -0.23087798 -0.2119975 0.19113068
000190 9b 74 34 be 40 5e 06 37 f0 76 09 3e 89 d9 18 3c
       -0.17622606 8.008967e-06 0.13424277 0.009329208
0001a0 d7 b6 da 3c e5 dc 0e be 85 1f 05 be 87 4d 24 be
       0.026698513 -0.13951452 -0.13000305 -0.160452
0001b0 72 8e ad 3d 04 e9 37 bd 76 69 85 bc 13 7f 37 3e
       0.08474435 -0.044899955 -0.01628564 0.17919569
0001c0 4d 4c 56 39 2b 26 27 bd 79 dc b8 bd 02 6f 2d 3b
       0.00020437055 -0.040807884 -0.09026427 0.002646387
0001d0 56 77 9b be be 56 01 3e 09 b9 43 be 56 4d fd bd
       -0.30364484 0.12630746 -0.19113554 -0.12368266
0001e0 27 c1 00 3e 1c 23 53 be dc cb 52 bd 77 ad 81 3e
       0.12573682 -0.20618862 -0.051463947 0.25327656
0001f0 ea e9 01 bd 03 83 db ba 1c 04 50 3c e1 82 cc 3d
       -0.03171722 -0.0016747419 0.012696292 0.09985901
000200 e6 be 40 be 32 4f d0 bd 14 67 22 3d 5d 85 c5 bd
       -0.18822822 -0.10171355 0.039649084 -0.09644578
000210 12 9d c2 bc 5d 57 21 3e 22 17 f2 b9 37 f6 cf 3d
       -0.023756538 0.15755983 -0.00046175072 0.10154384
000220 d7 0a f1 bd c7 4b 1d 3c 38 bd 3d 3d c0 2b c1 bd
       -0.11769646 0.009600586 0.04632303 -0.09432173
000230 9d 2e 57 be 24 80 f0 3d 42 ad ff 3d c4 59 bf 3d
       -0.21013875 0.11743191 0.12484218 0.09343293
000240 9d 13 6d bc 56 55 b7 bd 0c 63 61 3e 65 d0 bd bc
       -0.014470008 -0.089518234 0.2201044 -0.02317066
000250 cb cf fc 3d de 7c d0 bd f1 d8 1f 3d 1c 43 9d be
       0.12344321 -0.101800665 0.03902525 -0.30715263
000260 78 ec e3 3c 4f 38 70 bd 18 79 8b be bb 74 7d 3e
       0.027822718 -0.05864745 -0.27240825 0.2475156
000270 ea dd 1e 3e 10 59 3c 3d cf ff f5 3c 55 d5 74 3d
       0.15514341 0.045983374 0.030029206 0.05977376
000280 11 b6 6d 3e b5 01 20 bd d4 f8 5f bd 26 d7 25 bd
       0.23213984 -0.039064128 -0.05468066 -0.040488385
000290 bd db 53 3d c1 9b fd bd c1 97 01 be 17 61 9c be
       0.05172323 -0.12383223 -0.12655546 -0.30542824
0002a0 01 80 ef 3d 93 44 f7 3c a0 5d 4d 3d f4 7d 35 3d
       0.11694337 0.030184066 0.050138116 0.04430957
0002b0 4d ff 15 bb fd b9 9d 3d 9a d2 a6 bd 0d 5b 14 3e
       -0.0022887767 0.0770149 -0.08145638 0.14487858
0002c0 72 5d 43 be 74 81 7f bd a0 f1 06 3e 9d ce cf 3d
       -0.19078615 -0.062379315 0.1317811 0.1014683
0002d0 c6 83 a4 3d df 76 b5 bd 83 93 5a 3d b1 70 4f 3e
       0.08032946 -0.088605635 0.053363334 0.20257832
0002e0 23 6c 28 bd d4 90 d8 bd 57 a5 20 3e 10 39 2e 3e
       -0.041118752 -0.10574499 0.15688072 0.17013955
0002f0 d6 69 80 bd f2 4b 0f bd 85 d3 22 be 5b d2 33 be
       -0.062701866 -0.034984536 -0.15901001 -0.17560713
000300 f8 7b 8f be ca ed 4c be 1a f4 19 bc 89 70 ee 3c
       -0.28024268 -0.20012584 -0.009396577 0.029106395
000310 72 a3 b6 3c b8 8f e1 bd 0d 9b 07 bd d3 17 d3 3d
       0.022294734 -0.1101374 -0.033106852 0.103072785
000320 68 8a 72 3c f5 38 32 3e ab 4e 95 3e af 44 aa 3d
       0.014803506 0.1740454 0.2916158 0.083138816
000330 a7 30 10 3d 28 ad c5 3c 58 b5 90 bd 07 bf 3d 3b
       0.03520265 0.024130419 -0.070658386 0.0028952972
000340 50 7c d9 bd 5e 14 97 3d e5 7a b1 3e 4d e1 7f bd
       -0.10619414 0.073769316 0.34664074 -0.062470723
000350 82 2d 5a 3e bc 65 79 3e ab 16 88 be c8 f2 5c bd
       0.21306422 0.24355215 -0.26579794 -0.05394247
000360 8e 16 bd bd 35 4b b7 bc b4 62 96 3e 0a 98 14 3e
       -0.092328176 -0.022374729 0.2937218 0.14511123
000370 0a 25 ec bb d7 63 c6 bd 27 58 06 3e c9 0c a6 bd
       -0.007206564 -0.09687012 0.13119565 -0.08107907
000380 e1 73 24 bd 3b c0 f3 bd 00 8d 60 3d 6a 21 0c 3e
       -0.040149573 -0.119018994 0.054821968 0.13684621
000390 91 65 38 3e 36 8a 51 3d f5 b9 92 3e 1d 84 aa bd
       0.18007495 0.0511572 0.286575 -0.0832598
0003a0 37 aa 86 bd 1b a2 da 3c 79 48 0a be 2d 36 43 3b
       -0.06575435 0.026688626 -0.13504209 0.002978693
0003b0 8a b8 70 3e 25 6c 6d bc 78 c7 31 3c a9 3e 83 be
       0.23507896 -0.014491116 0.01085078 -0.25633743
0003c0 eb 9b ba 3d 38 fc 98 3e 3e 85 bd 3c 70 db 03 3d
       0.0911177 0.29879928 0.023134824 0.032191694
0003d0 7a 18 7a 3e 4b 56 30 3e 0e 82 b6 bd 79 b5 77 3d
       0.244234 0.17220418 -0.08911525 0.0604758
0003e0 7f ef 1b bd 5a 31 5d 3e af 28 cd bd 68 24 10 be
       -0.0380702 0.21600857 -0.100175254 -0.14076388
0003f0 6e 38 97 bd ff ea 9c bd 6d 63 30 3e 16 b4 48 be
       -0.0738381 -0.076620094 0.17225428 -0.19599947

network_body._body_endoder.seq_layers.2.bias f4 [256]
000000 fd 12 a5 ba 17 d7 38 bb 46 c3 5c 3a e6 e2 69 bb
       -0.001259416 -0.0028204375 0.0008421432 -0.003568822
000010 c7 ed 5d b9 08 64 e8 3a 4e 14 e5 ba ba 90 9c bb
       -0.00021164781 0.0017730007 -0.0017477365 -0.004777995
000020 07 0a 87 ba 25 ee d3 37 df 08 0a 3b 52 ec a7 bb
       -0.0010302671 2.5264055e-05 0.0021062416 -0.005124607
000030 c0 c8 ad bb b8 8b 3d 3b 83 dc 84 bb f6 97 e4 ba
       -0.0053034723 0.002892239 -0.0040546074 -0.0017440307
000040 b7 8e cd bb d7 0f 7a 39 59 1a 35 3a 40 49 44 bb
       -0.0062731165 0.00023847759 0.0006908528 -0.0029950887
000050 73 d7 f4 ba 42 5e 37 bb 70 d0 da ba b0 9a 96 ba
       -0.0018679932 -0.0027979766 -0.0016694199 -0.0011490192
000060 a8 d2 4b bb 81 11 5e 3b 5b cf cf ba 42 0d 86 bb
       -0.0031100903 0.0033884945 -0.0015854643 -0.004090936
000070 73 77 21 bb 39 c6 77 bb 97 1b d3 bb de 7f ad b9
       -0.0024637848 -0.003780736 -0.006442498 -0.000330924
000080 a9 76 d5 ba 0d fc 62 bb 4f d6 b4 ba 14 38 1b b7
       -0.0016285974 -0.0034635097 -0.0013796779 -9.251777e-06
000090 69 b6 75 bb c7 e5 07 bb ac 1d 1d 3b cd 01 54 3a
       -0.0037492758 -0.0020736323 0.0023973985 0.00080874265
0000a0 b1 79 21 bb ae 13 82 bb c6 09 44 ba aa 13 a3 bb
       -0.0024639184 -0.003969631 -0.0007478263 -0.0049767094
0000b0 3a 83 b2 ba 13 fb 66 3a 48 56 82 bb 58 57 27 b9
       -0.0013619431 0.00088112167 -0.0039775707 -0.00015958899
0000c0 0d 2f 42 bb 8a d7 3a bb 4a bb 7c bb 32 d9 d2 ba
       -0.0029630095 -0.002850982 -0.0038563781 -0.0016086458
0000d0 f2 09 8e bb b6 3d 2c b9 98 66 5b bb 77 62 cd ba
       -0.0043346817 -0.00016426187 -0.0033477899 -0.0015669604
0000e0 ab 51 1d 3a 9e 2b 5a bb 6d cd 35 bb 57 11 9b 3b
       0.0006001244 -0.0033290158 -0.0027740852 0.0047322917
0000f0 ff c5 70 3b 62 8f d4 ba e6 de 6c bb 31 2e 59 38
       0.0036739109 -0.0016217048 -0.00361436 5.177985e-05
000100 43 bd 02 ba 9e 8d 6c bb b9 04 92 3a ec c3 90 3a
       -0.00049873086 -0.0036095153 0.0011140323 0.0011044717
000110 ac fb 4e bb eb f2 c9 ba 90 74 89 bb ce 1b 22 bb
       -0.0031583114 -0.0015407478 -0.0041948035 -0.0024735811
000120 02 f6 82 bb bd 05 e4 3a ff 1e 29 3a d0 6b e5 39
       -0.0039966116 0.001739673 0.0006451457 0.0004375861
000130 9e e0 93 bb 7f fc c4 bb 9e ee 32 bb a9 0f ad ba
       -0.0045128604 -0.006011545 -0.0027302871 -0.001320352
000140 a1 b0 6d bb a4 29 de ba 5e 84 de b9 e2 d7 2c 3a
       -0.003626861 -0.0016949666 -0.0004244176 0.00065934483
000150 7a 44 56 3b 9a d8 36 3b af c4 2a bb 82 ef e4 ba
       0.0032694624 0.00279001 -0.0026057174 -0.0017466398
000160 e6 aa 38 bb 46 88 e4 b9 d0 b5 c9 3a 54 c6 32 3b
       -0.0028178035 -0.0004358908 0.0015389267 0.0027278857
000170 28 f7 08 bb ba 5b 17 bb 29 8f ee ba 56 f4 05 bb
       -0.002089927 -0.0023095445 -0.0018200624 -0.0020439825
000180 ab a7 01 bc 91 23 aa b9 82 0f 8d bb 37 23 a7 bb
       -0.00791351 -0.00032451426 -0.004304827 -0.0051006335
000190 f4 4c 8c ba 19 0b a0 bb 3a 5d 08 bb 1a 3e 6a 38
       -0.0010704086 -0.0048841354 -0.002080752 5.5847784e-05
0001a0 93 1c 08 bb ad 9c c8 ba 75 bb 79 bb 5c 6f a2 bb
       -0.0020768985 -0.0015305482 -0.0038106118 -0.0049571227
0001b0 0c 24 ee b9 77 9a 0b 3a 5e 04 5b bb 3d 61 b9 b9
       -0.00045421754 0.0005325446 -0.003341935 -0.00035358398
0001c0 d5 8c a5 3b 81 54 59 bb cf f0 25 bb e2 13 2d b9
       0.005052189 -0.003316194 -0.0025320535 -0.00016505973
0001d0 99 fc 32 bb 17 74 22 bb 32 de 9b bb 88 e8 cc ba
       -0.0027311204 -0.0024788433 -0.0047567124 -0.0015633265
0001e0 ad e2 db b9 d4 76 ea 3a 75 d4 7a ba 89 97 6b bb
       -0.00041939822 0.0017888197 -0.0009568402 -0.0035948476
0001f0 c2 dd 19 bb ae ad 09 39 56 88 13 bb bc ed 72 bb
       -0.0023478125 0.00013130039 -0.0022511682 -0.003706797
000200 96 29 32 bb 16 3c 8a b9 58 bf 3a bb be d2 cd 39
       -0.0027185432 -0.0002636618 -0.0028495397 0.00039257662
000210 6d f4 5e 3a bd a1 90 bb 83 50 9c ba 9b 0b 51 bb
       0.000850505 -0.004413812 -0.001192585 -0.0031897787
000220 20 f0 42 bb c5 66 2e bb fa 62 9a ba 7d e1 64 bb
       -0.0029745176 -0.0026611548 -0.0011778765 -0.003492444
000230 54 e8 3d 3b e0 73 0d bb 56 f6 06 ba 36 b5 23 3b
       0.002897759 -0.002158396 -0.0005148401 0.0024979836
000240 b8 5a 73 bb ca 4e fe b9 cf a4 59 bb 8e 1e b8 39
       -0.003713293 -0.00048505358 -0.0033209806 0.0003511798
000250 b5 b2 45 bb 20 dd 62 bb 12 68 f2 ba 0f 9e 9c 39
       -0.0030166332 -0.0034616664 -0.001849415 0.00029872402
000260 07 bf cf ba c3 e9 42 bb 3b 4b 42 bb 05 b6 59 bb
       -0.0015849777 -0.0029741384 -0.0029646892 -0.0033220064
000270 13 6f 86 3b 09 7c bf bb bf fd 3c bb 9e 0a a2 3b
       0.0041025965 -0.0058436436 -0.0028837768 0.0049451133
000280 ae 3b ec bb 82 95 1c 3b 43 04 7e bb a9 9a ea ba
       -0.007209263 0.0023892825 -0.0038759864 -0.0017898876
000290 56 82 8e 39 a4 36 20 bb f3 64 b8 bb 79 58 f7 ba
       0.00027181458 -0.002444663 -0.0056272685 -0.0018870971
0002a0 9f 64 9a 3b 40 fe c7 bb a8 02 58 3b 7e e0 f9 ba
       0.004711702 -0.006103307 0.0032960568 -0.0019064096
0002b0 43 79 fb ba 4c ff 7b bb 46 c1 92 3a ce 12 37 39
       -0.0019185919 -0.003845173 0.0011196516 0.00017459245
0002c0 33 9b 87 bb a8 f1 0a 3b 95 fe 67 bb a5 19 c2 bb
       -0.0041383742 0.0021201167 -0.0035399545 -0.005923467
0002d0 f7 32 99 bb c2 f5 b1 bb 9d b0 21 bb 57 a2 e8 b8
       -0.004675265 -0.005430908 -0.002467192 -0.0001109286
0002e0 0e c5 09 bb 30 60 1b bb 88 e4 00 ba a4 48 9f bb
       -0.0021021995 -0.0023708455 -0.00049168663 -0.0048609544
0002f0 e9 9f 03 bb cf a2 5e bb 9a 2c eb ba b5 fc e3 ba
       -0.0020084328 -0.0033971553 -0.001794237 -0.0017394038
000300 a1 cb 0e 3a bc 53 29 3b 2d b9 7e bb 4e 5b 4e ba
       0.0005447213 0.0025837263 -0.0038867698 -0.0007871882
000310 8a 55 5d b9 4e f0 db 39 c7 36 21 bb 39 f5 bb ba
       -0.00021108068 0.00041949976 -0.00245993 -0.001434005
000320 a9 f4 9d b9 14 31 80 bb 83 75 57 bb db a4 26 3b
       -0.0003012766 -0.0039121006 -0.003287644 0.0025427851
000330 71 a7 34 ba 43 ea 86 3b 79 86 8f bb 0a a5 da b9
       -0.0006891406 0.0041172816 -0.004380044 -0.00041703164
000340 af b5 37 bb ae ac a1 39 4e 71 09 3b 1b 14 1c bb
       -0.0028031876 0.0003083697 0.0020972076 -0.0023815695
000350 70 6c c3 ba f0 95 44 bb 66 c9 b3 ba bf 4e 65 bb
       -0.0014909636 -0.0029996596 -0.0013716638 -0.0034989563
000360 a7 3a bd 3a 0f 63 b2 bb 66 7f a7 bb dc d9 25 ba
       0.0014437035 -0.0054439376 -0.0051116226 -0.0006326714
000370 2f 4e 4a bb 74 9a 26 bb b6 f0 64 bb 5b 2f 2c ba
       -0.0030869355 -0.002542165 -0.0034933514 -0.0006568336
000380 a5 b1 8d bb 10 de 69 b7 45 06 c7 ba 50 08 8d bb
       -0.0043241554 -1.3939585e-05 -0.0015184364 -0.0043039694
000390 fc c4 8b bb a3 b2 58 3b 0b de 52 3b 6b a7 40 bb
       -0.0042654257 0.003306546 0.0032175805 -0.0029396664
0003a0 4a 76 2c bb 0a b8 3c 3b 81 d5 e4 ba 82 db 04 bb
       -0.0026315623 0.002879622 -0.0017458649 -0.0020272438
0003b0 bd 65 93 bb 42 e2 b4 bb 4a 39 f6 39 06 f7 da 3a
       -0.004498212 -0.005520136 0.0004696346 0.0016705699
0003c0 eb 08 b7 bb 84 55 fa 3a ba cc 9d ba 2a 09 b9 39
       -0.00558578 0.0019098972 -0.0012039163 0.00035292777
0003d0 b8 b4 08 bb 2c 60 8e ba 44 b4 94 bb a6 15 4e bb
       -0.002085967 -0.0010862402 -0.004538091 -0.003144601
0003e0 b8 97 b3 bb d1 04 9b ba 6d e8 88 bb 9c be 31 3a
       -0.005480733 -0.0011826997 -0.004178098 0.0006780417
0003f0 f9 85 67 bb 8e cb cb b9 28 c6 6c bb d1 c5 8e bb
       -0.0035327657 -0.00038870837 -0.0036128853 -0.0043570776

network_body._body_endoder.seq_layers.2.weight f4 [256, 256]
000000 34 7a 4a 3d 54 f0 f1 bc c6 32 1f 3d 63 11 c2 bc
       0.04943295 -0.029533543 0.03886678 -0.023689931
000010 de 40 0e bd 44 3e 59 bd 2f 10 21 3d ae c9 63 3d
       -0.03472983 -0.053037897 0.039322075 0.05561226
000020 ca 71 72 3d 7c 1b 86 bd 67 70 a0 3d 83 6c 39 3e
       0.05919055 -0.06548211 0.07833939 0.181078
000030 5e e2 ce bb b4 f7 1b bd 08 d6 e5 3d 01 30 8f 3b
       -0.006313606 -0.038078025 0.11222464 0.004369736
000040 59 a0 ec 3c 83 e1 3a bc 7a e4 c0 bd e9 33 45 bc
       0.028885053 -0.011406305 -0.094185784 -0.012036302
000050 ad 6d b6 3d c9 2d 19 3d b8 dc 97 3d b8 15 25 3b
       0.08907638 0.03739718 0.07415146 0.0025189947
000060 14 57 85 bd 7c 7e b5 bd 7a 84 8e 3c bf 0f c8 bc
       -0.065107495 -0.088620156 0.017397154 -0.02442157
000070 29 42 47 bd 61 4a 83 3d f1 4e 47 bd 44 19 52 3d
       -0.04864708 0.06410671 -0.04865927 0.051293626
000080 64 5b 4d bb 2a dc e0 3c 0b d4 56 3d c1 0f 8d 3d
       -0.003133499 0.027448732 0.052448314 0.068877704
000090 65 83 7d bc 4c fe b8 bc bd dc 2c 3d 5a 84 dd 3b
       -0.015473221 -0.022582196 0.0422027 0.0067601623
0000a0 71 d8 39 bd 2a f6 87 bd 07 30 84 bd 06 1c e5 3d
       -0.04537243 -0.06638749 -0.06454473 0.11186986
0000b0 18 36 03 3c 52 10 86 bd bc c0 81 bd 38 ec 55 bb
       0.008008502 -0.065460816 -0.06335589 -0.0032642018
0000c0 34 af 3a bd 18 73 9a 3b 90 b6 9f 3a f4 80 9f bc
       -0.045577243 0.0047134273 0.0012185145 -0.01947067
0000d0 a7 51 c5 bc a5 a0 c5 3d ac e6 c2 3b e3 5d a5 bc
       -0.024086786 0.09649781 0.0059479084 -0.02018637
0000e0 ba a4 d0 ba c4 c6 c9 3c 7c 94 04 3e ab f9 56 3c
       -0.0015918233 0.024630912 0.12947267 0.013121049
0000f0 ec 42 f8 3d 14 6f 4c 3c 8e 19 ba 3d 90 2b ce bb
       0.12122139 0.012477655 0.090869054 -0.006291814
000100 71 3a 66 ba 04 78 2b 3d 67 e5 94 bd fa b3 17 3b
       -0.0008782512 0.041862503 -0.072703175 0.0023148046
000110 1c 2e 23 be ad c3 2f 3d e5 b5 29 bd 82 f9 5f 3d
       -0.15935558 0.04291122 -0.041433234 0.05468131
000120 e9 80 c9 3d 03 db 9c 3d 48 ea a1 3c 1b 28 6b 3d
       0.09839041 0.07658961 0.019765034 0.057411294
000130 7d 1c a6 bd d4 dc 42 3d 32 d3 21 bd ea 40 39 3d
       -0.081109025 0.04757388 -0.039508052 0.045227922
000140 0e 9f 94 3c f4 59 b4 bb 78 cd b5 3c c2 38 bf bc
       0.01814225 -0.0055038873 0.022192702 -0.023342494
000150 d2 02 7c bd b6 73 d4 3c c8 ca 50 3d f5 f3 d1 bc
       -0.061526127 0.025934082 0.050974637 -0.025629023
000160 fc e2 d6 bc 1a 5f 7a 3c 8f 08 1b 3c 3b 67 9f bd
       -0.026231281 0.015281463 0.00946249 -0.077833615
000170 d1 c1 41 3c b6 5c 9d 3d f3 c1 14 bd 31 6d af bd
       0.011825995 0.07683699 -0.036317777 -0.085657485
000180 43 c0 5b bb e0 b7 5a bc 1c f0 4b bd 57 e5 fc 3d
       -0.0033531345 -0.013349503 -0.049789533 0.123484306
000190 9c 1e 6e bd 9d fa 28 bc 45 d0 23 3d 49 39 3a 3d
       -0.05813466 -0.010313657 0.039993543 0.045464788
0001a0 80 63 14 3c d7 c7 1c 3d 2c 81 17 bd b0 22 1e bd
       0.009056926 0.03827652 -0.036988422 -0.0386073
0001b0 c2 c6 04 bd 4a d5 11 bd 50 e0 96 bd c5 ef 83 3c
       -0.032416113 -0.0356038 -0.07367003 0.016105542
0001c0 e1 e6 54 bd f1 19 22 3e 7c cc 8d bd 60 98 a5 3c
       -0.051977996 0.15830208 -0.06923768 0.02021426
0001d0 aa f3 c3 bd 1a 6b 17 3e 0d 1a 98 bd 94 09 ad 3c
       -0.095679596 0.1478695 -0.07426844 0.021122731
0001e0 3f 5e 78 3c b1 20 cb 3d 35 27 87 3d 7a d4 91 3d
       0.015159189 0.09918345 0.06599275 0.07120605
0001f0 1f 17 87 bd 43 7c 77 3d e3 3a ac bc 89 f7 41 3c
       -0.06596207 0.06042124 -0.021024173 0.011838802
000200 a4 86 be bc 9f 93 96 bd 80 f6 a6 bc cf db 0e 3d
       -0.023257561 -0.07352375 -0.020381212 0.034877595
000210 14 f8 18 3c b8 65 d4 3d 06 01 64 3c 94 57 2e bd
       0.00933649 0.10370964 0.01391626 -0.04256399
000220 0e 1c c2 3c c7 7e 98 bd 00 7f 0e bc ce c7 b4 bd
       0.023695018 -0.07446056 -0.008697271 -0.08827172
000230 61 7c 1b 3d 80 8f 25 bd da 75 99 bd 44 1c 5e 3c
       0.037960414 -0.040420055 -0.074931815 0.013556544
000240 ac b8 df 3b cf 4d 0f bd 1d ad ad 3c a3 6c f2 39
       0.0068274345 -0.034986313 0.02120071 0.00046238778
000250 d8 43 89 3b 96 29 46 bc e5 3b 76 3d d5 f4 45 bd
       0.004188996 -0.012094876 0.060115714 -0.048329193
000260 1f 21 43 bd ca 53 0b 3d 67 4b 2e 3d 6d 24 27 3d
       -0.04763901 0.034015454 0.042552378 0.040806223
000270 ff d2 80 bd a8 79 a4 3d 1b 3c f3 3a a9 07 bd 3a
       -0.06290244 0.080310166 0.0018557342 0.0014421839
000280 b2 95 c0 bd 3d bb ec bb 2f 66 24 ba cd fa ff bc
       -0.09403552 -0.007224469 -0.000627133 -0.03124752
000290 52 08 9f 3d 28 29 11 bc d2 6e cf 3c 6f 7a df b9
       0.07765259 -0.00885991 0.025321398 -0.00042625095
0002a0 dd 7e 92 bd a9 71 47 bb b9 12 4a bd 3f 6c a4 39
       -0.071531035 -0.0030432737 -0.04933426 0.00031361167
0002b0 c9 4b e3 ba f5 9f 07 bb 22 37 3e 3c d0 70 c7 bc
       -0.0017341311 -0.0020694707 0.011609824 -0.024345785
0002c0 a5 3f 29 3d 6f 7a 1b 3d 96 fb 8d 3d 95 e8 3f 3c
       0.04132046 0.03795856 0.06932752 0.011713167
0002d0 b4 3b b5 bd dd 40 2a 3d dd ab 01 be f1 cf 8f bd
       -0.08849278 0.041565765 -0.12663217 -0.070220836
0002e0 eb 0e 31 3d bc a0 10 be ab 87 e8 bd f2 8b 45 bc
       0.043227118 -0.14123815 -0.113540016 -0.012057291
0002f0 b2 52 00 3e a1 3d ab bd b5 db f5 3c 62 7d e1 3c
       0.12531546 -0.08361364 0.030011991 0.027525607
000300 14 f0 da 3b 3c 9d 85 3c 7e b2 eb ba b2 7b 90 bc
       0.0066814516 0.016310327 -0.0017982272 -0.017637108
000310 2f c5 65 3c 6d 2f 40 bc 77 43 26 bd e4 98 77 bd
       0.014024063 -0.011730057 -0.040591683 -0.060448542
000320 27 9c 7a 3c 78 f6 48 3c c5 1e e0 bb 37 69 db 3d
       0.015296019 0.012265794 -0.0068396055 0.107134275
000330 3a a3 c3 bd 73 44 bf 3d 67 5a 19 bd 03 3b e5 bb
       -0.09552617 0.093392275 -0.03743973 -0.00699556
000340 02 be 04 3d a8 ec 04 3e 47 aa eb bc 50 10 68 bc
       0.032407768 0.12980902 -0.028767718 -0.014164045
000350 6d b7 39 3c 4d cf 1d 3b 7b b0 4f 3c 74 b8 4e 3d
       0.011335236 0.002407986 0.012676354 0.050468877
000360 82 1c 83 3d 8c 5c 91 bd c3 b7 66 3d 2a e4 f9 bd
       0.06401922 -0.0709773 0.056327593 -0.12201722
000370 2f 33 1a bd 22 bc e9 bd fc 9c 89 3b 53 ff 61 3d
       -0.03764647 -0.114128366 0.004199622 0.055175137
000380 5e 7a 58 bc 92 11 f6 bd a4 76 23 bc 7b 24 0e 3d
       -0.013212768 -0.1201507 -0.009977017 0.03470276
000390 72 dd 11 bd 80 70 20 3c b8 3e e2 bd 34 e7 f0 bd
       -0.035611577 0.009792447 -0.11047119 -0.117628485
0003a0 3f 74 1d bd cf be d1 bd 17 eb a8 bc 30 59 aa 3d
       -0.03844094 -0.10241472 -0.020619912 0.083177924
0003b0 68 a2 98 3c 2a f3 b2 3c e5 b9 2f bd 61 17 47 bd
       0.018632129 0.021844465 -0.042901892 -0.04860628
0003c0 59 e7 70 bd c9 bb f1 3c 39 18 80 3d 62 ac 05 bd
       -0.05881438 0.029508488 0.0625462 -0.0326351
0003d0 62 a0 85 bc 55 35 97 bd 82 50 c8 bd bc a0 5c 39
       -0.016311828 -0.07383219 -0.09780981 0.00021040713
0003e0 15 72 a9 3d bf 43 73 3d 89 03 fe 3c b6 ad bd bd
       0.082737125 0.05939078 0.031007545 -0.09261648
0003f0 bb 69 23 3c 03 f4 41 3d e9 68 b5 3c 9d fa e5 3c
       0.009973939 0.04735185 0.022144752 0.028073603

network_body._body_endoder.seq_layers.4.bias f4 [256]
000000 59 a4 ca bb 64 be 9f bb f1 1d ff ba 4f 70 35 bb
       -0.0061841425 -0.0048749913 -0.0019463879 -0.002768535
000010 69 89 5d bb ad 52 e3 ba 7b c8 99 39 54 4e cf bb
       -0.0033803827 -0.0017343365 0.00029331804 -0.006326476
000020 dc 54 bd bb 7b a7 af bb 6d 30 02 bb 1e 1f 88 bb
       -0.0057779383 -0.0053605414 -0.001986529 -0.0041541
000030 3c 42 9f bb 21 a8 94 3b 71 cc 8b ba d0 a9 75 3b
       -0.0048601907 0.004536644 -0.0010665787 0.003748525
000040 86 50 66 ba b9 44 a5 bb 65 a4 a6 bb 9e 37 9b bb
       -0.00087858026 -0.005043593 -0.0050855153 -0.0047368547
000050 d0 3d d9 bb 0a 3b 08 bb 8d 6d af bb b8 5d 37 3b
       -0.006629683 -0.0020787143 -0.0053536356 0.0027979445
000060 44 cc 0c 3b 9d 9c ed ba 08 28 e6 ba 63 3d 57 b8
       0.0021484056 -0.001812834 -0.0017559538 -5.1317165e-05
000070 98 3e 24 ba 18 9e 6b bb 32 65 4c bb 80 ef 3d bb
       -0.0006265431 -0.0035952386 -0.0031188247 -0.0028981864
000080 26 35 c4 bb ae 8f 10 3b 36 2a 54 3a ba 18 d9 b7
       -0.005987781 0.0022058296 0.0008093448 -2.587993e-05
000090 13 fe aa 3b 50 5c 16 ba 88 b9 e9 39 cd ae d0 b9
       0.0052182763 -0.00057358015 0.00044579455 -0.00039803088
0000a0 d6 dc fe ba 51 dd 01 bb b7 90 0d 3b 4b 2b b1 b9
       -0.0019444476 -0.0019815753 0.002160115 -0.00033792327
0000b0 e3 42 87 3a ec 71 3f bb 53 20 6f b8 04 a4 d3 39
       0.0010319616 -0.002921219 -5.7012145e-05 0.00040367257
0000c0 64 f2 f5 ba 1e f3 69 bb c5 37 93 bb 91 7d f2 ba
       -0.0018764255 -0.0035697888 -0.004492732 -0.0018500556
0000d0 e3 c1 62 3b ae 05 82 39 cf 10 23 3b b2 1d 32 bb
       0.0034600429 0.00024799764 0.0024881845 -0.0027178344
0000e0 dd bc 88 bb db 07 b0 bb d0 50 47 39 d8 e9 8e bb
       -0.004172905 -0.00537203 0.00019008224 -0.0043613724
0000f0 05 1b 0e bb 43 75 9f ba c8 45 b3 bb dc 5e 01 bb
       -0.0021683585 -0.0012165684 -0.005470965 -0.0019740378
000100 38 72 79 3b 04 7a 1b ba 7f 44 86 3b ca 2d e7 ba
       0.0038062464 -0.00059309625 0.004097521 -0.0017637548
000110 39 df ba 38 d7 61 cf 3b c1 ff 3a bb 5c 48 82 3b
       8.9107496e-05 0.006328802 -0.002853379 0.003975911
000120 a8 6e 8e bb a8 f2 27 bc 69 12 a4 bb 37 4b 72 bb
       -0.0043466873 -0.010250725 -0.0050070775 -0.00369711
000130 71 05 fb bb 2d 18 ab bb 0f 9a aa ba ef 8a 0a bb
       -0.007660561 -0.005221388 -0.0013015884 -0.002113994
000140 6a 45 9e 3a e9 01 9a 3b 42 06 ec 39 b6 43 59 bb
       0.001207513 0.0046999347 0.0004501809 -0.003315193
000150 71 b0 8d 3a 2b 05 5b bb 5e 14 1f 3b 8c 9f 19 bb
       0.001081003 -0.0033419828 0.0024273614 -0.0023441045
000160 5c b3 63 bb 8f 2b c1 bb b5 63 19 3b 50 3d e9 bb
       -0.0034744358 -0.005895085 0.0023405377 -0.0071179047
000170 5d fa a6 bb b7 8e 57 bb 13 84 e6 b9 fe dd de 3b
       -0.0050957636 -0.003289146 -0.00043967422 0.006801366
000180 b6 ae 0e ba a0 5a 26 bb c0 c8 ad 3a ad 0c 1d 3b
       -0.0005442904 -0.0025383607 0.0013258681 0.0023963854
000190 8f 19 34 3a ca 08 a1 bb 5a 86 94 bb 4d 05 5b ba
       0.00068702636 -0.004914378 -0.0045326175 -0.0008354977
0001a0 a3 e7 3e bb d7 d2 9c 3b 02 03 88 bb 0c e9 d4 38
       -0.0029129765 0.0047858763 -0.004150749 0.00010152356
0001b0 86 77 8f bb fc e2 ce ba 0c 1b c9 3a 2b 49 17 3a
       -0.004378262 -0.0015784199 0.0015343144 0.0005771096
0001c0 49 b0 70 bb 94 29 13 3a 0d 8a 5d 3b bc 17 b8 3a
       -0.0036726168 0.00056138006 0.0033804209 0.0014045159
0001d0 59 d1 e7 ba 80 49 94 ba 16 26 5e bb 4e cc 65 bb
       -0.0017686292 -0.0011313409 -0.0033897213 -0.0035064402
0001e0 d4 28 95 3a 9b bd 50 bb 3d d9 41 3b 03 a9 4b bb
       0.0011379966 -0.0031851295 0.0029578947 -0.003107608
0001f0 e3 0b 59 bb 57 eb d8 38 5c 04 b5 3b 90 1d a3 ba
       -0.0033118657 0.00010343518 0.0055242013 -0.0012444723
000200 20 b0 a5 bb 30 c9 a6 bb 6b a0 19 3b f7 8a 24 ba
       -0.005056396 -0.0050899014 0.0023441564 -0.0006276811
000210 c0 6d 67 bb 13 7c d5 39 4d 2a ee 39 db b5 c7 ba
       -0.0035313219 0.00040718968 0.00045426414 -0.0015236692
000220 5b 9b 03 3a 05 74 d5 39 ed 9f 97 bb b4 18 69 39
       0.0005020403 0.00040712967 -0.004627219 0.00022229814
000230 0b dd 91 3a 40 e1 81 bb 69 59 74 3b fe 2f 0c 3b
       0.0011128498 -0.0039636195 0.0037284738 0.002139091
000240 9f 93 00 3a b5 a1 b7 38 18 92 97 bb cd 97 ee ba
       0.000490481 8.75624e-05 -0.00462557 -0.0018203199
000250 18 3b 86 bb a4 7a b8 3a 2c be 8e bb 36 08 17 3b
       -0.0040964 0.0014074636 -0.0043561663 0.0023045666
000260 b6 51 da bb 5c 09 02 ba f7 c7 2a 3b 4f 79 09 3b
       -0.0066625727 -0.0004960501 0.002605913 0.0020976847
000270 62 9c 13 bb dd 50 07 bb 5a 78 1e bb a7 0e 10 bb
       -0.0022523631 -0.0020647564 -0.0024180622 -0.002198139
000280 43 e4 83 3b ce d1 2a 3b 86 a7 f1 ba ab ad 75 ba
       0.0040250137 0.0026064995 -0.0018436767 -0.0009371887
000290 21 38 2f 3b 76 84 5a 3a 3f 8c 7f bb d3 bb f8 39
       0.0026736336 0.0008335778 -0.0038993505 0.00047442186
0002a0 2d 54 c5 bb f6 c4 f3 bb 73 81 53 3a b8 4a 86 bb
       -0.0060219974 -0.007439251 0.00080683007 -0.0040982626
0002b0 20 c6 2d 3a 09 af 26 bb 0e 6c 8a bb 8b 45 58 3b
       0.0006628949 -0.002543392 -0.004224307 0.0033000435
0002c0 86 67 80 ba 87 0c 7b 3a 32 5d 22 bb 7a 3b 9b bb
       -0.0009796477 0.0009576757 -0.0024774787 -0.004737315
0002d0 44 35 85 bb 0a 86 87 b9 1d 7f 24 bb 8e e3 d6 39
       -0.0040651876 -0.00025849073 -0.002510018 0.00040986802
0002e0 32 ea eb bb 6d 05 96 bb 31 26 1f 3a 64 8f 9a 3b
       -0.007199549 -0.0045782835 0.00060710596 0.0047168005
0002f0 c3 5c 37 3a 4f 65 73 bb c0 30 15 bb 94 a9 32 bb
       0.00069947186 -0.0037139242 -0.0022764653 -0.002726172
000300 74 d8 8d bb a2 2b 84 bb 60 1b 9f ba 0d 90 9a 3a
       -0.0043287817 -0.0040335217 -0.0012138896 0.0011792198
000310 87 b3 67 bb 35 ec 16 3b 0d 48 cc 3b a5 a0 10 3b
       -0.003535481 0.0023028974 0.006234175 0.0022068408
000320 29 22 ca bb 4b 27 85 3a 22 9f 97 bb e5 b5 0d bb
       -0.006168623 0.0010158805 -0.0046271244 -0.002162331
000330 68 ab ca 39 31 a2 04 bb 66 1d 97 bb fb 54 0b bb
       0.0003865615 -0.0020238275 -0.004611659 -0.002126037
000340 0a e5 a8 3a c4 26 81 bb 0b 90 e4 3b 38 e6 29 3c
       0.0012885642 -0.003941389 0.006975179 0.01036983
000350 36 15 92 3b 44 63 9c ba 01 79 1d bb 2e a6 81 3a
       0.004458095 -0.0011931439 -0.0024028423 0.0009891444
000360 f6 13 80 bb 99 d3 55 bb 51 3c be 3b 1a 57 20 bb
       -0.0039086295 -0.0032627343 0.00580553 -0.002446598
000370 a4 d3 34 3b 8c 11 a1 bb 0d e4 6a 3b 34 83 43 ba
       0.0027591968 -0.004915422 0.0035841495 -0.00074582105
000380 02 78 c6 3b 6f 83 0b bc 4b 40 c3 bb 6b d2 09 3a
       0.0060567865 -0.008515223 -0.005958592 0.000525749
000390 da 11 cc bb c5 5d 7c bb a9 05 72 bb 9a a5 02 3b
       -0.006227714 -0.003850804 -0.0036929643 0.0019935132
0003a0 4b c2 09 3b 3b ea ce b9 c2 41 a0 ba 11 c8 6b 3b
       0.0021020349 -0.00039465897 -0.0012226629 0.0035977403
0003b0 9c 68 84 3b 5a 7b 2b b9 c8 f0 95 bb 8f 2a ca ba
       0.0040407907 -0.00016353783 -0.0045758225 -0.001542406
0003c0 3b d4 c4 ba 4c a8 d3 ba f0 b3 f5 3a 97 32 25 bb
       -0.0015016863 -0.0016148179 0.0018745642 -0.0025207156
0003d0 94 28 e4 ba 0b 15 cf 3a ad 07 da ba 70 eb 84 bb
       -0.0017407113 0.0015799118 -0.0016634368 -0.0040563866
0003e0 2a 9a 32 3a d5 9c 0d bb e6 b7 7d 3a c8 40 4f ba
       0.00068131334 -0.0021608372 0.0009678587 -0.00079060765
0003f0 5d ec e8 ba 32 61 24 3b a0 c6 f1 bb a1 09 05 bb
       -0.0017770637 0.0025082347 -0.0073784143 -0.0020299929
