results/prueba/MoveToGoal/MoveToGoal-250927.pt (torch, 791031 bytes, 40 tensors)

discrete_act_size_vector f4 [1, 2]
4.0 2.0
00000000: 0000 8040 0000 0040

network_body._body_endoder.seq_layers.0.weight f4 [128, 118]
0.009617955 -0.16519172 0.095955156 0.18457519 -0.075958915 -0.00062529364 0.0603353 0.02027385
0.098720536 0.009292143 0.09336198 -0.008709015 -0.05318807 -0.1289871 0.20331666 0.062970564
0.11487284 0.013776466 -0.1341035 -0.14199243 0.04383159 -0.019833378 -0.11474515 0.018385153
0.08657812 -0.06414528 0.029933238 -0.038449883 -0.05398195 -0.02009616 0.036263015 -0.086443715
0.088136554 0.05189699 0.085725255 0.019789439 -0.08635607 -0.031305883 0.025026528 -0.18468396
-0.09701318 0.07500454 -0.042728264 0.06492878 -0.010547277 -0.009467082 -0.12073271 -0.11413787
0.049903892 0.04688727 0.1093368 0.03443553 0.055946328 -0.0048980047 0.1284118 0.0075992653
0.06270537 -0.028349528 -0.026679046 0.0990296 -0.027245224 0.0953348 0.049106553 -0.053372283
-0.1023321 -3.9038947e-05 -0.23303333 0.13816912 -0.007132165 -0.036327273 0.20296119 -0.1306069
0.05201927 0.1232821 0.06804811 0.034956332 0.121843636 0.004667028 0.10056259 0.038246565
0.061359655 0.07347885 0.13108574 0.016756216 0.10280332 0.010127854 -0.11257283 -0.121215545
-0.061592318 0.07846026 0.17881745 -0.13399576 0.108678244 0.2004066 0.06836265 0.080340534
0.062166188 0.042749234 0.023691207 0.0863594 -0.18465647 -0.17764033 0.071583934 0.0754044
-0.052060563 0.028850468 0.08932222 0.10040337 0.087104216 -0.070839114 0.12953155 0.0914615
0.041054316 0.09372349 -0.043633718 0.22208378 0.109531775 0.15530588 0.0029705882 -0.12686011
-0.024857048 -0.04450232 0.0258626 0.026249522 -0.07411265 0.012247187 -0.07814607 0.19162399
-0.009483763 0.13473177 -0.038814515 0.05392597 0.07186516 -0.030142313 0.13700756 -0.07595452
-0.057227552 -0.06374306 0.16165233 0.043751106 -0.18789165 0.035320684 0.050421223 0.02474906
-0.15907244 -0.12811933 -0.119435854 0.036323518 0.084939755 0.04212098 0.102465495 -0.051786512
-0.08877695 -0.1015743 0.093057014 -0.1471808 0.1111882 0.03929667 0.024044698 0.14065653
-0.11031226 0.036967047 0.16832723 0.08640965 0.06364784 -0.089628845 0.0018819529 -0.06838434
-0.132343 0.013651976 0.112990364 0.02679289 -0.0049260226 0.019941948 0.15377527 -0.13928777
0.17917526 -0.02244846 0.12540707 0.025405578 0.112959966 0.07428984 0.18644722 -0.023811027
0.012294027 -0.049167663 0.05433508 0.16890362 0.036681257 0.054438036 -0.0055201896 0.07394627
0.07553719 -0.13620661 0.048035573 -0.029032983 0.061186284 -0.00038038162 -0.051897205 -0.015925791
0.02287125 0.16527362 0.19336365 -0.028598348 0.028931513 0.12307424 0.07126192 -0.011167164
0.14471993 -0.07267923 -0.044234872 0.002266335 0.12076763 -0.051116142 0.1329166 -0.005926716
-0.17786635 0.0043119984 0.010459904 0.051605593 0.036740128 -0.065732084 -0.2901932 0.054646507
0.06615073 0.044544064 0.039863512 -0.05723619 -0.022398416 0.25413975 -0.15240887 -0.029880274
0.06127897 -0.08366351 0.0440319 0.10533203 -0.047906503 0.04714475 -0.045429744 0.22725129
-0.09595791 0.19347025 0.19745228 -0.016885227 0.093518466 0.2353142 -0.18492676 -0.2983794
0.18117462 -0.08016358 0.10935053 0.033542775 0.028649813 0.035437375 -0.18327406 -0.045451775
00000000: a194 1d3c 0528 29be 2384 c43d 4701 3d3e
00000010: 5990 9bbd bfea 23ba 2622 773d 5815 a63c
00000020: fe2d ca3d 133e 183c 9134 bf3d 42b0 0ebc
00000030: bcdb 59bd 3215 04be 3e32 503e b6f6 803d
00000040: 7442 eb3d b0b6 613c 6e52 09be 7766 11be
00000050: c188 333d 9c79 a2bc 81ff eabd 769c 963c
00000060: df4f b13d 9a5e 83bd 8d36 f53c a07d 1dbd
00000070: 2d1c 5dbd b4a0 a4bc 8788 143d 6709 b1bd
00000080: f080 b43d f091 543d b990 af3d 761d a23c
00000090: 74db b0bd 993a 00bd 6f04 cd3c cb1d 3dbe
000000a0: d9ae c6bd fb9b 993d d503 2fbd 61f9 843d
000000b0: 7cce 2cbc d21b 1bbc b642 f7bd 1ec1 e9bd
000000c0: 0668 4c3d de0c 403d f9eb df3d 450c 0d3d
000000d0: fa27 653d 717f a0bb 627e 033e 4203 f93b
000000e0: ac6b 803d 453d e8bc 048e dabc 08d0 ca3d
000000f0: 6031 dfbc e43e c33d f423 493d e59c 5abd
00000100: 7e93 d1bd c0bd 23b8 4aa0 6ebe 357c 0d3e
00000110: f0b4 e9bb e8cb 14bd 0fd5 4f3e d1bd 05be
00000120: 2812 553d 537b fc3d cf5c 8b3d 5f2e 0f3d
00000130: 2889 f93d deed 983b c2f3 cd3d 6ea8 1c3d
00000140: 4354 7b3d 147c 963d 573b 063e 5544 893c
00000150: 8c8a d23d 4cef 253c 958c e6bd db3f f8bd
00000160: 3a48 7cbd c6af a03d ec1b 373e 2f36 09be
00000170: b392 de3d 6337 4d3e b801 8c3d 9489 a43d
00000180: f9a1 7e3d d219 2f3d 1014 c23c 32dd b03d
00000190: 9616 3dbe 59e7 35be 999a 923d 9f6d 9a3d
000001a0: 753d 55bd d157 ec3c 91ee b63d 48a0 cd3d
000001b0: b263 b23d 1914 91bd eba3 043e 2b50 bb3d
000001c0: 9228 283d 1af2 bf3d 45b9 32bd ee69 633e
000001d0: 3252 e03d 8108 1f3e 33ae 423b 9ee7 01be
000001e0: 02a1 cbbc 1148 36bd cedd d33c 3d09 d73c
000001f0: 5fc8 97bd 6da8 483c 0c0b a0bd 1439 443e
00000200: c961 1bbc 20f7 093e f8fb 1ebd 7ae1 5c3d
00000210: 0a2e 933d 03ed f6bc b64b 0c3e 0b8e 9bbd
00000220: 7067 6abd b98b 82bd 3088 253e 5c34 333d
00000230: ab66 40be 6cac 103d 7c86 4e3d 8abe ca3c
00000240: e3e3 22be b731 03be c99a f4bd f8c7 143d
00000250: e5f4 ad3d 0c87 2c3d 6ed9 d13d 181e 54bd
00000260: b1d0 b5bd 3006 d0bd ad94 be3d 90b6 16be
00000270: a4b6 e33d 8cf5 203d 63f9 c43c 4408 103e
00000280: 65eb e1bd c26a 173d f95d 2c3e 8bf7 b03d
00000290: cc59 823d 548f b7bd dcab f63a 170d 8cbd
000002a0: ec84 07be 8aac 5f3c 7e67 e73d c37c db3c
000002b0: 796a a1bb 4c5d a33c 4477 1d3e 74a1 0ebe
000002c0: b879 373e d5e5 b7bc b66a 003e 5c1f d03c
000002d0: 8e57 e73d 4625 983d 05ec 3e3e 580f c3bc
000002e0: e36c 493c 0864 49bd 768e 5e3d 12f5 2c3e
000002f0: 163f 163d 6bfa 5e3d b5e2 b4bb 2471 973d
00000300: 3eb3 9a3d bf79 0bbe f3c0 443d 94d6 edbc
00000310: 789e 7a3d f56d c7b9 2a92 54bd ce76 82bc
00000320: 7d5c bb3c 7d3d 293e 1f01 463e 1547 eabc
00000330: c801 ed3c 590e fc3d c5f1 913d 7bf6 36bc
00000340: 7631 143e d9d8 94bd a02f 35bd cb86 143b
00000350: 0555 f73d 295f 51bd 4a1b 083e e634 c2bb
00000360: 9922 36be aa4b 8d3b 0460 2b3c 6360 533d
00000370: d17c 163d 8b9e 86bd 3494 94be 04d5 5f3d
00000380: 097a 873d d673 363d ec47 233d 7f70 6abd
00000390: e27c b7bc 9b1e 823e 1211 1cbe 7ac7 f4bc
000003a0: a8ff 7a3d c657 abbd cb5a 343d 52b8 d73d
000003b0: 9c39 44bd da1a 413d 8a14 3abd 90b4 683e
000003c0: 9585 c4bd 111d 463e ee30 4a3e e352 8abc
000003d0: 9c86 bf3d 35f6 703e 715d 3dbe 2fc5 98be
000003e0: d785 393e ce2c a4bd 2cf3 df3d 2664 093d
000003f0: 03b3 ea3c c826 113d 32ac 3bbe a42b 3abd

network_body._body_endoder.seq_layers.0.bias f4 [128]
-0.0006375721 -0.011975441 0.0041854572 0.0011839952 0.010643007 -0.0026031649 0.0032531163 0.0040140892
0.014555017 -0.0069476077 0.008762608 -0.025794726 0.0028301827 0.03334433 0.0041883434 0.007381962
0.01142044 0.012518161 0.0048525715 0.009528914 0.013478738 -0.0011840037 0.010843509 -0.014345733
-0.02432137 0.004331003 -0.010151576 0.011657618 -0.006599793 0.014199683 0.008830664 0.010945778
0.0051866765 -0.0122110685 0.0015495264 0.0037129773 -0.0019208394 0.013199354 0.009733083 -0.004952257
0.0057287854 0.00814645 0.028122848 0.0051933373 0.008594868 0.0009709637 0.009079537 0.0008854856
0.0089754285 0.0059396005 0.012591761 0.014094782 -0.008853571 -0.009554958 0.00946998 0.0056563984
0.010852625 -0.0041075773 0.011878828 0.015522309 -0.0070874165 -0.016462674 0.02262347 0.0046772677
0.016968172 -0.032358896 0.013956449 0.015014565 0.02043675 0.011564644 0.0139588835 0.013447776
0.00027125818 0.0011556238 0.015834374 0.010566249 0.01762713 -0.007826077 0.0014390942 -0.0066238376
-0.008528319 0.016911646 0.012088087 0.009528488 0.025120463 0.010949651 0.0053613503 0.029121526
0.015079777 -0.0050721164 0.018460756 -0.022419998 0.006187968 0.00900821 0.0055263583 0.01861389
0.013785093 0.013078198 0.010048734 0.0052796514 0.017474936 -0.0009472534 0.012003447 -0.027157605
0.011695406 -0.014104582 0.017024394 -0.006570026 0.032134265 0.00606831 0.0153398225 0.021705234
0.012304835 0.010554396 0.015084344 0.006937923 0.008320541 -0.010301464 0.0069997204 -0.007079703
-0.0024878194 0.018142948 0.005547751 0.012813604 -0.014330647 0.025050458 -0.006318859 0.012185163
00000000: bd22 27ba a434 44bc 2926 893b 4930 9b3a
00000010: 0260 2e3c dc99 2abb 3c32 553b 9f88 833b
00000020: 2b78 6e3c c2a8 e3bb 0b91 0f3c 764f d3bc
00000030: 967a 393b 1094 083d 5f3e 893b 63e4 f13b
00000040: cc1c 3b3c f918 4d3c 5202 9f3b 291f 1c3c
00000050: edd5 5c3c 9230 9bba f9a8 313c 5e0a 6bbc
00000060: 9c3d c7bc 16eb 8d3b cc52 26bc 98ff 3e3c
00000070: 1443 d8bb caa5 683c 7dae 103c ec55 333c
00000080: fff4 a93b ef10 48bc 7a19 cb3a 6c55 733b
00000090: adc4 fbba 1a42 583c 8277 1f3c 8b46 a2bb
000000a0: 89b8 bb3b b078 053c e361 e63c df2c aa3b
000000b0: 7dd1 0c3c 4588 7e3a 57c2 143c ef1f 683a
000000c0: ad0d 133c fba0 c23b ac4d 4e3c cded 663c
000000d0: 910e 11bc 668c 1cbc fa27 1b3c 4f59 b93b
000000e0: 35cf 313c db98 86bb 6a9f 423c 4851 7e3c
000000f0: 8f3d e8bb bbdc 86bc db54 b93c c443 993b
00000100: d600 8b3c c38a 04bd 97a9 643c a6ff 753c
00000110: f96a a73c a279 3d3c cdb3 643c 1054 5c3c
00000120: a837 8e39 4d78 973a 17b7 813c 0f1e 2d3c
00000130: c566 903c f238 00bc fd9f bc3a c70c d9bb
00000140: 5dba 0bbc 4b8a 8a3c 1d0d 463c 601d 1c3c
00000150: 6ec9 cd3c 2a66 333c 44ae af3b 4490 ee3c
00000160: 2b11 773c ff33 a6bb 033b 973c 25aa b7bc
00000170: 70c4 ca3b 2c97 133c 7416 b53b 287c 983c
00000180: dfda 613c f045 563c 72a3 243c ed00 ad3b
00000190: 9927 8f3c 1951 78ba 1baa 443c a079 debc
000001a0: 179e 3f3c e816 67bc be76 8b3c 5f49 d7bb
000001b0: 389f 033d acd8 c63b e153 7b3c 2dcf b13c
000001c0: 389a 493c 58ec 2c3c 5324 773c 8457 e33b
000001d0: e152 083c 79c7 28bc e95d e53b dafc e7bb
000001e0: af0a 23bb 85a0 943c e9c9 b53b 27f0 513c
000001f0: 17cb 6abc 9e36 cd3c 6e0e cfbb 47a4 473c

network_body._body_endoder.seq_layers.2.weight f4 [128, 128]
0.01138644 0.02425061 -0.030448878 -0.03941447 0.051513948 -0.14409865 0.031094454 -0.027837632
-0.04996612 0.02656741 0.042013954 -0.019354029 0.05093583 0.03408203 0.004372882 0.074263506
-0.06199037 0.18808652 0.16551897 0.22184959 0.059863284 -0.026420187 -0.056486417 0.06208617
0.0523153 -0.044941574 -0.020752706 -0.044386115 -0.0045658825 -0.022648146 -0.0038800153 0.034375235
-0.046578377 0.026984017 -0.019639874 -0.14858256 -0.06542582 -0.03523792 -0.08308733 -0.022890469
0.09340271 0.17639735 -0.06268807 -0.07497941 -0.10285813 -0.011862875 0.06901744 0.05918956
0.08512627 0.057232544 0.010864494 -0.11868647 0.1709238 -0.0826443 0.09605393 -0.007404718
0.20633052 -0.24414784 -0.07048937 -0.06566688 0.005964072 -0.09871651 0.2950951 -0.093601376
-0.18339925 0.04334885 0.13708189 0.06475666 -0.06321117 0.0045895674 0.16301696 0.15761212
-0.0027002252 0.13527277 -0.08122203 -0.094337575 0.037484623 0.016466705 0.13953876 -0.011305651
0.055388235 0.13694645 -0.18196024 0.11345753 0.09140915 -0.013872112 0.048442192 -0.027619705
-0.0529452 0.10685457 -0.04440761 -0.01841979 0.12457573 -0.21906984 0.03168479 -0.042355444
0.08733325 -0.076017216 0.01938691 -0.05402963 -0.15555961 0.035518557 0.09720655 0.04713895
0.10725839 -0.037922487 0.08934615 -0.20297745 0.05003058 0.003390529 0.26419422 0.04873823
-0.02160482 -0.11013296 0.01258371 -0.18955337 -0.09036813 -0.08555985 0.07912979 0.11807656
-0.010545258 0.07434083 0.069990784 -0.037070237 0.025142776 0.23108965 0.002682152 -0.075015806
0.036971353 -0.017944979 -0.058393296 -0.09897044 -0.039292473 0.1105591 -0.16744779 -0.04093241
0.08451736 -0.020366872 -0.05357025 0.08991193 -0.22416152 -0.066959724 -0.017942421 -0.061829492
-0.030538253 -0.019373808 0.1416233 -0.024505861 0.043571364 0.007193298 -0.015262646 0.013353104
-0.096986644 0.11632962 -0.23550631 0.06781879 -0.15709588 0.085087515 0.11010051 0.04046471
0.030461593 0.15834136 -0.10432105 0.023365505 -0.11168908 0.06383848 -0.07637862 0.03730507
0.009958924 -0.22987765 0.1798935 -0.0032401248 0.0030235767 0.16904147 0.041497342 0.04434302
-0.041806422 0.103401214 -0.025149083 0.026294066 -0.1942432 -0.043783505 -0.18220311 -0.15818447
-0.106499344 0.0055568237 0.0642157 0.0018141872 0.0542403 -0.26064354 0.15688777 0.124556646
0.041625533 -0.017317591 0.04709514 0.031125933 0.053873755 -0.04014392 -0.004993025 0.07574695
0.15785567 -0.05309194 0.1270503 0.09231033 0.07570685 0.17177902 -0.0550163 0.05419106
0.05662417 0.15248212 0.04144297 0.047835924 -0.0008130679 0.07345607 -0.062301256 -0.0035661776
0.12786928 0.02989555 0.23047273 0.02028279 0.008006355 0.008969067 0.10945143 -0.08981567
0.09074293 0.07784723 0.039870996 0.034739383 0.114353836 0.016969841 -0.074868545 -0.09579795
-0.11254456 0.032093443 0.11534083 0.08473537 -0.0024287202 0.039328158 -0.031045815 -0.06832137
0.09139974 0.1542933 -0.053310387 -0.060885035 0.005640792 -0.051756978 0.024322055 0.047019865
0.052055407 -0.004351886 -0.08495453 -0.055396236 -0.037960578 -0.14563763 0.12127611 0.08722536
00000000: 318e 3a3c 37a9 c63c ed6f f9bc 1171 21bd
00000010: 4a00 533d 998e 13be ccb9 fe3c bf0b e4bc
00000020: 46a9 4cbd e6a3 d93c d316 2c3d 578c 9ebc
00000030: 17a2 503d 9999 0b3d 654a 8f3b 7717 983d
00000040: 9de9 7dbd c199 403e ce7d 293e 8a2c 633e
00000050: 3433 753d 266f d8bc 4d5e 67bd 114e 7e3d
00000060: 9148 563d a814 38bd 9401 aabc 37ce 35bd
00000070: 669d 95bb 9b88 b9bc db47 7ebb 0ccd 0c3d
00000080: f8c8 3ebd 960d dd3c cde3 a0bc 0726 18be
00000090: f9fd 85bd a355 10bd b129 aabd cb84 bbbc
000000a0: ec49 bf3d 82a1 343e 9a62 80bd ce8e 99bd
000000b0: 49a7 d2bd 815c 42bc 0459 8d3d c170 723d
000000c0: af56 ae3d ac6c 6a3d fe00 323c e411 f3bd
000000d0: a606 2f3e 6a41 a9bd ecb7 c43d 47a3 f2bb
000000e0: 4f48 533e e401 7abe bb5c 90bd 5b7c 86bd
000000f0: 436e c33b e22b cabd b416 973e 14b2 bfbd
00000100: 03cd 3bbe 908e 313d 325f 0c3e 249f 843d
00000110: dc74 81bd 1564 963b ebed 263e 1265 213e
00000120: 43f6 30bb f284 0a3e bc57 a6bd 0f34 c1bd
00000130: 7a89 193d 2fe5 863c 40e3 0e3e 563b 39bc
00000140: c6de 623d b13b 0c3e c953 3abe 6c5c e83d
00000150: b834 bb3d db47 63bc 526b 463d b842 e2bc
00000160: 11dd 58bd 92d6 da3d c1e4 35bd 19e5 96bc
00000170: 8f21 ff3d d853 60be e9c7 013d e77c 2dbd
00000180: c6db b23d eaae 9bbd 4cd1 9e3c 2c4e 5dbd
00000190: 054b 1fbe e87b 113d 3a14 c73d c614 413d
000001a0: 49aa db3d 9c54 1bbd 1dfb b63d 52d9 4fbe
000001b0: deec 4c3d a333 5e3b 7744 873e bda1 473d
000001c0: 97fc b0bc 648d e1bd e82b 4e3c 471a 42be
000001d0: ed12 b9bd 013a afbd cd0e a23d 20d2 f13d
000001e0: 05c6 2cbc 0140 983d 5457 8f3d f6d6 17bd
000001f0: 39f8 cd3c c4a2 6c3e 0bc7 2f3b e3a1 99bd
00000200: 466f 173d 5901 93bc cf2d 6fbd 04b1 cabd
00000210: 25f1 20bd cf6c e23d 6f77 2bbe bea8 27bd
00000220: 7017 ad3d 6dd8 a6bc 7a6c 5bbd bf23 b83d
00000230: 998a 65be 2e22 89bd fcfb 92bc ec40 7dbd
00000240: 5c2b fabc d2b5 9ebc b305 113e 84c0 c8bc
00000250: e377 323d c2b5 eb3b 2d10 7abc fac6 5a3c
00000260: efa0 c6bd 393e ee3d 9128 71be 94e4 8a3d
00000270: bedd 20be 5d42 ae3d 607c e13d 53be 253d
00000280: 978a f93c 3d24 223e 46a6 d5bd 0469 bf3c
00000290: 3fbd e4bd c0bd 823d 656c 9cbd 33cd 183d
000002a0: c12a 233c 0c65 6bbe 0036 383e 4658 54bb
000002b0: 3327 463b 3519 2d3e 1ef9 293d 07a1 353d
000002c0: 363d 2bbd 04c4 d33d 7305 cebc a766 d73c
000002d0: b0e7 46be 5556 33bd 7493 3abe 1cfb 21be
000002e0: 541c dabd 0416 b63b 8583 833d 05ca ed3a
000002f0: 142b 5e3d 1273 85be 30a7 203e 8e17 ff3d
00000300: 897f 2a3d 9fdd 8dbc d5e6 403d d0fb fe3c
00000310: baaa 5c3d f36d 24bd 889c a3bb 3821 9b3d
00000320: eba4 213e ef76 59bd 7919 023e 330d bd3d
00000330: 310c 9b3d d7e6 2f3e c658 61bd 72f7 5d3d
00000340: bfee 673d 4624 1c3e 1bc0 293d 9aef 433d
00000350: 1024 55ba 2370 963d 9a2f 7fbd 88b6 69bb
00000360: 2af0 023e 83e7 f43c 0b01 6c3e 1828 a63c
00000370: 162d 033c fef2 123c 1228 e03d 47f1 b7bd
00000380: 6ed7 b93d 5e6e 9f3d c54f 233d e24a 0e3d
00000390: 5832 ea3d 5604 8b3c ae54 99bd b731 c4bd
000003a0: c37d e6bd 6a74 033d d037 ec3d bd89 ad3d
000003b0: 2a2b 1fbb 9016 213d cb53 febc 13ec 8bbd
000003c0: c92f bb3d 10ff 1d3e fe5b 5abd 9662 79bd
000003d0: 65d6 b83b 20ff 53bd 0c3f c73c e797 403d
000003e0: 0d38 553d 449a 8ebb a4fc adbd 2ae7 62bd
000003f0: 8d7c 1bbd 0822 15be 9c5f f83d 36a3 b23d

network_body._body_endoder.seq_layers.2.bias f4 [128]
0.0104648005 0.010748071 0.0030271306 0.006121325 -0.016250495 -0.004180079 0.0071295793 0.0031882606
0.007074014 0.024305696 0.009197982 -0.009245438 0.009448916 0.021789512 0.008973723 0.009596387
0.016064802 0.0031492196 0.009833613 0.018957261 0.016621023 0.013580641 0.0029897108 0.0041377884
-0.008320724 0.0043175844 -0.0007639969 0.014882808 0.0101665 0.007228244 0.0076489095 -0.017003663
0.01223184 0.010660099 0.019353814 0.011492057 0.01396294 0.02065286 0.0162468 0.009219224
-0.013137448 0.0015621037 0.011294998 0.002012615 0.021206584 0.011667876 0.012990297 0.012367534
0.013396778 -0.0035094528 0.0029233443 -0.00020869619 0.008765657 0.007863973 0.010703776 0.016732916
0.014108186 0.010118294 -0.00023331867 -0.011551854 0.006415944 0.008023574 0.0052456986 0.011691631
0.016972711 -0.00062805845 0.015576849 0.01816145 0.011105289 0.0055316905 0.0011231274 0.008221776
0.002896014 0.00010864583 0.007455923 0.0033485326 0.017082585 0.015618039 0.0018566357 0.016257888
0.0026046827 -0.008900205 0.008902439 0.011397315 0.014527312 0.0085787 0.020346692 -0.0060801236
-0.0009925078 -0.0015510487 0.005530159 0.001183971 0.013762765 0.023146953 0.009712235 0.0015409063
0.01982171 -0.003472193 0.0014275702 -0.0011761659 0.018115215 -0.0127455415 0.0010839357 0.0035525651
0.008109881 0.009206287 0.007646186 0.0057774317 0.0076213237 0.012254661 0.0060130763 0.004059868
0.013954662 0.003547025 0.0035648672 -0.0065632258 -0.00018834719 0.008235358 -0.00318304 0.015253271
0.011774651 0.0078000706 0.011565213 0.004546543 0.017131615 0.0075325747 0.008312843 0.006672968
00000000: 8e74 2b3c ad18 303c d362 463b 6595 c83b
00000010: c21f 85bc 0bf9 88bb 3f9f e93b 23f2 503b
00000020: 21cd e73b bd1c c73c 22b3 163c 2d7a 17bc
00000030: a0cf 1a3c eb7f b23c 8606 133c 2a3a 1d3c
00000040: 559a 833c 2363 4e3b 2a1d 213c 424c 9b3c
00000050: d028 883c 5681 5e3c 06ef 433b 4996 873b
00000060: a553 08bc 867a 8d3b f746 48ba 05d7 733c
00000070: 6491 263c e8da ec3b b4a3 fa3b 444b 8bbc
00000080: 0e68 483c b2a7 2e3c e48b 9e3c 2e49 3c3c
00000090: d1c4 643c 3030 a93c 0218 853c 3a0c 173c
000000a0: 733e 57bc 81bf cc3a a80e 393c 14e6 033b
000000b0: 6eb9 ad3c 9e2a 3f3c 41d5 543c 33a1 4a3c
000000c0: 297e 5b3c d9fe 65bb 9495 3f3b 75d5 5ab9
000000d0: d59d 0f3c e5d7 003c e45e 2f3c 7813 893c
000000e0: 0526 673c 33c7 253c 01a7 74b9 fd43 3dbc
000000f0: d73c d23b 4f75 033c 1ce4 ab3b 418e 3f3c
00000100: 5b0a 8b3c 4aa4 24ba 0a36 7f3c 52c7 943c
00000110: f5f2 353c 2f43 b53b e735 933a a1b4 063c
00000120: 0dcb 3d3b c9d8 e338 d150 f43b 0e73 5b3b
00000130: c7f0 8b3c cee2 7f3c 5b5a f33a 432f 853c
00000140: 53b3 2a3b 2ad2 11bc 89db 113c cebb 3a3c
00000150: f603 6e3c ad8d 0c3c 1bae a63c c63b c7bb
00000160: 0917 82ba 8f4c cbba 5636 b53b 792f 9b3a
00000170: 387d 613c ae9e bd3c 1120 1f3c 3cf8 c93a
00000180: 2461 a23c bb8d 63bb 4f1d bb3a 9429 9aba
00000190: 5c66 943c add2 50bc d912 8e3a 27d2 683b
000001a0: 4edf 043c f7d5 163c db8c fa3b 9c50 bd3b
000001b0: 4cbc f93b c6c7 483c 5709 c53b a408 853b
000001c0: 18a2 643c 3475 683b 8ca0 693b 5410 d7bb
000001d0: 107f 45b9 98ed 063c 8d9a 50bb dbe8 793c
000001e0: 77ea 403c bc97 ff3b 057c 3d3c 2bfb 943b
000001f0: 9a57 8c3c d1d3 f63b 9732 083c eaa8 da3b

action_model._discrete_distribution.branches.0.weight f4 [4, 128]
-0.017204633 -0.015815983 -0.0037894356 -0.008085286 0.015115517 0.01380162 -0.018948568 0.002087119
0.003912743 -0.013476344 -0.009302222 0.018183727 0.001402706 0.022937106 -0.02060734 -0.0053309365
0.00541053 -0.002664631 -0.0009945437 -0.0053936043 0.0047911843 -0.010328999 0.010479257 -0.008877231
0.028303089 -0.0090931 -0.006144471 -0.013162349 -0.012965394 -0.0026165086 -0.008032374 0.0029579827
0.004763302 0.012511346 -0.026193189 0.001989947 -0.03425212 -0.02057274 -0.02305861 0.0047235703
0.006798358 0.0014443083 -0.015786486 -0.013844817 -0.008635571 0.017954549 0.003206397 -0.027210912
-0.014297892 0.009696355 -0.017210644 0.0027134435 -0.023086999 -0.03777338 -0.025160264 -0.008968605
-0.013277753 -0.009022553 -0.012382458 -0.006337034 0.0062504956 -0.011847996 -0.017648637 -0.0145180235
0.006183745 0.010172138 -0.0327947 -0.009053107 -0.020613888 -0.0025591322 -0.009434432 0.0015149963
-0.010264131 0.010620274 0.00185515 0.005488121 -0.02486628 -0.03514733 0.003709807 -0.0066098347
-0.024449265 -0.0007114311 -0.0020032113 -0.0227707 -0.015365305 -0.011889978 -0.018141508 0.0044165337
0.001113636 -0.013504025 -0.012464596 0.00942208 -0.0086039705 -0.014149367 -0.002237373 -0.015483706
-0.017884819 0.022690605 -0.008921779 -0.006505223 -9.4258605e-05 0.004364012 0.021561824 -0.012932708
-0.0184323 -0.01297797 -0.025983375 -0.022002317 -0.040584046 -0.019626902 -0.022811076 -0.0017288339
-0.0045054117 -0.006532692 -0.010270135 0.005012244 0.008329355 -0.01799972 0.002251104 0.0062187617
0.0017125136 0.0041468916 -0.017393008 -0.0126408385 0.00036081125 -0.0037423298 -0.014054975 -0.023078136
0.055321965 -0.028657056 -0.04046238 0.040796116 -0.018523313 -0.01825431 0.03182434 -0.030315131
-0.010242418 -0.03903138 0.040765516 -0.008227604 -0.027134549 -0.019166987 -0.014183221 0.042392593
-0.029476026 -0.038476408 0.040427394 -0.016095707 -0.012347228 -0.037538912 -0.05094443 -0.031131795
-0.0110666305 -0.019833328 0.016925104 -0.04230845 -0.03469618 0.025415152 0.027737524 -0.028948383
-0.02821813 -0.055928316 0.046599995 -0.039273772 0.055169817 -0.030376935 -0.046164252 -0.03673641
0.0012346643 -0.029820995 0.046612475 0.04834333 -0.03324727 0.003544472 -0.03284997 0.03935704
-0.034385618 -0.016498044 0.0027421464 -0.04132029 0.036035065 0.04332066 -0.024818314 -0.03466772
0.049707726 0.035605345 0.01147466 -0.004114629 -0.018751733 0.029660033 0.053357825 0.044409957
-0.007220492 -0.03150306 0.05040111 -0.011179262 0.042326868 -0.023907093 0.017507825 -0.053794146
0.02324988 -0.034104742 -0.0059832437 0.02441621 0.0582998 0.027116757 -0.006669657 -0.03375493
0.009655822 0.01823867 -0.025095148 0.034146942 -0.027419042 -0.037836995 -0.016160041 -0.024392845
-0.016396206 0.00063501816 0.028274158 -0.013527832 0.049414407 -0.013745514 0.036144175 0.021664977
-0.024048839 -0.016888577 0.015025207 -0.015108454 -0.041113544 0.024483845 -0.034595475 -0.037486095
0.025108345 0.031989627 0.039012298 0.03153583 0.05458909 -0.018964533 0.040279012 -0.028132103
-0.04965555 0.034096695 -0.025307111 0.0019781368 0.028414983 -0.033866752 0.015133221 -0.009153215
-0.020538755 -0.021241337 0.03617754 -0.00019036914 -0.004029745 0.03775511 -0.01798732 -0.05724307
00000000: bbf0 8cbc 8590 81bc 2e58 78bb 2678 04bc
00000010: 13a7 773c 3120 623c 073a 9bbc 0cc8 083b
00000020: 7836 803b e2cb 5cbc 5968 18bc 0af6 943c
00000030: 01db b73a 99e6 bb3c b9d0 a8bc 23af aebb
00000040: d14a b13b 17a1 2ebb 595b 82ba d5bc b0bb
00000050: 5eff 9c3b f63a 29bc 31b1 2b3c ce71 11bc
00000060: e1db e73c 3afb 14bc 8f57 c9bb e5a6 57bc
00000070: ce6c 54bc bb79 2bbb 389a 03bc b7da 413b
00000080: 7915 9c3b 63fc 4c3c 1993 d6bc c569 023b
00000090: f34b 0cbd 2a88 a8bc 69e5 bcbc 2ec8 9a3b
000000a0: c3c4 de3b f24e bd3a a952 81bc 5fd5 62bc
000000b0: 367c 0dbc 6b15 933c 6a22 523b 6be9 debc
000000c0: b541 6abc 76dd 1e3c 56fd 8cbc 07d4 313b
000000d0: f220 bdbc 42b8 1abd e61c cebc 0ef1 12bc
000000e0: ef8a 59bc 55d3 13bc cbdf 4abc e5a6 cfbb
000000f0: f5d0 cc3b 191e 42bc e093 90bc 01dd 6dbc
00000100: 03a1 ca3b 0aa9 263c bc53 06bd 7c53 14bc
00000110: 75de a8bc 1db7 27bb e092 1abc d792 c63a
00000120: e32a 28bc a800 2e3c 8128 f33a b2d5 b33b
00000130: 5eb4 cbbc a6f6 0fbd 3c20 733b 5097 d8bb
00000140: d349 c8bc 557f 3aba 4f48 03bb 9e89 babc
00000150: c3be 7bbc 2fce 42bc 809d 94bc 92b8 903b
00000160: 6cf7 913a fc3f 5dbc 4e38 4cbc 115f 1a3c
00000170: abf7 0cbc bfd2 67bc e4a0 12bb 5faf 7dbc
00000180: 2f83 92bc a6e1 b93c a72c 12bc c429 d5bb
00000190: b4ac c5b8 fcff 8e3b 6ca2 b03c b5e3 53bc
000001a0: 56ff 96bc 8da1 54bc 16db d4bc 343e b4bc
000001b0: 753b 26bd 99c8 a0bc 4bde babc 0a9a e2ba
000001c0: 22a2 93bb 3110 d6bb 1144 28bc c03d a43b
000001d0: d977 083c 2674 93bc 4287 133b c1c6 cb3b
000001e0: 6c76 e03a a6e2 873b c87b 8ebc 851b 4fbc
000001f0: 442b bd39 e041 75bb d646 66bc 5c0e bdbc
00000200: 4999 623d 34c2 eabc e1bb 25bd d419 273d
00000210: 34be 97bc 108a 95bc 3d5a 023d 7057 f8bc
00000220: d1cf 27bc 5edf 1fbd bef9 263d 13cd 06bc
00000230: 4649 debc 1604 9dbc be60 68bc dba3 2d3d
00000240: b577 f1bc 7099 1dbd 3297 253d 25db 83bc
00000250: 074c 4abc 67c2 19bd 1bab 50bd 1b08 ffbc
00000260: d050 35bc 8179 a2bc 84a6 8a3c a04b 2dbd
00000270: 951d 0ebd 7033 d03c ce39 e33c 2925 edbc
00000280: b529 e7bc 1715 65bd a3df 3e3d 89dd 20bd
00000290: bff9 613d 0dd9 f8bc ba16 3dbd eb78 16bd
000002a0: 76d4 a13a 294b f4bc b9ec 3e3d a803 463d
000002b0: 4a2e 08bd 5f4a 683b b18d 06bd d934 213d
000002c0: efd7 0cbd e826 87bc 95b5 333b 773f 29bd
000002d0: 8199 133d 0171 313d c74f cbbc bdff 0dbd
000002e0: 549a 4b3d e9d6 113d 3600 3c3c 02d4 86bb
000002f0: 3c9d 99bc 99f9 f23c bc8d 5a3d 37e7 353d
00000300: e199 ecbb 5a09 01bd 6571 4e3d 3929 37bc
00000310: f05e 2d3d cfd8 c3bc 926c 8f3c 4057 5cbd
00000320: 8876 be3c 6ab1 0bbd 160f c4bb 8104 c83c
00000330: c5cb 6e3d f623 de3c 238d dabb 9c42 0abd
00000340: 7433 1e3c 4369 953c 5794 cdbc aadd 0b3d
00000350: e69d e0bc f7fa 1abd 1062 84bc 81d3 c7bc
00000360: 5651 86bc 5977 263a 359f e73c d7a3 5dbc
00000370: c366 4a3d dd34 61bc ea0b 143d c07a b13c
00000380: 1202 c5bc ea59 8abc 492c 763c 7389 77bc
00000390: ad66 28bd 5892 c83c fcb3 0dbd 058b 19bd
000003a0: 04b0 cd3c 8e07 033d 5ccb 1f3d b72b 013d
000003b0: cf98 5f3d 825b 9bbc 9bfb 243d 4c75 e6bc
000003c0: 9e63 4bbd faa8 0b3d dc50 cfbc a1a3 013b
000003d0: 8ac6 e83c ddb7 0abd 54f1 773c 5ef7 15bc
000003e0: e440 a8bc 5002 aebc e62e 143d d49d 47b9
000003f0: f30b 84bb 1aa5 1a3d 255a 93bc b677 6abd

action_model._discrete_distribution.branches.0.bias f4 [4]
-0.011109917 0.0139529295 -0.0003976629 -0.0034448234
00000000: 5f06 36bc d49a 643c 697d d0b9 8cc2 61bb

action_model._discrete_distribution.branches.1.weight f4 [2, 128]
-0.0074910494 -0.0033244053 -0.0024227658 -0.0056282375 -0.004798292 -0.004110334 -0.001427552 0.0005329668
0.0028112186 0.012226171 -0.009910089 0.0017313155 0.008595575 -0.0017171272 -0.0061280103 0.0115263555
0.013637421 -0.024682147 -0.0011370842 -0.0016018501 -0.002029677 -0.004105169 0.0021622758 0.0028216206
-0.0021160662 -0.0024997576 0.0050209523 -0.005398645 -0.022081407 -0.0019577465 -0.0007400024 -0.007884187
-0.0010569526 -0.0071979715 0.005039021 -0.002223393 0.011888225 -0.005308216 -0.005938718 0.0042225947
-0.002929486 0.004473397 -0.003848576 0.005406648 0.007814088 0.005583588 0.0022606037 0.0036498287
0.008877125 0.006470953 0.0016520338 -0.0037272568 0.0002289117 -0.0052208835 0.0057729157 0.00033974196
0.009451348 0.00550523 -0.008591061 -0.006209579 -0.0044927257 -0.00059065473 0.008492872 -0.007872247
-0.00059855834 0.00397991 0.0029160317 0.001091133 0.0005690725 0.010650179 0.004147975 -0.009417412
0.0028593694 0.014676228 0.01944304 -0.0048967986 0.008468432 0.0005409022 0.011042334 -0.0018194424
0.009221505 0.0045510824 -0.00015434345 -0.003986733 0.0031981745 -0.001531788 0.0025860795 -0.0037143743
-0.0014736423 0.008450172 0.013614089 -0.0077668736 -0.0032201568 -0.0031056374 0.007165799 -0.007016701
0.008884414 -0.011286704 0.01689089 0.016654419 0.015843958 0.0050199586 0.0124293985 0.012900204
0.015616243 0.005176139 0.005942529 0.004591431 0.00095633743 0.009366283 0.015967613 -0.010567745
-0.00047702668 -0.010038171 -0.002691211 0.006055143 0.0049048173 0.002433906 -0.0006064512 0.012236389
0.000202077 -0.014940961 0.0008799146 0.0011879007 -0.012115834 0.015060649 0.025612345 -0.005781403
-0.0067012603 -0.006617977 -0.0095602935 -0.019275978 0.00513436 0.019995183 -0.019892989 -0.012500203
0.009478237 -0.002205639 -0.021576148 -0.0047319178 -0.009813826 -0.0008609604 0.019092614 -0.015550606
0.00654257 -0.00047794834 0.0015412789 -0.007139595 -0.0019287395 -0.011512021 -0.0066173174 0.010449865
0.007676676 -0.0044010817 -0.00031462294 -0.0029870148 -0.00028168902 -0.0021710757 -0.0009026911 0.003268926
-0.014084485 -0.0024755467 0.0033927155 -0.014487819 -0.00018695791 0.00967143 0.004940177 -0.0014538129
-5.976939e-05 -0.006170155 -0.01698154 0.00085806486 0.011245205 0.012253648 -0.022898572 -0.012086697
-0.005458323 0.007315605 0.0010930512 0.007421072 0.0015290685 -0.01925986 0.0007248542 -0.021006588
-0.003584484 -0.018209917 -0.005914636 0.009115602 -0.012090831 -0.0033763915 0.008395634 -0.008388047
-0.0071169077 -0.0062385146 -0.0038242994 -0.017695686 -0.017340193 -0.004149003 -0.0064539993 -0.006328826
-0.018441852 -0.007059606 0.00090146693 -0.0008316415 -0.021966709 -0.009411449 -0.0015532968 0.00085320167
-0.016372213 0.0021723302 0.00043375866 -0.0052388436 0.012830855 -0.009707276 -0.004283744 0.0061215116
-0.0060213543 0.0012471523 -0.018053405 -0.015265395 -0.010123276 0.0024766473 0.0025039904 -0.011334395
-0.014451949 0.0030518947 0.0042725927 0.007754075 0.0038137794 0.0024755397 -0.003696871 0.0061566075
-9.246037e-05 -0.0027643698 -0.022098096 -0.0087665375 -0.011473622 -0.008181282 0.014947165 -0.0035546653
0.0054263747 0.002598612 -0.009359424 0.024111927 0.0008079842 0.005607879 -0.004363147 -0.00019483156
0.0012247582 0.007455648 -0.011719047 -0.014968291 -0.01805301 -0.0062397174 -0.0062674205 0.020899232
00000000: 7a77 f5bb 44de 59bb 44c7 1ebb 146d b8bb
00000010: fe3a 9dbb fbaf 86bb b21c bbba ccb6 0b3a
00000020: 6c3c 383b 4750 483c ed5d 22bc 4fed e23a
00000030: 74d4 0c3c 3a11 e1ba 7acd c8bb 0ad9 3c3c
00000040: 7d6f 5f3c 3732 cabc 370a 95ba 2cf5 d1ba
00000050: 5404 05bb a784 86bb f8b4 0d3b f0ea 383b
00000060: b3ad 0abb f9d2 23bb cd86 a43b 1ee7 b0bb
00000070: 11e4 b4bc 894d 00bb b8fc 41ba ad2c 01bc
00000080: 7289 8aba f6dc ebbb 5f1e a53b 58b6 11bb
00000090: d4c6 423c 8bf0 adbb 9499 c2bb b15d 8a3b
000000a0: 9ffc 3fbb 9395 923b 6438 7cbb 402a b13b
000000b0: a906 003c 88f6 b63b a326 143b f731 6f3b
000000c0: 5c71 113c 4a0a d43b 0e89 d83a fe44 74bb
000000d0: 0408 7039 f213 abbb ba2a bd3b 651f b239
000000e0: d4d9 1a3c 3765 b43b 86c1 0cbc b979 cbbb
000000f0: b737 93bb 2bd6 1aba b025 0b3c 99fa 00bc
00000100: 92e8 1cba e869 823b e51a 3f3b 5904 8f3a
00000110: cf2d 153a 177e 2e3c bceb 873b 7d4b 1abc
00000120: 4264 3b3b 9074 703c 0347 9f3c 5375 a0bb
00000130: 2ebf 0a3c 55cb 0d3a e8ea 343c 5b7a eeba
00000140: cc15 173c 3f21 953b 41d7 21b9 24a3 82bb
00000150: 7798 513b 47c6 c8ba 377b 293b dc6c 73bb
00000160: 3b27 c1ba 9772 0a3c a10d 5f3c 4281 febb
00000170: 4409 53bb f387 4bbb 14cf ea3b 5bec e5bb
00000180: ef8f 113c deeb 38bc c45e 8a3c d96e 883c
00000190: 30cb 813c 777e a43b ada4 4b3c 615b 533c
000001a0: 45db 7f3c 9a9c a93b 8cb9 c23b b773 963b
000001b0: b8b2 7a3a 0a75 193c 83ce 823c 5624 2dbc
000001c0: 7019 fab9 2477 24bc 075f 30bb 396a c63b
000001d0: 97b8 a03b 2b82 1f3b 40fa 1eba 237b 483c
000001e0: a2e4 5339 efca 74bc 12aa 663a 55b3 9b3a
000001f0: 7e81 46bc f1c0 763c fbd0 d13c ec71 bdbb
00000200: 3f96 dbbb 9ddb d8bb c7a2 1cbc a8e8 9dbc
00000210: 223e a83b f0cc a33c 9ff6 a2bc a7cd 4cbc
00000220: 9b4a 1b3c 7b8c 10bb 76c0 b0bc 340e 9bbb
00000230: 2bca 20bc 13b2 61ba 1d68 9c3c f8c7 7ebc
00000240: 0e63 d63b 2495 fab9 bd04 ca3a 44f3 e9bb
00000250: c2cd fcba ea9c 3cbc 15d6 d8bb e935 2b3c
00000260: a08c fb3b f336 90bb faf3 a4b9 cbc1 43bb
00000270: a9af 93b9 9b48 0ebb 93a2 6cba 7a3b 563b
00000280: 9dc2 66bc c83c 22bb 5258 5e3b 515e 6dbc
00000290: 220a 44b9 eb74 1e3c 35e1 a13b de8d beba
000002a0: e5b0 7ab8 032f cabb df1c 8bbc c2ef 603a
000002b0: cf3d 383c 86c3 483c c995 bbbc 4807 46bc
000002c0: bbdb b2bb beb7 ef3b b644 8f3a 772c f33b
000002d0: 066b c83a dbc6 9dbc 2404 3e3a 0216 acbc
000002e0: aae9 6abb f72c 95bc 90cf c1bb 9b59 153c
000002f0: 9f18 46bc 7346 5dbb d78d 093c 056e 09bc
00000300: f334 e9bb 746c ccbb 19a1 7abb 8bf6 90bc
00000310: 050d 8ebc 5cf4 87bb 127c d3bb 0a62 cfbb
00000320: 5e13 97bc 4454 e7bb 6c50 6c3a 8402 5aba
00000330: 87f3 b3bc 7a32 1abc fe97 cbba 65a9 5f3a
00000340: 051f 86bc a75d 0e3b 1a6a e339 9baa abbb
00000350: 8238 523c 440b 1fbc a65e 8cbb f696 c83b
00000360: c84e c5bb 7d77 a33a bce4 93bc b51b 7abc
00000370: 19dc 25bc 3f4f 223b fd19 243b e6b3 39bc
00000380: dec7 6cbc 4c02 483b 1b01 8c3b e515 fe3b
00000390: 9af0 793b aa3c 223b 3447 72bb 5ebd c93b
000003a0: 48e7 c1b8 6e2a 35bb 1107 b5bc 86a1 0fbc
000003b0: dcfb 3bbc c90a 06bc f4e4 743c 63f5 68bb
000003c0: bbcf b13b 7a4d 2a3b 4558 19bc 6086 c53c
000003d0: e7ce 533a 4cc2 b73b bbf8 8ebb b34b 4cb9
000003e0: 1188 a03a 824e f43b 3f01 40bc 903d 75bc
000003f0: e8e3 93bc 8b76 ccbb ef5e cdbb de34 ab3c

action_model._discrete_distribution.branches.1.bias f4 [2]
0.0034901518 -0.0034901528
00000000: 08bb 643b 0cbb 64bb

exp_avg f4 [128, 118]
-1.0377176e-05 0.0 -5.7825426e-05 -6.7033936e-05 1.7205555e-06 0.0 -6.992315e-05 -6.9509704e-05
-6.91002e-05 1.6889544e-05 -1.5991971e-05 -4.2959207e-05 -7.0383044e-07 0.0 -6.7498775e-05 -6.7699075e-05
-3.3651962e-05 -3.6048084e-05 1.497426e-06 -3.9051432e-05 -2.5086321e-05 0.0 -4.3116295e-05 -6.373671e-05
-7.404988e-05 -7.3772494e-06 1.3224507e-05 -4.56582e-05 -1.9297574e-06 0.0 -6.627285e-05 -5.5113804e-05
-1.9297574e-06 0.0 -6.627285e-05 -5.5113804e-05 8.934472e-06 0.0 -3.0094088e-05 5.165587e-06
-5.2208583e-05 -6.194597e-05 1.9165314e-05 0.0 -3.3267302e-06 1.4275737e-05 -9.8316945e-05 -9.546877e-05
-1.0360232e-05 0.0 0.0 6.1671476e-06 -6.400953e-05 -6.947525e-05 -2.999706e-07 0.0
-6.970357e-06 7.081827e-06 -6.801412e-05 -7.7858276e-05 -2.6791082e-05 0.0 0.0 -6.1359384e-07
-4.0797942e-05 -5.396328e-05 -7.6030965e-06 0.0 -5.692846e-06 0.0 -5.4906675e-05 -6.257775e-05
-9.3269017e-07 0.0 0.0 0.0 -6.7269924e-05 -6.783429e-05 -7.1660124e-06 0.0
-1.0567519e-05 0.0 -5.0469083e-05 -6.217567e-05 -6.7774213e-06 0.0 0.0 0.0
-6.142519e-05 -6.544625e-05 6.703076e-06 0.0 2.1836326e-05 0.0 -9.674201e-05 -6.879539e-05
-2.0880689e-05 0.0 0.0 0.0 -4.7321915e-05 -5.06832e-05 4.5117035e-06 0.0
6.360417e-06 0.0 -7.9074736e-05 -7.325113e-05 4.5117035e-06 0.0 6.360417e-06 0.0
-7.9074736e-05 -7.325113e-05 0.0 0.0 0.0 0.0 -2.2186663e-05 0.0
-6.895555e-05 -8.7186e-05 1.2248041e-06 0.0 -9.236702e-05 -9.20754e-05 -8.6120526e-05 3.266866e-05
-3.7690344e-05 -4.134958e-05 1.275215e-06 0.0 -9.2417424e-05 -9.233132e-05 -4.556376e-05 -2.1451982e-05
-2.4126468e-05 -4.7994527e-05 -4.1368367e-06 0.0 -8.700537e-05 -9.524879e-05 -5.9603335e-05 -1.030197e-05
-2.1236916e-05 -5.060832e-05 4.3017786e-05 0.0 -0.00013416 -9.1170485e-05 4.3017786e-05 0.0
-0.00013416 -9.1170485e-05 1.0284504e-06 0.0 -5.149608e-05 9.68645e-06 -5.036103e-05 -5.505534e-05
8.698006e-06 0.0 -2.515118e-05 3.520841e-05 -0.00010989746 -0.00012515053 -3.255086e-06 0.0
0.0 2.2856486e-06 -9.0172776e-05 -9.921054e-05 -1.2176746e-05 0.0 -1.522547e-05 4.954871e-05
-0.00011328869 -0.00012799673 -2.1995053e-05 0.0 0.0 -1.4376697e-06 -6.7709494e-05 -9.011472e-05
-1.7018365e-05 0.0 -1.4080856e-05 0.0 -6.004299e-05 -7.7876255e-05 -1.2301176e-05 0.0
0.0 0.0 -7.884105e-05 -8.779231e-05 -3.0381493e-06 0.0 -2.8715142e-05 0.0
-5.9388924e-05 -8.298215e-05 -1.7899458e-05 0.0 0.0 0.0 -7.3242765e-05 -8.209979e-05
1.8297931e-05 0.0 1.9487321e-05 0.0 -0.00012892745 -9.524049e-05 -1.1303185e-05 0.0
0.0 0.0 -7.983903e-05 -7.7110075e-05 -3.758234e-07 0.0 1.7719739e-06 0.0
-9.253836e-05 -9.239282e-05 -3.758234e-07 0.0 1.7719739e-06 0.0 -9.253836e-05 -9.239282e-05
0.0 0.0 0.0 0.0 -3.068557e-05 0.0 -0.00017874979 -0.00020503021
4.1492235e-06 0.0 -0.00021358454 -0.00021267115 -0.00017546598 4.5878787e-05 -7.9848156e-05 -0.00013888282
-8.283916e-08 0.0 -0.00020935251 -0.00020961769 -9.598966e-05 -8.061023e-05 -3.283545e-05 -0.00013048008
00000000: a219 2eb7 0000 0000 9489 72b8 9294 8cb8
00000010: d6ed e635 0000 0000 b5a3 92b8 bdc5 91b8
00000020: e3e9 90b8 05ae 8d37 7f26 86b7 192f 34b8
00000030: dcee 3cb5 0000 0000 218e 8db8 aaf9 8db8
00000040: 8525 0db8 5632 17b8 2afb c835 28cb 23b8
00000050: 7770 d2b7 0000 0000 c5d7 34b8 63aa 85b8
00000060: 3a4b 9bb8 178a f7b6 d3de 5d37 1e81 3fb8
00000070: fb80 01b6 0000 0000 f7fb 8ab8 ff29 67b8
00000080: fb80 01b6 0000 0000 f7fb 8ab8 ff29 67b8
00000090: 44e5 1537 0000 0000 9072 fcb7 0e54 ad36
000000a0: 8afa 5ab8 fde8 81b8 33c5 a037 0000 0000
000000b0: ca40 5fb6 d381 6f37 822f ceb8 6836 c8b8
000000c0: dcd0 2db7 0000 0000 0000 0000 65ef ce36
000000d0: db3c 86b8 3eb3 91b8 a50b a1b4 0000 0000
000000e0: e9e2 e9b6 6ea0 ed36 cda2 8eb8 d847 a3b8
000000f0: 69bd e0b7 0000 0000 0000 0000 d9b5 24b5
00000100: 751e 2bb8 a156 62b8 1a1e ffb6 0000 0000
00000110: 2d05 bfb6 0000 0000 984b 66b8 2c3c 83b8
00000120: fb5d 7ab5 0000 0000 0000 0000 0000 0000
00000130: 4413 8db8 4242 8eb8 9473 f0b6 0000 0000
00000140: 264b 31b7 0000 0000 c4ae 53b8 4f64 82b8
00000150: 9b69 e3b6 0000 0000 0000 0000 0000 0000
00000160: 66d1 80b8 3040 89b8 fcea e036 0000 0000
00000170: 272d b737 0000 0000 f9e1 cab8 3e46 90b8
00000180: f028 afb7 0000 0000 0000 0000 0000 0000
00000190: 857b 46b8 ac94 54b8 3d63 9736 0000 0000
000001a0: 916b d536 0000 0000 edd4 a5b8 679e 99b8
000001b0: 3d63 9736 0000 0000 916b d536 0000 0000
000001c0: edd4 a5b8 679e 99b8 0000 0000 0000 0000
000001d0: 0000 0000 0000 0000 7f1d bab7 0000 0000
000001e0: 3b9c 90b8 a1d7 b6b8 f363 a435 0000 0000
000001f0: 2bb5 c1b8 9b18 c1b8 9b9b b4b8 b505 0938
00000200: b315 1eb8 c66e 2db8 0e28 ab35 0000 0000
00000210: 3ad0 c1b8 00a2 c1b8 b71b 3fb8 c8f3 b3b7
00000220: 3263 cab7 bb4d 49b8 28cf 8ab6 0000 0000
00000230: a776 b6b8 4ec0 c7b8 98fe 79b8 a0d6 2cb7
00000240: ee25 b2b7 4544 54b8 ff6d 3438 0000 0000
00000250: 4dad 0cb9 c832 bfb8 ff6d 3438 0000 0000
00000260: 4dad 0cb9 c832 bfb8 4909 8a35 0000 0000
00000270: 7ffd 57b8 fc82 2237 bf3a 53b8 39eb 66b8
00000280: a7ed 1137 0000 0000 bffb d2b7 beac 1338
00000290: c078 e6b8 d73a 03b9 f471 5ab6 0000 0000
000002a0: 0000 0000 2563 1936 241b bdb8 410f d0b8
000002b0: ba4a 4cb7 0000 0000 e570 7fb7 86d2 4f38
000002c0: 6795 edb8 dc36 06b9 0482 b8b7 0000 0000
000002d0: 0000 0000 f4f5 c0b5 42ff 8db8 f9fb bcb8
000002e0: a9c2 8eb7 0000 0000 d13c 6cb7 0000 0000
000002f0: abd6 7bb8 7f51 a3b8 2661 4eb7 0000 0000
00000300: 0000 0000 0000 0000 7757 a5b8 231d b8b8
00000310: 02e3 4bb6 0000 0000 4ce1 f0b7 0000 0000
00000320: 5f18 79b8 b406 aeb8 cb26 96b7 0000 0000
00000330: 0000 0000 0000 0000 e999 99b8 fd2c acb8
00000340: 827e 9937 0000 0000 b478 a337 0000 0000
00000350: b330 07b9 d9bb c7b8 cfa2 3db7 0000 0000
00000360: 0000 0000 0000 0000 416f a7b8 28b6 a1b8
00000370: c6c4 c9b4 0000 0000 8fd4 ed35 0000 0000
00000380: 2711 c2b8 04c3 c1b8 c6c4 c9b4 0000 0000
00000390: 8fd4 ed35 0000 0000 2711 c2b8 04c3 c1b8
000003a0: 0000 0000 0000 0000 0000 0000 0000 0000
000003b0: 61b4 00b8 0000 0000 c86e 3bb9 61fd 56b9
000003c0: 8f39 8b36 0000 0000 aaf5 5fb9 7a00 5fb9
000003d0: 4afd 37b9 f96d 4038 2774 a7b8 13a1 11b9
000003e0: 4fe5 b1b3 0000 0000 a385 5bb9 d2cc 5bb9
000003f0: 0e4e c9b8 4a0d a9b8 ccb8 09b8 7bd1 08b9

exp_avg_sq f4 [128, 118]
6.2281877e-09 0.0 5.8644186e-08 6.43758e-08 8.962989e-10 0.0 6.5683565e-08 6.7475774e-08
3.7380197e-08 2.4954588e-10 1.9843121e-08 3.937849e-08 3.9482365e-11 0.0 6.9638396e-08 6.978646e-08
4.5262322e-08 5.310688e-10 1.1921494e-08 3.057539e-08 3.5286174e-10 0.0 6.9383645e-08 6.9734824e-08
3.320788e-08 1.8766357e-10 2.1995326e-08 4.1448793e-08 9.0495794e-10 0.0 6.928535e-08 6.955732e-08
9.0495794e-10 0.0 6.928535e-08 6.955732e-08 8.35891e-09 0.0 2.6114797e-09 1.6811634e-11
5.4102657e-08 6.038764e-08 4.46248e-09 0.0 3.695916e-09 2.2796008e-10 5.8005046e-08 6.154673e-08
2.7761802e-09 0.0 0.0 1.8794261e-11 6.4023254e-08 6.6680336e-08 1.4143248e-09 0.0
2.693273e-09 4.6461898e-10 6.329265e-08 6.4579886e-08 2.645308e-09 0.0 0.0 4.0284724e-13
6.3265965e-08 6.770907e-08 7.31663e-10 0.0 1.3555377e-09 0.0 6.6832776e-08 6.7543866e-08
1.8284788e-09 0.0 0.0 0.0 6.417956e-08 6.792448e-08 1.2501057e-09 0.0
1.2709717e-09 0.0 6.516127e-08 6.620924e-08 7.512159e-10 0.0 0.0 0.0
6.778034e-08 6.956841e-08 3.93652e-09 0.0 1.9262276e-09 0.0 6.0736724e-08 6.246471e-08
4.9416027e-10 0.0 0.0 0.0 6.830964e-08 6.8633334e-08 3.0884317e-09 0.0
1.2368447e-09 0.0 6.347377e-08 6.45634e-08 3.0884317e-09 0.0 1.2368447e-09 0.0
6.347377e-08 6.45634e-08 0.0 0.0 0.0 0.0 5.3565277e-09 0.0
5.772916e-08 6.2221005e-08 8.141083e-10 0.0 6.288555e-08 6.488469e-08 2.7641297e-08 4.1476594e-10
2.8499983e-08 4.441429e-08 5.9315636e-11 0.0 6.702537e-08 6.721317e-08 3.5966874e-08 6.8310835e-10
1.955887e-08 3.706063e-08 5.6707e-10 0.0 6.639457e-08 6.707625e-08 2.4296833e-08 3.081782e-10
3.093037e-08 4.6294204e-08 1.6493874e-09 0.0 6.555302e-08 6.6465816e-08 1.6493874e-09 0.0
6.555302e-08 6.6465816e-08 7.1435196e-09 0.0 1.924353e-09 4.5963806e-11 5.3642005e-08 5.934264e-08
5.624472e-09 0.0 3.4256424e-09 6.1810423e-10 5.3908842e-08 5.844891e-08 2.6879585e-09 0.0
0.0 1.4652321e-11 6.188087e-08 6.414206e-08 2.0793147e-09 0.0 3.104796e-09 1.0239021e-09
5.9578298e-08 6.1198904e-08 3.6790702e-09 0.0 0.0 1.0548279e-12 5.8622753e-08 6.4130404e-08
1.5893693e-09 0.0 1.9979798e-09 0.0 6.332963e-08 6.425516e-08 2.4270623e-09 0.0
0.0 0.0 6.184078e-08 6.5508786e-08 1.894025e-09 0.0 1.0461323e-09 0.0
6.33624e-08 6.4398975e-08 1.6311981e-09 0.0 0.0 0.0 6.374658e-08 6.664134e-08
2.5938136e-09 0.0 8.944403e-10 0.0 6.103513e-08 6.240149e-08 3.510176e-10 0.0
0.0 0.0 6.608199e-08 6.6459876e-08 1.1013789e-09 0.0 2.9354053e-10 0.0
6.5315895e-08 6.566792e-08 1.1013789e-09 0.0 2.9354053e-10 0.0 6.5315895e-08 6.566792e-08
0.0 0.0 0.0 0.0 3.5258083e-08 0.0 3.464248e-07 3.7803858e-07
4.8848725e-09 0.0 3.8449988e-07 3.9562832e-07 1.9970099e-07 1.4390138e-09 1.334066e-07 2.4542766e-07
3.478054e-10 0.0 4.081906e-07 4.0947438e-07 2.443215e-07 3.495783e-09 8.500023e-08 1.966376e-07
00000000: b8ff d531 0000 0000 f7df 7b33 f83e 8a33
00000010: 6e5f 7630 0000 0000 ec0d 8d33 33e7 9033
00000020: f68b 2033 7630 892f 7c73 aa32 1c21 2933
00000030: 31a5 2d2e 0000 0000 1d8c 9533 83dd 9533
00000040: 7366 4233 a5fa 1130 49cf 4c32 ff51 0333
00000050: e0fc c12f 0000 0000 1000 9533 20c1 9533
00000060: 73a0 0e33 9956 4e2f 3cf0 bc32 6e05 3233
00000070: c1c0 7830 0000 0000 06ca 9433 8b5f 9533
00000080: c1c0 7830 0000 0000 06ca 9433 8b5f 9533
00000090: e09a 0f32 0000 0000 a375 3331 6fe0 932d
000000a0: 805e 6833 75ae 8133 6454 9931 0000 0000
000000b0: 3efb 7d31 0fa5 7a2f 3921 7933 ac2b 8433
000000c0: 14c7 3e31 0000 0000 0000 0000 ea50 a52d
000000d0: 287d 8933 e731 8f33 2162 c230 0000 0000
000000e0: 8f14 3931 4f6d ff2f 81eb 8733 2baf 8a33
000000f0: c0c8 3531 0000 0000 0000 0000 68c8 e22a
00000100: d5dc 8733 7467 9133 351e 4930 0000 0000
00000110: be4d ba30 0000 0000 b585 8f33 a20c 9133
00000120: e14d fb30 0000 0000 0000 0000 0000 0000
00000130: 16d3 8933 e1dd 9133 2fd0 ab30 0000 0000
00000140: 57ae ae30 0000 0000 c9ee 8b33 ea2e 8e33
00000150: 1f7e 4e30 0000 0000 0000 0000 0000 0000
00000160: a38e 9133 a365 9533 ff41 8731 0000 0000
00000170: 8e5e 0431 0000 0000 5e6e 8233 5624 8633
00000180: 70d5 0730 0000 0000 0000 0000 0000 0000
00000190: 9fb1 9233 9363 9333 443c 5431 0000 0000
000001a0: 9bfd a930 0000 0000 134f 8833 1ba6 8a33
000001b0: 443c 5431 0000 0000 9bfd a930 0000 0000
000001c0: 134f 8833 1ba6 8a33 0000 0000 0000 0000
000001d0: 0000 0000 0000 0000 840c b831 0000 0000
000001e0: e2f1 7733 5c9e 8533 c7c7 5f30 0000 0000
000001f0: b20b 8733 bc56 8b33 db6f ed32 1e05 e42f
00000200: 20d0 f432 07c2 3e33 bc6f 822e 0000 0000
00000210: 96ef 8f33 d556 9033 ff79 1a33 7ac5 3b30
00000220: 6902 a832 982c 1f33 01e0 1b30 0000 0000
00000230: cd94 8e33 8f0b 9033 4db5 d032 3a6c a92f
00000240: 4dd8 0433 04d5 4633 a9b0 e230 0000 0000
00000250: 27c6 8c33 f8bb 8e33 a9b0 e230 0000 0000
00000260: 27c6 8c33 f8bb 8e33 1073 f531 0000 0000
00000270: 933d 0431 a526 4a2e 0264 6633 ecdf 7e33
00000280: 6141 c131 0000 0000 8a68 6b31 38e7 2930
00000290: 6689 6733 4209 7b33 11b7 3831 0000 0000
000002a0: 0000 0000 18e2 802d 5ee3 8433 78be 8933
000002b0: b1e3 0e31 0000 0000 265c 5531 5ab9 8c30
000002c0: 08e3 7f33 746c 8333 e3d2 7c31 0000 0000
000002d0: 0000 0000 2e74 942b 66c8 7b33 10b8 8933
000002e0: f670 da30 0000 0000 d54c 0931 0000 0000
000002f0: d5ff 8733 a6fc 8933 55c9 2631 0000 0000
00000300: 0000 0000 0000 0000 54cd 8433 d6ad 8c33
00000310: 0a28 0231 0000 0000 82c7 8f30 0000 0000
00000320: d911 8833 b64b 8a33 ae30 e030 0000 0000
00000330: 0000 0000 0000 0000 0ee5 8833 771c 8f33
00000340: da3e 3231 0000 0000 a4dc 7530 0000 0000
00000350: 6b12 8333 9501 8633 56f9 c02f 0000 0000
00000360: 0000 0000 0000 0000 f5e8 8d33 b4b8 8e33
00000370: 535f 9730 0000 0000 2860 a12f 0000 0000
00000380: cb43 8c33 5205 8d33 535f 9730 0000 0000
00000390: 2860 a12f 0000 0000 cb43 8c33 5205 8d33
000003a0: 0000 0000 0000 0000 0000 0000 0000 0000
000003b0: ac6e 1733 0000 0000 43fc b934 3af5 ca34
000003c0: cbd7 a731 0000 0000 436d ce34 be66 d434
000003d0: 646d 5634 ccc6 c530 873e 0f34 52c3 8334
000003e0: 4235 bf2f 0000 0000 4a25 db34 bbd5 db34
000003f0: 4b2b 8334 773a 7031 5f89 b633 5523 5334

exp_avg f4 [128]
-6.8199806e-05 -9.117188e-05 -0.00020946682 0.0001038683 -3.7451764e-06 2.8581506e-05 -0.00016925727 -4.1488347e-05
0.00023736856 -3.5704536e-06 -0.00016024946 -1.3177828e-05 -0.00012273664 -8.621061e-05 3.396921e-05 -0.00019786217
0.00012090423 -0.00013879768 -9.4952695e-05 -0.00019665388 -0.00013118942 -1.7402568e-05 0.00015892861 2.252014e-05
-7.79484e-06 -7.671117e-05 3.0759898e-06 0.00036634307 -8.7319175e-05 2.0407142e-05 0.00031370873 5.702265e-05
-8.7316716e-05 -2.9024628e-05 -0.00022182641 0.000117181735 -6.6189335e-05 -3.996106e-05 0.00036856855 6.7902697e-06
0.0001394103 -9.283345e-05 0.00019347445 6.961587e-05 6.455106e-05 1.9581337e-05 -2.9685527e-05 3.650745e-05
-5.097503e-05 3.3612612e-06 -0.00014820139 -0.00024556584 -0.00013338856 -2.6438505e-05 -6.963129e-05 5.5811866e-05
-0.00016854299 5.9402487e-06 7.872786e-05 -0.00028342675 -0.00011287167 -3.4142925e-06 2.4676958e-05 0.0002260756
0.00028618044 -1.7965289e-05 -0.00012166726 -5.637997e-05 -2.7459851e-05 -0.00022423455 0.00014702264 -0.00020264402
0.00011355868 -2.7819842e-05 2.1770224e-05 0.00024687813 1.7962291e-05 -6.87168e-07 -6.2700485e-05 -6.1751316e-06
-1.0476459e-06 -5.0583994e-06 0.00026281195 -0.00018517705 0.00016047576 0.0001318944 -1.1387584e-05 0.0002515638
-0.00013916643 0.00010934481 0.00037910944 6.9853144e-07 -0.00015549509 0.00023147307 -0.00016883253 0.00010224565
0.00011621833 -2.5119152e-05 -8.21888e-05 -3.8607664e-06 0.00015880488 -0.00012043143 0.00010870525 -1.4704215e-05
-0.00019677948 -8.793764e-06 -0.00022798643 -7.5127746e-06 0.00036076116 0.0002911153 5.1546755e-05 -0.00012388051
0.00027900733 0.00024239213 -0.00023620433 -2.6319192e-05 9.321794e-05 -1.3960201e-06 2.7366234e-05 3.752854e-06
3.9359944e-05 -0.00019256957 -0.000121673336 -0.00021171774 -6.677553e-06 -0.00021995092 0.0001074023 8.7722256e-05
00000000: 7e06 8fb8 8833 bfb8 52a4 5bb9 ded3 d938
00000010: a455 7bb6 51c2 ef37 a77a 31b9 c603 2eb8
00000020: 23e6 7839 ed9b 6fb6 a308 28b9 5716 5db7
00000030: deb2 00b9 f8cb b4b8 297a 0e38 3979 4fb9
00000040: f78d fd38 388a 11b9 5721 c7b8 e034 4eb9
00000050: e48f 09b9 bbfb 91b7 13a6 2639 a2e9 bc37
00000060: 95c6 02b7 ffdf a0b8 1a6d 4e36 bc11 c039
00000070: 201f b7b8 0130 ab37 4679 a439 9b2b 6f38
00000080: ce1d b7b8 ea79 f3b7 139a 68b9 77bf f538
00000090: 21cf 8ab8 dd9b 27b8 6f3c c139 f9d7 e336
000000a0: ab2e 1239 94af c2b8 67df 4a39 bcfe 9138
000000b0: 965f 8738 9a42 a437 2f05 f9b7 931f 1938
000000c0: 06ce 55b8 0792 6136 8266 1bb9 4abf 80b9
000000d0: 38de 0bb9 42c8 ddb7 0407 92b8 8917 6a38
000000e0: eaba 30b9 5952 c736 b31a a538 e598 94b9
000000f0: 84b5 ecb8 1921 65b6 5d01 cf37 b50e 6d39
00000100: 7d0a 9639 2ab4 96b7 9d27 ffb8 8879 6cb8
00000110: 9559 e6b7 8120 6bb9 172a 1a39 d77c 54b9
00000120: 5a26 ee38 a85e e9b7 339f b637 6c6f 8139
00000130: baad 9637 d375 38b5 117e 83b8 fa33 cfb6
00000140: d79c 8cb5 52bb a9b6 06ca 8939 162c 42b9
00000150: 6245 2839 224d 0a39 4d0d 3fb7 52e4 8339
00000160: 34ed 11b9 0c50 e538 35c3 c639 b782 3b35
00000170: 650c 23b9 94b7 7239 a308 31b9 b76c d638
00000180: 3eba f338 f8b6 d2b7 c75c acb8 bb8b 81b6
00000190: dc84 2639 2290 fcb8 b0f8 e338 1fb2 76b7
000001a0: 9756 4eb9 ee88 13b7 a40f 6fb9 3e16 fcb6
000001b0: 8b24 bd39 d6a0 9839 e833 5838 ece5 01b9
000001c0: bb47 9239 a42a 7e39 9ead 77b9 09c8 dcb7
000001d0: 007e c338 e35e bbb5 8a90 e537 8ad9 7b36
000001e0: 6b16 2538 80ec 49b9 e02a ffb8 8c00 5eb9
000001f0: be0f e0b6 a0a2 66b9 2c3d e138 87f7 b738
