results/Test01/MoveToGoal/MoveToGoal-31389.onnx (onnx, 925583 bytes, 13 tensors)

action_model._continuous_distribution.log_sigma f4 [1, 2]
00000000: 7ac5 1cbc 0b4a 90b9
-0.009568566 -0.00027520987

action_model._continuous_distribution.mu.bias f4 [2]
00000000: 38d0 e33a f9d2 29ba
0.001738078 -0.0006478276

action_model._continuous_distribution.mu.weight f4 [2, 256]
00000000: 2046 e7bb 29a3 9ebc 7e5f 863b 76d5 bf3b
00000010: 5d05 f13b af25 59bc 6008 1dba b757 673a
00000020: 24e6 42bc 60a4 77bc c445 263c ec04 da3b
00000030: 32f7 30bc 8967 c93b 5e06 8f3c 4350 463b
00000040: 43c9 d83c cf80 1fbc fef2 4dba 0e42 3b3c
00000050: ecb0 9339 0c1e 123c 45b4 883c cf31 183c
00000060: c4d6 c93b 4b1c 5dbc c0a8 e83b e840 e23a
00000070: aa51 a1ba 0d57 9e3b 5f0e 013b d36c f3bb
00000080: aabf 9a3b a64f bf3b a3f2 903b d2b6 98bb
00000090: 6449 6e3b 1925 1f3c 844e 613c d69a 343b
000000a0: 471e 33bc 1ae4 0e3c b189 aebc cb90 a53b
000000b0: 55f6 dc3b efe9 433c 344a 0abc 936c af3a
000000c0: 9a4f 903b c150 8abc f8ff 0f3c faa5 6cbc
000000d0: 72b3 a13a 3fd8 a83c 0bc5 8ebb cc67 52bc
000000e0: 2c62 343c 08b9 203c 2b2e 9bbb 8f5e bb3a
000000f0: a365 093c fdd0 82ba 975c 34bb 6ccc c03c
00000100: f4f1 343c 94b3 8b3c a557 66bc 069f 4ebc
00000110: 0985 94ba 32a9 7fbc c202 a5bb 43ae fc38
00000120: a8b9 6c3a bd47 383c 6c94 abbb 725c 45bb
00000130: ab67 1bbc fed9 ccba 6bd5 e73a 545a 243c
00000140: d331 903c ba29 67bc 1f65 813b bc28 e8bb
00000150: 84df 843c c385 0cbc a44b 8d3b 537b 48bc
00000160: 6dbf 16bc a08e 423c d5cd 2fbc b32f d5bb
00000170: 4c97 ecbb afe8 e9ba dd19 78bc f56a 0c3b
00000180: 612e 8b3c 8d38 bf3b 951c 023a befc e5bb
00000190: 7694 c83c b562 43bb f960 103c 3d6c a53b
000001a0: 1a21 bf3b 4004 173a 21cc b5bc 259b 60bb
000001b0: 21cd 0d3c 86ae febb dc53 05bc ecd3 3d3c
000001c0: bcdc ad3b b98e ce3b 80a3 3937 8d35 9e3b
000001d0: 6c96 013b c113 013c 02f4 ddbb 5d13 8338
000001e0: 271d 9d3c 69e4 5c3c a14b 953c e6de cfbc
000001f0: 5448 f1bb db2a 37bb 2811 9c3c 3e63 8b3c
00000200: 14ce da3b d3ac a93b 4768 eb3b 18f7 363b
00000210: 6967 293c 73bb 99bc 5cac a53c 4343 51bb
00000220: 8ab1 2c3b 6ca7 48bc 4abc 7c3b 2edf 063c
00000230: 101a 0ebc 1d1e 6f3b fc12 ab3b 9f19 3b38
00000240: 98ad bbbb 9558 533a 6fb4 fcbc 2919 8f3b
00000250: 8ae7 613c a697 433c bc6a 00bb 26e6 9b3c
00000260: 3da6 99ba d6bb 3f3c bfc4 ab3b 6611 6cbc
00000270: 5867 0e3c 4cda 45bc 58e0 8dbc 25a0 97bc
00000280: 9790 313c f1db 0e3c 7b0e 5c3b 31fe 853c
00000290: 813c a43b 861e 64bc ea9b af3c 5e31 ae3b
000002a0: c815 f73b 0fbc b5bb 06f3 41bc 7214 683c
000002b0: 6286 5e3b 3873 cfbc 244a 84ba 9c9f acbc
000002c0: ff0b 743b 1905 f9b9 4fd8 b43c 39f0 033c
000002d0: b3e1 2cbb acd6 cf3c b69f 32bc eb35 c43b
000002e0: 59eb 98ba a673 07bb 36b0 e73a e497 2abc
000002f0: e690 543c be1b 453c 1be6 313c 6660 b13b
00000300: f339 bf3c a4d4 30bc 8a5b d53b 554b c73c
00000310: 1656 b5bc 80f7 7c3c bc7b 033c 6cdb 8b3b
00000320: 14ec 393b 7f39 d0bb 5d2c 5fbc 5a6d f439
00000330: 3719 b13c 6e3d 8b3c a28b 36bc 730c 00bc
00000340: dc75 d93b 1414 1a3c 3156 bdbb f0ff 22bc
00000350: 8a26 fe3b 0ce6 963c 6dcb c73c 25e4 ab3b
00000360: 5515 cd3b 5e2e 18bc 2008 283b 8f4c 083b
00000370: 9dd7 473b 9163 7fbb db2b d239 4340 493b
00000380: 6541 a03a ed25 9a3c ed5e cabc 56a0 eebb
00000390: 0d5c 753b 7622 f4bb b772 2e3c 167c 6b3c
000003a0: 347d e4ba 7bb1 e43b 363e 2d3c ea7f 36bb
000003b0: afe1 4f3c ec25 d2bb e3e3 443c 9319 dcba
000003c0: 93d4 e43c da21 21bb 3159 6d3c e4ff 68bb
000003d0: 8727 b9bb f796 f03c c79e a4bb c2c8 faba
000003e0: 4d17 d93a a35d 1fb7 7d9f 553a 200b 11bb
000003f0: dea0 293b cf3e 01bc 6cfc 22bc d0c5 2a3c
-0.00705792 -0.01936491 0.004100739 0.005854304 0.0073553757 -0.013253613 -0.00059903227 0.0008825021
-0.01189569 -0.015114874 0.010148469 0.0066534188 -0.010801123 0.0061463756 0.01745909 0.0030260242
0.026463157 -0.0097353 -0.0007856338 0.011429323 0.00028169842 0.008918297 0.016687522 0.009289219
0.0061596353 -0.013495515 0.0071001947 0.0017261775 -0.0012307663 0.0048321546 0.0019692404 -0.0074287443
0.004722555 0.0058383523 0.004423456 -0.0046604658 0.0036359662 0.009713435 0.01375163 0.002755811
-0.010932512 0.008721376 -0.02130589 0.005052661 0.0067432323 0.01195763 -0.008440543 0.0013383798
0.0044040205 -0.01688421 0.008789055 -0.014443869 0.0012336804 0.020610927 -0.0043569854 -0.01284213
0.011009734 0.00980974 -0.0047357283 0.0014295148 0.0083860485 -0.0009980496 -0.0027521008 0.023534976
0.011044014 0.017053403 -0.014058982 -0.012611156 -0.0011331151 -0.015604304 -0.005035729 0.00012048755
0.00090303505 0.0112475725 -0.005236199 -0.0030114916 -0.009485166 -0.0015628932 0.0017687505 0.0100313015
0.017601883 -0.0141090695 0.003948822 -0.007084934 0.016219862 -0.008576813 0.0043119956 -0.012236434
-0.009200913 0.011874825 -0.0107302265 -0.0065059303 -0.0072201844 -0.0017845834 -0.015142885 0.0021426056
0.016989889 0.005835599 0.00049633655 -0.0070186546 0.024484854 -0.0029813473 0.008812183 0.0050483034
0.0058328034 0.0005760826 -0.022192063 -0.003427216 0.008654864 -0.0077722697 -0.008137669 0.011586171
0.0053058546 0.006303635 1.1064927e-05 0.004828161 0.0019773496 0.007878245 -0.0067734728 6.2501735e-05
0.01917894 0.013482192 0.01822454 -0.025374841 -0.0073633585 -0.0027949128 0.01905115 0.017015096
0.0066773985 0.005178073 0.0071840617 0.0027918275 0.010339596 -0.01876614 0.020223789 -0.003193096
0.0026350939 -0.012246948 0.0038564377 0.008231921 -0.008673206 0.0036486455 0.005220769 4.4608136e-05
-0.005727481 0.0008062211 -0.030847756 0.004367013 0.013788113 0.011938011 -0.0019594869 0.019030642
-0.0011722517 0.011702498 0.00524196 -0.014408445 0.008691631 -0.012075972 -0.01731889 -0.01850898
0.010837696 0.00871943 0.0033577967 0.01635656 0.0050120954 -0.013923293 0.02143665 0.0053159436
0.0075404383 -0.0055461 -0.011837726 0.014165031 0.003395461 -0.025323495 -0.0010092896 -0.021072201
0.0037238596 -0.0004749678 0.0220758 0.008052879 -0.0026379644 0.025370918 -0.010902336 0.005987873
-0.0011666819 -0.0020668297 0.0017676416 -0.01041219 0.012974 0.01203054 0.010858084 0.005413103
0.023343062 -0.010792885 0.0065111564 0.024327913 -0.022135776 0.015439868 0.008025106 0.0042681005
0.0028369473 -0.0063545103 -0.013621417 0.0004662078 0.021618469 0.016997065 -0.0111416895 -0.007815468
0.0066363644 0.009404201 -0.005778097 -0.009948716 0.007756059 0.018420242 0.024388993 0.005245703
0.0062586465 -0.009288399 0.0025639609 0.0020797586 0.0030493506 -0.0038969258 0.00040086996 0.003070847
0.001222652 0.018816913 -0.024703467 -0.007282297 0.00374389 -0.007450397 0.010647467 0.014372846
-0.0017432333 0.006979165 0.010573914 -0.0027847239 0.0126880845 -0.006413212 0.012017223 -0.001679229
0.027933395 -0.0024586827 0.014486597 -0.0035552913 -0.005650464 0.02936886 -0.0050238105 -0.0019133317
0.001656273 -9.49894e-06 0.0008149071 -0.0022131875 0.0025883238 -0.00788851 -0.009947877 0.010423139

action_model._discrete_distribution.branches.0.bias f4 [2]
00000000: 913e cc3a 8f3e ccba
0.0015582611 -0.0015582609

action_model._discrete_distribution.branches.0.weight f4 [2, 256]
00000000: 20cc 0abc 7f0e 113c 5e48 68bb 7cb8 283a
00000010: 040e 50ba 6fba 94ba 8c5f d7bb 0de7 293c
00000020: 8197 863b c402 403b 2b2e 173b aebe bfbb
00000030: 36f2 faba c011 4e3c f54b 4b37 c379 61bb
00000040: 0ddb 6f3a 29ef bcba 23b0 09bc 9135 7b3a
00000050: 8108 643b e56e c33a e33c dcbb 9053 d53b
00000060: e9f0 ce3a 4ae1 28b9 0bb0 87ba 6c93 063b
00000070: a9d0 a038 db4e 1d3b b228 06bc 8006 503b
00000080: a08e 103c 47ca a53a 8d7a 7abc a0ba dd3b
00000090: 3acd a73b 186f 183b 365d 80bc 096a b3bb
000000a0: b5d2 55ba 47a4 25bb 5b0b 8bbb 50b5 f5bb
000000b0: 9885 033c 2883 6fbb fd6e 8abb 14d9 cf3b
000000c0: a8c1 293b 9eac ceb9 1647 a1bb 226c 8a3b
000000d0: 0db3 ff3a a42a 85b9 d6fe 9a3b fd16 9abb
000000e0: 0271 793b 520c 013c 68c4 a7bb a863 383c
000000f0: 12b5 8d3b e1c4 953b 7866 443b a48f 213b
00000100: 3d33 333a a060 d539 aa26 c9bb 7eb4 443c
00000110: a730 66bb f73e bcbb 4260 9a3a 0ae7 5bba
00000120: 1cef 06bb 114f acba 2bff b3b9 f172 e1bb
00000130: af0b b1ba 774d ef3b 3bb1 e73b ed79 e53a
00000140: 494e 97ba fc3a dbbb e4e2 eeba b28f 51ba
00000150: 172f 08bc d338 a4ba 1232 0a3b 27d9 d73b
00000160: 5f52 c0bb 87c2 aebb a3e1 6b3b e973 a7bb
00000170: d7c0 1fbc 9e76 0bbb 22d7 bfbb f3c8 abbb
00000180: 5d74 153c 56d0 943b 6e57 7aba da19 7c3b
00000190: 262e 3fbc 86f4 b3bb a668 c339 dad7 13bc
000001a0: 6be3 8c3a 5f17 48b8 53aa 0dbc 2c86 edbb
000001b0: d09a dfba 8b95 313c a443 caba 2518 493b
000001c0: 8419 b83b 45b3 4eba 5c31 5f3a 830b 493b
000001d0: 7a65 4bbb af43 45bb 9985 d2ba 509b 4ebb
000001e0: 4ca4 bd3b c39a 043b c64d 873a 5fcb 15bb
000001f0: d834 ce3b 3504 5c3b d487 383b 1112 b63a
00000200: 4646 fd3a 8a28 a9bb b1d2 ee3b 55e3 6c3b
00000210: e632 65bb 2ee4 53bb c332 4ebc 7d08 d639
00000220: a06a fcbb c572 17bb 4fb3 c1bb 3b48 b1ba
00000230: 0d85 b4ba 7f21 843b 0539 2dbc 1e4a 14bc
00000240: 1879 19bc 5d26 cfbb 5229 5d39 51f5 d1b9
00000250: 833b 0f3c 27dd 93b7 02fa e3ba d8b2 fcb9
00000260: bf92 8cbb 72bd 00bb 6bf1 d6ba 5c78 f3b7
00000270: 6392 a8ba 090f 433b da0d 4cbc fdaa 0d3b
00000280: eb42 473b 3e5e 82b9 58f7 2a3b d9e0 05bc
00000290: 6ff8 053c 08ba a73a d1b6 093b 9a0d 703b
000002a0: 763e 0b3c 42b6 c6bb 285c 27bc 9753 1a3b
000002b0: 0026 21bb cca4 c83b 6746 a93b be54 d1bb
000002c0: eb2b 12bc 4589 ba3b 0227 d3bb 98fb ca3a
000002d0: 3a8f 52bb ff07 1fba 1da4 0dbc 05d5 7dbb
000002e0: 8d56 2fba 1232 42bb 3d6c 7d3c e4e4 0a3c
000002f0: aa61 82bb b895 52bb e59f c33a 8920 43bc
00000300: a366 c5bb ebbd d23b b744 0bbc b9e2 973b
00000310: 2752 103b ea3b 78bb 635c bcbb 5a04 41bb
00000320: f9a8 c7bb 7d79 27bc 38a4 a53b 67aa a33b
00000330: 8e58 913b c506 3f3b d12b e4bb e7ca 5bbb
00000340: 5a3f bebb 1d52 9f3b 2d2a 17bb e550 283b
00000350: 4077 c23a 55b9 b9b7 d6bb d13a 4e3d 5cbb
00000360: 36d2 f93a 57db dc3b ff8c bbbb efa3 fdbb
00000370: f080 3ebb 5290 8cbb 2712 e63a f32e 7b3b
00000380: 4253 c2bb b252 8c3b 5e1b 80bc b401 59bc
00000390: 6a11 193c 7408 23ba 3a26 453c 25d8 e0bb
000003a0: d260 5e39 45ea 6439 9a11 60bb 79d0 f2b9
000003b0: 2d2a eeb9 ad83 0b3c fcf7 2dbc 3491 24bc
000003c0: 7b46 f9ba db65 b13a eb71 513c 08c8 9b3a
000003d0: bc66 85bb 49e6 c0bb a04a 68bb 813f d13b
000003e0: e3a0 e83b dd4b 15bc 27e5 0cbc 6fb8 80bb
000003f0: 825f 813a 57ed 28bc 2f66 27bc c0f8 a3bb
-0.008471519 0.008853554 -0.0035443525 0.0006436182 -0.0007936659 -0.0011347065 -0.0065726694 0.010370028
0.004107416 0.0029298523 0.002306829 -0.005851588 -0.0019145671 0.012577474 1.2117428e-05 -0.003440485
0.00091497676 -0.0014414537 -0.008403811 0.0009582872 0.0034795108 0.0014910368 -0.0067211254 0.0065102056
0.001578835 -0.00016105655 -0.0010352148 0.0020534648 7.6682605e-05 0.00240033 -0.008188413 0.0031742156
0.008823067 0.0012648784 -0.015288007 0.006766632 0.0051209005 0.0023259576 -0.015669446 -0.005475287
-0.0008156703 -0.002527492 -0.004243297 -0.007498421 0.008027457 -0.003654668 -0.0042246566 0.0063430164
0.0025902782 -0.00039419992 -0.004921804 0.004224316 0.0019508317 -0.00025399507 0.004730086 -0.0047024474
0.0038061743 0.007876473 -0.005119849 0.011254229 0.004324564 0.004570589 0.0029968303 0.0024652267
0.0006835943 0.00040698517 -0.0061386423 0.012005923 -0.0035124214 -0.0057448107 0.0011777955 -0.00083886145
-0.0020589298 -0.0013146122 -0.00034331655 -0.006880157 -0.001350751 0.0073029357 0.007070688 0.001750765
-0.0011543717 -0.006690381 -0.0018225578 -0.00079941296 -0.008312008 -0.0012529142 0.0021086973 0.006587166
-0.0058691944 -0.005333248 0.0035992644 -0.005110253 -0.009750566 -0.0021280418 -0.0058545033 -0.005242461
0.009121981 0.004541437 -0.0009549771 0.0038467557 -0.0116687175 -0.005491796 0.00037271268 -0.009023631
0.0010748928 -4.7705482e-05 -0.0086465655 -0.0072486605 -0.0017059688 0.0108388765 -0.0015431535 0.0030684557
0.005618276 -0.00078849896 0.000851413 0.0030677028 -0.0031035827 -0.0030100157 -0.0016061544 -0.003152568
0.005787408 0.0020233847 0.0010322861 -0.0022856814 0.0062929206 0.0033571844 0.0028157132 0.0013890882
0.0019323311 -0.0051623033 0.0072883 0.0036146243 -0.0034972965 -0.003233205 -0.012585345 0.00040823585
-0.0077031404 -0.002310918 -0.005911268 -0.0013525555 -0.0013772562 0.0040323134 -0.010572677 -0.009050874
-0.00936725 -0.006321712 0.00021091595 -0.0004004636 0.008742216 -1.7626748e-05 -0.0017393234 -0.00048198435
-0.0042899544 -0.0019644168 -0.0016398852 -2.9023904e-05 -0.001286101 0.00297636 -0.012454474 0.002161681
0.0030404876 -0.00024865748 0.002608737 -0.008171284 0.008176907 0.001279653 0.0021013508 0.00366292
0.008498779 -0.0060642073 -0.010214843 0.0023548359 -0.00245893 0.006123161 0.0051658633 -0.006388276
-0.008921604 0.0056926333 -0.006443859 0.0015486358 -0.0032128827 -0.000606656 -0.008645085 -0.0038731706
-0.0006688617 -0.0029631895 0.015467701 0.008477423 -0.0039789276 -0.0032132696 0.0014924972 -0.011909612
-0.006024198 0.0064313314 -0.00850027 0.0046351817 0.0022021623 -0.0037877508 -0.005748318 -0.0029452057
-0.006093141 -0.010221836 0.005054977 0.004994679 0.0044356054 0.0029148322 -0.006963231 -0.0033537687
-0.005805892 0.0048620836 -0.002306591 0.0025682983 0.0014836565 -2.214002e-05 0.0016001414 -0.0033605876
0.001905984 0.0067400145 -0.005723595 -0.0077404897 -0.0029068552 -0.0042896653 0.0017553017 0.0038327544
-0.0059303353 0.004282319 -0.01563805 -0.013245035 0.009342531 -0.0006219216 0.01203304 -0.006861704
0.00021207638 0.00021831047 -0.003419018 -0.0004631316 -0.0004542632 0.008515281 -0.010618206 -0.010044385
-0.0019018197 0.0013534384 0.012783508 0.0011885175 -0.004071085 -0.005886827 -0.003544487 0.006385744
0.0070992573 -0.0091123255 -0.008599556 -0.003928236 0.0009870382 -0.0103104925 -0.010217234 -0.0050040185

network_body._body_endoder.seq_layers.0.bias f4 [256]
00000000: 4d16 02ba 33f0 eb38 a77c 08bb 2278 9738
00000010: 1b20 48ba af95 b6ba 73c3 ccb8 7502 e1bb
00000020: 1a7b 7dbb e0d0 b4ba a5ec df3a e0cd 8f3b
00000030: d2bb 7bbb 2775 d53a 2ea2 6cbb bea7 26bb
00000040: f0d9 82b9 4a49 2839 09ea cc3a 4b9e 23ba
00000050: 91bf b43a e418 b43a e1bc b13a 0d1b 86bb
00000060: 2b1e 6bbb 0132 cab9 9f33 9738 efed 8b3b
00000070: f291 49ba e590 893b 16b7 bb39 babd 55bb
00000080: 20a4 a5b9 2639 85ba 658c 35ba 043d c137
00000090: d08e 153a 5a82 37bb 088a 29bb b394 1ebb
000000a0: 600f 873b f485 3fba d26d 3fbb c812 033b
000000b0: 948d 6cb8 748d f1ba 3c05 bc3a 73b7 4539
000000c0: d0b3 c83a 2e8f 47bb 6753 ac3a a29a 90ba
000000d0: a953 b23a f7c2 0cba c75f 17ba e961 493a
000000e0: a9b7 80bb 356b 9bb9 b3d8 54b7 da1b 9639
000000f0: f637 6b3a 8f12 5b3b a328 a53b e2c6 6abb
00000100: 45b9 39bb 75bc 2e3a d0f7 343b e23a c23a
00000110: 08a0 293b 688f 3c3a a8ad 18bb 9d4a 3e3a
00000120: 83c1 43b9 463a 91ba 6c76 07b9 b900 2ebb
00000130: aca5 b5ba 06b7 02bb 2f79 51bb adcf c83a
00000140: eda0 8738 3e41 64ba dcaa a2bb 59d3 9738
00000150: 7ea0 c138 4690 693b 4091 69ba 428a e439
00000160: 233d 21b9 e6f0 6739 f489 1039 d911 ff39
00000170: 07fe 813a aee6 bdb9 9999 24ba 83bb 76b8
00000180: fcad aab9 dce7 9a3b 23aa 85bb 18c9 b03a
00000190: 4cb6 333b 9bfc 04bb 207e 38ba 25fa 12ba
000001a0: 33e9 84b9 1a84 ce39 7d6b 7eb9 7b44 b2ba
000001b0: b939 83bb 1b95 af38 23cb 553a 6e86 9139
000001c0: 2918 75b9 ffac e4bb a2ef 0c3a e4dc eabb
000001d0: 0235 4239 3d39 42bb 0803 0b3a 2539 e239
000001e0: 4490 323a 14c3 253b f91c 4bba 3a0b 31ba
000001f0: 2168 1cba a4eb 323a b643 273b 5a25 ddb9
00000200: d3c2 473a b10e 9cba 3579 533b d6d8 cebb
00000210: 90b8 82ba 6118 063a b716 93bb 9958 42bb
00000220: 8331 05bb 4e68 79bb e18f 8fba 50be bbb9
00000230: 61f7 adbb 8d27 96ba 0147 88ba 4219 1aba
00000240: 49c3 4a3c 361a 6039 35dc d0bb 385d e7ba
00000250: c938 a4bb 24e1 1c38 dfc2 c7b9 d814 9d39
00000260: 57be 0cba 1bb7 d4b9 3cf9 98ba e53c 50ba
00000270: 97d1 cfb9 5945 8239 ea67 003a 3445 e6ba
00000280: 4fe7 1ebb 7b9e 893b 3d1d f439 709e 9dba
00000290: c99b d239 7f26 1e3a d61f 67bb a770 453a
000002a0: cb3a c8ba 46f5 b63a 7edf 1bba 5140 fdba
000002b0: 1cb6 30ba 39d5 edb9 b7c4 b03b 944e 9fba
000002c0: f05d 7b3a 677c 3bbb 6b9b 33bb 9310 faba
000002d0: fce8 103b 7cd0 813a 05b8 abba ce1f 6239
000002e0: 42a5 423b b542 dcba d99f b7bb 958c 88ba
000002f0: 0fcf b9ba f88f b0b9 9cd4 dfba f0d2 363c
00000300: ba33 72b8 3e1d 363a 9f96 ad38 aa00 11bc
00000310: f602 8139 5747 803b 8760 19bb d338 3c3a
00000320: 8634 243b 07fb 8cbb 1371 9739 517e 303a
00000330: b866 85ba bec7 8aba 295a 90ba 2482 f93a
00000340: ed03 a9ba 9d3b 07ba 30a1 df38 4bc8 333a
00000350: cb5a bbba 2cbb de3b 56f7 93b9 5576 c8b8
00000360: f260 233a d4fa 10ba 469d 12ba 608f b83a
00000370: e5be 47b9 e9ff ea3a d1ae 0b39 d21a a83b
00000380: 8033 1e3b 72fd 6b39 2967 a5ba dba2 7fba
00000390: 9833 193b 392a 823b 2c37 f5b9 7a85 1a3b
000003a0: 6850 25bb a14c 6936 187f d8b8 712e b2b9
000003b0: 6309 b4ba 5d2c 87ba af9d 5db9 8d52 9839
000003c0: 14ef 48ba 0109 1c3b 7852 0c3b fea3 1b3a
000003d0: c122 9639 9451 4fba dadb 0eba da07 89ba
000003e0: 0a06 a6ba f6fc 1cbb 2bd8 083b 4d5f 1aba
000003f0: 2cb6 f9ba 8605 033b f069 86ba af0f 10ba
-0.00049624295 0.00011250414 -0.0020826252 7.2226176e-05 -0.00076341786 -0.0013930107 -9.763883e-05 -0.006866748
-0.003867811 -0.001379516 0.0017084075 0.004388556 -0.003841151 0.0016285524 -0.0036107409 -0.0025429572
-0.00024957908 0.00016049031 0.0015633713 -0.0006241544 0.0013790001 0.0013740328 0.0013560319 -0.00409258
-0.0035876136 -0.00038565698 7.209856e-05 0.0042703073 -0.0007689289 0.004198181 0.0003580383 -0.0032614307
-0.00031593535 -0.0010164126 -0.00069255225 2.3035805e-05 0.00057051796 -0.002800128 -0.0025869627 -0.0024197518
0.004121706 -0.00073060323 -0.0029209745 0.0020000208 -5.639864e-05 -0.0018428997 0.0014344822 0.00018855724
0.0015312377 -0.0030450332 0.0013147414 -0.0011032412 0.0013605255 -0.0005369628 -0.0005774465 0.0007682131
-0.003928144 -0.0002964378 -1.2686639e-05 0.0002863098 0.00089728774 0.003342781 0.0050402447 -0.003582411
-0.002833919 0.00066656555 0.0027613528 0.0014818574 0.002588274 0.0007193 -0.0023296867 0.0007259043
-0.00018668738 -0.0011079989 -0.00012918719 -0.0026550724 -0.0013858578 -0.0019945516 -0.00319631 0.0015320681
6.4672764e-05 -0.00087072316 -0.0049642157 7.239608e-05 9.232851e-05 0.0035638972 -0.00089098886 0.0004359056
-0.00015376932 0.00022119618 0.00013784302 0.00048650688 0.0009917625 -0.0003622076 -0.00062789913 -5.8825604e-05
-0.00032554555 0.004727347 -0.00407912 0.0013487665 0.002742189 -0.0020292166 -0.0007037837 -0.00056067324
-0.0002535075 0.00039389805 -0.0002426337 -0.0013600731 -0.004004684 8.372423e-05 0.0008155575 0.00027756713
-0.00023374021 -0.0069786306 0.0005376284 -0.0071674455 0.00018521029 -0.0029636167 0.0005302881 0.00043148655
0.00068116584 0.0025293278 -0.0007748153 -0.0006753687 -0.0005966444 0.00068252743 0.0025522537 -0.00042180234
0.00076202786 -0.0011906234 0.003226829 -0.00631247 -0.0009973217 0.0005115327 -0.004488792 -0.002965486
-0.00203237 -0.0038056555 -0.0010952913 -0.00035809213 -0.005309031 -0.0011455879 -0.0010397137 -0.00058783975
0.012375661 0.00021372069 -0.006373907 -0.0017651683 -0.005011652 3.7402977e-05 -0.00038101428 0.00029960903
-0.0005368939 -0.00040572215 -0.0011670957 -0.00079436443 -0.00039638273 0.000248472 0.0004898297 -0.0017568232
-0.0024246757 0.0041998005 0.0004656109 -0.0012025367 0.0004017039 0.0006032958 -0.0035266778 0.000753174
-0.0015276311 0.0013958595 -0.00059460837 -0.0019321536 -0.00067410036 -0.00045363026 0.005394544 -0.0012154155
0.0009588888 -0.0028608085 -0.0027405869 -0.0019078426 0.0022111526 0.0009904052 -0.0013101107 0.00021564888
0.0029700552 -0.0016804548 -0.005603772 -0.0010417873 -0.0014176088 -0.000336766 -0.0017076912 0.01115869
-5.774547e-05 0.00069471064 8.277338e-05 -0.008850256 0.00024607003 0.0039147544 -0.0023403482 0.00071800983
0.002505572 -0.0043023857 0.0002888521 0.000673269 -0.0010177707 -0.0010588092 -0.0011013198 0.0019035977
-0.0012894847 -0.00051587244 0.00010663492 0.0006858154 -0.0014294026 0.006797215 -0.00028222305 -9.558784e-05
0.00062324025 -0.00055305404 -0.00055928936 0.0014080815 -0.00019049233 0.001792905 0.00013321197 0.0051301504
0.0024139583 0.00022505762 -0.0012619245 -0.00097517454 0.00233767 0.0039723185 -0.00046771148 0.0023578093
-0.0025224928 3.476431e-06 -0.00010323356 -0.00033985407 -0.0013735708 -0.0010312904 -0.00021134944 0.00029053204
-0.000766502 0.0023809078 0.002141146 0.00059372175 0.00028636123 -0.00079085794 -0.00054496306 -0.001045461
-0.0012666595 -0.0023954487 0.00208808 -0.0005888835 -0.0019051484 0.0019992306 -0.001025496 -0.0005495501

network_body._body_endoder.seq_layers.0.weight f4 [256, 124]
00000000: 0c9c a53d 9dcd e6bd b669 f53c d3fb de3b
00000010: be53 b5bd 2500 00be fcc8 043e 56aa 46bd
00000020: af47 5a3c e929 82bc 94d6 b33d cf66 213e
00000030: 0294 b1bd 2e86 993d 4295 4ebc 11eb ccbc
00000040: 0950 71bd b01f 05bd a2ce 123d f849 4e3e
00000050: ad1b 7ebd a67c d4bd a389 e23d d3a9 aebd
00000060: 6643 5f3b 0c25 303c 820d 17bd 29b4 74bd
00000070: df4c d6bc 7ae5 663d 540f 613d 3b30 a43c
00000080: 421e c93c 4da5 a3bc 9c6c 053e 577c c2bd
00000090: 8c50 aabd 9b47 f3bd 1142 3abe 989f 273d
000000a0: 9707 a7bd d843 43bd 5b3d e13d 40b4 203e
000000b0: 96cb 72bd c670 afbd 9bb8 323d 7704 03bd
000000c0: 0d13 993d a978 123d 8d10 fabd ad23 44be
000000d0: 69e1 22be ed4b bebd 4e49 d2bc 2560 55be
000000e0: 92c5 ea3c 81db e6bc 117f 8c3d 618e a93d
000000f0: af37 85bc 1a49 0cbd 1341 18be 665e 8a3c
00000100: 007e 0c3e 357f cdbd 94d9 98bd fcff aa3d
00000110: d8b0 3f3d 8908 593c b576 973d 18ad 063e
00000120: d512 babc 805b be3d c035 abbd c89f fa3d
00000130: c836 36be 8cbe 18be 7a62 01bc aba7 963c
00000140: 9e65 843d d05b aa3c 3b88 2abd 072e 29bd
00000150: d235 14be a6cf 2dbe 8b87 a9bc b567 a13d
00000160: f96c 86bc 21fa 283b 840c 573d e14a ab3c
00000170: 2c3b 5cbd 0990 c6bd 20ab dfbd d736 4f3e
00000180: 0132 e1bd b25a 22bd ab5d 2cbd 26d3 da3b
00000190: 065c b03c fcb8 f8bb 58f5 4e3d 5e9f 213d
000001a0: ab4e 81bd eb0b ccbc c3ef 28be 49c9 34bd
000001b0: aa9b 38bc e543 e5bc b8c0 93be fd4d 333e
000001c0: 2691 3137 f0eb 653d 808f 153e 03cc 9c3d
000001d0: 17ca 67bd d8b1 363e 2fac 8dbd 2466 6abb
000001e0: 2699 a8bc 2855 73bd c3e4 00bd 5027 39be
000001f0: 6117 153c 603d 173d 170a 2ebd baa7 793d
00000200: 502f 2dbd 9275 fbb9 0c03 f43d 4da7 7dbc
00000210: 3f63 963d 179e b5bc 4066 ea3c 154a af3d
00000220: 0cf5 07bc 0926 40bd 2270 c3bd 873b bb3d
00000230: b35c 22be 0e10 d43d 10b7 06bc 30c4 70bd
00000240: 1131 30bc 0604 3abd b050 483d 3846 783a
00000250: e1f5 05be 7001 e33c c6e6 b33c 583c bd3d
00000260: 17fc 1bbe 3b6f af3a c969 4a3c efc7 b53d
00000270: 0012 96bd 4508 133e cbff 8c3d 41b0 79bd
00000280: 6c84 aebb ec48 f1bd c9c6 78be 230d d63d
00000290: 0768 22bc 2de5 21bc 3381 1f3d 1174 3a3d
000002a0: 532a 30be bed5 d23d f39d adbc 8093 463d
000002b0: 540f b73c a671 e03d 63b3 05be 32b3 ef3c
000002c0: 211b 65bd b6ba fd3d 7fe8 4cbe 4881 94bc
000002d0: 2d0e 4bbe 5213 373c d565 603d 39a4 763e
000002e0: d1ad dabc 888c 193e ea1b 293d 6f97 79bc
000002f0: 0e52 863d 268a 59bd 5c2a 8cbb 8540 1cbd
00000300: da85 bd3d 27d0 103c 21c9 63bd e7bd e9ba
00000310: d5b4 223d 36c2 533d e5d6 a63c 18c6 4d3d
00000320: 639c fdbd 6532 1b3d 4c3b 1c3d 3ee9 cebd
00000330: c3c4 0a3d 0d37 6f3d 5d15 debd f69a 853d
00000340: 4fe3 a4bd 9278 3cbe 126c 8abd 7d13 953d
00000350: 0bff 04be 9b2e 04be 0b90 f43c 9a5f 69bd
00000360: c4e6 523d a34d 113d b690 da3d ca7f 82bd
00000370: ede1 083d 6114 ed3d c3f1 1dbd d50f f9bd
00000380: 2320 e7bd 3999 a1bd ba8b 563d aff9 663e
00000390: 1a20 4e3c 211d 0abe e423 293d c143 d3bc
000003a0: 82d5 b23c fcb7 44ba e219 61bd 5525 29be
000003b0: 9915 f2bd e525 f93d 11b6 2d3e 7a94 b53d
000003c0: cce2 853d 7d77 2c3d 2752 a13c 71b8 1fbe
000003d0: 274b d23c e4b9 9d3c 5599 96bc 1263 b9bc
000003e0: d7ec 863d c7c0 74bd d620 c4bd 10c3 3a3d
000003f0: f411 d33c f253 01be b627 11be eb11 853c
0.08086404 -0.11269686 0.029957633 0.006804922 -0.08853863 -0.12500055 0.12967294 -0.04850229
0.013322755 -0.015889125 0.08781162 0.15761875 -0.086708084 0.07496296 -0.012608828 -0.025014432
-0.058914218 -0.032500923 0.03584159 0.20145404 -0.062038112 -0.10375337 0.11061408 -0.08528485
0.0034067272 0.01075102 -0.036878116 -0.059742127 -0.026159702 0.05637119 0.05494626 0.02004253
0.02455056 -0.019976282 0.13029712 -0.09496372 -0.08316144 -0.11878892 -0.18189265 0.040923685
-0.081557445 -0.047672123 0.10998031 0.1569376 -0.059276186 -0.08566432 0.043633085 -0.03198668
0.07474337 0.0357596 -0.12210188 -0.19154234 -0.159063 -0.092918254 -0.02566972 -0.20837457
0.028658662 -0.02818084 0.068601735 0.0827911 -0.016261904 -0.034249403 -0.14868574 0.016890716
0.1371994 -0.100340284 -0.07463375 0.083496064 0.04679951 0.013246664 0.073956884 0.13151968
-0.022714058 0.09294796 -0.083598614 0.12237507 -0.17794335 -0.14916438 -0.007897014 0.018390497
0.064646944 0.020795733 -0.041633826 -0.04130366 -0.14473656 -0.16973743 -0.020694515 0.07881109
-0.016409384 0.0025783854 0.05250217 0.020909728 -0.05376737 -0.09695441 -0.109213114 0.20235763
-0.109958656 -0.039637275 -0.042081516 0.006678003 0.021528255 -0.007590411 0.050526947 0.039458625
-0.06313833 -0.024908027 -0.16497712 -0.044137273 -0.011267582 -0.027986476 -0.2885797 0.17510219
1.0583817e-05 0.05613321 0.14605522 0.076561 -0.056589212 0.1784128 -0.06917607 -0.0035766447
-0.02058084 -0.059407383 -0.031468164 -0.18081403 0.009099812 0.036923766 -0.04249009 0.060950972
-0.04228145 -0.00047962047 0.11914644 -0.015481782 0.073431484 -0.02217011 0.02861321 0.08559052
-0.00829817 -0.046911273 -0.09542872 0.09142213 -0.15855674 0.10354625 -0.008222356 -0.05878085
-0.010753886 -0.045413993 0.048905075 0.00094709126 -0.13082077 0.027710646 0.021960627 0.09240025
-0.15232883 0.001338459 0.012354323 0.08876025 -0.07327652 0.14358623 0.06884726 -0.060959104
-0.0053258445 -0.11781487 -0.2429458 0.104517244 -0.009912497 -0.0098813 0.038941573 0.045520846
-0.17203645 0.10294674 -0.02119348 0.04848051 0.022346176 0.10959177 -0.13056712 0.029260252
-0.055934075 0.12389128 -0.20010565 -0.018128052 -0.19829626 0.01117404 0.054784615 0.24086083
-0.02669421 0.14995015 0.041286387 -0.0152338585 0.065586194 -0.053110264 -0.0042775106 -0.038147468
0.09254046 0.00883869 -0.055611733 -0.0017833085 0.039723236 0.051698886 0.020366142 0.050237745
-0.12383344 0.037889857 0.038142487 -0.10103081 0.033879053 0.05840211 -0.108439185 0.06523697
-0.08051168 -0.18405369 -0.06758894 0.07279108 -0.12987916 -0.12908404 0.029853841 -0.05697594
0.051489606 0.03547443 0.10672133 -0.0637203 0.033418585 0.115761526 -0.03856064 -0.12161223
-0.112854265 -0.07890553 0.052379347 0.22556184 0.012580896 -0.13487674 0.041293994 -0.025789144
0.021830324 -0.00075042224 -0.054956324 -0.16518147 -0.11820526 0.12165431 0.16963984 0.0886621
0.06537399 0.04210614 0.019692494 -0.15597703 0.025670601 0.019253679 -0.018383661 -0.022630248
0.06588142 -0.05975416 -0.095765755 0.045596182 0.025765397 -0.12629679 -0.14175305 0.016243896

network_body._body_endoder.seq_layers.2.bias f4 [256]
00000000: ccdd 583a 61e5 893a 2449 b4b9 59ff 60b9
00000010: e2e1 4a3a c7d3 843a 9ad4 a9b9 633d f738
00000020: cfb6 f0b9 fe4b acb9 900a d5ba 51df d0bb
00000030: 4bf5 c738 fd27 9dba 91f6 98ba c53a 0cbb
00000040: 23cf 84bb ac84 ebb9 7c93 f63a 2d19 433a
00000050: 05fd 0cbb 36f7 97bb d11f bdba 5c04 1f3a
00000060: 6aab 493a 12c4 e1b9 687b 923b 1a27 303b
00000070: 3c1d 25ba 14d4 deba ee36 e2ba e1ae 553a
00000080: 9976 66bb cbea c8ba 1658 adba 90c4 5d3a
00000090: 9529 a43b 194f 91ba ed33 b4b9 dc1a 47ba
000000a0: 5cfe 88bb 5618 b4ba 5950 62bb abce c63a
000000b0: 1f77 8dba 1d70 2e3a 8016 023b a0f2 d7ba
000000c0: 0720 7d3a d439 d7ba 3e64 203a f7ed 30bb
000000d0: b7cb 41b7 6420 f7ba 5413 183a fbe3 333a
000000e0: 98cb 10bb 4b4e 9638 31ba faba b264 86bb
000000f0: ceab adb9 8dcd e138 f766 6ab9 ca74 7fba
00000100: 4ae6 513a 5120 27bb 074c 3539 4bd9 b9ba
00000110: 2c86 453b c4ff a9bb 3c8f 213b eda9 0eba
00000120: 570f dfba fa1e 3039 99fa 02bb accd b53a
00000130: f55b c939 7fe5 393b f523 1aba a1b3 ec39
00000140: b14f 4db9 77a4 393a 4a62 083b 5306 64bb
00000150: 1b90 63ba a837 f4ba 242c abb9 6b94 9139
00000160: cdf7 023a 49b2 afba 8c40 71ba a6d5 2bbb
00000170: 776b 683b 5a14 903b 6cd1 b0ba 5720 de3a
00000180: 7182 cdba 5426 03bb 893e 26bb e527 d3b9
00000190: 44d8 7a3a bd79 143a dbfe 583a 4180 b23a
000001a0: 5c0a f2ba 21f1 2bbb bc78 433b 15a6 603a
000001b0: 212a a83a 5222 07bb 56f5 7d3b b188 893a
000001c0: 90f8 8cbb 2c0d 07bb bac1 9aba 9434 60bb
000001d0: 0e0d 77bb 821a d2b9 51ee 823b 9db5 c2ba
000001e0: 2520 da37 1cec 8b38 58cb 85ba 815e 6038
000001f0: bc22 3838 75d7 9fb9 fd84 41b9 4fc5 88ba
00000200: 13ef 12ba c911 c5b7 8548 5b3b 4fbd dbba
00000210: 0170 03bb e1c5 33bb d55e 8bba 8890 53bb
00000220: ae12 af37 b52e 8839 86f4 33bb d7a2 a7bb
00000230: bb2b 33ba 6508 cc3a 5fdb 19b9 76d8 d738
00000240: c767 4939 7bba 95ba 62ab 283a 3b7e 69bb
00000250: e8ce 8f3b e7d4 bcba 3cf3 d3bb 0475 6eba
00000260: b7eb 29ba 15f9 4abb 10ab 5bba 62e4 f6ba
00000270: 8665 163b 922e cbba 7c13 f8ba 4b7b aaba
00000280: 7876 5b3a 71f7 dbba 06e1 9739 c531 4cbb
00000290: 685f 54ba b6fc ef39 cef3 5fba a09a 4cbb
000002a0: 20b2 963a 43e7 283a 71fe 433a 91ac 9bbb
000002b0: ea76 363b c1b8 ec39 7541 1dbb 34cd aaba
000002c0: 18ad 14bb 7a15 c9ba cad4 dfb9 abb5 f13a
000002d0: a4e4 6e39 0e4b 0e3a e727 7f3a 0319 9fbb
000002e0: 9f9b af3a 4028 4238 22bd ddba 53e1 35bb
000002f0: 14ba 16bb 393d a8bb 0e9b bf39 70ef e9ba
00000300: dc77 733b abb2 90ba f4ab e3ba 112d 023b
00000310: c34f 04bb 4e86 d9b8 956b e03a 9e3f f0ba
00000320: 0189 2c3b 20b0 23ba aba6 9cba 8723 dcb8
00000330: e97e 37b9 5d34 1b3b 5bf4 b53a 91d8 bc3a
00000340: 95f4 a73b aff8 03bb af6a 0dbb 2694 a93a
00000350: f0e5 16bb 0a87 7739 1a5d 6dbb a9b0 a3bb
00000360: 9d2d 85ba fb70 413a 4942 a8bb 7b00 96bb
00000370: a727 55b8 a9c6 bfba 1769 993a 9712 bbba
00000380: 03e5 6f3a 0ffb d6ba f902 5cbb 238c 0bba
00000390: 5bf3 9d3a a72e fe38 10b5 f0ba 1a7f 313b
000003a0: e19f 83ba 3fc0 823a d6d6 073b b4a2 07bb
000003b0: 947b 80b7 7210 113b 9f36 80bb bad8 8b39
000003c0: 1de1 08bb aae7 04bb c62e 00bb 8e22 b738
000003d0: 1eb6 8fbb 115b 3c3b 744a b0ba a681 88b9
000003e0: 8ef3 6cbb 6ec6 92ba f9cb 42bb 1d0c a0ba
000003f0: 7338 b33a 0ea9 b739 0f4b edba 3332 6a3b
0.00082727964 0.0010520631 -0.0003438677 -0.00021457429 0.00077393476 0.0010133915 -0.00032392592 0.00011789312
-0.0004591257 -0.00032863015 -0.0016253758 -0.0063742776 9.534749e-05 -0.0011990067 -0.0011670162 -0.0021397334
-0.004053013 -0.0004492154 0.0018812264 0.0007442411 -0.0021513116 -0.004637624 -0.0014429038 0.0006066018
0.0007693084 -0.00043061428 0.0044702776 0.0026878775 -0.0006298607 -0.001700046 -0.0017258802 0.0008151364
-0.0035165905 -0.0015328763 -0.0013225104 0.0008459771 0.00500984 -0.0011086195 -0.00034370963 -0.000759525
-0.0041807126 -0.0013740163 -0.0034532754 0.0015167793 -0.0010792947 0.00066542794 0.0019849837 -0.0016475506
0.00096559565 -0.0016420432 0.0006118453 -0.0026997307 -1.15511275e-05 -0.0018854258 0.000580122 0.000686228
-0.0022094008 7.1671406e-05 -0.0019128976 -0.0041013593 -0.00033125136 0.00010767123 -0.00022354336 -0.0009744881
0.0008007033 -0.002550144 0.00017289828 -0.0014179138 0.0030139787 -0.0051879603 0.0024652025 -0.0005442191
-0.0017018121 0.00016796208 -0.0019985794 0.0013870499 0.0003840622 0.002836555 -0.0005879992 0.00045147262
-0.00019580011 0.0007081697 0.0020810538 -0.0034793809 -0.0008680836 -0.001863231 -0.0003264855 0.00027767135
0.00049960316 -0.0013404574 -0.00092030386 -0.0026219874 0.0035464445 0.0043969573 -0.0013490147 0.0016946894
-0.0015679133 -0.002001186 -0.0025366864 -0.0004027478 0.0009568969 0.00056638924 0.00082777225 0.0013618545
-0.0018466222 -0.0026236253 0.0029826602 0.000856967 0.0012829938 -0.0020619822 0.0038750968 0.0010493008
-0.004302092 -0.0020607216 -0.0011807003 -0.0034211027 -0.003769699 -0.0004007407 0.0039956947 -0.001485515
2.6002594e-05 6.672015e-05 -0.0010207696 5.3493775e-05 4.3901367e-05 -0.0003048737 -0.00018455456 -0.0010434779
-0.0005605083 -2.3492512e-05 0.0033459973 -0.0016764792 -0.0020055773 -0.0027431177 -0.001063312 -0.0032282192
2.0870324e-05 0.0002597474 -0.002745898 -0.0051158476 -0.00068348245 0.0015566467 -0.00014672939 0.00010292318
0.00019207514 -0.0011423373 0.00064342294 -0.0035628218 0.004388679 -0.0014406712 -0.006468205 -0.0009096416
-0.00064819626 -0.0030971218 -0.00083796773 -0.0018836374 0.0022948696 -0.001550155 -0.0018926705 -0.0013006715
0.000837184 -0.0016782117 0.0002896862 -0.0031157595 -0.0008101375 0.00045773917 -0.00085431046 -0.0031220093
0.0011497177 0.0006443152 0.00074765744 -0.004750796 0.0027841874 0.0004515108 -0.0023995314 -0.0013031126
-0.002268618 -0.0015341484 -0.00042692415 0.0018440982 0.00022782624 0.0005428054 0.0009733424 -0.0048552766
0.0013397819 4.629069e-05 -0.0016917328 -0.0027752712 -0.0022999095 -0.0051342514 0.00036545884 -0.0017847847
0.00371503 -0.0011039575 -0.0017369972 0.0019863287 -0.0020189143 -0.000103723825 0.0017121906 -0.0018329506
0.0026326778 -0.0006244201 -0.0011951526 -0.00010497035 -0.00017499518 0.0023682334 0.0013882028 0.0014407804
0.005125592 -0.002013724 -0.002157848 0.0012937828 -0.0023025237 0.00023606062 -0.0036218823 -0.0049954248
-0.0010160689 0.0007379201 -0.005134855 -0.004577694 -5.0820086e-05 -0.0014631349 0.0011704293 -0.0014272508
0.0009151252 -0.0016401726 -0.0033571108 -0.0005323311 0.0012050675 0.000121203535 -0.0018364508 0.0027083815
-0.0010042154 0.0009975507 0.0020727417 -0.0020696344 -1.5316335e-05 0.0022135046 -0.0039127613 0.0002667362
-0.002088613 -0.0020279684 -0.001955913 8.732556e-05 -0.0043857237 0.0028740803 -0.0013449923 -0.00026036537
-0.0036155912 -0.0011198053 -0.0029723628 -0.0012210641 0.0013673439 0.00035030436 -0.0018104034 0.0035735487

network_body._body_endoder.seq_layers.2.weight f4 [256, 256]
00000000: 000f 053d d630 9fbd 78b5 80bc f1d8 c03d
00000010: 333a a8bd 6901 ad3b d71a ae3c 3597 263c
00000020: 402e 333d b8c9 1c3e 6bb2 5fbd e81b bcbc
00000030: 11e5 19bd a914 f53b 8e90 fe3c 7f6e 8c3c
00000040: 2b81 edbd a100 023d c5f9 ef3d 3c37 50bd
00000050: bd43 583c 5ae9 d4bc 3ce0 f5bb 9c68 8abd
00000060: 304b 56bc bcd4 e53c 6481 943b 964a 2b3e
00000070: 5372 ccbc 74e8 a43c d74c d93a 4931 c3bc
00000080: 9b44 d5bd b5e4 3ebd ec5b 4c3d 1a06 0b3e
00000090: 0eed 713d 2d6d 63bd f10a 86ba 4c59 99bd
000000a0: 982d 053e 569b 30bc e545 c23d fadb df3d
000000b0: 7fbc a83c 85bb abbc 10f0 8ebb 25a7 723d
000000c0: 43da 413d 7c4b 92bd 004a c8bd c7ae 903d
000000d0: e4cd 013e b1c5 803d 833c 73bc b090 ebbc
000000e0: 5c2e f1bc 4036 33bd ea6b 673c 0972 c93c
000000f0: d029 4d3d fac2 8cbd 20f1 f73d 0535 cf3d
00000100: 3f25 ecbc 4a08 263c 5472 8b3d bed1 d6bd
00000110: 28bf 81bd e066 803d 9f02 d5bd 63a3 dc3d
00000120: b85c bcbd 4dee 383d 37ad ca3d 449e 1dbd
00000130: 8c1b 273d 9059 8e3d ee01 c73d 0ad9 c4bd
00000140: 4724 973d 4898 c1bd 11c6 9fbd 4a67 d33d
00000150: 7b8e 8abb a0cf eebb 9d79 5cbd 2583 113c
00000160: 4807 a53d 198d 1e3d 8afb 25bd dcb1 6b3c
00000170: c5f7 d9bd 7dc7 313d ee8f 5dbc fb5e cbbd
00000180: ac41 a73c b872 8e3c c555 a13d d882 04bd
00000190: 8241 a73d f51e 4c3d 1147 9a3d 192d f33d
000001a0: 4b9e 803d 0fe9 df3d 8d45 943c 0dfd c63c
000001b0: 5d31 5abd 976d 8cbd f2bc 3d3b 3468 36bd
000001c0: b92b b63d 89cc 7d3d b0f5 6fbd a74e 5e3d
000001d0: cf02 ac3c 9e2d f8b9 1d3f 643d f789 97bd
000001e0: 8d13 0abd 0bfa 20bd a701 91bd afde cebc
000001f0: 0b3c c03d 5b06 173e 5246 45bd 8f8e dbbd
00000200: c5e1 9f3d 473f 0bbc ea44 523d fee1 863d
00000210: dd21 12bd ce6b 55bd ff14 e4bc 26ba 9a3b
00000220: d9d0 6a3b fb02 d1bc b116 81bd 50c3 a53a
00000230: 0b54 8abd 5e98 dd3b efc6 623d 2035 21bd
00000240: ac56 983d e1b3 963c 7412 88bd 5c60 0d3d
00000250: edf8 babc 044b 34bd 6e21 d2bd 0c33 98bd
00000260: 840c 343d 4254 f7bc 781d 293d 3d41 8c3c
00000270: 9278 6fbd 452d 233d 5cdf eb3c 4911 e4bc
00000280: 3663 1fbc d123 e23c 34a2 183d 1851 34be
00000290: b8f7 433d a484 2abd 1674 f0bd 5428 063d
000002a0: d71c 6f3d da08 8a3b 6ff9 db3d be44 9c3d
000002b0: d441 f13d 057d 933d 3728 8a3d 72c1 57bd
000002c0: d0a6 7b3d 0cdd 9ebd e943 70bb d7ce 963c
000002d0: 3a2e 663d 04e1 803d d324 333b 3c37 8fbc
000002e0: 0a46 193e 7c00 453d 99ff 6bbc ae13 1d3d
000002f0: b7cf 543d 9735 683c d5ed 03bd 36f1 033c
00000300: b6c9 7cbd 4293 80bc 8053 7abd 5d57 35bc
00000310: 75b8 a8bd c048 6c3d 0b8c 1c3e f961 65bd
00000320: 5287 a5bc 64f1 d9bc 3c50 cd3c 95c2 78bd
00000330: 497c 24bd e86b 873b 4e74 6bbc f4ff 693d
00000340: 7b4e 633d 3648 0cbd fa3b 923d 4987 003d
00000350: 0612 923b b51c 163d a207 a1bd 219a 5b3c
00000360: fd91 503c 61cf adbd d90d 873d 93f3 02bc
00000370: ccdd 15bd cc18 c43c 26e3 32bd f505 a3bc
00000380: ca8c 93bd 3db1 d53d 1091 e63c 5c49 403d
00000390: 4443 8c3d 4941 72bc fa04 d43d 17c7 9cbd
000003a0: 823f 83bd a4ba bf3c 9805 99bb dbf9 debc
000003b0: 0d61 dfbc 596e 0a3e cfcc f03c a7b5 1e3d
000003c0: eb5c ae3c b650 e9bc b8e4 aa3d 97c6 2d3c
000003d0: ca77 5dbc 4329 723d bc90 60bc d975 223c
000003e0: 783a 033e 57d4 ef3c f4dc 01bd 7214 e8bc
000003f0: 93d0 1e3d 877f f9bc 7449 503d 12c1 923c
0.03248501 -0.077729866 -0.015711531 0.09416378 -0.082142256 0.005279709 0.021253033 0.0101678865
0.04374528 0.15311325 -0.054613512 -0.022962525 -0.03757197 0.0074792695 0.031074788 0.017142532
-0.115969025 0.03173888 0.11717562 -0.050833926 0.013199744 -0.025990177 -0.0075035375 -0.06758234
-0.01307945 0.028055541 0.004532026 0.16727671 -0.024956858 0.020130374 0.0016578686 -0.023827212
-0.10413476 -0.04660483 0.04989235 0.13576546 0.059063964 -0.05552404 -0.001022665 -0.07487735
0.13005674 -0.0107792225 0.094859876 0.10930629 0.020597694 -0.02096344 -0.004362114 0.059241433
0.04732729 -0.07143304 -0.097797394 0.07064586 0.12676197 0.06287707 -0.01484597 -0.028755516
-0.029441051 -0.04375291 0.01412485 0.024590509 0.050088704 -0.06873126 0.12106538 0.101175345
-0.028826354 0.010133812 0.06808916 -0.10489224 -0.06335288 0.06269622 -0.104008906 0.10773351
-0.09197372 0.045149136 0.09896319 -0.038481012 0.040797755 0.069506764 0.09717165 -0.096117094
0.07379966 -0.094528735 -0.0780145 0.10322435 -0.004228411 -0.0072879344 -0.053826917 0.008881365
0.080580294 0.03870878 -0.04052309 0.014385667 -0.106429614 0.043403137 -0.013523085 -0.099302255
0.020417057 0.017388687 0.07877687 -0.032351345 0.081667915 0.04983421 0.07533086 0.11873836
0.06280192 0.10933124 0.01809957 0.024290586 -0.053269733 -0.0685684 0.0028951732 -0.04453297
0.08895058 0.061962638 -0.058583915 0.054274227 0.020997433 -0.00047336234 0.055724252 -0.073993616
-0.03371005 -0.03930096 -0.07080393 -0.025252668 0.09386452 0.14748518 -0.048162766 -0.1072055
0.07806734 -0.008498973 0.051335253 0.06586073 -0.035676826 -0.052104764 -0.027842043 0.0047218977
0.003583005 -0.025514117 -0.06303156 0.0012646709 -0.06754311 0.0067625483 0.0553655 -0.039357305
0.07438406 0.01839632 -0.06644145 0.034515724 -0.022823775 -0.044016853 -0.102602825 -0.074316114
0.04395725 -0.030191544 0.04128787 0.017120952 -0.058464594 0.039838094 0.02879303 -0.027840273
-0.009728244 0.02760497 0.037264064 -0.1760906 0.047843665 -0.041630402 -0.11740892 0.032753304
0.058377113 0.004212481 0.10740935 0.07630299 0.11780134 0.0720158 0.067459516 -0.05267472
0.06143838 -0.07757005 -0.0036661571 0.018409176 0.05619643 0.06292918 0.0027335181 -0.017482392
0.14968124 0.048096165 -0.014404201 0.038348846 0.051955905 0.014172933 -0.032209236 0.008053115
-0.061715804 -0.015695218 -0.061114788 -0.011068192 -0.082383074 0.057686567 0.15287797 -0.056001637
-0.020206127 -0.026604362 0.025062673 -0.060732443 -0.04015759 0.0041327365 -0.014370991 0.05712886
0.055494767 -0.034248553 0.07140346 0.031379018 0.004457715 0.03664847 -0.07862784 0.013403446
0.012730119 -0.0848682 0.06594438 -0.007992643 -0.036588475 0.023937605 -0.043673657 -0.019900301
-0.07204588 0.10434196 0.028145343 0.04694496 0.068487674 -0.014786073 0.10352512 -0.07655161
-0.064085975 0.023404427 -0.0046698563 -0.02721875 -0.027267957 0.13518657 0.029394535 0.038747456
0.021284541 -0.028480869 0.08344406 0.01060643 -0.0135173295 0.05912138 -0.013706382 0.009915792
0.12815273 0.029276056 -0.031704858 -0.028330062 0.03877313 -0.030456318 0.0508513 0.017914329

network_body._body_endoder.seq_layers.4.bias f4 [256]
00000000: 28da 6cba 8773 853a f7d3 46ba b575 b8ba
00000010: 0d3d 7fba b8a9 dbb9 7393 c93a 0856 7a3a
00000020: 2cb8 d03a b2b6 b6ba 5623 76ba 1f8d d4ba
00000030: 4b54 cc3a 0598 c939 21d2 37ba fbb2 b939
00000040: 7e64 33bb 4d9b acba 91fa 6338 ae2e 6abb
00000050: 631e f2ba 69cd 72ba d528 0ebb 928c 87bb
00000060: 68bf 5fb8 461b 87ba 9ed4 8dba 9ca6 07ba
00000070: e00b 1b38 6b66 70ba 3446 f4ba 7914 81b9
00000080: 0f54 e639 2828 8eba 9520 8a3a 7bd3 97bb
00000090: e40e 363a 6f3e deba a03a f438 9a1d f038
000000a0: d52b 60ba b4a6 543a 9761 0e3b 3f5d a2bb
000000b0: 3dae 8cba e908 45ba 49e0 d8b9 cb6f 3339
000000c0: 0343 cf3a 6e66 46bb 21f6 f1ba e385 b137
000000d0: 9607 963b 0832 9cb9 aef0 4dbb db97 d8ba
000000e0: 9700 91bb 0fd9 01bb 455b 6e3b 0478 23bb
000000f0: bad8 063b f95a 26bb 5601 6f3a 587d 96ba
00000100: 5ecd 1dbb 6bd9 96bb be1b 9e3a 45cf 013c
00000110: 5fe3 abba a7f4 88ba 59de abb9 667d 353a
00000120: c03e ab39 1cf2 353b 1b18 0abb 69f8 57bb
00000130: 0f67 bb39 7ce6 38ba 7748 223a 7f3d ea39
00000140: 73e5 5f3a 34db bcba 13f1 32b9 fbc9 a9bb
00000150: 80bc 383a 8566 0ebb 33aa e83a afdc e23a
00000160: 6c6c f8ba 9b95 873a ea40 d93a ed95 10bb
00000170: 8739 0cbb 8892 a83a 255b 92ba b408 b5bb
00000180: 7c7b 0639 9b64 233a 729f 8a3a 26db daba
00000190: 925a 0fba f972 553a b757 8e3a 3b88 5439
000001a0: bf38 843a 30b2 393b 54b0 1138 ade6 4c3a
000001b0: fa94 b93a fb97 71bb 66e5 1839 24e1 78b9
000001c0: 7e40 b239 d99a 92b9 347e 01ba 9e42 0cba
000001d0: 0916 92ba b116 1cbb 74c4 e239 edb2 94ba
000001e0: ee2a 923a c905 e33a 29f6 8eba e959 08b8
000001f0: 15df 8cba 8df4 b73a 5812 bd3a d982 5dba
00000200: 5c5c ebba 3f32 f9ba 4dde 4e3a 16cd 58ba
00000210: d2b8 7fba 3177 8e3a a2f3 433a ab65 3d3a
00000220: ab7a 6fbb 149b 0d39 38d9 20bb 8f57 97ba
00000230: bd1d f2b9 9f8d 7f3b e1f5 09bb 62e3 86b9
00000240: bd4b 11ba 38f6 0c36 2bc5 0ebb 3de9 023a
00000250: c02a ffba b880 e6ba 226a faba 88dc 2e3b
00000260: 5e86 3bbb 45f5 94ba a4d9 2bba cc4c 5eb8
00000270: a519 42bb 1530 3f3a 4070 1e3a 16c1 87ba
00000280: 3dca 5c3a 5066 7eba 8df9 02bb 827b d6b9
00000290: 7a67 5b3a 43aa beba e0c6 8b3a 5231 bdba
000002a0: 20ed eaba a5ee bf3a 27c4 893a 58ea 9a3a
000002b0: b619 ef37 4f37 81ba b4ce 0cbb a035 d634
000002c0: c99d 6f39 cad4 b9ba 937e c038 198f 84b9
000002d0: b6b6 33b9 ac87 54bb 4c8a 9bba 8cde 803a
000002e0: 4296 93ba c258 0d39 511c 493a 376f 6e37
000002f0: 8f77 af39 14d5 7c39 a8f8 353a 1cbb 55bb
00000300: 6edc 123a b0df ce3a 20e4 50ba fddc be39
00000310: 7d69 0c3a 0dc0 a237 e023 6f3a 83e5 a4ba
00000320: d8c2 ab3a e367 663b dfbc 9d3a fc42 2e3b
00000330: 9190 31ba 3574 093c c0db 60ba 0a9c 913a
00000340: 3f5e 0cbb 0ee3 46bb 7495 aa39 b481 c9ba
00000350: aa41 faba 1bbc 57bb 47d0 01bb cd84 a0bb
00000360: 21e3 29ba 9eb2 4a3b 3344 83bb 977b 6cbb
00000370: 01c1 0d3b 12d0 af38 7485 90bb 9bcf 2abb
00000380: a83d 33ba dd29 3b3a 9a69 8839 3920 ff3a
00000390: bb9b afb9 dee6 ccba ec68 19bb 57b3 81bb
000003a0: 83eb 4ebb e34e 763b a846 4dbb 18dd 91ba
000003b0: 8b6b 78b9 9cb2 39ba d786 20ba 5ed2 7bb9
000003c0: 8231 f6ba c7d3 e3ba bb6c 6db8 9937 153a
000003d0: b06b a0ba 7d19 9d3b 6e58 b0ba e06c 9eba
000003e0: ccca 973a 5a74 563a ce87 093a c2e3 aeba
000003f0: 38aa c539 716b 30bb 1e57 1fbb 8859 e7ba
-0.00090351934 0.0010181525 -0.0007584686 -0.0014073165 -0.00097365753 -0.00041897385 0.0015379026 0.0009549563
0.0015924028 -0.0013939945 -0.0009389421 -0.0016216374 0.0015589086 0.0003845097 -0.00070122076 0.000354193
-0.002737313 -0.0013168842 5.4354376e-05 -0.003573339 -0.0018472191 -0.0009262176 -0.0021691818 -0.0041366303
-5.3345604e-05 -0.0010307811 -0.0010820811 -0.0005174668 3.696594e-05 -0.0009170535 -0.0018636645 -0.0002462005
0.00043931647 -0.0010845708 0.0010538275 -0.0046333647 0.0006944968 -0.0016955863 0.000116457464 0.000114496055
-0.00085514534 0.0008111999 0.0021725649 -0.0049549635 -0.0010733079 -0.00075162813 -0.00041365836 0.00017112416
0.0015812818 -0.0030273455 -0.0018460193 2.116239e-05 0.004578541 -0.00029791915 -0.0031423974 -0.0016524749
-0.004425119 -0.0019813215 0.003637032 -0.002494336 0.0020575956 -0.0025383814 0.00091173255 -0.0011481447
-0.0024078707 -0.004603555 0.0012062711 0.007922952 -0.0013114027 -0.0010448889 -0.00032781324 0.0006923288
0.00032662414 0.0027762717 -0.0021071497 -0.003295446 0.00035744204 -0.0007053388 0.00061906077 0.00044677776
0.00085409655 -0.0014408589 -0.0001706521 -0.0051815487 0.00070471317 -0.0021728587 0.0017750919 0.00173082
-0.0018953211 0.0010344269 0.0016575132 -0.002206202 -0.0021396594 0.0012861053 -0.0011166079 -0.005524719
0.00012825237 0.0006232948 0.0010576083 -0.0016697391 -0.0005468513 0.00081424374 0.0010859881 0.00020268645
0.0010087712 0.0028334968 3.4734912e-05 0.0007816356 0.0014158778 -0.003686427 0.00014581307 -0.00023734994
0.00033998856 -0.0002796266 -0.0004939765 -0.0005350503 -0.0011145483 -0.0023817236 0.00043252448 -0.0011344828
0.001115171 0.001732045 -0.0010907102 -3.2508662e-05 -0.0010747636 0.0014034674 0.0014425023 -0.0008449979
-0.0017956602 -0.0019012167 0.0007891402 -0.0008270306 -0.00097550184 0.0010869262 0.0007474964 0.00072249275
-0.0036541622 0.00013504579 -0.0024543535 -0.001154648 -0.00046179994 0.0038994325 -0.0021051096 -0.00025727885
-0.0005542597 2.1004944e-06 -0.0021785002 0.00049938617 -0.0019467697 -0.0017585969 -0.0019105116 0.002668174
-0.0028614025 -0.00113646 -0.00065555633 -5.3000447e-05 -0.0029617336 0.00072932366 0.0006043948 -0.0010357227
0.000842247 -0.0009704577 -0.001998517 -0.0004090928 0.0008369606 -0.0014546592 0.0010664128 -0.0014434254
-0.0017923452 0.0014643265 0.0010510728 0.0011819107 2.8502993e-05 -0.0009858402 -0.002148551 3.9899624e-07
0.00022851596 -0.0014177796 9.17885e-05 -0.00025283618 -0.00017138835 -0.00324295 -0.0011866777 0.0009831949
-0.001125999 0.00013479873 0.0007671761 1.42118e-05 0.0003346768 0.0002411197 0.0006941655 -0.0032612747
0.00056023046 0.0015783217 -0.00079685636 0.00036404273 0.0005356295 1.9401336e-05 0.0009122472 -0.0012580607
0.0013104333 0.0035157136 0.0012034437 0.0026590219 -0.0006773556 0.008389522 -0.0008577667 0.0011109125
-0.002141848 -0.0030347737 0.00032536278 -0.0015373738 -0.0019093056 -0.0032918516 -0.001980798 -0.0048986436
-0.0006480683 0.0030929218 -0.0040059327 -0.0036084407 0.0021629932 8.3834064e-05 -0.00441044 -0.0026063684
-0.00068374956 0.0007139722 0.0002601862 0.0019464559 -0.0003349463 -0.0015632769 -0.0023408486 -0.0039581466
-0.0031573481 0.0037583641 -0.0031322632 -0.0011128513 -0.00023691186 -0.0007083805 -0.00061236083 -0.00024015593
-0.0018783065 -0.001738184 -5.6606466e-05 0.00056921836 -0.0012239125 0.004794298 -0.0013454088 -0.0012086891
0.0011580824 0.000818079 0.0005246372 -0.0013343024 0.0003770159 -0.0026919509 -0.00243134 -0.0017650584
