results/ppo/MoveToGoal/MoveToGoal-9684.onnx (onnx, 133166 bytes, 9 tensors)

action_model._discrete_distribution.branches.0.bias f4 [4]
00000000: 0000 0000 0000 0000 0000 0000 0000 0000
0.0 0.0 0.0 0.0

action_model._discrete_distribution.branches.0.weight f4 [4, 128]
00000000: 3b47 0a3c afb5 4c39 c2fc 193c f276 66ba
00000010: c206 7f3b 6ccc 1ebc 747f 873b 379d 953b
00000020: 7d9f 51bb e5eb 1abb 5d53 363b 9018 45bc
00000030: f609 a13a de5b 0abc fb80 1e3c 0272 3dbc
00000040: 8308 1d3c 0817 c6bb 4a94 7a3b e818 f9bb
00000050: 1c9f a8bb 4bde d837 11b7 2f3c 5705 9bbc
00000060: 98a2 f0b8 f722 693b 3ecf 853b 22c1 2abc
00000070: f84d 3ebc 7b48 edbb e71e 3cbc 1316 6f3c
00000080: 374f 32bb db17 aebb 6f85 493c 0427 b83b
00000090: 4dec 17ba eda0 483a f029 913c b06e 56bc
000000a0: ab60 6b3c 042c 40bb 5535 18bc 7088 ff3b
000000b0: 67a8 763b 789d 633c be90 a83c 4c1d 063c
000000c0: 0fbe d6bb dcaa 133b cb50 cf3c 68c3 3cbc
000000d0: a22c 6dbc ba63 4e3b 8b99 913b 4b27 5abc
000000e0: dbac 223c b3c3 313b f21d 80ba cb2f 0fbb
000000f0: 21c1 41bc c8ef 44bb e7da 543b bdc2 003a
00000100: 4dcf 70bb 80a5 84bb ffbe 7dbb 93d1 02ba
00000110: 676c 85bc 2a0b 8bbc ef39 7abb ef8b 63bc
00000120: 7685 89bb 8b5f 31bc 687f 52bc 873d 923b
00000130: a344 c43b f7c7 02ba 8a6d 3cbb dba0 0ebc
00000140: 2ed8 3c3c 33ee c73b c285 0ebc b8de 3dbc
00000150: cb63 1abc c037 9239 9b0f 153b f835 9bbb
00000160: bc5f afbb 087b 163c a38d 2ebb a426 08bc
00000170: 6505 c1ba 2a7a 69bb 0f6a f2ba 9e2a c03b
00000180: c89b 993b 3262 67bc a24e 523b d795 dfbb
00000190: fa30 59bb aa34 8abb 7645 843c 956b 96b9
000001a0: e9e8 1ebc 27af cd3a 3d31 713b 1751 0e3b
000001b0: 0aa4 5dbc 58f1 95ba 35cf 753b ffd6 75bb
000001c0: 8374 a6bc c778 3e38 5125 47bb 07e9 983b
000001d0: e3d1 973b 135f 67bc 8b38 70bc b98b 8aba
000001e0: f650 033b b042 bc3b 994e a93b 3316 8dbb
000001f0: 330e a03b 0756 abbb 088e 0fbc 1731 923c
00000200: c795 74ba 339a b1ba 6738 883a daa4 0c3b
00000210: 49ca 8bbb b1f7 263c 9b76 4d3b 4325 04bb
00000220: ca85 ca39 3d04 17ba 4bd3 5aba c889 ad3c
00000230: 7d8d 6e3b 8161 1c3c 5765 03bc 21d2 843b
00000240: 2f5d 933c 5e7a 063c ef28 cbba a927 313b
00000250: 2f7c 32bc 326d a63c 36e4 8fbb 8853 0dba
00000260: 5867 8d3c ddb2 05bb ef58 5e3c 19c4 8f3c
00000270: 83e0 81bc 7fe4 523b 2f85 b5bc c39b 5bbb
00000280: b1d3 1abb 0b74 35bc 739b 8dbb 7b8c a33b
00000290: 16e3 373c b730 ce39 a18b 003c e3f1 98bc
000002a0: 0f1c a6bb 200e 19bb 0317 0b3c 0d88 773b
000002b0: c3d8 2cbc 433e c139 28aa 4abc 87fd debb
000002c0: 0eda 32bb 690e 333c ef86 1e3c 6f47 ac3b
000002d0: 02f4 653b 97ec 32bc 4336 71b8 e030 5dbc
000002e0: 8013 f0bb 3b65 5cbb 2df1 5dbc ae0c 2abc
000002f0: 078c 583c df34 2e3c b246 083c 8fe6 46bb
00000300: 8beb b13b 9792 f13b b257 ee38 c757 61bc
00000310: 234d aeb8 037d 96ba d2a0 feba ede6 2d3c
00000320: 4a8e 2bbb 36be 3d3c 8afe 00bb 0a56 6bbb
00000330: 1a67 493a fdd8 bf3b a1ed 0c3c f57d f5ba
00000340: b21d 303b 33e6 7238 ffd4 e8bb d3fc d73b
00000350: 8f46 c33a 71c2 86bc abe2 8bbc c3ac 4bbb
00000360: e3b0 e1ba 80a5 6cbb b529 ec3b bc3b 46bc
00000370: 817a 0fbc 856f ddb9 5c9c 023c 1f8e 053c
00000380: 57e8 abba 0f1e 1dbb f8a9 b0ba 9162 0bbc
00000390: ba6b daba c100 493c ac51 893b 9ff3 7c3b
000003a0: 54d4 24bc ae95 b7bb f6a9 38bb a054 7d3c
000003b0: 97ee 093c c33a ff3a 98da 5dbb eadd 80bb
000003c0: b0a7 60ba 7892 dfb9 a734 6a3c f519 0dbc
000003d0: ff84 f1bb be71 b73b 1fe4 10bc 3ffa 3d3c
000003e0: 1279 febb 1d1d a8bb a9f4 333c 0227 c03a
000003f0: 1d82 d2ba 2482 033b c3b1 a83a 0ac6 813b
0.008439834 0.00019522638 0.009398641 -0.0008791528 0.003891394 -0.009692293 0.0041350666 0.0045658606
-0.0031985932 -0.002363914 0.0027820684 -0.012029782 0.0012286294 -0.008444754 0.009674306 -0.011562826
0.009584549 -0.006045226 0.003823536 -0.007601846 -0.0051459204 2.585272e-05 0.010724799 -0.018923445
-0.00011474377 0.003557382 0.004083543 -0.010422023 -0.011615269 -0.0072413064 -0.011481977 0.014592665
-0.002720786 -0.0053129024 0.012299879 0.0056198854 -0.00057954044 0.00076533743 0.017720193 -0.013087913
0.014366309 -0.002932311 -0.009290059 0.007798247 0.0037636997 0.013892524 0.020576831 0.008185696
-0.0065534185 0.002253226 0.02530708 -0.011521198 -0.014475973 0.0031492547 0.0044433526 -0.013315032
0.009928907 0.0027124702 -0.0009774549 -0.0021848555 -0.011825831 -0.0030050147 0.0032479109 0.0004911831
-0.0036744655 -0.0040480494 -0.003871858 -0.00049903354 -0.016287042 -0.016973097 -0.0038181504 -0.013888343
-0.004196818 -0.010826002 -0.012847759 0.004462901 0.0059896274 -0.00049889035 -0.0028751814 -0.008705343
0.011526151 0.0061013936 -0.008698883 -0.011588745 -0.009423207 0.00027888827 0.0022744897 -0.004736658
-0.0053519886 0.009184606 -0.0026634715 -0.008309994 -0.0014726339 -0.0035625794 -0.0018494743 0.0058644554
0.00468776 -0.014122533 0.0032090326 -0.006823282 -0.0033140765 -0.004217704 0.016146403 -0.00028690384
-0.009699085 0.0015692458 0.003680303 0.0021715814 -0.0135278795 -0.0011439724 0.0037507538 -0.003751218
-0.020319229 4.5412013e-05 -0.0030387233 0.004666451 0.0046331747 -0.014121789 -0.014661918 -0.0010570205
0.002003727 0.0057452545 0.0051668403 -0.004305625 0.004884505 -0.005228761 -0.00876189 0.017845673
-0.000933018 -0.0013549983 0.0010392786 0.0021460564 -0.0042660576 0.01019089 0.0031351212 -0.0020163811
0.00038628123 -0.00057608244 -0.0008347525 0.021183863 0.0036400252 0.009544731 -0.008019767 0.0040533696
0.01798877 0.008207886 -0.001549987 0.0027031696 -0.0108938655 0.02031574 -0.0043912185 -0.000539117
0.017261192 -0.00204008 0.013571008 0.017549561 -0.015854126 0.0032179651 -0.022158233 -0.003350959
-0.0023624713 -0.01107503 -0.0043215095 0.004991112 0.011223575 0.00039327677 0.00784579 -0.018670028
-0.005069263 -0.0023354366 0.008489373 0.0037770302 -0.010549727 0.00036858217 -0.01236967 -0.006805125
-0.0027290615 0.010928729 0.009675725 0.005257539 0.0035088067 -0.010920665 -5.7509413e-05 -0.013500422
-0.0073265433 -0.0033629674 -0.01354627 -0.010379 0.013216979 0.010632723 0.008317636 -0.0030349826
0.0054296902 0.007372211 0.00011365059 -0.013753838 -8.3113344e-05 -0.0011481348 -0.001942659 0.010614139
-0.002617734 0.011580994 -0.0019682967 -0.0035909438 0.0007682905 0.0058547244 0.008601577 -0.0018729555
0.0026873169 5.7911686e-05 -0.0071054692 0.0065914183 0.0014898347 -0.016450139 -0.017075857 -0.0031078316
-0.0017218854 -0.0036109388 0.0072071203 -0.012099203 -0.008757235 -0.00042235493 0.007971849 0.00815156
-0.0013115507 -0.0023974215 -0.0013478389 -0.008507387 -0.0016664185 0.012268246 0.0041906442 0.0038597358
-0.010060389 -0.00560256 -0.0028177476 0.015462071 0.008418701 0.0019472468 -0.0033852216 -0.003932704
-0.0008569909 -0.00042643002 0.01429478 -0.008612146 -0.0073705907 0.005598276 -0.008843451 0.011595308
-0.0077658975 -0.0051304237 0.0109836245 0.0014660063 -0.0016060505 0.0020066584 0.001287036 0.0039603757

action_model._discrete_distribution.branches.1.bias f4 [2]
00000000: 0000 0000 0000 0000
0.0 0.0

action_model._discrete_distribution.branches.1.weight f4 [2, 128]
00000000: 7b8c 10bc fb36 4d3b bb1d edbb c7d8 8cbb
00000010: f3c1 c2bb 34f2 8c3a 0933 453c 5fe2 543a
00000020: 2bc0 f1bb 5f0d ec3b 8651 2738 d811 ab39
00000030: 4bb7 b1bb da6a 12bc c50d 2cbb cf80 3dbc
00000040: b830 013c 2239 f2ba 2ae5 f239 f03f efb9
00000050: adb4 6c3c 6d60 7a3a dc20 94bb 934a 903b
00000060: dc2d 32bc 4b09 993b 7e78 3f3c 10ab 23bb
00000070: e361 ac3a e34c a73c 93bf cebb 0313 81bb
00000080: c8c3 7c3c df5b ed3b 118b 103c cb25 943b
00000090: ebc3 38bc 3b24 833b eb26 1a3c 98b4 e93a
000000a0: 04bb 883c 725c e23c 43de 873b 129a 5b38
000000b0: aa1d 743c 93d1 50bc 34a2 be3a f74e 183c
000000c0: 2f65 473c 2092 56b7 7d0a c5ba 7557 e9b9
000000d0: 7c81 163c a0ef cd3b 9a83 3d3c 4087 dfb9
000000e0: 93c2 673c ab77 673a 9dad c5ba b7b1 f7bb
000000f0: dfe5 183c dbfc d63a 8f80 58bb a5fb 7abc
00000100: d9f1 373c d5a4 67bc 42c5 56bb 8d8a 44bc
00000110: a85d d0bb 789a 703c a830 75ba 7563 0fbc
00000120: 3a87 893c 2660 453c 1fd9 9c3b d2d5 06ba
00000130: 031a 77bc 533a 053c 5f55 50bc 2230 6b3b
00000140: 9ae1 debb 4b12 913b 677e 4cb9 ca8f 0c3c
00000150: 80d5 a33b e5bb f63a 9f76 333c 9599 ff3a
00000160: f5ca 05bc 7adb 1e3b 2e31 8a3b 0553 15bb
00000170: a5ba 47ba 2e15 483b dfb3 333b 1742 323c
00000180: 0db0 363a 0566 49bb 5fb8 3d3c 4fe5 60bc
00000190: f2a4 10bb 4a67 993b a2f4 343b f2ef 383c
000001a0: 905b f439 425f 96ba 9730 30ba ded9 44bb
000001b0: 8b37 2cbc ee18 453c 87b9 26bc da64 203a
000001c0: 1fdd 06bc 635c 84bc ccc5 8a3c 5aae 5ebb
000001d0: 4443 323a db04 9a39 4e2f 8e3c 8013 99bc
000001e0: 45fd 2ebb a37e 533c 9cb3 863c 6fd5 ed3b
000001f0: 54cb 013c a92e 35bc 4c4a a7bb 1c33 453c
00000200: 582b ee3b 8fe9 1abc 5e7c 20bc 53f5 a5bc
00000210: d3c5 e63b aa98 d03b 795b 3abc b6b4 babb
00000220: 37c0 853b a7e7 06bc af4d b9bb ccd7 843a
00000230: f93e 16bc a086 aa39 2b96 20bb 2316 8a3c
00000240: f3ee 74bc 037c 2f3c ff9f 923b 6f5e c03a
00000250: 10e4 4b3c e07c 40bb 00ec c43c bb39 8bbb
00000260: 828a 8e3c 7fba f739 181c df3b db8a 0dbc
00000270: 558a 79bc 8f66 833b 57dd 51bb 4d85 073b
00000280: 3b69 66ba 289b 1cbc 2b0d 0d3c 20bb 6d3c
00000290: 2b3e f1bb afea 2abc 67ac 913c d7bd c03a
000002a0: 0bad 6b3b 9eed adba dca1 00bc 107f f93b
000002b0: 7daa 583b bed2 1fbb 5b42 ceb9 c6e4 07bc
000002c0: cb91 7cbb c245 90bc 9467 94bb 75cb 53bc
000002d0: eb0d 0dbc b31d c83a 80b8 843b 6bb7 3fbc
000002e0: ac7c 0cbc 2196 3dbc fefd 18bb 0acb 1f3c
000002f0: ae5f a8bb cbe6 c33c a6c8 47bc 2421 10bc
00000300: 97c7 f83b f364 b7bb c9b6 093b 0636 0d3b
00000310: a9ca ad3b d3be f4ba 6f0d 39bc 1f2a 0b3c
00000320: 4fd1 663c 426c 20bb 73a2 513c 3f04 233b
00000330: 304e 54bc 8a56 c5b9 90e8 e8ba ddd7 6c3c
00000340: 5a49 5ebb 0700 053c fb11 533b 738c 5e3a
00000350: ac3c 833b 7594 6e3c 99bb 2fbc d32a ab3b
00000360: 2b5b 1f3c 4f11 623b 48d9 133b 8abe 16bc
00000370: 58d5 2a3b bb81 5e3a 2f50 1b3b caab 2fbc
00000380: 1960 aeba f098 ee3b 7ff9 443b 4ab9 50bb
00000390: 5db6 a6ba 5fd2 bcba d720 a83c cb99 a639
000003a0: cd6d 56ba 6bfe a83c e2f6 52ba 6270 d63b
000003b0: 081a dc3a 35db 8a3b d5c1 11bb 7fbf a0bb
000003c0: f2f7 da3b ebe6 15bc 5aea 2cbc c4b3 093c
000003d0: c540 d4bb db1e 00bc 1fc6 8739 3ee5 3ebc
000003e0: eabf 52bc 53c1 c7bb 7d62 b23b a2fb 5fbc
000003f0: 53d2 f5bb 3bac 3b3b dbd5 5dbb cfd0 243b
-0.008822556 0.0031313288 -0.00723621 -0.004298303 -0.0059435307 0.0010753334 0.0120360935 0.000812089
-0.0073776445 0.0072037424 3.9891827e-05 0.00032628956 -0.0054234616 -0.008936608 -0.0026253324 -0.011566355
0.007885151 -0.0018480162 0.00046328577 -0.0004563327 0.014447373 0.0009551112 -0.0045205187 0.004403421
-0.010875192 0.0046702973 0.011686442 -0.0024973787 0.0013151731 0.020422405 -0.0063094585 -0.003939034
0.015427537 0.007243618 0.0088222185 0.004521107 -0.011277179 0.0040021217 0.009408693 0.001783031
0.016690738 0.027631972 0.0041463687 5.2357158e-05 0.014899651 -0.012745279 0.001454419 0.00929617
0.01217012 -1.2789416e-05 -0.0015033033 -0.00044506384 0.009186145 0.006284669 0.011567021 -0.00042634644
0.014145511 0.00088297826 -0.0015081648 -0.007559027 0.009332149 0.0016402261 -0.0033035611 -0.015318786
0.011227095 -0.01413842 -0.0032771383 -0.011995924 -0.006358821 0.014685266 -0.00093532586 -0.00875174
0.016788114 0.012046849 0.004786625 -0.0005143556 -0.015081885 0.008131581 -0.012715667 0.0035886844
-0.006801796 0.0044272295 -0.00019502045 0.008579204 0.0049998164 0.0018824307 0.010953574 0.0019500727
-0.0081660645 0.0024239705 0.0042172885 -0.002278508 -0.000761906 0.0030530202 0.0027420444 0.010880015
0.00069689826 -0.0030730974 0.011579602 -0.013726546 -0.0022070971 0.0046815025 0.0027611633 0.011287676
0.00046607526 -0.0011472481 -0.00067211076 -0.0030037086 -0.010511289 0.0120298695 -0.010176069 0.00061185437
-0.00823143 -0.016157335 0.01694002 -0.0033978433 0.00068001845 0.00029376787 0.017356541 -0.018686056
-0.0026701253 0.0129086105 0.016443066 0.0072581093 0.007922012 -0.011058488 -0.0051052924 0.012036111
0.0072683506 -0.009455099 -0.009795276 -0.020258581 0.0070426255 0.006365855 -0.011374348 -0.005697812
0.0040817517 -0.008233941 -0.0056550126 0.0010135113 -0.009170287 0.0003252523 -0.002450357 0.016856259
-0.014949548 0.010710719 0.0044746394 0.0014676581 0.012444511 -0.0029371306 0.024038315 -0.0042488254
0.01740003 0.00047250462 0.006808769 -0.008639063 -0.015230735 0.0040100287 -0.0032022798 0.0020678819
-0.0008789484 -0.0095584765 0.0086090965 0.014509946 -0.0073621473 -0.0104319295 0.017782403 0.0014705014
0.0035961296 -0.0013269668 -0.00785109 0.007614024 0.0033060603 -0.0024387087 -0.0003934082 -0.00829429
-0.0038539048 -0.017611388 -0.004528949 -0.012926926 -0.008609275 0.001526764 0.0040503144 -0.011701445
-0.008574646 -0.011571438 -0.002334475 0.009752998 -0.005138359 0.023913762 -0.012193834 -0.008796964
0.0075921523 -0.005596751 0.002101349 0.0021547093 0.0053037 -0.0018672593 -0.011294707 0.008493929
0.014087989 -0.002447859 0.012795079 0.0024874357 -0.0129580945 -0.00037639245 -0.0017769504 0.014455763
-0.0033918233 0.008117682 0.0032206762 0.00084895565 0.0040050354 0.014561762 -0.010725879 0.005223611
0.009726326 0.003449518 0.002255993 -0.0092007015 0.0026067104 0.0008487959 0.0023698916 -0.01072211
-0.0013303786 0.007281415 0.0030055938 -0.0031848722 -0.0012719143 -0.0014405957 0.020523472 0.00031776572
-0.0008179814 0.020629128 -0.00080476527 0.006544159 0.0016792426 0.0042375573 -0.0022240777 -0.0049056406
0.0066823894 -0.009149293 -0.010553921 0.008404676 -0.0064774477 -0.0078198565 0.00025896818 -0.011651335
-0.012863139 -0.006096044 0.0054438696 -0.013670834 -0.0075018792 0.0028636593 -0.0033849392 0.0025148874

discrete_action_output_shape f4 [1, 2]
00000000: 0000 8040 0000 0040
4.0 2.0

network_body._body_endoder.seq_layers.0.bias f4 [128]
00000000: 0000 0000 0000 0000 0000 0000 0000 0000
00000010: 0000 0000 0000 0000 0000 0000 0000 0000
00000020: 0000 0000 0000 0000 0000 0000 0000 0000
00000030: 0000 0000 0000 0000 0000 0000 0000 0000
00000040: 0000 0000 0000 0000 0000 0000 0000 0000
00000050: 0000 0000 0000 0000 0000 0000 0000 0000
00000060: 0000 0000 0000 0000 0000 0000 0000 0000
00000070: 0000 0000 0000 0000 0000 0000 0000 0000
00000080: 0000 0000 0000 0000 0000 0000 0000 0000
00000090: 0000 0000 0000 0000 0000 0000 0000 0000
000000a0: 0000 0000 0000 0000 0000 0000 0000 0000
000000b0: 0000 0000 0000 0000 0000 0000 0000 0000
000000c0: 0000 0000 0000 0000 0000 0000 0000 0000
000000d0: 0000 0000 0000 0000 0000 0000 0000 0000
000000e0: 0000 0000 0000 0000 0000 0000 0000 0000
000000f0: 0000 0000 0000 0000 0000 0000 0000 0000
00000100: 0000 0000 0000 0000 0000 0000 0000 0000
00000110: 0000 0000 0000 0000 0000 0000 0000 0000
00000120: 0000 0000 0000 0000 0000 0000 0000 0000
00000130: 0000 0000 0000 0000 0000 0000 0000 0000
00000140: 0000 0000 0000 0000 0000 0000 0000 0000
00000150: 0000 0000 0000 0000 0000 0000 0000 0000
00000160: 0000 0000 0000 0000 0000 0000 0000 0000
00000170: 0000 0000 0000 0000 0000 0000 0000 0000
00000180: 0000 0000 0000 0000 0000 0000 0000 0000
00000190: 0000 0000 0000 0000 0000 0000 0000 0000
000001a0: 0000 0000 0000 0000 0000 0000 0000 0000
000001b0: 0000 0000 0000 0000 0000 0000 0000 0000
000001c0: 0000 0000 0000 0000 0000 0000 0000 0000
000001d0: 0000 0000 0000 0000 0000 0000 0000 0000
000001e0: 0000 0000 0000 0000 0000 0000 0000 0000
000001f0: 0000 0000 0000 0000 0000 0000 0000 0000
0.0 0.0 0.0 0.0 0.0 0.0 0.0 0.0
0.0 0.0 0.0 0.0 0.0 0.0 0.0 0.0
0.0 0.0 0.0 0.0 0.0 0.0 0.0 0.0
0.0 0.0 0.0 0.0 0.0 0.0 0.0 0.0
0.0 0.0 0.0 0.0 0.0 0.0 0.0 0.0
0.0 0.0 0.0 0.0 0.0 0.0 0.0 0.0
0.0 0.0 0.0 0.0 0.0 0.0 0.0 0.0
0.0 0.0 0.0 0.0 0.0 0.0 0.0 0.0
0.0 0.0 0.0 0.0 0.0 0.0 0.0 0.0
0.0 0.0 0.0 0.0 0.0 0.0 0.0 0.0
0.0 0.0 0.0 0.0 0.0 0.0 0.0 0.0
0.0 0.0 0.0 0.0 0.0 0.0 0.0 0.0
0.0 0.0 0.0 0.0 0.0 0.0 0.0 0.0
0.0 0.0 0.0 0.0 0.0 0.0 0.0 0.0
0.0 0.0 0.0 0.0 0.0 0.0 0.0 0.0
0.0 0.0 0.0 0.0 0.0 0.0 0.0 0.0

network_body._body_endoder.seq_layers.0.weight f4 [128, 118]
00000000: c682 ccbd b28e b43d f6c6 173e dd68 8bbd
00000010: 4aef 93bd 830d 34be 5e34 143e dbd0 d0bc
00000020: 017a f2bd d3ac a7bd 0630 013e ff3d 523d
00000030: fa8b a6bd 1892 3b3c ad85 10bd edcb c7bd
00000040: 5553 b23d c108 1b3e 74cb 1e3d 0ef1 863d
00000050: 146b 5b3d 94ee f4bb 7121 8d3c 1bc9 f4bb
00000060: cce1 e83a 955c bf3a d2bf a7bd 5f1d 68bd
00000070: be9c 443d db70 22be 5fa7 a33d ea0c f7bc
00000080: f599 3cbd 1923 bdbd cfe5 c13d b3f6 9cbd
00000090: 5f7d 5abc 2f6a 34bd 048c 413d f67a 323c
000000a0: d25d 563e 3663 00bd ae4c 403d 23c4 743e
000000b0: d4c3 b23d e6aa 293e d85e be3c 0341 833b
000000c0: 9cc1 b43d 2c09 a4bc 1bf9 423e 4f24 9bbd
000000d0: 6525 4e3d 7717 ac3c 33a1 dabd 9479 19be
000000e0: e955 9c3d 5f12 933d b830 343d a3a9 903d
000000f0: ee5c d6bd f7bd 91bd 464a 80bd d1b8 b93c
00000100: e535 f3bc 0f84 2cbe b2ee 5f3c b99e efbc
00000110: bad3 5bbc 9edf 1c3e aedb 96bd 2487 a53d
00000120: 8103 1b3e 87b2 21be 0d98 2a3b 5ac1 cfbd
00000130: b69c edbd 9cd1 4b3d 8a9a 3d3e 6f9d 41be
00000140: 075b 62bd 3444 833d 1075 c73d 4beb 1b3c
00000150: 1eef efbd 8c73 4ebe df20 163d e898 b93d
00000160: 6815 163c 91ec 12be 2de3 e7bd dbcf 52bb
00000170: 34b6 833e 3d17 6ebd 72f4 a83d 2145 b4bd
00000180: 1e59 62be 2d30 b2bd 671a d53c 86e1 ba3d
00000190: f05f b43d 76bf 98bd 6c91 d9bd f86e 6fbd
000001a0: 9a9a cfbd b82f ca3d 44de bf3d dcdf 69be
000001b0: d4a2 96bc 299f 34be 276f 703d 2a72 79bd
000001c0: e3f9 d4bd 74e2 9bbd ee0f 98bd 9f4c 15bc
000001d0: ba6f 14bc 4a5e 0dbe 78a1 383c 21c6 b33d
000001e0: 8987 9c3d 7263 adbd f81b 3a3c 3454 cbbd
000001f0: 39e2 123e 1454 f3bd 7042 593c 8865 d7bd
00000200: bde8 49be 990d 0dbe 5191 c73d 921e 8f3d
00000210: d34a 873d 8431 1fbd c8ed 3f3d 7d44 24be
00000220: de5e 11be 153b bb3c 0649 ffbd 2c88 413d
00000230: 7c43 583d 7258 313e f261 ac3d 810f e9bd
00000240: f1e8 e6bc e7a7 53bd 4078 863d 05ef 903d
00000250: 71c5 173b 058e e4bd d624 a6bd 6299 1dbe
00000260: e515 2ebe 4bed 3a3d 2b50 10be 00ac 83bd
00000270: 5053 b3bd 12f9 803c ffa6 313d dcd7 0dbd
00000280: fda7 353e 14b3 833d 7a5c d3bc c133 12bd
00000290: 0d06 d9bd 83f3 d43d f653 edbb 31ba cd3d
000002a0: fd9e 0b3d 8592 a13d 1ca0 ca3d f2fa cebd
000002b0: b6c8 35bd 2d4a cf3d 1e40 89bb 7051 18bd
000002c0: 613b 05bc b74a 8e3d 9dc9 853d 513d 473e
000002d0: 77c0 09bd f3ee 423d de9f 6f3b abd6 8b3c
000002e0: 3ff2 27be 48bd babd da93 873e 2a34 63bd
000002f0: a458 a7bc 0d09 b23d 2d0b 743d 6c03 c63d
00000300: 8542 df3a a942 1a3c dd61 bbbd 4cc9 b9bd
00000310: e9ea ce3d 772f fe36 70f8 d53a a05a 0cbc
00000320: 0990 923c 7ac9 5abd e0ab 693a 3eb8 f03d
00000330: dcfd c63c d418 03be 8bad a83c a040 00bd
00000340: 3987 cabc 5489 9bbd 4771 2fbe 3104 0abd
00000350: 1351 26be d5e4 d83c 5656 c63c 5aec 56bd
00000360: baab 0f3d 488b 7fbd 9789 2bbb 379c 2bbd
00000370: b471 bd3d 1db1 cf3b 7af1 fdbc f710 3fbd
00000380: ef15 133d 8004 acbc bd18 423e 9a1d 8b3d
00000390: 024d 8bbc f0a7 3dbd 65f7 973c 8637 fbbc
000003a0: 9dd2 24bd 10e7 ecbc 2dc9 a1bd 1692 af3d
000003b0: 2bfb eeb7 205d 6dbe c07b b7bd 871f d2bd
000003c0: 2748 2cbe 59e1 83bc 4786 4abb cd09 053e
000003d0: d488 2f3c f329 8e3c db87 ddbd 4116 4b3d
000003e0: 586c eabc 04b7 5b3c 9f04 893b 5d7f a5bd
000003f0: f66b f53d a435 383c 54d4 7f3c 4e8a 0b3e
-0.099858806 0.088162795 0.14821991 -0.068071105 -0.07223375 -0.1758328 0.14473101 -0.025490215
-0.11839677 -0.081872605 0.12615976 0.051328655 -0.08132167 0.011448406 -0.035283733 -0.09755693
0.087073006 0.15140058 0.038768247 0.06588946 0.053568915 -0.00747473 0.01722786 -0.0074702627
0.0017767488 0.0014599735 -0.08190884 -0.056668635 0.048001043 -0.15863363 0.07990908 -0.030157525
-0.046045262 -0.0923521 0.09467661 -0.07664242 -0.013335555 -0.044046577 0.04725267 0.010893574
0.20934227 -0.031344615 0.046948127 0.23902945 0.087287575 0.16569099 0.023238584 0.0040055527
0.088259906 -0.020023905 0.19040339 -0.07575285 0.05032863 0.021007283 -0.106752776 -0.14987785
0.076335736 0.071812384 0.043991774 0.07063606 -0.10466944 -0.07116311 -0.062641665 0.022671135
-0.029688785 -0.16847251 0.013667749 -0.02925049 -0.013417179 0.15319678 -0.07366119 0.08082417
0.15138055 -0.15790759 0.002603057 -0.10144301 -0.11602156 0.049760446 0.18515983 -0.18907712
-0.05526259 0.06409493 0.09739125 0.009516547 -0.1171553 -0.20161265 0.036652442 0.09062368
0.009160377 -0.14348055 -0.11322627 -0.0032167349 0.25724947 -0.05812763 0.08249749 -0.08802248
-0.22104308 -0.08700595 0.026013566 0.091250464 0.08807361 -0.07458393 -0.1062344 -0.058455437
-0.1013691 0.09872383 0.09368566 -0.22839302 -0.01838819 -0.1763884 0.058699753 -0.06089989
-0.103992246 -0.07611552 -0.07424913 -0.009112506 -0.009059841 -0.138055 0.011268966 0.087780245
0.07643039 -0.08466233 0.011359207 -0.0992817 0.1434411 -0.11881271 0.013260469 -0.105174124
-0.19717689 -0.13774718 0.09744514 0.06988253 0.066060685 -0.03886558 0.046857625 -0.16041751
-0.14196345 0.022855321 -0.124651 0.047249004 0.052798733 0.17318895 0.08417119 -0.1137991
-0.028187247 -0.051673796 0.065659046 0.07076839 0.0023158456 -0.111599006 -0.08112495 -0.15390542
-0.1700054 0.045636456 -0.14093082 -0.06429291 -0.08756125 0.015743766 0.04337215 -0.034629688
0.17739864 0.06430641 -0.025800932 -0.035693888 -0.10596857 0.10398009 -0.007242675 0.10045279
0.03408717 0.078892745 0.0989382 -0.10106458 -0.044380866 0.1012157 -0.0041885516 -0.03718704
-0.008131833 0.069478445 0.06532595 0.19456984 -0.033630814 0.04759116 0.0036563794 0.017070135
-0.16401003 -0.09118134 0.2647999 -0.05546967 -0.02042801 0.086931325 0.05958097 0.096686214
0.0017033374 0.009415307 -0.09149525 -0.090715975 0.10103399 7.5753155e-06 0.001632465 -0.008566529
0.017890947 -0.0534148 0.0008913856 0.117538914 0.024290971 -0.1280244 0.020590564 -0.03131163
-0.024722682 -0.07594553 -0.17133056 -0.033695403 -0.16241865 0.026476303 0.02421109 -0.052471496
0.03507588 -0.06238869 -0.002617454 -0.041897025 0.09250203 0.006338252 -0.030998934 -0.04664704
0.03590959 -0.02099824 0.1895475 0.067927554 -0.017004494 -0.046302736 0.018550584 -0.030666124
-0.04023992 -0.028918773 -0.07899699 0.085727856 -2.848877e-05 -0.23180056 -0.0895915 -0.102599196
-0.16824399 -0.016098665 -0.003090279 0.1299202 0.010713775 0.017353987 -0.10816928 0.04958177
-0.028616115 0.013410334 0.004181459 -0.08080933 0.119834825 0.011243258 0.015614588 0.13626978

network_body._body_endoder.seq_layers.2.bias f4 [128]
00000000: 0000 0000 0000 0000 0000 0000 0000 0000
00000010: 0000 0000 0000 0000 0000 0000 0000 0000
00000020: 0000 0000 0000 0000 0000 0000 0000 0000
00000030: 0000 0000 0000 0000 0000 0000 0000 0000
00000040: 0000 0000 0000 0000 0000 0000 0000 0000
00000050: 0000 0000 0000 0000 0000 0000 0000 0000
00000060: 0000 0000 0000 0000 0000 0000 0000 0000
00000070: 0000 0000 0000 0000 0000 0000 0000 0000
00000080: 0000 0000 0000 0000 0000 0000 0000 0000
00000090: 0000 0000 0000 0000 0000 0000 0000 0000
000000a0: 0000 0000 0000 0000 0000 0000 0000 0000
000000b0: 0000 0000 0000 0000 0000 0000 0000 0000
000000c0: 0000 0000 0000 0000 0000 0000 0000 0000
000000d0: 0000 0000 0000 0000 0000 0000 0000 0000
000000e0: 0000 0000 0000 0000 0000 0000 0000 0000
000000f0: 0000 0000 0000 0000 0000 0000 0000 0000
00000100: 0000 0000 0000 0000 0000 0000 0000 0000
00000110: 0000 0000 0000 0000 0000 0000 0000 0000
00000120: 0000 0000 0000 0000 0000 0000 0000 0000
00000130: 0000 0000 0000 0000 0000 0000 0000 0000
00000140: 0000 0000 0000 0000 0000 0000 0000 0000
00000150: 0000 0000 0000 0000 0000 0000 0000 0000
00000160: 0000 0000 0000 0000 0000 0000 0000 0000
00000170: 0000 0000 0000 0000 0000 0000 0000 0000
00000180: 0000 0000 0000 0000 0000 0000 0000 0000
00000190: 0000 0000 0000 0000 0000 0000 0000 0000
000001a0: 0000 0000 0000 0000 0000 0000 0000 0000
000001b0: 0000 0000 0000 0000 0000 0000 0000 0000
000001c0: 0000 0000 0000 0000 0000 0000 0000 0000
000001d0: 0000 0000 0000 0000 0000 0000 0000 0000
000001e0: 0000 0000 0000 0000 0000 0000 0000 0000
000001f0: 0000 0000 0000 0000 0000 0000 0000 0000
0.0 0.0 0.0 0.0 0.0 0.0 0.0 0.0
0.0 0.0 0.0 0.0 0.0 0.0 0.0 0.0
0.0 0.0 0.0 0.0 0.0 0.0 0.0 0.0
0.0 0.0 0.0 0.0 0.0 0.0 0.0 0.0
0.0 0.0 0.0 0.0 0.0 0.0 0.0 0.0
0.0 0.0 0.0 0.0 0.0 0.0 0.0 0.0
0.0 0.0 0.0 0.0 0.0 0.0 0.0 0.0
0.0 0.0 0.0 0.0 0.0 0.0 0.0 0.0
0.0 0.0 0.0 0.0 0.0 0.0 0.0 0.0
0.0 0.0 0.0 0.0 0.0 0.0 0.0 0.0
0.0 0.0 0.0 0.0 0.0 0.0 0.0 0.0
0.0 0.0 0.0 0.0 0.0 0.0 0.0 0.0
0.0 0.0 0.0 0.0 0.0 0.0 0.0 0.0
0.0 0.0 0.0 0.0 0.0 0.0 0.0 0.0
0.0 0.0 0.0 0.0 0.0 0.0 0.0 0.0
0.0 0.0 0.0 0.0 0.0 0.0 0.0 0.0

network_body._body_endoder.seq_layers.2.weight f4 [128, 128]
00000000: 0ce3 8f3d 2c4b 07bd 058c a13e bde1 993d
00000010: 9a75 2d3e 6c58 acbd 5a9f e03d 5b32 e53b
00000020: e9c6 dabc 3e7d 8fbd 4215 03bd 1f74 4dbd
00000030: 2b83 4e3d 105f c83c ec2f 33be a295 eebc
00000040: fbbb bbbd 4712 693c 0e80 7bbd 5268 35bd
00000050: 46ed babc 8979 083e c7e1 29bd 3eac aabb
00000060: 0744 4dbd 38d0 00bd 3a55 e83c d6d5 83bb
00000070: 7cba b63c d29e 013e 975a 09bd 83bd ae3d
00000080: eca1 e13d f636 45bc 7524 c3bd c07a e2bd
00000090: 816f 573d 4b8a 99bd c980 abbd ba9b cfbd
000000a0: ff22 4abd 20ab 09bc abba a9bc 3eae 62bd
000000b0: 159c b0bc 09a2 79bd f275 08bd ca9f 1ebd
000000c0: 2028 a83b a3e3 703c 01d0 053e 6b9b 36bc
000000d0: 0432 35be 33b5 3d3c dd0e 97bd b526 5dbd
000000e0: b1d1 4abd eb45 c4bc 7743 183e 7918 84bd
000000f0: 4505 3abd e473 1c3d fe98 593c 687e 373d
00000100: 8195 62be f856 2b3d a8b5 d4bc 0a81 16be
00000110: 6585 083e 46f8 b63d a7ee 8bbd 89cf 25be
00000120: 40bb 4dbc a1b0 e63c 7485 c2bd dde6 6bbd
00000130: aa42 063d 88dc 523d 5f66 333d fcf0 ec3c
00000140: 0123 64bd 1504 5bbe b57c 2ebc bef3 f2bc
00000150: aaa9 08be 50bc d43d 2da3 303e cc66 8e3c
00000160: b4f6 b13c 9e51 0e3c e7ba 873d b72f 2cbc
00000170: baa0 0dbd 5a58 6d3c 0abb 0dbd a40c f13b
00000180: 7869 073d be81 a4bd 56b2 693c a028 b3b9
00000190: 179d b83d af21 3c3d 671a d83d 78bc edbd
000001a0: 603f abbc dc7a 113c c8c6 85bd 0064 0f3d
000001b0: 79f4 f9bd 7bf7 1d3d 4574 e2bc d2ac f23c
000001c0: aef7 b5bc 0b96 8b3d e621 523d c913 8f3d
000001d0: f289 1e3d 601a 9bbd e17d ec3d f992 253c
000001e0: f989 dabd c63f c13d 8316 3cbd 36d6 7d3d
000001f0: dcae 95bd 6abe fe3d c5cd af3d d0f2 b73d
00000200: 9e09 2ebd 94c9 673d d552 3e3d f30d 5d3d
00000210: 6948 31bd 4655 c73d 599a 04be dfc3 d53c
00000220: 3364 45bd 0378 67bc f8ff 403d 252e 31bd
00000230: 02dd 2bbd 0fb0 e2bd 3a57 c3bc 37b6 213d
00000240: 3d2a 17bd d1ea 673d 68e2 09bd 418d 00be
00000250: a3a8 993c d054 98bc 41c4 21be 4cf9 fabc
00000260: 1858 dc3d 3ada e63b 3a33 fabd 2eab e13d
00000270: e5f7 f2bd 9a35 cb3c e7ea 10bd 6938 413e
00000280: f8aa f33d 58ff 93bd 2543 e6bc 7746 553d
00000290: 8811 93bd a042 e13d 8532 81bc 45d7 f8bd
000002a0: b5b8 7b3d 4b40 773d 204c 2cbd d336 293e
000002b0: c9c8 e3bb bfd9 ea3d c763 0abc f732 e93d
000002c0: 56c7 ebbc fedc 6c3d 6007 84bc 5c04 53bd
000002d0: e834 f4bd 8b2b 363d a500 bfbd 60db 16bc
000002e0: cb27 3bbe 8315 b5bc 046f aa3d 9cc3 673d
000002f0: 9daa d33c 4dd0 fbbb dc0d 283c 7ae9 c13c
00000300: 81e2 05be 6167 aabd ee46 be3d 97b2 98bd
00000310: 971d 503d bc3e a2be 3199 0bbe 095d 8dbc
00000320: c0fc aebc ee2b 9e3d a605 6bbd 4556 16be
00000330: 12d1 35be c25a 233d cd0d 83be c1a9 60bd
00000340: ac75 05be 3345 21bd 47ce 2dbd c9aa 273d
00000350: a6bf 273e eefa f7bb 1a71 8cbd f5a1 9f3d
00000360: 2161 943b db96 423e 948f 6b3a 4f8a 8dbd
00000370: abcc d83d 2c41 e1bd 31d8 8ebd 361d 03bd
00000380: 2cff 2bbd d8f1 f63c 9f41 293e 84cb ca3d
00000390: 5dde 4e3d c9e0 b33c e8d3 3fbc f206 84be
000003a0: 1b2e f2bd 581b f43c 7b42 a73d 46f4 62bc
000003b0: 9b8d ff3b 0ed6 f9bd 5ed2 e53d 5de8 103e
000003c0: 3c77 583d 6b25 d8bc 2573 11bb 02ef 63bd
000003d0: 9e9f 5f3d bcde 2a3c f564 e6bc 3a7b b43d
000003e0: 98ba e7bd 0430 043e 8609 1f3e 3a10 fc3c
000003f0: d179 2abe b0d2 a83b efaa bbbd 339f 153d
0.07025728 -0.033030674 0.3155214 0.07513759 0.16939393 -0.08415303 0.10967894 0.006994528
-0.026706176 -0.0700631 -0.032002695 -0.05015957 0.05041806 0.024459392 -0.1749875 -0.029124085
-0.09166714 0.014225549 -0.06140142 -0.04428894 -0.022818219 0.13327612 -0.041475084 -0.005208521
-0.050113704 -0.031448573 0.028360952 -0.004023294 0.02230572 0.12658241 -0.03353366 0.0853224
0.11017212 -0.0120370295 -0.09528438 -0.11058569 0.052596573 -0.074970804 -0.08374173 -0.10137124
-0.04934978 -0.008402616 -0.020718893 -0.05534195 -0.0215588 -0.060945544 -0.033315606 -0.038726605
0.0051317364 0.01470271 0.13067628 -0.011145453 -0.1769486 0.011578846 -0.07375882 -0.053991992
-0.049516384 -0.02395912 0.14869486 -0.0644998 -0.04541518 0.03819646 0.013281105 0.044798285
-0.22127344 0.041830987 -0.025965527 -0.14697662 0.13332136 0.08934073 -0.06832629 -0.1619245
-0.012556851 0.028160395 -0.094981104 -0.057593215 0.03277842 0.051479846 0.0437988 0.028923504
-0.055697445 -0.21388276 -0.01064985 -0.029657241 -0.13345972 0.1038748 0.17249747 0.017383002
0.021724083 0.008686451 0.06627446 -0.010509423 -0.03457711 0.014486397 -0.034602202 0.007356243
0.033059567 -0.08032559 0.01426371 -0.00034171809 0.090143375 0.04593056 0.10551911 -0.11608213
-0.020904243 0.00887939 -0.06532055 0.035007477 -0.122048326 0.038566094 -0.027643332 0.029623423
-0.02221283 0.06815728 0.05130186 0.069861956 0.038705774 -0.0757339 0.11547447 0.010105842
-0.106708474 0.09435992 -0.045919906 0.061971866 -0.073087424 0.12438662 0.08584169 0.0898186
-0.04248964 0.056588724 0.046465714 0.05396838 -0.043281946 0.097330615 -0.12949504 0.026094375
-0.04819126 -0.014127734 0.04711911 -0.043256897 -0.041958816 -0.11068737 -0.023845304 0.039480414
-0.036905516 0.056620423 -0.033663183 -0.12553884 0.01875717 -0.01859513 -0.15797521 -0.030636452
0.1075899 0.0070450576 -0.12216802 0.11018978 -0.118636884 0.024805833 -0.03538027 0.18869175
0.11897844 -0.07226437 -0.028108189 0.052069154 -0.07181078 0.10999036 -0.01577116 -0.121504344
0.061455447 0.06036405 -0.042064786 0.1652482 -0.0069514257 0.11467313 -0.00844664 0.11386674
-0.028781574 0.057827942 -0.016116798 -0.05151783 -0.119241536 0.04447512 -0.09326295 -0.0092075765
-0.18276899 -0.022104984 0.08321956 0.056583032 0.02583819 -0.0076847435 0.010257211 0.0236709
-0.13074686 -0.08320499 0.092908725 -0.07455938 0.05080947 -0.31688488 -0.13632657 -0.017256277
-0.021360755 0.07723223 -0.057378434 -0.14681347 -0.17755535 0.039881475 -0.25596467 -0.05484939
-0.1303317 -0.039372634 -0.04243305 0.040934358 0.16381702 -0.007567755 -0.0685751 0.07794563
0.00452818 0.1900286 0.00089859334 -0.06911146 0.10585912 -0.10998759 -0.06974829 -0.03201028
-0.041991398 0.030144617 0.16528939 0.09902099 0.05050503 0.021957772 -0.011708237 -0.2578655
-0.118252 0.029798195 0.08166977 -0.013852185 0.007798863 -0.12199031 0.11221765 0.1415114
0.052848086 -0.02638503 -0.0022193876 -0.055647857 0.054595582 0.010429081 -0.028124312 0.08812566
-0.11314887 0.12908942 0.15530977 0.030769456 -0.16648032 0.005152069 -0.09163462 0.036528777
