results/ppo/MoveToGoal/MoveToGoal-1528.onnx (onnx, 74722 bytes, 9 tensors)

action_model._discrete_distribution.branches.0.bias f4 [4]
00000000: 0000 0000 0000 0000 0000 0000 0000 0000
0.0 0.0 0.0 0.0

action_model._discrete_distribution.branches.0.weight f4 [4, 128]
00000000: b54f 843c f0d5 faba 4c1d 083c f2f8 63bc
00000010: 23fb 813c c361 54bc 8fd9 38bc 1339 9ebb
00000020: d29b d53b 8a78 deba cdcf 47ba eb20 40bb
00000030: 477f 71bc f587 c43b 95d2 1ebc 650b 82bb
00000040: 9256 2abc 3c2c 9eba be1d 30bc e198 19bc
00000050: f791 28bc 9a2f dfbb 408d 0fbc b888 c3bb
00000060: 031c 8dbb 1fbf 463c 659d d63b aef9 b5bb
00000070: 8adc 613c 5b47 253b d7ee 5d3b bfaf a63b
00000080: dd77 c63b b014 fa3b abf8 9abc 58fb 59bb
00000090: 7795 913c 1fc9 373c 954e 67bc 451a 5d3b
000000a0: 40ef e03b 9fd5 3e3b b3e0 aebb d407 39bc
000000b0: 93c4 813b d116 40bc e3e7 59bb 1a08 5e3c
000000c0: e285 943c 606f df3a 4a89 253c 80f5 38bb
000000d0: 17b5 0fbb f987 8fbb adf6 94bb 3af3 5ebb
000000e0: 7b32 46bb 4f65 dfba 7a47 813c 1ebd 46bc
000000f0: 20b0 0abc 4806 8e3b f643 943b 1834 65bb
00000100: a7d0 9abb 4b08 18bc d399 b2bc d104 c23b
00000110: 6443 343c 8c75 83b9 d356 083b 6675 1e3c
00000120: 7777 f03b 07a4 873b 6162 27bb 857a a93a
00000130: 98e7 7dbb ec8f 3fbb 692d 8abb fd93 d73b
00000140: 75d9 59bc 0e02 2336 9727 32bb 725f 3eb9
00000150: bfd8 183c d967 103c ac7c 4b3c 48b6 6eba
00000160: 05f7 7d3c 49d6 a53c 3c50 963c 745d ca3a
00000170: 999b c2b9 4516 263c d715 05bc 332d 8f3c
00000180: 9f9b 3dbc e0e5 63bb 600c d03a 31a4 2bba
00000190: aad3 533b 0595 f03b 6b15 82bc 11f7 8e3b
000001a0: 4be1 093c 6c9d 8c3c d25e f8ba e6c1 963c
000001b0: df27 863b c768 0cbc 3827 d9ba 8f76 dc39
000001c0: ea03 2fb9 44ba 45bc 2fb5 11bc 0b26 b33b
000001d0: 16e9 b539 f97a 26bc dbf8 9a3c 23cc adbb
000001e0: 1235 623a d0f2 5b3c e571 efba 292a 3cbc
000001f0: da88 50bc c2d7 7b3b 4a3c 20ba 35fd 003d
00000200: bfc0 1c3c 0983 223b 9880 79bc 4c31 42bb
00000210: da69 ffbb b0b8 61bb 6b3f ae3a 4bc1 3f3b
00000220: e728 733b 7908 84bc 1a93 70bc 603b a33b
00000230: 38e3 b4bb ef5f 44bc 865f 83bc 561c 2d3c
00000240: 750b 2e3c 5b90 233c 56ec 99bb e374 3dbb
00000250: c961 043c 1f7e 05bc 4007 423c 7fd8 c83b
00000260: 58fd ffbb 61c3 333b ab67 b13b efe0 f0bb
00000270: 5423 173b 7500 323b 6733 e239 280d 73bc
00000280: 061f 9b3b 200f 383c 7447 013c 6778 63bb
00000290: dcdf babb 3f44 8f3c 2038 98bb 7864 f6bb
000002a0: 2aec 4f3c 91dc 9d39 e016 ba3b ddc3 61bc
000002b0: d225 f03a edce 6fbb 4380 823b cde1 3abb
000002c0: 45db 613b d9b7 303c bed8 443c 4b21 7abc
000002d0: 0e43 09bc 664d 143b bbb1 2e3c b19b bb3b
000002e0: fd4a 3abc f3dc 803c ad70 a9bb 9fe9 d43b
000002f0: 000d 863c 726f 09bc 4b92 f4ba a7f9 163c
00000300: 1852 fcbb 1458 023a 4c9e 92bb 0495 13bc
00000310: 7a82 eebb 66b8 c33b 0d48 ec3b 7465 8fbc
00000320: 929f 9f3c 32e5 2dbc c7af fe3a 9cdf 9b3c
00000330: cf69 0abc fc93 193c 4565 9dbb 36bd 9f3c
00000340: ee29 22bc 3270 0bbc ce4a 29bb 47ac 863b
00000350: bb54 8fbb 42ec babb d0e0 3d39 22f2 2b3c
00000360: babc fbbb fbdc cf3a 413f 2dbb c068 623c
00000370: d309 383c becc a73a 6694 a3bb 0c29 24bb
00000380: cd2e 163c ef09 5dba b44b 4abc 209a 74bc
00000390: bfc9 0c3b 8feb 21bc 31b0 2c3c 9ddb 4a39
000003a0: 600c d13b 1808 84ba 07b4 a53b 9eb3 913b
000003b0: e398 093c 40c5 58bc ebad c03b 37cf 84bb
000003c0: 1dc1 f13a 8f4b 343c 7390 643b ef72 15bc
000003d0: d220 ca3b 8cf2 33bc 889c 5e3c 75b0 06bc
000003e0: dfc6 243b 73cf 203c b713 78bc 8695 39bc
000003f0: c3d9 4a37 2fb3 bbbb 5553 4c3b 937c 263b
0.016151289 -0.0019137245 0.008307766 -0.013914334 0.015866822 -0.012962761 -0.011282339 -0.004828581
0.0065188194 -0.0016973179 -0.0007622212 -0.0029316496 -0.014739818 0.0059976527 -0.009693761 -0.0039686435
-0.0103966165 -0.0012067626 -0.010749279 -0.009374828 -0.010288707 -0.0068110945 -0.008761704 -0.005967226
-0.004306318 0.012130528 0.0065495246 -0.005553446 0.013785491 0.0025219533 0.0033864283 0.0050868685
0.0060567693 0.0076318607 -0.018917402 -0.0033261385 0.017771466 0.011217385 -0.0141178565 0.0033737582
0.0068644583 0.0029119027 -0.005336845 -0.01129337 0.003960201 -0.01172419 -0.0033249788 0.013551736
0.018130247 0.0017046742 0.010103533 -0.0028222501 -0.0021928006 -0.004380223 -0.0045460076 -0.0034019486
-0.003024249 -0.0017043742 0.015781153 -0.01213005 -0.008464843 0.004334245 0.004524703 -0.0034973677
-0.0047245803 -0.009279321 -0.021801865 0.0059209843 0.011002395 -0.00025073846 0.0020803704 0.009671545
0.00733846 0.0041394266 -0.0025540816 0.001293019 -0.0038742777 -0.0029230071 -0.004216839 0.006578921
-0.013296475 2.4290089e-06 -0.0027184242 -0.00018155368 0.00932902 0.008813822 0.012419861 -0.00091061415
0.015500789 0.02024378 0.018348806 0.0015439228 -0.00037118493 0.010137145 -0.008122883 0.017477607
-0.0115727475 -0.0034774467 0.0015872829 -0.0006547599 0.0032322207 0.0073419833 -0.015879354 0.0043629487
0.00841553 0.017164908 -0.0018949157 0.018403005 0.0040941085 -0.008569903 -0.0016567474 0.00042050003
-0.00016690759 -0.012068335 -0.008893295 0.0054671816 0.00034696673 -0.010161155 0.018917492 -0.005303876
0.0008629124 0.01342459 -0.0018268196 -0.011484661 -0.01272794 0.0038428162 -0.00061124994 0.031491477
0.009567439 0.0024797341 -0.015228413 -0.0029631434 -0.007794601 -0.0034442358 0.0013294047 0.0029259499
0.0037103237 -0.016117321 -0.014683509 0.0049814433 -0.0055202506 -0.011985763 -0.01603676 0.010565838
0.010622849 0.0099831475 -0.004697363 -0.0028908781 0.008079954 -0.008147745 0.011842549 0.006129324
-0.0078121834 0.0027429687 0.0054139695 -0.007351033 0.0023061829 0.0027160917 0.00043144377 -0.01483468
0.004733923 0.011234075 0.007890571 -0.0034709217 -0.0057029556 0.017488597 -0.0046453625 -0.007519301
0.012690583 0.00030109708 0.0056789964 -0.013779608 0.0018321818 -0.0036591843 0.003982575 -0.0028515935
0.003446297 0.01078602 0.012014566 -0.015266727 -0.0083778035 0.002262914 0.010662491 0.005725347
-0.011370418 0.015730357 -0.0051709027 0.0064975764 0.01636362 -0.008388387 -0.0018659321 0.009214795
-0.007700216 0.0004972231 -0.004474437 -0.009007696 -0.0072787376 0.0059729097 0.0072107376 -0.017504431
0.019485269 -0.010613726 0.0019431048 0.019027524 -0.008448078 0.009373661 -0.004803332 0.019499402
-0.009897692 -0.008510636 -0.002583194 0.0041098925 -0.0043741143 -0.0057044337 0.00018108194 0.010494741
-0.00768241 0.0015858704 -0.0026435407 0.01381892 0.011232811 0.0012802107 -0.0049920557 -0.002504888
0.009166432 -0.0008431961 -0.012347151 -0.014929324 0.0021482555 -0.009882822 0.010540054 0.00019346034
0.006379649 -0.0010073213 0.0050568613 0.004446461 0.008398267 -0.013230622 0.0058801076 -0.0040530222
0.0018444393 0.011004343 0.0034876138 -0.009121641 0.0061684633 -0.010983121 0.013587125 -0.008220782
0.002514295 0.009815085 -0.015141419 -0.011327153 1.209084e-05 -0.0057281475 0.00311776 0.0025403842

action_model._discrete_distribution.branches.1.bias f4 [2]
00000000: 0000 0000 0000 0000
0.0 0.0

action_model._discrete_distribution.branches.1.weight f4 [2, 128]
00000000: c5d0 363b 8d17 813b 15e2 643c e06f f93b
00000010: dd27 51bb 3091 e63b 32af 76bb e053 253b
00000020: c056 10bb da96 703c 5ba4 a63c 78a0 67ba
00000030: c899 e33a 885d 0d3c f7b4 34bb 9bdc 32bc
00000040: b85a f73b ae73 0cbb 4d9b 94bb 286f 9bbc
00000050: 0df1 4dbc 9136 b13b 4a99 a53b 68a2 44bb
00000060: 409e 8abb 95b4 fdbb 5f7d 3dbb 17f3 133c
00000070: 80d1 0ebc f7f4 b1bb 2665 99bb 176d 9c3b
00000080: 3a35 69bc 18e9 8c3b 987f 623c 6033 593c
00000090: d848 4c3c aa15 0d3c 83ba 923b 392a 1dbc
000000a0: 9be0 b1bc 8d36 d93b 717d 943c 35af 733a
000000b0: 87e9 e33b 6f28 0e3c 9ca2 12bc dc59 86bb
000000c0: 0e5c 173a ebb6 59b8 f0b6 d33b 9156 063b
000000d0: c535 563c 27a8 9abc 7123 86bb 26a2 9a3b
000000e0: a5a9 4dba e5a0 3b3c 3f72 40bc f669 273c
000000f0: 4b40 f13b 4116 8639 ffe2 193c f29c d6bc
00000100: db0f 943b 9086 19bb ffab 473c bfd8 bbba
00000110: e35f 923c 8966 843b 1bc5 0c3b 9a8b 15bc
00000120: ea40 5abc 67f4 db3b 9745 123c d333 453c
00000130: 7dfe 1a3b 8009 4f3c eb8a aa3c cf04 113c
00000140: 23bd a2bb dd5e 5c3c 1df2 20bb 0441 a33b
00000150: 45e8 d1bb 7482 99bb 8ac8 d2bb a8b7 adbb
00000160: 7a46 0dbc f2de 623b 702b 323c 388c 4dbc
00000170: 82e8 8cbc 3de0 cebb 1c3c 9f3b 187c 573b
00000180: 12f8 d4ba 43b3 c737 3d78 e33a 7d66 1c3c
00000190: 4a3c 73bb 6310 c8bb c3b4 0e3b 6bfb 923c
000001a0: 8785 5fbc d763 7a3c 70f0 acbb fbf5 e9bb
000001b0: 4b20 bbbb 68c3 4dbb 72e5 5cbb 8f07 063b
000001c0: 2f62 8f3b eb33 c83a 926a d8bb 8b78 093c
000001d0: 1a1b 51bc 7a2f a63c 8bbf 7e3b 8c35 b2bb
000001e0: e202 81bc 47ac a03b 901c 513c 8b9b 213c
000001f0: 13af 333c e2b5 6b3c 0389 323c c04e 43bc
00000200: 4f5d 483c 320d 7abb 9a71 1cbb bd1f 283a
00000210: c592 aa3b db83 aabb d3ff 3fba 37d4 70bb
00000220: f637 303c 8a31 72bc 9436 08bc 93ce 9bbb
00000230: 70b7 003c a945 ae3b 788e 6c3c 7bc5 d63c
00000240: 1999 10bb 787f 573a bc2d 32ba fd00 e1bb
00000250: ea69 93ba e81f dfbb a31d 883b db6e b3b6
00000260: af91 2c3a 686d 273b 0320 223b 4a5a ffba
00000270: 68c8 44bb 633c 8bbc f733 273c 476c bbbb
00000280: e3e6 90bb c704 60bb 4072 5c3c e60c 8c3a
00000290: a619 1e3b 206e e53b c252 90bc bcb8 10bc
000002a0: 4561 673b bff6 a1bb 6c39 88bc a83d 663b
000002b0: 4812 2cbc 9b60 863b dc7f 8cbb 8c0d 993a
000002c0: b35e 8cbb 1a52 b8bb 832b 953c 5716 5bbc
000002d0: 73e1 edbb c592 e0ba dc35 36bc b321 27bc
000002e0: 0751 36bc 28ed b13b 876c efba 3552 ed3b
000002f0: 753f 9c39 0d67 f83b 02a9 f83b 73b1 07bc
00000300: 3703 4c3b 7a49 433b 80da dd3b 5bb3 f53b
00000310: 93ab 623c c060 1bbb 1261 eb39 a7e2 32bc
00000320: 0782 253c 756e a4bc ff33 1cbc 6c26 c63b
00000330: 5f44 71bb 44e3 37bb 21e7 14bc cb1f 943b
00000340: a7b3 923b f373 e4bb 2607 443b 2f7c 263c
00000350: c309 813c 3188 b33a cd8e eabb 05a0 833a
00000360: e6f7 32bc 21c4 9b3b 6e0f c3bb 5dba 663b
00000370: d3fe 313c 685f 563b 480b c73a 2d8a 033c
00000380: 71e6 35ba 619f 373c 339d e3bb 1e4e 473b
00000390: 41a6 c1bb 5ff6 8b3b 023d 9fbc 93f8 f5ba
000003a0: 1d04 1dbb 1944 313c 4054 d73a 3197 adbb
000003b0: 5b6e c73a 3041 8abc 9721 79bb 6369 f6bb
000003c0: 87c5 e7bb 4be7 863b a7a5 6a3c 2236 0fbb
000003d0: 50ae 57bb 4f18 89bb dbcf c6bb b644 babc
000003e0: e264 d83b a0d9 f4bb 06f9 89bc 8fbd 873a
000003f0: f338 a9bb 1d3b 47bc 1321 40ba fa7e 51bb
0.0027895432 0.003939575 0.013969918 0.0076122135 -0.003191463 0.0070363507 -0.0037641046 0.0025226995
-0.0022024363 0.014684403 0.020342043 -0.00088358624 0.0017364556 0.008628257 -0.0027573684 -0.010916854
0.0075486563 -0.0021431255 -0.004535115 -0.018973902 -0.012569678 0.005408116 0.005053674 -0.0030004028
-0.0042302907 -0.0077424743 -0.0028913838 0.009030125 -0.008716941 -0.0054308134 -0.0046812473 0.0047737467
-0.014233882 0.004300248 0.013824366 0.013256878 0.012468539 0.008611122 0.0044778003 -0.009592586
-0.021713546 0.0066288174 0.018126221 0.0009295822 0.006955329 0.008676632 -0.008949902 -0.0041000675
0.000577391 -5.1907187e-05 0.006461017 0.0020498375 0.013074343 -0.01887901 -0.0040935804 0.0047190366
-0.00078454084 0.011451934 -0.011745988 0.010218134 0.0073624006 0.00025575052 0.009392499 -0.026197884
0.0045184917 -0.0023426153 0.012187003 -0.0014331563 0.017867988 0.0040405435 0.0021479789 -0.009127522
-0.013321141 0.0067124846 0.008927724 0.012036282 0.0023650222 0.012636542 0.020818194 0.008851244
-0.0049663945 0.013450352 -0.0024558373 0.0049821157 -0.0064058625 -0.0046847407 -0.0064325975 -0.0053014345
-0.00862276 0.003461775 0.010874614 -0.012545638 -0.017200712 -0.0063133524 0.0048594605 0.0032880362
-0.0016248247 2.3806124e-05 0.0017354559 0.0095459195 -0.0037114793 -0.006105469 0.0021775223 0.017942151
-0.013642675 0.015282593 -0.005277686 -0.007139919 -0.0057106367 -0.0031396989 -0.0033706096 0.0020451283
0.004375718 0.0015274262 -0.006604501 0.008390556 -0.012762809 0.02028631 0.0038871493 -0.005438512
-0.015748445 0.0049033496 0.0127631575 0.0098637445 0.010967034 0.014386626 0.010896924 -0.011920631
0.012229278 -0.0038154838 -0.0023871423 0.0006413421 0.0052054846 -0.0052037067 -0.00073241926 -0.0036747584
0.01075553 -0.014782319 -0.008313794 -0.00475485 0.007856235 0.0053183627 0.014438264 0.026217213
-0.002206391 0.00082205934 -0.0006796976 -0.006866573 -0.0011246775 -0.0068092234 0.0041539236 -5.347521e-06
0.0006582988 0.002554739 0.0024738319 -0.0019481864 -0.0030026678 -0.016996568 0.0102052605 -0.005719695
-0.004422055 -0.0034182535 0.013454974 0.0010684996 0.0024124174 0.0070016533 -0.017617587 -0.008833107
0.003530578 -0.0049427445 -0.016628943 0.0035131965 -0.010502405 0.0041008717 -0.004287703 0.0011677011
-0.00428375 -0.0056250216 0.018209225 -0.013372025 -0.0072595417 -0.0017133584 -0.0111212395 -0.010200906
-0.011127717 0.0054298826 -0.0018266597 0.007242466 0.00029801918 0.007580644 0.0075885067 -0.008282053
0.0031129846 0.0029798434 0.006770432 0.0074981875 0.013834852 -0.002370879 0.00044895016 -0.010918296
0.010101802 -0.020072201 -0.009533881 0.0060470607 -0.0036814434 -0.0028059045 -0.009088309 0.0045203916
0.0044769826 -0.00697183 0.0029911487 0.010161444 0.015751725 0.0013697204 -0.0071581365 0.0010042196
-0.010923361 0.004753605 -0.005952767 0.0035206296 0.0108639775 0.0032710675 0.0015185857 0.008028549
-0.00069389405 0.0112074325 -0.00694623 0.0030411552 -0.0059097116 0.004271313 -0.01943827 -0.0018766097
-0.002395875 0.010819458 0.0016428307 -0.0052975644 0.0015215384 -0.016876787 -0.0038014406 -0.0075198873
-0.0070731076 0.0041169277 0.014321721 -0.0021852334 -0.0032910295 -0.004183806 -0.006067259 -0.022737842
0.006603823 -0.007472232 -0.016842376 0.0010356175 -0.0051642596 -0.01216009 -0.0007329147 -0.0031966553

discrete_action_output_shape f4 [1, 2]
00000000: 0000 8040 0000 0040
4.0 2.0

network_body._body_endoder.seq_layers.0.bias f4 [128]
00000000: 0000 0000 0000 0000 0000 0000 0000 0000
00000010: 0000 0000 0000 0000 0000 0000 0000 0000
00000020: 0000 0000 0000 0000 0000 0000 0000 0000
00000030: 0000 0000 0000 0000 0000 0000 0000 0000
00000040: 0000 0000 0000 0000 0000 0000 0000 0000
00000050: 0000 0000 0000 0000 0000 0000 0000 0000
00000060: 0000 0000 0000 0000 0000 0000 0000 0000
00000070: 0000 0000 0000 0000 0000 0000 0000 0000
00000080: 0000 0000 0000 0000 0000 0000 0000 0000
00000090: 0000 0000 0000 0000 0000 0000 0000 0000
000000a0: 0000 0000 0000 0000 0000 0000 0000 0000
000000b0: 0000 0000 0000 0000 0000 0000 0000 0000
000000c0: 0000 0000 0000 0000 0000 0000 0000 0000
000000d0: 0000 0000 0000 0000 0000 0000 0000 0000
000000e0: 0000 0000 0000 0000 0000 0000 0000 0000
000000f0: 0000 0000 0000 0000 0000 0000 0000 0000
00000100: 0000 0000 0000 0000 0000 0000 0000 0000
00000110: 0000 0000 0000 0000 0000 0000 0000 0000
00000120: 0000 0000 0000 0000 0000 0000 0000 0000
00000130: 0000 0000 0000 0000 0000 0000 0000 0000
00000140: 0000 0000 0000 0000 0000 0000 0000 0000
00000150: 0000 0000 0000 0000 0000 0000 0000 0000
00000160: 0000 0000 0000 0000 0000 0000 0000 0000
00000170: 0000 0000 0000 0000 0000 0000 0000 0000
00000180: 0000 0000 0000 0000 0000 0000 0000 0000
00000190: 0000 0000 0000 0000 0000 0000 0000 0000
000001a0: 0000 0000 0000 0000 0000 0000 0000 0000
000001b0: 0000 0000 0000 0000 0000 0000 0000 0000
000001c0: 0000 0000 0000 0000 0000 0000 0000 0000
000001d0: 0000 0000 0000 0000 0000 0000 0000 0000
000001e0: 0000 0000 0000 0000 0000 0000 0000 0000
000001f0: 0000 0000 0000 0000 0000 0000 0000 0000
0.0 0.0 0.0 0.0 0.0 0.0 0.0 0.0
0.0 0.0 0.0 0.0 0.0 0.0 0.0 0.0
0.0 0.0 0.0 0.0 0.0 0.0 0.0 0.0
0.0 0.0 0.0 0.0 0.0 0.0 0.0 0.0
0.0 0.0 0.0 0.0 0.0 0.0 0.0 0.0
0.0 0.0 0.0 0.0 0.0 0.0 0.0 0.0
0.0 0.0 0.0 0.0 0.0 0.0 0.0 0.0
0.0 0.0 0.0 0.0 0.0 0.0 0.0 0.0
0.0 0.0 0.0 0.0 0.0 0.0 0.0 0.0
0.0 0.0 0.0 0.0 0.0 0.0 0.0 0.0
0.0 0.0 0.0 0.0 0.0 0.0 0.0 0.0
0.0 0.0 0.0 0.0 0.0 0.0 0.0 0.0
0.0 0.0 0.0 0.0 0.0 0.0 0.0 0.0
0.0 0.0 0.0 0.0 0.0 0.0 0.0 0.0
0.0 0.0 0.0 0.0 0.0 0.0 0.0 0.0
0.0 0.0 0.0 0.0 0.0 0.0 0.0 0.0

network_body._body_endoder.seq_layers.0.weight f4 [128, 4]
00000000: beb0 2fbf 58df 533f 9e36 95be 0d37 c4be
00000010: 8f00 923e e8ef 8d3e eb98 3bbf 0100 2ebe
00000020: 8186 ad3d 9764 a43e fb3e 803f 3ed4 a2be
00000030: 00a6 bd3e 4d1e 8c3d e963 92bf a9bb e93c
00000040: 3bd0 34be 7c65 913e 1d80 93bf 40be 7c3f
00000050: c5a6 ae3c a87e 17bf ce44 37bf 597f e63e
00000060: 4504 f2be 3484 acbe 8f07 a23d f127 db3e
00000070: 157c bebe 32fb 83bd 810a aa3e be4b ba3e
00000080: 455c fa3e 81ef cb3e d789 0cbf 05d7 143e
00000090: 5f59 89be 4cb1 9a3e fd86 e1bd 82e4 48bd
000000a0: 10d2 023d 195f 993c ba45 b63d 7085 3fbe
000000b0: 0079 0cbf 34d3 01bf c7f9 cabe 32e9 f83e
000000c0: 3e6e 94be cfe7 0a3f d4b4 36bf 1811 03bf
000000d0: 428d aebf 03a3 edbe 9d8c 2abf 4b13 943e
000000e0: ac2e d63e 1b74 403f 92b4 5f3e dfd5 793f
000000f0: 5c2e 0fbe bc47 0abe 3185 b0be 5617 00be
00000100: 54f3 f53d 919c 01bf 755d 4ebf 6a24 e4bc
00000110: 2326 63bf cd7a 90bd 6a35 243f 3f87 b7be
00000120: 16d6 ba3e e010 74be 6569 49bf 1f47 abbd
00000130: c77a a5be fd6f 6b3f 9ec2 cf3e 75ae 61bc
00000140: 81ec 8bbe f258 42bf 9ea0 adbe 931a 6a3f
00000150: 08b0 a33d a97e 7c3e 25a8 273f aa3a bb3e
00000160: 5cdc 89be 2388 2bbf 51ae bfbe f0d5 613c
00000170: 3435 b73e 5fc8 edbd c716 3d3f 7c99 f6be
00000180: 7d95 fabd 45b0 293f b3ae 303f 7140 2e3f
00000190: 17ef 053f f2f6 8bbd 3032 893e e59c 6a3f
000001a0: 8671 31bf 16eb 093e 123b 063f 2a43 fa3e
000001b0: 6ff1 47bf 3dff f43d 7e03 4dbd 4589 54be
000001c0: 0f1d 30bf 8435 633e ce29 573f 5502 4b3d
000001d0: 17a0 353f 9519 01bf f930 463d 5edc 50bf
000001e0: 50fa f4be 43ac b93e ea32 3a3f 7097 f63d
000001f0: 8974 093e 4b03 24bf ebdc 223d b95b e0bc
00000200: ea5c 38be 247d 823e 8399 723f bbfb 26bf
00000210: 3fe5 0a3f 49bc 65be 8252 56bf b4d6 50be
00000220: 0101 2f3e 2e29 f2be 12ac 693e d589 b1be
00000230: 2440 4a3f 92f6 ecbe fcda 1fbf d0da 163f
00000240: 97cd aabe dd02 273f e940 103e f745 e23e
00000250: 71d7 333f 59bc 3c3f aeac ae3e fd7d 2b3e
00000260: 8abe dd3e a11f 9abe 3f5a 8a3f 77f6 8f3e
00000270: 759a fb3e 3374 a6be 2812 2c3e 6b93 a43f
00000280: b935 4c3f e64c a0be dd6d ff3e 8f6c 8ebd
00000290: 95d4 d4be 18fe 043e 7737 083f e0c0 3e3f
000002a0: 787d 74bd 8ef3 403e 9f1d fabe 9078 093f
000002b0: 7179 b93e a730 2e3e a4e1 30be b5ca 273f
000002c0: 5151 1bbf 3fde d03e cd1b 8e3e 2080 11be
000002d0: f444 89be 9f8b 313f 9789 7d3f 0c72 febe
000002e0: 048f ba3e 74e7 e4be 9cfd febd 6cba 503f
000002f0: ed26 cdbe b965 653f 813d 213e 0729 393e
00000300: e4fa 1bbf 3098 6abf 20f5 3b3f 916d adbe
00000310: 311c a0bd 1094 63bf b780 d13e ddae 8d3e
00000320: ce86 7d3e b966 3c3e 9301 5cbf 7f20 cf3e
00000330: c979 1f3e ed16 cabd 0a2d b6bd 5df4 84bf
00000340: f472 b2be eaf4 103f f3da 44bc 6a24 863e
00000350: fd56 dc3d 8d75 1dbf 462f 233f 06b4 02be
00000360: 94d0 693f e37e 73be 68ec 02bf e65e b63d
00000370: bcca 7ebe 93f9 6dbf 484e 683e 46fa 533f
00000380: a223 b43d f1c7 9f3e 6538 673d 53b4 9bbd
00000390: 17ea adbe 65c9 94be a65f aebe 705a 113f
000003a0: 5008 e0be 1026 4b3e 9145 063f ea71 5c3e
000003b0: d15b 6c3d 83a1 d73d c203 193e 1adf 1abf
000003c0: 75f0 f03e a15b 0f3f c3a4 8bbf 6c89 8bbd
000003d0: bdb1 abbd d7a3 99bd 8c75 b1be 23df 15bf
000003e0: fe89 c5be 32b1 3e3f 92c4 4ebf dbae 123f
000003f0: 04c2 1b3f 34ec 9c3d af9a d7be 9062 1dbf
-0.6862906 0.8276267 -0.29143232 -0.3832325 0.2851605 0.27722096 -0.7328021 -0.16992189
0.0847292 0.32107994 1.001922 -0.31802553 0.3704071 0.06841717 -1.143674 0.028531866
-0.17657559 0.2839774 -1.1523472 0.987278 0.021319756 -0.5917764 -0.7158936 0.45019034
-0.47268882 -0.33694613 0.07911598 0.4280391 -0.37204042 -0.06444396 0.3321114 0.36385912
0.4889852 0.39831164 -0.54897827 0.14535148 -0.26825997 0.30213392 -0.11012075 -0.049046047
0.031938612 0.018722104 0.08900018 -0.18703246 -0.5487213 -0.50712895 -0.3964369 0.48615414
-0.28990358 0.5425996 -0.7136967 -0.5119796 -1.3636858 -0.4641343 -0.6662081 0.2892097
0.41832483 0.7517716 0.21846226 0.97591966 -0.13982528 -0.13503927 -0.34476617 -0.12508902
0.12009302 -0.50629526 -0.80611354 -0.027849395 -0.88730067 -0.070546724 0.64144003 -0.35845372
0.3649146 -0.23834562 -0.78676444 -0.08363175 -0.32320234 0.91967756 0.4057817 -0.013774504
-0.27328876 -0.7591697 -0.33911604 0.914468 0.0799256 0.24657692 0.65490943 0.36568195
-0.26925933 -0.67004603 -0.3743768 0.013783917 0.35782778 -0.116104834 0.7386288 -0.48163974
-0.12235544 0.6628459 0.6901657 0.6806708 0.5231795 -0.068342105 0.26796103 0.9164565
-0.6931385 0.13468584 0.52433884 0.48879367 -0.78102773 0.11962745 -0.05005216 -0.20755489
-0.6879434 0.22188383 0.84048164 0.04956277 0.709474 -0.5042966 0.048386548 -0.81586254
-0.47847223 0.36264238 0.7273394 0.12040603 0.13423361 -0.64067525 0.039761465 -0.027387487
-0.18004194 0.254861 0.9476549 -0.6522786 0.5425605 -0.22435106 -0.83719647 -0.20394403
0.17090227 -0.47297043 0.22819546 -0.3467547 0.7900412 -0.46281868 -0.6244352 0.5892763
-0.33359978 0.65238744 0.14087261 0.44194004 0.7025061 0.73724896 0.3411612 0.1674728
0.43309432 -0.30102256 1.0808791 0.28117725 0.4914128 -0.32510528 0.16803801 1.2857488
0.79769474 -0.3130867 0.49888507 -0.069543 -0.41568437 0.12987554 0.5320963 0.74513054
-0.05968997 0.18842909 -0.48850724 0.5369959 0.36225465 0.17010747 -0.17273575 0.6554368
-0.60670954 0.4079456 0.27755585 -0.14209032 -0.2681042 0.6935367 0.9903807 -0.49696386
0.36437237 -0.44707835 -0.12450716 0.8153446 -0.4006876 0.8960834 0.15746118 0.18082057
-0.60929704 -0.9163847 0.73420906 -0.33872655 -0.07817877 -0.888978 0.40918514 0.27672473
0.24758455 0.1839856 -0.859399 0.4045448 0.15573801 -0.09867654 -0.08895309 -1.0387074
-0.34853327 0.5662371 -0.012015092 0.26199657 0.10758779 -0.61507493 0.6374401 -0.12763986
0.9133389 -0.23778872 -0.5114198 0.08904819 -0.24882025 -0.92958945 0.22686112 0.8280376
0.08795859 0.3120723 0.056450266 -0.076027535 -0.3396766 -0.29059902 -0.3405735 0.5677862
-0.43756342 0.19838738 0.524499 0.2152783 0.05770475 0.10528853 0.1494284 -0.60496676
0.47058454 0.5599919 -1.0909656 -0.068133205 -0.0838351 -0.07501953 -0.34659994 -0.58543605
-0.38581842 0.7448913 -0.8076869 0.5729806 0.6084292 0.0766224 -0.42110202 -0.6147852

network_body._body_endoder.seq_layers.2.bias f4 [128]
00000000: 0000 0000 0000 0000 0000 0000 0000 0000
00000010: 0000 0000 0000 0000 0000 0000 0000 0000
00000020: 0000 0000 0000 0000 0000 0000 0000 0000
00000030: 0000 0000 0000 0000 0000 0000 0000 0000
00000040: 0000 0000 0000 0000 0000 0000 0000 0000
00000050: 0000 0000 0000 0000 0000 0000 0000 0000
00000060: 0000 0000 0000 0000 0000 0000 0000 0000
00000070: 0000 0000 0000 0000 0000 0000 0000 0000
00000080: 0000 0000 0000 0000 0000 0000 0000 0000
00000090: 0000 0000 0000 0000 0000 0000 0000 0000
000000a0: 0000 0000 0000 0000 0000 0000 0000 0000
000000b0: 0000 0000 0000 0000 0000 0000 0000 0000
000000c0: 0000 0000 0000 0000 0000 0000 0000 0000
000000d0: 0000 0000 0000 0000 0000 0000 0000 0000
000000e0: 0000 0000 0000 0000 0000 0000 0000 0000
000000f0: 0000 0000 0000 0000 0000 0000 0000 0000
00000100: 0000 0000 0000 0000 0000 0000 0000 0000
00000110: 0000 0000 0000 0000 0000 0000 0000 0000
00000120: 0000 0000 0000 0000 0000 0000 0000 0000
00000130: 0000 0000 0000 0000 0000 0000 0000 0000
00000140: 0000 0000 0000 0000 0000 0000 0000 0000
00000150: 0000 0000 0000 0000 0000 0000 0000 0000
00000160: 0000 0000 0000 0000 0000 0000 0000 0000
00000170: 0000 0000 0000 0000 0000 0000 0000 0000
00000180: 0000 0000 0000 0000 0000 0000 0000 0000
00000190: 0000 0000 0000 0000 0000 0000 0000 0000
000001a0: 0000 0000 0000 0000 0000 0000 0000 0000
000001b0: 0000 0000 0000 0000 0000 0000 0000 0000
000001c0: 0000 0000 0000 0000 0000 0000 0000 0000
000001d0: 0000 0000 0000 0000 0000 0000 0000 0000
000001e0: 0000 0000 0000 0000 0000 0000 0000 0000
000001f0: 0000 0000 0000 0000 0000 0000 0000 0000
0.0 0.0 0.0 0.0 0.0 0.0 0.0 0.0
0.0 0.0 0.0 0.0 0.0 0.0 0.0 0.0
0.0 0.0 0.0 0.0 0.0 0.0 0.0 0.0
0.0 0.0 0.0 0.0 0.0 0.0 0.0 0.0
0.0 0.0 0.0 0.0 0.0 0.0 0.0 0.0
0.0 0.0 0.0 0.0 0.0 0.0 0.0 0.0
0.0 0.0 0.0 0.0 0.0 0.0 0.0 0.0
0.0 0.0 0.0 0.0 0.0 0.0 0.0 0.0
0.0 0.0 0.0 0.0 0.0 0.0 0.0 0.0
0.0 0.0 0.0 0.0 0.0 0.0 0.0 0.0
0.0 0.0 0.0 0.0 0.0 0.0 0.0 0.0
0.0 0.0 0.0 0.0 0.0 0.0 0.0 0.0
0.0 0.0 0.0 0.0 0.0 0.0 0.0 0.0
0.0 0.0 0.0 0.0 0.0 0.0 0.0 0.0
0.0 0.0 0.0 0.0 0.0 0.0 0.0 0.0
0.0 0.0 0.0 0.0 0.0 0.0 0.0 0.0

network_body._body_endoder.seq_layers.2.weight f4 [128, 128]
00000000: ad52 88bc ccd4 0a3e 6935 8dbc 9ffd 173d
00000010: 5655 a6bc 23fc 0bbc 04af febd 618a 13be
00000020: f7c5 e7bd 941e 263e 649d a33d 4f61 603c
00000030: f58f d2bb 7d17 5b3d 2bfb 88bc d3d5 dfbc
00000040: a772 fc3d 282c 2cbe 45a8 153d e163 483d
00000050: c890 a33d 3d25 9b3d aef2 28be 40bf bd3d
00000060: 8f39 0a3d 83ab f3bc 6d88 dabd e8a2 3abd
00000070: e4e4 9bbd 7889 ef3d 7e1b d2bd 9135 bf3c
00000080: 1f38 fa3d a108 f73c c37f 86bd 1998 3dba
00000090: 3a74 72bd fc02 fb3d 0686 84bb 07bf 033e
000000a0: bbe0 3dbd 8008 8b3a 69b9 593e 4b39 71bc
000000b0: 7caa 923d 0537 28bd 2127 e53c dd6f 65bd
000000c0: 50e1 9c3d 482f ec3d 5387 d1bd 94d0 953d
000000d0: 61c2 0cbe f3b4 043c 9637 e7bd 7f92 493d
000000e0: 07a6 64bd b499 e03c 7a34 64bd 5d73 b9bc
000000f0: 6668 f7bc 4478 61bd aca3 24bd a2b4 763b
00000100: db73 f0bd 1732 883d da9c 013e ceab 8e3d
00000110: ea93 b1bd 8e15 2f3e 92f0 da3d 6939 873d
00000120: 13de 8cbc 2d1a cd3c b231 39be 354b ec3d
00000130: 3ef7 fb3c 9774 e63d 6279 0dbd 2a65 57bd
00000140: 987a 9b3d a44d a7bd 25d0 85bd e30f b0bd
00000150: 176d 4ebd 67aa 193e 0ef8 8ebc ea3a 0a3d
00000160: df98 c63a fa2e d33d 73e5 0cbc 2535 3a3c
00000170: dde3 153b 0410 993c 8e6e 15be f198 57bd
00000180: 7831 af3d 5abd f6bd adf0 8ebc fdf6 2bbd
00000190: 6f22 b8bb 9499 b4bd d346 97bd 52fe 93bd
000001a0: d598 fa3d ce4d 723d 0089 ee3a b743 b23d
000001b0: 9ac8 13bd 1cbd d6bc 56e7 9fbc ce23 2a3e
000001c0: 93d1 9f3c bf0c bcbd fd84 573b 02b1 153e
000001d0: de48 1bb7 7c36 e13d 87ae cebc 6c8d 71bc
000001e0: 34b6 18be 6a58 cbbc 1f95 003d 96ac 3bbc
000001f0: 19d7 803d 6335 22bd 6c55 cbbc 69c8 0abe
00000200: de47 f53d ecc5 a5bd 2de6 153e 66f0 013d
00000210: c2e2 fb3d 6202 40bb 321d 5ebc b046 983d
00000220: d650 f03d a9db 033d 13a6 2c3c 2144 d43c
00000230: aa8f b1bb 50a2 873d 98d3 d0bc 8b0e 243e
00000240: 5f98 503e 8585 81bc 860e 1c3e 6297 e63c
00000250: 521c 93bc eeba edbc 09ee 1d3e 1719 b03d
00000260: 0622 093d 2efa cebc a840 113e 7b3b 223d
00000270: 6397 65be 15d9 4e3d 44c5 873c 5231 ac3d
00000280: 2883 87bb f302 e43d 4e50 af3c 33b7 8abd
00000290: 5103 d9bd 88f2 0dbd 4060 fa3d 0e77 74bd
000002a0: 718a d83d 1941 8ebd a105 1d3c 3503 203e
000002b0: 07a2 ab3d 941e a33b 1553 54bd db3e 673d
000002c0: a78b 25bc a1ec 0a3d f594 4dbd 52da abbd
000002d0: d8a0 06be 10ce 0fbd 34d7 763d 8143 febc
000002e0: 2c25 e3bc eaf1 54bc bd6b d6bc c785 083d
000002f0: 8e0c 49bd 063a 75bd e6fe 9fbc 7d67 0ebe
00000300: e451 02be 6a86 d43d 3e02 a1bd 6d89 8a3d
00000310: 80f9 77bd f007 de3d 02b4 5dbd 9f4c de3c
00000320: 29eb 663a 12ce cb3d e3c5 14bd 07f6 573d
00000330: cc6e e33d e44d c33c 7d43 f3bd b2dc e3bd
00000340: b55d af3d 6bf0 a23d 505c 68bd 4efe 3a3c
00000350: bc35 9c3c 6585 0f3e 1330 ebbd c2e1 bebc
00000360: dcd7 dc3d 85ad c1bd 7e79 42bd 2feb fd3c
00000370: cc98 82bb 62c0 293c cf06 3a3d 19aa e0bc
00000380: 35a7 18be 880f 333e 256e a5bb bbfb 3b3d
00000390: 0631 783d 7a1b 463d 5ab9 96bd 7573 ccbb
000003a0: f4f3 b8bc 3aa5 ab3b b761 3c3d 184d 14bd
000003b0: f193 903b 3df0 83bd b8ee 1ebc 2e4f 8b3b
000003c0: 7f57 a6bd e7d1 26bd a221 223b d442 e73d
000003d0: 57df b0bd 2c7d 88bd 4de1 44bd 5594 ad3d
000003e0: 553b 0bbc 12cc 1ebd f743 8b3e ceac 023e
000003f0: a9b0 64bd 7760 cf3d 9930 2bbe 90bd ebbb
-0.016640985 0.13557738 -0.017237382 0.037107106 -0.020304363 -0.008544001 -0.12435725 -0.14408256
-0.11317056 0.16222602 0.07989004 0.013695075 -0.0064258524 0.053489197 -0.016721329 -0.027323639
0.12326556 -0.1681372 0.036537427 0.048923377 0.07986599 0.07575462 -0.16498825 0.09264994
0.0337463 -0.02974487 -0.106705524 -0.045565516 -0.07612017 0.11696142 -0.1025915 0.023340972
0.122177355 0.030155482 -0.06567337 -0.0007232442 -0.059192874 0.122564286 -0.004044297 0.1286584
-0.046356898 0.0010607392 0.21262135 -0.014723132 0.071614236 -0.041068096 0.02797276 -0.056014884
0.076601624 0.11532456 -0.10230889 0.07315174 -0.13746025 0.008099782 -0.11289899 0.049211975
-0.0558224 0.027417041 -0.055714108 -0.022638017 -0.030201148 -0.055046335 -0.040195152 0.0037644287
-0.11740848 0.06650179 0.1265749 0.06966363 -0.086707905 0.17098066 0.106904164 0.06602747
-0.017195737 0.025036896 -0.18085364 0.11537782 0.030757543 0.112527065 -0.034539588 -0.052586712
0.07591742 -0.08169106 -0.06533841 -0.0859678 -0.050397005 0.1500641 -0.017452266 0.03374759
0.001515176 0.103116944 -0.008599627 0.01136521 0.0022871413 0.018684395 -0.14592955 -0.05263609
0.08554357 -0.12047835 -0.017448748 -0.041983593 -0.005619339 -0.08818355 -0.073865555 -0.07226242
0.12236182 0.05915623 0.0018198788 0.08704322 -0.03607998 -0.026213221 -0.01951949 0.16615221
0.019509112 -0.091821186 0.0032885664 0.14618304 -9.255686e-06 0.1099672 -0.025229705 -0.01474319
-0.14913255 -0.024822433 0.031392213 -0.011454722 0.062910266 -0.039601695 -0.024821006 -0.13553013
0.11976598 -0.08094391 0.14638586 0.031723402 0.1229911 -0.0029298295 -0.013556765 0.074353576
0.11734168 0.032191906 0.010537642 0.025911393 -0.0054187374 0.066227555 -0.02549152 0.16021173
0.20370625 -0.015810737 0.15239915 0.028148357 -0.01795784 -0.0290198 0.15422834 0.085985355
0.033479713 -0.02526578 0.1418482 0.039607506 -0.2242103 0.050499994 0.016573556 0.084078446
-0.004135508 0.11133375 0.021400597 -0.06773224 -0.10596336 -0.034655124 0.122253895 -0.059683852
0.105732806 -0.0694601 0.009583862 0.15626223 0.08380514 0.0049780104 -0.051837046 0.056456428
-0.0101040965 0.033917073 -0.050190885 -0.08391251 -0.13147295 -0.035108626 0.060263827 -0.031038048
-0.027727686 -0.01299713 -0.02617442 0.033330705 -0.04908424 -0.05986979 -0.019530725 -0.13906665
-0.12726551 0.103772 -0.07861756 0.06764493 -0.060540676 0.10841358 -0.054126747 0.027136145
0.00088088453 0.09951414 -0.036321532 0.052724864 0.11105117 0.023840852 -0.11878107 -0.11126079
0.08562795 0.07956012 -0.05672866 0.01141317 0.019068591 0.1401573 -0.11483779 -0.02330101
0.107833594 -0.09456924 -0.047479145 0.030995933 -0.0039855 0.010360809 0.04541665 -0.027424859
-0.14907534 0.17486393 -0.0050485306 0.045894366 0.060593627 0.048366047 -0.07359572 -0.0062393495
-0.022577263 0.0052382024 0.045991626 -0.036206335 0.0044121672 -0.06442306 -0.00970047 0.0042513823
-0.08122157 -0.040727522 0.0024739285 0.11292043 -0.08636349 -0.066645 -0.048066426 0.08475558
-0.008498033 -0.038768835 0.2720029 0.12761232 -0.05583254 0.10125821 -0.16717757 -0.0071942285
