results/ppo/MoveToGoal/MoveToGoal-865.onnx (onnx, 135385 bytes, 9 tensors)

action_model._continuous_distribution.log_sigma f4 [1, 2]
00000000: 0000 0000 0000 0000
0.0 0.0

action_model._continuous_distribution.mu.bias f4 [2]
00000000: 0000 0000 0000 0000
0.0 0.0

action_model._continuous_distribution.mu.weight f4 [2, 128]
00000000: dae5 e5bc c32b 413d 6203 67bc 7f9e 04bc
00000010: 2a07 45bc ebda 2c3c 36ef 493b c06f da3b
00000020: f98f ab3a 95a1 f13b 04d3 bc3c 7c82 393c
00000030: 389a e0bc 1712 cd3b 214e 8fbc e6cc bf3c
00000040: cfed 99bc 4f6a 33bc 8a9d d03c d272 5e3c
00000050: e658 a43c a4b1 16bc 5553 c6bc 4363 12bd
00000060: 553f 3c3a 3269 47bc 6ace 8dbc 1413 193b
00000070: eb1e f73c b987 85bc bf3d 923b bb67 bb37
00000080: 6ba0 f73a d3e2 96bc 23d4 82bb ad23 a8bc
00000090: 77f1 0fbd e843 e2bb 38e5 a3bb 9739 93bb
000000a0: 17d2 523c 2f0c 1bbd a5d1 4cbc 6425 8f3c
000000b0: 5b0a f53c 1c74 9bbc eb55 d23c 4fa3 1ebc
000000c0: 026e 823c 766c 9b3c 1135 a2bb 3a48 35bd
000000d0: 25a4 6ebb 20e3 b2bb d04a 05bc de36 283c
000000e0: 516f bf39 d320 fb3c edd4 1cbc 181f 003d
000000f0: e502 53bc f349 52bc 98fc 76bc ccf7 86bc
00000100: efb7 743c bf5c 17bb 53df f0bb 07b9 993a
00000110: 28c1 69bc ff54 04bc 1bdc f3bb 1280 18bd
00000120: cd88 e73b a310 68bc 0db2 803c 27a0 a6bb
00000130: 4aad b2bb d7d6 39ba 6ca9 30bb 3386 ecbb
00000140: 7bc2 23bd 88b4 04bc 0632 253b 7db3 37bd
00000150: 3e73 9b3b 9e3d abbb 1581 7b3a 4ffc e5bc
00000160: 4f07 afbc 27a4 a13c 586e a038 d7c8 30bc
00000170: 6842 4d3c 504f 2ebc 0963 413b 6367 21bc
00000180: 12b7 c4bc 1968 31bb 3fc9 7abc 64e0 c6bb
00000190: ec64 93bc 06b4 a1bc cb06 6d3c 3d12 e2bc
000001a0: 985e ecbc 264d 093c 50b6 18bc b498 39bc
000001b0: 725b fabc 7454 c8bc 90a9 5fbc f3d0 bcbc
000001c0: 04a0 31bb a33b 373c 1b45 653c faa6 cfbc
000001d0: 0340 33bb fa73 0f3d 62b5 ba3c 36d8 15bd
000001e0: 16e2 3e3c 5151 bdbb a587 eebb a216 253c
000001f0: ef2b 1dbc bf77 57bc f01f e0bc 5c89 1b3c
00000200: 3aa7 853c a348 94ba 2526 f73c 58d3 17bc
00000210: 07fd a13b 4299 763c 789b 863c 6353 dabc
00000220: 88e1 94bc 6c1f 1ebd b95a 933a 40a7 fc3b
00000230: d93d 9fbb 521b d2bc 25f0 c13c 77ea 3f3b
00000240: f90f 303c c253 acbb 54b1 11bc 18cf 743b
00000250: 1a65 4fbd 38b6 c9bb 5873 5a3c 58d7 f13c
00000260: 9ae1 933c cdb8 3d3c 0350 883c a7f3 f9bb
00000270: 8b88 8e3c f7c3 cb3c 03dd a73c 8338 9d3c
00000280: 285f 813b f330 c83b 8c1f 423c ebcd 3e3c
00000290: 825f da3b 6803 023b a84d 71bc 1777 95bb
000002a0: 9a33 973c 125a bd3c 60f3 ad3b fe6d cb3b
000002b0: 9fbe c73b 327a f83b 9b7a 27bc 6a48 c0bc
000002c0: 5952 2ebc 202e 6bbc 078a 97bc 31d7 10bc
000002d0: 5041 ed3b 655b 33bd 1020 823c fba2 04bb
000002e0: 0d2c 23bc 1ba0 a8bb e9df 8cbc 8339 f839
000002f0: 3b34 633c 479d efbb e27a 07bd 53b3 673c
00000300: 3b8e d1bc 802a 2d3c a003 0f3b b431 9ebc
00000310: c51b f0bc bfb1 a43b 68aa 3b3a 574e 4dbb
00000320: 6bd3 f53c 02c2 543a c09d f0bb 3acb fdbb
00000330: 71bf bb3b ebba 06bc 04ff 08bd b09f 443b
00000340: ad45 743c d738 a1bc 4fdb 0b3c 0369 6cbc
00000350: a58f 073c fcbd 84bc efeb a33c fdc1 cfbc
00000360: fc43 0d3c c5d5 b23c 7dde fa3c d03a a13a
00000370: 89dd b8bc 961c 2cbc 2d00 fd3b 2155 38bb
00000380: 0fd2 293c 48fc c03c 727b c3bc 4f06 4f3c
00000390: c03d 123c 98bc 743c f2ef d6bb 735b a13c
000003a0: 8ff9 3d3c 60f6 68bc 54b7 0c3c 9e08 b8bc
000003b0: b362 1cbc e1b5 b9bc 8fed d83c 094d 36bc
000003c0: 777c c03b f88d bbb9 2314 213c 47ca 07bb
000003d0: 7bcb 8e3c a383 5bba 7789 92bc 203a 933c
000003e0: f39d ac3c 4e0f 1dbb 83fd 653d 5b2b 723c
000003f0: 670d 453c 3c74 a4bc 5f27 abbc 6877 f93a
-0.028063703 0.047160875 -0.014099928 -0.008094429 -0.012025634 0.010550241 0.0030812747 0.0066661537
0.0013089172 0.0073739984 0.023049839 0.011322614 -0.027417287 0.00625826 -0.01749331 0.023413133
-0.018790154 -0.010950639 0.025465745 0.01357718 0.020061921 -0.009197626 -0.024209658 -0.035739195
0.0007181068 -0.012171077 -0.01731034 0.0023357319 0.03016611 -0.01630007 0.004462927 2.234044e-05
0.0018892413 -0.018418705 -0.003992574 -0.020524824 -0.03514239 -0.0069050677 -0.0050016902 -0.004492949
0.012867472 -0.037853416 -0.012501155 0.017473884 0.029912164 -0.018976264 0.025675735 -0.0096824905
0.015921596 0.018972617 -0.0049501737 -0.044258334 -0.0036413756 -0.0054592043 -0.0081355125 0.010266988
0.00036513296 0.0306553 -0.00957225 0.031279653 -0.012879108 -0.012835014 -0.0150748715 -0.01647558
0.014936431 -0.0023096052 -0.007350841 0.0011728116 -0.014267243 -0.008076905 -0.00744201 -0.037231512
0.0070658685 -0.014164123 0.015709901 -0.0050850096 -0.0054527866 -0.00070892036 -0.0026956452 -0.007218146
-0.039980393 -0.008099683 0.0025206818 -0.044848908 0.0047439625 -0.005225851 0.0009594125 -0.028074412
-0.02136579 0.019731594 7.649948e-05 -0.010790071 0.0125280395 -0.010639027 0.0029508492 -0.0098513095
-0.024013076 -0.0027070104 -0.01530677 -0.00606923 -0.01799246 -0.019739162 0.014466952 -0.027596587
-0.0288537 0.00838021 -0.00932081 -0.011327911 -0.030561183 -0.024454333 -0.013651267 -0.023048854
-0.0027103433 0.011183652 0.013993527 -0.025348175 -0.0027351386 0.035022713 0.022791568 -0.036583148
0.011650583 -0.005777516 -0.0072793537 0.010076197 -0.009592994 -0.013151108 -0.027358979 0.009493198
0.016315091 -0.0011313151 0.030169556 -0.009266697 0.0049434933 0.015051188 0.016431555 -0.02665109
-0.018173948 -0.038604185 0.0011242247 0.0077103674 -0.0048596677 -0.025647793 0.02367408 0.002928404
0.010745996 -0.005259008 -0.008892376 0.0037354883 -0.050633527 -0.0061557554 0.013333164 0.02952163
0.018051911 0.0115797045 0.016639715 -0.0076279226 0.017399093 0.024873717 0.020491129 0.019191986
0.003948111 0.006109351 0.011848342 0.011645774 0.0066642174 0.0019838456 -0.014727987 -0.0045613158
0.018457223 0.023114238 0.0053085536 0.0062081804 0.006095722 0.007582926 -0.0102221025 -0.02347203
-0.01063975 -0.014354259 -0.018498434 -0.008840368 0.007240452 -0.043788332 0.01588443 -0.0020238745
-0.009959233 -0.005146039 -0.017196612 0.00047345096 0.013867433 -0.00731245 -0.033076175 0.014141875
-0.025580516 0.010569215 0.002182223 -0.01931081 -0.029310117 0.005026072 0.00071588764 -0.0031327212
0.030008039 0.00081160676 -0.007343024 -0.0077451738 0.0057296087 -0.008223276 -0.033446327 0.0030002408
0.01490919 -0.019680424 0.008536174 -0.014429334 0.008273994 -0.016203873 0.020009963 -0.025361056
0.008622166 0.021830449 0.030623669 0.0012300853 -0.022566574 -0.010504862 0.007720968 -0.0028126913
0.010365023 0.023557797 -0.023862574 0.012635781 0.008925855 0.014937542 -0.0065593654 0.019696927
0.011595144 -0.014218897 0.008588631 -0.022465046 -0.009545016 -0.022669734 0.026480464 -0.011126765
0.0058742124 -0.00035773194 0.009831461 -0.0020719932 0.017431011 -0.00083738024 -0.017887814 0.017972052
0.02107141 -0.002396542 0.05614997 0.014780845 0.012027121 -0.020074956 -0.020892797 0.0019032778

action_model._discrete_distribution.branches.0.bias f4 [2]
00000000: 0000 0000 0000 0000
0.0 0.0

action_model._discrete_distribution.branches.0.weight f4 [2, 128]
00000000: adc0 193c 1960 a83b 5b7d 053c eb54 9d3b
00000010: 1fd1 a43c bd91 b63c b653 ac3b b7ad c13b
00000020: af13 64bb 3d3d 7fb9 e425 abbb 068f aa3b
00000030: 5ee1 3c3b fa24 0dba 4beb 70bc 9df7 bc3b
00000040: 0441 233c 64fc 33bc e341 783c eabc a83a
00000050: 28fa f0b9 e421 3dbc 089e 5d3a a372 cd3b
00000060: ca2f 67ba 42e7 523b a001 463c 2a65 3cbc
00000070: 931d 2e3c 4369 b23b 5048 3dbc 0dd7 9cbc
00000080: 0742 eb3b 6904 16bb 874a 353b 96b6 b43a
00000090: 5dd6 69bb f488 c5bc 684f 833b 4210 543c
000000a0: 9a0a 013c beaa 0dbc cd21 75bb c090 3aba
000000b0: 662e 043c dd70 aa3b e794 a9ba bae2 ec3b
000000c0: a43d afbb 4f82 cb3b d4e5 aebb 9533 b6ba
000000d0: 0fd6 483b 1f45 ee3b d497 1a3b e133 07bc
000000e0: c1e5 803b d528 3f3c 80dd 35bc 6603 a63b
000000f0: 9547 94bb 259e 51bb d8c2 afbb 7b16 a03a
00000100: ed8a 62bc 1f27 233c 2b07 32bc 0294 4b3b
00000110: de12 44bc a5b5 c4bb 4f25 ad3c 3716 0e3c
00000120: 84fd 163a ef6f 8cbb 5ea4 acbc c0c9 1bbb
00000130: aee9 2c3b 1e6c 913a 3fc2 d83b 6df0 553c
00000140: 114b 8e3c a2ec 9e3b 675c 08bb e30b 1e3c
00000150: df2d 223a 1d4a 693b b7ca 69bc dbff 93ba
00000160: 67f7 103b d452 4a3b f71a 1a3b 5831 8dbb
00000170: 8160 053c 8039 78bb ebd1 603c 2302 21bb
00000180: cbe0 62bc 2d03 8639 0b33 dfbb c31d 1c3b
00000190: e735 763b 4b8b 85bc 8f53 6e3b 826c 493a
000001a0: b6a5 b6bb 606f ae3b 6f77 beb8 a4bf 1e3c
000001b0: f350 7ebb 5c20 993b 5132 3a3b d097 efbb
000001c0: a110 223b 21d4 b03c 4a9f 1c3c 03ec f43b
000001d0: 8115 b33c d863 063c e324 063c 7e87 83bb
000001e0: ea2c 10bb c9b9 b93b bfbf 6fbb 9da4 9dbb
000001f0: 1b16 0ebc 0b93 0dba aab3 edb9 7707 0a3a
00000200: 3be4 533c 9394 93bb 99c4 3f3c 7f40 cfb9
00000210: 6848 32bc 30e9 92bc 1d7e 663c 589b b3bc
00000220: 3790 d43b e5b8 6dbc db5c c73a 457b 4ebb
00000230: 9005 113a ab4d 193a 8850 783c 83a4 9fb9
00000240: d18c 003c b82c 8fbb 9bdc 693b 02a2 513b
00000250: fcb5 a4ba abf6 b1ba 3b6b 433a 47cc b43b
00000260: bfbf 57bc e7a6 e9ba bdf5 023c ad85 583c
00000270: 0409 8c3c 8e98 b5bb dbbd dd3b 9a15 0ebc
00000280: 8daa dbba 5e09 b83b cae8 c9bb 3771 8fbb
00000290: 7fd3 feba 1f19 2cbc a2f9 4c3a ef0e 71bb
000002a0: 0c40 9d3b d8ab 973b 63a4 c73b 0ff3 8a3c
000002b0: 05fc 233c 8a35 4f3c 6e05 15bc 481e 5dbb
000002c0: 38fe 1fbb b3ca e9bb 3b09 b53c 67b2 12bc
000002d0: a51c ff3b 3d21 7e3a e3d8 483b cbda 393c
000002e0: 1f3c 673a a199 0cbb 2806 873b e78a e93b
000002f0: 07a2 0b3b 5ba6 11bc abfd 2d3b 6d05 11bc
00000300: e036 0d3b fda6 a4bc 93ef c1bb 47cb 883b
00000310: d121 b73a aff4 813b 1836 dfbb ffc1 d73b
00000320: f3da 68bb 13c3 1cba 1782 223b 70e3 ba3b
00000330: bf86 253a a312 c13b d335 283c ba2f 91bb
00000340: 178d 0bbb cb6e 9f3c 6f22 15bc 6738 2f3c
00000350: d398 f8bb 02f1 d43b ec2f 80bc 7de8 d43b
00000360: 5ec5 c03b ad65 493c 2745 aa3b 6d30 54bb
00000370: 489f d63b c0fd 57bc 7bce 02bc 4b2f 8f3c
00000380: 2da4 c73b 3a49 19bc 958c fe3b a85c e8bb
00000390: 6b11 093b 6ff1 24bc 23aa d83a 4467 82bb
000003a0: 6ba3 48bb 638a 59bc 49cf 073c 0d0e ca3b
000003b0: 8dcd ed3a 22a9 8ebb ddde dbbb 0221 33bb
000003c0: 5a76 b73b b2fe c5bb c513 85ba 14f9 1abb
000003d0: 4af0 5cbc 93ac 1dbc af74 143c 02aa be3a
000003e0: 3144 363b 45bf cd3b c520 7dbc 274a 97bc
000003f0: b315 b4bc 7dd1 ab3b 0b17 113c 0847 b63b
0.009384316 0.005138409 0.008147563 0.004801383 0.020119248 0.02228629 0.0052590026 0.005910601
-0.0034801771 -0.00024341508 -0.005223023 0.005205038 0.0028820853 -0.0005384233 -0.014704536 0.0057668225
0.009964231 -0.010985468 0.015152427 0.0012873684 -0.00045962748 -0.011543725 0.00084540294 0.0062697693
-0.0008819072 0.0032181297 0.012085348 -0.011498729 0.010627168 0.005444677 -0.011552885 -0.019145513
0.007179502 -0.0022890812 0.002766283 0.0013787325 -0.003568075 -0.024113156 0.0040072687 0.012943329
0.007876063 -0.008646665 -0.003740418 -0.00071169063 0.008067703 0.0052014426 -0.0012938053 0.0072291763
-0.0053479243 0.0062106024 -0.0053374562 -0.0013900871 0.0030645167 0.0072714235 0.0023589032 -0.008252115
0.003933639 0.01166745 -0.011100173 0.005066323 -0.004525135 -0.003198513 -0.0053638034 0.0012213731
-0.013827068 0.009958058 -0.010865967 0.0031063561 -0.011967389 -0.006003099 0.021135954 0.008672289
0.00057598227 -0.0042858045 -0.02107447 -0.0023771375 0.00263844 0.0011094844 0.006614953 0.01305781
0.017369779 0.004849986 -0.002080703 0.009646389 0.0006186645 0.0035597153 -0.014269522 -0.0011291461
0.002212012 0.0030872123 0.0023514607 -0.0043088607 0.008140684 -0.003787607 0.013721923 -0.0024567924
-0.01384754 0.00025560838 -0.0068115047 0.002382145 0.003756875 -0.016301772 0.0036365723 0.00076837104
-0.0055739535 0.0053233355 -9.082152e-05 0.009689245 -0.0038805574 0.004673047 0.0028411339 -0.0073117986
0.002472915 0.021585526 0.009559462 0.007474424 0.02186084 0.008202516 0.008187505 -0.0040139547
-0.0021999427 0.0056678993 -0.0036582795 -0.004810883 -0.008672263 -0.0005400634 -0.00045338023 0.00052653946
0.012932832 -0.0045037954 0.011704587 -0.0003953017 -0.010881521 -0.017933458 0.014068154 -0.02192466
0.0064869183 -0.014509414 0.0015210168 -0.003150658 0.000553214 0.000584806 0.015155919 -0.00030449414
0.007846073 -0.0043693446 0.003568447 0.0031987433 -0.0012566443 -0.0013577541 0.0007454638 0.005517516
-0.013168274 -0.001782623 0.007993159 0.013215465 0.017094143 -0.0055418676 0.0067670173 -0.008672142
-0.0016759202 0.005616351 -0.006161784 -0.00437751 -0.0019441693 -0.010504036 0.00078191806 -0.0036782583
0.0047988947 0.0046286397 0.0060925945 0.016961602 0.010008817 0.012647042 -0.009095533 -0.0033739973
-0.0024413 -0.0071347593 0.022099128 -0.008953667 0.007785397 0.0009694284 0.0030646853 0.011343668
0.00088209094 -0.0021453875 0.004120607 0.007127154 0.0021306293 -0.00888976 0.0026548903 -0.008851391
0.00215476 -0.020099157 -0.005918452 0.004174623 0.001397187 0.003965936 -0.0068118684 0.0065844054
-0.0035530895 -0.0005979996 0.0024796778 0.005703382 0.0006314329 0.0058921142 0.010266739 -0.0044307383
-0.0021293813 0.01946201 -0.009102448 0.0106946 -0.0075865774 0.006498457 -0.01564785 0.0064974413
0.005882903 0.012292308 0.005196232 -0.0032377497 0.0065497495 -0.013183057 -0.007983799 0.017478606
0.0060925693 -0.0093558375 0.0077682235 -0.0070911236 0.0020914923 -0.010067328 0.0016530197 -0.0039795954
-0.0030614983 -0.013277623 0.008289167 0.0061662258 0.0018142924 -0.0043536583 -0.006709917 -0.0027332907
0.0055988254 -0.006042325 -0.0010152987 -0.0023646997 -0.013485024 -0.009623664 0.009061023 0.0014546516
0.0027811641 0.0062789046 -0.015449707 -0.018467976 -0.021983003 0.005243479 0.0088555915 0.005562667

network_body._body_endoder.seq_layers.0.bias f4 [128]
00000000: 0000 0000 0000 0000 0000 0000 0000 0000
00000010: 0000 0000 0000 0000 0000 0000 0000 0000
00000020: 0000 0000 0000 0000 0000 0000 0000 0000
00000030: 0000 0000 0000 0000 0000 0000 0000 0000
00000040: 0000 0000 0000 0000 0000 0000 0000 0000
00000050: 0000 0000 0000 0000 0000 0000 0000 0000
00000060: 0000 0000 0000 0000 0000 0000 0000 0000
00000070: 0000 0000 0000 0000 0000 0000 0000 0000
00000080: 0000 0000 0000 0000 0000 0000 0000 0000
00000090: 0000 0000 0000 0000 0000 0000 0000 0000
000000a0: 0000 0000 0000 0000 0000 0000 0000 0000
000000b0: 0000 0000 0000 0000 0000 0000 0000 0000
000000c0: 0000 0000 0000 0000 0000 0000 0000 0000
000000d0: 0000 0000 0000 0000 0000 0000 0000 0000
000000e0: 0000 0000 0000 0000 0000 0000 0000 0000
000000f0: 0000 0000 0000 0000 0000 0000 0000 0000
00000100: 0000 0000 0000 0000 0000 0000 0000 0000
00000110: 0000 0000 0000 0000 0000 0000 0000 0000
00000120: 0000 0000 0000 0000 0000 0000 0000 0000
00000130: 0000 0000 0000 0000 0000 0000 0000 0000
00000140: 0000 0000 0000 0000 0000 0000 0000 0000
00000150: 0000 0000 0000 0000 0000 0000 0000 0000
00000160: 0000 0000 0000 0000 0000 0000 0000 0000
00000170: 0000 0000 0000 0000 0000 0000 0000 0000
00000180: 0000 0000 0000 0000 0000 0000 0000 0000
00000190: 0000 0000 0000 0000 0000 0000 0000 0000
000001a0: 0000 0000 0000 0000 0000 0000 0000 0000
000001b0: 0000 0000 0000 0000 0000 0000 0000 0000
000001c0: 0000 0000 0000 0000 0000 0000 0000 0000
000001d0: 0000 0000 0000 0000 0000 0000 0000 0000
000001e0: 0000 0000 0000 0000 0000 0000 0000 0000
000001f0: 0000 0000 0000 0000 0000 0000 0000 0000
0.0 0.0 0.0 0.0 0.0 0.0 0.0 0.0
0.0 0.0 0.0 0.0 0.0 0.0 0.0 0.0
0.0 0.0 0.0 0.0 0.0 0.0 0.0 0.0
0.0 0.0 0.0 0.0 0.0 0.0 0.0 0.0
0.0 0.0 0.0 0.0 0.0 0.0 0.0 0.0
0.0 0.0 0.0 0.0 0.0 0.0 0.0 0.0
0.0 0.0 0.0 0.0 0.0 0.0 0.0 0.0
0.0 0.0 0.0 0.0 0.0 0.0 0.0 0.0
0.0 0.0 0.0 0.0 0.0 0.0 0.0 0.0
0.0 0.0 0.0 0.0 0.0 0.0 0.0 0.0
0.0 0.0 0.0 0.0 0.0 0.0 0.0 0.0
0.0 0.0 0.0 0.0 0.0 0.0 0.0 0.0
0.0 0.0 0.0 0.0 0.0 0.0 0.0 0.0
0.0 0.0 0.0 0.0 0.0 0.0 0.0 0.0
0.0 0.0 0.0 0.0 0.0 0.0 0.0 0.0
0.0 0.0 0.0 0.0 0.0 0.0 0.0 0.0

network_body._body_endoder.seq_layers.0.weight f4 [128, 124]
00000000: 15f3 33be 9f09 083e f37e 9fbc 1acc ecbd
00000010: 7199 e43d 5bb5 b4bd 578b 0cbb 59cd b33d
00000020: 7cf9 c03d 138e e83c 3bbc bb3d 956b 18bc
00000030: 2767 b3bd a2b1 413e 50e3 07be d262 593d
00000040: d5ac b43d 7aed a13d 3a0f 0abe f7ce 41bd
00000050: 6c55 babc 09ba fb3c 02c8 f8bc b5ee f9bc
00000060: ff67 c8bb 504b 10bd 2807 0a3d 356d 18be
00000070: df6c cf3c aa54 143c 3430 8f3d e693 00bd
00000080: 83d4 8c3c abea 25be d419 c33d 53f2 02be
00000090: 030a b4bb 465b ad3c c91b ec3d 09ad fd3d
000000a0: d1b6 163d 28be 273d 0cd9 16bd b2d9 363d
000000b0: 7b9f 2fbd 0618 183d 573f eebd 03fa ae3d
000000c0: 2f3e 0a3d 4927 a73d bcbd c43d 522f bbbd
000000d0: 855d 613d d6f1 c2bc 678a 6bbd 7478 9f3d
000000e0: 3bf8 c43d 11a6 9f3d 2f8a 72be cd94 123d
000000f0: d6a0 833d e0c1 d5bd e364 073c 4506 c7bd
00000100: 43fe bdbd ab01 183d 3542 ee3c e0f4 76bd
00000110: 2e01 bcbd aa8e c13d 113a 56bc 2514 c73c
00000120: af3e bd3c 8efd e3bd e047 adbd ee00 1f3b
00000130: 7334 5abd dcd2 37bc 8396 f3bd bea4 db3c
00000140: 78be 56be 9947 36bd 86c0 fe3c 8946 dfbc
00000150: 2f51 8cbd 9391 0cbd 0a76 c23c 5807 c7bd
00000160: a84a fd3c 40f5 873d 9441 4bbd dc72 193d
00000170: c9db 62bd a267 0f3d 0b91 09be 8ab3 e83c
00000180: 465d 6fbd 6ab7 e53d 7189 b03d 655f 753d
00000190: 0e42 22be 8815 413b a27a 2e3e 6ecf bfbc
000001a0: 7f54 ebbc b59b abbd 4e37 22be dc3a c33b
000001b0: c047 45be 2bef a2bd ec69 493e 8275 78bc
000001c0: 5db1 cd3c dd27 cd3d 8f01 59bd 20a2 21bd
000001d0: 70cc 083d 7c41 b1bd a675 69be e353 b53d
000001e0: b595 70bd 851a 9ebd 2232 4e3e bda8 80b9
000001f0: a729 bebd 2fc5 533d c2f9 063c 6d17 0c3d
00000200: 71d5 acbc b23f 9fbd a592 15be 4b22 3a3d
00000210: 6b41 0e3d d5f7 0fbe ee16 5c3c 5dc1 05bd
00000220: 4d4d ee3d 468a 23bd a669 debd 9b22 6b3b
00000230: 56c5 1a3d abe7 57bd e97e 353c cc81 ddbd
00000240: a144 293e 1020 7d3d 9e7f cb3b 0929 febd
00000250: 8bc7 20bd be4a c43d 340c 6c3d 7c67 05be
00000260: e89f e03c 9106 c2bd 56a5 17be 25ba ddbd
00000270: 3faa 853e b4c8 c9ba 95ca 313e b8dd 923c
00000280: 74c9 2e3c 21e4 7b3d c0f6 2abd 4e80 843d
00000290: 17cd b4bb 0a4f 6e3d bf6f 3d3e 5df2 f63d
000002a0: b7c0 003e a76d ab3d 3822 bdbc c4ac cdbc
000002b0: 3c78 fe3d 9b7e 0dbe f934 2e3e f482 943d
000002c0: 5ed2 b93d bb67 1cbe 51ea e03d b635 663b
000002d0: f430 5abe 400a 9cbd 3d68 fb3c 4ded 66bd
000002e0: e290 d63d 8d00 193c 5637 f7bd 88e1 233e
000002f0: debb dfbd 79f3 0abd d515 d3bd 7f6d b3bb
00000300: 419f 18bd e195 63bb cd6c 6b3d 6ccf babd
00000310: d50d 30bd 6eab 043d be17 82bd c998 a9bc
00000320: e0c9 303e 8f3c f4bd b3c7 3fbd ec7d 9a3d
00000330: a3bb 2f3e 6d9e a63d 129d 9f3c de1e b63d
00000340: 724e a3bd 06d1 b33d 41e3 133d 3aa7 523d
00000350: c76f bebd b7f8 313d 5fdd ee3d e601 fc3d
00000360: 1505 373d 822c 4abd 0be3 f1bd 1b5b 5fbe
00000370: f3e6 abbd 107c dfbd e00b 933d 1452 a73d
00000380: 1008 c5bd 7faf 6fbd 5279 ef3d bad6 47bd
00000390: 2900 3ebe 86fb fabd 0fba 9c3c 30c6 7b3c
000003a0: 07ce 263e 1db8 86bd 54ad 81bd d7ee 2c3e
000003b0: bd8a 26bc 6439 283e 7dcf 8a3d 053e a1bb
000003c0: f5cc 98bd 560e 273e bd3b cf3d a3e9 993d
000003d0: 30bc bfbd ca11 dc3b ee20 083d c927 f6bb
000003e0: 27a0 5e3c a4ab 01bd 2b13 593e d671 173e
000003f0: ae83 efbd ca08 7a3c b98c a63b 70e6 1f3e
-0.17573197 0.1328492 -0.019469714 -0.11562367 0.11162079 -0.08823653 -0.0021445358 0.08779401
0.09422585 0.028388059 0.091667615 -0.009302993 -0.08759909 0.18915418 -0.13270307 0.053072758
0.088220276 0.07906623 -0.13482371 -0.047316518 -0.02274581 0.030728357 -0.030368809 -0.030509332
-0.006115913 -0.035228074 0.03369823 -0.14885409 0.025320468 0.009053389 0.06991616 -0.031391047
0.017191177 -0.162028 0.09526411 -0.12787752 -0.0054943576 0.021161687 0.11528737 0.123865195
0.03679544 0.04095283 -0.036828086 0.044641204 -0.0428767 0.037132286 -0.11633175 0.0854378
0.03375071 0.0816179 0.096065015 -0.09139885 0.055020828 -0.023796957 -0.057505038 0.077866465
0.09617659 0.077953465 -0.23685525 0.03578644 0.064271614 -0.10437369 0.008263799 -0.09717993
-0.09277012 0.037110966 0.029084304 -0.060292125 -0.091799125 0.09451039 -0.013075368 0.024301598
0.023101179 -0.11132346 -0.08460975 0.0024262029 -0.053272676 -0.011219706 -0.11893942 0.026811954
-0.20971096 -0.044501875 0.031097662 -0.027255313 -0.06851422 -0.034318518 0.023737926 -0.097181976
0.030919388 0.066385746 -0.049623087 0.037463054 -0.055385385 0.03501094 -0.13434236 0.028405923
-0.05843856 0.11216624 0.08619965 0.05990543 -0.1584551 0.0029462297 0.17038968 -0.02341434
-0.028726814 -0.08379308 -0.1584141 0.0059579443 -0.19265652 -0.07955774 0.19669312 -0.015164735
0.025108987 0.10017369 -0.052980002 -0.039461255 0.03339809 -0.08655068 -0.22798786 0.08853891
-0.05873652 -0.07719902 0.20136312 -0.00024539782 -0.09285288 0.05170172 0.008238258 0.034202028
-0.02109787 -0.07775821 -0.14606722 0.04544286 0.034730356 -0.14059384 0.013433201 -0.03265511
0.11635838 -0.03992679 -0.108599946 0.003587878 0.03778585 -0.05271117 0.011077621 -0.108157724
0.16530086 0.061798155 0.0062102815 -0.124101706 -0.0392528 0.095845684 0.057628825 -0.13027757
0.02742 -0.09473909 -0.14809164 -0.1082652 0.2610645 -0.0015394897 0.17362435 0.01792799
0.010668147 0.061496858 -0.041739225 0.06469785 -0.0055176127 0.058180846 0.18499659 0.12057946
0.12573515 0.08370524 -0.023087606 -0.025106795 0.12425277 -0.13817827 0.17012395 0.0725154
0.090733275 -0.15273945 0.10982192 0.003512723 -0.21307737 -0.076191425 0.030689353 -0.05637865
0.10476853 0.00933851 -0.12071101 0.16004002 -0.10924505 -0.0339236 -0.103068985 -0.0054756994
-0.03726125 -0.0034726786 0.057476807 -0.09121594 -0.04298194 0.03239005 -0.06352185 -0.020702736
0.17264509 -0.11925613 -0.046821307 0.07543549 0.17161421 0.08135686 0.019484077 0.08892606
-0.07973947 0.087801024 0.036105398 0.05142901 -0.092986636 0.043450084 0.11663317 0.123050496
0.04468258 -0.049358852 -0.11810883 -0.21812098 -0.083936594 -0.10912335 0.07179999 0.08169952
-0.096206784 -0.058516975 0.11693062 -0.048788764 -0.18554749 -0.122550055 0.019131688 0.015367076
0.1628953 -0.065780856 -0.06331888 0.16887985 -0.010164914 0.16428143 0.067778565 -0.0049207234
-0.074609675 0.16314062 0.10118816 0.07515266 -0.09362066 0.006715988 0.03323453 -0.007512067
0.013587988 -0.03165783 0.21198718 0.14789519 -0.11695038 0.015260885 0.0050826934 0.15615249

network_body._body_endoder.seq_layers.2.bias f4 [128]
00000000: 0000 0000 0000 0000 0000 0000 0000 0000
00000010: 0000 0000 0000 0000 0000 0000 0000 0000
00000020: 0000 0000 0000 0000 0000 0000 0000 0000
00000030: 0000 0000 0000 0000 0000 0000 0000 0000
00000040: 0000 0000 0000 0000 0000 0000 0000 0000
00000050: 0000 0000 0000 0000 0000 0000 0000 0000
00000060: 0000 0000 0000 0000 0000 0000 0000 0000
00000070: 0000 0000 0000 0000 0000 0000 0000 0000
00000080: 0000 0000 0000 0000 0000 0000 0000 0000
00000090: 0000 0000 0000 0000 0000 0000 0000 0000
000000a0: 0000 0000 0000 0000 0000 0000 0000 0000
000000b0: 0000 0000 0000 0000 0000 0000 0000 0000
000000c0: 0000 0000 0000 0000 0000 0000 0000 0000
000000d0: 0000 0000 0000 0000 0000 0000 0000 0000
000000e0: 0000 0000 0000 0000 0000 0000 0000 0000
000000f0: 0000 0000 0000 0000 0000 0000 0000 0000
00000100: 0000 0000 0000 0000 0000 0000 0000 0000
00000110: 0000 0000 0000 0000 0000 0000 0000 0000
00000120: 0000 0000 0000 0000 0000 0000 0000 0000
00000130: 0000 0000 0000 0000 0000 0000 0000 0000
00000140: 0000 0000 0000 0000 0000 0000 0000 0000
00000150: 0000 0000 0000 0000 0000 0000 0000 0000
00000160: 0000 0000 0000 0000 0000 0000 0000 0000
00000170: 0000 0000 0000 0000 0000 0000 0000 0000
00000180: 0000 0000 0000 0000 0000 0000 0000 0000
00000190: 0000 0000 0000 0000 0000 0000 0000 0000
000001a0: 0000 0000 0000 0000 0000 0000 0000 0000
000001b0: 0000 0000 0000 0000 0000 0000 0000 0000
000001c0: 0000 0000 0000 0000 0000 0000 0000 0000
000001d0: 0000 0000 0000 0000 0000 0000 0000 0000
000001e0: 0000 0000 0000 0000 0000 0000 0000 0000
000001f0: 0000 0000 0000 0000 0000 0000 0000 0000
0.0 0.0 0.0 0.0 0.0 0.0 0.0 0.0
0.0 0.0 0.0 0.0 0.0 0.0 0.0 0.0
0.0 0.0 0.0 0.0 0.0 0.0 0.0 0.0
0.0 0.0 0.0 0.0 0.0 0.0 0.0 0.0
0.0 0.0 0.0 0.0 0.0 0.0 0.0 0.0
0.0 0.0 0.0 0.0 0.0 0.0 0.0 0.0
0.0 0.0 0.0 0.0 0.0 0.0 0.0 0.0
0.0 0.0 0.0 0.0 0.0 0.0 0.0 0.0
0.0 0.0 0.0 0.0 0.0 0.0 0.0 0.0
0.0 0.0 0.0 0.0 0.0 0.0 0.0 0.0
0.0 0.0 0.0 0.0 0.0 0.0 0.0 0.0
0.0 0.0 0.0 0.0 0.0 0.0 0.0 0.0
0.0 0.0 0.0 0.0 0.0 0.0 0.0 0.0
0.0 0.0 0.0 0.0 0.0 0.0 0.0 0.0
0.0 0.0 0.0 0.0 0.0 0.0 0.0 0.0
0.0 0.0 0.0 0.0 0.0 0.0 0.0 0.0

network_body._body_endoder.seq_layers.2.weight f4 [128, 128]
00000000: 947a aa3d 8d46 5b3d 0da7 993d e4e4 483e
00000010: 6c05 14be ae1f 0a3d 4426 da3c 32bc e5bd
00000020: 521b be3d 8260 8d3c e587 15bd 6ab7 89bd
00000030: 4e5c bb3c 958a 13be 9590 91be a1ea 59bc
00000040: 0b1b 2b3d 25a3 ad38 c53c 063d 71b3 e1bd
00000050: 53e8 e5bc fc65 01bd 1582 a93d ad52 0e3d
00000060: 7798 4b3a 6f9e 793c 43e1 2bbd 8e74 71bd
00000070: 14b2 6cbe 2a88 77bd 31eb 3bbd 16ec f73d
00000080: 9db6 d3bc 83e7 82bd ca40 0cbd be09 34bd
00000090: 30a0 b5bd c44c 15bd 6bc8 aebd 74df c3bd
000000a0: 05c5 883d 1a54 093d b731 c239 24f9 173d
000000b0: 8548 443d 92b1 6dbd adc3 923d 3cf6 093e
000000c0: aa52 413d 169b c6bd ebfb 743d 2100 603d
000000d0: 2cb2 79bc da0c f9bd 923a 6d3d cb29 8bbd
000000e0: 73db 803c ec8c 563d 5817 43be 3554 263e
000000f0: 1876 ba3d 7a17 9b3d 9482 12be 4bd8 9b3d
00000100: 5e3c 443d a209 84bd 65e3 013e 4fdb 17bc
00000110: c820 273d 3343 7abd 0825 4dbb db3f 9f3d
00000120: 5680 063e c5af 033d 02d1 073d 5323 583d
00000130: 7009 12be fb42 233e bcb3 a0bd b239 e2bd
00000140: cb12 a83d ae01 53bd db63 72bd 4b2a 393d
00000150: 1e71 c63b ea09 00bc 32d5 673c bcd5 dabd
00000160: 72f0 403d cd54 543e 2ce6 853d 2257 ee3c
00000170: a9f6 e0bb a140 5f3d 2ab0 f33d f579 9b3d
00000180: 8133 87bc 6979 5bbd 9ebb 3cbd cfa4 57ba
00000190: 7105 e13b b09a 253d 4e50 413d 7161 86bb
000001a0: 4520 fe3d c0c5 9ebd 777d a43d 323b 47be
000001b0: 9bf2 d2bd 068a da3d 305a ad3d c610 14be
000001c0: 5922 11be e119 c4bd 2dba 11be 5df4 123e
000001d0: a29c 01be accd 083e 5f67 c13d 46fc 6bbd
000001e0: 0180 fd3c 97d3 2bbe cca0 093e 272d 9b3c
000001f0: 5f97 a03c 506e a6bd 5d7e dfbc 6013 13bd
00000200: c123 e13c 6869 9d3d fa80 aa3d c90a b93d
00000210: c821 fc3d 63aa 623e d3a6 6bbd ac6a 8cbc
00000220: d926 713b cdcb a23c 9ecd 04be 507e 083e
00000230: af9f f2bb 5f6d e43d a520 863c d4ea 27bd
00000240: 816e 013d 28fd c13d 4a30 053c bd20 b83c
00000250: 38ce c43c 490f b83d 5678 f339 a06e ba3d
00000260: c02a 89bd 8ca1 663d d8cc a0bd 57c4 3c3d
00000270: a927 bebc d932 08bc 2e40 02bd 5e43 c63d
00000280: 28f5 ceba 87a0 a53d 37ec 0c3d 50fc 1bbe
00000290: b73c 493d c8b8 5e3d abc6 493c e162 f13d
000002a0: feaf 5b3d 746e 813c df8f 40be b6c2 a2bd
000002b0: 858f 093e dac4 df3d de71 ac3d 4d0a 8cbc
000002c0: 1a5c 383d a8e7 033e 70ec e13d 67ff 58bd
000002d0: 031f 17bd 7830 06be 6150 743c f270 d5bb
000002e0: bd99 b4bd a095 2dbe c723 ed3d 20c7 473d
000002f0: 846c 8a3b aad9 4fbc 1ccf 7ebd ed9e 263c
00000300: 1d68 febd 74e8 843d af14 f63d b8dc afbd
00000310: fb7f 603d 4d83 88bc e677 a7bd 1ddb d8bc
00000320: 251f 573d b4a7 a0bd d231 1b3d 5d5b 683e
00000330: bf30 95bd bf6f e2bc 41d0 a03d 63c6 943d
00000340: 5a7d e7bd 8378 d13d 9bc7 813d 394e c1bd
00000350: c543 7b3e c724 893d 2de6 9fbc 6b15 5d3d
00000360: f272 50bd c32c 14bd f760 203d 3114 99b9
00000370: d642 de3d e7d2 b83d 12ba 9a3d 83f7 783d
00000380: 59c3 df3d b972 debd 1659 05bc c17a a1bc
00000390: 35ed f2bd e481 563d bb51 23be f69a a73d
000003a0: ec44 f53c 8f45 7f3d da5b cf3c a960 c53d
000003b0: 6e78 07bd cbef bc3d 70dc 43be 0ee9 1bbe
000003c0: f332 993d 30aa f33d 1ace 05bc 9864 86bd
000003d0: 4f43 09bd 0fa3 c43d b136 06be 342e 823c
000003e0: 4664 853c e8f5 f53d 6569 2c3c cf86 4a3d
000003f0: f5d3 e73d 45d4 ccbd 5d8e d33d e530 dabc
0.08324161 0.05353408 0.075025655 0.19618565 -0.14455193 0.03372162 0.026629575 -0.11217536
0.09282555 0.017257933 -0.036506552 -0.067244366 0.022871163 -0.14408334 -0.2843062 -0.013300569
0.041773837 8.279671e-05 0.032772798 -0.11020554 -0.028064882 -0.0315914 0.08276764 0.034746815
0.00077665545 0.015235527 -0.041962873 -0.058949046 -0.23114806 -0.06043259 -0.045878593 0.12105577
-0.025843913 -0.063918136 -0.034241475 -0.043954603 -0.08868444 -0.036450163 -0.085343204 -0.09564105
0.066782035 0.03352747 0.00037039604 0.037102833 0.047920723 -0.058030672 0.071662284 0.13472837
0.047197975 -0.09697549 0.05981056 0.054687623 -0.015240233 -0.12160654 0.057917185 -0.06795081
0.015729642 0.052380487 -0.19051874 0.1624306 0.09104556 0.07572837 -0.14307624 0.07609614
0.047909133 -0.0644715 0.126844 -0.009268596 0.040802747 -0.061099242 -0.003130259 0.07775851
0.13134894 0.03215005 0.03315831 0.052768063 -0.14261413 0.1594352 -0.078467816 -0.11046161
0.082067095 -0.051515274 -0.05917726 0.04520635 0.006055965 -0.007814864 0.014149951 -0.10685298
0.047104307 0.20735474 0.065380424 0.029094283 -0.0068653417 0.054504994 0.11898835 0.07591621
-0.016504051 -0.053582583 -0.046077363 -0.00082261575 0.0068671037 0.040430725 0.047195725 -0.0041009714
0.12408499 -0.077525616 0.08031743 -0.19456175 -0.103001796 0.10670857 0.084644675 -0.14459524
-0.14173259 -0.095752485 -0.14231177 0.1435103 -0.12657407 0.13359708 0.094435446 -0.057613634
0.030944826 -0.16779934 0.13440245 0.018942429 0.01960343 -0.08126509 -0.027281934 -0.03590715
0.02748287 0.0768612 0.083253816 0.0903526 0.12311131 0.2213531 -0.057532143 -0.017140709
0.0036796837 0.01987257 -0.12969062 0.13329434 -0.0074042897 0.111536734 0.016372988 -0.040995434
0.031599525 0.09472114 0.008129189 0.022476548 0.024024114 0.089872904 0.0004643823 0.09103131
-0.06697607 0.056306407 -0.07851571 0.04608568 -0.02321227 -0.008312904 -0.031799488 0.09680818
-0.0015789615 0.08087259 0.03440496 -0.15232968 0.049130168 0.05437544 0.012315433 0.11786438
0.053634636 0.015799738 -0.18804882 -0.079472944 0.13433655 0.10926218 0.08420156 -0.017094756
0.04500971 0.12881339 0.11031425 -0.052977946 -0.03689481 -0.13104427 0.014911742 -0.0065137083
-0.08818386 -0.16951609 0.115790896 0.048773885 0.004224362 -0.0126861725 -0.062209234 0.010169727
-0.12422202 0.064896494 0.12015664 -0.08587021 0.05480955 -0.016664172 -0.08177166 -0.026471669
0.052519936 -0.07844487 0.03788931 0.22691102 -0.07284688 -0.027641175 0.07852221 0.07264402
-0.11303206 0.10228064 0.063369 -0.09438748 0.24537571 0.06696468 -0.019518936 0.053975504
-0.05089087 -0.0361755 0.039154973 -0.00029197478 0.10852592 0.090246014 0.07555021 0.06078292
0.109259315 -0.10861725 -0.0081389155 -0.019711854 -0.1186165 0.052369967 -0.15949146 0.08183853
0.029940091 0.062322196 0.025312353 0.09637577 -0.033073835 0.092254244 -0.19127059 -0.15225622
0.07480421 0.11897695 -0.008166814 -0.065621555 -0.033511456 0.096014135 -0.131068 0.015891172
0.016283166 0.120097935 0.010523175 0.04944497 0.113197245 -0.10001425 0.10329888 -0.026634643
