results/ppo/MoveToGoal/MoveToGoal-3982.onnx (onnx, 133166 bytes, 9 tensors)

action_model._discrete_distribution.branches.0.bias f4 [4]
0	0x00000000	0.0
1	0x00000000	0.0
2	0x00000000	0.0
3	0x00000000	0.0

action_model._discrete_distribution.branches.0.weight f4 [4, 128]
0	0xbb5bec6b	-0.0033557664
1	0x3994c2fb	0.00028374032
2	0x3bc8bb73	0.0061258613
3	0x3a2e942e	0.0006659654
4	0x3c4a2eb2	0.012340235
5	0x3c33a65b	0.010964955
6	0xbb874457	-0.00412802
7	0xbb77563a	-0.0037740604
8	0xba9d7f7b	-0.0012016142
9	0xbbd88c6a	-0.0066085355
10	0xbbb74dfb	-0.005594013
11	0xbc43e8e2	-0.011957379
12	0xbcc27866	-0.023739051
13	0x3c01358b	0.007886301
14	0x3c38a709	0.011270293
15	0xbb4b5c6b	-0.0031030427
16	0x3c3af468	0.01141081
17	0xbbb71950	-0.0055877343
18	0xb9a12305	-0.00030734405
19	0x3c522c4a	0.012827942
20	0xbc1575a7	-0.009122289
21	0x3c99e13b	0.018784156
22	0xbadb8160	-0.0016746931
23	0xbc5f6488	-0.013634808
24	0xbbc8a5cc	-0.00612328
25	0xbb738aa0	-0.0037161484
26	0xbac90ba7	-0.0015338556
27	0xbc020875	-0.007936587
28	0xbc36a0a1	-0.011146695
29	0x3baa2315	0.0051921704
30	0xbb90c7e8	-0.004418362
31	0xbb93650c	-0.0044981297
32	0xbab4f527	-0.0013805971
33	0x3bf5d88b	0.0075026206
34	0xbc709ce2	-0.014685841
35	0xbc18397f	-0.009291052
36	0x3b541bf8	0.0032365303
37	0x3b0bd327	0.0021335573
38	0xbc3ef2b4	-0.011654545
39	0x3c117504	0.008877996
40	0xbc9ab4d3	-0.018885052
41	0x3c682b9a	0.014170552
42	0x3cebe6e2	0.028796617
43	0xbba7239f	-0.005100682
44	0x3bcbb173	0.006216222
45	0xbc073e87	-0.008254654
46	0xbb21c09c	-0.0024681455
47	0xbbe5e0e3	-0.007015334
48	0x3c494b3b	0.012286003
49	0xbad3e2b8	-0.001616559
50	0xbc024ba9	-0.007952609
51	0x3b8fb90b	0.0043860725
52	0x3c353307	0.011059529
53	0xb782dc29	-1.5599728e-05
54	0xb8a59b30	-7.896719e-05
55	0x3b26d546	0.002545671
56	0x3be27d90	0.006911941
57	0xbc0d7de6	-0.008635974
58	0xbbd9c412	-0.006645688
59	0xbcb65c6b	-0.022260865
60	0xb92e64f3	-0.0001663154
61	0xb78c2339	-1.6705702e-05
62	0x3ac22fb8	0.0014815247
63	0x3c81cdfe	0.015845295
64	0x3b52ca5b	0.003216407
65	0xbbe0b41a	-0.0068574073
66	0xbc4bd824	-0.012441669
67	0x3ba70047	0.0050964686
68	0xbb15e081	-0.002286941
69	0x3ba95059	0.005167049
70	0xbb49d658	-0.0030797925
71	0xbb1b110e	-0.0023661288
72	0x3c37db59	0.01122173
73	0xb990cfd7	-0.00027620673
74	0xbae028ca	-0.0017102
75	0x3ab3005b	0.0013656722
76	0x3b93dd12	0.0045124376
77	0x3cab857b	0.020937672
78	0xbbd73510	-0.006567605
79	0xbbacaee0	-0.00526987
80	0x3a95649b	0.0011397781
81	0x396ca433	0.00022567883
82	0xbb8f80ef	-0.0043793838
83	0x3bc46de2	0.0059945444
84	0x3bb9d17a	0.0056707235
85	0x3bbb7651	0.0057208915
86	0x3b9e23d6	0.0048260493
87	0x3c0992c5	0.008396809
88	0xbb37e45b	-0.0028059694
89	0x3b2b16f4	0.002610621
90	0xba8ca79d	-0.0010731105
91	0x3bd15da8	0.0063893385
92	0x3c631c75	0.013861765
93	0xb9789be3	-0.00023709195
94	0x3bd17825	0.006392496
95	0x3bf3a0c0	0.0074349344
96	0x3be820df	0.0070839967
97	0x3c84e0bf	0.016220449
98	0x3bbc9eab	0.0057562194
99	0xba9f0fb4	-0.0012135417
100	0xbc051547	-0.008122749
101	0x3bbd6c6b	0.0057807467
102	0x3c28955f	0.010289519
103	0xbb973ac3	-0.0046151592
104	0x39fff4fb	0.00048819915
105	0x3c5a6033	0.0133286
106	0x3a489719	0.000765191
107	0xbb35f73f	-0.0027765778
108	0x3bb6bddd	0.0055768327
109	0xbba9aea5	-0.00517829
110	0x3aebb13d	0.0017981898
111	0xbc11e17b	-0.008903856
112	0xbb83cc66	-0.004022169
113	0xbc3ba58f	-0.011453046
114	0xbb637fb2	-0.0034713564
115	0x3b92f1c7	0.0044843885
116	0xbc2424ff	-0.010018586
117	0x3a679673	0.00088343694
118	0x3cb18542	0.021669988
119	0xbc0ac7c8	-0.008470483
120	0xba82e92f	-0.0009987707
121	0xbc265b38	-0.010153584
122	0xbc77951b	-0.015111233
123	0xba4c8937	-0.0007802429
124	0x3b1a537e	0.00235483
125	0x3c90f173	0.017693257
126	0x3a7a4017	0.00095462933
127	0x3ad54ef2	0.0016274138
128	0x393910e6	0.0001764927
129	0xbc3173b2	-0.010830807
130	0xbafbaada	-0.0019200698
131	0x3bcdf868	0.006285716
132	0x392116a0	0.00015362585
133	0x3c1a9314	0.00943448
134	0xbaf2a4ba	-0.0018512227
135	0x3c59bfb8	0.013290338
136	0x3c1e1b09	0.00965
137	0x3c0f9e9b	0.008765842
138	0x3b0ccd6a	0.002148474
139	0xbc03f8fd	-0.008054969
140	0x3b7cdddf	0.0038584394
141	0xba234c4b	-0.0006229325
142	0x3b8da704	0.0043228883
143	0xbb311bcf	-0.0027024632
144	0xbc049918	-0.008093141
145	0xbb62af50	-0.0034589358
146	0x3cb3336f	0.021875111
147	0x3a916a03	0.0011094216
148	0xbbce1f02	-0.0062903175
149	0xbb066793	-0.0020508512
150	0xbc40b04f	-0.011760785
151	0xbb2c8d50	-0.0026329346
152	0x3c06bfa7	0.008224404
153	0x3af051d2	0.0018334931
154	0xbc00a4cf	-0.007851793
155	0x3bab2bdd	0.005223735
156	0xbb9774e0	-0.004622087
157	0x398f1977	0.00027294058
158	0xbba24f4f	-0.004953302
159	0x3c890e4e	0.016730454
160	0x3c125fc2	0.008933963
161	0x3c514025	0.012771641
162	0x39a5c89c	0.00031620718
163	0xbc325c17	-0.010886214
164	0xbaf0afc7	-0.0018362933
165	0xbbaf6baa	-0.0053534107
166	0x3bb46397	0.005505036
167	0x3c52ce93	0.012866634
168	0xbb79335d	-0.0038025
169	0x3bb87e00	0.0056302547
170	0x3bc60e19	0.006044161
171	0xbc260cd1	-0.010134892
172	0x3c59744b	0.013272355
173	0xb790b0f3	-1.7248536e-05
174	0xbc95c603	-0.018282896
175	0xbb697f32	-0.0035628793
176	0x3b8fab5b	0.004384441
177	0xbb278eb9	-0.0025567247
178	0xbb575d35	-0.0032861952
179	0xbc1efe0f	-0.009704127
180	0x3c5218c0	0.012823284
181	0xbc8841aa	-0.016632874
182	0xb9451d0b	-0.00018798203
183	0x3b43109d	0.002976454
184	0x3c4339a0	0.011915594
185	0xbbaf4ee6	-0.0053499816
186	0x3c8d89a7	0.017277552
187	0x3a63b743	0.0008686671
188	0x3aa52e0d	0.0012602225
189	0x3c9f0c23	0.019414967
190	0xbc389190	-0.011265174
191	0x3abb08d7	0.0014269602
192	0x3a93f465	0.0011288045
193	0x3c660777	0.014039866
194	0xbbcfc3a2	-0.00634046
195	0x3c16b2f3	0.009197938
196	0x3b1d6f52	0.002402265
197	0x3bd6ba80	0.0065529943
198	0xbbdd1188	-0.0067464747
199	0x3bf68f65	0.007524418
200	0xba564afb	-0.0008174625
201	0x3b9b55ef	0.0047404687
202	0x3c9dacef	0.0192475
203	0x3c185c99	0.009299421
204	0x3bf1a8bf	0.0073748524
205	0xbc18656a	-0.009301523
206	0xbb3db5d3	-0.0028947487
207	0xbbccc6be	-0.006249278
208	0x3c29aab0	0.0103556365
209	0xbc4de6b3	-0.01256721
210	0x3c2c691f	0.01052311
211	0x3c2e9257	0.010655007
212	0xb8c3f108	-9.34322e-05
213	0x3b2826db	0.0025657925
214	0x3afb0e15	0.0019153977
215	0xbaa90d96	-0.0012897726
216	0xbbd7958d	-0.006579107
217	0x3b82c8b7	0.003991212
218	0xbb9b1cb7	-0.0047336477
219	0x3bc745af	0.006081305
220	0x3bd45ac3	0.006480546
221	0x3c241402	0.010014536
222	0x3c474057	0.012161336
223	0x3a698525	0.0008908085
224	0xbaa0153b	-0.0012213358
225	0x3ba9e287	0.005184475
226	0x3be36a87	0.0069401893
227	0x3b0312af	0.002000015
228	0x39824132	0.00024844107
229	0xbc34cbff	-0.011034965
230	0xbb7e3232	-0.0038787243
231	0x3bcf31ba	0.0063230665
232	0xbb865f81	-0.0041007404
233	0xbaeba0d0	-0.0017977003
234	0x3c17e184	0.009270076
235	0xbc63650b	-0.013879071
236	0xbc208c3b	-0.009799059
237	0xbb9acc2f	-0.0047240476
238	0xbaeaa9bb	-0.0017903367
239	0xbbbe8559	-0.005814236
240	0x3b997de3	0.0046841963
241	0xbab6f6f9	-0.0013959102
242	0xb92d9fa7	-0.00016558041
243	0xbc92a74d	-0.01790204
244	0x3c81b053	0.015831148
245	0xbbbc9c67	-0.0057559493
246	0x39c6c055	0.00037908801
247	0xba831387	-0.0010000326
248	0xbc68ec8f	-0.014216556
249	0x3b8c5b0e	0.0042833155
250	0xbbfb0a85	-0.007661166
251	0xbb8977e8	-0.004195202
252	0x3b7d3cda	0.0038641007
253	0x3be38688	0.0069435276
254	0xbc00178c	-0.007818114
255	0x3bb0cdc8	0.005395625

action_model._discrete_distribution.branches.1.bias f4 [2]
0	0x00000000	0.0
1	0x00000000	0.0

action_model._discrete_distribution.branches.1.weight f4 [2, 128]
0	0x3b0ae0e7	0.002119118
1	0xbbd5d3b3	-0.0065254807
2	0xbc07b841	-0.008283676
3	0xbb6b97b8	-0.0035948586
4	0xbc596897	-0.013269565
5	0xbc054067	-0.0081330305
6	0x3b98ac9b	0.004659248
7	0x3c97ec97	0.018545432
8	0x3ca48923	0.020084923
9	0xbbf80cb5	-0.007569874
10	0xbb149cae	-0.0022676396
11	0x3bb0c740	0.005394846
12	0xbb22ff20	-0.0024871305
13	0xbc9582a9	-0.01825078
14	0x38a10454	7.6778844e-05
15	0xbc147008	-0.009059913
16	0xbbdb2697	-0.00668795
17	0x3c41590b	0.011801015
18	0xbbff2ad8	-0.00778709
19	0x3bcf2b2f	0.0063222866
20	0x3aeb1d40	0.0017937794
21	0xbc2f3837	-0.010694555
22	0x3bbad88b	0.0057020835
23	0xbbad30fb	-0.00528538
24	0xbc0d4378	-0.008622043
25	0xbabcf19b	-0.0014415266
26	0xba4fa300	-0.0007920712
27	0xbb931b39	-0.004489329
28	0x3c95ee94	0.01830224
29	0x3a7938dd	0.00095070695
30	0xbb94472f	-0.0045250873
31	0xbc2bc9cb	-0.010485123
32	0x3ca27623	0.019831723
33	0x3bde8ce0	0.006791696
34	0x3c1a33c5	0.009411757
35	0x3a92939f	0.001118291
36	0x3b8c21f5	0.004276509
37	0x3c26e6db	0.010186876
38	0x3bc10a44	0.0058911163
39	0xbc083abd	-0.008314786
40	0xbca1c863	-0.019748872
41	0xba8d9297	-0.0010801133
42	0x3c14c2bb	0.0090796305
43	0x3c521128	0.012821473
44	0x3bf3640f	0.0074276994
45	0x3c037f88	0.008026011
46	0xbc208425	-0.009797131
47	0x3cae388e	0.021267202
48	0xbbabc6bb	-0.0052421964
49	0x3bd2823f	0.006424218
50	0x3bec434d	0.0072101713
51	0xbba92586	-0.005161944
52	0x3bd73fcf	0.006568886
53	0x3b8315ef	0.0040004174
54	0x39a3113e	0.0003110263
55	0xbc313c74	-0.010817636
56	0x3c338277	0.010956398
57	0x3ad38c3a	0.0016139813
58	0x3babb93d	0.005240588
59	0x3c07170e	0.008245243
60	0x38878f14	6.463952e-05
61	0xbcd2099d	-0.02563935
62	0xbc1e0e13	-0.00964691
63	0x3b3a7a17	0.002845412
64	0xba3e3b6e	-0.00072567805
65	0x3c0eaade	0.00870773
66	0xbbf4d0b5	-0.007471169
67	0xbbfc3f92	-0.007698008
68	0xbb75104a	-0.0037393742
69	0xbb502cba	-0.003176494
70	0xbc0b377b	-0.008497114
71	0xb9e8d59f	-0.00044409648
72	0xbc30294b	-0.0107520325
73	0x3898e448	7.2904455e-05
74	0x3b46d171	0.003033724
75	0xbbdeb14b	-0.0067960373
76	0x39aa37aa	0.000324664
77	0xbc0dde0e	-0.008658899
78	0xbc171c93	-0.009223121
79	0x3bc0006f	0.0058594267
80	0xba5c3638	-0.0008400413
81	0x3b3c38af	0.002872031
82	0x3a936f83	0.0011248443
83	0xbc0910c1	-0.008365811
84	0xbc3378a3	-0.010954055
85	0xbbb4331c	-0.005499257
86	0xbc0ce7c7	-0.008600182
87	0xbc26eb23	-0.010187897
88	0xbc72bf7d	-0.014816162
89	0xba267e2b	-0.0006351198
90	0xbb7b7f2d	-0.0038375363
91	0x3ba21607	0.0049464735
92	0xbbb0e971	-0.005398922
93	0x3c82dfbd	0.015975827
94	0x3c5acd20	0.01335457
95	0xbbd765b7	-0.0065734047
96	0x3750d9f7	1.2448515e-05
97	0xbbad10fc	-0.0052815657
98	0xbc2336d7	-0.009961805
99	0xbccfb5ab	-0.02535518
100	0x3b427b27	0.0029675455
101	0x3ab52879	0.0013821266
102	0x3a994b36	0.0011695388
103	0xbb3a54f1	-0.0028431977
104	0xbb8cffd3	-0.0043029576
105	0x3c8cbf5c	0.017181091
106	0x3a1b2d9a	0.0005919576
107	0xba860171	-0.0010223818
108	0x3be9e525	0.007137912
109	0xbbfb4265	-0.007667827
110	0xb9c22c8d	-0.00037035756
111	0x3b1343cf	0.0022470837
112	0x3c6af180	0.014339805
113	0xbba994e7	-0.0051752212
114	0xbc2e38fa	-0.010633701
115	0x3b07ebaf	0.0020739844
116	0x3b460587	0.0030215697
117	0xbb545162	-0.003239714
118	0xbbcc4b44	-0.0062345583
119	0x3c0a2690	0.008432046
120	0x3b90764b	0.004408633
121	0x3c283da3	0.010268602
122	0x3c47f7aa	0.012205044
123	0x3b46a012	0.0030307812
124	0x3bcf4f23	0.0063265725
125	0xbc48bec2	-0.012252511
126	0x3c8f9a3a	0.017529596
127	0xbb4459d4	-0.0029960768
128	0xbc7ac2b8	-0.015305214
129	0xbbdf23a8	-0.0068096705
130	0x3c174555	0.009232839
131	0xbb6b45d7	-0.0035899782
132	0xbbe71a35	-0.0070526847
133	0xbbf8b6e0	-0.00759016
134	0x3a05aec8	0.0005099592
135	0xbbbf1df7	-0.0058324295
136	0x3b9af22a	0.0047285752
137	0xbc08b2eb	-0.008343439
138	0x3c14097c	0.009035464
139	0xbbed05b3	-0.0072333454
140	0x3bf53408	0.0074830092
141	0x3c22ae70	0.009929284
142	0xbc3adbff	-0.01140499
143	0xbbc1c153	-0.0059129386
144	0x3a746965	0.00093235663
145	0x3c7f035a	0.015564764
146	0x3c1ddfab	0.009635846
147	0xbc48c822	-0.012254747
148	0x3be0bd0d	0.006858474
149	0x3bec416b	0.007209947
150	0x3bfde8ba	0.0077486904
151	0xbbdbe413	-0.006710538
152	0x3b8d4a53	0.0043118387
153	0x3c5ba9c0	0.013407171
154	0x3c531977	0.012884489
155	0xbc21fb66	-0.009886598
156	0x3b93daa6	0.004512149
157	0x3aa8625c	0.0012846696
158	0x3c23d02e	0.009998364
159	0x3b9e4064	0.0048294533
160	0x3be195bd	0.0068843053
161	0xbc474617	-0.012162707
162	0xbcfb149a	-0.030649472
163	0x3c092de7	0.00837276
164	0x3c0e2d73	0.008677828
165	0xbbb517bd	-0.0055265115
166	0xbb7c5237	-0.0038501152
167	0x3c4d0a52	0.012514668
168	0xbbeeea35	-0.0072911032
169	0xbbaf893f	-0.005356937
170	0x3bd5c6bb	0.0065239347
171	0x3a179b2b	0.00057833147
172	0x3c475941	0.012167276
173	0x3cb78827	0.02240379
174	0x3c21b9d3	0.009870964
175	0xbb8a10ab	-0.0042134128
176	0xbbb0ef0b	-0.00539959
177	0xba99fe1f	-0.0011748708
178	0x3adf58bd	0.0017039996
179	0xbb880d34	-0.0041519646
180	0xbc8d7ff0	-0.01727292
181	0xb9d0b963	-0.00039810975
182	0xbbba2f83	-0.0056819334
183	0x3a00c232	0.000491175
184	0xbb42a2ac	-0.002969901
185	0x3c4d1de8	0.012519337
186	0xbc329ac7	-0.01090116
187	0xbb1e7a92	-0.0024181944
188	0xbc549535	-0.012975027
189	0x3b1ed36f	0.002423491
190	0xbc4a6999	-0.012354278
191	0x3c2259de	0.009909121
192	0x3c745acd	0.014914227
193	0x3a79faf0	0.0009535989
194	0xbc0dd97f	-0.008657812
195	0x3b7f5437	0.0038960108
196	0x3be2f4e7	0.0069261673
197	0xbc11ca0c	-0.008898269
198	0x3c05f031	0.008174942
199	0xbb0ee709	-0.0021805188
200	0x3a9c75ff	0.0011937021
201	0x3b4efa7d	0.0031582408
202	0xbbac1a4b	-0.005252158
203	0x39a14da8	0.0003076617
204	0x3c8aac82	0.016927961
205	0xbbf07315	-0.0073379376
206	0xbbe8df30	-0.007106684
207	0x3c342565	0.010995244
208	0x3c12606a	0.00893412
209	0x3b058602	0.0020374064
210	0x3b7899ff	0.0037933586
211	0xbbbe3491	-0.0058046062
212	0x3ac60004	0.0015106206
213	0xbc2cd7fd	-0.0105495425
214	0x3c07e632	0.008294629
215	0xbc83d993	-0.016094958
216	0xbaaff89e	-0.0013425534
217	0x3bae77c4	0.005324336
218	0xbc5ef822	-0.013608964
219	0xbb8bb5c3	-0.004263611
220	0x3c11321f	0.008862047
221	0xba2e0b8e	-0.0006639295
222	0x3b9dd4df	0.004816636
223	0xbc6c630a	-0.01442791
224	0xbc266fac	-0.010158461
225	0x3b98b36c	0.0046600606
226	0xba59a94a	-0.0008303119
227	0x3a601135	0.0008547486
228	0x3be362bf	0.0069392617
229	0x3b3151ca	0.0027056807
230	0xb9727d37	-0.00023125565
231	0xbc0a5d2b	-0.008445065
232	0xbc357c57	-0.011077008
233	0xba11c9b3	-0.00055613666
234	0xbc39bccf	-0.011336519
235	0x3bb0731f	0.0053848173
236	0x3b282895	0.0025658954
237	0x3c29ef58	0.010372005
238	0x3be252a0	0.0069068223
239	0x3bbfe418	0.0058560483
240	0xbb54d17f	-0.0032473502
241	0xba248c8a	-0.00062770455
242	0x3abcf4f2	0.0014416261
243	0x3bbf981a	0.0058469893
244	0xbc8979ec	-0.01678177
245	0x3c29c0b5	0.010360886
246	0x3b335600	0.0027364492
247	0x3afdcf10	0.0019364078
248	0x3b9b7925	0.004744666
249	0xbb9e92fd	-0.0048392997
250	0xbb188efa	-0.002327858
251	0xba6d54ca	-0.0009053467
252	0x3a5c2b4f	0.00083987875
253	0x3bdef66a	0.006804277
254	0x3ae465ad	0.0017425321
255	0x3c5e8b13	0.013582963

discrete_action_output_shape f4 [1, 2]
0	0x40800000	4.0
1	0x40000000	2.0

network_body._body_endoder.seq_layers.0.bias f4 [128]
0	0x00000000	0.0
1	0x00000000	0.0
2	0x00000000	0.0
3	0x00000000	0.0
4	0x00000000	0.0
5	0x00000000	0.0
6	0x00000000	0.0
7	0x00000000	0.0
8	0x00000000	0.0
9	0x00000000	0.0
10	0x00000000	0.0
11	0x00000000	0.0
12	0x00000000	0.0
13	0x00000000	0.0
14	0x00000000	0.0
15	0x00000000	0.0
16	0x00000000	0.0
17	0x00000000	0.0
18	0x00000000	0.0
19	0x00000000	0.0
20	0x00000000	0.0
21	0x00000000	0.0
22	0x00000000	0.0
23	0x00000000	0.0
24	0x00000000	0.0
25	0x00000000	0.0
26	0x00000000	0.0
27	0x00000000	0.0
28	0x00000000	0.0
29	0x00000000	0.0
30	0x00000000	0.0
31	0x00000000	0.0
32	0x00000000	0.0
33	0x00000000	0.0
34	0x00000000	0.0
35	0x00000000	0.0
36	0x00000000	0.0
37	0x00000000	0.0
38	0x00000000	0.0
39	0x00000000	0.0
40	0x00000000	0.0
41	0x00000000	0.0
42	0x00000000	0.0
43	0x00000000	0.0
44	0x00000000	0.0
45	0x00000000	0.0
46	0x00000000	0.0
47	0x00000000	0.0
48	0x00000000	0.0
49	0x00000000	0.0
50	0x00000000	0.0
51	0x00000000	0.0
52	0x00000000	0.0
53	0x00000000	0.0
54	0x00000000	0.0
55	0x00000000	0.0
56	0x00000000	0.0
57	0x00000000	0.0
58	0x00000000	0.0
59	0x00000000	0.0
60	0x00000000	0.0
61	0x00000000	0.0
62	0x00000000	0.0
63	0x00000000	0.0
64	0x00000000	0.0
65	0x00000000	0.0
66	0x00000000	0.0
67	0x00000000	0.0
68	0x00000000	0.0
69	0x00000000	0.0
70	0x00000000	0.0
71	0x00000000	0.0
72	0x00000000	0.0
73	0x00000000	0.0
74	0x00000000	0.0
75	0x00000000	0.0
76	0x00000000	0.0
77	0x00000000	0.0
78	0x00000000	0.0
79	0x00000000	0.0
80	0x00000000	0.0
81	0x00000000	0.0
82	0x00000000	0.0
83	0x00000000	0.0
84	0x00000000	0.0
85	0x00000000	0.0
86	0x00000000	0.0
87	0x00000000	0.0
88	0x00000000	0.0
89	0x00000000	0.0
90	0x00000000	0.0
91	0x00000000	0.0
92	0x00000000	0.0
93	0x00000000	0.0
94	0x00000000	0.0
95	0x00000000	0.0
96	0x00000000	0.0
97	0x00000000	0.0
98	0x00000000	0.0
99	0x00000000	0.0
100	0x00000000	0.0
101	0x00000000	0.0
102	0x00000000	0.0
103	0x00000000	0.0
104	0x00000000	0.0
105	0x00000000	0.0
106	0x00000000	0.0
107	0x00000000	0.0
108	0x00000000	0.0
109	0x00000000	0.0
110	0x00000000	0.0
111	0x00000000	0.0
112	0x00000000	0.0
113	0x00000000	0.0
114	0x00000000	0.0
115	0x00000000	0.0
116	0x00000000	0.0
117	0x00000000	0.0
118	0x00000000	0.0
119	0x00000000	0.0
120	0x00000000	0.0
121	0x00000000	0.0
122	0x00000000	0.0
123	0x00000000	0.0
124	0x00000000	0.0
125	0x00000000	0.0
126	0x00000000	0.0
127	0x00000000	0.0

network_body._body_endoder.seq_layers.0.weight f4 [128, 118]
0	0x3dc9c8e4	0.0985277
1	0xbe4beca5	-0.19914491
2	0xbe4711d1	-0.1944039
3	0x3e316160	0.17322302
4	0xbd6a5969	-0.057214174
5	0x3d8132d8	0.06308526
6	0x3df01964	0.11723593
7	0x3d51987a	0.051170804
8	0x3d87dfc0	0.06634474
9	0xbcfa86a9	-0.03058179
10	0xbd663a16	-0.05620774
11	0x3d24af8b	0.040206473
12	0x3c854003	0.016265875
13	0x3b075d3c	0.0020654937
14	0x3b100c34	0.002197993
15	0x3dc3cafc	0.095602006
16	0xbe01f6eb	-0.12691848
17	0x3e02d1b9	0.12775315
18	0xbbef86f9	-0.007309791
19	0xbc2e64af	-0.010644122
20	0xbc04f6bf	-0.0081154695
21	0x3debe871	0.11518944
22	0x3e2ad576	0.16682991
23	0x3ca151a8	0.019692257
24	0x3a9409c4	0.0011294414
25	0xbe1ec51d	-0.1550488
26	0x3d0f3a55	0.03496774
27	0xbd960bb8	-0.07326454
28	0x3e27b022	0.16375783
29	0xbd9cdc18	-0.07659167
30	0xbd60a0d3	-0.054840874
31	0x3d65322a	0.055956043
32	0xbe043537	-0.12910925
33	0x3d2ca0c2	0.042145498
34	0xbe236eca	-0.15960231
35	0x3d2bcdab	0.041944187
36	0xbc27ea6f	-0.010248764
37	0xbd2516cf	-0.040304955
38	0xbd7355a6	-0.059407853
39	0x3cdcabbd	0.02693736
40	0xbd3d47d3	-0.046211075
41	0xbc8e73a2	-0.017389122
42	0x3d5dfa4e	0.054193787
43	0xbd8c601e	-0.068542704
44	0x3e068984	0.13138396
45	0x3d6058b0	0.05477208
46	0x3ccbea8d	0.024892116
47	0x3d8e95a9	0.06962139
48	0xbc81eb1c	-0.01585918
49	0xbd5f4bbc	-0.054515585
50	0x3c5e43d0	0.013565972
51	0xbd4c022a	-0.04980675
52	0xbd0d5866	-0.03450813
53	0x3e139aef	0.14414571
54	0x3c33e18a	0.010979066
55	0x3e408acb	0.18802945
56	0xbe24b625	-0.16085108
57	0xbdbc9159	-0.0920741
58	0x3dacd7aa	0.08439572
59	0xbe033c14	-0.12815887
60	0xbd83d441	-0.064369686
61	0xbd7b5796	-0.061362825
62	0xbdac6e82	-0.08419515
63	0x3dcf3cc4	0.10119012
64	0xbe406df0	-0.18791938
65	0x3e496282	0.19666484
66	0xbc09df25	-0.008415018
67	0xbdfdb609	-0.12388236
68	0x3cba0966	0.02270956
69	0x3da459d9	0.080249496
70	0xbd9c6101	-0.076356895
71	0x3d43557c	0.047688946
72	0xbd718a8c	-0.05897002
73	0x3d61c6fa	0.0551214
74	0x3d645ab2	0.055750556
75	0x3baff8f3	0.005370253
76	0xbd9be765	-0.076124944
77	0xbb594655	-0.0033153493
78	0x3de7bd47	0.11315399
79	0xbdc33974	-0.09532443
80	0x3d9f5243	0.07779362
81	0xbdc15101	-0.094392784
82	0xbe536dfc	-0.20647424
83	0xbd19faa1	-0.037592534
84	0x3df284e3	0.118417524
85	0xbd2a94ee	-0.041645937
86	0x3d0e1128	0.03468433
87	0xbd1626ca	-0.036658086
88	0x3d917fc5	0.07104448
89	0xbde6421a	-0.112430766
90	0x3df8df74	0.12151995
91	0x3dbf6144	0.09344724
92	0xbc2f55d2	-0.0107016135
93	0x3be53d5a	0.006995839
94	0xbd94566d	-0.07243047
95	0xbb522601	-0.003206611
96	0xbd15d343	-0.036578428
97	0x3dee4bdb	0.11635562
98	0x3e371d4f	0.17882274
99	0x3d8bea3f	0.06831788
100	0x3c0c3054	0.008556444
101	0xbde9362c	-0.113872856
102	0xbd9279dd	-0.0715215
103	0x3ba2ba52	0.004966059
104	0xbd6cc4bb	-0.057804804
105	0xbb1f3f10	-0.0024299063
106	0xbd154710	-0.036444724
107	0x3d1cdc22	0.038295873
108	0x3d84e095	0.06488148
109	0x3d81016c	0.06299099
110	0x3d291395	0.04127844
111	0xbd9cd606	-0.07658009
112	0xbe36a24e	-0.17835352
113	0xbcddfe59	-0.027098821
114	0xbd62cda3	-0.05537189
115	0xbe43770f	-0.19088386
116	0x3dc705ae	0.0971788
117	0x3d06d5ba	0.03291867
118	0xbcf5558d	-0.02994802
119	0xbe650c97	-0.22368084
120	0x3c6c9acd	0.014441204
121	0x3aaa0091	0.001297014
122	0xbe4b477d	-0.1985149
123	0xba3efbec	-0.0007285464
124	0x3d459dbf	0.04824614
125	0xbdda9bff	-0.10674285
126	0x3e42e5e5	0.1903301
127	0x3c5c6429	0.013451614
128	0x3db776b3	0.08958187
129	0xbc0162ad	-0.007897061
130	0xbcb61dc8	-0.022230998
131	0xbdb0ad61	-0.086268194
132	0x3e3d039b	0.18458407
133	0xbc2ae73a	-0.010431105
134	0xbd0aa0e7	-0.033844855
135	0x3cb5ff5c	0.022216491
136	0x3dc0dfc4	0.0941768
137	0x3dbf24e5	0.09333209
138	0x3d7f632f	0.06235045
139	0xbe0a6a36	-0.13517079
140	0xbdf32d89	-0.118739195
141	0xbe097dc3	-0.1342688
142	0x3cf4aed0	0.029868513
143	0x3dc951bf	0.09830045
144	0xbc8e11f8	-0.017342553
145	0x3d88cf5b	0.06680175
146	0xbce08878	-0.027408823
147	0xbd39ed20	-0.045392156
148	0xbdaaa338	-0.08331913
149	0x3d4333b8	0.047656745
150	0xbda9aaa0	-0.08284497
151	0xbe057b88	-0.13035405
152	0xbd24ba16	-0.040216528
153	0xbddc0302	-0.10742761
154	0x3b05303b	0.0020322937
155	0xbe311c5a	-0.17295972
156	0xbdc99968	-0.09843713
157	0xbd98f2d5	-0.074681915
158	0xbd571d78	-0.052518338
159	0xbc7305a4	-0.014832888
160	0x3db2fd7e	0.08739756
161	0x3be245bf	0.006905287
162	0x3d6181f8	0.05505559
163	0x3d43b0a5	0.047775883
164	0x3e40d444	0.18830973
165	0x3c92e00a	0.017929096
166	0xbdb83dce	-0.08996163
167	0x3d362a43	0.044473898
168	0x3dd4873f	0.10377359
169	0xbc951c57	-0.01820199
170	0x3d573c11	0.05254752
171	0x3d63988a	0.055565394
172	0xbe1c93e0	-0.15290785
173	0xbde59f0b	-0.11211976
174	0xbd6d200f	-0.0578919
175	0x3cb69483	0.022287613
176	0xbda69805	-0.08134464
177	0x3df1c0fb	0.11804386
178	0x3b735161	0.0037127363
179	0x3e299b7d	0.1656322
180	0x3a79a729	0.0009523505
181	0xbd6c9349	-0.05775765
182	0xbd5c93ed	-0.05385201
183	0x3ceebb65	0.029142091
184	0xbd8d33d1	-0.06894649
185	0x3d1af4f3	0.037831258
186	0x3d0e076f	0.034675058
187	0x3d3165a1	0.04330981
188	0xbe4fa90b	-0.20279329
189	0x3daabf3b	0.083372556
190	0xbde2fbf5	-0.11083213
191	0xbe6ce9d3	-0.23136072
192	0xbe175a6c	-0.14780587
193	0x3cc3bf88	0.02389504
194	0x3d392f54	0.04521115
195	0xbe2adf9c	-0.16686863
196	0x3dcf2fad	0.10116515
197	0xbdc91900	-0.098192215
198	0xbe2d35d5	-0.16915067
199	0xbe45b34c	-0.19306678
200	0x3d078e1c	0.03309451
201	0xbe47ffc8	-0.19531167
202	0xbd063148	-0.032761842
203	0x3c09ceba	0.008411104
204	0x3d0a40b6	0.03375312
205	0x3daf581e	0.08561729
206	0x3c9f0917	0.019413514
207	0x3d33e863	0.043922793
208	0xbcc4ef6c	-0.024039946
209	0x3dd920be	0.10601948
210	0xbe1af1db	-0.15131323
211	0xbd2e742d	-0.042591263
212	0xbdcde45e	-0.10053323
213	0xbd0da6d6	-0.034582935
214	0xbe15f8e9	-0.14645733
215	0xbe0d3843	-0.13790993
216	0x3d924b6b	0.07143291
217	0x3c4a73e4	0.012356732
218	0x3d0e3ac1	0.034724
219	0xbdc8d344	-0.09805921
220	0xbbacdb09	-0.0052751345
221	0xbd6caa35	-0.05777951
222	0xbdcdd7e0	-0.100509405
223	0xbe433260	-0.19062185
224	0xbc86b018	-0.01644139
225	0xbe00b883	-0.12570386
226	0xbc101795	-0.008794685
227	0x3e49e9c5	0.19718082
228	0x3e00df59	0.125852
229	0x3d15ec8a	0.036602534
230	0x3e3fd5ba	0.18733874
231	0xbe378bc3	-0.17924409
232	0x3d080fb7	0.03321811
233	0x3d568501	0.052372936
234	0x3c20d7f7	0.009817115
235	0xbe0cd97f	-0.13754843
236	0x3cd1bae1	0.025601806
237	0xbd9fb840	-0.07798815
238	0xbe0f12db	-0.13972037
239	0xbac9bd71	-0.0015391541
240	0x3cfbe0fb	0.030746927
241	0xbd6490f8	-0.055802315
242	0xbe240acc	-0.16019744
243	0xbce0a533	-0.027422523
244	0x3c225b81	0.009909512
245	0x3e46bfb7	0.19409071
246	0xbdab0337	-0.083502226
247	0xbe6c10ac	-0.23053235
248	0x3c341734	0.01099186
249	0x3dcd03ac	0.10010466
250	0xbd9e53b0	-0.07730806
251	0xbd4a8b3a	-0.049449183
252	0x3d96f246	0.07370429
253	0xbcd79c51	-0.026319655
254	0x3c725ebc	0.014793094
255	0x3e78ac60	0.24284506

network_body._body_endoder.seq_layers.2.bias f4 [128]
0	0x00000000	0.0
1	0x00000000	0.0
2	0x00000000	0.0
3	0x00000000	0.0
4	0x00000000	0.0
5	0x00000000	0.0
6	0x00000000	0.0
7	0x00000000	0.0
8	0x00000000	0.0
9	0x00000000	0.0
10	0x00000000	0.0
11	0x00000000	0.0
12	0x00000000	0.0
13	0x00000000	0.0
14	0x00000000	0.0
15	0x00000000	0.0
16	0x00000000	0.0
17	0x00000000	0.0
18	0x00000000	0.0
19	0x00000000	0.0
20	0x00000000	0.0
21	0x00000000	0.0
22	0x00000000	0.0
23	0x00000000	0.0
24	0x00000000	0.0
25	0x00000000	0.0
26	0x00000000	0.0
27	0x00000000	0.0
28	0x00000000	0.0
29	0x00000000	0.0
30	0x00000000	0.0
31	0x00000000	0.0
32	0x00000000	0.0
33	0x00000000	0.0
34	0x00000000	0.0
35	0x00000000	0.0
36	0x00000000	0.0
37	0x00000000	0.0
38	0x00000000	0.0
39	0x00000000	0.0
40	0x00000000	0.0
41	0x00000000	0.0
42	0x00000000	0.0
43	0x00000000	0.0
44	0x00000000	0.0
45	0x00000000	0.0
46	0x00000000	0.0
47	0x00000000	0.0
48	0x00000000	0.0
49	0x00000000	0.0
50	0x00000000	0.0
51	0x00000000	0.0
52	0x00000000	0.0
53	0x00000000	0.0
54	0x00000000	0.0
55	0x00000000	0.0
56	0x00000000	0.0
57	0x00000000	0.0
58	0x00000000	0.0
59	0x00000000	0.0
60	0x00000000	0.0
61	0x00000000	0.0
62	0x00000000	0.0
63	0x00000000	0.0
64	0x00000000	0.0
65	0x00000000	0.0
66	0x00000000	0.0
67	0x00000000	0.0
68	0x00000000	0.0
69	0x00000000	0.0
70	0x00000000	0.0
71	0x00000000	0.0
72	0x00000000	0.0
73	0x00000000	0.0
74	0x00000000	0.0
75	0x00000000	0.0
76	0x00000000	0.0
77	0x00000000	0.0
78	0x00000000	0.0
79	0x00000000	0.0
80	0x00000000	0.0
81	0x00000000	0.0
82	0x00000000	0.0
83	0x00000000	0.0
84	0x00000000	0.0
85	0x00000000	0.0
86	0x00000000	0.0
87	0x00000000	0.0
88	0x00000000	0.0
89	0x00000000	0.0
90	0x00000000	0.0
91	0x00000000	0.0
92	0x00000000	0.0
93	0x00000000	0.0
94	0x00000000	0.0
95	0x00000000	0.0
96	0x00000000	0.0
97	0x00000000	0.0
98	0x00000000	0.0
99	0x00000000	0.0
100	0x00000000	0.0
101	0x00000000	0.0
102	0x00000000	0.0
103	0x00000000	0.0
104	0x00000000	0.0
105	0x00000000	0.0
106	0x00000000	0.0
107	0x00000000	0.0
108	0x00000000	0.0
109	0x00000000	0.0
110	0x00000000	0.0
111	0x00000000	0.0
112	0x00000000	0.0
113	0x00000000	0.0
114	0x00000000	0.0
115	0x00000000	0.0
116	0x00000000	0.0
117	0x00000000	0.0
118	0x00000000	0.0
119	0x00000000	0.0
120	0x00000000	0.0
121	0x00000000	0.0
122	0x00000000	0.0
123	0x00000000	0.0
124	0x00000000	0.0
125	0x00000000	0.0
126	0x00000000	0.0
127	0x00000000	0.0

network_body._body_endoder.seq_layers.2.weight f4 [128, 128]
0	0xbddd751d	-0.10813353
1	0x3da178a9	0.07884342
2	0xbc16dcb4	-0.009207893
3	0x3c83c510	0.016085178
4	0x3c6fa160	0.014625877
5	0x3c73ba58	0.014875971
6	0xbe00b10b	-0.12567537
7	0xbd21c6d1	-0.039496247
8	0x3c8f7e15	0.017516175
9	0xbc41b51f	-0.011822968
10	0x3dce1e94	0.10064426
11	0xbdba7baf	-0.09105622
12	0x3cfd2902	0.030903343
13	0x3d80b8e8	0.06285268
14	0x3c09f20e	0.008419527
15	0xbdbae226	-0.09125166
16	0xbdffa2f7	-0.12482255
17	0xbdac4639	-0.084118314
18	0x3c7b2b31	0.015330122
19	0xbda46804	-0.08027652
20	0xbdcd7541	-0.1003213
21	0xbc366f93	-0.011135
22	0x3c0259e0	0.007955998
23	0xbe09c5bb	-0.13454334
24	0xbdb9fc84	-0.09081367
25	0x3e1f55a0	0.15560007
26	0xbd751015	-0.05982979
27	0xbe1e0193	-0.15430288
28	0x3d60a104	0.054841056
29	0x3cd17f2a	0.025573332
30	0xbd46a4b4	-0.048496917
31	0x3e00805c	0.12548965
32	0x3d91ee6e	0.07125555
33	0x3e5954e7	0.21223794
34	0xbe02daa4	-0.12778717
35	0x3ca564cf	0.02018967
36	0x3d51b43d	0.05119728
37	0x3b3774fd	0.0027993314
38	0x3d86dfb1	0.065856345
39	0xbda1e6bb	-0.079053365
40	0x3dfbb174	0.12289706
41	0x3dce1689	0.10062892
42	0xbe11cc7a	-0.14238158
43	0x3e2c8c46	0.16850385
44	0xbc8b821e	-0.017029818
45	0x3de09152	0.10965218
46	0xbe07aa91	-0.1324866
47	0xbdf50ede	-0.11965726
48	0xbe1dee74	-0.15422994
49	0x3dcbadf8	0.09945291
50	0x3e1f3134	0.15546113
51	0xbda54cca	-0.08071287
52	0x3ceaa9a4	0.028645344
53	0x3d46fe29	0.04858223
54	0x3c9703dd	0.01843446
55	0xbd85ddbf	-0.06536435
56	0x3dd30844	0.10304311
57	0xbcfd8f4c	-0.030952118
58	0x3d8e1d4a	0.0693918
59	0x3db3c74d	0.08778248
60	0xbc9e4c9f	-0.019323645
61	0x3cd7ab73	0.02632687
62	0x3df424fb	0.11921116
63	0x3d76ce51	0.060255352
64	0x3e42a881	0.19009592
65	0xbdddea3c	-0.10835692
66	0xbd61fa7a	-0.055170514
67	0x3d8646b4	0.06556454
68	0xbd4ba9d7	-0.04972252
69	0xbdbd0f5c	-0.09231445
70	0xbd222743	-0.039588224
71	0x3e25159f	0.16121529
72	0x3c9244b6	0.01785503
73	0x3dfda311	0.12384618
74	0x3cbcb305	0.023034582
75	0x3ce64b47	0.028112067
76	0xbd0913d3	-0.03346617
77	0xbe1b63fe	-0.15174863
78	0xbd97ebd2	-0.07418026
79	0xbdba46e6	-0.09095554
80	0x3df618ad	0.12016425
81	0x3d12167e	0.03566598
82	0xbc5b49d3	-0.0133843
83	0x3e12ff3e	0.1435518
84	0x3d4d7957	0.050164547
85	0x3da705d0	0.081554055
86	0xbdd85040	-0.105621815
87	0xbe34bb59	-0.17649592
88	0x3d535237	0.051592078
89	0x3ddac7d1	0.10682643
90	0x3dd4f13b	0.103975736
91	0xbd5f6ded	-0.054548193
92	0xbd8506b1	-0.06495417
93	0x3b38e41c	0.0028212136
94	0xbc46b5d0	-0.012128308
95	0x3dce970a	0.10087402
96	0x3dd545b8	0.104136884
97	0x3de39205	0.111118354
98	0x3dae39f9	0.08507151
99	0x3d79dbe8	0.061000735
100	0xbdf82816	-0.12117021
101	0x3ca761f9	0.02043246
102	0x3e199d43	0.15001397
103	0x3d8ef4bc	0.06980273
104	0x3d04bead	0.032408405
105	0x3df4cd39	0.119532056
106	0xbd0c8e61	-0.03431547
107	0xbde67187	-0.11252122
108	0xbd45c312	-0.048281737
109	0xbcdbebe0	-0.026845872
110	0x3d1fc770	0.039008558
111	0x3d1dc153	0.038514446
112	0x3cd6acad	0.026205385
113	0xbdb04128	-0.086061776
114	0xbd40da58	-0.04708323
115	0xbe3a59a7	-0.18198262
116	0xbdf4686d	-0.1193398
117	0x3c83afd8	0.01607506
118	0x3d2c3a98	0.042048067
119	0xbcc1c715	-0.0236545
120	0xbd525f56	-0.05136045
121	0xbe119b7f	-0.14219473
122	0xbe1c179f	-0.15243386
123	0xbe06fe42	-0.13182929
124	0x3d44ac10	0.048015654
125	0xbd49b366	-0.049243353
126	0xbe11c727	-0.14236127
127	0x3dbb1eb9	0.09136719
128	0x3cdeb80a	0.027187366
129	0xbd1fcdd7	-0.039014664
130	0xbd75fa6a	-0.060053267
131	0xbd3158a1	-0.043297414
132	0xbdb5e4ce	-0.08881532
133	0x3e0e75d5	0.13912137
134	0x3d559af1	0.052149717
135	0x3ddf2a32	0.1089672
136	0xbe4f9aff	-0.2027397
137	0xbd2a3d27	-0.041562226
138	0xbd1b6cfa	-0.037945725
139	0xbdf61950	-0.12016547
140	0xbb99dc00	-0.0046954155
141	0xbd858645	-0.065197505
142	0xbd9a571e	-0.075361475
143	0x3d3f6054	0.046722725
144	0x3dddfcc0	0.10839224
145	0xbdca66c3	-0.098828815
146	0x3dd6b5c3	0.10483887
147	0xbbe8c121	-0.007103101
148	0x3ad4a209	0.0016222607
149	0x3e5b9c2a	0.2144629
150	0x3dab3e5d	0.08361504
151	0xbc7dea0f	-0.015497698
152	0xbd9554b0	-0.072915435
153	0x3d200e62	0.039076217
154	0xbd57c125	-0.05267443
155	0x3d681ff7	0.05667111
156	0x3da08255	0.07837359
157	0x3c21e300	0.009880781
158	0x3d6d85a4	0.057988778
159	0xbbd9bb26	-0.0066446243
160	0x3dc2a987	0.09504991
161	0x3b6d4a40	0.0036207587
162	0x3d2ec75b	0.04267059
163	0x3e040655	0.1289304
164	0xbd5e8ff5	-0.054336507
165	0xbc5d246d	-0.013497454
166	0x3b3e7ebc	0.0029067239
167	0x3e3087e9	0.17239346
168	0xbdc6e6c6	-0.09711985
169	0xbd10724f	-0.035265263
170	0xbc324d24	-0.01088265
171	0x3c515cba	0.012778455
172	0xbe415ded	-0.18883486
173	0xbb82cbac	-0.0039915647
174	0xbde29c0e	-0.11064921
175	0xbdf99273	-0.12186136
176	0xbd51f901	-0.05126286
177	0x3c1f5f98	0.009727381
178	0xbc970e57	-0.018439455
179	0xbdf375a2	-0.11887671
180	0xbdbe770b	-0.093000494
181	0xbba5fcc2	-0.0050655315
182	0x3c0d139f	0.008610635
183	0xbc6211e1	-0.013798208
184	0x3c1f6e62	0.009730907
185	0xbd86a5cf	-0.06574594
186	0x3ddd45a9	0.10804302
187	0xbd47d738	-0.048789233
188	0xbda312ad	-0.079625465
189	0xbdcb41d1	-0.09924663
190	0xbd7682a6	-0.06018319
191	0xbd74be46	-0.05975177
192	0x3dacb47b	0.084328614
193	0xbe56618d	-0.2093565
194	0xbd1d59fc	-0.038415894
195	0x3b3693b9	0.0027859046
196	0x3e3d64be	0.18495461
197	0xbd30e327	-0.04318538
198	0xbd8425d9	-0.06452531
199	0xbd8e413c	-0.06946036
200	0x3dbad254	0.09122148
201	0xbe856717	-0.26055214
202	0xbc83b109	-0.016075628
203	0xbddd7f19	-0.108152576
204	0xbca621c5	-0.020279774
205	0xbab26099	-0.0013609111
206	0xbc7def78	-0.015498988
207	0xbd52063d	-0.05127548
208	0x3d0186e1	0.03162277
209	0x3d84bff9	0.064819284
210	0x3d0f8e9e	0.03504812
211	0xbd3ae712	-0.045630522
212	0xbde0fff5	-0.1098632
213	0xbdae5177	-0.08511632
214	0xbccfb538	-0.025354967
215	0xbd6010e2	-0.0547036
216	0xbcf57b79	-0.029966103
217	0x3d879728	0.06620628
218	0x3d2ccdb8	0.042188376
219	0xbd471310	-0.048602164
220	0xbd75640a	-0.059909858
221	0xbdc62cbb	-0.096765004
222	0xbab00be0	-0.0013431273
223	0xbe481c8a	-0.19542137
224	0xbda3f4c4	-0.0800567
225	0xbd2533c1	-0.04033256
226	0xbe0fbfd5	-0.14038022
227	0x3d80f5db	0.06296893
228	0x3bf38235	0.0074312934
229	0xbd8b4573	-0.06800356
230	0xbe01e685	-0.12685592
231	0xbca857da	-0.020549703
232	0xbcfdb4b9	-0.030969964
233	0x3c67c42d	0.014145893
234	0xbd3f2bca	-0.04667262
235	0xbdecfe3a	-0.11571927
236	0xbc07dde9	-0.008292654
237	0xbc97a571	-0.018511506
238	0x3c6cb06c	0.014446359
239	0x3d3626ef	0.044470724
240	0xbe0be1fa	-0.13660422
241	0xbdc7e608	-0.09760672
242	0xbc87a141	-0.016556384
243	0x3ce08acf	0.02740994
244	0xbdc10d63	-0.094263814
245	0xbc925499	-0.017862605
246	0xbd988aef	-0.074483745
247	0x3d617d29	0.055051003
248	0x3b2132fc	0.002459704
249	0x3cbd9d1f	0.02314621
250	0xbdfb86e6	-0.12281589
251	0xbd33d4cb	-0.043904107
252	0xbd4201a1	-0.047364835
253	0xbe0165eb	-0.12636535
254	0xbd467d0d	-0.0484591
255	0xbdde89a6	-0.10866098
