results/ppo/MoveToGoal/MoveToGoal-10079.pt (torch, 150103 bytes, 14 tensors)

discrete_act_size_vector f4 [1, 2]
000000 00 00 80 40 00 00 00 40
       4.0 2.0

network_body._body_endoder.seq_layers.0.weight f4 [128, 4]
000000 c0 d4 e1 be d6 eb 39 be 53 4c 81 bf 14 79 9e be
       -0.44107628 -0.1815637 -1.0101417 -0.3095175
000010 64 d5 01 3e ac 0f 03 bf 4b f5 74 be 69 e7 a6 bc
       0.12679058 -0.5119579 -0.23921697 -0.020374017
000020 df d7 13 3e 82 30 39 3e 17 1e 53 3f 43 98 c9 bc
       0.14437817 0.1808491 0.8246779 -0.024608737
000030 43 6b cc bc 21 b5 a5 3e d0 ab 84 3f 2b a1 4c 3e
       -0.02495349 0.32364753 1.0364933 0.19983356
000040 50 54 d5 be b1 c3 f9 be 7c 8c f1 3d 1b 13 50 bf
       -0.41665888 -0.48782113 0.117943734 -0.8127915
000050 b9 84 c7 be 37 ac a1 3c 8a f9 f1 3e e8 75 5e 3f
       -0.38968447 0.019735439 0.47260696 0.8689866
000060 be 3a 25 be e0 51 fd be c5 0e 07 3f 51 d3 3e 3f
       -0.1613569 -0.49476528 0.5275691 0.74541193
000070 c6 9f 3f 3e bf ca 5a bf d6 b2 0e bf 5d 57 85 be
       0.18713292 -0.85465616 -0.5574163 -0.26043215
000080 32 55 3e 3f 78 6a a1 3e 12 1f 68 bf 36 9a 96 be
       0.7434875 0.31526542 -0.9067241 -0.2941453
000090 ac 6d 4a bf c4 9a e7 be 22 c0 11 3e c5 10 b9 be
       -0.79073596 -0.45235264 0.14233449 -0.36145607
0000a0 c1 30 fa 3e ec c5 c9 be 0f 8a d1 3e c5 3b a0 3d
       0.4886532 -0.39408815 0.40925643 0.078239
0000b0 b8 1d aa 3f f6 d1 4f bd 5a 78 86 3e 79 81 03 3f
       1.329032 -0.050737344 0.26263696 0.51369435
0000c0 ed 7b 3b 3e f5 d9 3b be 56 e2 e6 be 5b e3 b8 3e
       0.18308993 -0.18344863 -0.45094556 0.36110958
0000d0 7d 09 5d 3f 4c fc ab be 67 20 20 3b 8c aa 9e be
       0.863426 -0.33590925 0.0024433376 -0.30989492
0000e0 56 b3 83 3d 53 b2 09 be 82 53 d1 3e 8d 2d 8c 3e
       0.0643069 -0.13446932 0.40884024 0.27378502
0000f0 87 a2 4f be ac bf 3e 3f d7 cd e5 be 08 2d 81 3e
       -0.20276843 0.7451122 -0.44883606 0.2522967
000100 4b 6a 1b 3f 84 1d 05 3f a0 59 6a 3d b6 82 ab 3e
       0.60709065 0.5199816 0.05721438 0.33498162
000110 8a 9f 22 3f 1c b2 81 3d db 94 da be 42 6a 16 bf
       0.6352469 0.063328 -0.42691693 -0.58755887
000120 11 ca 25 be 76 26 1d bc fc ba 2a be 82 9a 2a be
       -0.16190363 -0.009591689 -0.16672891 -0.16660503
000130 78 a5 9b 3f 66 3f 1b 3f 64 bc 2e 3e fa 26 e9 3e
       1.2159872 0.60643613 0.17064053 0.4553755
000140 b9 44 df be 48 57 a0 bd 34 38 71 3e 92 6e 08 be
       -0.4360712 -0.078291476 0.23556596 -0.13323429
000150 69 b8 33 3f a0 e9 35 3e da b0 66 3d 8f f2 2b 3f
       0.7020326 0.17764902 0.056321003 0.6716699
000160 c3 ca da 3e 9c d3 2a 3f b8 9a 72 3f 68 7a 94 3e
       0.4273282 0.6672914 0.9476733 0.2899964
000170 c4 33 ab be cd 19 29 bf 87 a5 f2 3e 72 0a 3e 3f
       -0.33437932 -0.66054994 0.47391912 0.7423469
000180 cf 21 8d 3e ee 62 82 bd 08 b0 37 bf 0a 2d ac bd
       0.27564856 -0.063665256 -0.7175298 -0.08407028
000190 18 60 08 3f 31 dc 41 bf 8c 80 19 be 41 d0 8c 3f
       0.5327163 -0.7572661 -0.14990443 1.1001054
0001a0 60 e1 bb 3e e5 8d 0b bf 06 a3 1d bb 37 b5 4d bc
       0.36695385 -0.5451339 -0.0024053468 -0.012555412
0001b0 f8 60 f4 3d 93 20 2b bf d0 02 f6 3e e4 f1 5d bf
       0.11932558 -0.6684658 0.4804902 -0.8669722
0001c0 09 08 2b bd d4 c6 2a 3f d3 df 02 3f 87 a9 9a bd
       -0.04175571 0.6670964 0.5112278 -0.07551866
0001d0 9a 99 1c 3b 33 97 3c 3e de 3b 67 3f 05 cb e0 3e
       0.0023895265 0.18417053 0.90325725 0.43904892
0001e0 6d f1 19 bf c3 e4 94 3e 01 ca 16 bf 44 cd 5d 3f
       -0.6013401 0.2908078 -0.58901983 0.86641335
0001f0 0d eb a9 3e 04 b8 64 be 54 16 b9 be 5b 1f 3b bf
       0.33187142 -0.22335821 -0.36149848 -0.7309472
000200 fc cc a5 be b1 c8 90 3e ac 4b 8a bf 82 d1 2b bf
       -0.32382953 0.28278115 -1.0804343 -0.6711656
000210 32 3e d6 3e ba 81 4c 3f a2 d3 31 3e 3a 6f 83 3f
       0.41844326 0.7988545 0.17365888 1.0268319
000220 73 97 2a 3f 87 1f fe be 0e ab 92 be 7d 98 67 3f
       0.66637343 -0.49633428 -0.2864613 0.90467054
000230 61 9f d8 be e0 40 41 3f c4 e8 60 bf b3 18 0e 3e
       -0.42309096 0.75489616 -0.8785517 0.1387661
000240 7a 4e 0e 3f 25 28 af 3e b5 02 f5 bd e8 70 2a 3f
       0.55588496 0.34210315 -0.11963407 0.6657853
000250 08 3a 33 3e 99 98 89 3e c4 d0 57 bf 0f 1e 33 bf
       0.17502606 0.26874235 -0.84302926 -0.6996774
000260 03 a4 ed 3e d8 ce 5a bf 6e f4 50 be 0b d1 51 3e
       0.46414194 -0.8547187 -0.20405743 0.204899
000270 92 9d 6f 3e 24 d3 32 3f d8 a6 1c bf 09 35 9f 3f
       0.23399952 0.69853425 -0.61192083 1.243806
000280 a7 3a ba 3e 9e d6 07 3f 09 92 c0 bf a3 78 14 bf
       0.36372873 0.53061855 -1.5044566 -0.5799658
000290 ca 2b 0e 3d 71 9e 6d be a1 f6 4c 3e 77 b0 83 3d
       0.03470973 -0.23204972 0.20015956 0.064301424
0002a0 8d 86 34 3e 37 eb 4d 3f 90 30 a6 3c f7 04 f2 bd
       0.17629452 0.80437034 0.020286828 -0.11817353
0002b0 29 23 74 3d 8e ed 6a bf 26 d5 66 3e 75 f3 c8 be
       0.059603844 -0.9176873 0.22542247 -0.39248243
0002c0 29 94 4a bf 50 00 6f 3e 7b 95 56 bf a0 02 cb 3e
       -0.79132324 0.23339963 -0.8382184 0.3965044
0002d0 73 84 2e 3e 35 cb 42 be 24 51 21 bf f1 11 d1 3d
       0.17042713 -0.1902283 -0.63014436 0.102085
0002e0 78 45 d3 be 28 6e 21 be 67 3d 2e bf 92 01 28 bd
       -0.41263938 -0.15764678 -0.6806244 -0.041017123
0002f0 bd 2c 94 3e 93 6c 40 be 26 2b af 3e 23 57 18 bf
       0.28940383 -0.18791418 0.34212607 -0.5950796
000300 e0 5e 65 3e 0e ef e1 be 6d d8 81 bd ba 74 be 3f
       0.22399473 -0.44127697 -0.06340108 1.4879372
000310 a0 5c 32 3f 56 e2 08 3e 7b 5e eb 3d 94 19 a8 3d
       0.69672585 0.1336759 0.1149263 0.08208004
000320 c7 bb 66 bd 23 9c 7d bd 72 16 86 be 81 a0 b5 be
       -0.056331422 -0.06191648 -0.26189 -0.35474017
000330 ab 7e f5 3c 1d b6 a3 3e 7f 56 47 3f b5 f9 68 3f
       0.029967627 0.3197488 0.7786636 0.9100602
000340 52 bb 28 3f 37 15 0d bf 6a 93 e9 3d 69 67 33 3e
       0.6591083 -0.55110496 0.1140507 0.17519917
000350 ca 02 da 3c 24 9c 1e 3f d8 2e 95 bf 4e 7e 83 be
       0.026612658 0.61957 -1.165492 -0.256823
000360 73 a0 9a be 1e aa bd be 16 bb 07 bf 5b 0f 0d bf
       -0.30200538 -0.37043852 -0.53019845 -0.55101556
000370 7e 95 32 bf 9a 35 1b bf 10 60 93 be 29 e1 c3 3e
       -0.69759357 -0.60628664 -0.28784227 0.3825772
000380 68 1b 3c 3d 62 8a 23 3f 9f a5 af 3e 2d 4f 5a 3e
       0.045924574 0.6388303 0.34306046 0.21319266
000390 7b 93 6c be 32 6f 82 bc 81 97 a8 3d 24 b5 d8 3e
       -0.23103134 -0.015922163 0.08232022 0.423257
0003a0 d0 37 24 3e d0 3e 90 be 96 a3 b7 be d0 b7 79 be
       0.16036916 -0.28172922 -0.35866994 -0.24386525
0003b0 b4 21 6a be 82 34 1f 3f b9 d0 ee be 07 54 da bd
       -0.22864419 0.62189496 -0.46643618 -0.10660558
0003c0 91 2b 8b bf ad 13 91 3e c3 b4 19 be e7 32 84 be
       -1.087267 0.28335324 -0.15010361 -0.25820085
0003d0 a6 04 2e 3f 6a 54 4c be f5 d8 1e bf 2b a6 52 bf
       0.6797584 -0.19954076 -0.620498 -0.822848
0003e0 0a 22 80 be b9 f6 59 3e bd 0d 26 bf 4d 19 f6 3e
       -0.2502597 0.21285523 -0.6486471 0.48066178
0003f0 98 88 a7 be 01 1b 0f 3f 66 f4 01 bf 2d e9 72 3e
       -0.327214 0.5590058 -0.5076355 0.23721762

network_body._body_endoder.seq_layers.0.bias f4 [128]
000000 00 00 00 00 00 00 00 00 00 00 00 00 00 00 00 00
       0.0 0.0 0.0 0.0
000010 00 00 00 00 00 00 00 00 00 00 00 00 00 00 00 00
       0.0 0.0 0.0 0.0
000020 00 00 00 00 00 00 00 00 00 00 00 00 00 00 00 00
       0.0 0.0 0.0 0.0
000030 00 00 00 00 00 00 00 00 00 00 00 00 00 00 00 00
       0.0 0.0 0.0 0.0
000040 00 00 00 00 00 00 00 00 00 00 00 00 00 00 00 00
       0.0 0.0 0.0 0.0
000050 00 00 00 00 00 00 00 00 00 00 00 00 00 00 00 00
       0.0 0.0 0.0 0.0
000060 00 00 00 00 00 00 00 00 00 00 00 00 00 00 00 00
       0.0 0.0 0.0 0.0
000070 00 00 00 00 00 00 00 00 00 00 00 00 00 00 00 00
       0.0 0.0 0.0 0.0
000080 00 00 00 00 00 00 00 00 00 00 00 00 00 00 00 00
       0.0 0.0 0.0 0.0
000090 00 00 00 00 00 00 00 00 00 00 00 00 00 00 00 00
       0.0 0.0 0.0 0.0
0000a0 00 00 00 00 00 00 00 00 00 00 00 00 00 00 00 00
       0.0 0.0 0.0 0.0
0000b0 00 00 00 00 00 00 00 00 00 00 00 00 00 00 00 00
       0.0 0.0 0.0 0.0
0000c0 00 00 00 00 00 00 00 00 00 00 00 00 00 00 00 00
       0.0 0.0 0.0 0.0
0000d0 00 00 00 00 00 00 00 00 00 00 00 00 00 00 00 00
       0.0 0.0 0.0 0.0
0000e0 00 00 00 00 00 00 00 00 00 00 00 00 00 00 00 00
       0.0 0.0 0.0 0.0
0000f0 00 00 00 00 00 00 00 00 00 00 00 00 00 00 00 00
       0.0 0.0 0.0 0.0
000100 00 00 00 00 00 00 00 00 00 00 00 00 00 00 00 00
       0.0 0.0 0.0 0.0
000110 00 00 00 00 00 00 00 00 00 00 00 00 00 00 00 00
       0.0 0.0 0.0 0.0
000120 00 00 00 00 00 00 00 00 00 00 00 00 00 00 00 00
       0.0 0.0 0.0 0.0
000130 00 00 00 00 00 00 00 00 00 00 00 00 00 00 00 00
       0.0 0.0 0.0 0.0
000140 00 00 00 00 00 00 00 00 00 00 00 00 00 00 00 00
       0.0 0.0 0.0 0.0
000150 00 00 00 00 00 00 00 00 00 00 00 00 00 00 00 00
       0.0 0.0 0.0 0.0
000160 00 00 00 00 00 00 00 00 00 00 00 00 00 00 00 00
       0.0 0.0 0.0 0.0
000170 00 00 00 00 00 00 00 00 00 00 00 00 00 00 00 00
       0.0 0.0 0.0 0.0
000180 00 00 00 00 00 00 00 00 00 00 00 00 00 00 00 00
       0.0 0.0 0.0 0.0
000190 00 00 00 00 00 00 00 00 00 00 00 00 00 00 00 00
       0.0 0.0 0.0 0.0
0001a0 00 00 00 00 00 00 00 00 00 00 00 00 00 00 00 00
       0.0 0.0 0.0 0.0
0001b0 00 00 00 00 00 00 00 00 00 00 00 00 00 00 00 00
       0.0 0.0 0.0 0.0
0001c0 00 00 00 00 00 00 00 00 00 00 00 00 00 00 00 00
       0.0 0.0 0.0 0.0
0001d0 00 00 00 00 00 00 00 00 00 00 00 00 00 00 00 00
       0.0 0.0 0.0 0.0
0001e0 00 00 00 00 00 00 00 00 00 00 00 00 00 00 00 00
       0.0 0.0 0.0 0.0
0001f0 00 00 00 00 00 00 00 00 00 00 00 00 00 00 00 00
       0.0 0.0 0.0 0.0

network_body._body_endoder.seq_layers.2.weight f4 [128, 128]
000000 ed cf dd 3c 23 a4 8a 3d 93 8b da 3d 37 76 a0 bc
       0.027076686 0.06769588 0.10671153 -0.01958762
000010 8d d9 96 3c 5d 9c 23 be 5e 49 a5 bd 31 92 9a 3d
       0.018414283 -0.15977617 -0.08070634 0.07547415
000020 1d 29 8c bd 7c d1 b5 3d bb 2d c8 3d 12 32 c8 3c
       -0.06843779 0.088778466 0.097743474 0.024437938
000030 a6 64 11 bc 72 ce c9 bd f4 77 b2 3d 86 39 2d b9
       -0.008874094 -0.098538294 0.087142855 -0.00016519995
000040 cd 2e ac 3d bd 33 b5 3c 26 5c 42 3c 02 ba 78 3d
       0.08407364 0.022119397 0.01186279 0.060724266
000050 62 2b 8e 3d 92 be 8c bd cd 70 b6 bc 3c 16 a5 bc
       0.06941868 -0.06872286 -0.022270584 -0.020152204
000060 3e 70 32 bd 17 c1 1e bd a2 02 35 bc b2 cd dd 3d
       -0.043564074 -0.038758364 -0.011047991 0.10830249
000070 38 7e 9d bd 18 cc 80 be 41 07 cb 3c 70 e4 85 bd
       -0.0769009 -0.2515571 0.024783732 -0.065377116
000080 7b e0 50 3d bb af 8d bd b0 e3 2c 3c ae 56 af 3d
       0.05099533 -0.069182836 0.010552332 0.08561455
000090 3a b8 95 bd 78 d4 14 3d 7b a5 ab 3d 7c fa 94 3d
       -0.07310529 0.03633544 0.08381172 0.072743386
0000a0 f5 74 77 3d 5f e9 f2 bd 8c 29 48 bd b7 4c 83 3d
       0.060414273 -0.11860918 -0.048867747 0.064111166
0000b0 72 c7 11 bd c6 4f c3 3d 8e 34 6f 3c f7 81 52 3e
       -0.035590596 0.095367 0.014599932 0.2055739
0000c0 f4 92 85 bd 51 33 c2 bd e0 5d d1 3d 9d a1 cd 3d
       -0.0652217 -0.09482444 0.10222983 0.10040591
0000d0 6c 2d 75 3d 81 10 41 be 66 e0 f9 3d f3 a4 8d 3d
       0.05985777 -0.18853952 0.12201004 0.06916227
0000e0 23 36 37 3e 4e b1 a8 bc 1f 7b 68 3a 38 15 a6 3d
       0.17891745 -0.020592358 0.0008868444 0.08109516
0000f0 64 8b 02 3d 1f af a1 bd 10 35 17 3e 83 d4 37 be
       0.031871215 -0.0789473 0.14766335 -0.1795216
000100 43 12 24 3c 1b d4 05 3d bb 42 9a bc e1 2e bc bd
       0.01001412 0.032672983 -0.018830648 -0.09188629
000110 75 8d be 3d 5e e1 c8 bc 8a b3 b9 bd 26 f4 d3 3d
       0.093043245 -0.024521526 -0.090674475 0.10349302
000120 f2 95 92 3d 7b 63 cf 3b 96 42 4f 3d a2 98 c2 3c
       0.07157506 0.0063289977 0.05060061 0.023754422
000130 55 3e e1 bc 2a b0 3a be 96 b8 1a bd 48 10 e2 3c
       -0.027495543 -0.18231264 -0.03777369 0.027595654
000140 69 81 85 bd ee e3 8f 3d c0 dd 4d 3d fc 31 3b bd
       -0.06518824 0.07025896 0.050260305 -0.045701966
000150 26 e5 9a 3d 4a 3d 54 bc 09 3c 1d bd 31 9f f2 3c
       0.07563238 -0.012954066 -0.038387332 0.029616924
000160 2e 5b 54 bc 8e 09 34 bd 35 6f a7 bd ce 6d 0b be
       -0.012961192 -0.043954425 -0.08175508 -0.13616106
000170 b7 ce 86 bd 6f f8 f9 3d 89 02 b2 bc 10 db ac bd
       -0.065823965 0.12205588 -0.021729724 -0.0844022
000180 46 fc 92 bd 6a ec a6 bc b6 b8 7d bd ee f4 30 bd
       -0.071770236 -0.020376403 -0.061943732 -0.043202333
000190 7f c2 e7 3d 2b 91 4b bd 89 b6 69 be 40 41 6e bd
       0.11316394 -0.04969899 -0.22823538 -0.058167696
0001a0 a0 5f cb bd 1b 42 20 3c e3 d0 53 bc 9d d2 33 bc
       -0.099303484 0.009781386 -0.01292822 -0.010975507
0001b0 5a 44 27 3e 05 c7 67 3d 80 95 0c 3e d4 a4 3e 3c
       0.16334668 0.056586284 0.13728905 0.011635978
0001c0 91 f4 3b 3c 20 e3 f0 bd a7 7c 3f bd 0d f1 e0 3d
       0.011471883 -0.11762071 -0.046749737 0.10983477
0001d0 0b e3 dc bd de cb 27 bd 9b 78 29 3c 4c d2 a2 3d
       -0.107854925 -0.040965907 0.010343696 0.07950267
0001e0 ed a5 d4 3d 86 69 d8 3d e7 fc e5 bd 06 30 2d bd
       0.1038321 0.10567002 -0.11229878 -0.042282127
0001f0 7b 49 81 3c a5 b9 be bd c9 2b f2 bc 30 1f a5 bc
       0.015782109 -0.09312753 -0.029561894 -0.020156473
000200 3a 92 4b 3e 3e 3b 13 bb 3c 1c 9d bd 24 e6 86 bd
       0.1988 -0.002246573 -0.07671401 -0.065868646
000210 99 58 4e be fc 1b 02 be b3 0b a5 3d f9 3e 9f 3d
       -0.20150985 -0.12705988 0.08058872 0.07775683
000220 e2 a6 33 3b 82 81 bc bd 04 b6 07 3e 0b b6 af bc
       0.0027412702 -0.09204389 0.13253027 -0.02144911
000230 ed e2 a4 bd 04 4f ec bd 78 46 2b 3e 60 09 3a 3d
       -0.08051095 -0.115385085 0.167261 0.045419097
000240 43 0a ec 3d e1 9d ba bb d3 2d cc bd d1 14 cb 3c
       0.11525395 -0.00569509 -0.09969678 0.0247902
000250 d7 b7 71 3d 80 6c bc bd fa b5 ad 3d 21 18 b1 bd
       0.059013214 -0.09200382 0.08481975 -0.0864718
000260 d7 6b 13 3d ea 9a 21 39 f2 b8 1b be 58 63 e0 bd
       0.035991516 0.00015411866 -0.1520727 -0.10956448
000270 74 99 cd bc f2 87 f5 37 4c b6 43 3e 71 65 af 3d
       -0.025097586 2.926958e-05 0.1911251 0.0856427
000280 67 41 96 3d 72 dc 90 bd 62 ab be 3c fc 6c 73 3d
       0.07336693 -0.070732966 0.023275081 0.059430107
000290 e3 a0 80 bc ca 0e 22 3d 66 14 d6 3d e0 c4 97 bd
       -0.015701717 0.039564885 0.104531094 -0.07410598
0002a0 09 d3 08 be cd d4 da 3c f3 74 1e 3c e3 b1 84 be
       -0.13361754 0.0267128 0.009671438 -0.25916967
0002b0 f8 6c bc bd 37 c1 5c bd 5c 29 dd bd c1 cd bc bd
       -0.09200472 -0.0538952 -0.10798904 -0.09218932
0002c0 b1 c5 a7 3c 12 f9 44 be 4f 00 8a 3d a4 b9 86 be
       0.020480009 -0.19235638 0.0673834 -0.26313508
0002d0 58 be ce bd 85 81 13 3e 25 5c bb 3b b4 9b 84 3d
       -0.10094899 0.14404877 0.0057177716 0.064750105
0002e0 2b 43 eb 3d 38 d8 05 be 08 56 04 bd e2 77 14 be
       0.11487421 -0.13070762 -0.03230861 -0.14498857
0002f0 d3 b0 e9 bd 5b bc f0 3d da 43 42 be 63 94 72 bc
       -0.1141068 0.11754676 -0.18971196 -0.014805886
000300 00 a5 00 3e a1 fc 96 bc 1b 80 58 3d 2a af 95 bd
       0.12562943 -0.01843101 0.052856546 -0.073088005
000310 5f 18 00 bd 10 2e cc bd aa 5d 91 3d 96 97 35 3d
       -0.031273242 -0.09969723 0.07097943 0.044334017
000320 f1 04 dc 3c 83 85 21 be 31 ae 46 be 27 21 e6 3b
       0.026857825 -0.15773587 -0.19402386 0.007022995
000330 47 df 08 3e 64 58 2c 3d a3 93 c8 3b 36 f9 28 3d
       0.13366424 0.042076483 0.0061211153 0.04125329
000340 8a e4 15 3e 4c a9 cf 3d f9 cd 93 bd de 1f af bd
       0.14637962 0.10139713 -0.072170205 -0.08551
000350 04 a0 79 3d 43 d7 ee 3d 13 7f bb bd c1 79 2f bd
       0.06094362 0.11662152 -0.09155097 -0.042840723
000360 39 7c 0b 3c 7a fa ae bd 85 b1 fe bd 77 12 6f 3d
       0.008513504 -0.08543868 -0.12436203 0.05836722
000370 56 19 a2 3c 45 b8 aa bc 0b b2 14 3e 51 70 6f bd
       0.019787472 -0.02083982 0.14521043 -0.058456723
000380 93 1b 47 3e 61 58 42 3d 9d 8e a2 3b a1 ed 6b 3d
       0.19444112 0.047447566 0.0049608485 0.057599667
000390 62 e4 00 be a1 db e3 3d c3 6e 34 be 16 e1 de 3d
       -0.12587121 0.11125875 -0.17620377 0.108827755
0003a0 bb a8 40 bd 71 21 c8 bd 8c 57 db 3d 71 fe 6c bb
       -0.047035914 -0.097720034 0.107100576 -0.00361624
0003b0 fc ed 2c bd b6 01 46 bd af ab 8c 3d 70 06 37 bd
       -0.042219147 -0.048341475 0.068686835 -0.044683874
0003c0 f6 0b ab bd c3 f4 c5 3d c7 29 7b 3d 49 32 c1 bc
       -0.08351891 0.09665825 0.06131914 -0.023583548
0003d0 71 3b 1a 3d 85 7d 1a 3e 3f 7c e2 3c 39 3f 8c bd
       0.037654344 0.15086944 0.027647136 -0.06847996
0003e0 22 1b 13 3d aa ea 6e bd 75 94 7a 3e a8 f6 da 3c
       0.035914548 -0.05832926 0.24470694 0.026728943
0003f0 82 f6 91 bc a2 39 e8 bd 4f 1c a1 bb 06 ad 95 3d
       -0.01781774 -0.113391176 -0.0049167047 0.07308392

network_body._body_endoder.seq_layers.2.bias f4 [128]
000000 00 00 00 00 00 00 00 00 00 00 00 00 00 00 00 00
       0.0 0.0 0.0 0.0
000010 00 00 00 00 00 00 00 00 00 00 00 00 00 00 00 00
       0.0 0.0 0.0 0.0
000020 00 00 00 00 00 00 00 00 00 00 00 00 00 00 00 00
       0.0 0.0 0.0 0.0
000030 00 00 00 00 00 00 00 00 00 00 00 00 00 00 00 00
       0.0 0.0 0.0 0.0
000040 00 00 00 00 00 00 00 00 00 00 00 00 00 00 00 00
       0.0 0.0 0.0 0.0
000050 00 00 00 00 00 00 00 00 00 00 00 00 00 00 00 00
       0.0 0.0 0.0 0.0
000060 00 00 00 00 00 00 00 00 00 00 00 00 00 00 00 00
       0.0 0.0 0.0 0.0
000070 00 00 00 00 00 00 00 00 00 00 00 00 00 00 00 00
       0.0 0.0 0.0 0.0
000080 00 00 00 00 00 00 00 00 00 00 00 00 00 00 00 00
       0.0 0.0 0.0 0.0
000090 00 00 00 00 00 00 00 00 00 00 00 00 00 00 00 00
       0.0 0.0 0.0 0.0
0000a0 00 00 00 00 00 00 00 00 00 00 00 00 00 00 00 00
       0.0 0.0 0.0 0.0
0000b0 00 00 00 00 00 00 00 00 00 00 00 00 00 00 00 00
       0.0 0.0 0.0 0.0
0000c0 00 00 00 00 00 00 00 00 00 00 00 00 00 00 00 00
       0.0 0.0 0.0 0.0
0000d0 00 00 00 00 00 00 00 00 00 00 00 00 00 00 00 00
       0.0 0.0 0.0 0.0
0000e0 00 00 00 00 00 00 00 00 00 00 00 00 00 00 00 00
       0.0 0.0 0.0 0.0
0000f0 00 00 00 00 00 00 00 00 00 00 00 00 00 00 00 00
       0.0 0.0 0.0 0.0
000100 00 00 00 00 00 00 00 00 00 00 00 00 00 00 00 00
       0.0 0.0 0.0 0.0
000110 00 00 00 00 00 00 00 00 00 00 00 00 00 00 00 00
       0.0 0.0 0.0 0.0
000120 00 00 00 00 00 00 00 00 00 00 00 00 00 00 00 00
       0.0 0.0 0.0 0.0
000130 00 00 00 00 00 00 00 00 00 00 00 00 00 00 00 00
       0.0 0.0 0.0 0.0
000140 00 00 00 00 00 00 00 00 00 00 00 00 00 00 00 00
       0.0 0.0 0.0 0.0
000150 00 00 00 00 00 00 00 00 00 00 00 00 00 00 00 00
       0.0 0.0 0.0 0.0
000160 00 00 00 00 00 00 00 00 00 00 00 00 00 00 00 00
       0.0 0.0 0.0 0.0
000170 00 00 00 00 00 00 00 00 00 00 00 00 00 00 00 00
       0.0 0.0 0.0 0.0
000180 00 00 00 00 00 00 00 00 00 00 00 00 00 00 00 00
       0.0 0.0 0.0 0.0
000190 00 00 00 00 00 00 00 00 00 00 00 00 00 00 00 00
       0.0 0.0 0.0 0.0
0001a0 00 00 00 00 00 00 00 00 00 00 00 00 00 00 00 00
       0.0 0.0 0.0 0.0
0001b0 00 00 00 00 00 00 00 00 00 00 00 00 00 00 00 00
       0.0 0.0 0.0 0.0
0001c0 00 00 00 00 00 00 00 00 00 00 00 00 00 00 00 00
       0.0 0.0 0.0 0.0
0001d0 00 00 00 00 00 00 00 00 00 00 00 00 00 00 00 00
       0.0 0.0 0.0 0.0
0001e0 00 00 00 00 00 00 00 00 00 00 00 00 00 00 00 00
       0.0 0.0 0.0 0.0
0001f0 00 00 00 00 00 00 00 00 00 00 00 00 00 00 00 00
       0.0 0.0 0.0 0.0

action_model._discrete_distribution.branches.0.weight f4 [4, 128]
000000 5a 7b 5c 3b 40 43 63 bb 03 45 51 3a f3 a2 1f 3b
       0.003364286 -0.0034677535 0.0007983001 0.00243586
000010 65 85 68 3a e3 61 26 bb c0 15 f8 bb 25 90 0b 3c
       0.0008869975 -0.0025387935 -0.007570952 0.008518253
000020 fc ac 07 bc 53 a0 d2 bb fd 80 dd 3b 67 78 8c b9
       -0.008280989 -0.0064278035 0.0067597614 -0.00026792588
000030 76 2f 9b 3a 7f d6 eb 3a 98 74 b3 3c dd a0 5d bb
       0.0011839706 0.0017993002 0.021906182 -0.0033817806
000040 4b 3b fe bb 95 32 75 bc 22 4b 44 3c 27 56 2d bc
       -0.007758533 -0.014965673 0.011980804 -0.010579622
000050 3a 3c 8b 3c 02 cb 8a bb 2b e8 2a 3c 04 e3 bb 3b
       0.016996492 -0.004235626 0.01043133 0.0057338495
000060 7e a6 10 3c 4b 92 60 3c 2f a5 16 3a f5 ee f5 3b
       0.008828757 0.013706754 0.000574666 0.0075052925
000070 b2 89 88 3c 3c 61 28 3c 4d c0 ee bb 47 8f 80 3c
       0.01666722 0.010277089 -0.0072861076 0.01569332
000080 fb 40 00 bc d2 86 69 3c e3 ee 3a 3b 7a 68 5c bc
       -0.007827993 0.014253335 0.0028523735 -0.0134526435
000090 53 85 0a 3b d7 c7 95 3b 27 11 8e 3c d0 3a 52 bc
       0.0021136596 0.004570942 0.017342163 -0.012831405
0000a0 d9 ec a9 3b a5 38 c9 39 53 cc a2 bc a5 15 e8 3a
       0.005185705 0.0003837991 -0.01987282 0.0017706646
0000b0 84 fd aa bb ce 47 27 3b df 43 d2 bb 0b 63 8b 3b
       -0.0052182097 0.0025524977 -0.0064167823 0.00425375
0000c0 33 13 1c bc 6a 6d 12 bc bd a0 ff bb 33 6c 15 3c
       -0.009526062 -0.008937219 -0.007801144 0.009120035
0000d0 10 62 34 3b ca a7 eb 3b 6a cc a2 bc 26 56 9b 3a
       0.002752427 0.007191633 -0.019872863 0.0011851236
0000e0 1e 05 bc 3a b2 da 2a ba ed 8a 38 3b 6f 23 bb 3c
       0.0014344787 -0.00065175735 0.0028158978 0.022844044
0000f0 5c 25 3d 3c 6e f3 9e bb 77 68 56 bc 5d e7 1c 3c
       0.011544552 -0.0048507964 -0.01308643 0.009576646
000100 1b 0f ca 38 16 a6 ba 3b b9 0a 2d b9 35 bf 39 3c
       9.634924e-05 0.0056960685 -0.0001650256 0.011337091
000110 df 6a 59 bc 2f 76 48 3c ff e8 b4 3c 5b f1 3a 3c
       -0.013270109 0.012235208 0.022083757 0.011410083
000120 dc ce 00 3b df 2a d6 3b bb 4c d5 ba 99 a0 20 bc
       0.0019654548 0.0065358724 -0.0016273478 -0.009803914
000130 ce 92 8a bb c6 22 26 3c 9f f9 e7 bb 0b 25 2f 3b
       -0.0042289263 0.010140127 -0.0070793177 0.002672496
000140 42 89 fa 3b 1d ec 6f 3b e0 4c 26 bc 07 f7 ec bb
       0.007645757 0.003660924 -0.010150164 -0.0072315964
000150 07 c6 b9 3b 63 42 86 bc fa 77 64 3c 02 cb fa bb
       0.0056693587 -0.016389078 0.01394462 -0.007653595
000160 53 1a 8b 3c 19 34 22 3c b6 a3 34 39 1a fc e1 3b
       0.016980326 0.009900116 0.00017227125 0.006896508
000170 b7 cd 39 bc 77 bf 49 bb c5 b8 99 bb 33 79 89 3a
       -0.01134055 -0.0030784288 -0.0046912157 0.0010488391
000180 8c 80 16 3c fa 21 6a 3b 2b 54 da bb 66 ff 3a bc
       0.009185921 0.0035725818 -0.0066628656 -0.011413431
000190 93 35 af 3a d3 23 d6 3b 05 25 8d 3c f0 68 ee ba
       0.0013367407 0.0065350323 0.017229566 -0.0018189233
0001a0 d0 f9 b3 3b a2 fa f1 3b 78 ce 9c bc cc 50 1e 3c
       0.0054924265 0.007384614 -0.01914142 0.009662818
0001b0 3f c3 3e bc 15 55 eb 3b ce 55 14 3c e3 75 11 3a
       -0.01164323 0.0071817734 0.009053661 0.00055488775
0001c0 47 ab 89 bb 97 f7 20 3c 41 79 06 3c 93 33 57 bc
       -0.004201326 0.009824655 0.00820762 -0.013134855
0001d0 b3 cf 10 bc 6b 66 4c bc 29 09 a1 3b 2e ee 8b 3c
       -0.008838582 -0.01247559 0.004914422 0.017081346
0001e0 a3 1d cc bb 8a f0 d3 bb ad 9f 68 3c ab 01 47 3c
       -0.006229119 -0.0064678835 0.014198226 0.012146394
0001f0 37 af 52 3c d9 78 0d bc df 3a d9 b9 45 87 53 bc
       0.012859157 -0.008634769 -0.00041433328 -0.012910669
000200 6f dd 00 bc 23 7c 7d bc 3f 24 4d bb 23 b1 fe 3b
       -0.007865294 -0.015471491 -0.0031302122 0.007772581
000210 6f 86 d4 b9 ca db 70 bc 22 9e c4 ba 9f e5 19 3c
       -0.00040535952 -0.014700839 -0.001500074 0.009393125
000220 8c 5b 01 bc da 81 31 bc 9f 5d da bb 28 5f 4b ba
       -0.007895362 -0.010834182 -0.0066639925 -0.0007758015
000230 29 f5 19 3c 09 9b a7 ba 59 15 84 bc 33 45 24 bc
       0.00939683 -0.0012787293 -0.01612346 -0.010026264
000240 da 27 06 3c dc 13 35 3c 2f 5a f4 bb 90 5b ef 3b
       0.008188212 0.011052098 -0.00745704 0.0073046163
000250 a3 86 67 3c 9f 0c 34 bc b4 d0 2e 3c b9 13 45 bb
       0.014131221 -0.010989337 0.010669876 -0.003007157
000260 23 38 c3 bb d7 40 6a 3c b5 43 99 bb a3 d7 79 3a
       -0.0059576198 0.014297686 -0.0046772608 0.00095307286
000270 da 11 9a 3b d4 d7 8c 3a 34 70 9b bb 91 68 3d bc
       0.004701835 0.0010745474 -0.0047436003 -0.011560575
000280 6a 7c 85 3b 6b 12 15 3c f3 8f 18 3c 07 61 76 3a
       0.004073669 0.0090986295 0.009311664 0.00093986135
000290 11 f8 46 bc a2 04 09 bc f8 43 8d bc f3 f3 97 3b
       -0.012144105 -0.008362921 -0.017244324 0.0046372353
0002a0 c4 87 13 bc 7b e5 02 3c 2d 98 85 bc ae 02 8e 3b
       -0.009004537 0.007989283 -0.016307915 0.0043338155
0002b0 66 5c c9 bb 33 9b c4 3a d5 92 49 3b a5 4b d2 bb
       -0.006145048 0.0014999866 0.0030757685 -0.006417709
0002c0 cb 7f 02 bc 77 67 cb 3b 3e eb 89 bb cb b6 5a 3c
       -0.0079650385 0.0062074023 -0.0042089513 0.013349245
0002d0 d5 d7 f0 bb 3d 4d 4d 3c ef b2 ae bc 6a 20 1e 3c
       -0.007349948 0.012530622 -0.021325557 0.009651283
0002e0 67 40 24 3c 1a a6 f6 3a 05 6a df bb a7 09 c0 bb
       0.01002512 0.0018817813 -0.0068180584 -0.0058605256
0002f0 3c e0 2d bc c8 ef 2f bc 57 0b 56 bb e8 ed 0e 3c
       -0.010612544 -0.010738321 -0.0032660568 0.008723713
000300 ff f8 f7 bb ff f6 79 3b a8 0d e1 ba 44 4c ba ba
       -0.0075675244 0.0038141606 -0.0017170208 -0.0014213403
000310 db 3d a3 3b 4f 1a 04 bc 47 c5 aa bb b0 6d 61 bb
       0.004981739 -0.008062913 -0.0052115056 -0.0034397654
000320 a0 50 8c bb d3 9d e4 bb fd 11 f4 bb 5b 7e 01 bc
       -0.004282072 -0.006976822 -0.0074484334 -0.007903661
000330 e3 f8 f3 39 d5 ff f3 bb a7 06 cc bb 15 75 ac 3b
       0.00046534007 -0.007446269 -0.006226379 0.0052629807
000340 7b 00 19 3c eb 72 b7 3b 47 23 e4 3b 0f 05 55 bc
       0.009338493 0.005598416 0.006962213 -0.013001694
000350 9f 12 a4 3c 4f 0f 43 3c 89 74 ab bb 0f 38 79 3c
       0.02002841 0.011905505 -0.005232398 0.015211119
000360 c3 4e 65 3b bf 32 11 bc 46 17 10 bc 3d 79 e3 bb
       0.0034989573 -0.0088621965 -0.008794611 -0.006941943
000370 74 a6 cb b9 5b a6 43 3c 20 22 fa 39 5f b8 4b 3b
       -0.00038843194 0.011941518 0.0004770914 0.0031085236
000380 e7 42 b3 3a 38 70 50 3b f1 9b 49 b9 9f c8 ed 3a
       0.0013676555 0.003180517 -0.00019226946 0.0018141455
000390 f8 3b d0 ba ba 54 db bb 38 bd 48 bc af d6 1b 3c
       -0.0015887013 -0.00669345 -0.0122521445 0.009511634
0003a0 b6 c7 c0 bb c8 11 89 3b 77 89 8a bb 86 4b 03 bc
       -0.0058831824 0.004183028 -0.004227813 -0.008013612
0003b0 f4 cd 26 3c 14 6b 39 3c b4 a4 13 3a 3d a2 8a 3c
       0.010180939 0.011317033 0.00056321477 0.016923064
0003c0 7e 7d 0a bc e3 2c 30 bb 80 cc fb ba 05 98 ab bb
       -0.008452771 -0.0026882223 -0.0019210726 -0.005236628
0003d0 b9 4f 45 3c bf 58 3c 3c d7 09 a0 bb d4 06 af 3b
       0.012042933 0.011495768 -0.0048839855 0.00534139
0003e0 b3 ad d6 3b 4f 28 0c bc 8f 11 f0 bb 98 d6 4c bb
       0.0065514683 -0.008554532 -0.007326312 -0.0031255838
0003f0 b7 82 a3 3a 88 b2 c6 3b c0 a6 ec 3b b2 9e 56 bb
       0.0012474869 0.006063763 0.0072220266 -0.0032748398

action_model._discrete_distribution.branches.0.bias f4 [4]
000000 00 00 00 00 00 00 00 00 00 00 00 00 00 00 00 00
       0.0 0.0 0.0 0.0

action_model._discrete_distribution.branches.1.weight f4 [2, 128]
000000 99 cc 38 bc 00 ea 5e bb ff 4b 0e bc ba b9 eb bb
       -0.011279249 -0.0034013987 -0.008685111 -0.007193771
000010 97 bf 42 3b c8 86 4d bb a7 33 ba ba 85 3c a7 bb
       0.0029716247 -0.0031360853 -0.0014206067 -0.00510365
000020 75 a0 b4 bb c7 13 ba bb 4b b7 cd bb 85 51 dc 3b
       -0.005512292 -0.005678627 -0.0062779537 0.006723585
000030 c2 8a c1 3c 4b 05 5a ba 0f a1 91 3c f7 ee 47 3c
       0.023625735 -0.0008316829 0.017776994 0.01220297
000040 5f 61 ab bb cf 94 a6 b9 5a 60 78 bb 11 b6 97 bb
       -0.0052301134 -0.00031772858 -0.0037899227 -0.0046298583
000050 60 83 dd 3b 5d bc 30 3c 09 30 bb bb d3 4f 92 bb
       0.006760046 0.010787097 -0.0057125133 -0.004465082
000060 b3 ae dd 3b c2 64 8e bb 3b 09 cb bc 69 05 99 bc
       0.0067652105 -0.0043455074 -0.024784675 -0.018679338
000070 ba 78 f1 3b 7b c1 04 3a 45 30 ca bb 98 df 6b bc
       0.007369128 0.0005064231 -0.006170305 -0.014396571
000080 33 ff 71 3b f8 6d f7 3a 1b cd c3 bc bf 36 5e bc
       0.0036925792 0.0018877378 -0.023901513 -0.013562857
000090 9b 0b 7b bc 37 22 39 bc 55 14 6f bc 55 cb 85 3b
       -0.015322591 -0.011299661 -0.01459225 0.004083077
0000a0 c8 22 7d 3c 50 2b 92 3c ff e3 6f bc f3 68 f8 3a
       0.015450187 0.017842919 -0.014641761 0.0018952176
0000b0 6b 30 af bc a1 4a 07 3c 63 98 85 bb 74 84 9c 3b
       -0.021385392 0.008257539 -0.004077004 0.004776532
0000c0 84 ee 0b 39 7e cf 26 3c 70 94 a0 3b cf 2c f5 bb
       0.00013344927 0.010181306 0.0049005076 -0.0074821482
0000d0 ce d4 a7 bb 76 8e 19 3c 00 e2 da 3b 4f 36 61 bc
       -0.005121804 0.009372344 0.0066797733 -0.013745858
0000e0 2a e6 16 3b db 0e 25 3c 3b fd 32 ba 9e e1 ca 3b
       0.0023025372 0.010074343 -0.00068278954 0.0061914464
0000f0 89 03 1c bc 13 f7 fc bb aa 56 59 bc ee 2f a1 3b
       -0.009522327 -0.007719883 -0.013265291 0.0049190437
000100 7f ac bb bb 89 c5 0c 3c 83 ad 96 3c 9a 60 e2 ba
       -0.0057273502 0.008592018 0.018393284 -0.0017271221
000110 9f e9 c7 ba 07 d4 35 3b 00 1e 05 3c 12 19 5b 3b
       -0.001525212 0.0027744786 0.008124828 0.003343169
000120 a5 24 2d 3a a3 5c 07 bc 1f 16 01 3b ad 40 32 3a
       0.0006604887 -0.008261832 0.0019697023 0.00067997986
000130 f8 17 4b 3b 92 64 6b 3c 8c 4b c1 3b a0 34 0a bc
       0.0030989628 0.01436724 0.0058988985 -0.008435398
000140 b3 f1 ae 3a d8 86 12 3a a3 2c ef bb 24 55 24 bc
       0.0013347178 0.00055895513 -0.0072990223 -0.010030065
000150 bc 16 03 3c 28 63 33 3a 11 5d 93 bb 62 ae 10 3c
       0.008001026 0.00068430835 -0.0044971784 0.008830639
000160 a2 db 0f bb c7 78 0c bc 9b ea cb 3b e4 5f 46 bb
       -0.002195098 -0.008573717 0.0062230355 -0.0030269558
000170 df bf 67 bb 4f 98 ba 3b 88 67 67 3c 54 20 a8 bb
       -0.0035362167 0.005694426 0.014123805 -0.005130807
000180 eb 1f 8e bc 42 f0 92 bb 47 0f ca bb 4f 56 94 bc
       -0.017349204 -0.0044842074 -0.006166372 -0.018107561
000190 a8 a2 3e bc bf 0b 24 bc 2a 6c ee 3b 51 7a 03 39
       -0.01163546 -0.010012566 0.0072760778 0.000125387
0001a0 ab 41 84 bc f2 3b 17 bc 8b a7 bb 3b af 43 f1 bb
       -0.016144594 -0.009230601 0.00572676 -0.007362805
0001b0 15 c0 0e 3c a1 12 1e 3c 0f 1b ca bb 5c d5 10 3c
       0.008712788 0.009647996 -0.0061677764 0.008839931
0001c0 da 91 f2 bb f7 50 2c ba 4c 9c 0b 3b cd a4 f4 3b
       -0.007402641 -0.0006573344 0.0021302877 0.007465935
0001d0 df 11 af bc 57 ad ad 3a 4b c7 24 3c 57 b2 fb 3b
       -0.021370826 0.0013250512 0.010057281 0.007681172
0001e0 60 d0 78 bc 63 6a 94 bc 5f 26 9e ba 0b b8 02 bc
       -0.015186399 -0.018117135 -0.0012065879 -0.00797845
0001f0 8d 00 55 3a 81 50 47 bc 03 b0 47 3c ee d5 43 3b
       0.0008125387 -0.01216519 0.012187961 0.002988215
000200 75 7e b1 3b 6b 83 31 3c 0d 0d 6e 3b 67 dd 8a 3b
       0.005416686 0.010834555 0.0036323697 0.004237819
000210 d1 9e 40 bb 1f 8f 0c bb 74 2c a7 bb 0d 65 5c 3b
       -0.0029391537 -0.0021447612 -0.005101735 0.0033629567
000220 53 12 c1 3b 00 69 7c 3c d2 7c e1 b9 88 53 33 ba
       0.005892077 0.015405893 -0.00043008343 -0.0006840755
000230 15 33 b8 3b 47 a4 ec 3b 39 33 23 bc f0 2a 47 3b
       0.005621324 0.007221732 -0.009960943 0.0030390583
000240 f2 50 8e 3c cb 8d 96 bb f0 9d 9f 3b 6f 84 b0 bb
       0.017372582 -0.0045945398 0.0048711225 -0.005386881
000250 d7 74 d2 3b 58 1e 09 bb 19 71 20 bb 4b aa fd 3b
       0.00642262 -0.0020922627 -0.0024481474 0.007741248
000260 5f 8a 28 bb a8 9f 8d 3c 0a ff 18 bc 57 6c 36 bc
       -0.0025717241 0.017288044 -0.00933815 -0.011134229
000270 2d e3 ff bb 70 17 da bb 2b a3 dc bb 97 84 05 3b
       -0.007809064 -0.006655626 -0.0067333183 0.002037322
000280 22 1d 1b 3a 22 8f ab bb 22 ca 10 bb 4c f3 20 3c
       0.0005917122 -0.0052355686 -0.0022093137 0.0098236315
000290 03 3c 06 3b 0c 5f c0 ba aa 13 88 3b 43 39 9a bc
       0.0020482547 -0.0014676764 0.0041527348 -0.018826133
0002a0 bd 8c 7a bc 8a 86 f1 3a 45 e3 b4 3c df 4e b7 bb
       -0.015292344 0.0018426937 0.022081027 -0.005594119
0002b0 d7 30 e0 bb f3 41 4c bb 58 3b 5d 3b 68 58 c0 3a
       -0.0068417597 -0.0031167238 0.0033757295 0.0014674785
0002c0 c3 c3 a4 3b a2 99 6e 3c 56 c2 19 3b 7b 5c ee bb
       0.0050282194 0.014562996 0.002346178 -0.007274208
0002d0 17 38 84 3b 1b 63 e5 ba 1d 58 11 3c 97 e5 9c 3b
       0.0040350067 -0.0017500849 0.0088711055 0.0047881114
0002e0 d3 ab 9c 3b 34 e5 09 3a 9d 03 54 3b 79 08 c4 3b
       0.004781225 0.0005260289 0.0032350786 0.0059824553
0002f0 d3 a6 8f 3b 62 52 97 3b d5 52 ce b8 68 90 bb bb
       0.0043839007 0.004617975 -9.838274e-05 -0.0057240017
000300 5d c0 2b 3c 6b d9 5a 3c 5f 7c d5 3b 54 0a 3f 3c
       0.010482875 0.013357501 0.0065150703 0.011660177
000310 2c 73 29 3b 47 e4 42 3c 43 7f 98 3b 6e e0 0d 3b
       0.0025856001 0.011895246 0.0046538427 0.0021648663
000320 d2 6c 89 3a 03 3b 41 3c 81 8f 23 bb d5 a1 50 3a
       0.0010484701 0.011793855 -0.0024957361 0.0007958685
000330 f7 58 cd bb e0 4b 17 3c f0 f2 0e 3c c7 8c 8e 3a
       -0.006266709 0.009234399 0.008724913 0.0010875695
000340 2b 1e 9b 3b ac 31 3c bc 67 83 89 ba 5f 9d b0 bb
       0.004733821 -0.011486452 -0.0010491431 -0.005389854
000350 12 d9 d2 3b c3 2e 0d bb a4 dc 48 3a 49 66 86 3b
       0.006434568 -0.0021542765 0.00076622725 0.004101549
000360 d7 16 07 3c 86 7c bb ba e6 ae b6 ba 00 99 8c bb
       0.008245192 -0.0014304079 -0.0013937622 -0.0042907
000370 8f 20 ab bc e5 4d b7 bb 85 15 be 3b 2f ba ec 3a
       -0.020889549 -0.0055940025 0.005800905 0.0018060858
000380 82 47 06 bb f7 4f 2b bb 2b ec 80 3c bd 99 6d 3c
       -0.00204894 -0.0026140192 0.015737614 0.014501986
000390 bb be cb bb 1b be c6 3b fa 74 42 3c 70 d8 65 3c
       -0.006217805 0.006065143 0.01186871 0.0140286535
0003a0 12 a9 9b 3c bb 0f 17 bb 4e 65 27 bc 61 66 12 bc
       0.019001517 -0.0023050148 -0.010217024 -0.008935542
0003b0 92 12 38 bc 2f c3 32 3b ea 25 57 3b 44 d3 48 bc
       -0.011234896 0.0027276983 0.0032828995 -0.012257401
0003c0 35 a6 47 bc 18 71 48 bc 92 fe af bb 94 c7 b9 3b
       -0.012185623 -0.012233995 -0.0053709233 0.0056695435
0003d0 02 63 e9 3b b6 6a 23 3b 6c 38 00 bc 2a c5 71 bc
       0.0071223984 0.002493543 -0.007825952 -0.01475648
0003e0 53 f2 99 3c d7 f5 fb 39 94 4d 46 bb cf 01 5e 3c
       0.018792307 0.00048057616 -0.0030258643 0.013550236
0003f0 8a b6 16 39 13 54 39 bc 05 8e aa 3b 34 a5 80 b9
       0.00014373116 -0.011311549 0.0052049183 -0.00024537148

action_model._discrete_distribution.branches.1.bias f4 [2]
000000 00 00 00 00 00 00 00 00
       0.0 0.0

network_body._body_endoder.seq_layers.0.weight f4 [128, 4]
000000 fa 40 59 bf 3d ba 37 be 67 86 2a be 1e ab 21 3d
       -0.8486477 -0.17942138 -0.16652833 0.03946983
000010 dd 6a c9 3e 83 c2 74 bf 0f a0 dc bd 99 7e fe be
       0.39339343 -0.956093 -0.10772716 -0.4970596
000020 39 dc 4b 3f e9 69 be 3e 58 4c 93 3e 48 1d c9 be
       0.7963291 0.37190178 0.28769183 -0.39280152
000030 52 13 0f bd 73 a8 3d 3e 27 06 ff bd d8 ca 16 bf
       -0.034930535 0.1852129 -0.12452345 -0.58903265
000040 02 a7 6f 3e 49 fc 09 be 4c 56 0e 3f cd be 44 3e
       0.23403552 -0.13475145 0.5560043 0.1921341
000050 81 ce 33 bf b6 11 c8 3e 3b df dc 3d 37 5e 0a bf
       -0.70236975 0.39076012 0.10784765 -0.5405001
000060 bc 9e f0 bd eb 20 b9 be 3b 1e 63 bf b7 7f 1d be
       -0.11749026 -0.36157927 -0.88718003 -0.1538075
000070 d1 51 ec bd c8 0e 1d bf c4 e7 54 3f 83 ad 50 3f
       -0.11539043 -0.6135068 0.83166146 0.8151476
000080 b6 df 10 bf 00 4f 0f bf 0d 5b 78 bd 40 b8 13 3f
       -0.56591356 -0.5597992 -0.060633708 0.5770302
000090 3b 53 31 bf 9d e2 b8 be 59 fc 90 3d c6 d3 80 3d
       -0.69267625 -0.36110392 0.070793815 0.062903926
0000a0 00 d3 8a bd 07 fd 31 bf db d5 80 be 0d f7 11 bf
       -0.06778526 -0.69526714 -0.2516316 -0.57017595
0000b0 19 6e 6f 3e a1 fe 92 3e 4a 91 12 be 1c f6 87 bf
       0.23381843 0.2870989 -0.14313236 -1.0621982
0000c0 02 65 38 bf 12 69 c2 3e d6 00 71 3e ed 10 89 be
       -0.72029126 0.37970787 0.23535475 -0.26770726
0000d0 36 9f d3 be c9 61 98 3e a4 19 ac 3e ec 06 40 3f
       -0.41332406 0.29762104 0.33613312 0.7501056
0000e0 0e 33 5a 3f b5 16 00 bf 55 a7 f2 be 6f c0 25 be
       0.85234153 -0.5003465 -0.4739329 -0.16186689
0000f0 18 e7 86 be 5b 14 2c 3d 39 f4 98 3c e1 53 07 3f
       -0.26348186 0.0420116 0.018671142 0.52862364
000100 08 4a 29 be e8 69 d6 be 72 ab e2 bd 69 ee 6c be
       -0.16532147 -0.41877675 -0.11067857 -0.23137821
000110 5c 0d 8d be c1 bf 96 be ed bc 2d bd 6a d5 3f be
       -0.27549255 -0.29443172 -0.0424165 -0.18733755
000120 e9 ea 85 3f a4 f6 2e bf 02 68 2e bf 77 f8 1a 3f
       1.0462314 -0.68345094 -0.68127453 0.6053538
000130 ae e9 54 bd 37 0e 31 3d dd 63 0f 3f d6 19 b1 bc
       -0.051980667 0.043226447 0.56011754 -0.021618765
000140 eb 06 ac bd e5 8d d4 3e aa 5a 61 3d 70 63 29 3f
       -0.08399757 0.41514507 0.055018105 0.66167355
000150 5c c3 a4 bf da 5f 2a 3f 44 94 29 bf ed 59 f1 be
       -1.2872119 0.6655251 -0.6624186 -0.4713892
000160 02 28 bf 3d 35 b7 75 3e 2d e1 27 3f 07 63 54 bf
       0.09333803 0.23995669 0.65577966 -0.82963604
000170 3f 82 1d 3f a4 0a c4 be 29 d8 2a be f9 1f 7e bc
       0.61526865 -0.38289368 -0.16684021 -0.015510553
000180 e5 04 0b 3f 11 99 8f 3e 7d 4b c4 3e df a6 92 bf
       0.54304343 0.28046468 0.38338843 -1.1457175
000190 d4 35 44 bf 9d 17 de 3e 59 73 59 3e a9 b5 d9 be
       -0.76644635 0.4337739 0.21235408 -0.42521408
0001a0 b3 60 b0 3e af a9 92 3e 8c 3d 71 be 9d fe 1a 3f
       0.34448776 0.28645083 -0.23558635 0.6054476
0001b0 0e 03 39 bf 28 41 e6 3d 0e 46 e7 3e 9d 47 b8 3e
       -0.72270286 0.11242896 0.45170635 0.35992137
0001c0 70 c2 59 3f ca 6c 90 3e d2 64 34 3e 4d 05 55 bf
       0.85062313 0.28208 0.17616585 -0.83211213
0001d0 ea fe 44 3e e1 06 6f be 76 a3 ef 3d e8 3c 64 be
       0.19237867 -0.23342468 0.117010996 -0.22288859
0001e0 5c 49 88 be 78 a2 0f bf af 49 07 be f9 ff ec 3a
       -0.2661847 -0.5610728 -0.13211702 0.0018081657
0001f0 af 44 ee 3e c9 f6 8f be 76 f2 bf 3c cb eb 4d be
       0.46536776 -0.2811797 0.023431044 -0.20109479
000200 2e 10 ce bd c9 2f 2c be ec 35 03 be 33 fc 2f 3e
       -0.1006168 -0.16815104 -0.12813538 0.1718605
000210 95 72 bc 3e 39 92 4d be e9 e4 9f 3e d5 0d 40 be
       0.3680617 -0.20075311 0.31229332 -0.18755277
000220 3d 94 83 be 74 9f 99 3e 9c 6f 05 bd b8 9f da 3e
       -0.25699034 0.30004466 -0.032577142 0.4269998
000230 cb f1 fa 3d d3 6e dc 3d 84 97 9a bc fa 7c 58 3f
       0.122531496 0.107633255 -0.018871076 0.845657
000240 46 49 dc 3e 48 de 29 3f 97 78 b6 3d b6 8d 1e be
       0.43024653 0.663548 0.089097194 -0.15483746
000250 df d6 c9 3d 28 65 f0 3e cf 6e 0b bf 85 00 96 3e
       0.098554365 0.46952176 -0.54465955 0.2929727
000260 d2 3b c2 be c3 9b 33 be 68 33 e7 3e d1 c7 ae 3c
       -0.37936264 -0.17539887 0.45156407 0.021335514
000270 01 2e 1b be 05 88 a5 3e a3 8a c0 3e 33 3e f3 3e
       -0.15154268 0.32330337 0.3760577 0.47508392
000280 e5 6d be be 96 25 30 bf 3e 93 60 3d cc a0 5f be
       -0.37193218 -0.6880735 0.05482792 -0.21838683
000290 18 b2 af be 18 47 e7 bd 11 6f ee 3e 2d 21 87 3f
       -0.34315562 -0.11292857 0.46569112 1.0557
0002a0 30 ec 48 be e7 dc 90 bd da 94 52 be c4 9d 16 bf
       -0.19621348 -0.07073384 -0.20564595 -0.5883448
0002b0 0f 14 84 3d c4 a0 c8 3b 6a c0 0b bf 31 18 ec 3e
       0.064491384 0.0061226804 -0.54590476 0.46112207
0002c0 e9 c7 2a bf f3 9e c7 be 9c 70 1e 3f 89 44 06 3f
       -0.6671129 -0.38988456 0.6189058 0.52448326
0002d0 98 28 e8 be 83 8e e5 3e 4a de 62 3d 47 9c 03 3d
       -0.4534347 0.4483529 0.055387773 0.03213146
0002e0 64 6a 43 3e a0 9f 54 3f 15 68 5e be e1 f3 25 bf
       0.19083554 0.8305607 -0.21719392 -0.64825255
0002f0 2f cc 1a 3f 3b c9 aa bd 1a 62 5a 3f a4 40 6c bf
       0.6046781 -0.08339163 0.8530594 -0.92286134
000300 66 aa e5 bc 01 96 83 be 63 3c 64 be 4b 69 e8 be
       -0.028035354 -0.2570038 -0.2228866 -0.45392832
000310 20 24 71 be 51 f7 a3 be 3d af 4e 3e c7 92 df 3d
       -0.23548937 -0.32024625 0.20184036 0.109166674
000320 87 3e d2 be be 98 16 be 7e bf 62 3d 87 af 86 3e
       -0.4106333 -0.14706704 0.055358402 0.26305792
000330 c8 a8 57 3e 87 7a 15 3f ec 16 a4 3e 3f 9b 86 be
       0.21060479 0.58390087 0.32048738 -0.26290318
000340 f1 03 72 3e bf d8 00 bf d4 25 b4 3d e0 59 1a 3e
       0.23634316 -0.5033073 0.08796278 0.15073347
000350 09 21 9a 3e d0 b5 33 3f 55 7b 5c 3f ef 2b a5 3e
       0.3010333 0.701993 0.8612569 0.3226008
000360 b8 31 77 3f e8 3d 85 bf 63 68 01 bf 06 3c 11 be
       0.9656024 -1.0409517 -0.50549906 -0.14183053
000370 f5 73 3c 3e 61 78 28 3f 25 1e ca bd 65 34 88 bf
       0.18403609 0.65808684 -0.09869031 -1.064099
000380 11 81 27 bf e1 ec 9e bd 0a 3c ea be 35 ff 84 be
       -0.65431315 -0.07760025 -0.4574893 -0.25975958
000390 23 0a 2a 3f 50 b3 0b 3f d0 ec 7e be 45 b2 4f 3f
       0.6642172 0.54570484 -0.24895024 0.8113139
0003a0 06 83 17 be 2e 0e 3b bf 95 10 15 bf 87 14 3a 3e
       -0.14796075 -0.7306851 -0.5822843 0.18171893
0003b0 20 a0 ac 3e f3 4b 59 3f 4a 39 29 bc 80 ba 6a bd
       0.33715916 0.84881514 -0.0103286 -0.057306767
0003c0 23 cb 62 bc 15 49 cb be 53 93 13 3e 98 5b d9 bd
       -0.013842377 -0.39704195 0.14411668 -0.10613173
0003d0 b8 bf be bc 4e ed d5 be 5f e3 80 3d 6b b2 da 3e
       -0.023284778 -0.41782612 0.062933676 0.42714247
0003e0 05 92 d9 bd 93 2f 0f bf 50 aa 43 bf be 59 45 3f
       -0.10623554 -0.5593197 -0.7643175 0.7709006
0003f0 fb ac 8f 3f 95 e0 55 3e 94 81 28 3f 0a fa 33 be
       1.1224664 0.20886452 0.6582272 -0.17575851

network_body._body_endoder.seq_layers.0.bias f4 [128]
000000 00 00 00 00 00 00 00 00 00 00 00 00 00 00 00 00
       0.0 0.0 0.0 0.0
000010 00 00 00 00 00 00 00 00 00 00 00 00 00 00 00 00
       0.0 0.0 0.0 0.0
000020 00 00 00 00 00 00 00 00 00 00 00 00 00 00 00 00
       0.0 0.0 0.0 0.0
000030 00 00 00 00 00 00 00 00 00 00 00 00 00 00 00 00
       0.0 0.0 0.0 0.0
000040 00 00 00 00 00 00 00 00 00 00 00 00 00 00 00 00
       0.0 0.0 0.0 0.0
000050 00 00 00 00 00 00 00 00 00 00 00 00 00 00 00 00
       0.0 0.0 0.0 0.0
000060 00 00 00 00 00 00 00 00 00 00 00 00 00 00 00 00
       0.0 0.0 0.0 0.0
000070 00 00 00 00 00 00 00 00 00 00 00 00 00 00 00 00
       0.0 0.0 0.0 0.0
000080 00 00 00 00 00 00 00 00 00 00 00 00 00 00 00 00
       0.0 0.0 0.0 0.0
000090 00 00 00 00 00 00 00 00 00 00 00 00 00 00 00 00
       0.0 0.0 0.0 0.0
0000a0 00 00 00 00 00 00 00 00 00 00 00 00 00 00 00 00
       0.0 0.0 0.0 0.0
0000b0 00 00 00 00 00 00 00 00 00 00 00 00 00 00 00 00
       0.0 0.0 0.0 0.0
0000c0 00 00 00 00 00 00 00 00 00 00 00 00 00 00 00 00
       0.0 0.0 0.0 0.0
0000d0 00 00 00 00 00 00 00 00 00 00 00 00 00 00 00 00
       0.0 0.0 0.0 0.0
0000e0 00 00 00 00 00 00 00 00 00 00 00 00 00 00 00 00
       0.0 0.0 0.0 0.0
0000f0 00 00 00 00 00 00 00 00 00 00 00 00 00 00 00 00
       0.0 0.0 0.0 0.0
000100 00 00 00 00 00 00 00 00 00 00 00 00 00 00 00 00
       0.0 0.0 0.0 0.0
000110 00 00 00 00 00 00 00 00 00 00 00 00 00 00 00 00
       0.0 0.0 0.0 0.0
000120 00 00 00 00 00 00 00 00 00 00 00 00 00 00 00 00
       0.0 0.0 0.0 0.0
000130 00 00 00 00 00 00 00 00 00 00 00 00 00 00 00 00
       0.0 0.0 0.0 0.0
000140 00 00 00 00 00 00 00 00 00 00 00 00 00 00 00 00
       0.0 0.0 0.0 0.0
000150 00 00 00 00 00 00 00 00 00 00 00 00 00 00 00 00
       0.0 0.0 0.0 0.0
000160 00 00 00 00 00 00 00 00 00 00 00 00 00 00 00 00
       0.0 0.0 0.0 0.0
000170 00 00 00 00 00 00 00 00 00 00 00 00 00 00 00 00
       0.0 0.0 0.0 0.0
000180 00 00 00 00 00 00 00 00 00 00 00 00 00 00 00 00
       0.0 0.0 0.0 0.0
000190 00 00 00 00 00 00 00 00 00 00 00 00 00 00 00 00
       0.0 0.0 0.0 0.0
0001a0 00 00 00 00 00 00 00 00 00 00 00 00 00 00 00 00
       0.0 0.0 0.0 0.0
0001b0 00 00 00 00 00 00 00 00 00 00 00 00 00 00 00 00
       0.0 0.0 0.0 0.0
0001c0 00 00 00 00 00 00 00 00 00 00 00 00 00 00 00 00
       0.0 0.0 0.0 0.0
0001d0 00 00 00 00 00 00 00 00 00 00 00 00 00 00 00 00
       0.0 0.0 0.0 0.0
0001e0 00 00 00 00 00 00 00 00 00 00 00 00 00 00 00 00
       0.0 0.0 0.0 0.0
0001f0 00 00 00 00 00 00 00 00 00 00 00 00 00 00 00 00
       0.0 0.0 0.0 0.0

network_body._body_endoder.seq_layers.2.weight f4 [128, 128]
000000 f4 53 98 3c bc b7 58 3d 54 66 2e bd 8a 69 17 3d
       0.01859472 0.052909598 -0.042578056 0.036965884
000010 c8 01 21 3d 1a ff fe 3c 3e 37 4b bd 96 29 87 3d
       0.03930834 0.031127501 -0.04961323 0.06599729
000020 d4 8a 55 3d a9 d1 0c 3d 3d 64 1b bc d3 d5 2d 3e
       0.05213435 0.034379635 -0.009484348 0.16976099
000030 cb 0d f1 bc 4e 0d b9 3d fa 26 69 3b 2c 13 53 bd
       -0.029425522 0.09035741 0.003557621 -0.051531956
000040 38 12 30 3d 88 11 c2 3c 13 a7 fd 3d 42 28 11 bd
       0.042986125 0.02369 0.123853825 -0.035438783
000050 40 4b aa bd ed 23 b9 3d 5f 0b 82 bd 9e 67 08 bd
       -0.08315134 0.090400554 -0.06349825 -0.033301942
000060 4d 9e 03 be 1f 1a 9e 3d e2 7f 85 3b 5a 17 d1 bd
       -0.12853356 0.07719826 0.0040740827 -0.10209532
000070 6a 09 30 bd 00 f3 a2 3a 13 d7 07 3d 2d 66 16 3e
       -0.042977728 0.0012432039 0.033164095 0.14687414
000080 6c a7 1e 3d b2 f3 12 bd a7 59 4b bc 94 89 df bc
       0.038733885 -0.035876937 -0.0124115115 -0.027287282
000090 50 89 a3 3d 29 58 97 bd 78 4b d6 3b af bd e6 bc
       0.07985175 -0.07389862 0.0065397583 -0.02816662
0000a0 ed 93 32 3e bd e0 cb bb b9 2e b7 3d f7 88 8b bd
       0.17439242 -0.0062218593 0.089444585 -0.06813233
0000b0 9b 68 e6 bd 3f 08 4c be ed 29 0a 3e ef 4a 56 3b
       -0.11250421 -0.1992502 0.13492556 0.0032698472
0000c0 9f 7b 6e be e0 c4 fd bc 5f 93 ee 3d a9 24 e4 3b
       -0.23289345 -0.030977666 0.116492026 0.006962378
0000d0 3f e4 08 3e 65 7d 03 be 39 2c 8c bd 3a 6c 14 bd
       0.13368319 -0.12840803 -0.06844372 -0.036236025
0000e0 6f 7c d0 3d 56 69 da bd b1 8a ba bd 71 d6 cb bd
       0.10179984 -0.106646225 -0.091084845 -0.09953011
0000f0 da d7 f4 3b dc 38 46 bd 27 5b 83 bd 39 87 10 be
       0.0074720206 -0.04839407 -0.0641387 -0.14114083
000100 1f 46 9b 3b 5a 17 4e 3d 1e 43 ec bd c0 ae 92 bd
       0.0047385837 0.05031524 -0.11536239 -0.07162237
000110 33 25 ec 3d 75 32 40 bd 4a c2 91 bc e2 fe 92 bd
       0.11530533 -0.04692312 -0.01779284 -0.07177521
000120 62 67 67 3c 7a e6 2f bc 87 b7 60 3e 32 9d 08 3d
       0.0141237695 -0.010736102 0.2194501 0.033353038
000130 b2 42 a8 3d e1 54 1a be 61 71 b4 3d 58 83 10 be
       0.08215846 -0.15071441 0.08810688 -0.14112604
000140 f3 6e 1c 3c da 63 29 bd ed 69 fc bc 6d 6c 84 3c
       0.009547937 -0.04135499 -0.030812228 0.016164983
000150 6e 65 98 3d c1 2c fc 3c f9 9d 94 bd 21 98 3d 3d
       0.07441221 0.03078306 -0.072566934 0.04628766
000160 40 d4 1c 3c cf 12 e9 3d f2 72 91 3c 3a 08 0e 3d
       0.009572089 0.113805406 0.017755006 0.034675814
000170 36 b0 8a 3d e4 a3 89 bd dd 91 26 3d f2 e0 d8 bd
       0.06771891 -0.06720713 0.04066645 -0.1058978
000180 b8 1b d5 3d 7e 7f 81 bd f2 8e c2 3b 2c a5 10 3d
       0.104056776 -0.06323145 0.0059374506 0.03531377
000190 94 be a1 bd c6 e0 ae bc 97 f8 66 3d 5f c0 c2 bd
       -0.07897678 -0.021347415 0.056389417 -0.09509348
0001a0 a5 ce 00 3e 62 46 5c bd b7 91 a4 3d f3 0c de bd
       0.12578829 -0.05377806 0.080356054 -0.108423136
0001b0 f2 50 09 be 7c 81 4c bd 22 1a c3 3d 3b 92 53 3c
       -0.13409784 -0.049928173 0.09526469 0.012913282
0001c0 81 45 21 3e 82 5a 22 3d 0c f1 02 3e aa a9 45 be
       0.1574917 0.039637096 0.12787265 -0.19303003
0001d0 8c 74 27 be 1d 41 a1 3d a2 00 0b be 5e 11 f6 3d
       -0.16353053 0.078737475 -0.1357446 0.12015031
0001e0 4a ce 9a bc ee cf 98 bc b4 b3 09 3c 6c fb ea bd
       -0.018897194 -0.018653836 0.008404661 -0.11473736
0001f0 dc 53 97 3a bf b5 16 3d 99 f3 2e be 07 d1 e3 3c
       0.0011545378 0.03679442 -0.17085113 0.027809633
000200 15 31 8f 3d e4 a5 e4 bd 06 d6 52 bc 93 16 32 3e
       0.069917835 -0.111644536 -0.01286841 0.17391424
000210 c5 db 09 be 61 15 35 3d 36 68 62 3d fa c4 d8 bc
       -0.13462742 0.04420984 0.055275165 -0.026461113
000220 55 a8 14 3e 8b 2f 34 bc 2f 2c 35 bc a7 cb 8b bd
       0.14517339 -0.010997663 -0.0110578975 -0.06825953
000230 c7 e0 63 bd d4 ef 6f 3e 21 fa 29 3d 38 6c 0b be
       -0.055634286 0.23431331 0.041498307 -0.13615501
000240 f5 68 9a bc 10 5f a0 bd b3 14 27 be 1e 87 d9 bd
       -0.018848876 -0.07830632 -0.1631649 -0.10621475
000250 7f 11 35 bd 4d bd 30 3d 4b 83 9b bd 76 9b 27 be
       -0.04420614 0.04314928 -0.075934015 -0.16367897
000260 6f f3 e0 bd 4a 13 e8 3d ed e3 b3 bd 3f fe 0a bd
       -0.10983931 0.11331804 -0.08783708 -0.033933874
000270 3a d1 15 bd ed a2 31 3d 72 82 54 bd 33 38 35 bd
       -0.036576487 0.04336827 -0.051882215 -0.04424305
000280 24 26 e4 3d f2 74 d2 bd f4 b6 b0 3d 02 f9 21 3e
       0.11140087 -0.10276212 0.086286455 0.15817645
000290 69 ee 9f 3d 77 af 31 3d 8a 8b 4e 3c 4a 65 b6 bd
       0.07809145 0.043380227 0.012606511 -0.08906038
0002a0 e3 26 10 bd 0e 6b 66 3d 20 04 f2 bd 6b ce 9c bd
       -0.035193335 0.05625444 -0.11817193 -0.076565586
0002b0 e4 62 24 3e b4 a8 c8 3c bd a2 5e bd 6e b3 bb bc
       0.16053349 0.024494506 -0.054354418 -0.022912707
0002c0 c7 b1 ae 3d 7f 39 48 bb 42 4c 13 3e 43 38 09 bd
       0.08530002 -0.0030551848 0.14384559 -0.03350092
0002d0 30 d9 e2 bd 34 af 4e 3a 44 2d f1 3d cf 53 30 3e
       -0.110765815 0.00078843837 0.11776212 0.1721947
0002e0 5e ff 06 3d 9e 2c 41 be 64 7f bd 3d 6a 6c 52 3d
       0.03295838 -0.18864676 0.092528135 0.051372923
0002f0 4b 8a c5 bd 99 d2 17 3c 35 4f c8 3d d5 81 8c bd
       -0.09645518 0.009266519 0.097807325 -0.06860701
000300 51 af 4a bd 42 77 b2 3d d7 ba a1 bc 33 04 82 bd
       -0.0494836 0.08714153 -0.019742412 -0.06348457
000310 3f 53 b8 bb f2 7a 5c bd 41 be 10 3d 92 17 13 3d
       -0.005625158 -0.053828187 0.03533769 0.03591115
000320 31 2d 2b bd 3d a0 8f bd 6a b2 4f 3e 59 e9 93 bd
       -0.041791145 -0.07012985 0.20282903 -0.07222242
000330 d4 50 3f bd bc 8f ee 3c 18 ca 96 3c 90 31 20 be
       -0.046707943 0.029121272 0.018406913 -0.15643907
000340 4f c3 8d bd 3b 17 8b 3d 09 8a 89 bd 15 ea 85 3c
       -0.06922018 0.0679154 -0.06715781 0.01634697
000350 d1 4d 03 3e b7 0c 1c 3e ea 0d 5e bd a3 81 c7 bd
       0.12822653 0.15239225 -0.05421249 -0.09741523
000360 7b 84 1b 3b 64 38 22 3e 76 7c 2d 3d b6 03 44 3d
       0.0023730088 0.15841824 0.042355023 0.0478551
000370 4b d2 c9 3c ec b8 67 3b b2 0f 8e 3d 6f 3a c3 bd
       0.024636408 0.0035358025 0.069365874 -0.0953263
000380 cc 9e 0d 3c c8 69 bf 3d 43 a7 a1 3c 09 1e 10 3e
       0.008643817 0.09346348 0.019733077 0.14073958
000390 f0 95 ec 3d 4f b6 a4 3b bb f1 6b 3e 03 0e 80 3d
       0.11552036 0.0050266157 0.23041432 0.062526725
0003a0 08 b8 18 bd c3 6a f9 bd 0c a7 99 3c 10 2b a4 bd
       -0.03728488 -0.12178566 0.018756412 -0.08016026
0003b0 dc f5 11 be 30 71 c7 3d 80 7e 76 bc cc e5 80 bd
       -0.14253944 0.09738386 -0.015044808 -0.0629383
0003c0 a2 5f e9 3d bb 6d 05 3a 92 44 24 bd 53 10 b3 bd
       0.11395194 0.00050898985 -0.040104456 -0.08743348
0003d0 fb d8 8d bc 07 5c 28 3e 72 12 32 3d 86 81 40 3c
       -0.017315378 0.16441356 0.043474622 0.011749631
0003e0 80 13 99 3d cf 52 b9 3c 28 d8 64 bd d0 08 d0 3d
       0.074744225 0.022622494 -0.055870205 0.10157931
0003f0 45 b4 a7 bd dc f7 78 bd 0b 4c 05 3e fa 38 42 3e
       -0.081886806 -0.060783252 0.1301729 0.18967047
