results/ppo/MoveToGoal/MoveToGoal-53393.onnx (onnx, 74722 bytes, 9 tensors)

action_model._discrete_distribution.branches.0.bias f4 [4]
0	0xbab5618b	-0.0013838274
1	0x3c577f0d	0.01315285
2	0xbc70cf78	-0.014697902
3	0x3b9d7fe5	0.004806506

action_model._discrete_distribution.branches.0.weight f4 [4, 128]
0	0x3c83ba78	0.016080126
1	0xbce29122	-0.027657095
2	0x3c453fcc	0.012039136
3	0x3ba4286e	0.0050097024
4	0x3ccc803b	0.024963489
5	0xbc5e723e	-0.013577042
6	0xba9dfe3c	-0.0012053917
7	0xbc093a61	-0.008375735
8	0x3b8b8934	0.0042582992
9	0x3b8f0bd0	0.004365422
10	0xbbf6000c	-0.00750733
11	0xbb5a5684	-0.0033315727
12	0xbb1fa8d4	-0.0024362104
13	0xbc33fe10	-0.010985866
14	0x382d2d35	4.1288517e-05
15	0xbb61b81c	-0.0034442013
16	0x3b1e950b	0.0024197723
17	0xbb184f9d	-0.0023240813
18	0x3c344aa8	0.011004128
19	0xbc417644	-0.011807982
20	0x3b005794	0.001958345
21	0xbc8ef8ea	-0.017452676
22	0x3bdd6b37	0.006757166
23	0x3c1442c8	0.009049125
24	0xb8a550ab	-7.882839e-05
25	0x3bf31aa3	0.007418947
26	0xbd1758c2	-0.03694988
27	0x3b4f189a	0.0031600357
28	0x3caf9b20	0.021436274
29	0xbb2bc647	-0.0026210712
30	0xbc3e9a5b	-0.011633481
31	0xbc478731	-0.012178228
32	0x3c7ed3ef	0.015553459
33	0xbc072953	-0.008249599
34	0xba96dace	-0.0011509301
35	0xbca117b2	-0.01966462
36	0x3c584175	0.0131992
37	0xba109f34	-0.0005516887
38	0xbae33af3	-0.0017336294
39	0xbc2788a5	-0.01022545
40	0xbc1fb0ab	-0.009746711
41	0xbc131e03	-0.008979323
42	0xbbccac31	-0.0062461128
43	0xbbde3ea0	-0.006782368
44	0xbc91070f	-0.017703561
45	0x3af87301	0.0018955172
46	0xbacac3ad	-0.0015469693
47	0x3c0cd0e2	0.008594723
48	0x3a248e91	0.00062773476
49	0x3c819ed4	0.015822805
50	0x3ba65657	0.0050762105
51	0xbbcbebe4	-0.0062231887
52	0xbc45696c	-0.01204906
53	0x3c20f131	0.0098231295
54	0x3b693ab6	0.0035587973
55	0x3cb546d1	0.022128494
56	0xbbeb6e9b	-0.007184816
57	0x3b4ebc63	0.0031545393
58	0x3ad56bb8	0.0016282713
59	0x3c9204c9	0.017824547
60	0xbb843b8c	-0.004035419
61	0x3bca222a	0.0061686235
62	0xbbc73344	-0.0060791094
63	0xbb98dfbe	-0.004665344
64	0xbca0d0ab	-0.01963075
65	0x3c19cdef	0.009387477
66	0x3b01e42b	0.0019819837
67	0xbc3aebd4	-0.011408765
68	0x3c5855c4	0.013204042
69	0xbbae74bb	-0.005323974
70	0xbb4488ac	-0.002998869
71	0x3bf9fc80	0.0076289773
72	0x3c0d6c6c	0.008631807
73	0x3a30435b	0.0006723904
74	0xbb5e5d82	-0.0033930247
75	0xbb1acfd2	-0.0023622406
76	0xb9deeb8f	-0.00042518644
77	0xbc54a4a4	-0.0129787065
78	0x3c0e88fd	0.008699653
79	0x3c0b9f84	0.008521918
80	0x38965461	7.168274e-05
81	0x3c497e46	0.012298172
82	0xbc339e8d	-0.010963094
83	0xbac0ceb1	-0.0014710036
84	0xbb21e631	-0.0024703855
85	0xbb69c17e	-0.003566831
86	0x3af16f16	0.0018419947
87	0x3bca2274	0.006168658
88	0x3c9e3b95	0.01931552
89	0xbca82387	-0.020524753
90	0xbbec4e2b	-0.007211467
91	0xbc43204a	-0.011909554
92	0xbc478e07	-0.012179858
93	0xbc90401d	-0.017608697
94	0x3c56bee3	0.013107034
95	0x3c17bdf1	0.009261594
96	0xbb088331	-0.002083015
97	0xba87ed85	-0.0010370469
98	0xbc148b95	-0.009066482
99	0xbb9b9b68	-0.0047487505
100	0x3b86902c	0.004106542
101	0x3c224918	0.009905122
102	0x3c0cd382	0.008595349
103	0xbc353921	-0.011060984
104	0x3aaf2aae	0.001336416
105	0xbad63ebf	-0.0016345604
106	0xbc4e64ef	-0.012597307
107	0x3b4c8f07	0.003121318
108	0xba75c604	-0.0009375515
109	0x3a6f5d0d	0.0009130992
110	0xbc6f3c4a	-0.014601776
111	0x3bf386ce	0.0074318415
112	0xbc12b0dc	-0.008953299
113	0x3b8454b9	0.00403842
114	0xba246bf0	-0.00062721875
115	0xbc6716c5	-0.01410455
116	0x3c4dba86	0.012556678
117	0xbc83ef33	-0.01610527
118	0xbb7e7296	-0.0038825623
119	0xbbff1a94	-0.007785151
120	0x3b148747	0.002266364
121	0xbb96fc9b	-0.0046077496
122	0xbbae9aba	-0.0053285034
123	0x3c8dc268	0.017304614
124	0x3aa486a7	0.0012552337
125	0xbad8dbc6	-0.001654499
126	0x3b99b082	0.004690231
127	0x3abb108b	0.0014271898
128	0xb93e0592	-0.00018121887
129	0x3bb4cc9d	0.005517556
130	0x3d035374	0.03206201
131	0xbc5ce9f1	-0.01348351
132	0xbc8e04cf	-0.017336277
133	0x3c3fdec3	0.011710825
134	0xbc8476a8	-0.016169861
135	0xbbe86405	-0.0070920014
136	0xbcc8dc7d	-0.0245192
137	0x3c9ad560	0.018900573
138	0x3afd6795	0.0019333238
139	0xbc2c0298	-0.010498665
140	0x3c83c389	0.01608445
141	0x3ca935ba	0.020655502
142	0xbb88fe4e	-0.004180706
143	0xbc09c55c	-0.008408871
144	0xbc1ea40a	-0.009682665
145	0xbca36e98	-0.019950196
146	0xbc878c03	-0.016546255
147	0x3c9aa081	0.018875362
148	0x3c9e0c1d	0.019292885
149	0xbb6e7a00	-0.0036388636
150	0x3c7a100c	0.015262615
151	0x3c6eaadb	0.014567102
152	0xbc2d2bd3	-0.010569531
153	0x3cc90215	0.024537126
154	0xba9dd9a4	-0.0012043011
155	0x3c6bd454	0.014393885
156	0xbc3abe6e	-0.011397941
157	0x3c3e3563	0.011609408
158	0x3c68034f	0.014160945
159	0x3c3b9b8b	0.011450659
160	0xbc24b7b2	-0.010053562
161	0x3b0d06d0	0.0021518953
162	0x3c7cd82a	0.015432397
163	0x3cd82e67	0.026389314
164	0xbcbb30c4	-0.022850402
165	0x3b18c666	0.0023311614
166	0xbcc57e0a	-0.024107952
167	0x3c873f5f	0.01650971
168	0xbc0b1232	-0.008488225
169	0x3cbece2c	0.02329167
170	0xbbd3c872	-0.006463104
171	0xbc392457	-0.011300168
172	0x3b2e0506	0.0026553287
173	0x3c2adb62	0.0104282815
174	0x3c3bbc3a	0.011458451
175	0x3c8959b3	0.016766405
176	0x3c2d882c	0.010591548
177	0x3c6f8222	0.014618428
178	0x3c806d77	0.015677197
179	0xbc1dea10	-0.009638324
180	0x3c75c8d7	0.015001497
181	0xbc814b1f	-0.01578289
182	0xbc1d435d	-0.00959858
183	0xbaf27671	-0.0018498433
184	0x3c1839ee	0.009291155
185	0x3c946a71	0.018117161
186	0x3c5327f5	0.0128879445
187	0x3caf2b21	0.02138287
188	0x3c81b5d7	0.015833778
189	0x3c3685f0	0.011140332
190	0x3c788eec	0.015170794
191	0xbc2a6b49	-0.010401555
192	0x3afbe642	0.0019218402
193	0x3ccaa88e	0.024738576
194	0xbc8397e4	-0.016063638
195	0xbca8bd5c	-0.020598106
196	0x3cc7dee9	0.024398284
197	0xbae23f36	-0.001726127
198	0x3a48a832	0.00076544576
199	0xbb39814e	-0.0028305831
200	0xbc16bb67	-0.009199954
201	0x3cabe85e	0.020984825
202	0x3a64c938	0.00087274937
203	0xbc85b7c0	-0.01632297
204	0x3b102ac6	0.0021998151
205	0xbc3dfd60	-0.011596054
206	0x3c405eb1	0.011741326
207	0xbc3eda17	-0.011648676
208	0xbc01c30d	-0.007920039
209	0xbbccb1a4	-0.0062467624
210	0xbc912eab	-0.017722448
211	0xbc433880	-0.011915326
212	0x3c765d72	0.015036928
213	0x3b487901	0.0030589702
214	0x3cf0ea8e	0.02940872
215	0x3c4bb939	0.012434297
216	0xbc8f8251	-0.017518194
217	0xbc23fd29	-0.010009089
218	0x3d0976ff	0.03356075
219	0x3bf37688	0.0074299015
220	0xbc9e70c5	-0.019340882
221	0xbbc18e28	-0.005906839
222	0x3c959c3e	0.018262979
223	0xbac27a65	-0.0014837502
224	0xbc90d9ed	-0.01768204
225	0x3c169ee8	0.00919316
226	0xbb942fea	-0.0045223134
227	0x3c8b6cf7	0.017019732
228	0x3b754c21	0.003742941
229	0x3ce2d41f	0.027689038
230	0xbcca2096	-0.024673741
231	0xbc662207	-0.014046199
232	0x3cf1fad7	0.029538555
233	0xbbd882d9	-0.006607395
234	0xba98172c	-0.0011603585
235	0xbc9f5e11	-0.019454034
236	0xbc7d6b2c	-0.015467446
237	0x3ca0263f	0.019549487
238	0x3b89b777	0.004202779
239	0x3bca4952	0.0061732912
240	0xbc9eb58f	-0.019373683
241	0xbc02eaf3	-0.007990587
242	0xbcb3baca	-0.021939654
243	0xbc4cbe1b	-0.012496497
244	0x3c1adf80	0.009452701
245	0xbc747f7a	-0.014922971
246	0x3ca9505b	0.0206682
247	0x3ce928f6	0.028461915
248	0x3a378590	0.00070007984
249	0x3c802a18	0.015645072
250	0x3bdf6580	0.0068175197
251	0xbc1c147a	-0.009526366
252	0x3d034a7c	0.032053456
253	0x3ce27e49	0.027648108
254	0xbbc99b72	-0.0061525637
255	0xbb035abc	-0.0020043096

action_model._discrete_distribution.branches.1.bias f4 [2]
0	0x3c23e758	0.010003887
1	0xbc23e758	-0.010003887

action_model._discrete_distribution.branches.1.weight f4 [2, 128]
0	0xbbd09098	-0.006364893
1	0xbb537860	-0.0032267794
2	0x3cd63b6b	0.02615138
3	0xbc16cdd0	-0.009204343
4	0xbc0d53e4	-0.008625958
5	0x3c989582	0.018625978
6	0xbc87e1d7	-0.016587181
7	0xbc36347c	-0.011120912
8	0xbbf1992d	-0.0073729963
9	0x3c89b966	0.016812038
10	0x3cdd8355	0.027040163
11	0xbc593ccb	-0.013259123
12	0x3bd561c7	0.0065119
13	0x3c2ce271	0.010552035
14	0xbc932d4e	-0.017965939
15	0xbb07c90a	-0.0020719194
16	0xbc71247b	-0.01471817
17	0xbca07fe1	-0.019592227
18	0x3934c0a4	0.00017237902
19	0x3c0f42a9	0.00874392
20	0x3bb4716f	0.0055066864
21	0xbc2890c9	-0.010288426
22	0x3b187692	0.0023264033
23	0xbba941fd	-0.005165337
24	0xba846d78	-0.0010103425
25	0x3c4ee1c8	0.012627073
26	0x3cf255a9	0.029581862
27	0xbbf8ea61	-0.0075962995
28	0xbc9fd6da	-0.019511629
29	0x3c98a350	0.018632561
30	0xbba6e6d6	-0.0050934358
31	0x3cc1d690	0.023661882
32	0x3b8d401f	0.0043106223
33	0x3c4e2161	0.0125812
34	0x3cb24005	0.021759043
35	0x3c44be42	0.012008252
36	0xbc997955	-0.018734613
37	0x3c0ac5cb	0.008470009
38	0x3b19adbd	0.0023449503
39	0x3c869ae1	0.016431274
40	0x3b575f6e	0.0032863277
41	0x3c61e6e6	0.013787961
42	0x3c5daeb8	0.013530426
43	0x3b12c470	0.0022394918
44	0x3c74d7de	0.014944045
45	0x3c806f3f	0.015678046
46	0x3bc5bc64	0.006034421
47	0x3c6f87f6	0.014619818
48	0x3cad32ba	0.021142352
49	0x3bcb24c2	0.00619945
50	0x3bc2fc8c	0.005950516
51	0x3ad18fc7	0.0015988284
52	0x3ba2b941	0.0049659316
53	0xbc05f4d1	-0.008176045
54	0x3a72e629	0.0009265864
55	0xbc7c63fb	-0.015404697
56	0x398b9927	0.00026626253
57	0x3c8b046c	0.016969882
58	0x3b71d841	0.003690258
59	0x3c592ac6	0.013254827
60	0x3c03cdda	0.008044684
61	0xbc2f0c21	-0.010684044
62	0x39a18588	0.00030807802
63	0xbcc94eae	-0.02457365
64	0x3c81d355	0.015847841
65	0x3ca241f6	0.019806843
66	0x3a3fbb48	0.0007313979
67	0x3be16f81	0.0068797474
68	0x3c4807f2	0.012208926
69	0x3c5c88d4	0.013460357
70	0xbd0a1143	-0.03370787
71	0xbb68e901	-0.0035539272
72	0xbc9aff6a	-0.018920619
73	0x3c6c8616	0.014436265
74	0x3c8a7bcb	0.016904732
75	0xbba3c6df	-0.0049980725
76	0x3a9b66ce	0.00118562
77	0xbcd83464	-0.02639217
78	0x3b828010	0.0039825514
79	0xbb5d0a43	-0.003372804
80	0xbbb5c769	-0.005547453
81	0xbcc805c5	-0.024416814
82	0xbcd03421	-0.025415482
83	0xbc20dd52	-0.009818392
84	0x3c9f97ea	0.019481618
85	0x3c3e957d	0.0116323205
86	0x3bac73f6	0.005262847
87	0x3900c290	0.00012279511
88	0xbd166595	-0.03671797
89	0xbcae234b	-0.021257063
90	0x3be33826	0.0069341836
91	0x38eeb912	0.000113831964
92	0xbbf27764	-0.0073994864
93	0x3ca7af21	0.02046925
94	0x3c22eb10	0.009943739
95	0xbba1d455	-0.004938642
96	0xbc51464e	-0.01277311
97	0x3c173b91	0.00923051
98	0xbc1d1547	-0.009587592
99	0x3c9ffd46	0.01952995
100	0x3c0e2c63	0.008677575
101	0x3c5bf527	0.013425148
102	0xbbd3dbab	-0.0064653954
103	0xbbb4efae	-0.005521736
104	0x3ce60238	0.02807723
105	0xbada876c	-0.0016672439
106	0xbbdb06c7	-0.0066841575
107	0xbc5ec67d	-0.013597128
108	0x39f24c9e	0.0004621492
109	0x3bf2fc17	0.0074153054
110	0x3cdd4576	0.02701066
111	0x3bf7f8e5	0.0075675123
112	0xbc8d9d6c	-0.017286979
113	0xbc83a3bb	-0.016069284
114	0xbb6cbe50	-0.0036124177
115	0xbc5f7bc1	-0.013640345
116	0x3c9fd8bd	0.019512529
117	0xba36e99e	-0.00069775607
118	0xb968be78	-0.000221962
119	0x3c13e684	0.009027127
120	0x3c665831	0.014059112
121	0xba6f8a04	-0.00091376924
122	0x3caada5b	0.020856073
123	0xbc852dd1	-0.016257199
124	0x3c911ad3	0.017712986
125	0x3ba646bd	0.0050743506
126	0xbca362bc	-0.019944541
127	0x39f32dc2	0.00046382664
128	0xbb3a2995	-0.0028406132
129	0xbb2a88ae	-0.002602141
130	0xbc0961cb	-0.008385132
131	0x3c2aaa98	0.010416649
132	0x3c39c4c3	0.011338416
133	0xbc44f581	-0.012021423
134	0x3bcedda1	0.0063130413
135	0x3bb06e87	0.0053842696
136	0x3c3402fb	0.010987039
137	0xbb536382	-0.0032255356
138	0xbc3fa98f	-0.011698141
139	0x3c3645fd	0.011125085
140	0xbc857d2e	-0.016295042
141	0xbca3602d	-0.019943321
142	0xbbe955f8	-0.007120844
143	0x3b0c7c8d	0.0021436543
144	0x3c7f846f	0.0155955395
145	0x3a6ef011	0.0009114752
146	0x3cc9eeb0	0.024649948
147	0xbc7670f8	-0.015041582
148	0xbca62037	-0.020279033
149	0x3c510fe8	0.01276014
150	0xbb047a3c	-0.002021446
151	0xbc086ba4	-0.008326445
152	0x3cb3e480	0.021959543
153	0xbc0b39e0	-0.008497685
154	0xbc9adff1	-0.018905612
155	0xbcc8d6c8	-0.024516478
156	0x3ac87561	0.0015293771
157	0xbcaeec42	-0.02135289
158	0xbc5f32ad	-0.013622922
159	0xbcb1c51d	-0.021700436
160	0x3c15a50a	0.009133587
161	0xbb38f4ed	-0.002822216
162	0x3b9c901d	0.004777922
163	0xbb9c66db	-0.0047730035
164	0x3b1d5a1d	0.002401001
165	0xbc0a6599	-0.008447074
166	0x3c65d37d	0.0140274735
167	0xbc14e792	-0.009088414
168	0x3bde97d9	0.006793004
169	0xbbf30540	-0.0074163973
170	0x3bf079a2	0.0073387185
171	0xbc813097	-0.01577024
172	0xbc829ccc	-0.015943907
173	0xbbfc2330	-0.0076946244
174	0xbb121d56	-0.0022295318
175	0x3c1a313c	0.009411152
176	0xbc3cef08	-0.011531599
177	0xbca43b97	-0.020047946
178	0xbc9d33f3	-0.01918981
179	0x3b9341b6	0.0044939173
180	0xbc524b82	-0.012835385
181	0x3c8cb201	0.017174723
182	0x3c03da69	0.0080476785
183	0x3cbbc711	0.02292207
184	0xbcb58c79	-0.02216171
185	0xbc00ae63	-0.007854077
186	0xbba0b902	-0.004904867
187	0xbc84ebf8	-0.0162258
188	0xbc3590cf	-0.011081888
189	0xbc266d08	-0.010157831
190	0xbcd55569	-0.026041703
191	0x3c70f00e	0.014705671
192	0xbbcad13c	-0.0061894935
193	0xbbfd621f	-0.007732644
194	0x3ba12e91	0.004918881
195	0x3c03540e	0.008015646
196	0xbb6c847d	-0.0036089711
197	0xbc287a63	-0.0102830855
198	0x3c366204	0.011131767
199	0x3ca5781d	0.020198876
200	0x3bc7f06e	0.0061016595
201	0xbb22ad30	-0.0024822466
202	0xbc6e92b9	-0.014561349
203	0x3c4c57ba	0.0124720875
204	0xbc9c6422	-0.019090716
205	0x3cce2687	0.025164856
206	0xbcaac087	-0.020843757
207	0x3c13768b	0.009000431
208	0x3b4fe8c3	0.003172443
209	0x3c15492e	0.009111686
210	0x3b2a3501	0.0025971534
211	0x3c48047f	0.012208103
212	0xbba7fda2	-0.005126671
213	0xbbaad720	-0.005213633
214	0xbcc2e717	-0.023791833
215	0xbc77e581	-0.015130402
216	0x3c4ff61f	0.012692957
217	0x3aaee92d	0.0013344638
218	0xbbc4ef2a	-0.006009956
219	0xbc9339a9	-0.01797183
220	0x3ad80717	0.0016481605
221	0xbc79c4dd	-0.01524469
222	0xbbbe09e0	-0.005799517
223	0x3cb52a7f	0.02211499
224	0x3ca96aa5	0.020680735
225	0xbc60caf2	-0.013720261
226	0x3bb4f9c3	0.005522938
227	0xbc54d966	-0.012991285
228	0xbc945973	-0.018109059
229	0xbcc6aba8	-0.024251774
230	0x3c60f3b5	0.013729979
231	0x3c19855e	0.009370176
232	0xbbf97c9c	-0.0076137315
233	0x3cad164a	0.021128792
234	0x3ca82504	0.020525463
235	0x3c1a463f	0.009416162
236	0x3cc337cc	0.023830317
237	0xbc31a64e	-0.010842873
238	0xbc393632	-0.011304425
239	0xbb2356f8	-0.0024923664
240	0x3cfa7cf9	0.03057717
241	0x3bfcce46	0.0077150194
242	0x3cedfab1	0.029050203
243	0x3c907b5d	0.01763695
244	0xbc25843a	-0.010102326
245	0x3bab546d	0.00522857
246	0xbb7ba2c9	-0.0038396588
247	0xbce0b1a6	-0.02742846
248	0xbc7964a6	-0.01522175
249	0xba04e3b5	-0.00050693314
250	0xbba9848c	-0.0051732715
251	0x3c57929f	0.013157516
252	0xbbe1e92a	-0.0068942504
253	0xbab2c535	-0.0013639095
254	0x3c0b95ba	0.008519584
255	0xbc431c2f	-0.011908575

discrete_action_output_shape f4 [1, 2]
0	0x40800000	4.0
1	0x40000000	2.0

network_body._body_endoder.seq_layers.0.bias f4 [128]
0	0xba378252	-0.0007000315
1	0x3c2c5d99	0.010520362
2	0x3c5690d5	0.013096054
3	0xbc0efff8	-0.00872802
4	0xbc3c873b	-0.011506851
5	0xbc652b8d	-0.013987434
6	0x3c1c3da1	0.009536178
7	0x3c117992	0.008879082
8	0x3b6b7391	0.0035927037
9	0xbc530694	-0.012879986
10	0x3c82ea4a	0.015980858
11	0x3c7ffd29	0.015624323
12	0xbc08cea1	-0.008350045
13	0xbb2f4814	-0.0026745843
14	0x3c3f1f01	0.011665107
15	0x3b9b77ba	0.004744497
16	0xbc5544b0	-0.013016865
17	0x3c31eafa	0.010859245
18	0xbc708b45	-0.014681642
19	0x3c5660e6	0.013084626
20	0x3ada3f22	0.0016650895
21	0x3b90b31e	0.0044158837
22	0x3c5fe8ff	0.01366639
23	0xbc6d4e45	-0.014483993
24	0x3c261270	0.010136232
25	0xbc0c6d75	-0.008571018
26	0x3bf8d34c	0.007593548
27	0xbb748da8	-0.003731588
28	0x3c6e6e45	0.0145526575
29	0x3c44050e	0.011964096
30	0x3aaea18c	0.0013323291
31	0xbc42ba0a	-0.0118851755
32	0x3c10dbce	0.008841468
33	0xbbb9c165	-0.0056688064
34	0x3b992dcc	0.004674649
35	0x3c1572ef	0.009121641
36	0x3c4ef928	0.012632646
37	0x3c695a5a	0.014242733
38	0xbbc03c09	-0.0058665317
39	0x3b9284f7	0.004471417
40	0x3befee51	0.0073221107
41	0x3c4efe92	0.0126339365
42	0xbc824ebf	-0.01590669
43	0x3c540775	0.012941231
44	0x3c2462c9	0.010033318
45	0xbc19d2e1	-0.009388656
46	0xbc36bff0	-0.01115416
47	0x3b658f5a	0.003502807
48	0x3c03b181	0.008037926
49	0x3c706bd1	0.014674143
50	0xbc3a7add	-0.011381832
51	0x3c333264	0.010937307
52	0x3c4c0135	0.01245146
53	0x3c1ff47b	0.0097628785
54	0xbc7ea183	-0.015541437
55	0xbc66c295	-0.014084478
56	0xbc752c16	-0.014964124
57	0xbc370206	-0.011169916
58	0xbc25a9a8	-0.01011125
59	0x3852a755	5.022374e-05
60	0x3bc53fe4	0.0060195792
61	0x3b4892d5	0.0030605097
62	0xbc7cea5a	-0.015436733
63	0x3c18daff	0.0093295565
64	0x3c0ada26	0.008474862
65	0x3c3b79a5	0.011442577
66	0x3c3fc7f3	0.011705386
67	0x3ae66a4e	0.0017579289
68	0x3b88fe44	0.0041807014
69	0x3c60a51b	0.013711239
70	0xbc6dd094	-0.014515061
71	0x3b96da1c	0.0046036374
72	0xba761e5f	-0.0009388681
73	0x3b27e9e5	0.002562159
74	0xbc56ddad	-0.013114375
75	0x3bf05fac	0.0073356237
76	0xbc6b8822	-0.014375718
77	0xbbfe3e54	-0.007758895
78	0xbc5ba018	-0.013404869
79	0xbc46f2f8	-0.012142889
80	0xbc02ef1f	-0.007991581
81	0x3c4d9a5f	0.012549012
82	0xbc0a3232	-0.008434819
83	0xbbf35e54	-0.0074270163
84	0x3c6e6a92	0.0145517755
85	0x3a043e5a	0.00050446915
86	0x3a9f4a0d	0.0012152806
87	0xbc2458c1	-0.010030926
88	0xbbc17c32	-0.005904698
89	0x3c718809	0.014741906
90	0x3c0a4887	0.008440143
91	0x3c446fcb	0.011989544
92	0x393b2b31	0.000178498
93	0x3bfee309	0.0077785295
94	0x3c2eade4	0.010661576
95	0x3c16bf7e	0.009200929
96	0x3c13424a	0.0089879725
97	0xbb74c8b6	-0.0037351078
98	0xbc50907d	-0.012729761
99	0xbc40a24d	-0.0117574455
100	0x3b7acad6	0.0038267872
101	0xbbe17dc3	-0.006881447
102	0x3c7a6895	0.015283723
103	0x3c470720	0.012147695
104	0x3c4c4b23	0.012469086
105	0xb88535f0	-6.351981e-05
106	0x3c52de73	0.012870419
107	0xbc8074b8	-0.015680656
108	0x3b307fee	0.002693172
109	0x3c0d0a01	0.008608342
110	0xbbeaf20b	-0.007169967
111	0xbc44a5d5	-0.012002428
112	0x3c66ad8f	0.0140794655
113	0x3bc93f8a	0.0061416076
114	0x3c5d91fd	0.013523576
115	0xba0c04cc	-0.0005341291
116	0x3c331944	0.010931317
117	0xbc0888fd	-0.008333442
118	0x3c579f5a	0.013160551
119	0x3bafc0fb	0.0053635812
120	0x3b82e6d5	0.0039948025
121	0x3c3d2d0e	0.011546386
122	0xbc52bddd	-0.01286265
123	0xbc18bde4	-0.009322617
124	0xbc816619	-0.015795754
125	0xbc4f0829	-0.012636223
126	0x3b397269	0.0028296954
127	0x3c42ef41	0.011897863

network_body._body_endoder.seq_layers.0.weight f4 [128, 4]
0	0x3e426fa8	0.18987906
1	0x3e857e9f	0.26073167
2	0x3ead9162	0.3389998
3	0xbf00aba7	-0.5026192
4	0x3e88fb45	0.26754203
5	0xbed95485	-0.42447296
6	0xbda2581c	-0.07926962
7	0x3d5b0987	0.053475883
8	0x3f28b154	0.6589558
9	0xbeb48b70	-0.35262632
10	0xbd86da90	-0.06584656
11	0xbe716010	-0.23571801
12	0xbe6eeb48	-0.2333194
13	0x3f468071	0.77539736
14	0x3f271672	0.65268624
15	0xbe9bc6d3	-0.30425128
16	0xbf2afb78	-0.6678996
17	0x3da5b209	0.08090598
18	0xbea1723c	-0.31532466
19	0xbf531512	-0.82454026
20	0xbe1f48fc	-0.15555185
21	0x3d275e00	0.04086113
22	0xbe8700bc	-0.26367748
23	0xbf45325a	-0.77029955
24	0x3d9fb59a	0.077983096
25	0x3f387094	0.7204678
26	0x3e93b687	0.28850195
27	0xbf024942	-0.5089303
28	0x3ef4ae1b	0.47789082
29	0xbe2a5eb0	-0.16637683
30	0xbd4c2a0c	-0.049844787
31	0xbeada63b	-0.33915886
32	0x3cc1c1c2	0.023651961
33	0xbf4b951d	-0.79524404
34	0x3f4f18dd	0.80897313
35	0xbebd22db	-0.36940655
36	0xbf6abd8b	-0.9169547
37	0xbec04368	-0.37551427
38	0x3ded6286	0.115910575
39	0x3f118cd0	0.5685549
40	0x3f1ecbaa	0.62029517
41	0x3e2e945b	0.1704878
42	0x3d5a086b	0.053230684
43	0xbf21ca1f	-0.6319904
44	0xbf13537a	-0.5754925
45	0x3e3d1f0f	0.18468879
46	0x3f486865	0.78284293
47	0xbf0e22c6	-0.5552181
48	0x3d8bd00a	0.0682679
49	0xbf893fea	-1.072263
50	0x3dc238f9	0.09483523
51	0xbdf9272a	-0.12165673
52	0x3c9124da	0.017717768
53	0xbe14d98d	-0.14536114
54	0xbe8cb657	-0.27482864
55	0xbfa5f600	-1.2965698
56	0xbe6bb426	-0.2301794
57	0x3dc04290	0.09387696
58	0x3f9001d1	1.1250554
59	0x3edf264d	0.4358391
60	0x3eed65ce	0.46366733
61	0xbd100ba8	-0.035167366
62	0xbe85b181	-0.26111987
63	0x3f4084c2	0.7520257
64	0xbd237e4c	-0.039915368
65	0x3f9ea73d	1.2394787
66	0xbf00bb3c	-0.50285697
67	0x3e6a2895	0.22867043
68	0x3df44583	0.11927321
69	0xbe449278	-0.19196498
70	0x3dacd2db	0.08438655
71	0x3eb6c5c3	0.35697755
72	0xbfa748c6	-1.3069084
73	0x3f20419b	0.62600106
74	0x3cb29fa0	0.02180463
75	0xbe892298	-0.26784205
76	0x3e9e1533	0.3087555
77	0x3e97df2a	0.29662448
78	0x3cad0cc5	0.021124253
79	0x3d0df5e1	0.034658317
80	0xbc25ace5	-0.010112022
81	0x3e9d38ff	0.30707547
82	0xbe806fe3	-0.25085363
83	0x3b7bfbfc	0.0038449755
84	0xbde70b36	-0.11281435
85	0xbe717714	-0.23580581
86	0x3eddad6b	0.4329637
87	0x3e0948ec	0.13406724
88	0x3f04ef1b	0.51927346
89	0xbebadc32	-0.3649612
90	0x3f64582e	0.8919705
91	0xbece3f8d	-0.4028286
92	0xbedde473	-0.43338355
93	0x3e194012	0.14965847
94	0x3ede1eda	0.43382913
95	0x3d64978d	0.055808593
96	0xbd9068d7	-0.070512466
97	0x3b6bba3d	0.003596916
98	0xbc104c99	-0.008807325
99	0x3f4543c5	0.77056533
100	0x3da817f8	0.08207697
101	0xbf96bab2	-1.1775725
102	0xbef1b04c	-0.47204816
103	0x3ee61c53	0.44943485
104	0x3f00de16	0.50338876
105	0xbeb1d388	-0.34731698
106	0x3ee9d5a1	0.45670798
107	0xbfac8410	-1.3477802
108	0x3db2f2d9	0.08737726
109	0xbe9617f4	-0.2931515
110	0xbf1f94fc	-0.6233671
111	0x3e2bb9d1	0.16770102
112	0x3ee1e96c	0.441234
113	0xbed60398	-0.41799617
114	0x3d3ba7b4	0.04581423
115	0xbf42f009	-0.76147515
116	0x3d917871	0.071030505
117	0x3d2c47ef	0.04206079
118	0xbe20c3d7	-0.15699707
119	0xbe40b34d	-0.18818398
120	0x3f8e83dd	1.1133991
121	0xbe9240df	-0.28565118
122	0x3eb02c7f	0.34408948
123	0xbe06708d	-0.13128872
124	0x3e9e766a	0.30949718
125	0x3e84090c	0.25788152
126	0xbee13b0e	-0.43990368
127	0xbecd6400	-0.40115356
128	0x3e83ce00	0.25743103
129	0xbf10afe7	-0.56518406
130	0x3f6229ac	0.88344836
131	0x3e4bd190	0.1990416
132	0xbf9d790b	-1.2302564
133	0x3db24cb6	0.08706038
134	0xbd50e990	-0.051003993
135	0xbe8f3dfe	-0.27976984
136	0xbdac570a	-0.08415039
137	0x3faf8e0f	1.3715228
138	0x3f0c6902	0.5484773
139	0xbf3a10d3	-0.7268192
140	0xbeab940c	-0.33511388
141	0xbefd3363	-0.49453267
142	0x3de0abd4	0.109702736
143	0x3e8a6c96	0.2703597
144	0xbe51356b	-0.20430534
145	0x3d4cc8b0	0.049996078
146	0x3edf71f7	0.43641636
147	0x3ebf26d2	0.37334305
148	0x3f3fd5bd	0.74935514
149	0xbf84403e	-1.0332105
150	0x3da771ef	0.08176028
151	0x3f411af5	0.7543176
152	0xbc6b8d50	-0.014376953
153	0xbf2a9d10	-0.6664591
154	0xbf14624f	-0.57962507
155	0xbebf0747	-0.3731024
156	0x3d825e7c	0.06365678
157	0x3c86a1fc	0.016434662
158	0xbe355b95	-0.17710717
159	0xbe8cccc9	-0.2749999
160	0x3d9bf0c0	0.07614279
161	0xbedc370b	-0.43010744
162	0x3e36430b	0.17799012
163	0xbee3af7c	-0.4446982
164	0x3f8b090b	1.0862135
165	0xbeca8db8	-0.39561248
166	0x3f346e4f	0.7048082
167	0xbf87f36b	-1.062116
168	0x3ed040f4	0.40674555
169	0x3ea9a48d	0.33133355
170	0xbe78c4b2	-0.24293783
171	0xbfdcd2f8	-1.7251883
172	0x3f722bba	0.9459797
173	0x3ec6d321	0.38832954
174	0x3e78e6b5	0.24306758
175	0x3d6d1e0e	0.05788999
176	0x3e631ae1	0.22178222
177	0x3f603a85	0.87589294
178	0xbeb312a5	-0.34975162
179	0x3edd3eaa	0.4321187
180	0xbe4caae3	-0.19987063
181	0x3f012700	0.50450134
182	0x3ea1ff4c	0.3164009
183	0xbf14795d	-0.57997686
184	0x3f240916	0.64076364
185	0xbe3b920b	-0.1831743
186	0x3e5eaa6b	0.21744697
187	0xbe660a7b	-0.22464935
188	0xbe199482	-0.14998057
189	0x3ec0f55e	0.376872
190	0xbe901d80	-0.28147507
191	0x3dc74356	0.0972964
192	0x3f2364de	0.63825786
193	0xbd647537	-0.055775847
194	0xbe06403e	-0.13110444
195	0xbf7560f0	-0.9585104
196	0x3ec4eae4	0.38460457
197	0xbe82c43d	-0.25540343
198	0xbd4cdb7e	-0.05001401
199	0xbd61a3fc	-0.05508803
200	0x3e281b58	0.16416681
201	0x3e061d7d	0.13097186
202	0xbe62b631	-0.22139813
203	0xbf1a9a30	-0.6039152
204	0x3cbe4d43	0.0232302
205	0xbec9cff1	-0.3941646
206	0x3eab68f6	0.33478516
207	0xbf0b4c20	-0.5441303
208	0x3effe7cf	0.49981543
209	0x3e656498	0.22401655
210	0xbecc7c47	-0.39938566
211	0xbd8c1430	-0.06839788
212	0x3e5e5e0d	0.21715565
213	0x3db34abf	0.08754491
214	0xbdf5ad7d	-0.11995981
215	0x3e54534e	0.20734903
216	0xbd919e32	-0.071102515
217	0x3ee92e95	0.45543352
218	0xbebea3ef	-0.37234446
219	0xbef2371d	-0.47307673
220	0x3e6b102b	0.22955386
221	0x3e0dfb93	0.13865499
222	0xbe9f5bf3	-0.3112484
223	0xbeb604b4	-0.35550463
224	0x3d9939fa	0.07481761
225	0xbf1d3bb5	-0.6141923
226	0x3e09eef1	0.13470055
227	0x3dc53354	0.09628931
228	0x3eaf47de	0.34234518
229	0xbe8c71e1	-0.27430633
230	0xbebf88ed	-0.37409154
231	0x3eb21845	0.3478414
232	0x3e820504	0.25394452
233	0x3f831251	1.0239965
234	0xbf269ee6	-0.6508621
235	0x3e562bfd	0.20915218
236	0xbf5ff278	-0.8747935
237	0xbe59ee22	-0.21282247
238	0xbf0d7107	-0.5525059
239	0x3fcb4815	1.5881373
240	0x3e1e48cb	0.15457456
241	0x3e130baa	0.14359918
242	0x3da5f146	0.0810266
243	0xbd35db30	-0.044398487
244	0x3eb7e098	0.3591354
245	0xbf1ac9c5	-0.60464126
246	0x3f0ecaf6	0.55778444
247	0x3f05a3d9	0.52203137
248	0xbee71f96	-0.45141286
249	0xbe70ae8f	-0.23504089
250	0xbea8481e	-0.3286752
251	0xbf955873	-1.1667618
252	0x3f665438	0.8997226
253	0x3f1d7767	0.6151032
254	0x3f19bedc	0.60056853
255	0xbe9340e8	-0.28760457

network_body._body_endoder.seq_layers.2.bias f4 [128]
0	0xbc15cdb3	-0.009143281
1	0xbb5df09e	-0.0033865343
2	0x3c61aa3b	0.013773496
3	0xbc533341	-0.012890638
4	0xbbb50f2c	-0.0055254903
5	0x3c5b9a4c	0.013403486
6	0xbc54e3e4	-0.0129937865
7	0xbc2a5fee	-0.010398848
8	0xbc641c09	-0.0139227
9	0x3c470c2c	0.012148898
10	0x3c392dab	0.011302392
11	0xbc5de88b	-0.013544212
12	0x3c2fed3d	0.010737714
13	0x3c237cf5	0.009978523
14	0x3a6963cb	0.0008903115
15	0xb9be0696	-0.0003624453
16	0xbc25a6cc	-0.010110568
17	0xbc672ab4	-0.014109302
18	0xbc36c682	-0.011155726
19	0x3c811680	0.0157578
20	0x3c770ef1	0.015079246
21	0xbc128bac	-0.008944433
22	0x3bb6273a	0.0055588754
23	0x3bb66155	0.005565802
24	0xbc3b3610	-0.011426464
25	0x3c34c7ac	0.011033934
26	0x3c070280	0.008240342
27	0x3b378eca	0.0028008693
28	0xbb6a3270	-0.003573563
29	0x3c49631e	0.012291698
30	0x3b95f61f	0.004576459
31	0x3c2de948	0.010614701
32	0x3b1a1319	0.0023509918
33	0xbac84ce0	-0.00152817
34	0x3c4cea16	0.012506982
35	0x3bce18e3	0.006289588
36	0xbc6f4bb4	-0.014605451
37	0xbbdbaae6	-0.0067037223
38	0xbc31dbee	-0.010855658
39	0x3c6608a0	0.014040142
40	0x3c3354ba	0.010945493
41	0x3c4015d8	0.011723958
42	0x3bf9fd10	0.0076290444
43	0x3bd6015d	0.0065309242
44	0x3c3804fb	0.011231656
45	0x3c69f147	0.014278716
46	0xba8f5e6f	-0.0010938178
47	0x3bb17a98	0.0054162256
48	0x3c545682	0.012960078
49	0x3c5509c3	0.013002816
50	0x3bb8a198	0.005634498
51	0x3a052b6e	0.0005080019
52	0x3b469f46	0.0030307337
53	0xbc47697c	-0.0121711455
54	0xbb149936	-0.0022674329
55	0xbc40efa4	-0.011775885
56	0x3bf3c72d	0.007439515
57	0x3c6694ad	0.014073533
58	0x3b102875	0.002199677
59	0x3c5c0edd	0.013431278
60	0x3bac1d41	0.005252511
61	0xbb26653f	-0.0025389937
62	0x3c4f1657	0.012639604
63	0xbc3951df	-0.0113110235
64	0x3b8a93ac	0.0042290296
65	0x3c548de7	0.012973285
66	0xbae62d19	-0.0017561048
67	0x3b924a3e	0.0044644168
68	0x3c612e14	0.013743896
69	0x3bd4f8d2	0.0064993883
70	0xbc0b0684	-0.00848544
71	0xbbe56c6d	-0.0070014508
72	0xbbe3463e	-0.0069358638
73	0x3c642e55	0.013927062
74	0x3c44de1a	0.012015844
75	0xbc270eb3	-0.010196376
76	0x3bad31fd	0.0052855
77	0xbc17b32f	-0.009259029
78	0x3c63edc9	0.013911673
79	0xbbcac938	-0.006188538
80	0xbb89086c	-0.004181912
81	0xbc4a3ec8	-0.01234407
82	0xbc4a07aa	-0.012330929
83	0xbc457f50	-0.012054279
84	0x3c70c4c1	0.014695347
85	0x3be3a139	0.0069467095
86	0x3c7d1026	0.015445745
87	0x3bdb38d6	0.006690125
88	0xbc27740f	-0.010220542
89	0xbc302aed	-0.010752422
90	0x3c6059e7	0.013693309
91	0xb877d37e	-5.9086356e-05
92	0xbb1ac67f	-0.0023616848
93	0x3c181a2a	0.009283582
94	0x3c5f82ca	0.013642022
95	0xba10f5a4	-0.00055297674
96	0xbc5a971d	-0.013341692
97	0x3c5bef47	0.013423747
98	0xbc011083	-0.007877472
99	0x3c4e3164	0.012585018
100	0x3bf28678	0.007401284
101	0x3c756ec1	0.014980019
102	0xbc08f303	-0.00835872
103	0xbba390ac	-0.0049916115
104	0x3c74ebe9	0.0149488235
105	0xbc59c679	-0.0132919485
106	0xbbebec1f	-0.0071997787
107	0xbc517881	-0.012785078
108	0xbc6e2cbc	-0.014537033
109	0x3c3b720f	0.011440768
110	0x3be69632	0.0070369476
111	0x39233efe	0.00015568358
112	0xbc367e97	-0.01113858
113	0xbc504c78	-0.012713544
114	0xbc3a058b	-0.011353861
115	0xbbe16eb0	-0.00687965
116	0x3c41daac	0.011831921
117	0xbada34de	-0.0016647836
118	0x3aad96b8	0.001324377
119	0x3c5619c5	0.013067667
120	0x3c1ff1a2	0.0097622
121	0xbaf80c9a	-0.0018924654
122	0x3c184f24	0.009296212
123	0xbc46aa9a	-0.0121256355
124	0x3c69cb2e	0.014269633
125	0x3c0f4eda	0.008746827
126	0xbc5d76a0	-0.013517052
127	0xbb868d08	-0.0041061677

network_body._body_endoder.seq_layers.2.weight f4 [128, 128]
0	0x3d13e19a	0.036103822
1	0xbd96138e	-0.073279485
2	0x3da1d364	0.07901648
3	0xbe1a35cf	-0.15059589
4	0x3dc9c6e9	0.09852392
5	0x3c93cebf	0.01804292
6	0x3d9daa26	0.07698469
7	0xbe0eecbf	-0.13957499
8	0xbd90c345	-0.07068495
9	0x3e4dcbec	0.20097321
10	0xbd8ea990	-0.06965935
11	0xbc594152	-0.0132602025
12	0x3e5f785b	0.21823256
13	0xbd7caed7	-0.061690178
14	0x3d0e85bd	0.03479551
15	0xbd500eac	-0.050795242
16	0x3d6e2b12	0.058146544
17	0xbc7acbe0	-0.015307397
18	0xbca63d70	-0.020292968
19	0xbdb95b49	-0.090506144
20	0x3cc50d76	0.02405427
21	0xbd11da01	-0.035608295
22	0xbd110208	-0.035402328
23	0xbd2408fa	-0.040047623
24	0xbcb20951	-0.021732958
25	0x3d2b058e	0.041753344
26	0x3d11bb51	0.03557903
27	0x3dd63d94	0.10460964
28	0xbe1cdc73	-0.1531847
29	0x3e1bad23	0.15202765
30	0x3d8ebed5	0.06969992
31	0x3df53ae4	0.11974123
32	0xbbb6ebc8	-0.0055823065
33	0xbd85f77b	-0.06541344
34	0x3d26f337	0.04075929
35	0x3d1e0b27	0.038584854
36	0xbb31325b	-0.002703807
37	0x3d0d33ca	0.034473218
38	0xbde929c4	-0.11384919
39	0x3b9506a0	0.004547909
40	0xbe072f05	-0.1320153
41	0xbda72f11	-0.08163274
42	0x3dac07a2	0.08399893
43	0xbd1dbe0a	-0.038511313
44	0xbd443a66	-0.047907256
45	0xbd9103e1	-0.07080818
46	0x3dd521d8	0.10406846
47	0xbe20f95b	-0.15720122
48	0x3db9d1d8	0.09073228
49	0x3c9e3a28	0.01931484
50	0x3de7d327	0.11319571
51	0xbe65b38d	-0.22431774
52	0x3aa0569d	0.0012232844
53	0xbd22e53a	-0.03976939
54	0xbc369a5c	-0.011145201
55	0xbcecd490	-0.028909951
56	0x3e103e47	0.14086257
57	0x3e62c6e4	0.22146183
58	0x3c4458b1	0.011984036
59	0x3d8c5e1d	0.06853888
60	0xbd9f15c0	-0.0776782
61	0x3dac49af	0.084124915
62	0x3e13a336	0.14417729
63	0xbd39a241	-0.045320753
64	0x3e330250	0.17481351
65	0xbce3b38c	-0.027795576
66	0x3d2046e3	0.039130103
67	0xbd96eb59	-0.07369108
68	0x3e077505	0.13228233
69	0xbc82098c	-0.015873693
70	0x3e8ee3aa	0.2790807
71	0xbba0454a	-0.0048910724
72	0x3d4a283c	0.049354777
73	0xbd27aee7	-0.040938284
74	0xbc266519	-0.0101559395
75	0x3e1f4c42	0.15556434
76	0xbb274fc3	-0.002552972
77	0x3e2c0954	0.16800433
78	0xbd92e1dc	-0.071719855
79	0xbd4f74da	-0.050648548
80	0xbc3dad45	-0.011576955
81	0xbd23ec02	-0.040019996
82	0x3dc16aba	0.094441846
83	0xbde23345	-0.11044935
84	0xbdcdd12b	-0.10049661
85	0xbc864788	-0.01639153
86	0x3d6a4110	0.057190955
87	0x3cb17f68	0.021667197
88	0xbe19df67	-0.15026627
89	0xbe22b5ad	-0.15889616
90	0xbcaded4b	-0.021231314
91	0x3cb1187e	0.021618124
92	0x3cf8664a	0.030322213
93	0x3bf67cdc	0.0075222086
94	0x3d8958e5	0.067064084
95	0x3e1094d0	0.14119267
96	0xbda3befa	-0.0799541
97	0xbdbddf79	-0.0927114
98	0x3ceb6b3d	0.028737659
99	0xbd93036a	-0.071783856
100	0x3d53b29e	0.051684014
101	0xbd11b6a5	-0.035574574
102	0x3d07cbdb	0.033153396
103	0xbd9a7201	-0.07541276
104	0x3b654d84	0.003498883
105	0xbdb9c9f7	-0.09071725
106	0x3d0a5862	0.033775695
107	0x3ccfc245	0.02536119
108	0xbe276b1b	-0.16349451
109	0xbe026a83	-0.12735943
110	0x3d2974b0	0.041371047
111	0x3db9bd8d	0.09069357
112	0xbd37a738	-0.044837207
113	0xbd12e223	-0.035860192
114	0x3cf01e77	0.029311402
115	0x3c61a51a	0.013772273
116	0x3e4dcce0	0.20097685
117	0x3dde85c5	0.10865358
118	0xbcd8abbd	-0.026449079
119	0xbbdda08e	-0.0067635244
120	0xbd5ed6e8	-0.05440417
121	0xbcae6a34	-0.021290876
122	0xbd78f08f	-0.06077629
123	0x3e005db1	0.1253574
124	0x3c667ef7	0.014068357
125	0xbdec5719	-0.1154005
126	0x3cfc33cb	0.030786416
127	0xbd63fff8	-0.055664033
128	0xbcccbca4	-0.024992295
129	0x3dc98908	0.0984059
130	0xbdc8973f	-0.09794473
131	0x3e13cd90	0.14433885
132	0x3bd76ddc	0.0065743756
133	0xbe382bb3	-0.1798542
134	0xba912b0a	-0.0011075449
135	0xbda296af	-0.07938897
136	0x3d36600d	0.044525195
137	0xbe0a0acb	-0.1348068
138	0xbd2b813f	-0.041871306
139	0x3ea834bb	0.3285273
140	0xbdc678db	-0.0969102
141	0x3d9dcf75	0.07705585
142	0x3d9862ad	0.07440696
143	0x3bd3db0f	0.006465323
144	0x3d25255a	0.040318824
145	0xbdb174d2	-0.0866486
146	0xbd54b086	-0.05192616
147	0x3bcb58bf	0.0062056477
148	0x3b26961f	0.002541907
149	0xbd814bd4	-0.06313291
150	0x3d36080c	0.044441268
151	0xbd742bbb	-0.059612017
152	0xbd9d9c96	-0.07695882
153	0x3d12aeda	0.035811283
154	0xbe184c59	-0.14872874
155	0xba5596c2	-0.000814777
156	0x3d969979	0.07353491
157	0x3bf5976f	0.007494859
158	0x3dbd6bc5	0.09249071
159	0x3e1ffd32	0.1562393
160	0x3cf1f07a	0.029533613
161	0x3b58ad50	0.0033062287
162	0x3dde55d3	0.108562134
163	0xbde8d431	-0.11368597
164	0xbd461e12	-0.04836852
165	0xbc8f5d99	-0.017500686
166	0x3d01d3b5	0.03169604
167	0xbd03ba03	-0.032159816
168	0x3e21e3a2	0.15809491
169	0xbd92b696	-0.07163732
170	0xbd41dbfd	-0.047328938
171	0x3d0c0107	0.034180667
172	0xbe44acaf	-0.19206499
173	0x3cecb2ce	0.028893854
174	0xbba136bc	-0.004919855
175	0xbdc1cf7b	-0.09463402
176	0x3de498c6	0.11161952
177	0x3df90522	0.12159182
178	0xbc91866c	-0.017764293
179	0x3be9cd7e	0.0071350923
180	0xbdb623d7	-0.08893555
181	0xbc0123b1	-0.007882045
182	0x3d626fd6	0.055282436
183	0xbd146f0e	-0.036238723
184	0x3d38f86e	0.045158796
185	0x3dcc32a8	0.099705994
186	0xbd408eae	-0.04701107
187	0xbe13adec	-0.14421815
188	0x3d7b623d	0.061372984
189	0x3cba5660	0.022746265
190	0xbdafd7ae	-0.085860595
191	0xbdb75ac1	-0.08952857
192	0xbdcfa93a	-0.10139699
193	0xbd9e09e0	-0.07716727
194	0x3cfe7a2a	0.031064112
195	0x3dc0dc96	0.094170734
196	0x3d87bc61	0.06627727
197	0x3d47c5b5	0.048772532
198	0xbddbe0d0	-0.10736239
199	0x3d4d582c	0.050132915
200	0x3c00bc28	0.00785736
201	0xbd8b09f3	-0.06789007
202	0x3d49bcd9	0.049252365
203	0x3e20dcd4	0.15709239
204	0x3d9c60d2	0.076356545
205	0x3d5df551	0.05418903
206	0xbd0d508c	-0.034500644
207	0x3cf4d36b	0.029885968
208	0xbc997a97	-0.018735213
209	0x3cdc65b7	0.02690397
210	0xbcf88104	-0.030334957
211	0x3e26149b	0.16218798
212	0x3cdb19f5	0.026745776
213	0x3de23044	0.11044362
214	0x3df2b73d	0.11851356
215	0xbda4911d	-0.08035491
216	0x39a38924	0.0003119196
217	0xbcb2f980	-0.021847486
218	0xbe315298	-0.17316663
219	0x3da080c2	0.078370586
220	0x3c9e5e58	0.019332096
221	0xbdf1e618	-0.11811465
222	0x3d563dc4	0.052304998
223	0xbd55b019	-0.052169893
224	0x3b7aaef3	0.003825125
225	0x3d1d5b95	0.038417418
226	0xbdd9a25c	-0.10626671
227	0xbd8d9bee	-0.06914507
228	0xbe0c7380	-0.13715935
229	0x3c801311	0.015634092
230	0xbd300dfc	-0.042982087
231	0xbb83f8ac	-0.0040274467
232	0xbcdf1b56	-0.027234714
233	0x3d37335e	0.044726722
234	0xbdd672d1	-0.10471118
235	0x3e07f420	0.1327672
236	0xbe207ad7	-0.1567186
237	0xbc3f3664	-0.011670683
238	0x3db95007	0.09048467
239	0x3d25e19e	0.04049837
240	0xbd0b60af	-0.03402775
241	0x3d976f1a	0.07394238
242	0xbcc4acb7	-0.024008138
243	0xbd457c47	-0.048214223
244	0x3e17ae63	0.14812617
245	0xbc0a07b0	-0.008424684
246	0xbd247bb0	-0.04015702
247	0x3d4d3326	0.050097607
248	0x3af23324	0.0018478376
249	0xbd8748fa	-0.06605716
250	0xbdc8f445	-0.09812216
251	0x3ba15b41	0.0049242084
252	0x3e197409	0.1498567
253	0x3d8f1230	0.06985891
254	0xbd8b044f	-0.06787931
255	0xbd79287d	-0.06082963
