results/ppo/MoveToGoal/MoveToGoal-2923.onnx (onnx, 846455 bytes, 11 tensors)

action_model._continuous_distribution.log_sigma f4 [1, 2]
0	0xb8c95c6a	-9.60164e-05
1	0x3a9876c8	0.0011632079

action_model._continuous_distribution.mu.bias f4 [2]
0	0x37fe5f97	3.0323672e-05
1	0x387ef4a4	6.078616e-05

action_model._continuous_distribution.mu.weight f4 [2, 256]
0	0x3c451a41	0.012030185
1	0xbc64546a	-0.0139361415
2	0xba80f983	-0.0009839985
3	0xbc1ad152	-0.00944932
4	0xbcee8090	-0.029114038
5	0xbb6f1f25	-0.003648707
6	0x3bc2dd4b	0.0059467903
7	0x3bdacdf3	0.006677383
8	0x3c908b1a	0.017644454
9	0x3cbd80e5	0.02313275
10	0x3c1b03c7	0.00946135
11	0x3c54a4e7	0.012978769
12	0x3bb53082	0.005529464
13	0xbb885a7e	-0.004161178
14	0xbb231adc	-0.0024887836
15	0xbb3e4338	-0.0029031765
16	0x3c026b4e	0.007960154
17	0xbc632576	-0.013863912
18	0xbcacaf62	-0.021079723
19	0x3b84f199	0.004057121
20	0x3ad5b821	0.0016305485
21	0x3a000f9a	0.00048851373
22	0xbb257a2a	-0.0025249817
23	0xbcd5b4b2	-0.026087139
24	0xbc801730	-0.015636057
25	0xbc2736b4	-0.010205913
26	0xbbbdbc09	-0.005790238
27	0x3c896668	0.016772464
28	0x3c8ca19e	0.017166909
29	0xbb51d940	-0.003202036
30	0x3c2b373d	0.010450182
31	0xbc7f8ce6	-0.015597558
32	0x3c543fca	0.012954662
33	0x3aec1c9d	0.0018013899
34	0x3c40c7e7	0.01176641
35	0x3bd026fe	0.0063523045
36	0x3ca8871a	0.020572234
37	0xbc5ad2bc	-0.013355907
38	0xbc8a8e01	-0.016913416
39	0x3d036da2	0.032086976
40	0xbca46c95	-0.020071307
41	0xbaaed36a	-0.0013338153
42	0xbc5e6f07	-0.013576276
43	0x3c1735a1	0.009229095
44	0xbbaf5b4f	-0.005351461
45	0xbc8ac9e0	-0.016941965
46	0xbb2692ae	-0.0025417018
47	0xb8afb734	-8.3787745e-05
48	0x3b85d082	0.004083694
49	0xbc86e8da	-0.016468454
50	0xbb8a83f4	-0.004227156
51	0xbbfb4fa7	-0.0076694074
52	0x3baccdbb	0.0052735484
53	0x3b991e34	0.00467279
54	0x3b4a53f3	0.0030872792
55	0x3c9672a8	0.01836522
56	0x3bc04e12	0.0058686817
57	0x3cf7f8d9	0.030270027
58	0x3c53d3bc	0.012928899
59	0x3aaf99e9	0.0013397309
60	0x3c4d7d20	0.012542039
61	0x3d13d2bb	0.03608964
62	0x3c102b5c	0.0087994
63	0xbb98ba71	-0.0046608974
64	0xbba8c3bb	-0.005150286
65	0x3ba3568e	0.0049846834
66	0xbaf28c13	-0.001850488
67	0x3c00e3ec	0.007866841
68	0xba60798c	-0.0008563034
69	0x3c73b20c	0.014873993
70	0x3c7a1079	0.015262716
71	0xbc9d3bb5	-0.01919351
72	0xbbfa1aee	-0.007632605
73	0xbcc20959	-0.023686098
74	0xbafb59c0	-0.0019176528
75	0x3bee15cf	0.0072657834
76	0xbc066a4b	-0.008204053
77	0xbab33a4c	-0.001367399
78	0xbc03842a	-0.008027116
79	0xbbb0eea6	-0.005399543
80	0xbcec81a7	-0.028870417
81	0xbc40e4f7	-0.0117733395
82	0x3d043b2e	0.032283
83	0x3b1c5255	0.0023852785
84	0xbc827923	-0.015926903
85	0x3c7a179d	0.015264419
86	0x3c5c5a1e	0.01344922
87	0xbb2765b2	-0.0025542793
88	0x3b120284	0.0022279331
89	0x3c5f0b28	0.0136135
90	0x3c853fcd	0.016265774
91	0xbcdaa66a	-0.02669068
92	0xbcd7c9b6	-0.0263413
93	0xbb745ebb	-0.003728791
94	0x3a0b5950	0.0005315738
95	0x3b7e1e0a	0.003877523
96	0xb9f837e5	-0.0004734389
97	0xbc44297e	-0.011972783
98	0x3c97954a	0.018503804
99	0x3b008bd7	0.00196146
100	0x3b6bcfbe	0.0035981978
101	0x3bece8b3	0.0072298883
102	0xbc06daa0	-0.008230835
103	0xbb04df83	-0.0020274825
104	0x3bb7910d	0.005602008
105	0x3c095cec	0.008383971
106	0x3cc983d6	0.024598997
107	0x3a5f9afc	0.00085298694
108	0x3ccbfdc9	0.024901288
109	0x3c4bf0db	0.012447561
110	0x3c8bc97f	0.017063854
111	0x3b9f91a4	0.0048696566
112	0x39bea017	0.000363589
113	0xbbe4dbf6	-0.006984229
114	0xbbd2e77e	-0.0064362874
115	0xbb185fb7	-0.002325041
116	0xbce88350	-0.028382927
117	0xbcf8790a	-0.030331153
118	0xbc6743bc	-0.01411527
119	0xba4c4c28	-0.00077933306
120	0xbd0828ae	-0.03324192
121	0x3b08ad74	0.002085534
122	0x3c1bce67	0.009509659
123	0xbccbe684	-0.024890192
124	0x3c253cd7	0.010085306
125	0xbc05ffb1	-0.008178637
126	0xbc13db59	-0.0090244645
127	0x3ba6046b	0.0050664446
128	0xbc0d8020	-0.008636504
129	0xbd07c0ad	-0.033142734
130	0x3c27463c	0.010209616
131	0x3c355f23	0.011070046
132	0xbbbabd7d	-0.0056988583
133	0x3ce6e08b	0.028183242
134	0x3c686e44	0.014186446
135	0xbcacfeaa	-0.021117527
136	0xbc67860a	-0.0141310785
137	0xbc43af20	-0.0119436085
138	0xbbafbc92	-0.0053630555
139	0x3bdad6a4	0.006678419
140	0xbc95bca5	-0.01827843
141	0x3c67bb3a	0.014143759
142	0x3c7002af	0.014649077
143	0x3c611c39	0.013739639
144	0x3b5b22d1	0.00334375
145	0x3c8332ad	0.016015375
146	0x3c8f7988	0.017514005
147	0x3a8fc16f	0.0010967682
148	0x3ccbb5af	0.024866907
149	0x3c0f6b3e	0.008753596
150	0x3ce59db2	0.028029297
151	0x3b2773bc	0.002555116
152	0x3ab61b4a	0.0013893631
153	0xbc2bc9ff	-0.010485171
154	0xbc8bac91	-0.01705006
155	0x3c3d96b8	0.011571579
156	0xbcb1320d	-0.021630311
157	0x3a634b96	0.0008670626
158	0xbac3e697	-0.001494604
159	0x3c920688	0.01782538
160	0x3613a5b3	2.2001157e-06
161	0x393070e3	0.00016826722
162	0x3c4a7689	0.012357363
163	0x3c1f08d5	0.009706696
164	0xb9646429	-0.00021781087
165	0x3c0c71ee	0.008572085
166	0xbc4c3865	-0.012464617
167	0x3c6d4191	0.014480964
168	0xbb9d225d	-0.004795356
169	0x3c0a57dc	0.008443799
170	0xbb831858	-0.0040007047
171	0x3c7230bd	0.014782128
172	0x3b87ed7c	0.0041481834
173	0x3b8e3821	0.004340187
174	0x3ae63deb	0.001756606
175	0x3c02a71e	0.007974414
176	0xbc4089fb	-0.011751647
177	0x3a9a98cf	0.0011794808
178	0x3b83b071	0.004018836
179	0xbcbd5b9b	-0.02311497
180	0x3b4fc575	0.0031703387
181	0xbc78d1ac	-0.015186708
182	0x3c5918ff	0.013250588
183	0xba986ca3	-0.0011629056
184	0x3c1ea2f0	0.009682402
185	0x3a3bc72c	0.0007163163
186	0xbab0fa7f	-0.0013502388
187	0xbc385a2e	-0.011251969
188	0x3c27987a	0.010229224
189	0x3c1c55f6	0.009541979
190	0x3c3260b9	0.010887318
191	0xbcb5a5bb	-0.022173753
192	0xbc29bf4b	-0.010360549
193	0x3c0b86e6	0.008516049
194	0xbc2dae80	-0.010600686
195	0xbc1acb21	-0.009447844
196	0x3c3c09dd	0.011476961
197	0x3b5d6aea	0.003378565
198	0xbc5134b0	-0.012768909
199	0xbca0bd6c	-0.019621573
200	0xbc372c16	-0.0111799445
201	0xbd11eead	-0.03562801
202	0xbb977088	-0.004621569
203	0x3c840c67	0.016119195
204	0x3ba54c57	0.005044501
205	0xbb6dacab	-0.0036266248
206	0xbb8eef3c	-0.004362015
207	0x3bedb2b0	0.007253967
208	0x3b675783	0.0035299964
209	0xbaa8e88a	-0.0012886685
210	0xbbdee68b	-0.006802385
211	0x3bee096f	0.007264308
212	0x3c60f587	0.013730413
213	0x3c8aa9f1	0.016926738
214	0xbad30d8e	-0.0016102062
215	0x3c584160	0.01319918
216	0x3c32dfad	0.010917586
217	0x3bdcf9ae	0.0067436313
218	0xbb92ab22	-0.004475967
219	0xbb6f9889	-0.0036559424
220	0xbc717996	-0.014738461
221	0x3be15b94	0.006877372
222	0x3ca70cd6	0.020391863
223	0xbc0530a5	-0.008129274
224	0x3ce0ffc4	0.027465709
225	0x3d08168d	0.03322463
226	0xbb9e8e94	-0.004838774
227	0x3c4c7566	0.012479162
228	0xbd0f5da9	-0.03500143
229	0x3b9fd98d	0.004878229
230	0x3ac87716	0.001529428
231	0x3b51e580	0.0032027662
232	0x399b4575	0.00029615653
233	0xbc470614	-0.012147445
234	0x3bf831ce	0.0075742966
235	0xbbafa886	-0.0053606657
236	0xbbf08afd	-0.0073407874
237	0xbbf57359	-0.007490557
238	0x3c7dc07d	0.015487787
239	0x3b51f344	0.0032035867
240	0x3c20339d	0.009777931
241	0x3b916ba7	0.004437882
242	0x3aa23ed1	0.001237834
243	0xbc096a11	-0.008387105
244	0xbad27834	-0.0016057552
245	0xbc8922bd	-0.016740197
246	0xbc3af0bf	-0.011409937
247	0x3bedf67d	0.0072620497
248	0x3c200f23	0.009769234
249	0xbcaaf199	-0.020867156
250	0x3cba2e9a	0.0227273
251	0x3c340008	0.010986336
252	0x3c1d0d88	0.009585746
253	0x3c615fd7	0.01375576
254	0xbc3f20ca	-0.011665532
255	0x3c22c0a6	0.009933626

network_body._body_endoder.seq_layers.0.bias f4 [256]
0	0xb9ac6260	-0.00032879692
1	0xb90d5691	-0.00013479056
2	0xbac74082	-0.001520172
3	0xbaa74cc3	-0.0012763966
4	0xb9fd970d	-0.00048368462
5	0xb7bc93d5	-2.2480186e-05
6	0xbaaad838	-0.0013034409
7	0x3a228016	0.0006198896
8	0xb925ec6f	-0.00015823705
9	0x39918b34	0.0002776027
10	0x37605f34	1.3373607e-05
11	0x38aec273	8.3331855e-05
12	0xb58abcf3	-1.0336793e-06
13	0x39d510dd	0.0004063909
14	0x3a37cd30	0.00070114713
15	0xb8f27a17	-0.000115622
16	0x37bbe2f1	2.2397815e-05
17	0xbad20349	-0.0016022708
18	0x3aa38dcd	0.0012478173
19	0x3a10a6b9	0.00055180077
20	0xba435429	-0.00074512005
21	0x390c8f0f	0.00013404734
22	0xbad1f372	-0.0016017987
23	0x39164737	0.00014331644
24	0x38312ecf	4.2243682e-05
25	0x3a3b0ddd	0.00071355497
26	0xb916cce9	-0.0001438145
27	0x3a07b047	0.00051761087
28	0xb93b5d6b	-0.0001786851
29	0xba117972	-0.0005549408
30	0x38e01a0a	0.000106860025
31	0x382b3c58	4.0825777e-05
32	0x3909d390	0.00013144151
33	0xba35a33b	-0.0006928925
34	0x39b0bc5d	0.00033709678
35	0xb98d2216	-0.00026919012
36	0xba6c678e	-0.00090181164
37	0xb9b9519a	-0.00035346748
38	0x39b6ff36	0.00034903892
39	0xb960b880	-0.00021431036
40	0xb8b019f2	-8.397167e-05
41	0x3a890521	0.0010453799
42	0x39f87c4d	0.00047394857
43	0xba22a7b8	-0.00062048016
44	0x39ac8444	0.00032904942
45	0x397a44dc	0.0002386751
46	0xb9e6c218	-0.0004401363
47	0x397762d3	0.0002359257
48	0x3a55aefc	0.000815138
49	0xb8b84de3	-8.788311e-05
50	0xba47b4e4	-0.00076182024
51	0xba051d17	-0.0005077882
52	0xb90b0bd8	-0.00013260485
53	0xb92c2070	-0.00016415282
54	0x380448ac	3.1538933e-05
55	0x3834db72	4.311972e-05
56	0x3abf1ea7	0.0014581279
57	0xb91f2290	-0.00015176297
58	0xbaa42cf3	-0.0012525603
59	0xb84426ef	-4.67663e-05
60	0xba0ed693	-0.0005448844
61	0xbacc9a13	-0.0015609883
62	0xb8a390ba	-7.799403e-05
63	0x38abfb94	8.2007755e-05
64	0xbac80098	-0.0015258966
65	0x3ab810e1	0.0014043116
66	0xb9abe576	-0.00032786623
67	0xba62e34a	-0.00086550845
68	0x3987f82a	0.00025934103
69	0xb9ba0d15	-0.0003548643
70	0x39ca33e5	0.00038567107
71	0xba44f485	-0.0007513243
72	0x393def46	0.00018113581
73	0xb7d2e762	-2.5141697e-05
74	0xb9a05654	-0.00030581898
75	0xbad03f15	-0.001588794
76	0xb8977e15	-7.223726e-05
77	0x3ac05ff2	0.0014677031
78	0x38f5d709	0.00011722564
79	0x392eedbb	0.00016682495
80	0x38f653bd	0.000117457916
81	0xb97afc4c	-0.00023935846
82	0xb9683f38	-0.00022148795
83	0xb9ff097a	-0.0004864445
84	0x3a4ef820	0.000789525
85	0xb55d156a	-8.236008e-07
86	0x39fdcc74	0.0004840825
87	0xba7ff327	-0.00097637106
88	0xb9021581	-0.00012405777
89	0x3a4355eb	0.00074514624
90	0x397a32a9	0.0002386073
91	0x39098fb7	0.00013118876
92	0x3ab8a8eb	0.0014088427
93	0xb90eb382	-0.00013609047
94	0xbaa5b208	-0.0012641558
95	0x3a098033	0.00052452384
96	0x38b26dc7	8.508149e-05
97	0xb8e80456	-0.0001106343
98	0xb9a77890	-0.00031942548
99	0xb8229646	-3.8763763e-05
100	0xb92cb19e	-0.00016469366
101	0xbadf5207	-0.0017037996
102	0xb97598b3	-0.00023421906
103	0xb9c7e297	-0.0003812506
104	0xb9b42dfd	-0.0003436654
105	0x3a01e2bf	0.0004954747
106	0x391563cc	0.00014246925
107	0x388b0772	6.629423e-05
108	0xba9c91aa	-0.0011945267
109	0xb86016e8	-5.3427095e-05
110	0x38ffafea	0.00012192114
111	0x3900b2fe	0.00012273711
112	0xb9e5e571	-0.0004384923
113	0x39a1493b	0.00030762874
114	0x3aa999a5	0.0012939466
115	0x3a2090ed	0.0006125111
116	0xbac2b96c	-0.0014856285
117	0x3a1de9b2	0.0006023898
118	0xbab43a34	-0.0013750256
119	0x3a2abeca	0.0006513415
120	0x3abc0809	0.0014345656
121	0xb90b4ec3	-0.00013285414
122	0xb8bbe176	-8.95885e-05
123	0xb9f168f8	-0.0004604531
124	0xb7d22a94	-2.5053778e-05
125	0xb944a80b	-0.00018754617
126	0xba31db00	-0.00067846477
127	0x394ce162	0.00019538918
128	0xb97a69a4	-0.00023881212
129	0x391f7250	0.00015206006
130	0xb6cc9d70	-6.098002e-06
131	0x38fc3124	0.000120254495
132	0x3aa01642	0.0012213665
133	0xb89874c1	-7.269672e-05
134	0x3a0a1c8c	0.0005268536
135	0x39b86eff	0.00035177913
136	0x398f0b35	0.00027283435
137	0x38e92b73	0.00011118399
138	0xba1875da	-0.0005815901
139	0xb97fb0b6	-0.00024384525
140	0xb9b5866a	-0.00034623157
141	0x3a3c152a	0.00071747846
142	0xb9271a73	-0.00015936214
143	0xba082364	-0.0005193262
144	0x3910449b	0.00013758468
145	0x39879d9b	0.00025866632
146	0xb9e3dc11	-0.00043460776
147	0x396438c3	0.0002176492
148	0xba227f53	-0.00061987824
149	0xb8c89e76	-9.566259e-05
150	0x3a1090ac	0.0005514722
151	0xba6a8141	-0.0008945652
152	0xbab806c2	-0.00140401
153	0x3a037406	0.0005014542
154	0x39358699	0.00017311647
155	0xb9c777fc	-0.00038045633
156	0x3991bb36	0.00027796038
157	0xb92c6d8b	-0.00016444006
158	0xb9087ca9	-0.0001301641
159	0x3911bbe9	0.0001389828
160	0x39c583f1	0.00037673072
161	0xb87947f2	-5.943323e-05
162	0xb9857f42	-0.0002546255
163	0xb90e8645	-0.00013592195
164	0x3a4953c5	0.0007680024
165	0xb9e1ded4	-0.00043081364
166	0xb88ad944	-6.620822e-05
167	0xb8b4e460	-8.625607e-05
168	0xb9ccaa0a	-0.000390366
169	0xba9c1dbc	-0.0011910717
170	0x38b08ebc	8.41892e-05
171	0xba0a9c50	-0.00052875746
172	0xba18a670	-0.0005823141
173	0x3ac5959e	0.0015074497
174	0xb9f50ca3	-0.00046739457
175	0xba31d9e6	-0.00067844836
176	0x3916b194	0.00014371268
177	0xb66c6e6c	-3.5231014e-06
178	0x3912431c	0.00013948645
179	0x3996ab42	0.00028737827
180	0xb891a619	-6.945077e-05
181	0xba9fae95	-0.0012182767
182	0xba874f10	-0.0010323245
183	0xbab61c36	-0.0013893906
184	0x3ace936b	0.0015760487
185	0x396c49a6	0.0002253415
186	0xb97fdbcc	-0.00024400576
187	0x3754fba1	1.2694772e-05
188	0x39ef1a64	0.00045605295
189	0xb78394b7	-1.5685668e-05
190	0xb94b50a3	-0.00019389628
191	0x38e47d5c	0.00010895237
192	0x3a245a3f	0.0006269551
193	0x3a303ae1	0.0006722641
194	0x398736de	0.00025790086
195	0x3aa799cf	0.0012786927
196	0x3aaaf5d9	0.0013043239
197	0xb990b880	-0.00027603284
198	0x3984b5b5	0.00025312384
199	0x3ab65aee	0.0013912597
200	0x393f5430	0.00018246542
201	0x39a1255b	0.00030736145
202	0xb9b87c08	-0.00035187625
203	0xba830161	-0.0009994918
204	0xb9ae4d67	-0.00033245535
205	0x3a9effc3	0.0012130666
206	0x3a6a6c93	0.00089425704
207	0xb7973683	-1.8025987e-05
208	0xb96c3fd8	-0.00022530498
209	0xb9a090d6	-0.0003062549
210	0xb91e6eb7	-0.00015109299
211	0xb810ca4c	-3.452068e-05
212	0x39bb15fd	0.00035683802
213	0xba5d5aa8	-0.000844399
214	0x3aaeb235	0.0013328256
215	0xba9ff15a	-0.0012202666
216	0x393d5597	0.0001805633
217	0xbaa21a01	-0.0012367369
218	0x382b6387	4.086227e-05
219	0xb9813a91	-0.00024648433
220	0x3802cc6a	3.118479e-05
221	0xb8a56992	-7.887477e-05
222	0xb9d3306b	-0.0004028113
223	0xbab80036	-0.0014038149
224	0x389accd1	7.381442e-05
225	0x39929a98	0.0002796247
226	0xba64a3c4	-0.0008721913
227	0xb9c9784c	-0.00038427336
228	0xb8cece6b	-9.861294e-05
229	0xbace4d13	-0.0015739523
230	0x3ad823fb	0.0016490215
231	0xb906b5a3	-0.00012846901
232	0xb8db570a	-0.00010458946
233	0x3981c034	0.00024748
234	0xb9fa6911	-0.00047761996
235	0x39a29696	0.00031011243
236	0xb60febed	-2.1445987e-06
237	0xb547db74	-7.4452623e-07
238	0xb9ede446	-0.0004537424
239	0x39bbb553	0.00035802517
240	0xb8b5bd3a	-8.665999e-05
241	0x38be7cca	9.08315e-05
242	0xb8bb023d	-8.917272e-05
243	0xb9d439fa	-0.00040478987
244	0xb99a2541	-0.00029400925
245	0xb9900fb1	-0.0002747751
246	0xb920c975	-0.00015333838
247	0xbaa532ac	-0.0012603602
248	0xb9866b89	-0.00025638592
249	0x39b92d6f	0.000353198
250	0x3aa3b4b8	0.0012489771
251	0xb93713d3	-0.00017459625
252	0xb8fb8836	-0.00011993984
253	0x398beeb7	0.00026690002
254	0x3969448c	0.00022246147
255	0xb8e3dd5d	-0.000108654356

network_body._body_endoder.seq_layers.0.weight f4 [256, 50]
0	0xbe1aef64	-0.15130383
1	0xbe8102c7	-0.2519743
2	0x3dd6eeb1	0.104947455
3	0x3d47dcc8	0.048794538
4	0xbe81ab9c	-0.2532624
5	0x3e8bdd0b	0.2731708
6	0x3daefbb4	0.08544102
7	0x3e5d11e4	0.21588856
8	0x3d6f262a	0.058386005
9	0x3e8ffc65	0.2812225
10	0xbcb32fab	-0.021873316
11	0xbdb83ae5	-0.08995608
12	0xbcf4a1b6	-0.029862266
13	0x3c0d15cf	0.008611157
14	0x3daeb7e8	0.08531171
15	0x3e302098	0.17199934
16	0xbd040b2f	-0.032237228
17	0xbcc2dca5	-0.023786852
18	0x3e58b0a6	0.21161136
19	0xbcf15aaa	-0.029462177
20	0xbdfcfb14	-0.12352577
21	0xbda3ea71	-0.080037005
22	0xbdc036f1	-0.09385479
23	0xbbc8c6ef	-0.0061272304
24	0x3e34f55b	0.1767172
25	0x3e2ee6dc	0.17080253
26	0x3e496e3d	0.19670959
27	0xbe387a13	-0.18015318
28	0x3e434f74	0.19073278
29	0xbe3763db	-0.17909186
30	0x3d80b4b8	0.06284469
31	0x3e1811de	0.14850566
32	0xbe5f460a	-0.21804062
33	0xbb93fbfc	-0.004516123
34	0xbd981315	-0.074255146
35	0xbdb498c2	-0.08818199
36	0xbe3ef44e	-0.18647882
37	0xbd294f48	-0.041335374
38	0xbc961e11	-0.018324884
39	0x3ce52858	0.027973339
40	0xbcd092a4	-0.025460549
41	0xbc9121b0	-0.017716259
42	0xbdf6fe1f	-0.120601885
43	0xbd9c8493	-0.07642474
44	0xbe77f010	-0.2421267
45	0xbd1b9f62	-0.037993796
46	0x3c9ee625	0.01939685
47	0xbd7a26f8	-0.06107232
48	0x3de8c2b6	0.11365263
49	0x3e5816ec	0.21102494
50	0xbd51c921	-0.051217202
51	0x3cf6353d	0.030054683
52	0xbd0ba9a0	-0.034097314
53	0x3d0ba433	0.03409214
54	0xbc91aa24	-0.017781325
55	0x3e7e4a5e	0.24833056
56	0x39d78036	0.0004110352
57	0x3c15964d	0.009130073
58	0x3d272e2c	0.040815517
59	0x3de8b554	0.113627106
60	0x3decce56	0.11562793
61	0x3e08bdab	0.13353603
62	0x3e3d9616	0.18514284
63	0x3e76405f	0.24047993
64	0x3dfa0f52	0.12209953
65	0xbdbd7f28	-0.09252769
66	0x3d732c2a	0.05936829
67	0xbe89bb58	-0.26900744
68	0xbe6a4384	-0.22877318
69	0x3ce59511	0.028025182
70	0xbbdd17cb	-0.006747221
71	0xbe267ffd	-0.16259761
72	0xbca746a5	-0.020419428
73	0x3ba00dbf	0.004884451
74	0x3e4780c3	0.19482712
75	0xbe417f69	-0.1889626
76	0xbe113fb5	-0.14184459
77	0xbe08374d	-0.13302346
78	0xbdec08fa	-0.1152515
79	0xbdf32fd7	-0.11874359
80	0x3dc9d945	0.09855894
81	0x3e5aef85	0.21380432
82	0xbd7e9b87	-0.06216004
83	0xbdd27c46	-0.102776095
84	0xbc31b7f5	-0.010847081
85	0x3e37f98d	0.1796629
86	0x3dd9719a	0.10617371
87	0x3bc53ffc	0.0060195904
88	0x3e49875e	0.19680545
89	0x3e15092b	0.14554279
90	0x3e0fa5a8	0.14028037
91	0xbad3f22e	-0.0016170198
92	0x3e1ca224	0.15296227
93	0xbcf45469	-0.029825406
94	0xbd81c099	-0.06335563
95	0xbde33326	-0.1109374
96	0xbd3aaf66	-0.04557743
97	0xbe46b3f6	-0.19404587
98	0xbd1a388b	-0.03765158
99	0xbe7e9b17	-0.2486385
100	0x3dcca7e1	0.09992958
101	0xbd97850d	-0.07398424
102	0xbcab899b	-0.020939639
103	0xbe474163	-0.19458537
104	0x3d71fb4a	0.05907754
105	0x3ea3c7b5	0.31988302
106	0xbda09b15	-0.078420796
107	0x3d9ecbed	0.077537395
108	0xbdd5eff3	-0.10446157
109	0x3e1d758f	0.15376876
110	0x3d8e8e0c	0.06960687
111	0xbe29c116	-0.16577563
112	0x3dbdad93	0.09261622
113	0xbe2f724e	-0.17133448
114	0x3b8054ae	0.0039163446
115	0xbd0efc5d	-0.03490864
116	0x3d3a36f5	0.045462567
117	0xbdc4dc3e	-0.0961232
118	0xbd883646	-0.06650977
119	0x3cb672da	0.022271562
120	0xbe416f34	-0.18890077
121	0xbe02fe67	-0.1279236
122	0xbcdbe01c	-0.026840262
123	0xb7af1d20	-2.0875188e-05
124	0xbe943c92	-0.2895246
125	0x3da2262d	0.07917438
126	0x3db4b0ac	0.0882276
127	0xbe1c4495	-0.15260537
128	0xbd24ef24	-0.040267125
129	0x3d7b0dbc	0.061292395
130	0xbe4f689e	-0.20254752
131	0x3cde8f86	0.027168047
132	0xbe8e1bcb	-0.2775558
133	0xbc9cd884	-0.019146211
134	0xbd9c05c2	-0.07618286
135	0x3dd8a805	0.10578922
136	0x3a494778	0.0007678191
137	0xbe897d44	-0.26853383
138	0x3e3f05b1	0.18654515
139	0xbdbfa2f3	-0.09357252
140	0xbeba7624	-0.3641826
141	0x3d31b773	0.04338784
142	0xbe12ab95	-0.14323266
143	0xbdad64d9	-0.08466501
144	0xbd75dd12	-0.060025282
145	0xbdb9836b	-0.09058269
146	0xbe25e566	-0.1620079
147	0x3e4a9076	0.1978167
148	0x3cf37ed9	0.029723572
149	0x3ded9054	0.11599794
150	0xbc97c8d1	-0.018528374
151	0x3dcfcd23	0.101465486
152	0x3e0adba1	0.13560344
153	0xbc7da9f4	-0.0154824145
154	0x3dc03a12	0.09386076
155	0xbdbcc1c0	-0.092166424
156	0x3e0ad3ce	0.1355736
157	0xba0b733a	-0.00053195993
158	0xbd49e7fd	-0.049293507
159	0x3d61cddd	0.055127967
160	0x3dc88e95	0.0979282
161	0xbb756d82	-0.0037449305
162	0x3c6e128d	0.01453079
163	0x3e8b3734	0.27190554
164	0xbe1f727b	-0.15571015
165	0x3ddc1a54	0.10747209
166	0xbd0b503a	-0.034012057
167	0xbd68af99	-0.056808088
168	0xbda9dcb8	-0.08294052
169	0x3e744bc1	0.23857023
170	0xbdaa99da	-0.08330126
171	0xbcc2498f	-0.023716716
172	0xbd2d07b3	-0.04224367
173	0x3d392432	0.045200534
174	0x3e997baa	0.2997716
175	0xbdcd41a5	-0.10022286
176	0xbdce0676	-0.10059826
177	0x3d3148df	0.043282386
178	0x3e06883d	0.13137908
179	0xbd44e98c	-0.04807429
180	0x3dabf768	0.08396798
181	0xbe0c3810	-0.13693261
182	0x3dfc8e71	0.12331856
183	0xbcbc1bc0	-0.022962451
184	0x3d83f8a7	0.06443911
185	0xbce08012	-0.027404819
186	0x3e97ac4e	0.29623646
187	0xbcc762e7	-0.024339153
188	0xbd7bc33c	-0.061465487
189	0xbdc38503	-0.09546854
190	0x3dde7c72	0.1086358
191	0xbd8b416f	-0.0679959
192	0x3e8dce94	0.2769667
193	0x3dd06828	0.10176116
194	0xbd80ceee	-0.06289469
195	0x3e29ffdf	0.16601513
196	0x3e07a514	0.13246566
197	0xbebd01a3	-0.3691531
198	0x3c586250	0.013207033
199	0x3e06a4c3	0.13148789
200	0xbe17856d	-0.14796992
201	0x3dacc173	0.08435335
202	0x3c89b3a9	0.016809301
203	0x3da9dc3f	0.08293962
204	0xbd9fe4a2	-0.0780728
205	0xbe60add7	-0.21941315
206	0x3e0e9dc2	0.13927367
207	0xbc411181	-0.011783958
208	0x3a486dc7	0.00076457526
209	0xbe38dcf0	-0.18053031
210	0x3d8a0cdc	0.06740734
211	0xbd24722a	-0.040147938
212	0x3e940307	0.2890856
213	0xbc8ceaeb	-0.017201861
214	0x3d98c45c	0.074593276
215	0x3d7419b9	0.059594844
216	0xbd24111d	-0.040055383
217	0xbd44edea	-0.048078455
218	0xbb1e7d86	-0.0024183705
219	0xbcc92d8d	-0.024557853
220	0x3c8de9d7	0.017323418
221	0x3e39cf10	0.18145394
222	0x3e78f558	0.24312341
223	0x3d0ed96c	0.03487532
224	0x3d169393	0.03676183
225	0x3c2f80af	0.010711833
226	0xbdecce95	-0.1156284
227	0xbe14a9b0	-0.14517856
228	0xbe241062	-0.16021875
229	0x3e074a1f	0.13211869
230	0xbe31bf05	-0.17358024
231	0xbe67f0fe	-0.22650525
232	0xbe19db44	-0.1502505
233	0xbcd93f11	-0.02651933
234	0xbd9cdcd4	-0.07659307
235	0xbdeb17d3	-0.114791535
236	0x3e330e7e	0.17485997
237	0x3e486fef	0.1957395
238	0x3e30bba0	0.17259073
239	0x3e18b0eb	0.14911239
240	0xbd55b3d3	-0.052173447
241	0x3e054d04	0.1301766
242	0x3d8e7f28	0.06957847
243	0x3d833cec	0.06408104
244	0x3d1d427d	0.038393486
245	0x3cddfd0c	0.027098201
246	0x3dd65021	0.10464502
247	0x3cf8929a	0.030343343
248	0xbcf84954	-0.030308403
249	0x3d83d240	0.064365864
250	0xbe3aa02b	-0.18225162
251	0x3e6e3913	0.2326396
252	0x3d462698	0.04837665
253	0x3d510ac3	0.051035654
254	0xbdbd99c5	-0.09257845
255	0xbd079eb5	-0.03311034

network_body._body_endoder.seq_layers.2.bias f4 [256]
0	0x39c90c85	0.00038347035
1	0x3930c876	0.00016859345
2	0x39bcd8c4	0.00036019657
3	0xb80c9a3a	-3.3522236e-05
4	0xb9318ba9	-0.00016932063
5	0xb958d0c1	-0.00020677132
6	0xb89bec9b	-7.435047e-05
7	0x38f77e1f	0.0001180137
8	0xb9b877b0	-0.0003518439
9	0x38a3c5ae	7.8092664e-05
10	0x39869d49	0.00025675658
11	0x36e5e2ea	6.851148e-06
12	0xb9a8970f	-0.00032156004
13	0xb98e6afe	-0.00027164066
14	0xb9c1f09c	-0.00036991097
15	0xb85b36a1	-5.2264546e-05
16	0xb8aede45	-8.3383675e-05
17	0x37b295e0	2.1289045e-05
18	0x3aceaf97	0.0015768883
19	0xb92f11d4	-0.00016695942
20	0xbab4b29f	-0.0013786143
21	0xb8f0a3e4	-0.00011474619
22	0x3944948a	0.00018747352
23	0xb9f0346c	-0.00045815425
24	0xb9a0d2b2	-0.00030674558
25	0xba23f061	-0.0006253776
26	0x3994a978	0.00028355024
27	0x38966056	7.170501e-05
28	0xb889e07f	-6.574485e-05
29	0xb993515e	-0.00028098648
30	0xb98fb1db	-0.00027407598
31	0xba35c415	-0.00069338206
32	0xb8095ec2	-3.2751595e-05
33	0xb9db1f04	-0.00041794043
34	0xbaab7103	-0.0013079945
35	0x3978078f	0.00023653939
36	0xb86558f5	-5.4680702e-05
37	0xba8e287f	-0.0010845809
38	0xb93d87eb	-0.00018075078
39	0x39bb58ad	0.00035733488
40	0xb7d79b22	-2.5702237e-05
41	0x3a6c5dea	0.000901668
42	0x3a1d89bd	0.00060095993
43	0x3a4e6ec9	0.00078747846
44	0xba1864cd	-0.00058133603
45	0x390c9893	0.00013408279
46	0x3a9e1146	0.0012059591
47	0xb976a75d	-0.00023522736
48	0x38bd0ad0	9.014236e-05
49	0x398badc9	0.00026641626
50	0xba17cdc9	-0.0005790857
51	0x39c9c1f3	0.0003848221
52	0x3ac0da76	0.0014713544
53	0x397968c9	0.00023785526
54	0xb9e7063d	-0.000440644
55	0xb88395a9	-6.274443e-05
56	0x3ab8bead	0.0014094912
57	0x382ccc75	4.119841e-05
58	0xba11d884	-0.00055635744
59	0xb92d608e	-0.00016534535
60	0x393c104b	0.00017935147
61	0xb9de7d42	-0.00042436464
62	0x38b03627	8.402421e-05
63	0xb7a662ff	-1.983484e-05
64	0xb9a719fb	-0.0003187208
65	0xb8bced26	-9.008711e-05
66	0x3acf2c92	0.001580613
67	0x38eb7970	0.00011228293
68	0xb96a7a26	-0.00022361483
69	0x3a1c3284	0.0005958455
70	0x3a498440	0.0007687248
71	0xb87b72bf	-5.994993e-05
72	0xb9c93aae	-0.00038381427
73	0xba9aec67	-0.0011819721
74	0xbab3ab66	-0.0013707697
75	0xba648998	-0.0008718013
76	0x37193f8f	9.134309e-06
77	0x39835a01	0.00025053325
78	0xba45d8c9	-0.0007547257
79	0x37e6a670	2.749564e-05
80	0xb7d93e67	-2.5897474e-05
81	0x3a8dddf9	0.0010823599
82	0xba8228df	-0.0009930393
83	0x3abd1447	0.0014425599
84	0x3a1536fb	0.00056920917
85	0xbaa0d69e	-0.0012270992
86	0x38d19a83	9.994677e-05
87	0xb72ca062	-1.0289341e-05
88	0x3990c097	0.0002760931
89	0xbaa36a5d	-0.0012467612
90	0xb89813de	-7.251625e-05
91	0xb99e0bcb	-0.00030144895
92	0xb96ba898	-0.00022474153
93	0xb9c6e90b	-0.00037939133
94	0xbab80873	-0.0014040604
95	0x39a2c024	0.00031042204
96	0x39750a56	0.00023368871
97	0x385db942	5.286304e-05
98	0xba502b41	-0.00079410156
99	0x3a1c7efe	0.0005969851
100	0x38f137f3	0.00011502197
101	0x3a327d03	0.00068087893
102	0xb9fb47af	-0.0004792786
103	0xb996b1cb	-0.00028742696
104	0x3adcdf61	0.001685124
105	0xb9ae4ee9	-0.0003324666
106	0xbab2df67	-0.0013646901
107	0x382e3064	4.15299e-05
108	0x3893f86b	7.055778e-05
109	0xb980027a	-0.00024415908
110	0xb8c8652a	-9.5555864e-05
111	0xb99b9f9e	-0.00029682828
112	0xb9d7e49a	-0.00041178317
113	0xb9c1294f	-0.00036842606
114	0x37e61be0	2.7431117e-05
115	0x3904e86e	0.00012675088
116	0x39ca2deb	0.00038562654
117	0xb89bc971	-7.428497e-05
118	0xbad8ae2b	-0.0016531398
119	0x3925a6f2	0.00015797818
120	0x39e01af4	0.0004274469
121	0xb8bc4700	-8.977763e-05
122	0x3ad29255	0.0016065339
123	0xb9f3e7c4	-0.0004652125
124	0xb9289b3f	-0.00016079562
125	0xb9a39d43	-0.00031206952
126	0xb8b3685a	-8.554822e-05
127	0x393288b9	0.00017026336
128	0xb9d51336	-0.0004064084
129	0xba0856d0	-0.00052009244
130	0x395b129e	0.00020892403
131	0xb8e1ce8b	-0.00010767308
132	0x39549c85	0.00020276204
133	0xba0cdf37	-0.0005373838
134	0xb96ffc21	-0.00022886741
135	0x3a6f419d	0.00091269036
136	0xb9501871	-0.00019845531
137	0x39108b24	0.00013784744
138	0x39891c89	0.00026151937
139	0x375d1921	1.3178477e-05
140	0xb6830f4d	-3.9058855e-06
141	0xb8e855c9	-0.00011078601
142	0xb96b8e09	-0.00022464259
143	0xba1f959d	-0.0006087663
144	0xbac3ad71	-0.0014929009
145	0xb9acd04d	-0.00032961593
146	0xba1ffafa	-0.0006102767
147	0x39466b5f	0.0001892275
148	0xb9edc718	-0.000453525
149	0x399ce03b	0.00029921703
150	0xbaacd24d	-0.0013185233
151	0xb8d59011	-0.00010183466
152	0xba43de91	-0.00074718246
153	0x38a5ab7d	7.899755e-05
154	0x3941aa65	0.00018469391
155	0xba8d7046	-0.0010790906
156	0x38fc09ad	0.00012018099
157	0x39bbd84c	0.00035828573
158	0xba95caa9	-0.0011428195
159	0x39a46c80	0.00031361356
160	0xb97c16ba	-0.00024041059
161	0x3a75b02f	0.00093722617
162	0xb9f4a654	-0.0004666323
163	0x39014cdd	0.00012331032
164	0xb9e06459	-0.00042799374
165	0xb9969f4a	-0.0002872891
166	0xb99af54d	-0.00029555932
167	0x3990881a	0.00027567224
168	0x3a41a5fa	0.0007387098
169	0xb9142700	-0.00014128909
170	0xbac960e6	-0.0015363961
171	0xb9873199	-0.0002578616
172	0x38a86b51	8.0308535e-05
173	0x399c65e8	0.00029830565
174	0xb8cb1f58	-9.6856325e-05
175	0xb8eac86c	-0.00011195321
176	0x39eda0b6	0.00045323902
177	0x3801a10f	3.0905994e-05
178	0x39b0fa27	0.00033755714
179	0xb8b4ca2b	-8.6207256e-05
180	0xb9fa9957	-0.00047797963
181	0x39d56d62	0.00040708022
182	0xb99b2ee2	-0.00029598834
183	0xb9636602	-0.00021686408
184	0xba9bfe94	-0.0011901432
185	0xb7e9c686	-2.786821e-05
186	0xb943dcb4	-0.00018678867
187	0xb99b8b7d	-0.0002966783
188	0x3ab74631	0.0013982711
189	0x3a96261a	0.0011455447
190	0x374f9878	1.2373661e-05
191	0xba16ab3f	-0.00057475636
192	0x37bf5ae0	2.2811291e-05
193	0xba35b9d7	-0.00069322943
194	0xb823f484	-3.908995e-05
195	0x390c31d7	0.00013370007
196	0xb9c0c1ff	-0.00036765632
197	0xb9dffa07	-0.0004272016
198	0x3a56cfba	0.0008194406
199	0xb9ac2aa7	-0.00032838175
200	0xbaa7e583	-0.0012809489
201	0xb8b4067c	-8.584277e-05
202	0xbab771b5	-0.0013995679
203	0x39875553	0.00025812778
204	0x36e5c8b0	6.848095e-06
205	0xb989a9bf	-0.00026257147
206	0x39cb85c8	0.00038818852
207	0xba274c83	-0.00063819456
208	0x3934a7fa	0.00017228714
209	0x3a397582	0.00070747
210	0x3a69797f	0.0008906349
211	0xb98d947f	-0.00027004254
212	0xba28cecc	-0.00064395065
213	0x39a9d749	0.00032394592
214	0xb81704da	-3.6005724e-05
215	0xb9a0b093	-0.00030649136
216	0x39aeafca	0.0003331884
217	0x3a034bca	0.0005008547
218	0x39cf0d7b	0.0003949216
219	0xb879ed58	-5.958727e-05
220	0xb970ba48	-0.00022957579
221	0x392af17f	0.00016302428
222	0x38a8a836	8.042196e-05
223	0xb9ca32f4	-0.00038566405
224	0xb8b94370	-8.834049e-05
225	0x3a6c8ef4	0.0009023987
226	0xb9abec90	-0.00032791914
227	0xb775f94a	-1.466118e-05
228	0x38ac0ac5	8.203605e-05
229	0x3a0f8b4f	0.00054757757
230	0xbad94175	-0.0016575294
231	0x3a1e3696	0.00060353556
232	0xb92708dc	-0.00015929661
233	0xb8dcb286	-0.0001052367
234	0xb883cf2d	-6.285156e-05
235	0xbab831b5	-0.00140529
236	0x392161d8	0.00015390606
237	0xba9ef4f1	-0.0012127442
238	0xba2261db	-0.0006194391
239	0xba27aa3b	-0.0006395911
240	0xb8f7da36	-0.00011818523
241	0xbadfbcb7	-0.0017069791
242	0x3a8863d3	0.0010405726
243	0xba23f0a1	-0.0006253813
244	0xba845d30	-0.0010098573
245	0x3899b595	7.329431e-05
246	0xb937cb91	-0.00017528074
247	0xb9abb52e	-0.0003275065
248	0x3a400cff	0.00073261553
249	0xba4ae9fb	-0.0007740554
250	0xbaab27a7	-0.0013058082
251	0xba872292	-0.0010309985
252	0xbaba7865	-0.0014226554
253	0xb8ed9eec	-0.00011330642
254	0xb91d7903	-0.00015017767
255	0x3997b24f	0.00028933815

network_body._body_endoder.seq_layers.2.weight f4 [256, 256]
0	0x3cab8a83	0.020940071
1	0x3d7fa48c	0.062412784
2	0xbda4beac	-0.0804418
3	0xbdaf6dac	-0.0856584
4	0x3cd7ca5c	0.02634161
5	0xbcc96c70	-0.02458784
6	0xbd25679a	-0.040382005
7	0x3d91fd1b	0.07128354
8	0x3d89b015	0.06723038
9	0xbbbfaf78	-0.005849775
10	0xbd4844c1	-0.048893694
11	0xbc2557f3	-0.0100917695
12	0xbe08e156	-0.13367209
13	0xbde819e3	-0.113330625
14	0xbc947a1a	-0.018124629
15	0x3cd5aeb4	0.026084282
16	0xbd006f3a	-0.031356074
17	0xbd5fc58e	-0.054631762
18	0x3d25947e	0.040424816
19	0x3e09b656	0.13448462
20	0x3d713f00	0.058897972
21	0xbdbb2b53	-0.09139123
22	0x3b6129c1	0.0034357163
23	0xbd203c2f	-0.039119896
24	0x3d4237e6	0.04741659
25	0xbb8e81a3	-0.00434895
26	0x3de04a3c	0.10951659
27	0x3dbb4244	0.091434985
28	0x3db8196b	0.08989223
29	0x3d1b3c02	0.037899025
30	0xbd0e912d	-0.03480642
31	0x3d89505b	0.0670478
32	0x3d3894d1	0.045063797
33	0x3bbd8788	0.005783979
34	0x3d9c35b5	0.07627431
35	0x3d01b041	0.03166223
36	0xbd701703	-0.058615696
37	0x3cb97753	0.022639906
38	0x3ca6f510	0.020380527
39	0x395d1c57	0.0002108676
40	0xbd5771df	-0.05259883
41	0x3b1d1e4b	0.0023974355
42	0xbd3642f9	-0.044497464
43	0x3cbc8419	0.023012208
44	0xbdedebf4	-0.1161727
45	0xbdc162dd	-0.09442685
46	0xbd7892db	-0.060686927
47	0x3ce8cdad	0.028418386
48	0x3dae4d5d	0.085108496
49	0xbcc67e1c	-0.024230056
50	0x3cc64d0c	0.02420666
51	0x3c95fbc9	0.018308537
52	0x3d460ce1	0.048352126
53	0xbd86fa09	-0.06590659
54	0xbc8f0dbf	-0.01746261
55	0x39ae11a1	0.00033201
56	0x3cc8fb57	0.02453391
57	0x3c275d47	0.01021511
58	0x3c59cf9b	0.013294126
59	0x3ccf8e62	0.025336448
60	0x3d7832fb	0.060595494
61	0xbcc28f30	-0.023749918
62	0x3d8fe978	0.070269525
63	0xbc649fea	-0.013954142
64	0x3b5e2117	0.0033894235
65	0xbcb2e24d	-0.021836424
66	0xbe0166ae	-0.12636825
67	0x3d8f146d	0.06986318
68	0x3cfc68e7	0.03081174
69	0x3d536749	0.051612172
70	0x3b2ef6f8	0.0026697498
71	0x3d16575f	0.036704417
72	0x3db03e8b	0.08605679
73	0xbd9ec7a5	-0.07752923
74	0xbca6837d	-0.02032637
75	0xbdab938e	-0.08377753
76	0x3b33dd19	0.0027445017
77	0xbd224b9d	-0.03962289
78	0xba6b3caf	-0.0008973581
79	0x3d506072	0.050873227
80	0x3cbd2d3e	0.023092862
81	0xbbc29327	-0.005937952
82	0x3d31ffbc	0.043456778
83	0xbd77e553	-0.060521435
84	0x3cc0c61e	0.02353197
85	0xbdc436cc	-0.09580764
86	0x3c9ab4cd	0.01888504
87	0x3dee392e	0.11632
88	0xbbb7db7a	-0.0056108804
89	0x399593cd	0.00028529615
90	0xbd1af618	-0.03783235
91	0x3bc2af5c	0.0059413146
92	0xbdb34663	-0.087536596
93	0xbd73af30	-0.059493244
94	0x3c5a4906	0.013323074
95	0x3c900a6d	0.017583096
96	0x3cf0917c	0.029366247
97	0x3d95c001	0.073120125
98	0x3d608eb0	0.054823577
99	0xbccbbdc6	-0.024870764
100	0xbda0711c	-0.07834074
101	0x3e193e27	0.14965115
102	0x3bf64bc2	0.0075163553
103	0x3bf16867	0.007367182
104	0x3d5be41c	0.05368434
105	0x3d634d27	0.0554935
106	0x3b743177	0.0037260929
107	0x3d9aa78e	0.0755149
108	0xbcd20f0f	-0.025641946
109	0x38825318	6.2143605e-05
110	0xbdc427e3	-0.0957792
111	0x3dfa4765	0.12220649
112	0xbdf4f43d	-0.11960647
113	0xbbd52a0d	-0.006505257
114	0xbb24ed1a	-0.0025165738
115	0xbd9e6679	-0.07734389
116	0x3ba6b6c3	0.005087705
117	0x3dbc934c	0.09207782
118	0x3d62eb67	0.05540028
119	0xbd93f265	-0.072239675
120	0x3d721880	0.059105396
121	0xbcc788a1	-0.024357142
122	0xbd1727a1	-0.036903027
123	0x3c31bac4	0.010847751
124	0xbd818034	-0.06323281
125	0x3d41064a	0.04712514
126	0x3dc3ac24	0.095543176
127	0x3d20b63a	0.039236285
128	0x3d5afad9	0.053461883
129	0x3d1147c6	0.03546884
130	0xbc6c8bd2	-0.014437633
131	0xbd4f5c95	-0.050625402
132	0x3d8dd774	0.0692586
133	0xbdd061b2	-0.10174884
134	0xbd1846da	-0.037176944
135	0x3cc9e377	0.024644597
136	0xbd8d105a	-0.068878844
137	0xbc5be2a5	-0.0134207355
138	0xbdc53f4b	-0.09631213
139	0xbd1f8603	-0.038946163
140	0xbd6470a9	-0.055771504
141	0x3d006e0c	0.03135495
142	0xbdbe0812	-0.09278883
143	0x3db6a871	0.089188464
144	0x3d5cacc0	0.053875685
145	0x3c9bdd6d	0.019026482
146	0x3e2db172	0.16962221
147	0x3d98af7f	0.07455348
148	0x3d2c0328	0.041995198
149	0x3d3b9c7c	0.045803532
150	0x3c8e7eb6	0.017394405
151	0x3d22e32b	0.039767426
152	0x3d461a08	0.04836467
153	0x3d96899d	0.073504664
154	0xbcfa5b3c	-0.030561082
155	0x3db032b8	0.08603424
156	0xbca8dacb	-0.020612141
157	0x3db904ab	0.090340935
158	0xbc8d26bb	-0.017230382
159	0x3c805c4a	0.015669007
160	0xbc54533d	-0.012959299
161	0xbd1a82a2	-0.037722237
162	0xbca1e289	-0.01976134
163	0xbccc2f54	-0.024924912
164	0x3cf0f9bb	0.029415956
165	0x3c29d0d4	0.01036473
166	0x3b7f3514	0.003894155
167	0x3d2d1b35	0.042262275
168	0xbd8d2982	-0.068926826
169	0x3d316c32	0.043316074
170	0xbd7a9384	-0.061175838
171	0x3b6ae677	0.0035842934
172	0xbdbd214b	-0.09234866
173	0x3d087cbf	0.033322092
174	0xbb8d9473	-0.004320675
175	0x3d558580	0.05212927
176	0x3d59f886	0.053215526
177	0xbc89ccce	-0.016821291
178	0x3c6cd4fd	0.014455077
179	0x3d2a53a8	0.041583687
180	0xbd34b670	-0.0441193
181	0x3d2b0a2e	0.041757755
182	0xbd22ec96	-0.039776407
183	0x3d9d6e49	0.07687051
184	0x3d3225c4	0.043493047
185	0xbd548e81	-0.051893715
186	0xbcda08e9	-0.026615577
187	0xbdbae503	-0.09125712
188	0x3a8c11e4	0.0010686484
189	0x3da0dea8	0.07854968
190	0xbd0e8b04	-0.034800544
191	0xbc0a8f28	-0.008456983
192	0x3d667831	0.056266967
193	0xbc3fe2d4	-0.011711795
194	0xbda44e69	-0.08022768
195	0xbda1e41a	-0.07904835
196	0xbd23d8f1	-0.040001813
197	0x3df01b6d	0.11723981
198	0xbc08bb8f	-0.008345499
199	0x3d6f936f	0.058490213
200	0x3d9a8f45	0.07546858
201	0x3c818278	0.015809283
202	0xbccb53f4	-0.024820305
203	0xbda77497	-0.081765346
204	0x3cdc3486	0.026880514
205	0xbe119cd3	-0.1421998
206	0xbd634aa9	-0.055491123
207	0x3db8f446	0.090309665
208	0x3be481b8	0.0069734715
209	0x3dea3ee7	0.11437779
210	0x3d40c0a0	0.0470587
211	0x3c9a3be0	0.018827379
212	0x3d1844b2	0.037174888
213	0x3bfa007d	0.0076294527
214	0xbcf7148f	-0.03016117
215	0xbd305d97	-0.043058004
216	0x3c2d13f3	0.010563838
217	0xbe13f08e	-0.14447233
218	0xbd823d7b	-0.06359383
219	0x3d5aa14f	0.053376492
220	0xbdd930f8	-0.10605043
221	0xbdf45ab3	-0.11931362
222	0xbb10dd2f	-0.0022104492
223	0x3be37bbf	0.006942242
224	0x3e1b8ef5	0.15191253
225	0x3d8501c5	0.06494478
226	0x3d61ccaf	0.055126842
227	0xbc85bf27	-0.0163265
228	0x3d44b6f3	0.048026036
229	0x3de4c2be	0.111699566
230	0xbd5842a3	-0.052797925
231	0xbaf73762	-0.001886111
232	0xbdf1727f	-0.117894165
233	0x3d08e9ac	0.033425972
234	0x3d967d69	0.07348139
235	0x3d6f8b24	0.058482304
236	0xbe24d5a2	-0.1609712
237	0x3d34426b	0.044008654
238	0x3ca83055	0.020530859
239	0x3d49883c	0.04920219
240	0xbe0d0801	-0.13772584
241	0xbc287934	-0.010282803
242	0x3d22dd0e	0.039761595
243	0x3d125dc8	0.035733968
244	0x3d449f15	0.048003275
245	0xbbb39940	-0.0054809153
246	0xbcecf9cf	-0.028927712
247	0x3c70cb00	0.0146968365
248	0x3cd8675d	0.026416475
249	0x3c201443	0.009770456
250	0xbd035fee	-0.032073908
251	0x3cd5699d	0.026051337
252	0x3dd843d4	0.10559812
253	0x3c298de7	0.010348774
254	0xbd738d47	-0.059460904
255	0xbd8753fa	-0.06607814

network_body._body_endoder.seq_layers.4.bias f4 [256]
0	0xb9ee48e0	-0.00045449194
1	0x39b6edbf	0.0003489088
2	0xb8856d87	-6.362335e-05
3	0xb7af22a8	-2.0877764e-05
4	0xb8ff625e	-0.0001217767
5	0x3aa5a026	0.0012636229
6	0xb72137f0	-9.609372e-06
7	0xb79228f2	-1.7423623e-05
8	0xb84bebd0	-4.861859e-05
9	0xb981dea4	-0.00024770678
10	0xb79ceca7	-1.8706849e-05
11	0x396f2425	0.00022806281
12	0xb8f158cf	-0.000115083174
13	0xb9a41096	-0.00031292875
14	0xba0edbab	-0.0005449603
15	0xba0731ce	-0.0005157263
16	0xb9166f53	-0.00014346586
17	0x3a9de66b	0.0012046819
18	0xbaae87f4	-0.0013315664
19	0x387e911b	6.069346e-05
20	0xb9402cf1	-0.00018327289
21	0xba659ab4	-0.00087587093
22	0xba1248a4	-0.00055802823
23	0x382d7581	4.135585e-05
24	0xb9a8941c	-0.00032153807
25	0xba9e46be	-0.0012075526
26	0x399d2f53	0.00029980633
27	0xba6c4d4d	-0.0009014204
28	0xbad5ac4c	-0.0016301959
29	0xb9183e96	-0.00014519165
30	0x3a110288	0.0005531688
31	0xb90f99b1	-0.00013694797
32	0x39ea4057	0.00044679895
33	0xba2cc7f7	-0.00065910764
34	0xb86c5c0e	-5.6352517e-05
35	0xb918dfd3	-0.0001457923
36	0xb91699a2	-0.00014362347
37	0xb8c8e7fe	-9.579955e-05
38	0xb708c285	-8.151522e-06
39	0x3939d33b	0.00017721664
40	0x39b5118a	0.00034536078
41	0xb8f1d84c	-0.00011532064
42	0xb928dd35	-0.00016104135
43	0xba14dcdf	-0.00056786643
44	0xb8e00de8	-0.000106837426
45	0xb922b1e1	-0.00015515789
46	0xba5dac4f	-0.0008456157
47	0x395b9888	0.0002094229
48	0xb9423b0b	-0.00018523277
49	0xbadb01f6	-0.0016708958
50	0x3a097e6c	0.00052449736
51	0x3a0bc374	0.0005331554
52	0x3a5b13ff	0.00083571667
53	0xb9f2af69	-0.00046288528
54	0xb8b0d7bd	-8.4325184e-05
55	0x3aa216c2	0.0012366401
56	0xba92d256	-0.0011201601
57	0xb811381b	-3.4622946e-05
58	0xb83857ea	-4.3950895e-05
59	0x39a6ba4d	0.00031800792
60	0xb7f31464	-2.8977352e-05
61	0xb9454071	-0.0001881139
62	0xb91158ff	-0.00013861431
63	0xb8931015	-7.012502e-05
64	0x39667dda	0.00021981393
65	0xb96cb05a	-0.0002257241
66	0x3aaa1dea	0.0012978886
67	0xb97001f0	-0.00022888905
68	0xb96cd309	-0.0002258533
69	0xb9a05016	-0.00030577247
70	0x39e20217	0.00043107636
71	0xba9282bb	-0.0011177877
72	0x399272fe	0.00027932966
73	0x3a5baf3a	0.0008380298
74	0x39983a20	0.00029035006
75	0x38c863be	9.5553216e-05
76	0xb92afd82	-0.00016306902
77	0xb812a413	-3.496192e-05
78	0xb9b2c3cc	-0.00034096686
79	0x3913a3e8	0.00014080072
80	0x3931d5e9	0.00016959723
81	0xb9d04b09	-0.00039728757
82	0xb925fb45	-0.00015829231
83	0xb9f30fe0	-0.000463604
84	0x39a86695	0.00032119887
85	0x3a1333ee	0.0005615343
86	0x3ab75841	0.0013988094
87	0xb855cb78	-5.0972652e-05
88	0xba09d277	-0.0005257497
89	0x38a15093	7.6920864e-05
90	0x38d7d544	0.00010291723
91	0x3947801d	0.00019025845
92	0xb97f7998	-0.00024363992
93	0x3a9a5f91	0.0011777749
94	0xb9434c05	-0.00018624969
95	0xb7db4812	-2.6140395e-05
96	0xb8621583	-5.3902633e-05
97	0xb8f2d94e	-0.000115799354
98	0xb989cf24	-0.00026285008
99	0x3927478f	0.00015953019
100	0xb9597899	-0.00020739659
101	0x3873de1f	5.814258e-05
102	0xba3ae9e5	-0.000713019
103	0xb988b42d	-0.00026074183
104	0xb8c6bf64	-9.477025e-05
105	0xb9f69fd7	-0.00047039866
106	0xb90868ec	-0.00013009057
107	0x39098254	0.00013113889
108	0x381029fc	3.4371376e-05
109	0xba9b53f0	-0.0011850577
110	0xb986a27c	-0.00025679532
111	0xba9b0090	-0.0011825729
112	0xba946c81	-0.0011323841
113	0xb92363d8	-0.00015582086
114	0x39d670c9	0.00040901292
115	0x38c925c5	9.591462e-05
116	0xba03e425	-0.00050312496
117	0xba3d0469	-0.0007210435
118	0xb9ebc2fa	-0.00044967962
119	0xb81ffa89	-3.8141883e-05
120	0x38499c1b	4.806752e-05
121	0xb939ed46	-0.00017731366
122	0xb8ff47f8	-0.00012172753
123	0x3a71589b	0.00092066237
124	0x3a9d21a1	0.0011988172
125	0xb9f7444e	-0.00047162402
126	0x36d8c5a9	6.4603123e-06
127	0xb89f1dc2	-7.587254e-05
128	0xb94afaa3	-0.0001935759
129	0xb94d4550	-0.00019576144
130	0x3964a4fa	0.00021805233
131	0x38a50570	7.868826e-05
132	0xb93e6165	-0.00018156094
133	0xb78f60f5	-1.7092078e-05
134	0xb899762b	-7.317619e-05
135	0xb8e93dd0	-0.00011121819
136	0x3951b851	0.00020000456
137	0x3aa51b84	0.0012596701
138	0xb9b3e1ef	-0.00034309874
139	0x39b4307f	0.00034368408
140	0xb9c2cdd1	-0.0003715591
141	0xb89fb511	-7.615437e-05
142	0xba2f1632	-0.00066790276
143	0x38930ba1	7.011672e-05
144	0x391d7882	0.0001501758
145	0x37891316	1.634056e-05
146	0xba589acb	-0.0008262812
147	0x3764c706	1.3636198e-05
148	0xb9889e64	-0.00026057952
149	0xb9c00af1	-0.00036629246
150	0xb8753915	-5.8465714e-05
151	0xb92670d8	-0.00015873031
152	0x398a67e8	0.00026398827
153	0x39e8fb36	0.00044437655
154	0xbab3b7ef	-0.0013711433
155	0xb9903694	-0.00027506484
156	0xb6c2b425	-5.802622e-06
157	0xb9155f6f	-0.00014245299
158	0x37af0191	2.0862355e-05
159	0x3a2dc5e5	0.0006628915
160	0x3abab0fc	0.0014243419
161	0xb908b39f	-0.00013036885
162	0xb7f7b544	-2.9529103e-05
163	0xb92e4920	-0.00016621174
164	0x39b73af5	0.00034948406
165	0x398c4412	0.00026753597
166	0xb9bda76c	-0.00036173628
167	0xb9264afe	-0.0001585893
168	0xb80da9ea	-3.3775264e-05
169	0x37171cca	9.007004e-06
170	0xb95896ab	-0.00020655493
171	0xb984c040	-0.0002532024
172	0x3a6b742a	0.00089818484
173	0xb9db8a23	-0.00041873855
174	0xb8d5ed8f	-0.0001020088
175	0xb9a9ea6a	-0.00032408844
176	0xba588fcc	-0.00082611735
177	0x392b66a5	0.00016346069
178	0xb7c43a01	-2.3392031e-05
179	0x395e2f72	0.00021189245
180	0xb8efbe98	-0.00011431909
181	0xb9159c25	-0.00014267916
182	0xb9dfcff0	-0.000426888
183	0x3998d49a	0.000291501
184	0x394d780b	0.00019595043
185	0x3900b118	0.00012273004
186	0x3ac0b446	0.0014702163
187	0x38888bcc	6.5110245e-05
188	0x3a9256f5	0.0011164831
189	0x378a42b9	1.6481952e-05
190	0xb9284576	-0.00016047605
191	0xbabbca2c	-0.001432722
192	0x32e04869	2.610996e-08
193	0xb86e0223	-5.674561e-05
194	0x3acc6a78	0.0015595695
195	0xb9f6d497	-0.00047079168
196	0xba37f075	-0.0007016727
197	0xb9010ad2	-0.0001230643
198	0x39850b24	0.00025376037
199	0x39d7256c	0.00041035877
200	0xb882051b	-6.199834e-05
201	0x3a4d7df4	0.0007838898
202	0xb8a88654	-8.035885e-05
203	0xba74bee9	-0.0009336309
204	0x3a03fcff	0.0005034953
205	0x389666f3	7.171733e-05
206	0x3ac117ae	0.0014731789
207	0xb9916ec2	-0.00027739076
208	0x3ad3d777	0.0016162236
209	0xb981bb29	-0.00024744243
210	0xb82a720d	-4.0637377e-05
211	0xba84af49	-0.001012304
212	0xba936888	-0.0011246363
213	0xb89f1a58	-7.586618e-05
214	0xb9f2eb02	-0.0004633293
215	0xba0676e2	-0.0005129409
216	0xbacf08e1	-0.0015795493
217	0xb9588a07	-0.00020650784
218	0x398875d3	0.00026027727
219	0xb98a6b9e	-0.00026401592
220	0xb73c145a	-1.1210412e-05
221	0x389c4a43	7.452492e-05
222	0x39868d11	0.00025663574
223	0x396d84a0	0.00022651488
224	0xba1c3792	-0.00059592084
225	0x3943301b	0.0001861457
226	0xb9f5a9a4	-0.00046856434
227	0xb89418a8	-7.0617825e-05
228	0xba027a1c	-0.0004977302
229	0x3a91cf04	0.0011124318
230	0xb9e3504f	-0.00043356649
231	0x3a6da63a	0.0009065602
232	0x38eaeb4c	0.00011201817
233	0x3938a7d8	0.00017610134
234	0xb8ba5205	-8.8844485e-05
235	0x38a6fc6c	7.962514e-05
236	0xb804c2c0	-3.1652628e-05
237	0xb9d20837	-0.00040060442
238	0x3a4ae527	0.0007739835
239	0x382e8fde	4.161882e-05
240	0xb9afef4d	-0.00033556894
241	0xb99c2a59	-0.0002978619
242	0xba0b5526	-0.00053151173
243	0x380e7c21	3.3971042e-05
244	0x38b4d02f	8.621846e-05
245	0x392de611	0.00016584272
246	0xba09c470	-0.0005255407
247	0xb90ef961	-0.00013635076
248	0xb960c20a	-0.0002143459
249	0x383230df	4.2484022e-05
250	0x39462432	0.00018896235
251	0xb8d5d93f	-0.00010197097
252	0xb86abb77	-5.5964538e-05
253	0xb90b6e6b	-0.00013297207
254	0x3ac40c3f	0.0014957263
255	0xb9c49e72	-0.00037502084

network_body._body_endoder.seq_layers.4.weight f4 [256, 256]
0	0x3d93c7c6	0.07215838
1	0xbd2cea97	-0.04221591
2	0xbd6ee4c8	-0.05832365
3	0x3d205023	0.039138924
4	0xbcac60a8	-0.021042183
5	0x3d48da8a	0.04903654
6	0xbcae2089	-0.021255748
7	0x3c383d3e	0.01124507
8	0x3d139ccb	0.0360382
9	0xbd0d0b7f	-0.03443479
10	0x3d8b0b89	0.067893095
11	0xbdfd2950	-0.12361395
12	0x3b1e0f8d	0.0024118156
13	0xbe10faf6	-0.14158234
14	0x3d47006b	0.048584383
15	0x3dbfd450	0.09366667
16	0x3b2e5a37	0.0026604065
17	0xbcd24010	-0.025665313
18	0x3d5ecf32	0.054396816
19	0xbd35a5ae	-0.044347458
20	0xbd46b916	-0.048516355
21	0x3d5ab5c6	0.05339601
22	0x3dcff124	0.10153416
23	0xbe0473f0	-0.12934852
24	0x3e190613	0.14943723
25	0xbd84dce8	-0.06487447
26	0x3cf3b2d4	0.029748358
27	0x3ccbae18	0.024863288
28	0x3c1e7ae0	0.00967285
29	0x3d69e186	0.05709984
30	0x3da8f15c	0.08249161
31	0x3d837afb	0.06419941
32	0xbc835079	-0.016029583
33	0xbd9528e8	-0.07283193
34	0xbc83b7c4	-0.016078837
35	0x3d16f243	0.036852133
36	0x3dbc33b1	0.09189547
37	0x3d4e68e2	0.050392993
38	0xbb3a1cf6	-0.002839861
39	0xbcdc4199	-0.026886748
40	0xbcafe9f8	-0.02147387
41	0xbca875d9	-0.020564007
42	0x3c1001a9	0.008789458
43	0x3bd23bfb	0.0064158416
44	0x3e0ecf9e	0.13946387
45	0xbe0cde60	-0.13756704
46	0xbcd1fab4	-0.02563224
47	0xbbff531d	-0.0077918903
48	0x3d0260c0	0.03183055
49	0xbd2a1565	-0.04152431
50	0xbdb7cfe7	-0.08975201
51	0x3dbb5785	0.091475524
52	0xbdf1a46b	-0.11798938
53	0x3c0b5be6	0.008505797
54	0xbdb9d7fe	-0.090744
55	0xbd3c6709	-0.0459967
56	0xbdf63f6e	-0.12023817
57	0x3daee9e5	0.085407056
58	0x3cb52df4	0.022116639
59	0xbc733d42	-0.014846148
60	0xbdaed28b	-0.08536252
61	0x3dd6f9f0	0.104968905
62	0x3cca15e2	0.024668638
63	0x3b93ff7f	0.0045165415
64	0x3d552537	0.052037444
65	0xbaca1905	-0.0015418833
66	0x3ca753e6	0.020425748
67	0x3cba4774	0.02273915
68	0x3d367359	0.044543598
69	0x3c4152d9	0.011799538
70	0xbe11fc5e	-0.14256427
71	0xbd26a5aa	-0.040685333
72	0xbc50ff82	-0.01275623
73	0xbd6dc8e1	-0.0580529
74	0xbc340fe3	-0.010990116
75	0xbd3f0c9b	-0.04664288
76	0xbde721b9	-0.11285729
77	0xbdd23e23	-0.10265758
78	0x3d2cc60f	0.04218107
79	0xbd05c933	-0.03266258
80	0xbd30e9b6	-0.043191634
81	0xbcbfcbb8	-0.02341257
82	0x3c90c207	0.017670644
83	0xbd9012be	-0.07034825
84	0xbd72270d	-0.059119273
85	0xbd1e2471	-0.038608972
86	0x3cd3867e	0.025820967
87	0x3df554eb	0.119790874
88	0xbdb50433	-0.088386916
89	0xbd5053cd	-0.05086117
90	0xbca2ccfa	-0.019873131
91	0x3e23a01f	0.1597905
92	0x3b94ec51	0.0045447727
93	0x3cd311a3	0.025765246
94	0xbcdf82ea	-0.027284104
95	0x3bf78ea5	0.0075548464
96	0x3d6a86bb	0.057257395
97	0xbd583e6a	-0.052793898
98	0x3bc6cd8b	0.006066983
99	0xbd4884dd	-0.048954833
100	0x3d813d83	0.063105606
101	0xbdc82677	-0.097729616
102	0x3d7a6a2e	0.061136417
103	0xbe17eeff	-0.14837264
104	0xbc9952eb	-0.018716296
105	0xbdcf75ac	-0.10129866
106	0x3afdb641	0.0019356684
107	0xbd9cd603	-0.07658007
108	0x3d871253	0.06595292
109	0x3d3689ab	0.044564884
110	0x3c3dc848	0.011583395
111	0xba9505e6	-0.0011369556
112	0x3a26d670	0.0006364351
113	0x3d3d606c	0.046234533
114	0x3ceb885c	0.028751545
115	0xbd510e15	-0.05103882
116	0xbe4f72d7	-0.20258652
117	0xbbee7ed5	-0.007278303
118	0x3d5dca9c	0.0541483
119	0xbd5638fa	-0.05230043
120	0xbbf33f7f	-0.007423341
121	0xbd880fc9	-0.06643636
122	0x3d0b9e6a	0.034086622
123	0xba9fc964	-0.0012190756
124	0x3df52c61	0.11971355
125	0x3c912d2b	0.017721733
126	0x3d732add	0.05936705
127	0xbd86daa4	-0.06584671
128	0xbd6da346	-0.058017038
129	0x3ccd3b5d	0.02505272
130	0xbd14410c	-0.036194846
131	0xbd9559ec	-0.07292542
132	0x3c222d1e	0.009898452
133	0x3d30d3af	0.043170627
134	0x3c9e145e	0.019296821
135	0x3b44fea6	0.003005901
136	0xbcbf5e98	-0.023360536
137	0xbd16fa37	-0.036859717
138	0xbb1e40f5	-0.0024147604
139	0x3d632ee1	0.05546463
140	0x3d2d8420	0.042362332
141	0x3c915547	0.017740859
142	0x3d7e0e9d	0.062025655
143	0xbd900815	-0.070327915
144	0x3ca936ca	0.020656008
145	0xbd051ea7	-0.032499935
146	0x3c7a2724	0.015268121
147	0xbdd74092	-0.10510363
148	0xbc861e33	-0.016371822
149	0xbc278f4a	-0.010227034
150	0xbb73eef8	-0.0037221294
151	0xbd4a43fe	-0.04938125
152	0xbd871522	-0.06595828
153	0x3cbc404e	0.022979882
154	0xbd87745a	-0.06613989
155	0xbd84a6dc	-0.064771384
156	0xbce84f86	-0.028358232
157	0xbd7916d0	-0.06081277
158	0x3cfaffd7	0.030639572
159	0xbc7efa35	-0.015562584
160	0xbbdb06ca	-0.006684159
161	0xbdc4f051	-0.09616149
162	0xbcf351f2	-0.02970216
163	0xbcb433ed	-0.021997416
164	0xbda264b4	-0.07929364
165	0x3c3e951c	0.01163223
166	0x3d23c28a	0.03998045
167	0x3ba445e7	0.005013216
168	0xbda53146	-0.08066039
169	0xbcbd3214	-0.023095168
170	0xbd3b4168	-0.045716673
171	0xbba4c871	-0.0050287773
172	0x3d144cdf	0.036206122
173	0x3c18cec9	0.009326645
174	0xbd9d356a	-0.076762035
175	0xbb0a484a	-0.0021100217
176	0xbc0de917	-0.00866153
177	0xbce4402f	-0.027862636
178	0xbd1f6693	-0.03891618
179	0x3d1492b5	0.036272723
180	0xbcbce822	-0.023059908
181	0xbd48efc2	-0.049056776
182	0xbe1f225f	-0.15540455
183	0xbb591be0	-0.0033128187
184	0x3d5a98e2	0.053368457
185	0xbd485aaa	-0.04891459
186	0x3c667fdd	0.014068571
187	0xbd95febc	-0.07323977
188	0xbc24794b	-0.010038684
189	0xbded7090	-0.11593735
190	0x3d7cc813	0.061714243
191	0xbd36bf5e	-0.044616096
192	0x3dcc3d61	0.099726446
193	0xbd6c21dc	-0.05764948
194	0xbc9fded8	-0.01951544
195	0xbd772320	-0.060336232
196	0xbc03cce8	-0.008044459
197	0xbdf3d796	-0.11906354
198	0xbc13520c	-0.0089917295
199	0xbdb131a4	-0.08652046
200	0xbbcbda79	-0.0062211123
201	0x3cff3bb7	0.031156404
202	0x3ddfba6c	0.10924229
203	0xbd85cd35	-0.06533281
204	0xbc39f44b	-0.011349748
205	0x3c627701	0.013822318
206	0x3d528a7f	0.05140161
207	0xbd142380	-0.036166668
208	0x3d6af3e8	0.057361513
209	0xbd88ca59	-0.0667922
210	0xbdc0fa1e	-0.09422706
211	0xbd0e2193	-0.034699988
212	0x3d2dbfe0	0.042419314
213	0x3dabcb44	0.08388379
214	0x3a11ca51	0.00055614585
215	0x3de37093	0.11105456
216	0xbc8403a5	-0.01611502
217	0xbd38ddf8	-0.04513356
218	0xbbf22d22	-0.007390634
219	0xbd70338f	-0.05864292
220	0xbd368742	-0.044562586
221	0x3cddd9b7	0.027081354
222	0xbd280572	-0.041020818
223	0xbd9aa71e	-0.07551406
224	0xbd1f5019	-0.038894746
225	0x3d4040bd	0.04693674
226	0x3d2e9521	0.04262269
227	0xbd47e389	-0.04880098
228	0xbdc51fbd	-0.09625194
229	0x3d61e777	0.055152383
230	0x3cf7ca4e	0.030247834
231	0x3d44004f	0.047851857
232	0x3d2688e5	0.040657897
233	0x3dc5370e	0.096296415
234	0xbc76340b	-0.015027056
235	0xbb4f58e6	-0.003163868
236	0x3debbd71	0.115107425
237	0x3a56b803	0.0008190872
238	0x3d524244	0.051332727
239	0x3d0f1dd1	0.034940545
240	0x3dc13ca1	0.09435392
241	0xbd070a4f	-0.032968815
242	0x3ce0253c	0.027361505
243	0x3cd106fe	0.02551603
244	0xbd1a2c24	-0.037639752
245	0xbd833276	-0.06406109
246	0x3d81a9d4	0.0633122
247	0xbd1cd76e	-0.038291387
248	0xbb4d2fa7	-0.003130892
249	0xbe265952	-0.1624501
250	0xbc19b5e6	-0.009381747
251	0x3da7bae8	0.081899464
252	0x3d35e354	0.04440625
253	0x3cc7179c	0.02430325
254	0x3b8a5ddd	0.004222615
255	0xbd0cc180	-0.034364223
