results/ppo/MoveToGoal/MoveToGoal-3855.pt (torch, 157663 bytes, 14 tensors)

network_body._body_endoder.seq_layers.0.weight f4 [128, 12]
000000 00 aa 11 3f d1 58 82 be b7 e3 e2 be a2 7a a4 be
       0.56900024 -0.25458387 -0.44314358 -0.3212481
000010 70 cd 86 3e 0b 78 ef 3e 3a f3 80 be a0 5f 70 3e
       0.2632861 0.46771273 -0.25185567 0.23473978
000020 65 a2 9b bc be b9 8a bd c8 8d 84 be 4f f0 96 be
       -0.018998334 -0.06773709 -0.2588942 -0.29480216
000030 97 8e fa bd 72 ff 72 be 9a d9 9e bd d7 da 98 3e
       -0.12234228 -0.23730257 -0.07756348 0.29854462
000040 fb be 9c 3d d0 00 a7 3d 9b 14 cc be ec 8d 01 be
       0.07653614 0.08154452 -0.3985947 -0.12651795
000050 25 91 4b be 34 19 c3 be 81 87 9d 3e 09 26 c5 3d
       -0.19879587 -0.38105166 0.30767444 0.09626395
000060 d8 eb 2c 3f 2a 44 85 be 64 11 28 3d e0 52 ed bd
       0.6754737 -0.26028568 0.04103221 -0.11588073
000070 6a 32 2a bf 08 e0 82 3d af e1 5b 3e 99 bd 1c bc
       -0.66483176 0.06390387 0.2147281 -0.009566688
000080 e5 d5 42 3e f8 70 c3 bd c3 93 69 3d 6b ad 25 3e
       0.19026907 -0.095430315 0.057025682 0.16179435
000090 16 cc 47 be 61 11 5e 3e b9 9c cf bd 7c 2e 53 3e
       -0.19511446 0.21686317 -0.10137314 0.20623201
0000a0 6b 22 c0 bb 4c 43 c5 bd 88 a9 cd bd aa a1 cb 3c
       -0.005863478 -0.096319765 -0.10042101 0.02485736
0000b0 7e a8 ba be 9c 9d 0e 3e 1e 2f 9e 3e b7 99 e3 3e
       -0.36456674 0.1392731 0.30895323 0.44453213
0000c0 13 06 72 3e 64 7c 16 be 35 e8 18 bf d1 04 08 3f
       0.2363513 -0.14695889 -0.5972932 0.5313235
0000d0 51 a1 04 be 73 fb 48 3e 55 6a da 3d a9 4a 57 bd
       -0.12952162 0.1962717 0.106648125 -0.052561436
0000e0 3b 00 b2 3d 1a 98 19 3d 5b 7e b3 3d fd 9a 27 bd
       0.0869145 0.03749857 0.08764335 -0.040919293
0000f0 21 37 12 bc 72 11 df 3d ad cc d7 3e a2 a0 d1 3c
       -0.008924277 0.10891999 0.42148343 0.025589291
000100 25 e1 e7 3e 8e a6 72 be ab 6e 9b bc c2 c5 b4 3e
       0.4528896 -0.23696348 -0.018973669 0.35307127
000110 5e 3e 0f bf 9a d6 6d be 0c ae 1b bf b0 7e ae be
       -0.5595454 -0.23226395 -0.6081245 -0.3408103
000120 9d 98 32 3e 84 cf 98 be a2 00 c6 3e 6e 22 bf 3c
       0.1744103 -0.29845822 0.38672358 0.023331847
000130 90 7d 94 bb 22 6e ec 3c fa d0 22 3e 27 ca 6d bd
       -0.00453157 0.02886111 0.1590003 -0.058054116
000140 5d 3b 4e bd 7f 96 b8 3e 09 88 44 3c 09 c3 4a 3e
       -0.050349582 0.3605232 0.011995324 0.19800963
000150 0c d7 25 be 26 81 b2 bb 55 9f 0d be f5 7f 20 be
       -0.16195315 -0.0054475246 -0.13830312 -0.15673812
000160 c7 19 aa be c9 7f 59 3e 24 5a 05 bf 28 f4 8c 3e
       -0.33222792 0.21240152 -0.5209067 0.27530026
000170 5f 68 be 3d a7 7b f9 be 22 58 83 3e 42 49 1c 3f
       0.09297251 -0.48727152 0.25653177 0.6104928
000180 d4 c1 e5 be d7 84 93 be 65 09 44 3e 9b 6c 6c be
       -0.44874442 -0.28812286 0.19144209 -0.23088305
000190 c5 5c 12 be 82 23 b1 be fc ec 50 3e ff 0e 51 be
       -0.14293201 -0.34597403 0.20402902 -0.20415877
0001a0 92 c2 25 3e b0 24 20 3e 08 d3 58 3e d1 cf 91 3e
       0.16187504 0.15638995 0.21174252 0.28478864
0001b0 d9 14 07 3f d6 2c ee bb 18 54 82 be f8 8e 67 be
       0.52766186 -0.0072685285 -0.25454783 -0.22613132
0001c0 47 1e a6 bd 07 3a 2c be b7 7d e0 be 9a 0e 8e bd
       -0.08111244 -0.1681901 -0.43845913 -0.06936379
0001d0 63 00 a8 be 11 0e 29 bf d4 7a 2c bd 33 9f ef bc
       -0.32812795 -0.6603709 -0.042109326 -0.029250717
0001e0 65 62 81 be 2f f0 83 3e d2 fd 65 3e 9f 7a 7e 3e
       -0.25270382 0.25769183 0.22460106 0.24851464
0001f0 83 cf 64 3c 3b ee 09 3d be 8f 56 bc 5f 62 96 3d
       0.01396549 0.03367446 -0.013095794 0.073429815
000200 3e 70 3b 3e 79 8f 24 bf dc b1 d2 3e f5 a0 40 3e
       0.18304536 -0.6428142 0.4115132 0.188114
000210 f8 9e ea 3d 32 21 8a 3a a8 85 ee be 79 67 7d bd
       0.11456102 0.0010538457 -0.46586347 -0.061866257
000220 67 83 13 3d a5 0e 33 bc 16 ac 82 bd 23 c1 cc bd
       0.036013987 -0.0109287845 -0.06380479 -0.099977754
000230 fa 8a 47 3e 04 53 9d bd ee 60 1e 3e 30 7e ed bd
       0.19486609 -0.076818496 0.15466663 -0.11596334
000240 84 9c ff bc 05 6d 95 3e 41 8f bd 3e 92 74 62 be
       -0.031202562 0.29184738 0.37023357 -0.2211478
000250 2c d9 47 be 58 0d 96 3e f0 76 0c 3e d3 ff a0 3b
       -0.19516438 0.29307055 0.13717246 0.004913309
000260 1d 07 b0 3e 03 f4 b0 be 2a e4 ce 3d 5a a5 5e 3e
       0.34380427 -0.34561166 0.101021126 0.21742764
000270 9f 3b 20 3f 50 bd 2a be 74 da 36 3e a1 9c 92 bc
       0.62590975 -0.1667378 0.17856771 -0.017896952
000280 a9 a9 a3 bd 66 a4 bc be da 3a ac 3e e3 59 70 be
       -0.079913445 -0.36844176 0.3363865 -0.23471789
000290 6f e5 a3 3e 26 30 09 be cf 36 32 bf cd d7 81 3e
       0.3201098 -0.13397273 -0.6961488 0.25359955
0002a0 35 dd b1 be fb fe 73 be a0 ca 3f 3e 0c b2 ef bd
       -0.3473908 -0.23827736 0.18729639 -0.117038816
0002b0 42 fa 49 3d ee 17 22 be 03 9a 94 3e be 30 25 be
       0.04931093 -0.15829441 0.29023752 -0.16131875
0002c0 05 99 b2 be 69 75 99 be 6d 36 1b 3e e4 1e 02 3e
       -0.3488237 -0.2997239 0.1515748 0.12707096
0002d0 dd 4f f0 3e b3 9b f5 bd 8e 8f 00 3f 5e 34 a6 3c
       0.4693593 -0.11992588 0.5021905 0.020288642
0002e0 07 c3 4a 3e d8 cc b1 bd 29 43 10 bf f9 7d 0a be
       0.1980096 -0.08681649 -0.5635248 -0.13524617
0002f0 b5 81 9b be 67 a7 cc bd 92 40 52 bd 0a ff 00 3f
       -0.30372396 -0.09992867 -0.05133111 0.5038916
000300 9c ed 75 be 06 e8 1d 3e 1a e3 14 be 80 17 75 3e
       -0.24016422 0.15420541 -0.14539757 0.23934746
000310 ab 56 8c 3d d6 da 49 3e 28 f1 d2 bd bf 2e d8 be
       0.06852468 0.19712386 -0.10299903 -0.42223164
000320 43 bb b8 3d 24 c8 10 be 38 a6 7c be 27 19 0c 3f
       0.09020092 -0.14138848 -0.24672782 0.5472588
000330 c0 2f 53 be 42 1f 18 bf 2e 9f a0 3e 04 41 0c 3e
       -0.20623684 -0.59422696 0.31371444 0.13696676
000340 51 f9 9c 3e fa fd 84 be a4 a3 c1 3e 5b dd 1d bf
       0.30658963 -0.2597502 0.3782016 -0.61665887
000350 46 df 33 3e 80 ca 7d bc d4 89 cd bc de e1 06 3f
       0.17565641 -0.015490174 -0.025090136 0.52688396
000360 0d 39 37 3d 2d ca ea bd ba 07 96 3e b4 b5 89 be
       0.044732142 -0.11464343 0.2930277 -0.2689644
000370 da 84 6d bd 2c 8c 3d 3e c3 7d 34 3f 0c 83 60 3e
       -0.057988025 0.18510503 0.705044 0.2192499
000380 cd a6 d6 3e 6d d5 2b 3e 50 7b 87 3c 59 38 cc be
       0.41924134 0.16780634 0.016538292 -0.3988674
000390 bb dd d2 3e 37 01 2d bd a0 bf 3c bf 2c 66 ee 3b
       0.41184792 -0.042237487 -0.73729897 0.0072753634
0003a0 42 c9 f0 be 6b a8 59 bf 93 81 b2 bd 7e b0 62 be
       -0.47028548 -0.8502261 -0.087161206 -0.22137639
0003b0 41 12 2f bd e0 d9 c5 3d 2f 35 90 bd d8 02 32 bd
       -0.042742018 0.09660697 -0.07041394 -0.043459743
0003c0 c0 7b 05 bf 32 f5 8a be 9d 5e 10 3f a7 36 75 be
       -0.5214195 -0.27140194 0.5639437 -0.2394663
0003d0 df 63 ce be cb b1 6f 3e e1 aa 3d 3d 68 8c 05 3e
       -0.4031057 0.23407666 0.04630554 0.13041842
0003e0 c8 2b 0d 3e 17 8f 1c bf 4a de 4f be 4e e1 20 be
       0.13786232 -0.6115584 -0.2029964 -0.15710947
0003f0 fd 95 db 3d ad 1a 50 3d 1a d3 25 3e 4b 0d 17 bf
       0.10721967 0.05080669 0.1619381 -0.5900466

network_body._body_endoder.seq_layers.0.bias f4 [128]
000000 00 00 00 00 00 00 00 00 00 00 00 00 00 00 00 00
       0.0 0.0 0.0 0.0
000010 00 00 00 00 00 00 00 00 00 00 00 00 00 00 00 00
       0.0 0.0 0.0 0.0
000020 00 00 00 00 00 00 00 00 00 00 00 00 00 00 00 00
       0.0 0.0 0.0 0.0
000030 00 00 00 00 00 00 00 00 00 00 00 00 00 00 00 00
       0.0 0.0 0.0 0.0
000040 00 00 00 00 00 00 00 00 00 00 00 00 00 00 00 00
       0.0 0.0 0.0 0.0
000050 00 00 00 00 00 00 00 00 00 00 00 00 00 00 00 00
       0.0 0.0 0.0 0.0
000060 00 00 00 00 00 00 00 00 00 00 00 00 00 00 00 00
       0.0 0.0 0.0 0.0
000070 00 00 00 00 00 00 00 00 00 00 00 00 00 00 00 00
       0.0 0.0 0.0 0.0
000080 00 00 00 00 00 00 00 00 00 00 00 00 00 00 00 00
       0.0 0.0 0.0 0.0
000090 00 00 00 00 00 00 00 00 00 00 00 00 00 00 00 00
       0.0 0.0 0.0 0.0
0000a0 00 00 00 00 00 00 00 00 00 00 00 00 00 00 00 00
       0.0 0.0 0.0 0.0
0000b0 00 00 00 00 00 00 00 00 00 00 00 00 00 00 00 00
       0.0 0.0 0.0 0.0
0000c0 00 00 00 00 00 00 00 00 00 00 00 00 00 00 00 00
       0.0 0.0 0.0 0.0
0000d0 00 00 00 00 00 00 00 00 00 00 00 00 00 00 00 00
       0.0 0.0 0.0 0.0
0000e0 00 00 00 00 00 00 00 00 00 00 00 00 00 00 00 00
       0.0 0.0 0.0 0.0
0000f0 00 00 00 00 00 00 00 00 00 00 00 00 00 00 00 00
       0.0 0.0 0.0 0.0
000100 00 00 00 00 00 00 00 00 00 00 00 00 00 00 00 00
       0.0 0.0 0.0 0.0
000110 00 00 00 00 00 00 00 00 00 00 00 00 00 00 00 00
       0.0 0.0 0.0 0.0
000120 00 00 00 00 00 00 00 00 00 00 00 00 00 00 00 00
       0.0 0.0 0.0 0.0
000130 00 00 00 00 00 00 00 00 00 00 00 00 00 00 00 00
       0.0 0.0 0.0 0.0
000140 00 00 00 00 00 00 00 00 00 00 00 00 00 00 00 00
       0.0 0.0 0.0 0.0
000150 00 00 00 00 00 00 00 00 00 00 00 00 00 00 00 00
       0.0 0.0 0.0 0.0
000160 00 00 00 00 00 00 00 00 00 00 00 00 00 00 00 00
       0.0 0.0 0.0 0.0
000170 00 00 00 00 00 00 00 00 00 00 00 00 00 00 00 00
       0.0 0.0 0.0 0.0
000180 00 00 00 00 00 00 00 00 00 00 00 00 00 00 00 00
       0.0 0.0 0.0 0.0
000190 00 00 00 00 00 00 00 00 00 00 00 00 00 00 00 00
       0.0 0.0 0.0 0.0
0001a0 00 00 00 00 00 00 00 00 00 00 00 00 00 00 00 00
       0.0 0.0 0.0 0.0
0001b0 00 00 00 00 00 00 00 00 00 00 00 00 00 00 00 00
       0.0 0.0 0.0 0.0
0001c0 00 00 00 00 00 00 00 00 00 00 00 00 00 00 00 00
       0.0 0.0 0.0 0.0
0001d0 00 00 00 00 00 00 00 00 00 00 00 00 00 00 00 00
       0.0 0.0 0.0 0.0
0001e0 00 00 00 00 00 00 00 00 00 00 00 00 00 00 00 00
       0.0 0.0 0.0 0.0
0001f0 00 00 00 00 00 00 00 00 00 00 00 00 00 00 00 00
       0.0 0.0 0.0 0.0

network_body._body_endoder.seq_layers.2.weight f4 [128, 128]
000000 40 0b ec bc 14 f8 ec bd 2b 4e 50 3d 34 4e e7 bd
       -0.028813958 -0.11570755 0.050855797 -0.11294213
000010 12 31 34 3c 20 3e 5f 3d ec 2d a2 3d 21 dd 5d 3d
       0.010998027 0.054502606 0.07918915 0.054165963
000020 d9 8e 95 ba 25 03 b1 3c 24 b4 58 bd 39 f5 1a be
       -0.001141037 0.021607945 -0.05290617 -0.15132608
000030 95 5c b3 bd 00 98 b5 3d 46 e9 80 3d 07 66 b8 3d
       -0.08757893 0.08866882 0.062944934 0.09003835
000040 89 11 f1 bc 09 41 00 be 3a 88 91 3d 94 5c 7f bd
       -0.029427307 -0.12524809 0.07106061 -0.06234415
000050 64 ad 9d 3d 18 c5 cc bd bb f7 12 be 8f 45 3e 3d
       0.07699087 -0.0999853 -0.14352314 0.046453055
000060 5e 88 10 be 5b 3e 0a 3d 1e c7 96 bd 2c 09 0e be
       -0.1411452 0.033750873 -0.07362197 -0.13870686
000070 2d cc b6 3b 7b 78 9e bd 2b 53 4d 3d 03 a2 07 3d
       0.005578539 -0.077378236 0.050128143 0.03311349
000080 9e bf ea 3d 4f 16 03 3d 7f e9 0b be 55 e0 eb 3d
       0.11462329 0.032003697 -0.1366329 0.11517397
000090 ee 6a 20 be 9a da 50 3d 61 a9 0f bd 8d 27 0a bd
       -0.1566579 0.050989725 -0.03507364 -0.033729125
0000a0 b9 6e 61 bc ed ae 59 3d f3 05 8e bb 12 30 8e bd
       -0.0137593085 0.053145338 -0.0043342053 -0.069427624
0000b0 ae 74 07 3e 71 11 fb bb 88 c1 4c bd 83 74 f7 3d
       0.13228104 -0.0076619913 -0.049989253 0.1208277
0000c0 fd 06 76 bd 1e 00 72 bc a8 73 9c 3c 40 b2 e8 3a
       -0.06006526 -0.014770536 0.019098118 0.0017753318
0000d0 89 4c be 3d 60 8b 9e 3d bb 10 b4 bc 9e 75 65 3c
       0.09291942 0.077414274 -0.021980634 0.014005093
0000e0 2e 2d 66 bd 8d da c8 bb 5e 37 8e 3d 06 b3 7d 3c
       -0.05619543 -0.006129569 0.06944154 0.015484577
0000f0 ff 7d 15 bd 9c d1 38 be 1a 59 a1 bd a0 4c b5 bc
       -0.036497112 -0.1804871 -0.07878323 -0.022131264
000100 e8 e4 bc bd e0 54 01 3d de 2e 36 bb da ae 71 bd
       -0.09223348 0.031575084 -0.002779893 -0.059004642
000110 d8 28 fc 3d 33 5e 73 bd 21 f5 1a bc b2 5a ac 3c
       0.12312478 -0.059416007 -0.009457857 0.02103934
000120 56 10 74 bc ea 95 61 bd 56 4f 13 3e 80 fe d7 bd
       -0.014896473 -0.05507461 0.14385733 -0.10546589
000130 aa af 08 be 69 36 03 be bd 6c 33 bd 4a 55 11 bd
       -0.1334826 -0.12813725 -0.043804873 -0.03548173
000140 dd ab 0f bd 18 d2 0d 3e 6c 71 a8 bd 03 ee dd 3c
       -0.03507601 0.13849676 -0.082247585 0.027091032
000150 8b 78 26 be 22 cd b1 3d c6 1e 84 bd c6 ac 1f be
       -0.16256921 0.08681704 -0.06451182 -0.15593252
000160 59 14 3a bd 17 5e f4 bd c9 db 02 3d 66 e9 7b bd
       -0.04542956 -0.11932009 0.031947885 -0.061501883
000170 51 b1 83 3d 45 e8 10 bd d9 7c 6c bd 1a ef 9f bd
       0.06430305 -0.03537776 -0.05773625 -0.07809277
000180 c3 e5 26 3e 26 c8 93 3d 20 95 ec bb 37 f4 27 be
       0.16298585 0.0721591 -0.0072199255 -0.16401754
000190 73 40 6f bc b9 67 88 3d 25 57 13 3e c4 ff 40 bd
       -0.014602768 0.066604085 0.14388712 -0.047118917
0001a0 44 45 2c bc 3f 3b b7 3d 08 f1 1f 3e 07 19 f8 3c
       -0.010514561 0.08946847 0.1561929 0.030285371
0001b0 ad ad 88 3d 6a 00 58 3d 98 b4 26 bd 00 d7 f7 3d
       0.06673751 0.05273477 -0.04069957 0.12101555
0001c0 28 f3 a6 3d 60 cb ae 3d 57 b3 8a bd 71 8b dd bd
       0.08151847 0.085348845 -0.067724876 -0.10817612
0001d0 85 4a 3e be 5d af fd bc fd 47 b6 3d 2d 4e b8 3d
       -0.18583114 -0.030967409 0.089004494 0.08999286
0001e0 27 b1 93 3d c1 00 bf 3d 1b be 48 be 2a 2b 9f bd
       0.072115235 0.09326316 -0.1960377 -0.07771905
0001f0 40 25 14 3b a0 74 50 3d c6 04 15 3d a3 ff 18 be
       0.002260521 0.050892472 0.036381505 -0.14941268
000200 2f 19 b1 3c 3b 67 5b 3e 3d f0 49 3d 04 a8 5b bd
       0.021618454 0.21426098 0.049301375 -0.05362703
000210 8b f5 b0 bd 1d bf d5 3c 0d 29 00 3e 11 c1 0c 3d
       -0.086405836 0.026092106 0.1251566 0.03436381
000220 46 6e a0 bd e6 83 b4 bd 9a d8 b2 3d e4 5b 97 bd
       -0.07833533 -0.0881422 0.0873272 -0.073905736
000230 08 82 86 3d b6 4e a1 bd 3a a3 de bc 2c d3 97 3d
       0.0656777 -0.07876341 -0.027177442 0.07413325
000240 b1 0f 82 bc 7d b1 ab bb 97 97 21 3e 94 50 3d 3e
       -0.015876623 -0.005239664 0.15780483 0.1848777
000250 74 55 15 be 08 5c 2f 3d 97 5f 2c bd 11 0d aa bd
       -0.14583379 0.042812377 -0.04208335 -0.083032735
000260 c5 b9 90 bd 6f 01 9f bd 4a 18 17 3d 82 6a 4d bd
       -0.07066683 -0.07763945 0.0368884 -0.050150402
000270 e9 1e 78 3d df ee fa bc c6 e1 2f bd 19 28 9a 3b
       0.060576353 -0.03063148 -0.042939924 0.004704487
000280 56 d7 4d 3d 12 d7 ef bb ff c9 0c 3d 2d 79 b7 3c
       0.05025419 -0.0073193396 0.034372326 0.022396648
000290 a6 f7 5e 3d 6b c3 d2 bc 0e 88 12 be 78 09 3c be
       0.054435395 -0.025727948 -0.14309713 -0.18362987
0002a0 81 52 69 bd e2 6b f0 bd a4 6a 73 bc 0d 6a d3 3d
       -0.056963447 -0.11739327 -0.014856968 0.10322962
0002b0 23 a4 10 bd db 84 12 3d 78 be fc bb fa f2 9a 3d
       -0.035312783 0.035771232 -0.0077131353 0.07565875
0002c0 66 5d f7 bd aa 25 a5 bd 22 ff cb bd 39 8d b4 3d
       -0.12078361 -0.080638245 -0.09960772 0.088159986
0002d0 da 58 4c bd 93 bb 84 bb c7 e0 c8 3d de 0b bc bc
       -0.049889423 -0.004050681 0.09808498 -0.022954877
0002e0 88 db a9 3c fd 63 cd bb 0c ac 10 bd 2c 86 41 be
       0.020734563 -0.006268023 -0.035320327 -0.18898839
0002f0 9e 78 c5 3d 1b 2a 09 3d bf 07 78 bd 48 f5 ff 3d
       0.096421465 0.03348742 -0.060554262 0.124979556
000300 2d 4f 8c 3c 2b 31 1f 3d 32 af 84 3c f0 66 b7 bd
       0.017127598 0.03886525 0.01619682 -0.08955181
000310 34 ed 79 3d 17 34 b8 3d 8b 2e 4e bd b0 ff 30 3c
       0.06101723 0.0899431 -0.050337356 0.010803148
000320 4e a4 c0 bb 41 b9 5c bd 2a ec a6 bd f3 8b 52 be
       -0.0058789616 -0.05388761 -0.081505135 -0.20561199
000330 34 a6 15 3e 2f 34 24 be f9 7c 84 ba 3f 07 c7 3c
       0.14614183 -0.16035531 -0.0010108046 0.024295447
000340 90 46 85 bc 2f 5e b4 3d 1e 2f 81 be 94 50 d0 bd
       -0.016268998 0.088070266 -0.2523126 -0.10171619
000350 ab 42 9c bb 2b 44 82 bd 2a 48 e0 bd c6 f3 40 3c
       -0.0047686896 -0.06360658 -0.10951264 0.01177687
000360 92 af 6e 3c 47 d8 ae 3c bc 22 56 bd 01 54 fa bd
       0.014568226 0.021343363 -0.05227922 -0.12223054
000370 14 e3 27 3d b0 1f f7 3b 5d 8e f8 bd 28 e1 0e 3c
       0.040988043 0.0075416192 -0.12136529 0.008720674
000380 0c 07 0d be 98 31 cd bd bc e5 ee bd e5 c4 a0 3d
       -0.1377222 -0.10019225 -0.11664912 0.07850055
000390 b5 c6 b5 3d ae 7a d7 bd 6d 0b 91 3d bc 51 3e bc
       0.08875791 -0.10521446 0.070822574 -0.011616167
0003a0 3a 86 a1 bb a6 46 40 3e 33 df d2 3c 05 1c fb 3b
       -0.004929331 0.1877695 0.025741195 0.0076632523
0003b0 83 d6 81 3d 30 50 a4 3c d6 eb 23 bc f4 1a 0b bd
       0.06339743 0.020057768 -0.010004958 -0.03396125
0003c0 12 41 4a bd 89 43 3f bd a6 41 47 be 54 e8 d0 bd
       -0.049378462 -0.046695266 -0.19458637 -0.10200563
0003d0 7e e3 94 3b c4 eb a4 3d 02 84 5d bd ef 1c 57 bc
       0.0045437207 0.08052781 -0.05408097 -0.013129457
0003e0 0a 84 00 be 53 fb 09 3e a7 5f 47 3d 75 40 bc 3d
       -0.12550369 0.13474779 0.048675206 0.09191982
0003f0 e7 45 49 be 2f 62 85 3d 05 c6 0e 3c 03 75 2e 3e
       -0.19655572 0.06512868 0.008714204 0.17036824

network_body._body_endoder.seq_layers.2.bias f4 [128]
000000 00 00 00 00 00 00 00 00 00 00 00 00 00 00 00 00
       0.0 0.0 0.0 0.0
000010 00 00 00 00 00 00 00 00 00 00 00 00 00 00 00 00
       0.0 0.0 0.0 0.0
000020 00 00 00 00 00 00 00 00 00 00 00 00 00 00 00 00
       0.0 0.0 0.0 0.0
000030 00 00 00 00 00 00 00 00 00 00 00 00 00 00 00 00
       0.0 0.0 0.0 0.0
000040 00 00 00 00 00 00 00 00 00 00 00 00 00 00 00 00
       0.0 0.0 0.0 0.0
000050 00 00 00 00 00 00 00 00 00 00 00 00 00 00 00 00
       0.0 0.0 0.0 0.0
000060 00 00 00 00 00 00 00 00 00 00 00 00 00 00 00 00
       0.0 0.0 0.0 0.0
000070 00 00 00 00 00 00 00 00 00 00 00 00 00 00 00 00
       0.0 0.0 0.0 0.0
000080 00 00 00 00 00 00 00 00 00 00 00 00 00 00 00 00
       0.0 0.0 0.0 0.0
000090 00 00 00 00 00 00 00 00 00 00 00 00 00 00 00 00
       0.0 0.0 0.0 0.0
0000a0 00 00 00 00 00 00 00 00 00 00 00 00 00 00 00 00
       0.0 0.0 0.0 0.0
0000b0 00 00 00 00 00 00 00 00 00 00 00 00 00 00 00 00
       0.0 0.0 0.0 0.0
0000c0 00 00 00 00 00 00 00 00 00 00 00 00 00 00 00 00
       0.0 0.0 0.0 0.0
0000d0 00 00 00 00 00 00 00 00 00 00 00 00 00 00 00 00
       0.0 0.0 0.0 0.0
0000e0 00 00 00 00 00 00 00 00 00 00 00 00 00 00 00 00
       0.0 0.0 0.0 0.0
0000f0 00 00 00 00 00 00 00 00 00 00 00 00 00 00 00 00
       0.0 0.0 0.0 0.0
000100 00 00 00 00 00 00 00 00 00 00 00 00 00 00 00 00
       0.0 0.0 0.0 0.0
000110 00 00 00 00 00 00 00 00 00 00 00 00 00 00 00 00
       0.0 0.0 0.0 0.0
000120 00 00 00 00 00 00 00 00 00 00 00 00 00 00 00 00
       0.0 0.0 0.0 0.0
000130 00 00 00 00 00 00 00 00 00 00 00 00 00 00 00 00
       0.0 0.0 0.0 0.0
000140 00 00 00 00 00 00 00 00 00 00 00 00 00 00 00 00
       0.0 0.0 0.0 0.0
000150 00 00 00 00 00 00 00 00 00 00 00 00 00 00 00 00
       0.0 0.0 0.0 0.0
000160 00 00 00 00 00 00 00 00 00 00 00 00 00 00 00 00
       0.0 0.0 0.0 0.0
000170 00 00 00 00 00 00 00 00 00 00 00 00 00 00 00 00
       0.0 0.0 0.0 0.0
000180 00 00 00 00 00 00 00 00 00 00 00 00 00 00 00 00
       0.0 0.0 0.0 0.0
000190 00 00 00 00 00 00 00 00 00 00 00 00 00 00 00 00
       0.0 0.0 0.0 0.0
0001a0 00 00 00 00 00 00 00 00 00 00 00 00 00 00 00 00
       0.0 0.0 0.0 0.0
0001b0 00 00 00 00 00 00 00 00 00 00 00 00 00 00 00 00
       0.0 0.0 0.0 0.0
0001c0 00 00 00 00 00 00 00 00 00 00 00 00 00 00 00 00
       0.0 0.0 0.0 0.0
0001d0 00 00 00 00 00 00 00 00 00 00 00 00 00 00 00 00
       0.0 0.0 0.0 0.0
0001e0 00 00 00 00 00 00 00 00 00 00 00 00 00 00 00 00
       0.0 0.0 0.0 0.0
0001f0 00 00 00 00 00 00 00 00 00 00 00 00 00 00 00 00
       0.0 0.0 0.0 0.0

action_model._continuous_distribution.log_sigma f4 [1, 2]
000000 00 00 00 00 00 00 00 00
       0.0 0.0

action_model._continuous_distribution.mu.weight f4 [2, 128]
000000 2b c8 1b bd a7 31 e6 3b 5f 40 1c 3d e0 2e 68 3c
       -0.038032692 0.007024962 0.038147327 0.014171332
000010 bc a5 16 bc 11 43 92 3c 4f fa f0 bb 1b e7 85 3c
       -0.009194788 0.017854245 -0.007354058 0.016345551
000020 47 61 0f 3b b5 f5 c6 3b c0 d6 64 bb a5 bd 12 bd
       0.002187805 0.006071771 -0.003491804 -0.03582539
000030 f0 bc 4f 3b f2 f4 da ba 43 17 f4 ba 52 f6 47 bc
       0.003169831 -0.001670508 -0.0018622655 -0.012204723
000040 2d 76 70 3b 59 d6 b5 bc aa 34 83 3c 9f 7e 95 bb
       0.0036691532 -0.022196935 0.016016323 -0.0045622136
000050 20 15 4b 3a 1a cb 9a 3c 20 7b 56 3b 40 72 c7 ba
       0.00077469833 0.018895674 0.0032727197 -0.0015216544
000060 74 9a b2 bc 67 27 e6 bb 15 53 1e 39 24 f8 20 bc
       -0.021802165 -0.00702374 0.00015099005 -0.009824786
000070 20 45 0a bc df 7a bb 3c f7 21 cb ba db 96 3b bc
       -0.008439332 0.022885738 -0.0015497793 -0.011449541
000080 72 b9 8b 3c 9b 09 0a 3c 69 43 28 bc aa 19 b4 3b
       0.0170562 0.008425142 -0.010269978 0.0054962235
000090 43 18 a2 3b 38 06 db 3c 4b 89 46 3c 56 0b b7 3b
       0.00494674 0.026736364 0.012117694 0.005586068
0000a0 26 33 b9 3c 33 d4 8a 3c fe 4f 8a 3b e3 3f e6 3b
       0.022607397 0.016946888 0.0042209616 0.007026659
0000b0 47 56 2b 3b 8f ed 10 bb 2e 18 8c 3c d7 c1 96 3c
       0.0026143955 -0.0022114252 0.017101374 0.018402977
0000c0 56 e2 b5 bb 78 d8 66 bc 6f 30 b6 3c 37 f1 11 3b
       -0.005550663 -0.014089696 0.022239892 0.002226902
0000d0 f9 30 b3 bc 62 d5 ca 3c 3b 91 b8 3b ea c3 cf bb
       -0.021873938 0.024759952 0.005632547 -0.0063404934
0000e0 37 84 d0 ba 8a ef 7f 3a 93 9a 3f 3c 3a 00 05 3c
       -0.0015908544 0.0009763172 0.011694568 0.00811773
0000f0 09 f4 21 bc 88 76 41 bc 1b 0a 78 ba b2 f1 db bb
       -0.009884843 -0.011808045 -0.0009461955 -0.006712162
000100 33 d4 a9 3c 0c 43 b9 ba 2f 01 8a 3c 9a cd 86 bb
       0.020731067 -0.0014134361 0.016846268 -0.004113865
000110 0d 87 8a 3c b3 bd 17 bd c1 16 08 3d 0f 6f e1 3b
       0.0169101 -0.037046146 0.033224825 0.0068796943
000120 e2 78 51 bc 74 88 83 3c 00 74 53 3c 4e ad a8 bc
       -0.012785168 0.016056277 0.0129060745 -0.02059045
000130 0f 88 d6 3a ad 96 f6 bb 27 fc 5a 3c 6b d7 c0 3c
       0.0016367453 -0.007525286 0.013365782 0.02354022
000140 3a 05 14 bc a5 07 52 bb 35 69 0b 3c ba 55 ae 3c
       -0.009034449 -0.0032048014 0.00850897 0.021281112
000150 a3 29 b2 bc 33 1f 7e bb ab e3 26 3b 08 24 15 bc
       -0.02174837 -0.003877592 0.002546529 -0.009102829
000160 ef 81 88 bc a0 b4 72 bb cf 50 0c bc 3f 4f 4a ba
       -0.01666352 -0.003703393 -0.008564188 -0.0007717497
000170 73 1f 05 3c f2 4a d9 bc 03 7f d1 3c ff 74 b4 bb
       0.008125174 -0.026524995 0.02557326 -0.005507111
000180 65 8d fe bb 1b a9 91 3c d0 c6 f1 bc d7 b9 87 bd
       -0.0077683204 0.017780831 -0.029513747 -0.06627243
000190 b8 63 04 3c 07 68 58 bc ed b4 e4 3b 02 96 74 bc
       0.008080415 -0.013208396 0.006979576 -0.014928343
0001a0 8f 4f ea bb 23 c6 88 3c cd bd 07 bb 33 a7 6f 3c
       -0.0071505974 0.016696041 -0.0020712495 0.014627266
0001b0 f0 cf dc bc 05 f8 f5 3c 80 42 5c 3b d7 14 07 bc
       -0.026954621 0.030025491 0.0033608973 -0.008244715
0001c0 1b 9e 3f bc b7 4f 15 3d 85 f5 b2 bb 72 e5 e6 3a
       -0.01169541 0.036452975 -0.005461397 0.0017615987
0001d0 32 08 e2 3c 18 17 ce bc 2d 1d 23 b9 70 53 77 bc
       0.027591798 -0.025157496 -0.0001555576 -0.015095577
0001e0 76 f5 98 bc b5 a6 0a 3c f4 64 3d 3c 71 ed 89 3c
       -0.018671732 0.008462598 0.011559714 0.016836854
0001f0 69 25 31 bc 1f 69 37 3b b7 6e 40 3c 16 1f 43 bc
       -0.010812142 0.002798624 0.0117451465 -0.011909267
000200 61 db b1 bc 5b dc 0e ba 87 d8 9a 3a ce 15 84 3c
       -0.021711053 -0.00054497056 0.0011813798 0.016123679
000210 27 16 93 bb 91 a7 80 bc da a0 35 3c 47 d5 39 3c
       -0.0044887247 -0.015704902 0.011085713 0.011342353
000220 b4 a1 be 3b d2 17 b5 3c 61 1b af 3c 4a 6a 10 bd
       0.0058176164 0.022106085 0.02137536 -0.035257615
000230 4b 40 5a 3c 40 29 a2 3c 7e 55 9f 3c d7 e0 42 3a
       0.013320993 0.01979506 0.019449946 0.00074340164
000240 ba 87 8e bc 0b 91 d5 bb db 51 f8 3c 95 f6 78 3c
       -0.017398704 -0.0065175346 0.03031247 0.0151955085
000250 a5 13 52 3c 17 73 fd 3b 75 ba eb 3c 23 b2 0a bd
       0.012822066 0.007734667 0.028775433 -0.03386129
000260 18 05 d7 3b 61 be 8d bc 19 df a4 bc 21 5e 97 3c
       0.0065618865 -0.017302694 -0.020125913 0.018477501
000270 98 ca 82 3c 4f c5 00 3b 52 3c 61 3c ad eb 1d 3a
       0.015965745 0.0019648855 0.013747292 0.0006024193
000280 dd e5 be bc 73 ac 12 bc e8 f9 98 bc 88 6a 83 3b
       -0.023302967 -0.008952248 -0.018673852 0.0040105022
000290 f3 41 b7 3c 6f 35 9d bb 53 72 c1 bc 3a 35 8e bc
       0.022370314 -0.0047976295 -0.023614084 -0.017359365
0002a0 3c d6 ba bc 91 c8 a5 3c 06 6d b1 bc 65 30 8b bc
       -0.022807233 0.02023724 -0.021658432 -0.01699085
0002b0 2d ef 70 3c 89 4f c0 3c 4f 01 9b 3c 33 4b e4 bb
       0.014705461 0.023475425 0.018921522 -0.0069669723
0002c0 3b 86 09 bd f0 94 40 3c a9 04 17 bb a8 6d 4f 3c
       -0.033575278 0.0117542595 -0.002304355 0.012660421
0002d0 94 12 9c bc ec 06 93 bc f3 8e be bc 0d a8 04 3d
       -0.019051827 -0.017947637 -0.023261523 0.03238683
0002e0 be 97 45 bc 70 39 22 bd 25 4d bb bb 9e 45 4c 3b
       -0.012060104 -0.039605558 -0.0057159835 0.0031169425
0002f0 fd 5f 90 bc e3 b6 89 bc e2 58 63 3b 7a d5 58 3b
       -0.017623896 -0.01681084 0.003469043 0.0033086226
000300 eb 21 1c bc 64 ca ab 3c 09 ee 36 3c 4d b9 16 bc
       -0.009529571 0.02097053 0.01116515 -0.009199453
000310 59 46 82 3c 6f 71 0a bb 9c ca 1c 3c 73 6a c5 3c
       0.015902685 -0.002112474 0.00956979 0.02409861
000320 a8 a7 88 3b 7a 4f 90 3b 38 b2 1c bd 88 f7 6d 3c
       0.004170377 0.0044040056 -0.0382559 0.014524348
000330 e0 b5 fe 3c a5 6f 88 bc 7a fb da 3c 0c 15 88 3c
       0.031092584 -0.016654799 0.026731241 0.016611598
000340 de 29 3e bc a8 8f 2b bd 92 c5 80 bc 78 8a 7b 3c
       -0.011606662 -0.04188505 -0.015719209 0.015352838
000350 c1 8c 1a 3c 96 ba 0d ba 81 11 97 bc 57 57 84 3c
       0.009432972 -0.00054065266 -0.018440964 0.016154928
000360 4b a4 65 3c 82 a1 21 3b 67 39 60 bb 1f 30 c9 bc
       0.014016221 0.0024662917 -0.0034213902 -0.024559079
000370 85 34 7d bb c2 07 03 bd 9c 5d 38 bb 8a 63 b5 bb
       -0.003863604 -0.03198982 -0.0028131967 -0.0055355476
000380 4a 6c d1 bb 13 f8 83 bc f1 10 39 3c a5 3e f4 39
       -0.006391083 -0.016109502 0.011295543 0.0004658598
000390 08 0f 51 bc a3 38 f3 bb 1b 10 f8 bb 07 73 7a 3c
       -0.012759931 -0.007422523 -0.0075702793 0.015286214
0003a0 c7 4f 15 3d b8 e5 79 3c e0 13 a7 3c bf f8 a5 bc
       0.036453035 0.015252523 0.02039522 -0.020260213
0003b0 9e aa 46 bb 23 86 c5 bc f7 a6 c8 3c 78 d8 22 bc
       -0.0030314098 -0.024111813 0.024493678 -0.0099393055
0003c0 11 96 96 bc 7b 72 af bc ff fc 0e bc d7 d8 88 3c
       -0.018382104 -0.021416893 -0.008727311 0.01670496
0003d0 aa 65 58 3b 7e 44 03 bd 49 e0 b4 3c 47 b7 5c 3c
       0.003301958 -0.03204774 0.022079604 0.013471431
0003e0 03 ce af 3c 15 c2 a5 3b fb 75 ed bc 0b 02 80 3c
       0.021460539 0.005058537 -0.028986922 0.015625974
0003f0 c0 05 2e bd 47 ce 02 bc b0 85 29 bc 80 aa d1 bb
       -0.042485952 -0.007983751 -0.010346815 -0.006398499

action_model._continuous_distribution.mu.bias f4 [2]
000000 00 00 00 00 00 00 00 00
       0.0 0.0

action_model._discrete_distribution.branches.0.weight f4 [2, 128]
000000 1c ea 9b 3a bb 12 d4 3b 1b 8c bd bc f7 af 9f 3b
       0.0011895332 0.0064719594 -0.023138097 0.0048732716
000010 7b b9 95 3c fc 74 23 bc df 7a 5f bc 50 62 b3 bb
       0.01827692 -0.009976622 -0.013640135 -0.0054743662
000020 08 8e e1 ba 59 fd c9 ba 8a 67 7f bc ba 71 40 3b
       -0.0017208466 -0.0015410586 -0.0155886505 0.0029364661
000030 2c 0d c6 3b 16 56 ad 3b bb 59 8a 3b 1e e6 1a bb
       0.0060440507 0.0052898033 0.0042221225 -0.0023635696
000040 c5 b3 3d bb 83 d3 08 3c 75 46 5f 3b 89 f0 05 3c
       -0.0028946262 0.00835121 0.0034069095 0.008175024
000050 eb 1a 39 3c e3 f4 68 ba 57 46 f9 3b 40 c2 5c bc
       0.011297922 -0.00088865886 0.007607262 -0.013474047
000060 9d 93 5b bc c7 b9 74 3c 0d 46 f0 ba 8e d5 80 bc
       -0.013401893 0.014936871 -0.0018331424 -0.01572683
000070 ba a7 e4 3b 1e ff 1a bc af 1d 90 bb 70 fa e9 3b
       0.0069780024 -0.009460239 -0.00439807 0.00714045
000080 74 9b 88 3b 5d 33 19 bb b1 44 11 bc e5 12 76 bb
       0.004168922 -0.0023376562 -0.008866475 -0.0037547883
000090 86 d3 04 bc 3d 54 00 ba b3 03 de 3b 6f 70 b9 3b
       -0.008107072 -0.0004895365 0.0067753433 0.005659155
0000a0 46 d2 25 3b 62 72 82 bb 2d 5b 82 bc aa 24 78 3c
       0.0025302335 -0.0039809207 -0.015912617 0.01514546
0000b0 1d ab 6b ba b3 eb ca 3b 8a d9 a8 3a e0 e7 6a bc
       -0.00089900364 0.0061926483 0.0012882215 -0.01433751
0000c0 42 4a 84 b9 d7 f9 ed bb 03 cc 80 ba ff e4 82 3b
       -0.00025232328 -0.0072624492 -0.0009826425 0.0039945836
0000d0 a7 b8 27 3b 60 80 25 bc 74 23 00 bc a0 e7 70 3c
       0.002559224 -0.010101408 -0.007820953 0.014703661
0000e0 78 48 fb 39 75 c1 2e 3c 2f 35 4e 3b 45 03 8b bb
       0.00047928444 0.010666241 0.0031464805 -0.004242333
0000f0 55 32 22 3c 23 df 92 bc 8d 97 f5 3b 37 82 a6 3b
       0.009899695 -0.017928666 0.007494873 0.005081441
000100 5f da 1f bc b8 1d f9 bb 19 15 20 3b da a2 02 ba
       -0.009756654 -0.0076024197 0.0024426638 -0.0004983373
000110 6b a7 b1 bb 00 56 69 3c 62 bb 2d 3c 58 0d 64 3c
       -0.005421569 0.014241695 0.010603758 0.013919197
000120 d3 94 8f bc 98 0d 71 bb 1c 4a c3 3b ef 7b cb bb
       -0.01752702 -0.0036781784 0.0059597623 -0.0062098424
000130 26 55 9b bc b7 d3 51 3b 60 9b 92 bc ed 44 73 bb
       -0.0189615 0.003201706 -0.017896354 -0.003711994
000140 ff 9e d1 ba f0 f3 17 bc a6 d4 b2 3a ba 92 e8 ba
       -0.0015992819 -0.009274468 0.0013643696 -0.0017743923
000150 1b 86 17 bc be 28 8e 3a 90 b7 ae ba b0 c1 ad 3b
       -0.009248282 0.0010845882 -0.0013329852 0.0053026304
000160 5d 09 64 3c 68 06 61 3b be ab 31 3c 05 04 67 ba
       0.013918248 0.0034336094 0.010844169 -0.00088125496
000170 18 6f 51 3c 66 29 88 38 6b 7c 03 3c 06 b1 a1 bb
       0.0127828345 6.4926964e-05 0.008025269 -0.004934433
000180 82 df 5d bc 33 6b 8f 3c fd 55 06 bc 4b be 6f ba
       -0.013542058 0.017507171 -0.008199212 -0.00091454823
000190 9d e7 e6 bb d7 3d 65 bb 6b 3c 9d 3b 45 79 15 bc
       -0.0070466534 -0.0034979486 0.004798462 -0.009123151
0001a0 63 ef 19 3c aa d3 a7 ba 0f d9 b3 bb 39 e7 8c bc
       0.009395453 -0.001280417 -0.005488522 -0.0172001
0001b0 4d c9 94 bb cf 83 fc 3b b6 3c 38 3c af 3e 4a bc
       -0.0045405985 0.0077061425 0.011244943 -0.0123440465
0001c0 4b f8 1a bc 4f 94 95 3a 7a 40 1e 3c 31 eb 8c ba
       -0.009458612 0.0011411997 0.009658927 -0.0010751245
0001d0 90 91 34 3c ae 90 45 bb 7c 92 18 bb 63 c7 5d 3c
       0.011021033 -0.003014605 -0.002328067 0.013536307
0001e0 70 71 a9 b9 67 dc 6d bc 45 62 e8 3b bc 27 1a 3b
       -0.0003231871 -0.01451788 0.0070917928 0.0023522219
0001f0 16 a3 aa 3c 72 6e a2 b9 f8 c3 20 bc a9 dc 93 bb
       0.020829719 -0.00030981336 -0.009812348 -0.0045123887
000200 8b b6 82 3c 5f 17 9c 3c 4b 52 28 3c 77 f2 12 3c
       0.015956184 0.019054113 0.010273526 0.008968941
000210 b6 20 0f 3a 43 89 42 bc 5c 82 2e bc d1 53 bf 3a
       0.00054598914 -0.011873546 -0.010651197 0.0014597123
000220 e3 7a 31 3b 23 ef 1f 3c 5d 79 2f bc 7c fb 9e 35
       0.0027081303 0.0097616045 -0.010710088 1.1845109e-06
000230 cb aa 50 3b 7d 43 a7 bc cf bf 0e bc 62 a3 87 3a
       0.0031840082 -0.020417923 -0.008712723 0.0010348374
000240 92 35 9d bb cb 87 ff 3a 18 e7 5e bb 7e 24 39 bb
       -0.004797646 0.0019495426 -0.0034012254 -0.002825051
000250 1f 02 1e 3a 0f 57 82 bb 0f af 34 3c 9f 96 82 bb
       0.0006027538 -0.0039776633 0.011028065 -0.0039852406
000260 ef 90 c0 bb 97 54 12 3c ab 70 b0 bb 8a 5e 11 bc
       -0.0058766524 0.008931301 -0.005384525 -0.0088726375
000270 e0 05 e7 3b c5 27 26 bc 84 ba 3a 3b 1d 0d d9 3b
       0.007050261 -0.010141318 0.002849252 0.0066238777
000280 c3 86 23 3c dd 59 18 3b 7a 4e f5 3b a7 1d 93 bc
       0.00998086 0.0023246922 0.007486162 -0.017958475
000290 a4 7a 31 bc d9 78 47 bc 6e 8c 0f 3c 1b c8 63 3b
       -0.010832462 -0.012174808 0.008761508 0.0034756723
0002a0 37 76 42 bb eb e1 ca bb 63 b9 3d bc 63 9e c8 3a
       -0.0029672512 -0.0061914823 -0.011579844 0.0015305992
0002b0 01 f3 a7 3a a2 7d 30 3b 5b 40 2a bc ed 7a fd bb
       0.001281351 0.0026930352 -0.01039132 -0.007735601
0002c0 63 68 8e bb 63 10 09 39 1b af 1c 3c 9c c4 17 3a
       -0.00434594 0.00013071443 0.009563233 0.000578949
0002d0 67 5d 4a bc ad e1 28 bb ef a8 8b bb f7 b0 70 3b
       -0.01235137 -0.002576928 -0.004262082 0.0036726573
0002e0 d7 07 fa 3b 85 d6 a8 bc 92 67 8b bc 77 99 cf bb
       0.007630329 -0.020610103 -0.01701716 -0.006335433
0002f0 d1 61 25 bb c7 5c 99 3a 2f 47 29 bb 36 7b 1e 3c
       -0.0025235305 0.0011700623 -0.0025829782 0.00967293
000300 d3 41 b0 3b e3 71 4d bc 38 8a 6b 3c 4b a2 a2 3c
       0.0053789406 -0.01253936 0.014376216 0.019852778
000310 b8 06 6e 3c 8a f6 52 bc 7b 18 13 bb 3b a4 88 3c
       0.014527969 -0.012876162 -0.0022445011 0.016679874
000320 7d 93 96 bc fa c3 ff bb f3 78 82 39 8c 0f 1a 3c
       -0.018380875 -0.0078053446 0.00024885646 0.009403121
000330 47 00 50 3b 25 28 70 bc 42 c6 d6 3b df e2 7c 3a
       0.0031738447 -0.014658009 0.006554396 0.00096468435
000340 a3 19 84 3c e7 37 62 3b 6f ca 3a 3c e6 54 02 bc
       0.016125506 0.0034518184 0.011400803 -0.007954812
000350 5b cf 17 bc 17 3a 74 bb e7 ce 15 bc 2f c0 82 3b
       -0.009265746 -0.003726607 -0.009143568 0.003990195
000360 1f f8 8c 3c 91 6b 8d bc ff 81 be bb 5f bb 78 3c
       0.017208157 -0.017263206 -0.0058138366 0.0151813915
000370 ed 56 04 3c 35 52 6a 3b 61 4f 87 ba e3 4b 75 bb
       0.008077365 0.0035754566 -0.0010323339 -0.0037429265
000380 0f 1b 30 3b a7 07 07 bb 26 a5 48 bb cf 89 a2 bb
       0.0026871597 -0.0020603926 -0.0030616014 -0.0049602757
000390 7f c4 1e 3c ce 2d 86 ba ac ce be 3a 5a bb c1 bb
       0.009690403 -0.001023704 0.0014557443 -0.0059122266
0003a0 04 ea 86 bc 82 21 cf b9 bf 4f b1 3b 8f 29 ab bb
       -0.01646901 -0.00039507082 0.005411118 -0.00522346
0003b0 13 2d 18 bc 7f 7d 7e bc a9 a0 c8 3b 18 29 81 bb
       -0.00928809 -0.01553285 0.006122668 -0.0039416663
0003c0 30 3d 82 3b 38 ac f2 39 7a 23 10 bc ab 8e 50 bc
       0.0039745793 0.0004628615 -0.008797521 -0.012729327
0003d0 02 28 5c 3b 88 10 cd bb e0 ca 9f bc 1c f5 cb bb
       0.0033593182 -0.006258074 -0.019505918 -0.0062242877
0003e0 b2 29 b7 bb e4 87 4b 3c 5d 4a b1 3c a0 76 92 3b
       -0.0055896873 0.012422536 0.021641904 0.0044697076
0003f0 8c 48 06 bb f4 f1 8a 3c 97 67 b5 bb e5 9c 34 39
       -0.0020490019 0.016961075 -0.0055360305 0.00017224585

action_model._discrete_distribution.branches.0.bias f4 [2]
000000 00 00 00 00 00 00 00 00
       0.0 0.0

network_body._body_endoder.seq_layers.0.weight f4 [128, 12]
000000 ed 3d b1 be 8d bb 46 3e d6 26 80 3c c7 90 bf be
       -0.34617558 0.19407482 0.015643518 -0.37415144
000010 6b 11 48 3e 0c 22 84 3e 31 06 70 3e 50 a2 62 3e
       0.19537894 0.25807226 0.23439862 0.2213223
000020 2f 74 64 be a5 29 13 bf da 3b 82 3e ac 30 73 3d
       -0.22309946 -0.5748542 0.25436288 0.05937259
000030 e5 a4 11 3e f9 06 4f 3f 60 50 0e 3f 17 27 25 be
       0.14223059 0.80870014 0.5559139 -0.16128193
000040 19 5a b4 bd 0a 75 32 3e 25 4d 8f 3d 0f c1 67 3e
       -0.08806247 0.1742746 0.06997136 0.2263224
000050 fa 6f 3c 3e 2e 62 5c 3c 84 d4 ab be 15 42 c1 3d
       0.1840209 0.013451142 -0.33560574 0.09436432
000060 66 ea 8c 3e b3 bf 07 3e 75 50 4e 3e e7 7e 8d 3d
       0.27522582 0.13256721 0.2014788 0.0690897
000070 ab 99 a7 3e 9b e7 ac 3d 75 22 0b 3f e1 8a 00 bf
       0.32734427 0.08442613 0.5434945 -0.5021191
000080 b0 db 0a 3d 93 37 55 be bb a1 97 be 10 aa 0e 3f
       0.033900917 -0.20821981 -0.29615578 0.55728245
000090 cb 35 3e 3f 26 32 f9 be 2b 72 d4 3e 42 72 50 3e
       0.7430083 -0.48671073 0.41493353 0.20356086
0000a0 74 d0 bc bd 12 3b 73 be fa 66 e7 be 33 0b fd 3e
       -0.09219447 -0.23753002 -0.45195752 0.49422607
0000b0 12 5c 53 bf 57 c7 95 3d 32 ac 3f 3e 16 2d 29 be
       -0.82562363 0.07313412 0.18718031 -0.16521105
0000c0 23 49 ef 3d 07 d2 08 3e db 9c 94 3e 26 ae 0e be
       0.116838716 0.13361369 0.2902592 -0.1393362
0000d0 b8 88 37 3e 0e f8 1c 3e c8 98 e3 3e 05 52 ac be
       0.17923248 0.15329 0.444525 -0.33656326
0000e0 c2 55 2b bd 5d ae 8e bd 4c 05 3f 3e 10 70 32 3e
       -0.041829832 -0.06966851 0.18654364 0.17425561
0000f0 7d ea e3 3d 89 7c 87 bd 7e 94 cc bc b9 88 ae 3d
       0.111287095 -0.0661555 -0.02497315 0.085221715
000100 09 79 5d be 40 02 1e bc 93 4e 00 be 47 4d 3f be
       -0.21628202 -0.009644091 -0.12529974 -0.18681823
000110 c3 6c dc 3e ae d3 ae be b4 ae 6c 3e b8 eb 7e bd
       0.4305173 -0.34145874 0.23113519 -0.062236518
000120 c6 7d f0 bd b9 59 69 be e0 16 06 bf b0 cb 46 be
       -0.117427394 -0.22788133 -0.52378654 -0.19413638
000130 44 77 f9 3d b9 22 01 3f 5f dd 7b bc 71 1f 93 bc
       0.12180951 0.5044361 -0.015372603 -0.017959328
000140 d8 ff 89 bf 31 c4 d9 be a9 ac f4 3e b4 3b 0a 3d
       -1.0781202 -0.42532495 0.4778798 0.033748344
000150 d6 9c 56 3e 88 c5 e9 3e d4 ef 43 be 32 2b b6 3e
       0.20958266 0.45658517 -0.19134456 0.3557983
000160 80 ad ac 3e f5 6e 97 3d 9f fa a2 3e 5b fc 2f be
       0.3372612 0.0739421 0.31831834 -0.1718611
000170 70 8f 8c 3d 63 e4 92 be 7c 7f 10 3f f1 12 3e be
       0.06863296 -0.2868987 0.56444526 -0.18561913
000180 9d 70 36 3d 8a c4 d0 3e 1b 3e 10 3e ce 4b 27 3e
       0.04454099 0.40774947 0.14086191 0.16337511
000190 8e 19 0c bd e1 b0 b2 be 79 84 8a be 45 50 05 be
       -0.03420406 -0.34900573 -0.27054194 -0.13018902
0001a0 bb 0e b0 3e ed c2 95 3e 89 f4 e5 3e 91 55 1a 3f
       0.34386238 0.2925028 0.44913128 0.60286814
0001b0 07 b4 da 3e d4 30 18 be d2 2c 04 3f cd 52 63 bb
       0.42715475 -0.14862376 0.5163089 -0.0034686804
0001c0 2e 11 79 bd 27 38 72 be 36 6d b7 3d 58 e3 83 3d
       -0.0608074 -0.23654233 0.08956377 0.06439847
0001d0 07 5d 8a 3d 9e 63 9b be 3d 0f 58 bd 96 27 a0 3e
       0.06756025 -0.3034944 -0.052748907 0.31280202
0001e0 2e 9e d1 bb 85 6a 97 3e 12 b2 b4 bd 20 a0 94 ba
       -0.0063970303 0.29573455 -0.08823027 -0.0011339225
0001f0 52 fb 9e 3e b2 12 f1 bd 7e 2f 30 3d 01 a6 46 3e
       0.31051117 -0.11771144 0.043014042 0.19399263
000200 14 09 03 3f 66 d8 d5 ba 7d a0 1b bf 14 59 32 be
       0.5118573 -0.0016315102 -0.6079176 -0.17416793
000210 38 f9 e5 3e 6c 58 25 3e 68 4b 15 bd ba 35 16 be
       0.449167 0.16147012 -0.036448866 -0.14668933
000220 76 43 45 3f 9d e4 dc bd 26 73 12 be 17 fb d3 3e
       0.7705606 -0.10785792 -0.14301738 0.41402504
000230 d6 36 74 be a9 3d 1a 3e 9b 36 d6 be 2f 99 20 be
       -0.23849043 0.15062584 -0.41838536 -0.15683435
000240 30 2f 5f 3e 5a 60 e2 3d 4d 9a 2c 3e f2 ba 17 3d
       0.21795344 0.11053534 0.16855736 0.03704352
000250 bc 83 f8 be aa 97 3a 3f 76 f4 b6 bc fd bf be 3c
       -0.48538005 0.7288767 -0.022333365 0.023284907
000260 50 e2 3e be ff 3a d5 3d 7e a8 5f bd 5e e5 01 bd
       -0.18641019 0.10411643 -0.054604046 -0.031712882
000270 ae a8 fd 3d 72 76 18 bd 1b c9 6c 3e b7 36 b0 bd
       0.12385689 -0.037222333 0.2312359 -0.08604186
000280 33 70 02 3e 15 be 90 be b5 18 e2 be 41 37 7f be
       0.12738113 -0.2827002 -0.44159475 -0.24923421
000290 ef da 5e 3e a0 20 3d 3f 06 c6 04 3f e1 66 86 be
       0.21763204 0.73877907 0.5186466 -0.26250365
0002a0 c8 86 44 3e d7 1c 89 be ed aa 2b be 65 9a 87 3c
       0.1919204 -0.26779816 -0.16764422 0.016553113
0002b0 f9 bf 38 3e 04 c2 6e bf 67 32 34 be b3 81 a1 be
       0.18041982 -0.93264794 -0.17597352 -0.31544265
0002c0 04 30 32 bc 45 7e 14 3e d3 b3 54 3e 03 88 da be
       -0.010875706 0.14501293 0.20771722 -0.42681894
0002d0 3b 5c 30 be 6d cf 31 3e f0 83 eb be eb 51 12 3e
       -0.17222683 0.17364283 -0.45999098 0.14289062
0002e0 d3 a6 48 be 2b 95 86 3e 07 ae 1c 3d 7b b9 ac be
       -0.19594888 0.2628568 0.038251903 -0.3373526
0002f0 ef 49 94 3e af 67 02 bf 40 a3 83 3e f6 c0 c2 be
       0.28962657 -0.5093946 0.25710487 -0.38037843
000300 e2 a1 28 3e 9d 8b 89 3e 37 a7 a2 3e b3 74 eb be
       0.16468003 0.2686433 0.317682 -0.45987472
000310 4d b8 83 3e 79 91 26 be b9 d0 ed 3e f5 23 1d bd
       0.25726548 -0.16266431 0.46448305 -0.03836437
000320 1f 76 97 3e b3 e1 56 3e 96 db 7a be c2 2f 11 3e
       0.29582307 0.20984535 -0.24497828 0.14178374
000330 93 9c 10 bf 74 2a a8 3e 92 b5 d5 be 08 14 65 3e
       -0.56488913 0.3284489 -0.4174009 0.22370923
000340 d8 b0 a7 be 86 a4 d5 bc ed be 46 bf d0 9f 0d be
       -0.3275211 -0.026079427 -0.7763508 -0.13830495
000350 fb d7 c3 3e a3 d1 78 be c3 1a b0 3c a7 b8 0f bf
       0.38250718 -0.2429872 0.021497136 -0.5614113
000360 e0 02 c8 3e 96 1c ba 39 01 5e 02 3f 47 7c 91 be
       0.39064693 0.00035497983 0.5092469 -0.2841513
000370 3d 4a fc bc dd 71 8c 3d 04 98 e3 bd c0 74 fb 3e
       -0.030797118 0.06857655 -0.11112979 0.4911251
000380 ba 05 ac 3e 32 17 7f be 85 93 d4 be ae 7f fa 3e
       0.3359812 -0.24911192 -0.41518798 0.48925537
000390 e4 3f 08 3e 4f 3a 00 3c 45 1c 00 3f d1 5b 05 3e
       0.13305622 0.007826402 0.50043136 0.13023306
0003a0 bb cf 55 be 98 dd c6 bd 4e c6 97 be 8f 69 c6 3e
       -0.20880024 -0.097102344 -0.29643482 0.3875241
0003b0 87 f6 7a 3e 79 79 07 3f 15 2e 73 3d 68 e3 4f 3d
       0.24508105 0.5291973 0.05937012 0.05075398
0003c0 bd 03 25 3e ee 4d 3a 3d fa b9 2a be 00 08 c8 bd
       0.16114707 0.045484476 -0.16672507 -0.09767151
0003d0 5e 86 06 bd 35 68 c2 3d 7e de e3 ba 67 c1 af 3d
       -0.032842986 0.09492532 -0.0017385033 0.085818104
0003e0 0e e6 b3 3e 60 c9 10 bf 20 dc a0 bd 70 e5 18 3d
       0.35136455 -0.56557274 -0.078544855 0.037328184
0003f0 33 d9 2e 3e 5a 94 e4 bd c6 5c e0 3d cf 9d 2c 3e
       0.17075042 -0.11161108 0.10955195 0.16857074

network_body._body_endoder.seq_layers.0.bias f4 [128]
000000 00 00 00 00 00 00 00 00 00 00 00 00 00 00 00 00
       0.0 0.0 0.0 0.0
000010 00 00 00 00 00 00 00 00 00 00 00 00 00 00 00 00
       0.0 0.0 0.0 0.0
000020 00 00 00 00 00 00 00 00 00 00 00 00 00 00 00 00
       0.0 0.0 0.0 0.0
000030 00 00 00 00 00 00 00 00 00 00 00 00 00 00 00 00
       0.0 0.0 0.0 0.0
000040 00 00 00 00 00 00 00 00 00 00 00 00 00 00 00 00
       0.0 0.0 0.0 0.0
000050 00 00 00 00 00 00 00 00 00 00 00 00 00 00 00 00
       0.0 0.0 0.0 0.0
000060 00 00 00 00 00 00 00 00 00 00 00 00 00 00 00 00
       0.0 0.0 0.0 0.0
000070 00 00 00 00 00 00 00 00 00 00 00 00 00 00 00 00
       0.0 0.0 0.0 0.0
000080 00 00 00 00 00 00 00 00 00 00 00 00 00 00 00 00
       0.0 0.0 0.0 0.0
000090 00 00 00 00 00 00 00 00 00 00 00 00 00 00 00 00
       0.0 0.0 0.0 0.0
0000a0 00 00 00 00 00 00 00 00 00 00 00 00 00 00 00 00
       0.0 0.0 0.0 0.0
0000b0 00 00 00 00 00 00 00 00 00 00 00 00 00 00 00 00
       0.0 0.0 0.0 0.0
0000c0 00 00 00 00 00 00 00 00 00 00 00 00 00 00 00 00
       0.0 0.0 0.0 0.0
0000d0 00 00 00 00 00 00 00 00 00 00 00 00 00 00 00 00
       0.0 0.0 0.0 0.0
0000e0 00 00 00 00 00 00 00 00 00 00 00 00 00 00 00 00
       0.0 0.0 0.0 0.0
0000f0 00 00 00 00 00 00 00 00 00 00 00 00 00 00 00 00
       0.0 0.0 0.0 0.0
000100 00 00 00 00 00 00 00 00 00 00 00 00 00 00 00 00
       0.0 0.0 0.0 0.0
000110 00 00 00 00 00 00 00 00 00 00 00 00 00 00 00 00
       0.0 0.0 0.0 0.0
000120 00 00 00 00 00 00 00 00 00 00 00 00 00 00 00 00
       0.0 0.0 0.0 0.0
000130 00 00 00 00 00 00 00 00 00 00 00 00 00 00 00 00
       0.0 0.0 0.0 0.0
000140 00 00 00 00 00 00 00 00 00 00 00 00 00 00 00 00
       0.0 0.0 0.0 0.0
000150 00 00 00 00 00 00 00 00 00 00 00 00 00 00 00 00
       0.0 0.0 0.0 0.0
000160 00 00 00 00 00 00 00 00 00 00 00 00 00 00 00 00
       0.0 0.0 0.0 0.0
000170 00 00 00 00 00 00 00 00 00 00 00 00 00 00 00 00
       0.0 0.0 0.0 0.0
000180 00 00 00 00 00 00 00 00 00 00 00 00 00 00 00 00
       0.0 0.0 0.0 0.0
000190 00 00 00 00 00 00 00 00 00 00 00 00 00 00 00 00
       0.0 0.0 0.0 0.0
0001a0 00 00 00 00 00 00 00 00 00 00 00 00 00 00 00 00
       0.0 0.0 0.0 0.0
0001b0 00 00 00 00 00 00 00 00 00 00 00 00 00 00 00 00
       0.0 0.0 0.0 0.0
0001c0 00 00 00 00 00 00 00 00 00 00 00 00 00 00 00 00
       0.0 0.0 0.0 0.0
0001d0 00 00 00 00 00 00 00 00 00 00 00 00 00 00 00 00
       0.0 0.0 0.0 0.0
0001e0 00 00 00 00 00 00 00 00 00 00 00 00 00 00 00 00
       0.0 0.0 0.0 0.0
0001f0 00 00 00 00 00 00 00 00 00 00 00 00 00 00 00 00
       0.0 0.0 0.0 0.0

network_body._body_endoder.seq_layers.2.weight f4 [128, 128]
000000 80 dc 0b be 03 d0 50 3c 12 db 11 3d a9 08 f2 bd
       -0.13658333 0.012744906 0.035609312 -0.11818058
000010 77 de 1d 3a 48 f6 c5 bd 5e 5f 9c 3d 99 99 3a 3d
       0.00060222246 -0.09666115 0.07635377 0.04555664
000020 7c 40 57 bd 1d 9d 71 bd 21 44 a2 3c c7 72 4f be
       -0.05255173 -0.058987726 0.019807877 -0.20258628
000030 35 fb 8e 3d 83 bb 60 bd a9 44 5a 3d 25 f6 35 be
       0.06981508 -0.054866325 0.053288136 -0.17769678
000040 eb cc 06 be 53 9e 47 3c 39 48 e0 3c af c3 89 3d
       -0.13164108 0.0121837435 0.027378188 0.06726777
000050 59 c9 c1 3d 72 ed 13 bc 12 08 35 bd 94 a9 1c 3e
       0.09462232 -0.009028779 -0.04419715 0.15299064
000060 65 9e 65 bd c5 82 59 3b 5e 38 56 bd 7c 99 a7 3d
       -0.05605926 0.0033189517 -0.05229985 0.08183572
000070 21 74 d1 3c 04 df 00 3e 46 2e bb 3c 93 53 d7 3d
       0.02556807 0.12585074 0.022849213 0.105139874
000080 14 7b 83 bd c6 f9 f4 bc ed ac 5e bd 20 a5 ac bd
       -0.0641996 -0.029904258 -0.054364134 -0.084299326
000090 23 a8 5c 3a a1 8a eb bd 59 e7 41 bd c2 f6 65 3d
       0.00084173883 -0.11501051 -0.04733977 0.05614353
0000a0 73 ad ac 3d 47 90 9c 3c 59 24 d8 bd 6a 44 05 3e
       0.0843152 0.019111766 -0.10553808 0.13014379
0000b0 33 5f e0 bd 8c 34 38 3e 74 00 1f bc 63 12 e3 bc
       -0.10955658 0.17988795 -0.009704698 -0.027718728
0000c0 7d 8a 60 bd f6 ae 07 3e 96 2b 1c bd 9a 0b 0a 3e
       -0.054819573 0.13250336 -0.038127504 0.13480988
0000d0 4a c0 15 3e 77 b1 28 be 4a b1 8f b9 2c c8 f4 bb
       0.14624134 -0.16473947 -0.00027407176 -0.0074701514
0000e0 18 ae ed bd d2 a8 2c 3d 2e 66 80 bb 5b 77 3f 3e
       -0.116054714 0.042153187 -0.003918431 0.18697874
0000f0 a2 c4 0d bd 1a 89 49 bd 35 82 99 bd ef a3 01 bd
       -0.03461135 -0.049203016 -0.07495538 -0.03165048
000100 c1 7f ba bd 41 21 20 3e 1b 48 3d 3b b0 2f fd bd
       -0.091063984 0.15637685 0.002888209 -0.12362611
000110 3c b0 b8 3d 79 b6 2b be 21 5e 54 3d 6d 0b 13 bd
       0.09017989 -0.16768827 0.05184758 -0.03589957
000120 3f 64 87 3d ef bb 94 3a c8 b3 15 3e fa 3a 00 bc
       0.06610917 0.0011347512 0.14619362 -0.007826561
000130 fd 09 8a 3d 8e 39 19 3e c6 1e d4 3d c5 ee a6 3d
       0.06740186 0.14963362 0.10357432 0.081510104
000140 a0 41 52 bc 25 c3 ec 3d 91 5a 52 3c 75 4e d3 3d
       -0.012833029 0.11560658 0.0128389755 0.10317699
000150 49 84 1a be 63 2e ee 3d 4b ee bf 3c b6 e8 ad bc
       -0.15089525 0.11629941 0.023429057 -0.02122913
000160 0a 31 a8 be bb 5a 92 3d bb c4 a2 bd 18 74 2b bd
       -0.32849914 0.07146212 -0.079476796 -0.041858763
000170 26 35 f2 bc 63 c3 91 bd 2c 4d bf 3d f6 f7 c0 3c
       -0.029566359 -0.07117345 0.09340891 0.023555737
000180 b1 03 5e be 14 b3 d1 bd 92 e4 2d bd 42 37 13 be
       -0.21681096 -0.102392346 -0.04245431 -0.14376548
000190 99 6c 4e 3e 4b 0f 11 3d 85 d5 f1 bd 07 64 92 3c
       0.20158614 0.035414975 -0.11808304 0.017869962
0001a0 26 86 0b 3e e1 a8 06 3e 05 88 29 3d ad 0c c3 bc
       0.13625392 0.1315036 0.041389484 -0.023809755
0001b0 7e ed 44 3d e4 b3 c5 3d 8f 66 85 3d e8 4a d7 3d
       0.048078053 0.09653452 0.06513702 0.10512334
0001c0 16 a2 3f be a0 b4 16 3e 06 c7 fc 3d 00 e1 ff 3d
       -0.18714175 0.1471734 0.12342648 0.12494087
0001d0 d0 4d 54 b9 3a cc d0 ba 80 34 ea 3c f5 61 a4 bd
       -0.00020246883 -0.0015930005 0.028589487 -0.08026496
0001e0 db 54 81 3d a0 b1 28 3d 68 37 83 3e 04 c3 d2 3d
       0.06315013 0.04118502 0.2562821 0.102911025
0001f0 2d af d6 3a 1f 1e 33 3e 31 e1 14 bd 65 8c b3 bd
       0.0016379111 0.17491959 -0.03634757 -0.087670125
000200 7a c4 f4 bd 36 fc 49 bd c2 fa 5c 3c 32 6f b0 3d
       -0.119515374 -0.049312793 0.01348752 0.08614959
000210 28 52 35 bd 21 2d d4 bd 91 7a ed 3c bb a0 61 3d
       -0.044267803 -0.1036017 0.028989108 0.055084925
000220 57 8f ff bd 58 c7 dd bd d3 77 28 3c 82 04 80 3d
       -0.12478512 -0.108290374 0.010282475 0.0625086
000230 6f 6b a8 3c ea 15 b3 3d 9f 7e 4e bd 6d c4 b6 bd
       0.02055904 0.08744414 -0.050413724 -0.08924184
000240 9a 76 a9 bd 09 40 82 bd bf 43 9a bb 5c b8 46 3c
       -0.082745746 -0.0635987 -0.004707783 0.012128916
000250 39 51 04 3e 95 09 3f be 17 b4 43 3e 46 d7 59 3d
       0.12921609 -0.18655999 0.19111668 0.053183816
000260 4a 9f 3d 3c 0e 2b 46 bd e6 e4 8b bc 17 0d 0a be
       0.011573622 -0.048380904 -0.01707692 -0.13481556
000270 43 a3 01 be 7b a7 6a bd d7 51 a4 bd cf 1c 11 3e
       -0.12659936 -0.057288628 -0.08023422 0.14171146
000280 e6 e8 a7 bd 05 e8 87 3d 1d 0c 7e bc b6 d2 95 3d
       -0.08198719 0.06636051 -0.015505818 0.073155805
000290 22 52 83 3d f3 69 10 3e d1 98 dc 3c 02 d4 16 be
       0.0641215 0.14102916 0.026928337 -0.14729312
0002a0 32 ed e4 bc 8d 1e 52 3b 98 90 84 bd 2f 74 63 bc
       -0.027945135 0.0032061667 -0.064728916 -0.013882681
0002b0 a8 ca f0 3c 13 ad 16 3a 84 ed df bd 5c 93 07 be
       0.029393509 0.0005747836 -0.109339744 -0.13239807
0002c0 b4 46 91 3d 26 f2 40 3d 89 aa 0e be e6 e8 71 3c
       0.07093564 0.04710593 -0.13932241 0.014765
0002d0 be 67 08 3e a7 ec 3e 3d 86 05 b5 3a ae a3 e8 3d
       0.13320825 0.046612408 0.001381085 0.113593444
0002e0 67 95 8f 3d 2e 25 83 3d 6c 92 37 3e 49 fc d1 3b
       0.07010918 0.06403576 0.1792695 0.0064082486
0002f0 ed 24 bc bc 50 b8 33 be 42 01 27 bd 4b ad 3e bd
       -0.022966826 -0.17550778 -0.040772684 -0.046551984
000300 08 d1 b4 bd d0 1f d5 bc 01 4e 10 3e 64 7d 0b be
       -0.08828932 -0.026016146 0.14092256 -0.13622051
000310 5c b3 ad 3d d8 c2 95 3b 6a a1 2b 3d c9 03 3b bc
       0.08481476 0.0045703463 0.041901983 -0.011414477
000320 c6 3d 75 bd ad 02 05 3e 0b f3 c5 3d 22 31 88 bd
       -0.059873365 0.12989302 0.096654974 -0.06649996
000330 2c 66 92 3d 09 51 2a 3e 41 83 3d 3c 42 ec 73 3c
       0.07148394 0.16632475 0.011566938 0.014887871
000340 6c f0 b3 3d 7e 76 06 3e c1 d4 1b bd fe aa 5a 3d
       0.08786091 0.13131139 -0.038044695 0.053385727
000350 72 dd 2a 3d bd ce 00 3c 40 c8 23 be 67 56 14 bd
       0.041715093 0.00786179 -0.15994358 -0.036215212
000360 0d 75 d4 bc 57 95 8b bd 7d 70 41 bd 41 54 0b 3c
       -0.02593472 -0.06815594 -0.047226418 0.008503974
000370 9a bd 96 3c bb 52 34 3d b6 96 93 3d b1 2f 4b 3a
       0.018400956 0.04402421 0.0720648 0.0007750942
000380 30 b7 09 3d f2 cd b3 bc 6d df 95 bd 89 ba 80 bd
       0.033621967 -0.021948788 -0.07318006 -0.06285579
000390 6f c1 c2 b9 68 f2 17 3d 60 23 30 bd ab 68 4b bd
       -0.00037146683 0.03709641 -0.043002486 -0.049660366
0003a0 cc c1 ed bc 98 dd c4 3d b8 f9 c4 bd aa c8 0f 3e
       -0.029023074 0.09612578 -0.096179426 0.14041391
0003b0 12 75 15 3e f9 25 b4 3d 1a c0 95 bd 13 e9 3a 3d
       0.1459544 0.08796305 -0.07312031 0.045632433
0003c0 27 33 6c bc 27 a0 3e bb cf 06 f0 3d 98 8b 41 3d
       -0.014416493 -0.0029087157 0.11720049 0.047252268
0003d0 a4 ec 27 3d c5 3c 01 be d5 19 8e 3d e0 56 96 3d
       0.040997162 -0.12620838 0.06938521 0.07340789
0003e0 c3 dc ce 3d 00 bd b3 bd 6f 45 81 3d 19 2e 9a 3d
       0.10100701 -0.08776283 0.063120715 0.07528324
0003f0 df 6d 83 3c e0 92 00 bd 44 41 7e 3d 36 cc bc bd
       0.016043602 -0.03139007 0.06207396 -0.09218638
