results/ppo/MoveToGoal/MoveToGoal-2805.onnx (onnx, 74722 bytes, 9 tensors)

action_model._discrete_distribution.branches.0.bias f4 [4]
00000000: 0000 0000 0000 0000 0000 0000 0000 0000
0.0 0.0 0.0 0.0

action_model._discrete_distribution.branches.0.weight f4 [4, 128]
00000000: 8f08 273b a310 003a 3adc 5eba ffe4 f5bb
00000010: 0193 1fbc 8d7b f73a ba3c 543c fb36 41bb
00000020: a3e5 503b 1715 453c 4bd3 85b8 25af a83b
00000030: f8c1 183c 805f fbba a985 0b3b d785 543b
00000040: fb61 b03b 81a7 95bb 93e4 2e3c 9af2 713b
00000050: dd47 c5bc 6244 eb3b a27c 8fbb c79a 733b
00000060: 1237 973b c54a 7dbc b429 39ba 7fa5 413c
00000070: 5d75 a33a 89d8 95bc ce5d a8ba 8801 b8ba
00000080: ab98 143c 8953 183c 0864 22bc 6434 a83b
00000090: 679f a339 c3dd 8f3b 6820 e03a f55c d4bb
000000a0: 92a6 e2bc d40e 1fbc f36b 91bc 51d2 91bc
000000b0: 375a f33b cf42 c4bb cfb2 03bc a506 4dbb
000000c0: 7f27 b8bb abd8 37bc 17bf 3c3c 5040 763b
000000d0: 25f8 6ebb 3bae b2bb 434b cf3a 9294 6f3c
000000e0: 4560 ff3a 4d68 5abb dd2e 52bc cade ccbb
000000f0: 5b9a c43a 9ca2 06bb 63cf 25bc 2948 c43a
00000100: 2811 01bb f72b 2e39 4874 08bb 896a 0fbc
00000110: 0050 ed3b fa28 b23a daf6 543c 5a2a 02bc
00000120: 67ce 9dbb 574e 81bc f29e 9f3b eb0b a5bc
00000130: 0f79 dbbb 730e 6dbc a4a3 83bc 775e 073c
00000140: 2f3a e3ba 1fd7 463b 5358 ddbb 7a19 333c
00000150: bd96 b33a 073e a4ba 08ed 843b b392 dc3b
00000160: 3391 453c a183 be3a 647e 193b ee1c 8ebc
00000170: 9229 363c 4741 0bba b4f3 25bc 4336 f23b
00000180: 3ddd d93a 9a4b 62ba e0f0 6ebc 8daf 83bb
00000190: 5b62 ef3a 6d6b 853b 34c1 2e3b 23c8 2ebc
000001a0: 1b00 543b 7a77 133c 5020 d53b 504f 26bc
000001b0: 2773 2fbc e35a c13c c510 693b e70b cd3b
000001c0: 5813 7cbb 27ab eb3b b4d0 c5bc 14cf 11bc
000001d0: cb82 653c 3539 6abb 1b1b 433c 8886 b93a
000001e0: 874c 5fbb 51c0 44bc 7b47 05bc f226 63ba
000001f0: a09d 7f3b 0ab7 0ab7 a68e 1cbc 7b4d 4c3c
00000200: c30a 123c 93f1 ba3b 0f3e 5f3c a677 0d3b
00000210: 87e8 c93b c77a 303c c903 08bb fbfd 06bc
00000220: 774d 39bc 4b53 433c 513e 083a 42bd faba
00000230: c5c1 afbb 18ed 093c 2104 3f3c c4f8 b7bc
00000240: 573b 173c b819 55bb 7f0e 1c3c c980 823b
00000250: d898 713b 9b57 1dbc eb10 983c c0d1 89bb
00000260: 0270 72bb 8b27 87bb f7a4 ab3c a994 9138
00000270: 4f9b 333c ea6a dabb a1b1 a5bb 3d62 593c
00000280: e29d fe3a 7482 88bb a1da 083b e7d9 b93a
00000290: 5dc5 65bc e3a3 16bb c5c6 51bc bc9b 173b
000002a0: 4ed6 c2ba 3f3b a3bc 9e2a 203c 5535 c6ba
000002b0: 1f0a 9a3c 85de 1ebc 79eb 8abb f742 acbb
000002c0: b280 57bc 292b a6bb 4b84 b03b 6f1f 793b
000002d0: f3b1 843b 86b1 083b ac65 343b a82d 883b
000002e0: ef11 863a a6ea 1bbc fe35 173c eb84 43bc
000002f0: a873 1b3c 1191 83bc 734b 45bc 75d1 7ebc
00000300: 7b62 de3a a05c 21bb 2b59 1bba d280 f63b
00000310: 3be8 a23b a7b5 f23a 2b08 12bc 2113 943c
00000320: e318 413c 19f5 9fbb d8bf 65bb 0656 223c
00000330: 3491 b4ba 904c 6eba fd8e b8bb b54a fbbb
00000340: 30c5 6abc 002d 92bb 3fec 533c 0d56 abbc
00000350: 808f b4bb 9c4a 223c 0ce9 9cbb bdd4 043b
00000360: 42fc 30ba 98ef e03b 0bd1 85bc ef73 34bc
00000370: 41ac 80bb f5af 093c 07b8 773c 8d1c 9b38
00000380: 51b0 a03b 1e73 2a3c 6944 b4ba 1322 543b
00000390: f76e d0ba e71c 8a3c a290 7b3b 1fa2 ea3a
000003a0: 248a 10bc 5ff4 3dbc 8f7c 903a 8298 05ba
000003b0: e54e 1cbc 5d88 0abc 8fbc 24bb a020 eb3a
000003c0: 1f30 c43b 2b60 03bc c33f 8539 b332 013c
000003d0: 5cb2 283b 8a5a 933c af2f 7b3c 6ad7 9abb
000003e0: fbb8 6e3b 1b12 2f3b d6eb b53b 3d6d a23b
000003f0: b3f3 0ebc c5e3 6a3c 9d97 763c 0759 8c3b
0.002548728 0.00048852916 -0.0008501444 -0.007504105 -0.009739638 0.0018881425 0.0129539315 -0.0029482234
0.0031875155 0.012028954 -6.3812906e-05 0.005147832 0.0093235895 -0.0019178241 0.0021289384 0.0032428408
0.005382774 -0.004567087 0.0106746135 0.0036918283 -0.024082119 0.0071797827 -0.004378871 0.0037171112
0.004614719 -0.015459721 -0.0007063404 0.0118192425 0.001247089 -0.018291729 -0.0012845339 -0.0014038542
0.009069602 0.00929726 -0.009911545 0.0051331986 0.00031208547 0.0043904497 0.0017099502 -0.006480808
-0.027667318 -0.009708125 -0.01775167 -0.017800482 0.007426526 -0.0059894095 -0.008038237 -0.0031284478
-0.0056199427 -0.011221091 0.011520169 0.0037574954 -0.0036463824 -0.005452899 0.0015815276 0.014622824
0.0019483647 -0.0033326328 -0.012828556 -0.0062521445 0.0014999615 -0.00205437 -0.010120246 0.0014975119
-0.0019694064 0.00016610311 -0.0020821262 -0.008753427 0.0072422028 0.0013592534 0.012998307 -0.007944668
-0.004815865 -0.015784426 0.0048712427 -0.020147284 -0.006697781 -0.014468777 -0.01606924 0.008262268
-0.0017336066 0.0030340625 -0.006754914 0.010931367 0.001370154 -0.0012530693 0.0040565766 0.006731355
0.012058544 0.0014535078 0.0023421282 -0.01734778 0.01111831 -0.0005312156 -0.010128904 0.0073917224
0.001662172 -0.00086324813 -0.014583796 -0.00401873 0.0018263565 0.004071644 0.002666545 -0.0106678335
0.0032348696 0.009000653 0.006504096 -0.0101507455 -0.010708607 0.023602908 0.0035562974 0.0062575224
-0.0038463678 0.007192034 -0.024147369 -0.008899469 0.014008234 -0.0035739664 0.011908318 0.0014154473
-0.0034072713 -0.012008742 -0.008134718 -0.0008665166 0.0039003864 -8.268058e-06 -0.009555494 0.012469645
0.008913699 0.0057050674 0.013625636 0.0021586209 0.0061617526 0.01077146 -0.002075421 -0.008239265
-0.011309973 0.011921714 0.0005197274 -0.001912989 -0.0053636753 0.008418344 0.011658699 -0.022457488
0.009230456 -0.003251655 0.0095249405 0.0039826375 0.0036864784 -0.009603406 0.018562755 -0.0042059124
-0.0036993031 -0.004124587 0.020952685 6.941829e-05 0.010962321 -0.006665577 -0.0050565754 0.013268051
0.0019425715 -0.004165942 0.0020882266 0.001417932 -0.014024106 -0.0022985868 -0.012803738 0.0023133596
-0.0014864893 -0.019925712 0.009775786 -0.0015122095 0.018803654 -0.0096966075 -0.0042394963 -0.0052570063
-0.013153242 -0.005071063 0.0053868643 0.003801312 0.0040495335 0.0020857765 0.0027526421 0.0041558333
0.0010228733 -0.009516394 0.009229181 -0.011933546 0.009488024 -0.016060384 -0.012041914 -0.015552868
0.0016966605 -0.002462186 -0.0005926068 0.007522681 0.0049715317 0.0018517271 -0.00891308 0.018075528
0.011785719 -0.004881513 -0.0035056975 0.009908205 -0.0013776184 -0.0009090388 -0.00563228 -0.007668818
-0.01432924 -0.004460931 0.012934743 -0.020915056 -0.0055102706 0.009905484 -0.0047885235 0.0020268403
-0.00067514565 0.0068644993 -0.016335031 -0.011013969 -0.0039267843 0.008403768 0.015119559 7.396294e-05
0.004903831 0.010403423 -0.0013753298 0.0032368943 -0.0015902211 0.016859485 0.0038385768 0.0017901099
-0.008821998 -0.011593907 0.001102345 -0.0005096273 -0.009540294 -0.008455363 -0.0025136804 0.00179388
0.005987182 -0.008018534 0.00025415243 0.007885623 0.0025741076 0.017987508 0.015331193 -0.0047253864
0.0036426175 0.0026713673 0.0055517955 0.00495687 -0.008725095 0.014336531 0.015050796 0.004283074

action_model._discrete_distribution.branches.1.bias f4 [2]
00000000: 0000 0000 0000 0000
0.0 0.0

action_model._discrete_distribution.branches.1.weight f4 [2, 128]
00000000: 937e fc39 3ed7 ac3b 3973 3b3c 8769 2abc
00000010: 23f8 94bb 2920 2bbc 152b 4a3b 1cdd b83b
00000020: 48b8 39bc a160 8a3b 53a3 ebbb 7b62 143c
00000030: 8ad4 5b3c 7889 a73b afa6 debb 523c 5d3c
00000040: 9357 223c b78c ecb8 4292 a0bc 93e4 8d3b
00000050: 4d01 243a da62 0dbb fab6 acba 3ce1 2a3b
00000060: 049b 863b 1437 a53c dd37 cf3a 2ba0 20bc
00000070: 55e7 de39 7c8f 203c e0e2 6e3b b8e4 833c
00000080: 9379 313c 3792 e0bb cc99 afbb 7acb ebba
00000090: cd8a e7bb 5886 a2bb d97d b5bb 1f4a 9f3b
000000a0: ebac 12bc 1616 c5bb 66e4 0a3a 4eec 8a3a
000000b0: b65c af3b 3f2b 4abc 6dd1 c3bc 1342 183c
000000c0: 639d cb39 a734 9f3c 8b56 f13a 28be 183c
000000d0: fb34 03bc 7bbc e93a 3b0e 903b ab06 63bb
000000e0: 68d6 61bc b0e6 cf3b 72bf 653b b9b0 b3ba
000000f0: 3e48 3dbc 2bc4 80bb b8ef 14ba 56b6 223c
00000100: 30b5 cd3b d8a1 9a3c 3e12 853b f83b 84ba
00000110: af87 a03b d30c 8a3c 3b6d 093c c37c 56bb
00000120: 5f6b b3bb 43c8 183b a32e 1f3c 255d 683b
00000130: d82f 5e3c dc56 c4bb cb83 bbbb 5020 6a3b
00000140: 26c3 123c 30b3 6fbb 3ad0 d13b e8b8 1dbb
00000150: 127c 973c eb6b 4abc 2e78 1dbb 271e 393c
00000160: d2dc 6e3c 19fd 233b 67c7 7739 3fdb 1abc
00000170: 4dfe 3ebc f2ea 10bc 9400 a4bc 42b7 063b
00000180: 780c c23a 332d 83bc b3e6 fbba 7730 78bc
00000190: e7b8 0cbb 16d2 903b 1fa0 263c a00f 533b
000001a0: 23d1 f9ba 4530 e13b 2761 f53b bf83 593b
000001b0: edc9 05bb 83b9 00bc 94d8 303c ecfe 92bc
000001c0: abd6 843b e389 54bc e79c db3b a95f 0f3c
000001d0: e1ce cabb d3f9 073c 9b35 30ba 7aeb 573c
000001e0: fa1b a43b d255 5e3b 9fbe 6fba f0e2 e2bb
000001f0: 6743 e8ba df07 87bc 4064 cd3b 0d28 663b
00000200: 7df5 7fbb 826f 643c e818 fd3b 0da5 5e3b
00000210: 220c db3b 4aa6 163c e392 453c b805 623a
00000220: d26f 953a 6c97 26bb a736 b73b e665 aa3c
00000230: aa7d 92bb ca26 3c3b 64d6 28bb 139c ef3b
00000240: 5751 323c cfe7 10b9 dd64 cabc dc18 1a3c
00000250: 8369 5e3c 756c ce3b e3af 0e3a 4b09 573a
00000260: 65b0 62bb 07f9 6dbc ebfe 5f3a 93cd 9d3c
00000270: 8baf 61bc b63e 3dbc 836d 14bb a1d2 35bc
00000280: 1652 adbc 3282 c0bc ad84 e13b 477e 81b7
00000290: 3b54 2c3c 5f34 413b cbb0 153c 2b8a 683c
000002a0: 9e33 893c 8824 033a 29cb 203b 2808 ee3b
000002b0: 53e5 b13b fa1a 523c c7e2 673b 6224 9dbc
000002c0: 3d7b f1bb 4320 f7ba c1c6 35bb d969 993b
000002d0: d774 88bb 1e32 06bc b022 5f3c b325 54bc
000002e0: 0442 273b 3391 8139 7795 563c c78e 163b
000002f0: cd71 d23b d1ee 163c 901d 623c 0be9 723c
00000300: b27d f1b9 1d6c dfbc 6ecc bf3a 7b28 2b3c
00000310: 4a51 94bb 07ae 24bc f74d 5b3b d4aa 44bc
00000320: aa13 61bb 9c33 1b3c bf97 adbc b385 c93a
00000330: b3d7 2a3b 0701 1bbb e212 b3bb f59c 713b
00000340: 6398 d33b 7b55 293c b785 92ba cbf3 903b
00000350: bf7e 8f3b ff54 4b3c 5b8d adbb 50cc f43a
00000360: ab2b ca3b be52 24bc a940 87ba 0ba9 573a
00000370: 4c27 903a ef24 873b ddbb b1bb be04 b53c
00000380: f987 303c 80ac d1bb b9be 48bb c97c c03b
00000390: d6d0 c63b da5e 0abc 0895 0939 e6c8 ac3b
000003a0: ab52 1bbb 3c48 1cbc 371a 75bb d15f 0cbc
000003b0: 8c3a 32bb cf51 ccbc 9b14 adba 77d5 81bc
000003c0: ebcf 0c3c 08ff cebb 631c 76bc 90d1 d83b
000003d0: 50a3 59bc e06e 35bc 1225 7dbb 9af0 e9bb
000003e0: cf8a 5a3c fbed 193c 3f5c 05bc 7db6 dc3b
000003f0: 0fe0 4db9 fb94 79bb 6ce9 993a 8d97 d73b
0.0004815949 0.0052746823 0.011441045 -0.010401136 -0.0045461818 -0.010444679 0.0030848433 0.0056415927
-0.01133544 0.004222945 -0.0071911006 0.009056683 0.0134173725 0.005112823 -0.0067947726 0.013503151
0.009908575 -0.00011279567 -0.019600991 0.0043302267 0.00062562973 -0.0021573813 -0.001317709 0.0026074192
0.004107835 0.020167865 0.0015809495 -0.009803812 0.00042515495 0.009799834 0.0036451146 0.016100273
0.010832208 -0.0068533677 -0.00535891 -0.0017989718 -0.007066107 -0.0049598627 -0.005538684 0.004861131
-0.00895236 -0.0060145957 0.0005298316 0.0010598989 0.005351628 -0.012339412 -0.023903573 0.009293097
0.0003883644 0.019434286 0.0018412633 0.0093226805 -0.008008237 0.0017832661 0.0043962277 -0.0034641426
-0.013784029 0.0063446388 0.0035056737 -0.0013709284 -0.011552868 -0.003929635 -0.0005681473 0.009931168
0.0062777027 0.018876001 0.0040610125 -0.0010088673 0.0048989872 0.016851818 0.008387859 -0.0032728172
-0.005475446 0.0023312725 0.009715709 0.003545591 0.0135612115 -0.0059917998 -0.005722498 0.0035724826
0.00895766 -0.003657531 0.0064029964 -0.0024066512 0.018491779 -0.012354831 -0.0024027932 0.011298693
0.014579015 0.0025022684 0.00023630039 -0.009451686 -0.01165731 -0.008845078 -0.020019807 0.0020556008
0.0014804741 -0.016012764 -0.0019218534 -0.015148274 -0.0021472515 0.0044195754 0.010170012 0.0032205358
-0.001905952 0.0068722093 0.007488388 0.00331901 -0.0020414547 -0.007856729 0.010793824 -0.017943822
0.0040539107 -0.012972328 0.006702054 0.0087508345 -0.0061892127 0.008299309 -0.0006721855 0.013178701
0.005008218 0.0033925665 -0.0009145531 -0.0069240257 -0.0017720283 -0.016483245 0.0062680542 0.0035119087
-0.0039056235 0.013942601 0.0077239163 0.003397289 0.006684796 0.00919492 0.012058946 0.0008622068
0.0011401123 -0.0025419844 0.005591232 0.020800542 -0.0044705467 0.0028709644 -0.0025762552 0.0073123067
0.010883651 -0.00013819266 -0.024706298 0.009405341 0.013574961 0.00629955 0.0005443079 0.0008202984
-0.0034590003 -0.014524705 0.00085447606 0.019263064 -0.013774763 -0.011550596 -0.0022648282 -0.011097581
-0.021157306 -0.023499582 0.0068822713 -1.54368e-05 0.010518129 0.0029480678 0.009136389 0.014193098
0.016748246 0.0005002697 0.0024535155 0.007264156 0.005428949 0.0128238145 0.0035382973 -0.019182388
-0.0073694275 -0.0018854219 -0.0027736875 0.0046818075 -0.004164319 -0.00819066 0.01361911 -0.012948441
0.0025521526 0.0002471298 0.013097159 0.0022973286 0.0064222575 0.009212212 0.013800994 0.01482607
-0.00046060752 -0.027273232 0.0014633068 0.010446663 -0.004526292 -0.010051257 0.0033463219 -0.012003619
-0.0034343996 0.009472754 -0.021190522 0.0015374928 0.0026068508 -0.0023651735 -0.0054648975 0.0036867235
0.006457375 0.010335322 -0.0011178766 0.0044235936 0.004379123 0.012410401 -0.005296392 0.0018676613
0.0061697564 -0.010029493 -0.0010318953 0.00082267885 0.001099804 0.004124276 -0.0054240064 0.022096988
0.010774606 -0.0063987374 -0.0030631258 0.0058742505 0.0060673757 -0.008445466 0.00013120857 0.0052729724
-0.0023700397 -0.009538706 -0.0037399658 -0.008567766 -0.0027195541 -0.024941353 -0.0013204993 -0.015848858
0.008594493 -0.006317023 -0.015021416 0.0066167787 -0.013283566 -0.011073798 -0.0038626832 -0.0071392776
0.013338759 0.009395118 -0.008139669 0.0067356215 -0.00019633792 -0.0038083184 0.0011742539 0.0065793456

discrete_action_output_shape f4 [1, 2]
00000000: 0000 8040 0000 0040
4.0 2.0

network_body._body_endoder.seq_layers.0.bias f4 [128]
00000000: 0000 0000 0000 0000 0000 0000 0000 0000
00000010: 0000 0000 0000 0000 0000 0000 0000 0000
00000020: 0000 0000 0000 0000 0000 0000 0000 0000
00000030: 0000 0000 0000 0000 0000 0000 0000 0000
00000040: 0000 0000 0000 0000 0000 0000 0000 0000
00000050: 0000 0000 0000 0000 0000 0000 0000 0000
00000060: 0000 0000 0000 0000 0000 0000 0000 0000
00000070: 0000 0000 0000 0000 0000 0000 0000 0000
00000080: 0000 0000 0000 0000 0000 0000 0000 0000
00000090: 0000 0000 0000 0000 0000 0000 0000 0000
000000a0: 0000 0000 0000 0000 0000 0000 0000 0000
000000b0: 0000 0000 0000 0000 0000 0000 0000 0000
000000c0: 0000 0000 0000 0000 0000 0000 0000 0000
000000d0: 0000 0000 0000 0000 0000 0000 0000 0000
000000e0: 0000 0000 0000 0000 0000 0000 0000 0000
000000f0: 0000 0000 0000 0000 0000 0000 0000 0000
00000100: 0000 0000 0000 0000 0000 0000 0000 0000
00000110: 0000 0000 0000 0000 0000 0000 0000 0000
00000120: 0000 0000 0000 0000 0000 0000 0000 0000
00000130: 0000 0000 0000 0000 0000 0000 0000 0000
00000140: 0000 0000 0000 0000 0000 0000 0000 0000
00000150: 0000 0000 0000 0000 0000 0000 0000 0000
00000160: 0000 0000 0000 0000 0000 0000 0000 0000
00000170: 0000 0000 0000 0000 0000 0000 0000 0000
00000180: 0000 0000 0000 0000 0000 0000 0000 0000
00000190: 0000 0000 0000 0000 0000 0000 0000 0000
000001a0: 0000 0000 0000 0000 0000 0000 0000 0000
000001b0: 0000 0000 0000 0000 0000 0000 0000 0000
000001c0: 0000 0000 0000 0000 0000 0000 0000 0000
000001d0: 0000 0000 0000 0000 0000 0000 0000 0000
000001e0: 0000 0000 0000 0000 0000 0000 0000 0000
000001f0: 0000 0000 0000 0000 0000 0000 0000 0000
0.0 0.0 0.0 0.0 0.0 0.0 0.0 0.0
0.0 0.0 0.0 0.0 0.0 0.0 0.0 0.0
0.0 0.0 0.0 0.0 0.0 0.0 0.0 0.0
0.0 0.0 0.0 0.0 0.0 0.0 0.0 0.0
0.0 0.0 0.0 0.0 0.0 0.0 0.0 0.0
0.0 0.0 0.0 0.0 0.0 0.0 0.0 0.0
0.0 0.0 0.0 0.0 0.0 0.0 0.0 0.0
0.0 0.0 0.0 0.0 0.0 0.0 0.0 0.0
0.0 0.0 0.0 0.0 0.0 0.0 0.0 0.0
0.0 0.0 0.0 0.0 0.0 0.0 0.0 0.0
0.0 0.0 0.0 0.0 0.0 0.0 0.0 0.0
0.0 0.0 0.0 0.0 0.0 0.0 0.0 0.0
0.0 0.0 0.0 0.0 0.0 0.0 0.0 0.0
0.0 0.0 0.0 0.0 0.0 0.0 0.0 0.0
0.0 0.0 0.0 0.0 0.0 0.0 0.0 0.0
0.0 0.0 0.0 0.0 0.0 0.0 0.0 0.0

network_body._body_endoder.seq_layers.0.weight f4 [128, 4]
00000000: 6393 883f a1cd 173e 1ca8 2ebf ffc9 3c3f
00000010: 6c4d 4d3e 29f3 a4bd cf50 53bd b84a 12bf
00000020: 3455 84be 92a3 203f eda3 523f 94c8 aa3e
00000030: 3964 3ebb 59b4 353f 0590 5dbf ea40 2a3e
00000040: fcc6 fa3d 006b 003f 48ca f53e 0621 e93e
00000050: 1068 cb3e 1bcb 19bc 9f43 f63c 2d2a 2abf
00000060: ac09 363e 2c81 1a3f 9bee afbe 4d95 fe3e
00000070: 9641 f23e 6747 56bf 6a03 0c3f e3cc 403e
00000080: 037c 673e 6e01 273e 798b 04bf 3650 74bd
00000090: bd7e d9be 1260 0e3f 3dc1 623f 0002 1d3e
000000a0: aa2f 26bd e806 3bbe 081c 40bf 7cf9 083f
000000b0: 99b3 c63f 970f 343d 9381 283f 79f0 0d3f
000000c0: 918c aebf acba f63e a07b 63bf ddb1 db3e
000000d0: 9091 a6be cbb7 dbbd 6447 82bc 91ca 823d
000000e0: 10a2 50bf e089 bd3e da8b a53f 8bb3 393f
000000f0: 5558 553e f223 323f 3943 7dbe 3dec 94be
00000100: 1ea2 ad3e eac7 9e3d 3f30 06bd e295 d7bd
00000110: 8a38 5c3f 7240 193f e796 b33d 4284 d53d
00000120: e83d ec3e 4907 4abe 179d 12bf 0b8a 0c3f
00000130: 8c96 c93e 2e99 6bbe fab7 9abe 52d5 d5be
00000140: c46b 053f 7069 6b3f 97bd 5ebe afea c03e
00000150: 1960 993e e5b3 25bf 5352 25bc 2673 1fbf
00000160: 30db 40be cec1 0a3f 78f9 863f 8d43 4f3f
00000170: 16df f93c 383e 6b3f e1a1 a6be d1ae 963c
00000180: d89e 83be 432b f43e 545a 8f3f 47ff 0dbe
00000190: 9cae fd3d 81cb 06bf 53c4 36bd 0415 5b3f
000001a0: c05f 343f 506a 5b3f 813f 8d3f fe10 2fbe
000001b0: 1446 603d d2cd 1e3f a18c 95be 702b 2cbf
000001c0: ac39 6bbf 425a f53e e4aa 593d c075 45bf
000001d0: 8281 853d 3c7a 563e fe6a 823e 2216 d13e
000001e0: 7dfb 5fbf 4f16 04bf e85f 8cbe b6c5 72bf
000001f0: 18f9 0ebf c686 bcbc 7110 c0bf cddb 76be
00000200: d073 8a3f a278 f2be bc86 e9bc db21 053f
00000210: 961c ac3e d400 7e3f 574e e53e ddc4 68bf
00000220: 3bc7 43be 8790 b3bd e18b 6ebe b500 073f
00000230: ad63 d0be 7305 023e 4091 38bf bb17 1f3f
00000240: e488 b8be ed60 423e 637a c1be db26 68be
00000250: ce72 2c3e 761d 3a3f dc15 993e 8d21 d43d
00000260: 6e9e 823e 00a8 31be 4a1c 843e 8197 c53e
00000270: 82e7 6a3e 6824 cbbe 8777 953e 2957 1e3f
00000280: 0eb4 28bf 6499 65be b4c4 a6bd 3e2e 833d
00000290: 4678 debe c37b b7be 5fa7 eabe bc4f 993f
000002a0: 5c6d 9cbe 5e2e 07bf 78d1 01bf e573 99be
000002b0: 292d 91be 8c6b c13e 5312 5cbf fd3f 263f
000002c0: eda7 6b3e 780e 2c3e b7c6 e8bc c4e0 0cbe
000002d0: 94c7 eabe e46e a73d f125 56bf ee84 b5be
000002e0: e98f ad3d aec4 ea3e 7bbb 563e 4e16 ad3e
000002f0: 7aff 0a3f 2421 893d 36b4 94be 04c0 8e3e
00000300: 6b01 553e 7007 523e 329b 29bf 9973 a9bd
00000310: 04bc b53e 06c7 803e 4a07 cfbd d047 f8bd
00000320: 850b 793f 96ea 95bc b4a4 b93e b819 d23e
00000330: bbb8 a2be 3ee4 343f 0a6f 0e3e a4f5 b3be
00000340: 9509 24bf 40d7 063d 1925 78bd 543b 5cbf
00000350: 655e 4d3f ad41 90bd 868d a6be 4756 e53e
00000360: 0186 d43e 3cdb 16be f117 763e ad22 213e
00000370: ee6a 0e3f 31a1 b83d be7b 503f 6fc6 f7bd
00000380: 0193 86be 75b7 88bf 7c2d 173f e15e e5be
00000390: 1dcc bcbe f89e febe df27 74be 2a38 b2be
000003a0: 7a32 cfbe e1da 9fbe c1ad 073f 0d72 523e
000003b0: 82f2 c03e 7b24 31bf 13a3 f13d c1e3 f43e
000003c0: 8946 ebbd cb92 6bbd 68e5 1d3f 03e1 b9bd
000003d0: 85be e63e a925 f93e 1be5 1abf ddb6 e7be
000003e0: 649f b83e d733 48be c706 d73e ab64 f3be
000003f0: b83e 253f 1514 5bbe ace5 1a3e 6157 bdbe
1.0669979 0.14824535 -0.68225265 0.7374572 0.20049065 -0.080541916 -0.051590737 -0.5714526
-0.25846255 0.6274959 0.8228138 0.33356154 -0.0029051437 0.70978314 -0.8654788 0.16626325
0.122449845 0.5016327 0.4800589 0.45533007 0.3972783 -0.009386803 0.030061541 -0.66470605
0.17777127 0.6035335 -0.3436173 0.49723282 0.47315663 -0.837027 0.5469271 0.18828158
0.226059 0.16309139 -0.5177532 -0.059646808 -0.42479506 0.5561534 0.8857611 0.15332794
-0.0405728 -0.18264353 -0.7504277 0.5350568 1.5523559 0.04396018 0.65822715 0.5544506
-1.3636647 0.48189294 -0.8886051 0.42909136 -0.3253293 -0.10728415 -0.015903182 0.06386293
-0.8149729 0.37019253 1.2933304 0.72539586 0.20834477 0.695861 -0.24732675 -0.29086486
0.33912748 0.07752974 -0.032760855 -0.10526635 0.8602377 0.5986396 0.08769017 0.10425617
0.4614098 -0.19729342 -0.5727095 0.54898137 0.3937267 -0.23007652 -0.30218488 -0.41764313
0.5211756 0.9195776 -0.2175201 0.3767905 0.2995613 -0.6472762 -0.010090428 -0.6228508
-0.18833613 0.5420197 1.0544882 0.8096245 0.030501883 0.91891813 -0.3254538 0.018393906
-0.25707126 0.47689256 1.1199441 -0.13866912 0.1238682 -0.5265427 -0.044620823 0.8557894
0.704586 0.85709095 1.1035005 -0.17096326 0.05475433 0.62032807 -0.29208854 -0.6725378
-0.91884875 0.47920424 0.05314149 -0.771328 0.06518842 0.20945066 0.25472254 0.40837198
-0.87493116 -0.5159654 -0.2741692 -0.9483293 -0.55848837 -0.023013484 -1.5005018 -0.24107285
1.0816593 -0.4735766 -0.02850663 0.52004784 0.3361556 0.99220014 0.4478633 -0.9092539
-0.19118969 -0.08767801 -0.23295547 0.52735454 -0.40701047 0.12697391 -0.72096634 0.62145585
-0.3604194 0.18982287 -0.37788686 -0.22671072 0.1684067 0.72701204 0.2989949 0.10357962
0.25511497 -0.17349243 0.25802833 0.3859215 0.22939876 -0.39676213 0.29192755 0.61851746
-0.6589974 -0.22421795 -0.08142987 0.06405304 -0.43451136 -0.3583661 -0.4583082 1.1977458
-0.30552185 -0.52805126 -0.5071025 -0.29971233 -0.28354767 0.37777364 -0.8596546 0.6494139
0.23013277 0.16802394 -0.028415067 -0.13757616 -0.4585539 0.081754476 -0.83651644 -0.3545298
0.08474714 0.4585318 0.20969956 0.3380608 0.54296076 0.06695774 -0.2904374 0.2788087
0.20801322 0.2051065 -0.66252434 -0.08274002 0.35495007 0.25151843 -0.10108812 -0.12123072
0.972832 -0.018300336 0.3625847 0.41035247 -0.31781563 0.7066077 0.13909546 -0.35148346
-0.6407712 0.032920122 -0.060582254 -0.8602803 0.8022216 -0.07043777 -0.3252985 0.44792387
0.41508487 -0.14732069 0.2403257 0.15735884 0.5563191 0.0901512 0.81438816 -0.12098395
-0.2628403 -1.0680987 0.5905378 -0.4479895 -0.36874476 -0.4973066 -0.23843335 -0.34808475
-0.40468198 -0.3122168 0.529995 0.2055132 0.3768502 -0.6919629 0.11798682 0.47830012
-0.11488063 -0.05751304 0.6167817 -0.09076121 0.4506723 0.48661545 -0.6050584 -0.452567
0.36059105 -0.19551025 0.41997358 -0.4753774 0.64548826 -0.2139438 0.15126675 -0.36980727

network_body._body_endoder.seq_layers.2.bias f4 [128]
00000000: 0000 0000 0000 0000 0000 0000 0000 0000
00000010: 0000 0000 0000 0000 0000 0000 0000 0000
00000020: 0000 0000 0000 0000 0000 0000 0000 0000
00000030: 0000 0000 0000 0000 0000 0000 0000 0000
00000040: 0000 0000 0000 0000 0000 0000 0000 0000
00000050: 0000 0000 0000 0000 0000 0000 0000 0000
00000060: 0000 0000 0000 0000 0000 0000 0000 0000
00000070: 0000 0000 0000 0000 0000 0000 0000 0000
00000080: 0000 0000 0000 0000 0000 0000 0000 0000
00000090: 0000 0000 0000 0000 0000 0000 0000 0000
000000a0: 0000 0000 0000 0000 0000 0000 0000 0000
000000b0: 0000 0000 0000 0000 0000 0000 0000 0000
000000c0: 0000 0000 0000 0000 0000 0000 0000 0000
000000d0: 0000 0000 0000 0000 0000 0000 0000 0000
000000e0: 0000 0000 0000 0000 0000 0000 0000 0000
000000f0: 0000 0000 0000 0000 0000 0000 0000 0000
00000100: 0000 0000 0000 0000 0000 0000 0000 0000
00000110: 0000 0000 0000 0000 0000 0000 0000 0000
00000120: 0000 0000 0000 0000 0000 0000 0000 0000
00000130: 0000 0000 0000 0000 0000 0000 0000 0000
00000140: 0000 0000 0000 0000 0000 0000 0000 0000
00000150: 0000 0000 0000 0000 0000 0000 0000 0000
00000160: 0000 0000 0000 0000 0000 0000 0000 0000
00000170: 0000 0000 0000 0000 0000 0000 0000 0000
00000180: 0000 0000 0000 0000 0000 0000 0000 0000
00000190: 0000 0000 0000 0000 0000 0000 0000 0000
000001a0: 0000 0000 0000 0000 0000 0000 0000 0000
000001b0: 0000 0000 0000 0000 0000 0000 0000 0000
000001c0: 0000 0000 0000 0000 0000 0000 0000 0000
000001d0: 0000 0000 0000 0000 0000 0000 0000 0000
000001e0: 0000 0000 0000 0000 0000 0000 0000 0000
000001f0: 0000 0000 0000 0000 0000 0000 0000 0000
0.0 0.0 0.0 0.0 0.0 0.0 0.0 0.0
0.0 0.0 0.0 0.0 0.0 0.0 0.0 0.0
0.0 0.0 0.0 0.0 0.0 0.0 0.0 0.0
0.0 0.0 0.0 0.0 0.0 0.0 0.0 0.0
0.0 0.0 0.0 0.0 0.0 0.0 0.0 0.0
0.0 0.0 0.0 0.0 0.0 0.0 0.0 0.0
0.0 0.0 0.0 0.0 0.0 0.0 0.0 0.0
0.0 0.0 0.0 0.0 0.0 0.0 0.0 0.0
0.0 0.0 0.0 0.0 0.0 0.0 0.0 0.0
0.0 0.0 0.0 0.0 0.0 0.0 0.0 0.0
0.0 0.0 0.0 0.0 0.0 0.0 0.0 0.0
0.0 0.0 0.0 0.0 0.0 0.0 0.0 0.0
0.0 0.0 0.0 0.0 0.0 0.0 0.0 0.0
0.0 0.0 0.0 0.0 0.0 0.0 0.0 0.0
0.0 0.0 0.0 0.0 0.0 0.0 0.0 0.0
0.0 0.0 0.0 0.0 0.0 0.0 0.0 0.0

network_body._body_endoder.seq_layers.2.weight f4 [128, 128]
00000000: ab29 f33d e578 adbd 5db4 82bc e593 b9bd
00000010: 5812 bdbb c952 363c 2ec2 83bd 95f7 fdbc
00000020: 3311 3fbe 3fd2 2abd d2f7 013e aed1 333c
00000030: cea3 ad3d 2c2b cb3d c002 d63d 750a 1dbd
00000040: 30ba 0e3e 8c86 71bd 0fe1 ccbd 8fc0 70bd
00000050: 55d0 d03c 195a 863d 4135 afbd a1b6 e6bc
00000060: 75c5 17be 901e 0e3c dcb6 f73d 71ee 55bd
00000070: a733 873d db68 ce3d 6932 643d 922f 883d
00000080: f288 e9bd f561 cd3c e707 99bd 9f27 abbc
00000090: 2cc4 c8bc 2d13 24bc 4fd7 9dbc 1193 d83d
000000a0: 29e1 f83d 8f6c 03bd 88b7 5abd a5f7 3c3d
000000b0: c87a eabd f44e 343c e9b8 a3bd 7be4 96bd
000000c0: f948 eebd 2baa e73d f9db 9fbd c672 02be
000000d0: 0167 db3c bae3 c8bc faec 4fbd 8df0 cd3c
000000e0: ac26 fbbd c66e cfbc e9ea 7bbc 5c98 95bc
000000f0: 2e83 98bc 6058 94bc 3e84 08be eecd 9dbd
00000100: 2a3b 1ebc 31a1 72bd 34e1 473d 2ea3 bfbb
00000110: a3a3 423e 8cc4 c03d 9e99 473d 05bf a9bd
00000120: 44b0 33bd 95a2 77bd 7166 5abd 1463 963d
00000130: c4a3 b43d f548 1e3e 073b d13c e18f 0f3c
00000140: 3b09 22be 6d3b bc3d 2e72 bf3c d0bc 1a3d
00000150: 761d a4bc 8aa0 2b3e 1551 f7bd 0968 d33c
00000160: 2324 1c3e 9081 973d 8920 26bc 2fb1 0dbe
00000170: 0e34 573d b3c7 123c 2f7b 18bd 9e3f 6c3e
00000180: d63f c2bc 6880 75bd 8bb2 c8bd 9392 e23d
00000190: 77af 6c3d b66c 8fbc 7ec0 9d3d 93e2 41bd
000001a0: 4868 e03d ee3f 34bd c2a5 0fbd ff6d 6cbd
000001b0: 52b6 583b f474 c3bd f854 e13d c092 b23d
000001c0: 9aa3 093e 38ba e33d 2453 003d 9780 873d
000001d0: 88af f03d 8bed f63c 1ee5 6fbc fa44 5bbd
000001e0: 670e 15be 2d60 3fbd 3a6d cdbd bc4a 4f3e
000001f0: 7da3 873d 0a7f 123e 379b dd3d be35 87bd
00000200: 4bb8 81bd ea09 0fbe 9667 b13c 02c8 d6bd
00000210: 0286 9e3d 1ad5 173e 3c82 71bd a013 abbd
00000220: fe1a 963d 8b7d fcbc 788b ae3c 64ae c83d
00000230: fbbc 003e f328 49bd dcbd 203e 0550 65bd
00000240: fe59 d33d 2180 d7bc 36a7 393d c347 323d
00000250: 9e98 20be eb1b 2c3d 4d3c 42be 3ff0 013d
00000260: a2fa b3bc b85f 193e ab59 2b3e 708f 2dbe
00000270: ad78 33be a320 37bd d0d6 ac3d 1902 823d
00000280: 5fae 0fbe 32df 8c3d 0c40 85bd 2db3 843d
00000290: 8496 d03d 8a69 a9bd 1187 48bc 69fc 1e3d
000002a0: 637d afbc 9b6c 553d e675 e3bd a1f9 9dbd
000002b0: 749b 343e ad52 2fbd b4a4 e5bc 7d63 67bd
000002c0: 8a64 13be 90d2 afbc 4a96 26bd 779d 243e
000002d0: 40aa d2bc 5ef2 f23b b9d0 30be 3223 29bd
000002e0: 54e4 87bc 4ffb da3d d48c f23d 5d82 9f3c
000002f0: b1bb b7bc 4bd7 8cbd ca22 18be b667 d3bc
00000300: 5f13 713a 5061 063d a5d2 68be 20eb 1c3e
00000310: e4db 1cbd c381 913d 1074 56bb ba5a 93bd
00000320: 58d2 f33a 5aa4 a0bd 7ac7 5e3d 8ed0 5a3d
00000330: c81f c73d 8aa8 ba3c 848b c63c f42a 783d
00000340: 9bd9 073d f169 92bc 6f05 79bd cde0 223e
00000350: 617a 113d 398c f73c ee17 e13c 7c92 55bd
00000360: c567 253e e3ce 413e dbc1 f93c cb56 0fbd
00000370: 9967 0e3e 93cd 913c e51e e8bc 1694 ce3d
00000380: 6f02 663e c120 763c 4273 c63d 42fd 673c
00000390: e9f7 adb9 5ebc 7abd 75f3 adbd 3be4 acbd
000003a0: 321c ddba 06a9 253d 6ea5 653b 038f 59be
000003b0: e981 b8bd 2571 b13a 7676 b63d 539d f4bd
000003c0: ea05 dabc b7df ff3d 165b a33c 9e79 63bd
000003d0: 051b 953d c1f3 2abd 62fe 75bb bc5c ecbb
000003e0: fef3 b83a 67a6 b7b9 8483 c4bc 416d fc3d
000003f0: df13 1bbe 0170 61bd df33 a8bc cbbb 95bd
0.11873182 -0.084703244 -0.015955145 -0.09061412 -0.005770009 0.011128136 -0.06433521 -0.031001845
-0.18658905 -0.041704413 0.12692192 0.0109752845 0.08478509 0.09920344 0.10449743 -0.03834005
0.13938212 -0.058966205 -0.10003864 -0.05877739 0.025489965 0.065601535 -0.08555079 -0.028163256
-0.14821418 0.008674279 0.120954245 -0.05222935 0.06601649 0.10078593 0.055712137 0.06649698
-0.11403073 0.025071124 -0.074722104 -0.020892916 -0.024507605 -0.0100143375 -0.019267706 0.10574926
0.12152321 -0.03208595 -0.053397685 0.04613461 -0.114492 0.011005152 -0.07994253 -0.07367798
-0.11635012 0.11311754 -0.07805628 -0.12739095 0.026782515 -0.024522651 -0.050763108 0.025139118
-0.122632354 -0.025321376 -0.015375831 -0.018261127 -0.018617239 -0.018108547 -0.13331696 -0.077052936
-0.0096576605 -0.059235755 0.048798755 -0.00584831 0.19007735 0.09412488 0.048730485 -0.08288387
-0.043869272 -0.060457785 -0.053320352 0.073431164 0.08820298 0.15457518 0.025540842 0.008762331
-0.15823834 0.09191022 0.023369875 0.037777722 -0.02003358 0.1676046 -0.12076012 0.025806444
0.1524816 0.07397759 -0.010139593 -0.13837121 0.052539878 0.008958745 -0.037226852 0.23071143
-0.02371208 -0.05993691 -0.09799679 0.11063113 0.057784524 -0.017507892 0.077027306 -0.04733522
0.1095739 -0.04400628 -0.03507019 -0.057722088 0.0033067656 -0.095437914 0.11002535 0.087193966
0.13441315 0.11119503 0.03132929 0.066163234 0.1175223 0.030142566 -0.014642028 -0.053532578
-0.14556275 -0.04672258 -0.10030599 0.20243353 0.0662298 0.14306274 0.108206205 -0.066020474
-0.06333979 -0.13968626 0.021655839 -0.10487367 0.07740404 0.14827386 -0.05896209 -0.083533525
0.07329367 -0.030821582 0.021306738 0.09798887 0.1257209 -0.049111318 0.15697426 -0.055984516
0.10319899 -0.026306214 0.04532548 0.04352547 -0.15683219 0.042018812 -0.18968315 0.031723257
-0.021970097 0.1497792 0.16733424 -0.16949248 -0.17526503 -0.04470886 0.0843941 0.06348056
-0.14031361 0.068785086 -0.065063566 0.064794876 0.101849586 -0.08272083 -0.012239234 0.038814936
-0.021422094 0.052105527 -0.11106472 -0.077136286 0.17637426 -0.042803455 -0.028032638 -0.056491364
-0.14393821 -0.021462709 -0.04067067 0.16075693 -0.025715947 0.0074141463 -0.17267121 -0.04129333
-0.016588368 0.106924646 0.11843267 0.019471342 -0.022428365 -0.068770014 -0.14857021 -0.02580629
0.0009196307 0.03280765 -0.22736605 0.15324068 -0.03829564 0.07104828 -0.0032722987 -0.07195039
0.0018602116 -0.078438476 0.054389454 0.05342155 0.09722859 0.022785444 0.024236448 0.06058784
0.03316651 -0.017872782 -0.060796198 0.15906067 0.0355171 0.03021823 0.02747723 -0.05214165
0.16152866 0.18926577 0.030487945 -0.03499488 0.13906707 0.01779822 -0.028335044 0.10086839
0.22461866 0.015022458 0.096899524 0.014159502 -0.0003318184 -0.061214797 -0.08493701 -0.08441969
-0.0016869365 0.040444396 0.003504123 -0.21245961 -0.090091534 0.0013537748 0.089093134 -0.1194407
-0.026614148 0.12493842 0.019940894 -0.055535905 0.07280544 -0.041736368 -0.0037535657 -0.0072132032
0.0014110801 -0.0003502846 -0.023988493 0.12325526 -0.15144299 -0.055038456 -0.020532547 -0.07311209
