results/ppo/MoveToGoal/MoveToGoal-663.pt (torch, 157663 bytes, 14 tensors)

network_body._body_endoder.seq_layers.0.weight f4 [128, 12]
0	0x3df8302a	0.121185616
1	0xbe9e83db	-0.30959973
2	0x3d910c7b	0.070824586
3	0x3e38084e	0.17971918
4	0x3d8aca1a	0.06776829
5	0x3ebe8fd2	0.372191
6	0x3e497b9f	0.19676064
7	0xbc84d180	-0.016213179
8	0x3d7610ff	0.060074802
9	0x3f037960	0.5135708
10	0x3e07deb3	0.13268547
11	0xbe73a95e	-0.23795077
12	0xbf0f29ff	-0.55923456
13	0x3e088e8d	0.13335629
14	0xbd69d927	-0.05709186
15	0xbe9e7705	-0.3095018
16	0xbec39940	-0.38202858
17	0x3bcad546	0.006189975
18	0x3da618ae	0.08110176
19	0xbeadea30	-0.33967733
20	0xbccb874b	-0.024844786
21	0xbe875528	-0.26432157
22	0x3d5504d9	0.052006576
23	0xbe6a3eeb	-0.22875564
24	0xbd32f091	-0.043686453
25	0xbc24b5ee	-0.010053141
26	0xbda74e23	-0.081692
27	0x3dffba4f	0.124867074
28	0x3edc2b3f	0.43001744
29	0xbdc26f5f	-0.094938986
30	0x3df2354b	0.11826571
31	0x3ecbc437	0.39798138
32	0xbe6250bc	-0.2210111
33	0xbdb4ae82	-0.08822347
34	0xbdcde269	-0.1005295
35	0x3e19fabd	0.15037055
36	0xbf0d12dc	-0.551069
37	0x3f079110	0.5295572
38	0xbca10c0e	-0.019659068
39	0x3e54b8e1	0.2077365
40	0xbe966290	-0.29372072
41	0xbe9ac904	-0.30231488
42	0xbc3e66e3	-0.01162121
43	0xbdc5ddf2	-0.09661473
44	0x3e0f310b	0.13983552
45	0xbe29b763	-0.16573863
46	0xbe616ce0	-0.22014189
47	0x3d8494c0	0.06473684
48	0xbdc3272f	-0.09528958
49	0xbe3dce66	-0.18535766
50	0xbebd4002	-0.36962897
51	0xbe557d4a	-0.20848575
52	0x3df24a9c	0.11830637
53	0xbee76687	-0.4519541
54	0x3efbe1e2	0.49195772
55	0x3e8364ff	0.2566299
56	0x3df821d5	0.12115828
57	0x3eba5c2f	0.36398456
58	0x3e2709ff	0.16312407
59	0xbe555d8b	-0.20836465
60	0xbe28159f	-0.16414498
61	0x3dee9adc	0.11650631
62	0x3e96530f	0.29360244
63	0xbe47c092	-0.19507053
64	0x3e768eca	0.24077907
65	0xbd9a22a3	-0.07526138
66	0xbda78793	-0.081801556
67	0x3e5c9a9b	0.21543352
68	0xbb5c18e5	-0.0033584174
69	0xbcfd4ac2	-0.030919436
70	0x3e91381a	0.28363115
71	0x3c2f68e1	0.010706157
72	0xbefcde28	-0.49388242
73	0xbe0f62d9	-0.14002551
74	0x3e0c691d	0.13711973
75	0xbe1ca958	-0.15298975
76	0x3e3b606e	0.18298504
77	0x3e8cd824	0.27508652
78	0x3dfcac20	0.12337518
79	0xbd719921	-0.058983926
80	0x3e2485de	0.16066691
81	0x3dffebdd	0.12496159
82	0xbe8c3de1	-0.2739096
83	0x3df091f1	0.11746586
84	0xbe664fe4	-0.22491413
85	0xbea86881	-0.3289223
86	0x3e1b6ff4	0.15179425
87	0x3e84f356	0.259669
88	0xbd9ce3ab	-0.07660612
89	0xbd4d1526	-0.050068997
90	0x3ef6275c	0.48076904
91	0x3e651847	0.22372542
92	0xbd486bce	-0.048930936
93	0x3e5202b6	0.20508847
94	0xbe97b10a	-0.29627258
95	0xbe8550ee	-0.26038307
96	0x3e26c41c	0.16285747
97	0xbe25c8d7	-0.16189896
98	0x3e89b674	0.26897013
99	0x3e370bca	0.17875591
100	0xbf0812a9	-0.53153473
101	0x3d130e95	0.03590258
102	0xbd1d9515	-0.038472254
103	0x3e21d7d6	0.15804991
104	0xbeccc70b	-0.39995608
105	0xbebc5699	-0.3678482
106	0xbdeae6ce	-0.11469804
107	0xbd46ed0a	-0.0485659
108	0x3ee36827	0.444154
109	0x3e2863f6	0.16444382
110	0xbe65a4d2	-0.22426155
111	0xbec5e0a0	-0.38647938
112	0x3e83ebd6	0.25765866
113	0xbf79d1d9	-0.9758583
114	0x3dd2b70a	0.10288818
115	0x3f010451	0.5039721
116	0x3f0580e7	0.52149814
117	0xbe1111c9	-0.14166941
118	0xbe44279a	-0.19155732
119	0x3e770e80	0.24126625
120	0x3cb3a536	0.021929365
121	0xbf067cea	-0.52534354
122	0x3bddf7e7	0.006773937
123	0xbe879b14	-0.26485503
124	0x3d5023dd	0.050815452
125	0xbdfd4511	-0.12366689
126	0x3c49f1d5	0.012325724
127	0x3d4b0aaa	0.049570717
128	0xbda50259	-0.080570884
129	0x3e950247	0.291033
130	0xbde4b9ff	-0.111682884
131	0xbd3af16a	-0.045640387
132	0xbdc91352	-0.09818138
133	0xbf000763	-0.5001127
134	0x3d81e647	0.0634275
135	0x3ec717b7	0.3888528
136	0x3eb5b244	0.35487568
137	0xbe1b848d	-0.15187283
138	0x3db8fd5d	0.090327
139	0x3e31d7f6	0.17367539
140	0xbee545a3	-0.4477969
141	0x3e1c1685	0.15242966
142	0x3e24ba25	0.16086634
143	0x3eb224c2	0.3479367
144	0xbe68c589	-0.22731604
145	0xbe7dc750	-0.24783063
146	0x3ec33a01	0.3813019
147	0xbe8aaafc	-0.27083576
148	0xbc4e6538	-0.012597375
149	0xbdb82b4b	-0.089926325
150	0x3e92e01c	0.28686607
151	0x3d5d62a9	0.054049168
152	0xbea71c9a	-0.3263901
153	0xbeac5507	-0.3365862
154	0x3f20af13	0.6276714
155	0xbeb8fa8d	-0.36128655
156	0xbe3536c6	-0.17696676
157	0xbdfe07a4	-0.12403801
158	0xbbed7197	-0.007246207
159	0xbf442953	-0.76625556
160	0xbd6cab50	-0.057780564
161	0xbe493a5e	-0.19651172
162	0xbe42a688	-0.19008839
163	0x3d1e1177	0.038590875
164	0xbec5d480	-0.38638687
165	0x3e20257d	0.156393
166	0xbe489356	-0.19587454
167	0xbc8a61fd	-0.016892428
168	0xbe95308e	-0.29138607
169	0x3e72415c	0.23657745
170	0xbe08743b	-0.13325588
171	0xbe555be3	-0.20835833
172	0xbea8341d	-0.3285226
173	0xbd0cd2b7	-0.03438064
174	0xbd801f74	-0.06255999
175	0x3dfbfc22	0.1230395
176	0xbe4a4157	-0.19751488
177	0xbe59a637	-0.21254812
178	0xbd8cbead	-0.06872306
179	0xbe8fb057	-0.28064224
180	0xbdd6aef0	-0.104825854
181	0x3dc313b4	0.095252424
182	0xbd62e485	-0.055393714
183	0xbf2d24e4	-0.67634416
184	0x3eaec666	0.3413574
185	0x3eb368a8	0.35040784
186	0x3ea5be3a	0.32371694
187	0xbe19f8e2	-0.15036348
188	0x3ecfea12	0.4060827
189	0xbe421a43	-0.1895533
190	0xbed790e1	-0.4210272
191	0xbb899fcb	-0.004199957
192	0xbe9fd009	-0.31213406
193	0x3e2d49c0	0.16922665
194	0x3e9ad729	0.3024228
195	0x3e67ea61	0.22648002
196	0xbf02169a	-0.5081574
197	0xbeb55a65	-0.35420528
198	0x3d8e3658	0.06943959
199	0x3dfaeba0	0.12251973
200	0xbd99804a	-0.07495172
201	0xbd78bc5b	-0.060726505
202	0xbe9af96e	-0.30268425
203	0xbd91236b	-0.070868336
204	0xbee5520d	-0.44789162
205	0xbec0a677	-0.37627003
206	0xbe56d3f2	-0.20979288
207	0x3ea75155	0.3267924
208	0x3e792988	0.24332249
209	0xbcf22871	-0.0295603
210	0xbeac94ce	-0.3370728
211	0x3de6211d	0.112367846
212	0xbdadbbc3	-0.08483078
213	0xbd86c723	-0.06580951
214	0x3ee74342	0.451685
215	0xbe1ade75	-0.15123923
216	0xbe4d87e1	-0.20071365
217	0x3e3ede9b	0.18639605
218	0x3ec17bd9	0.377898
219	0xbe68baa4	-0.22727448
220	0x3e96355c	0.29337585
221	0xbedb47e9	-0.428283
222	0xbf100aa8	-0.5626626
223	0xbe927baf	-0.28609988
224	0xbdff10f1	-0.12454403
225	0x3df2eef4	0.11861983
226	0xbdeb87e4	-0.115005285
227	0xbe9534ef	-0.29141948
228	0xbec0127c	-0.37514102
229	0x3f0518c0	0.5199089
230	0xbebb0d5b	-0.36533627
231	0x3e92dee9	0.28685692
232	0x3e43ecd8	0.19133317
233	0xbe265dee	-0.16246769
234	0x3e3fea80	0.18741798
235	0x3dc1160e	0.09428035
236	0x3d19cc06	0.037548088
237	0xbdcf9672	-0.10136117
238	0x3e6688cc	0.22513121
239	0x3e0926b3	0.13393669
240	0xbe617d1a	-0.22020379
241	0xbe469ecd	-0.19396515
242	0x3db1d2ec	0.08682808
243	0xbe8e8b42	-0.2784062
244	0xbca1d22d	-0.01975354
245	0xbeb5745b	-0.35440335
246	0x3ebfce51	0.37462094
247	0x3eccf4fc	0.40030658
248	0xbc2d1c92	-0.010565894
249	0x3ef59925	0.47968403
250	0xbe7592a8	-0.23981726
251	0xbd78f7ee	-0.06078332
252	0xbed7d1c0	-0.42152214
253	0xbe6fcc47	-0.2341777
254	0xbe2c3925	-0.16818674
255	0xbe2a9522	-0.16658452

network_body._body_endoder.seq_layers.0.bias f4 [128]
0	0x00000000	0.0
1	0x00000000	0.0
2	0x00000000	0.0
3	0x00000000	0.0
4	0x00000000	0.0
5	0x00000000	0.0
6	0x00000000	0.0
7	0x00000000	0.0
8	0x00000000	0.0
9	0x00000000	0.0
10	0x00000000	0.0
11	0x00000000	0.0
12	0x00000000	0.0
13	0x00000000	0.0
14	0x00000000	0.0
15	0x00000000	0.0
16	0x00000000	0.0
17	0x00000000	0.0
18	0x00000000	0.0
19	0x00000000	0.0
20	0x00000000	0.0
21	0x00000000	0.0
22	0x00000000	0.0
23	0x00000000	0.0
24	0x00000000	0.0
25	0x00000000	0.0
26	0x00000000	0.0
27	0x00000000	0.0
28	0x00000000	0.0
29	0x00000000	0.0
30	0x00000000	0.0
31	0x00000000	0.0
32	0x00000000	0.0
33	0x00000000	0.0
34	0x00000000	0.0
35	0x00000000	0.0
36	0x00000000	0.0
37	0x00000000	0.0
38	0x00000000	0.0
39	0x00000000	0.0
40	0x00000000	0.0
41	0x00000000	0.0
42	0x00000000	0.0
43	0x00000000	0.0
44	0x00000000	0.0
45	0x00000000	0.0
46	0x00000000	0.0
47	0x00000000	0.0
48	0x00000000	0.0
49	0x00000000	0.0
50	0x00000000	0.0
51	0x00000000	0.0
52	0x00000000	0.0
53	0x00000000	0.0
54	0x00000000	0.0
55	0x00000000	0.0
56	0x00000000	0.0
57	0x00000000	0.0
58	0x00000000	0.0
59	0x00000000	0.0
60	0x00000000	0.0
61	0x00000000	0.0
62	0x00000000	0.0
63	0x00000000	0.0
64	0x00000000	0.0
65	0x00000000	0.0
66	0x00000000	0.0
67	0x00000000	0.0
68	0x00000000	0.0
69	0x00000000	0.0
70	0x00000000	0.0
71	0x00000000	0.0
72	0x00000000	0.0
73	0x00000000	0.0
74	0x00000000	0.0
75	0x00000000	0.0
76	0x00000000	0.0
77	0x00000000	0.0
78	0x00000000	0.0
79	0x00000000	0.0
80	0x00000000	0.0
81	0x00000000	0.0
82	0x00000000	0.0
83	0x00000000	0.0
84	0x00000000	0.0
85	0x00000000	0.0
86	0x00000000	0.0
87	0x00000000	0.0
88	0x00000000	0.0
89	0x00000000	0.0
90	0x00000000	0.0
91	0x00000000	0.0
92	0x00000000	0.0
93	0x00000000	0.0
94	0x00000000	0.0
95	0x00000000	0.0
96	0x00000000	0.0
97	0x00000000	0.0
98	0x00000000	0.0
99	0x00000000	0.0
100	0x00000000	0.0
101	0x00000000	0.0
102	0x00000000	0.0
103	0x00000000	0.0
104	0x00000000	0.0
105	0x00000000	0.0
106	0x00000000	0.0
107	0x00000000	0.0
108	0x00000000	0.0
109	0x00000000	0.0
110	0x00000000	0.0
111	0x00000000	0.0
112	0x00000000	0.0
113	0x00000000	0.0
114	0x00000000	0.0
115	0x00000000	0.0
116	0x00000000	0.0
117	0x00000000	0.0
118	0x00000000	0.0
119	0x00000000	0.0
120	0x00000000	0.0
121	0x00000000	0.0
122	0x00000000	0.0
123	0x00000000	0.0
124	0x00000000	0.0
125	0x00000000	0.0
126	0x00000000	0.0
127	0x00000000	0.0

network_body._body_endoder.seq_layers.2.weight f4 [128, 128]
0	0xbda0a104	-0.07843211
1	0x3e2c9bac	0.16856259
2	0xbdd1f0e6	-0.10251026
3	0xbddab207	-0.10678487
4	0xbdce13c6	-0.10062365
5	0x3c10e769	0.008844235
6	0x3e06ddbc	0.13170522
7	0xbdae587d	-0.085129716
8	0xbdd6b400	-0.10483551
9	0xbdceef83	-0.10104277
10	0xbda8dd55	-0.08245341
11	0x3ccaed58	0.024771377
12	0x3d00fb69	0.031489763
13	0xbdd80ceb	-0.10549339
14	0xbde9c22b	-0.11413988
15	0x3d1abe5e	0.037779205
16	0x3bc6c13d	0.0060655163
17	0x3e87066f	0.26372096
18	0x3d2298a1	0.03969634
19	0xbddc1036	-0.107452795
20	0x3db6170c	0.088911146
21	0x3dec0ceb	0.115259014
22	0x3c271ac7	0.010199255
23	0x3ca75ac0	0.020429015
24	0x39e84f3a	0.00044309517
25	0x3def4b41	0.116842754
26	0xbd03489e	-0.032051675
27	0xbd609c9a	-0.054836847
28	0x3dbfacab	0.09359106
29	0xbe836265	-0.25661007
30	0xbe0979d1	-0.13425376
31	0x3d4c8be6	0.049938105
32	0x3ad51e38	0.0016259616
33	0x3d055890	0.032555163
34	0xbb8fd329	-0.004389186
35	0x3d9e02c5	0.07715372
36	0xbd9d7d68	-0.07689935
37	0xbcd6b1cc	-0.026207827
38	0xbe2a9fb8	-0.1666249
39	0xbcd2e801	-0.025745394
40	0x3dc315bf	0.09525632
41	0xbd64df61	-0.055877093
42	0xbd8c91ab	-0.068637215
43	0x3e01aaaf	0.12662767
44	0xbda9e749	-0.08296067
45	0x3b7aca61	0.00382676
46	0x3d2e0c87	0.042492416
47	0xbd1f1991	-0.03884274
48	0xbdcc0cba	-0.09963365
49	0x3de9fbe0	0.114249945
50	0x3d43d88b	0.047813933
51	0xbdb1e762	-0.08686711
52	0xbcceb461	-0.025232496
53	0xbcc47109	-0.02397968
54	0xbd1ddb42	-0.03853918
55	0xbd8f5189	-0.069979735
56	0x3db8bdc7	0.09020572
57	0x3e22c95f	0.1589713
58	0xbbbea51b	-0.005818022
59	0xbc28a32b	-0.0102928085
60	0x3c66525c	0.014057722
61	0xbc02ecef	-0.00799106
62	0xbbd9aef1	-0.006643169
63	0xbceb6bc4	-0.02873791
64	0xbe04c53a	-0.12965861
65	0x3c8aeaaf	0.016957609
66	0xbe58fa15	-0.21189149
67	0xbdc6c71f	-0.09705948
68	0xbe197cca	-0.1498901
69	0xbd9327f3	-0.07185354
70	0xbcbbcbf1	-0.022924395
71	0x3cd55c3c	0.026044957
72	0xbe415ec3	-0.18883805
73	0x3c3f860c	0.011689674
74	0xbda9a7f2	-0.08283986
75	0xbc4b0a03	-0.012392524
76	0x3ce18116	0.027527373
77	0xbbe718c2	-0.007052512
78	0x3c5de9ff	0.013544559
79	0x3ccf36ea	0.02529474
80	0x3ce7e3fa	0.02830695
81	0xbdb89d8c	-0.09014425
82	0xbdb27d95	-0.08715359
83	0xbcefbf47	-0.029266013
84	0x3d073fb1	0.033019725
85	0xbd6930fc	-0.05693148
86	0xbd83dd21	-0.06438661
87	0xbdd84308	-0.1055966
88	0x3c1a065f	0.009400933
89	0xbd80c73c	-0.06288001
90	0xbe5e6f0f	-0.21722053
91	0xbd2c8d00	-0.042126656
92	0xbdc4bd5c	-0.0960643
93	0x3d87e327	0.06635123
94	0xbd5260e4	-0.051361933
95	0x3d67e8df	0.056618568
96	0xbd8e0d34	-0.06936112
97	0x3dbd4ac9	0.0924278
98	0xbdc8dedc	-0.09808132
99	0xbdbd6bf1	-0.09249104
100	0xbd187420	-0.03722012
101	0xbe249f59	-0.16076411
102	0x3c972eb0	0.01845488
103	0x3cef3382	0.029199366
104	0xbd4f2cba	-0.050579764
105	0x3d11847c	0.035526738
106	0x3dcd1b7a	0.10015006
107	0x3d4f9b7e	0.0506854
108	0x3bbddcc2	0.0057941386
109	0x3db279aa	0.08714612
110	0x3db50d09	0.08840377
111	0x3da3ffac	0.0800775
112	0x3d4ef38f	0.050525244
113	0x3c1baca7	0.009501613
114	0xbe06f24c	-0.13178366
115	0xbd89e4cb	-0.06733092
116	0x3d1d5187	0.03840783
117	0xbc472def	-0.0121569475
118	0xbdac0d42	-0.08400966
119	0xbcd43e87	-0.025908722
120	0xbc163ba8	-0.009169497
121	0xbd5d539b	-0.05403481
122	0x3cd07ece	0.02545109
123	0x3d03a17a	0.032136418
124	0x3d880071	0.06640709
125	0xbdb9fee4	-0.0908182
126	0xbdccd283	-0.100010894
127	0x3d775c2f	0.060390648
128	0x3ddcad80	0.1077528
129	0xbd129f90	-0.035796702
130	0x3d99d267	0.07510834
131	0xbce86688	-0.028369203
132	0xbd0d06ef	-0.03443044
133	0x3b5753de	0.0032856385
134	0xbc735bc6	-0.014853423
135	0x3c7268b9	0.014795476
136	0x3d7e069f	0.062018033
137	0xbddfa1b5	-0.10919515
138	0xbce863b1	-0.028367849
139	0x3d55b277	0.05217215
140	0xbccf604a	-0.025314469
141	0xbd8bf513	-0.068338536
142	0x3d7c42b4	0.06158705
143	0xbba7c628	-0.0051200576
144	0xbcecf9e6	-0.028927755
145	0x3cebd34d	0.02878728
146	0x3c8cf9d2	0.017208967
147	0xbd9c59d8	-0.07634324
148	0xbcd76c20	-0.026296675
149	0x3e2aec7a	0.16691771
150	0xbd00edec	-0.0314769
151	0x3da6350b	0.08115586
152	0xbd7c6f9c	-0.061629876
153	0x3c7c9467	0.015416241
154	0x3afe019e	0.0019379144
155	0xbcf2e3b4	-0.029649593
156	0x3c73fcb5	0.014891793
157	0xbd52f853	-0.05150635
158	0x3c3afb7a	0.011412496
159	0x3beca1bd	0.007221429
160	0xbbaa27fa	-0.005192754
161	0xbdd34070	-0.10315025
162	0xbc8d030f	-0.017213373
163	0xbc1f2472	-0.009713279
164	0xbda88487	-0.082284026
165	0xbc9ac30f	-0.01889184
166	0x3c254f78	0.010089748
167	0x3d19e4c8	0.0375717
168	0xbca98011	-0.02069095
169	0x3dc6555f	0.09684252
170	0x3baa871c	0.0052040946
171	0xbc90a48a	-0.017656583
172	0x3d890327	0.066900544
173	0xbd8ce068	-0.068787396
174	0xbdb9487b	-0.09047028
175	0x3c4504a4	0.012025032
176	0x3d4780c5	0.04870679
177	0xbd2273d3	-0.03966124
178	0x3e3ca8a5	0.18423708
179	0x3db85cbb	0.09002062
180	0xbd0fe310	-0.035128653
181	0x3cbe2a01	0.023213388
182	0x3d432a45	0.047647733
183	0xbd3dfc17	-0.04638299
184	0xbdf8b6ed	-0.12144265
185	0xbcdae951	-0.026722582
186	0xbd7d839b	-0.061893087
187	0x3c879ec8	0.016555205
188	0xbd7c5f0f	-0.061614092
189	0x3da11e56	0.07867114
190	0x3e240f99	0.16021575
191	0x3ceba961	0.02876729
192	0x3c80407b	0.015655747
193	0x3af45d76	0.0018643576
194	0x3c68b7c0	0.014203966
195	0x3d8c4aa4	0.06850174
196	0x3d99b66b	0.075054966
197	0xbc77dc14	-0.015128154
198	0x3d390071	0.045166437
199	0x3de62bb6	0.11238806
200	0xbd9017a0	-0.07035756
201	0x3dd9d4d1	0.10636295
202	0x3d83da03	0.06438067
203	0xbd61590d	-0.055016566
204	0x3e125570	0.14290404
205	0x3a918457	0.0011102062
206	0xbe7b0b18	-0.2451595
207	0x3da8abc5	0.082358874
208	0xbbd82c68	-0.0065970905
209	0x3e06c429	0.13160767
210	0x3e01f213	0.1269
211	0x3d69ede6	0.057111643
212	0xbce1cacf	-0.027562527
213	0xbd086f70	-0.0333094
214	0x3c984c21	0.018590989
215	0x3a61df4d	0.0008616343
216	0x3d0c8824	0.03430952
217	0x3cc7a504	0.024370678
218	0xbd12c73c	-0.035834536
219	0xbdbfcf6d	-0.09365735
220	0x3d6c4a1b	0.05768786
221	0x3cd10509	0.025515096
222	0xbd6a3eef	-0.057188924
223	0xbdda2e3e	-0.10653351
224	0x3d9436a4	0.07236984
225	0xbd5ef3d9	-0.05443177
226	0x3cd2642c	0.025682531
227	0x3afe006b	0.0019378787
228	0x3df80cbf	0.12111806
229	0x3d97b489	0.07407481
230	0xbdb99ba1	-0.09062887
231	0xbe307b9b	-0.17234652
232	0xbd466863	-0.048439395
233	0x3d8d4055	0.06897036
234	0xbe10b2d6	-0.1413072
235	0x3d641241	0.05568147
236	0xbdfff37f	-0.12497615
237	0xbb88e842	-0.004178078
238	0x3bd9d977	0.0066482383
239	0xbe0cf3d9	-0.13764895
240	0xbd35b523	-0.0443622
241	0xbd4453dd	-0.04793154
242	0x3cc731d1	0.024315747
243	0xbd1d7ec1	-0.03845096
244	0x3db556fc	0.088544816
245	0xbe45b9c6	-0.19309148
246	0x3d2a67f2	0.041603036
247	0xbd91bc94	-0.071160465
248	0xbd490605	-0.049078006
249	0xbd9ee654	-0.07758775
250	0xbb1fd0bc	-0.002438589
251	0xbdc53475	-0.09629146
252	0x3bbeb3e5	0.005819785
253	0xbdb9772e	-0.09055935
254	0x3cc633e2	0.024194662
255	0xbccb702e	-0.024833765

network_body._body_endoder.seq_layers.2.bias f4 [128]
0	0x00000000	0.0
1	0x00000000	0.0
2	0x00000000	0.0
3	0x00000000	0.0
4	0x00000000	0.0
5	0x00000000	0.0
6	0x00000000	0.0
7	0x00000000	0.0
8	0x00000000	0.0
9	0x00000000	0.0
10	0x00000000	0.0
11	0x00000000	0.0
12	0x00000000	0.0
13	0x00000000	0.0
14	0x00000000	0.0
15	0x00000000	0.0
16	0x00000000	0.0
17	0x00000000	0.0
18	0x00000000	0.0
19	0x00000000	0.0
20	0x00000000	0.0
21	0x00000000	0.0
22	0x00000000	0.0
23	0x00000000	0.0
24	0x00000000	0.0
25	0x00000000	0.0
26	0x00000000	0.0
27	0x00000000	0.0
28	0x00000000	0.0
29	0x00000000	0.0
30	0x00000000	0.0
31	0x00000000	0.0
32	0x00000000	0.0
33	0x00000000	0.0
34	0x00000000	0.0
35	0x00000000	0.0
36	0x00000000	0.0
37	0x00000000	0.0
38	0x00000000	0.0
39	0x00000000	0.0
40	0x00000000	0.0
41	0x00000000	0.0
42	0x00000000	0.0
43	0x00000000	0.0
44	0x00000000	0.0
45	0x00000000	0.0
46	0x00000000	0.0
47	0x00000000	0.0
48	0x00000000	0.0
49	0x00000000	0.0
50	0x00000000	0.0
51	0x00000000	0.0
52	0x00000000	0.0
53	0x00000000	0.0
54	0x00000000	0.0
55	0x00000000	0.0
56	0x00000000	0.0
57	0x00000000	0.0
58	0x00000000	0.0
59	0x00000000	0.0
60	0x00000000	0.0
61	0x00000000	0.0
62	0x00000000	0.0
63	0x00000000	0.0
64	0x00000000	0.0
65	0x00000000	0.0
66	0x00000000	0.0
67	0x00000000	0.0
68	0x00000000	0.0
69	0x00000000	0.0
70	0x00000000	0.0
71	0x00000000	0.0
72	0x00000000	0.0
73	0x00000000	0.0
74	0x00000000	0.0
75	0x00000000	0.0
76	0x00000000	0.0
77	0x00000000	0.0
78	0x00000000	0.0
79	0x00000000	0.0
80	0x00000000	0.0
81	0x00000000	0.0
82	0x00000000	0.0
83	0x00000000	0.0
84	0x00000000	0.0
85	0x00000000	0.0
86	0x00000000	0.0
87	0x00000000	0.0
88	0x00000000	0.0
89	0x00000000	0.0
90	0x00000000	0.0
91	0x00000000	0.0
92	0x00000000	0.0
93	0x00000000	0.0
94	0x00000000	0.0
95	0x00000000	0.0
96	0x00000000	0.0
97	0x00000000	0.0
98	0x00000000	0.0
99	0x00000000	0.0
100	0x00000000	0.0
101	0x00000000	0.0
102	0x00000000	0.0
103	0x00000000	0.0
104	0x00000000	0.0
105	0x00000000	0.0
106	0x00000000	0.0
107	0x00000000	0.0
108	0x00000000	0.0
109	0x00000000	0.0
110	0x00000000	0.0
111	0x00000000	0.0
112	0x00000000	0.0
113	0x00000000	0.0
114	0x00000000	0.0
115	0x00000000	0.0
116	0x00000000	0.0
117	0x00000000	0.0
118	0x00000000	0.0
119	0x00000000	0.0
120	0x00000000	0.0
121	0x00000000	0.0
122	0x00000000	0.0
123	0x00000000	0.0
124	0x00000000	0.0
125	0x00000000	0.0
126	0x00000000	0.0
127	0x00000000	0.0

action_model._continuous_distribution.log_sigma f4 [1, 2]
0	0x00000000	0.0
1	0x00000000	0.0

action_model._continuous_distribution.mu.weight f4 [2, 128]
0	0xbd0d9d2f	-0.03457373
1	0xbc1ff2b7	-0.009762458
2	0x3c2da4e7	0.010598398
3	0xbc21b3d3	-0.009869534
4	0xbc7ee6a7	-0.0155579215
5	0xbbd31f18	-0.0064429156
6	0xbd0e5481	-0.034748558
7	0x39f3b380	0.0004648231
8	0xbc93e48d	-0.018053317
9	0x3ad631f5	0.0016341793
10	0xbc77d370	-0.015126094
11	0xbd1e6707	-0.038672473
12	0xb9869a10	-0.00025673257
13	0xbcf01d4b	-0.029310843
14	0x3c8f90e9	0.017525153
15	0xbcdd2603	-0.026995664
16	0x3b743a6b	0.0037266265
17	0xbc8686c1	-0.016421678
18	0xb90cdab0	-0.00013432908
19	0x3b790a02	0.003800035
20	0xbc5cb6df	-0.013471334
21	0x3c04e4cc	0.00811119
22	0x3c94d589	0.018168228
23	0x3ba97bf5	0.0051722475
24	0xbc6759bb	-0.0141205145
25	0xbd02274c	-0.031775758
26	0x3c254f83	0.010089758
27	0x3c228a0b	0.009920607
28	0xbb4fa4f8	-0.0031684022
29	0x3cc9814d	0.024597788
30	0x3c0d7c16	0.008635541
31	0xbc8f20d7	-0.017471714
32	0x3cc2688f	0.023731498
33	0x3b951ad0	0.0045503154
34	0xbc427ec3	-0.011871043
35	0x3c2e5098	0.010639332
36	0x3a88230e	0.0010386424
37	0x3cc13b37	0.023587806
38	0x3b58319a	0.003298855
39	0xbc71bb32	-0.0147541035
40	0xbd04b1e5	-0.032396216
41	0xbaf2ea8b	-0.0018533034
42	0x3ceb79ad	0.028744543
43	0xbc132f67	-0.00898347
44	0xbc0fa04e	-0.008766247
45	0xbc80a1c7	-0.015702141
46	0xbbe1aef8	-0.006887313
47	0x3ce922bb	0.028458944
48	0xbc1880eb	-0.00930808
49	0x3c71cbdf	0.014758079
50	0x3c3e3218	0.011608623
51	0x3b1348fa	0.0022473917
52	0xbc65d4a3	-0.014027747
53	0xbc2406eb	-0.010011415
54	0x3c046d8f	0.008082761
55	0xbc6c3683	-0.0144172935
56	0xbb858134	-0.00407424
57	0xbc771407	-0.0150804585
58	0x3c7d7de5	0.01547191
59	0x3c4c8cb4	0.012484718
60	0x3c915983	0.017742878
61	0xbc1061d9	-0.008812391
62	0xbc864588	-0.016390577
63	0xbc19a5b1	-0.009377883
64	0x3c8fabdd	0.017538005
65	0xbcb6ce33	-0.02231512
66	0xbd13adc5	-0.03605439
67	0x3d13320f	0.03593641
68	0xbb03f77f	-0.0020136533
69	0x3c864d3b	0.016394248
70	0xbb355ffc	-0.002767562
71	0xbbd14f78	-0.0063876472
72	0xbbfa631f	-0.0076412107
73	0xbcad9dea	-0.021193463
74	0x3d01f0cb	0.03172378
75	0x3c3a2344	0.011360947
76	0xbca501b6	-0.020142417
77	0xbad41bf3	-0.0016182646
78	0x3c82aeba	0.015952457
79	0xbcb3817b	-0.021912327
80	0xbc19f4ea	-0.009396771
81	0xba40e24d	-0.000735794
82	0x3c5d799a	0.013517762
83	0x3c72f107	0.014827973
84	0xbbead353	-0.007166305
85	0x3c1dc153	0.009628612
86	0x3c984590	0.018587857
87	0xbcff489b	-0.03116255
88	0xbc240be5	-0.0100126015
89	0x3bf9a27b	0.007618246
90	0xbc606688	-0.01369632
91	0x3d3b7e13	0.04577453
92	0x3940c0d7	0.00018382385
93	0xbce7bf6b	-0.028289517
94	0xbc9dd13e	-0.019264814
95	0xb931b758	-0.00016948336
96	0xbb56f110	-0.0032797493
97	0xbd14720e	-0.036241584
98	0xbc9928da	-0.018696237
99	0x3ccba0ee	0.02485701
100	0x3bf7e2f0	0.007564895
101	0xbb8ae109	-0.004238252
102	0x3d04484a	0.032295503
103	0x3c40083b	0.011720712
104	0xbc9b775a	-0.01897781
105	0xbc04d637	-0.008107713
106	0xbcc22c92	-0.023702893
107	0xbceed117	-0.029152436
108	0xbc5506fa	-0.013002152
109	0x3bd8d8f5	0.00661766
110	0x3c98a804	0.018634804
111	0x3d17b367	0.037036326
112	0xbb9f658f	-0.0048644016
113	0xbcf4a1d0	-0.029862314
114	0x3a575ce5	0.00082154415
115	0x3b618c7f	0.0034416018
116	0xbcf482a5	-0.029847452
117	0x3a60723b	0.00085619435
118	0xbb8d948f	-0.004320688
119	0x3c578928	0.013155259
120	0xbb731855	-0.003709336
121	0xbc00a98b	-0.007852922
122	0x3c190d90	0.009341612
123	0x3aadc58b	0.0013257725
124	0x3bc3cd70	0.005975418
125	0xbc034d17	-0.008013985
126	0x38038e51	3.1365376e-05
127	0xbca4bcb3	-0.02010951
128	0xbcc1d3ce	-0.023660567
129	0xbc6d1d23	-0.014472279
130	0xbccb55bc	-0.024821155
131	0xbd191660	-0.037374854
132	0xbd1148cf	-0.035469826
133	0xbbec631d	-0.0072139637
134	0x3c06defa	0.008231873
135	0x3c3d78e2	0.011564465
136	0x3c373824	0.011182819
137	0x3c8a1561	0.016855897
138	0xbc2b3b36	-0.010451129
139	0x3bb3ad37	0.0054832953
140	0x3b72f162	0.0037070145
141	0xbc6f2332	-0.014595794
142	0x3cb36cc9	0.021902459
143	0xbc5946f7	-0.013261548
144	0x3cc13f23	0.023589676
145	0xbbf23b85	-0.007392349
146	0xbc259381	-0.010105968
147	0xbbc824a3	-0.006107883
148	0x3c2e7d7e	0.010650037
149	0xbcd09ebd	-0.025466317
150	0xbc8fb89e	-0.017544087
151	0xb9f23577	-0.0004619767
152	0xbbec159f	-0.007204726
153	0xbb206278	-0.0024472754
154	0x3a34ea99	0.0006901413
155	0xbcf16b73	-0.029470181
156	0x3cb2aa66	0.021809768
157	0xbb828adf	-0.00398384
158	0x3c99c3db	0.018770149
159	0xbc259911	-0.010107295
160	0xbc78aa33	-0.015177297
161	0xbc4a92f4	-0.012364138
162	0x3a118f69	0.0005552681
163	0xbbd29ea5	-0.0064276033
164	0x3c7619bb	0.015020783
165	0x3ce1da13	0.027569806
166	0xbb5fbcb5	-0.0034139578
167	0x3c7115ff	0.014714717
168	0x3aebff83	0.0018005226
169	0xbd15b8b5	-0.036553103
170	0x3bf8cfa7	0.0075931135
171	0xbb20a433	-0.0024511933
172	0xbc019230	-0.007908389
173	0x3cccdef8	0.025008664
174	0xbbd2cb57	-0.0064329314
175	0xbc865a4a	-0.016400475
176	0xbce6d65d	-0.028178388
177	0xbc6c4a25	-0.014421974
178	0x3c9d5258	0.019204304
179	0x3d1d80d2	0.03845293
180	0x3c04b97d	0.0081008645
181	0xbc57fda8	-0.013183035
182	0x3c6d207b	0.014473076
183	0x3b7b3a57	0.0038334334
184	0xbb9302bf	-0.0044864113
185	0x3a3ad14b	0.0007126524
186	0xbc8090b8	-0.015694007
187	0xbc9217e6	-0.017833661
188	0xbc3b3d2b	-0.011428158
189	0x3b0345e3	0.002003067
190	0x3c9f332a	0.019433577
191	0x3b35f58a	0.002776476
192	0x3c36a98e	0.011148823
193	0x3c531367	0.012883044
194	0x3c8e6c8f	0.01738575
195	0x3c14b430	0.009076163
196	0xbb04d57a	-0.0020268844
197	0x3c6c3b58	0.0144184455
198	0xbb546710	-0.0032410063
199	0xbc98f363	-0.018670743
200	0x3c13eb37	0.009028248
201	0xbc3649ec	-0.011126023
202	0x3ab87988	0.0014074305
203	0x3c737607	0.014859683
204	0xbadf8dba	-0.0017055788
205	0xbbbd6130	-0.005779408
206	0xbb13a596	-0.0022529117
207	0x3af53877	0.0018708844
208	0xbcb54506	-0.02212764
209	0x3bf3e66a	0.007443239
210	0x3d0c8369	0.03430501
211	0x3cad5191	0.021157058
212	0xbb2f0cb3	-0.002671045
213	0xbc856e29	-0.01628788
214	0xbcc5ddb2	-0.024153564
215	0xba9f2a0b	-0.0012143267
216	0x3cc3c6ce	0.023898508
217	0xbcb66227	-0.0222636
218	0xbbfe61cd	-0.0077631236
219	0xb9d2e16f	-0.00040222282
220	0x3b30c57c	0.0026973179
221	0xbc1c9c0e	-0.009558691
222	0xbb8b5e14	-0.0042531583
223	0xbbd7aded	-0.006582013
224	0x3c3c60a1	0.0114976475
225	0x3c73ce85	0.014880781
226	0xbc2b9893	-0.010473388
227	0xbbdbc703	-0.0067070737
228	0x3d1d8852	0.038460083
229	0x3c4578ad	0.012052697
230	0xbc8fc62d	-0.017550552
231	0x3aae6857	0.0013306242
232	0xbccf2bf2	-0.02528951
233	0xbc18dc11	-0.009329812
234	0x3b712592	0.0036796075
235	0xbb1f4c44	-0.0024306932
236	0x3bd28d93	0.0064255684
237	0xbc857717	-0.016292138
238	0xbc70e968	-0.014704086
239	0x3b315ba5	0.002706268
240	0xbb6f62e2	-0.0036527445
241	0xbcc7e1ce	-0.024399664
242	0xbb63e08a	-0.0034771287
243	0xbc085054	-0.008319933
244	0xbcb2fa48	-0.021847859
245	0x3b8077ee	0.0039205467
246	0x3c9547d9	0.018222736
247	0xbc428270	-0.011871919
248	0xbb7a6653	-0.0038207963
249	0xbb0df8b3	-0.002166313
250	0x3c5b50d8	0.013385974
251	0xbc66cb60	-0.014086574
252	0xbc0ecabf	-0.008715331
253	0x3cef2732	0.029193494
254	0xbbf9d1bd	-0.0076238797
255	0xbcfe2635	-0.031024078

action_model._continuous_distribution.mu.bias f4 [2]
0	0x00000000	0.0
1	0x00000000	0.0

action_model._discrete_distribution.branches.0.weight f4 [2, 128]
0	0xbb24df00	-0.0025157332
1	0xba5af810	-0.0008353004
2	0x3bdda3d5	0.006763915
3	0xbc77a1e5	-0.015114282
4	0xbc2b5d10	-0.0104592
5	0xbbe7ec5a	-0.007077736
6	0x3bd30b82	0.006440581
7	0x3ca8f6b7	0.020625455
8	0x3be19efa	0.0068854066
9	0xbbb46872	-0.005505615
10	0xb956f3da	-0.00020499472
11	0xbb8ebb38	-0.0043558143
12	0x3b4fd6e2	0.0031713773
13	0xbb40973b	-0.0029387015
14	0xba3bb317	-0.00071601704
15	0x3ba349da	0.004983169
16	0xb95c5a5f	-0.00021014501
17	0x394840c5	0.00019097615
18	0x3bdaf45b	0.0066819615
19	0x3b885e3d	0.0041616247
20	0xbb971df7	-0.0046117264
21	0x3c8d37ef	0.017238585
22	0xbc3a32b9	-0.011364632
23	0x3bb3542f	0.005472682
24	0xbb7733e8	-0.0037720148
25	0xbb352411	-0.0027639905
26	0xbc7595cd	-0.014989329
27	0xbb792620	-0.003801711
28	0x3bd06743	0.006359966
29	0x3c89f644	0.016841061
30	0xbcafe2ed	-0.021470511
31	0x3c233308	0.009960897
32	0x3ba3257f	0.004978835
33	0xbbc3f3cb	-0.00597999
34	0x3c5faaa5	0.013651525
35	0x3c22593f	0.009908973
36	0xbba8dabb	-0.005153028
37	0x3c5cef4f	0.01348479
38	0x3c76f4fb	0.015073056
39	0x3c7702f2	0.015076386
40	0xb7208873	-9.568513e-06
41	0x3b7e948d	0.0038845867
42	0x3c83a918	0.016071841
43	0x3c5eb367	0.013592578
44	0xbc06c2bb	-0.008225138
45	0x3bc991d3	0.006151417
46	0x3c59bcaf	0.013289615
47	0x3b85f1e6	0.0040876744
48	0x3c0e1a87	0.008673317
49	0xbc3cce5b	-0.011523808
50	0x3a45199c	0.00075187697
51	0xbbf477f5	-0.007460589
52	0xbb816df7	-0.0039498764
53	0xbb78dd3b	-0.003797366
54	0xbaf3cea3	-0.0018601011
55	0x3c1be612	0.009515302
56	0xbc2c5f63	-0.010520789
57	0x3b19728e	0.0023414227
58	0x3ad7b3a2	0.0016456733
59	0x3a8f3163	0.0010924753
60	0xbb2c26d5	-0.0026268263
61	0xba09bb03	-0.0005254002
62	0x3b8ce856	0.0043001575
63	0x3a537a57	0.0008067241
64	0xbbcc5576	-0.0062357737
65	0x3b8afd15	0.0042415955
66	0x3caef597	0.02135734
67	0x3c4fef78	0.012691371
68	0x3c6c2a65	0.0144144045
69	0x3a9c30fc	0.0011916454
70	0x3b9542bc	0.0045550745
71	0x3be1f6b8	0.0068958662
72	0xbac76bbf	-0.0015214606
73	0x3b70d072	0.0036745337
74	0xbc9e8a6f	-0.01935312
75	0xbc1973d0	-0.009365991
76	0x3bc1a17f	0.0059091444
77	0x3b063681	0.0020479264
78	0xbb091384	-0.0020916173
79	0x398edccf	0.00027248866
80	0xbc13c353	-0.009018737
81	0xbbb0a553	-0.005390802
82	0xbb139861	-0.0022521245
83	0x3bfa4f95	0.0076388814
84	0xb97e1785	-0.0002423209
85	0x3b86ee68	0.0041177757
86	0x3aa14cf3	0.0012306258
87	0x3c2cb710	0.010541692
88	0xbbe0651a	-0.0068479897
89	0x3b3fb655	0.0029252965
90	0xbbd061f0	-0.0063593313
91	0x3b195d02	0.0023401384
92	0x3b674743	0.0035290278
93	0x3af70df2	0.001884876
94	0x3a00a2c2	0.00049070653
95	0x3a16f0eb	0.00057579455
96	0x3b11006a	0.002212549
97	0x3c3d9e63	0.011573407
98	0x3b1d164f	0.0023969596
99	0x3b9995e7	0.004687059
100	0xbc01667f	-0.007897972
101	0x3c82e958	0.015980408
102	0x3b9f8546	0.0048681824
103	0xbb5baf40	-0.0033521205
104	0x3b99c753	0.0046929508
105	0xbbb22caf	-0.0054374556
106	0xb8a94427	-8.071242e-05
107	0xba4adefb	-0.0007738915
108	0xbc2effa8	-0.01068107
109	0xbc57dc3d	-0.0131750675
110	0xbbfa76fb	-0.007643578
111	0xbc504a93	-0.012713092
112	0xbc2bfa86	-0.010496741
113	0x39d5bc97	0.00040767036
114	0x3c949785	0.018138656
115	0xbbf4459a	-0.007454586
116	0xba8a28a3	-0.0010540675
117	0xbb8c70c0	-0.004285902
118	0xbc68153a	-0.014165217
119	0xbbd7855a	-0.006577176
120	0x3af92105	0.0019007033
121	0x3bbe9397	0.005815934
122	0xbca9678b	-0.020679256
123	0xbc032590	-0.008004561
124	0x3be23113	0.0069028228
125	0x3b941eac	0.004520258
126	0xbc02e829	-0.007989922
127	0x3c0b7397	0.0085114455
128	0xbafa4c38	-0.0019096201
129	0xbaab350b	-0.0013062073
130	0xbc199a94	-0.009375233
131	0xbc294f7d	-0.010333893
132	0xbc484bc9	-0.0122251
133	0x3cc2fc52	0.023801956
134	0x3b85012c	0.0040589776
135	0xbc368383	-0.011139753
136	0xb9b24789	-0.00034004104
137	0xba7e0512	-0.00096900866
138	0x3c93a03e	0.018020745
139	0x3bc7ee00	0.00610137
140	0x3c2d8782	0.01059139
141	0x3c43f8c4	0.011961166
142	0x3c1c8b9d	0.009554771
143	0x3a1e8efb	0.00060485274
144	0xba69763f	-0.00089058647
145	0x3c74fbf3	0.0149526475
146	0x3b8f7b08	0.00437868
147	0xbc37b580	-0.011212707
148	0xbc4cfa7d	-0.012510893
149	0x3c6340d0	0.013870433
150	0xbb925ebb	-0.004466859
151	0x3b71eb6d	0.0036914006
152	0xbbbb063c	-0.0057075303
153	0x3bcf2097	0.0063210237
154	0x3befe5d7	0.0073211
155	0xbb00dba0	-0.0019662157
156	0xbba8e78b	-0.005154555
157	0xbbef2b92	-0.007298895
158	0x3c162d29	0.00916604
159	0x3c2a59ad	0.010397357
160	0x3c9793c7	0.018503083
161	0xbad2e238	-0.0016089147
162	0xbbb8836c	-0.005630901
163	0xbbcdebea	-0.0062842267
164	0x3c2ede67	0.010673142
165	0xbc0d237b	-0.008614416
166	0xbba4b8bb	-0.0050269044
167	0xbc2a10ff	-0.010380029
168	0x3bb130c7	0.005407426
169	0x3b12c8ef	0.0022397598
170	0x3ca41d05	0.020033369
171	0x3c556742	0.013025107
172	0x3be32dbd	0.0069329427
173	0xbc5a6e7a	-0.013332004
174	0xba878b6f	-0.0010341237
175	0x3c19a701	0.009378196
176	0xbc492ff3	-0.012279498
177	0x3c47e540	0.012200654
178	0x3c456b6b	0.012049536
179	0xbc067379	-0.008206242
180	0xba0fbce7	-0.0005483166
181	0x3c39b04a	0.0113335345
182	0x3b69c0c5	0.0035667878
183	0x3c419264	0.011814687
184	0xbc31c7fc	-0.010850903
185	0xbc18b487	-0.009320385
186	0x3a9678b7	0.0011480068
187	0xbc20a060	-0.009803861
188	0xba2b8a63	-0.00065437536
189	0xbb04241f	-0.0020163131
190	0x3bee9c07	0.0072817835
191	0x3c448271	0.01199399
192	0xbb230d95	-0.0024879922
193	0x3bb23650	0.0054386035
194	0xbb8ddf91	-0.0043296297
195	0x3c245250	0.01002939
196	0xbc813083	-0.015770203
197	0xbc303327	-0.010754383
198	0xbbe3024a	-0.006927763
199	0xbc448527	-0.011994637
200	0xbad9d512	-0.0016619286
201	0xbb85563f	-0.004069119
202	0xbbea67d5	-0.007153491
203	0xbc42ac5c	-0.011881914
204	0xbc490c31	-0.012270973
205	0xbb878062	-0.0041351775
206	0x3b346577	0.0027526298
207	0x3bd2b4db	0.006430251
208	0x3b9e1f79	0.004825529
209	0xbbf81d45	-0.0075718486
210	0xbcb575c5	-0.022150883
211	0x3c04bf74	0.008102287
212	0x3be5b505	0.0070101046
213	0xbbfdd8db	-0.0077467985
214	0xbc483a48	-0.012220927
215	0xba431d15	-0.0007442993
216	0x3bfc91c7	0.0077078077
217	0x3b7c4b7d	0.0038497143
218	0x3c760a17	0.015017054
219	0x3c1fa19c	0.0097431205
220	0x3c5209c8	0.012819715
221	0xbaca99c4	-0.0015457203
222	0x3bd996d2	0.0066402936
223	0xbac38c37	-0.0014919107
224	0xbcb9b610	-0.022669822
225	0xbc946907	-0.018116487
226	0x3b92b775	0.004477436
227	0x3c3e0cab	0.0115997
228	0xbb370604	-0.002792717
229	0x3bbfc2c6	0.005852076
230	0x3bd38e6b	0.0064561865
231	0x3b5b9835	0.003350747
232	0x3bf1df4a	0.0073813545
233	0xbc3f6ec2	-0.011684122
234	0xbc939ef4	-0.01802013
235	0xbc1ebe1e	-0.009688882
236	0x3bb2cd52	0.005456605
237	0x3c595f4b	0.0132673485
238	0xbb4dbae2	-0.0031391908
239	0x3c709a15	0.0146851735
240	0xb9b064fb	-0.00033644572
241	0x3bd97ebb	0.006637422
242	0x3c221161	0.009891839
243	0x3b51896a	0.0031972774
244	0xbc0181ef	-0.007904514
245	0x3b20d2da	0.002453974
246	0xbb007b1b	-0.0019604627
247	0x3b86cfdd	0.0041141347
248	0x3b3d2fd2	0.0028867614
249	0xbc028667	-0.007966614
250	0xbaf8f698	-0.0018994389
251	0x3b322acb	0.002718615
252	0xbab03d5b	-0.001344602
253	0xb9ee29fa	-0.00045426172
254	0xbb0041fe	-0.0019570584
255	0x3c04775a	0.008085096

action_model._discrete_distribution.branches.0.bias f4 [2]
0	0x00000000	0.0
1	0x00000000	0.0

network_body._body_endoder.seq_layers.0.weight f4 [128, 12]
0	0x3de61cb6	0.11235945
1	0xbd94f23b	-0.07272764
2	0x3d09ce94	0.033644274
3	0xbdca0a08	-0.098651946
4	0x3f02500a	0.5090338
5	0x3f06e259	0.5268913
6	0xbec8d3c5	-0.39224067
7	0xbe84cd56	-0.2593791
8	0x3c5510b6	0.0130044725
9	0xbc9b3fa8	-0.018951252
10	0x3e2cc66e	0.1687257
11	0xbeab8857	-0.33502457
12	0x3e865522	0.26236826
13	0x3e9be0f5	0.30445066
14	0x3dab5fca	0.0836788
15	0x3ccb2d72	0.024801943
16	0x3edd07d6	0.4317004
17	0x3dee3d9c	0.11632845
18	0xbe747c33	-0.23875503
19	0x3d132f3c	0.035933718
20	0x3eea3836	0.4574601
21	0xbe6512c7	-0.22370444
22	0xbe068b87	-0.13139163
23	0xbce68790	-0.028140813
24	0xbeb2e52d	-0.34940472
25	0xbe8479a0	-0.25874043
26	0x3c361958	0.011114441
27	0x3f104bfe	0.56365955
28	0xbf277e16	-0.65426767
29	0xbe7e3e29	-0.248284
30	0x3eb752e3	0.35805425
31	0x3c649911	0.0139525095
32	0x3e96817c	0.29395664
33	0x3cf0e224	0.029404707
34	0xbc656db9	-0.014003211
35	0x3ea2ab89	0.31771496
36	0xbf0aab2a	-0.54167426
37	0xbf1ee9c5	-0.62075454
38	0x3e3f373a	0.18673411
39	0xbe43a58f	-0.19106124
40	0xbc06bf5f	-0.008224337
41	0x3f242399	0.6411682
42	0xbe6f4cf4	-0.23369199
43	0xbd549de5	-0.051908392
44	0x3dbb98a4	0.09159973
45	0x3e726395	0.236708
46	0xbf06a1ac	-0.5259044
47	0xbdb4b653	-0.08823838
48	0x3d02ebd8	0.0319632
49	0xbe5b5dd1	-0.21422507
50	0x3f040ce7	0.5158219
51	0xbef60d16	-0.4805686
52	0xbeddeed6	-0.4334628
53	0xbf152c41	-0.5827065
54	0x3d71dea3	0.059050214
55	0xbd03aed7	-0.032149162
56	0x3e2662a9	0.16248573
57	0xbe2fec97	-0.17180096
58	0x3e60fee6	0.21972236
59	0x3e512d4f	0.2042744
60	0x3c2066e8	0.00979016
61	0x3d8c3fed	0.068481304
62	0x3e9a2033	0.3010269
63	0xbe2237ac	-0.1584155
64	0xbf294ab4	-0.6612961
65	0x3b564355	0.0032693942
66	0xbd45dad0	-0.04830438
67	0xbe8d8aab	-0.27644858
68	0x3dbef17c	0.09323403
69	0xbc773b9a	-0.015089894
70	0xbef0cc5b	-0.4703091
71	0x3e0ac264	0.13550717
72	0x3d5cf3e5	0.053943533
73	0xbe8f4e2f	-0.27989337
74	0x3e29caf6	0.1658133
75	0x3e134efe	0.14385602
76	0x3c903f4d	0.01760831
77	0x3b9ce334	0.004787827
78	0x3ce42478	0.02784942
79	0xbe161570	-0.14656615
80	0xbeb4db69	-0.35323647
81	0xbd8275a8	-0.063700974
82	0x3ed13683	0.40861902
83	0xbe23826c	-0.15967721
84	0xbe31e152	-0.17371109
85	0xbe3cba37	-0.1843041
86	0xbeb75f78	-0.35815024
87	0xbd527dc9	-0.05138949
88	0xbd3d10dc	-0.046158656
89	0x3e4e2919	0.20132865
90	0xbd21bf59	-0.039489124
91	0x3e79705e	0.24359271
92	0xbece0267	-0.40236208
93	0x3ed28830	0.41119528
94	0xbe1a2b60	-0.15055609
95	0xbdc81eec	-0.09771523
96	0xbd02ae4e	-0.03190451
97	0xbcf66f68	-0.03008242
98	0xbdd8f44e	-0.105934724
99	0xbdae5006	-0.08511357
100	0xbeb188b7	-0.34674618
101	0xbeeb54c6	-0.45963115
102	0xbe75bcfb	-0.23997872
103	0x3e93446c	0.2876314
104	0x3e984f1f	0.29747865
105	0x3ec6e051	0.38843015
106	0xbe82f50b	-0.25577578
107	0x3e016630	0.12636638
108	0xbea1db1b	-0.31612477
109	0x3e78fb99	0.24314727
110	0x3d23ed68	0.04002133
111	0xbdae082f	-0.08497655
112	0xbda89db2	-0.08233203
113	0xbe9a68ed	-0.30158177
114	0x3e8e018e	0.2773556
115	0xbe96f179	-0.29481104
116	0x3ec0418d	0.3755001
117	0xbef8dbea	-0.4860528
118	0x3e56d0c7	0.2097808
119	0x3ede8543	0.43461046
120	0x3ec6fdbf	0.38865468
121	0x3d97cc0c	0.07411966
122	0xbe0d321f	-0.13788651
123	0x3de42278	0.11139387
124	0x3e575d5d	0.21031709
125	0x3e0092cd	0.12556
126	0xbe58073f	-0.21096514
127	0x3dd72250	0.105045915
128	0x3e8c39f8	0.27387977
129	0x3eccaf85	0.3997766
130	0xbed546ab	-0.41655478
131	0x3ea5e328	0.3239987
132	0x3e159b48	0.14610016
133	0xbdb216f8	-0.08695787
134	0x3e28fd76	0.16502938
135	0xbe899e63	-0.26878652
136	0xbe783e00	-0.24242401
137	0x3edfdde5	0.4372398
138	0xbe8e55d6	-0.27799863
139	0x3e12a3ef	0.14320348
140	0xbf02e40f	-0.5112924
141	0xbe320f48	-0.17388642
142	0x3de24387	0.11048036
143	0xbd93567e	-0.071942315
144	0xbec479b3	-0.383741
145	0x3ca86ff2	0.020561192
146	0xbe3d02db	-0.1845812
147	0xbd1761f0	-0.036958635
148	0xbf34c119	-0.70607144
149	0xbeb446c1	-0.3521023
150	0x3eeaaaff	0.45833585
151	0x3e99607b	0.2995642
152	0xbe514ccf	-0.20439456
153	0xbe6b2145	-0.2296191
154	0x3de9fe66	0.11425476
155	0x3e9529c7	0.29133436
156	0xbe3bde9f	-0.18346642
157	0xbf1cf2c3	-0.61307925
158	0x3e4d5d47	0.20055114
159	0x3e123ca9	0.14280953
160	0xbe9d5034	-0.30725253
161	0x3e01f50d	0.12691136
162	0x3dd803a6	0.10547571
163	0xbd854709	-0.065076895
164	0xbd895298	-0.06705207
165	0xbf28d19a	-0.65944827
166	0x3dcb5b4e	0.09929524
167	0xbe844ff3	-0.25842246
168	0xbe5fde9f	-0.21862267
169	0x3d3a7073	0.045517396
170	0x3d16960e	0.036764197
171	0x3db4b494	0.08823505
172	0x3ec15b73	0.37765083
173	0x3e757ff1	0.23974587
174	0xbe3c0df2	-0.18364695
175	0xbdac05be	-0.08399533
176	0xbc7b4df3	-0.015338409
177	0x3de2f08c	0.11081037
178	0x3c3abc3a	0.011397416
179	0x3b97a459	0.004627746
180	0x3e769b3d	0.24082656
181	0xbf36dcf7	-0.71430916
182	0xbe187e2e	-0.14891884
183	0x3d62a751	0.055335347
184	0x3da48a69	0.08034212
185	0xbf389d82	-0.7211534
186	0xbc8fd701	-0.017558577
187	0xbed98279	-0.42482355
188	0xbced6931	-0.028980823
189	0x3eae33a5	0.34023777
190	0xbf15d2b2	-0.5852462
191	0xbd7a878f	-0.061164435
192	0xbe243843	-0.16037087
193	0x3e8f4082	0.27978903
194	0x3e11fe58	0.1425718
195	0x3d871288	0.065953314
196	0xbb70613d	-0.0036679052
197	0x3e45b274	0.19306356
198	0xbccbbca9	-0.024870234
199	0xbe7f933a	-0.24958506
200	0xbe6f19c3	-0.23349671
201	0x3e09678d	0.13418408
202	0xbeaec8df	-0.34137627
203	0x3e817a17	0.2528846
204	0xbe46de92	-0.19420841
205	0xbe837282	-0.256733
206	0xbcd70fb7	-0.02625261
207	0x3e64f9c0	0.22360897
208	0xbd14ef1c	-0.036360845
209	0x3ec8b72b	0.39202246
210	0xbd8db384	-0.069190055
211	0x3eac4e3a	0.33653432
212	0x3f1eaedc	0.61985564
213	0xbd6c59e6	-0.05770292
214	0x3d886a03	0.06660845
215	0xbcb3df64	-0.021957107
216	0x3ef2a3fd	0.47390738
217	0x3ef9fced	0.4882578
218	0x3e8d8b88	0.27645516
219	0xbcc47f52	-0.023986492
220	0x3e5122fe	0.20423505
221	0xbe22e73f	-0.15908526
222	0xbe6b933d	-0.23005386
223	0x3e6e3be0	0.23265028
224	0x3e6787d5	0.2261041
225	0xbf10c5c2	-0.56551754
226	0x3e406afa	0.18790808
227	0x3e9cef37	0.30651256
228	0xbd77f6e7	-0.0605382
229	0xbe892488	-0.26785684
230	0x3f01a991	0.5064936
231	0xbcc3c718	-0.023898646
232	0x3d4531d0	0.048143208
233	0xbd9c2632	-0.07624473
234	0x3e49c052	0.1970227
235	0x3ded4119	0.11584682
236	0xbd2fe301	-0.042941097
237	0xbd5c03e4	-0.053714648
238	0x3e19f445	0.15034588
239	0x3db88678	0.09010023
240	0x3cd7a8f6	0.026325684
241	0xbd192ea5	-0.037398
242	0x3cb314d0	0.02186051
243	0xbe8b443f	-0.27200505
244	0x3cf40be6	0.02979083
245	0xbe592953	-0.2120717
246	0x3e011b73	0.12608127
247	0x3f126e64	0.5719969
248	0xbda33225	-0.07968549
249	0xbec15a23	-0.3776408
250	0x3d4e45da	0.050359584
251	0x3deefe0c	0.11669549
252	0x3f49c62f	0.7881803
253	0xbeb82a64	-0.3596984
254	0x3f47b468	0.78009653
255	0xbe649251	-0.2232144

network_body._body_endoder.seq_layers.0.bias f4 [128]
0	0x00000000	0.0
1	0x00000000	0.0
2	0x00000000	0.0
3	0x00000000	0.0
4	0x00000000	0.0
5	0x00000000	0.0
6	0x00000000	0.0
7	0x00000000	0.0
8	0x00000000	0.0
9	0x00000000	0.0
10	0x00000000	0.0
11	0x00000000	0.0
12	0x00000000	0.0
13	0x00000000	0.0
14	0x00000000	0.0
15	0x00000000	0.0
16	0x00000000	0.0
17	0x00000000	0.0
18	0x00000000	0.0
19	0x00000000	0.0
20	0x00000000	0.0
21	0x00000000	0.0
22	0x00000000	0.0
23	0x00000000	0.0
24	0x00000000	0.0
25	0x00000000	0.0
26	0x00000000	0.0
27	0x00000000	0.0
28	0x00000000	0.0
29	0x00000000	0.0
30	0x00000000	0.0
31	0x00000000	0.0
32	0x00000000	0.0
33	0x00000000	0.0
34	0x00000000	0.0
35	0x00000000	0.0
36	0x00000000	0.0
37	0x00000000	0.0
38	0x00000000	0.0
39	0x00000000	0.0
40	0x00000000	0.0
41	0x00000000	0.0
42	0x00000000	0.0
43	0x00000000	0.0
44	0x00000000	0.0
45	0x00000000	0.0
46	0x00000000	0.0
47	0x00000000	0.0
48	0x00000000	0.0
49	0x00000000	0.0
50	0x00000000	0.0
51	0x00000000	0.0
52	0x00000000	0.0
53	0x00000000	0.0
54	0x00000000	0.0
55	0x00000000	0.0
56	0x00000000	0.0
57	0x00000000	0.0
58	0x00000000	0.0
59	0x00000000	0.0
60	0x00000000	0.0
61	0x00000000	0.0
62	0x00000000	0.0
63	0x00000000	0.0
64	0x00000000	0.0
65	0x00000000	0.0
66	0x00000000	0.0
67	0x00000000	0.0
68	0x00000000	0.0
69	0x00000000	0.0
70	0x00000000	0.0
71	0x00000000	0.0
72	0x00000000	0.0
73	0x00000000	0.0
74	0x00000000	0.0
75	0x00000000	0.0
76	0x00000000	0.0
77	0x00000000	0.0
78	0x00000000	0.0
79	0x00000000	0.0
80	0x00000000	0.0
81	0x00000000	0.0
82	0x00000000	0.0
83	0x00000000	0.0
84	0x00000000	0.0
85	0x00000000	0.0
86	0x00000000	0.0
87	0x00000000	0.0
88	0x00000000	0.0
89	0x00000000	0.0
90	0x00000000	0.0
91	0x00000000	0.0
92	0x00000000	0.0
93	0x00000000	0.0
94	0x00000000	0.0
95	0x00000000	0.0
96	0x00000000	0.0
97	0x00000000	0.0
98	0x00000000	0.0
99	0x00000000	0.0
100	0x00000000	0.0
101	0x00000000	0.0
102	0x00000000	0.0
103	0x00000000	0.0
104	0x00000000	0.0
105	0x00000000	0.0
106	0x00000000	0.0
107	0x00000000	0.0
108	0x00000000	0.0
109	0x00000000	0.0
110	0x00000000	0.0
111	0x00000000	0.0
112	0x00000000	0.0
113	0x00000000	0.0
114	0x00000000	0.0
115	0x00000000	0.0
116	0x00000000	0.0
117	0x00000000	0.0
118	0x00000000	0.0
119	0x00000000	0.0
120	0x00000000	0.0
121	0x00000000	0.0
122	0x00000000	0.0
123	0x00000000	0.0
124	0x00000000	0.0
125	0x00000000	0.0
126	0x00000000	0.0
127	0x00000000	0.0

network_body._body_endoder.seq_layers.2.weight f4 [128, 128]
0	0x3d9ea5e9	0.077464886
1	0x3cf9656c	0.03044387
2	0xbdbc0dd7	-0.09182327
3	0xbcb45737	-0.022014244
4	0x3dfb2d38	0.12264484
5	0xbdf77131	-0.120821364
6	0x3d100d11	0.03516871
7	0x3db1a7b4	0.08674565
8	0xbe091974	-0.13388616
9	0x3c1e6d20	0.009669572
10	0x3d555e61	0.05209196
11	0x3bfccdd3	0.007714966
12	0x3e1342eb	0.14380996
13	0xbe0866b2	-0.13320425
14	0x3ca15221	0.019692482
15	0x3c11fcea	0.008910397
16	0x3be8beb3	0.0071028112
17	0xbdc55c9a	-0.09636803
18	0xbcb2c5ce	-0.021822836
19	0xbd91f6e9	-0.071271725
20	0xbc6d0840	-0.014467299
21	0x3df12b5f	0.117758505
22	0x3e33e9e9	0.17569698
23	0xbdea46a6	-0.11439256
24	0x3ce0303d	0.027366752
25	0xbc569e9b	-0.013099338
26	0x3d7498a8	0.059715897
27	0x3d0d46d1	0.034491364
28	0x3d475f3d	0.04867481
29	0xbda94ac3	-0.08266213
30	0x3d8a2e75	0.06747142
31	0xbc84e4c6	-0.016222369
32	0xbd996997	-0.07490843
33	0xbd532731	-0.051551048
34	0x3cadebd4	0.021230616
35	0xbda0e9d0	-0.07857096
36	0xbdf8db8f	-0.121512525
37	0xbdfb4a3e	-0.1227002
38	0x3d8cd476	0.06876461
39	0xbd693dbf	-0.05694365
40	0x3d593b84	0.053035274
41	0xbd432044	-0.047638193
42	0xbd5cd138	-0.053910464
43	0x3d0277c1	0.031852487
44	0xbd0e0953	-0.03467686
45	0xbde9bf0c	-0.114133924
46	0x3c084009	0.008316048
47	0xbdeec766	-0.11659126
48	0x3d599a49	0.053125653
49	0x3ce3b4e5	0.027796218
50	0xbe4e6dad	-0.20159025
51	0x3d7ab557	0.061208095
52	0xbe4846a8	-0.19558203
53	0xbbbf3250	-0.005834855
54	0xbc901380	-0.017587423
55	0xbda7d378	-0.08194631
56	0x3d0a53e0	0.033771396
57	0x3de4927a	0.11160751
58	0xbd3374e7	-0.04381266
59	0x3c7bf172	0.015377389
60	0xbdd0b8ca	-0.10191496
61	0xbc8d5a58	-0.017254993
62	0xbb278435	-0.002556098
63	0xbdee0d3c	-0.11623618
64	0xbda34942	-0.07972957
65	0x3d0b1020	0.033950925
66	0x3dae456b	0.08509334
67	0x3e3a7bb2	0.18211249
68	0xbe08bb82	-0.13352779
69	0xbdbdb7a1	-0.0926354
70	0xbd943463	-0.072365545
71	0x3d2e6eee	0.04258626
72	0x3b3e47f0	0.0029034577
73	0x3dabaabc	0.083821744
74	0x3e28fed3	0.16503458
75	0x3db93c5a	0.09044714
76	0xbd4897d5	-0.048972923
77	0x3e0eaf0f	0.13933967
78	0xbc2419ae	-0.010015888
79	0x3dcad8f1	0.099046595
80	0xbde8c3f4	-0.113655
81	0xbddfdf02	-0.10931207
82	0xbca11443	-0.019662982
83	0x3d9c9a10	0.076465726
84	0xbda082a5	-0.078374185
85	0x3cadb4bf	0.02120435
86	0x3d251ce1	0.040310744
87	0xbe09519f	-0.13410042
88	0xbd9414ea	-0.072305515
89	0x3d515a8d	0.051111747
90	0x3da99dd6	0.08282058
91	0xbc51cbfb	-0.01280498
92	0x3dd15ef7	0.10223191
93	0x39c2e49d	0.00037172894
94	0xbe374dd2	-0.1790078
95	0xbd2866e7	-0.04111376
96	0xbe1b726d	-0.15180369
97	0x3e39954b	0.18123357
98	0x3d2a392a	0.041558422
99	0x3d0bd3c8	0.034137517
100	0x3d04216b	0.032258432
101	0xbb80d845	-0.0039320313
102	0xbc84a5c6	-0.016192328
103	0xbcf272f7	-0.029595835
104	0xbd8d80b7	-0.06909316
105	0x3e3f800d	0.18701191
106	0x3dd4aecf	0.103849046
107	0x3de3d8b8	0.1112532
108	0xbc93c2a1	-0.018037142
109	0x3c6c69ed	0.014429552
110	0x3d885ee1	0.06658722
111	0xbe1136d7	-0.14181076
112	0xbe08b172	-0.1334894
113	0xbd504315	-0.050845224
114	0xbda1dd0e	-0.07903491
115	0x3e0718a2	0.1319299
116	0x3ba5749a	0.0050493004
117	0x3bf1c2e5	0.0073779696
118	0xbe067b79	-0.13133039
119	0x3c48d475	0.012257685
120	0x3d010331	0.031497184
121	0x3e0c906d	0.13726969
122	0xbdcefb5c	-0.10106537
123	0xbd0c00dc	-0.034180507
124	0xbdda6ffb	-0.1066589
125	0x3d87a217	0.06622713
126	0xbcac016e	-0.020996775
127	0x3cb3a228	0.021927908
128	0xbce4ad60	-0.027914703
129	0xbcbc73fc	-0.023004524
130	0x3b573877	0.0032840052
131	0xbdaf5933	-0.08561935
132	0x3cb9733a	0.022637952
133	0xbd970e59	-0.073757835
134	0x3d981af3	0.07427015
135	0xbd02ff60	-0.031981826
136	0x3d069864	0.032860175
137	0xbdab0342	-0.08350231
138	0xbd66c22d	-0.056337524
139	0xbc921b66	-0.01783533
140	0xbdf19e07	-0.117977194
141	0x3c529577	0.012853018
142	0x3e3614ad	0.17781325
143	0xbabb8815	-0.0014307523
144	0xbd1b4a07	-0.037912395
145	0xbcc7e187	-0.024399532
146	0xbdca140b	-0.09867104
147	0xbc6947d6	-0.014238318
148	0xbdc67bda	-0.096915916
149	0x3df659bb	0.120288335
150	0x3d907e4a	0.07055338
151	0xbd2465ff	-0.040136334
152	0x3ce1cf7e	0.02756476
153	0x3deae3a3	0.114691995
154	0xbd86509c	-0.06558344
155	0xbac9bb05	-0.0015390819
156	0xbd79278e	-0.060828738
157	0x3dc4ffb3	0.09619083
158	0xbc5c12cf	-0.013432219
159	0x3b4a8936	0.0030904538
160	0x3da828ac	0.082108825
161	0xbc0ca227	-0.008583582
162	0x3e030794	0.1279586
163	0xbd706231	-0.058687393
164	0xbd76e41f	-0.060276147
165	0xbdc5c2f0	-0.09656322
166	0xbe0fa7ac	-0.14028805
167	0xbd85eab4	-0.06538907
168	0x3cb4d355	0.022073427
169	0xbe33d5e7	-0.17562066
170	0xbe115c6d	-0.14195414
171	0xbcdd50de	-0.0270161
172	0xbdae9736	-0.08524935
173	0xbdecc1b1	-0.11560381
174	0xbd63ffab	-0.055663746
175	0xbcf448d2	-0.02981988
176	0xbce94771	-0.028476449
177	0x3d8f9350	0.070105195
178	0xbd8892b0	-0.066686034
179	0x3d8ec93c	0.06971976
180	0x3e837b9e	0.2568025
181	0x3d6c0f3d	0.05763172
182	0x3dc48e01	0.095973976
183	0xbe82ff4e	-0.25585407
184	0x3d9a8640	0.075451374
185	0xbc7fea99	-0.015619897
186	0x3e34b06c	0.17645425
187	0x3da7b98b	0.081896864
188	0xbbc9bc36	-0.0061564697
189	0xbd7d7332	-0.061877437
190	0xbd831ce2	-0.06401993
191	0xbce8b6a5	-0.028407404
192	0xbcf6dd01	-0.03013468
193	0xbe43938e	-0.19099256
194	0x3d618ea5	0.055067677
195	0x3e2be2bb	0.1678571
196	0x3d8399d3	0.06425824
197	0xbd8bfa4d	-0.068348505
198	0x3c93387f	0.017971275
199	0x3d026f3c	0.031844363
200	0x3d0e66a6	0.034765862
201	0xbd4b6e8c	-0.049665973
202	0x3d1e1b68	0.038600355
203	0xbd0fe507	-0.035130527
204	0x3e029ddd	0.12755533
205	0x3da10630	0.07862508
206	0x3d67d558	0.056599945
207	0xbe14b39b	-0.14521639
208	0x3ac835f3	0.0015274867
209	0x3d339d08	0.04385093
210	0x3cf9aa77	0.030476792
211	0xbd4213b4	-0.04738207
212	0x3be3f9b0	0.0069572553
213	0xbe093126	-0.13397655
214	0x3dfa95c8	0.122356
215	0xbe0034bd	-0.12520118
216	0xbe16c6d6	-0.14724287
217	0xbd5a83de	-0.053348415
218	0xbd138aeb	-0.036021154
219	0x3ccba4f4	0.02485893
220	0x3d8b4551	0.068003304
221	0x3ca6b515	0.020350019
222	0xbcb3444a	-0.021883149
223	0x3cc64cfe	0.024206635
224	0xbe7174d4	-0.23579723
225	0xbdcd62c6	-0.10028605
226	0xbdbeae93	-0.09310641
227	0xbda3b0bb	-0.07992693
228	0x3df5eeac	0.12008414
229	0xbcfb3491	-0.030664714
230	0x3cf6e8dd	0.030140335
231	0x3e132561	0.14369728
232	0x3d97119f	0.07376408
233	0x3daa093c	0.083025426
234	0x3d052283	0.032503616
235	0xbd7c9f96	-0.06167563
236	0x3d348cc7	0.04407957
237	0xbc02f0de	-0.0079919975
238	0xbbc2ab85	-0.005940857
239	0xbd470cc4	-0.04859616
240	0x3dff142b	0.124550186
241	0x3e5427be	0.20718285
242	0x3d0b0b0b	0.03394608
243	0x3dc5bf40	0.09655619
244	0x3e071e32	0.13195112
245	0xbc1f17f9	-0.009710305
246	0xbd843b0f	-0.06456577
247	0xbdeb98b3	-0.115037344
248	0xbe0dcb70	-0.13847136
249	0xbdd1a2f3	-0.10236158
250	0x3b08cb5c	0.0020873165
251	0x3d467b58	0.048457474
252	0xbd9bd970	-0.07609832
253	0x3e32e448	0.17469895
254	0x3e3749ba	0.17899218
255	0xbe60d1bf	-0.21955012
