results/ppo/MoveToGoal/MoveToGoal-1596.onnx (onnx, 135385 bytes, 9 tensors)

action_model._continuous_distribution.log_sigma f4 [1, 2]
00000000: 0000 0000 0000 0000
0.0 0.0

action_model._continuous_distribution.mu.bias f4 [2]
00000000: 0000 0000 0000 0000
0.0 0.0

action_model._continuous_distribution.mu.weight f4 [2, 128]
00000000: 1f92 98bb e698 913b 5a65 09bc f9a5 223c
00000010: 5de7 d03c 5ba4 e8bb bbda 2abc b88c 65bc
00000020: 5284 a23c 2728 8a3d 235a 4bbc f3a6 053c
00000030: 8073 5dbc c2f7 ec3b 4b53 923c 9fd3 33bd
00000040: e7b6 0c3d e3ae 5abd ebf7 31bc 3671 0e3d
00000050: b164 9a39 09f8 243c 2f8e 35bb 5d90 6ebc
00000060: 4822 a43c 0c13 853c 1858 a73c 9396 dbbc
00000070: f770 6bbc 9e90 323b 5700 d63c 379a 87bc
00000080: 8036 7d3c 6945 213a 1f23 41bc bf9f c63c
00000090: 3ff1 a8bc 532f e53b 9a75 b03b d967 2cbc
000000a0: c2be daba fdd4 c83c b86d b03c 9b73 af3c
000000b0: 1b59 3dbc 63e8 2c3c ed06 683c 0770 aebb
000000c0: 9bd7 273c 4fb6 efbb 41a5 413c 8701 e43c
000000d0: afaf 363a 2287 d3bc 6957 8b3c 0fff 8c3b
000000e0: bb10 8cbc f881 003c 2bef 10bc f116 49ba
000000f0: 4f43 633c 03d6 ab3b cc13 26bb 83d4 93bb
00000100: 6f9f 6e3b f72e 9cbc 10c9 b3bb 1d1d 333b
00000110: f5f3 f9bc 46ef 33bc 5623 9c3c 0f2b 0fbc
00000120: 93d1 60bc b02f b93c 12a4 d7bb 8d0c d9bb
00000130: e24a 78bb d341 973b 2767 853c 37e9 8fbc
00000140: 3b36 19bd cb27 b83c a4c5 b9b9 5f9f 56bd
00000150: b726 643c d580 c23c 6afd 8d3c 2930 a43c
00000160: 1a55 063b aae9 1c3c 7f2a 463b 5525 613c
00000170: 063e 21bc 20c8 6a3c f09f 7c3b bf6c 68bc
00000180: 2740 b83c 476b 25bc 3359 3bbc f609 803c
00000190: 0a62 3dbc ae75 033c 89a8 463c 6329 40bc
000001a0: a135 a23b a19e 8ebb fad3 013b a24d 51bb
000001b0: ea8d 513c f0b3 d73b 38fa 82bc d76e d93c
000001c0: 89fc 90bc 4872 f23b 8ed0 0abb 4dde 713b
000001d0: b8df 3f3c 077a db3c 60cb b0bc a2ea a43c
000001e0: ab85 eabb eac2 f8bc f83f 013b c7e3 023b
000001f0: 2d4f 8abc f3e3 803b cd87 ef3b 5f19 9bb8
00000200: 2b8f 213c 72a7 15bb 503d da3c 077c 2dbb
00000210: 71c8 92bc 6e44 bebc 3002 ea3c b07d d03c
00000220: db3c c43b 31c8 0e3b 89a8 9bbc e2fe 513c
00000230: 6303 b1bc 13c0 0c3b df59 3abb 885b f03c
00000240: b09a 633c 50f8 b13c 9853 7bbb b234 9fbc
00000250: f2c6 4d3c cbb8 943c c8c9 ca3c ac07 1b3d
00000260: 1266 b73c 5dcb 953b 0bcc 49ba da95 763c
00000270: 786f 7ebc 4763 393d 5290 903c 68b5 8ebc
00000280: 9ec4 883c 1b1f a2bc c821 c93b d84a 373c
00000290: 0300 343d b3ba 9f3b c6ba 85bc ab7a 473c
000002a0: 6a81 6dbc beb4 403c 8758 7cbc 7007 5b3c
000002b0: a653 c5bc 9e60 963c 2137 403c 2330 51b9
000002c0: aa99 d33a ef52 b4bc effd 08bb 02ce e03b
000002d0: fbec 593c 8f6e b0bc 0ba7 473c 3363 95bb
000002e0: b8e0 943b 47e6 55bc bc95 0b3c d80d d43b
000002f0: 087c 83bc 3f99 dc3b 3a8c cfbb 75b8 2abb
00000300: d79e 83bc b3c6 b53c 8324 c43c b314 01bc
00000310: 1d36 71bb 68e7 51bc e5d5 033b 5b2f 303a
00000320: ff30 273d 4040 003d d6b7 bfbb 73f0 263c
00000330: 1d9f 9fbc 4071 1ebc 3c9b 16bc 2791 4dba
00000340: 4590 04bc fd9c 6e3b 4ec1 89bc 5390 833c
00000350: da6f 42bc d4ee cabb bf89 f1bb 5320 54bc
00000360: e23a 8abc 0d9a da3b 2d96 793c 075f 67bc
00000370: 63c1 a13c 421f eabb aab1 cd3b 2d1e a6bc
00000380: b82c 53bc 57bc d43c 7049 0fbd 7841 3b3c
00000390: 1766 bbbb ef2a 513c a5e6 783c 18ae 3abb
000003a0: b43b 813b ca1e 4f3c 07fe 843c ee23 a6bc
000003b0: 27c1 1a3b 33ab 3cbc 7f2c 6ebc 8dde 993c
000003c0: d23b 3639 1267 313d 3ce4 bb3b 5713 f53c
000003d0: 4f3f 9e3c d753 3abc 8fd3 4fbd 9ee2 c3bc
000003e0: fa83 683c 7641 af3c 679a c23c b3b1 883c
000003f0: 964b bb3c 0691 273b f891 25bc 4856 9e3c
-0.004656091 0.0044432757 -0.0083859805 0.009927266 0.025500948 -0.007099671 -0.010428126 -0.014010601
0.019838486 0.0674594 -0.012411627 0.00815748 -0.013516307 0.0072316835 0.017861983 -0.04390299
0.034354117 -0.05338944 -0.010862331 0.034775935 0.0002944819 0.010068902 -0.0027703156 -0.014560786
0.020035878 0.016244434 0.020427749 -0.026805198 -0.014370195 0.0027246843 0.026123209 -0.016553028
0.015454888 0.00061520055 -0.011788159 0.024246095 -0.020622848 0.006994167 0.005385113 -0.010522806
-0.001668893 0.024515623 0.021536693 0.02141743 -0.011556889 0.010553452 0.0141618075 -0.0053234133
0.010244275 -0.007315434 0.011819185 0.02783276 0.0006968928 -0.025821272 0.017009454 0.0043028663
-0.017097821 0.007843487 -0.008846085 -0.000767096 0.013871028 0.005244018 -0.002534139 -0.0045114174
0.0036410948 -0.019065363 -0.005486615 0.0027330585 -0.030511836 -0.01098234 0.019059818 -0.008738293
-0.013721841 0.022605747 -0.006580838 -0.0066238106 -0.003788643 0.004616001 0.016284538 -0.01756726
-0.037405234 0.022479912 -0.00035433203 -0.052398082 0.013925246 0.023743073 0.017332751 0.020042496
0.0020497502 0.009577194 0.0030237732 0.013741811 -0.009841448 0.01432994 0.0038547479 -0.014186083
0.022491528 -0.010096378 -0.011434841 0.01562975 -0.011559019 0.0080236625 0.012125143 -0.011728617
0.0049502407 -0.004352406 0.0019810186 -0.0031937142 0.012790183 0.0065827295 -0.015988454 0.02654211
-0.017698543 0.0073988773 -0.0021181437 0.0036906183 0.011711054 0.026791586 -0.021581352 0.020131413
-0.0071570477 -0.03036638 0.0019721966 0.0019972192 -0.016883457 0.0039334237 0.00730989 -7.395702e-05
0.009860794 -0.00228354 0.026640564 -0.002647163 -0.017917844 -0.02322599 0.028565496 0.025450557
0.0059887 0.0021786804 -0.019001262 0.012817116 -0.02160806 0.002147679 -0.0028434915 0.02934052
0.013891861 0.02172485 -0.0038349386 -0.019434307 0.012559639 0.018154522 0.02475442 0.037849113
0.022387538 0.004571362 -0.0007697946 0.015050376 -0.015529506 0.045260694 0.017646942 -0.017420486
0.016695317 -0.019790223 0.0061380602 0.011187278 0.043945324 0.004874551 -0.016324412 0.012175242
-0.014496187 0.011761842 -0.015401966 0.013368472 -0.024087738 0.018356618 0.011731894 -0.00019949726
0.0016143818 -0.022012202 -0.002090331 0.0068604955 0.013301129 -0.021537093 0.012185822 -0.0045589446
0.00454339 -0.013055391 0.008519586 0.006471377 -0.016050354 0.0067321355 -0.006333855 -0.0026049886
-0.016066952 0.022189474 0.023943191 -0.00787847 -0.0036805936 -0.012811519 0.0020116505 0.00067209237
0.04081821 0.031311274 -0.0058507724 0.0101891635 -0.01948505 -0.009670556 -0.009192284 -0.0007841759
-0.008091037 0.003640949 -0.016815808 0.01606003 -0.011867488 -0.0061930213 -0.007371157 -0.01294716
-0.01687378 0.0066711963 0.015233559 -0.014121777 0.019745534 -0.0071448395 0.0062772827 -0.02027806
-0.01288908 0.025968714 -0.034982145 0.011429183 -0.005718957 0.012766584 0.015191709 -0.0028485116
0.0039438847 0.012641618 0.01623441 -0.020280804 0.0023613663 -0.011515426 -0.014536976 0.018782878
0.00017379157 0.043311186 0.0057339948 0.029916449 0.019317297 -0.011372528 -0.050738867 -0.02391177
0.014191622 0.021393519 0.023755265 0.016686296 0.02286319 0.0025568618 -0.010105602 0.019328251

action_model._discrete_distribution.branches.0.bias f4 [2]
00000000: 0000 0000 0000 0000
0.0 0.0

action_model._discrete_distribution.branches.0.weight f4 [2, 128]
00000000: 9004 51bc 53d4 f8bb c09e 7abb ca90 743b
00000010: cc92 b7bc 5563 523c c871 b03b 1d16 793c
00000020: 1336 593c f67b 143c bb03 873b 0a03 73bc
00000030: 2180 90bb 3f04 333b ef12 053c cbd3 5f3b
00000040: 4a77 853c f575 f03b 1ac8 803c 0fb7 0a3c
00000050: 25db c1ba 8f71 7b3c c821 d5bb c40a 23bc
00000060: 65d0 babc 4393 d3b8 4f19 503c db70 2c3b
00000070: 775d 73bc 3be6 a83c 6f88 78bc 7bcb 4cbc
00000080: 7d4b abbb 67b1 20bc 6b10 153b 68ad 763c
00000090: 4802 1f3c 49e8 45bb 8aa2 25bc 2be4 033c
000000a0: 61c6 30bb 78d3 5e3c e920 0a3b 80f9 9c3b
000000b0: 720b 143c d206 64bc 83d8 ec3b 72cd e43b
000000c0: 57e6 133c d057 213b 1d2c 833b 7f4e b03c
000000d0: aa86 213c c536 31bc 798c 00ba f85f 0f3a
000000e0: 7750 4e3c 2a2b 633c 2ff2 3d3c 1d41 6a3c
000000f0: 587f da3b 5de2 03ba ebef b438 5a69 11bc
00000100: 4c10 0e3b f368 5dbc 67c9 eebb d551 3cba
00000110: c080 a53c c4cf 43bc 70bd 95bb 358a 213c
00000120: 1d0b b1ba 7db1 f3bb 3d4d 1f3c 9764 dbbb
00000130: ec48 2ebc da63 2c3b 4453 b03b f70a 5e3c
00000140: e367 083b 279b da3b ca31 d3b9 5725 bcbb
00000150: a1c7 4cb9 75d0 90bb a00f 023b 9807 e0ba
00000160: f3ec 133a fb9d a93c 41c4 40bc 970e ce39
00000170: fb4c a43b 2a4a c5bb 7866 aabc b7d2 193c
00000180: af4f 233c db14 1e3b 5a48 46bb e33a df3a
00000190: 9cd1 a43b 66dd 26bc 936c fe3b 6ba0 a7ba
000001a0: 2bcc 1bbc c7be d23b 8c62 a1bc 9f1d 05bc
000001b0: 45fa 56ba 7814 a03b 0c52 8e39 b38a 1ab8
000001c0: 09d4 343a dfd4 063b 33e2 1b3c 082d 29bc
000001d0: b809 19bc 2b65 183b 084a d33c ffc1 f3bb
000001e0: 6d47 d23b 4ae6 193c 2c64 853b fdfa fdbb
000001f0: 8a3d 07bb 1db8 40bc 3a13 e2bb 822c e73b
00000200: ed3f b6ba cff7 ce3b 3972 913b 1c79 3abb
00000210: 7b8f a33b fd8b f63a a486 18bb 5fe9 333b
00000220: ba73 d53b c80d 5fba f7be fcbb fbe9 873b
00000230: 9078 3dbb 9f58 303b b2b7 9439 339a bfbb
00000240: dbf6 dbb9 5af5 0ebc 7bc8 fc3b 7b1e c8bb
00000250: 6ab0 c8b9 8084 183c f6e5 ab39 2e98 453c
00000260: 3d45 923b 63fd 2abc 1338 21ba a88f 743b
00000270: aec9 483b 1b7d 0c3b d488 89bb b392 1e3c
00000280: 3b3a 2d3b addb 16bc 22b4 13bc 4ba1 363c
00000290: aaeb 503c 5d84 623b 0f3b d339 7a1a e33b
000002a0: 6825 6f3c 52c9 653c 3333 11ba 2b3d 993c
000002b0: 1d8a 04bc 23d8 673c 2170 40bc ee4b 9b3b
000002c0: 220a 6a3a 4597 5fbc b749 33bc 6372 aabb
000002d0: c23b 53bc 4ad7 063b bf3c ff3a 0bc2 88ba
000002e0: 9dbd 2cbb 82d1 6dbb 8cbb b3bb 3611 063a
000002f0: 501b 003c 1970 48bc 929f 283c 0a56 90bb
00000300: 17b8 d0bb 70f4 9e3b e52d e6bc 2cb7 0ebc
00000310: c7f9 5dbc 1c2b 9ebb 5dae 45bc c273 fc3a
00000320: 9f31 063b a5f7 ff3b 55e4 d83c f074 153b
00000330: 34ee 49bb bf7c 0eb9 15b7 593b 5fd2 1fbb
00000340: dd0b 153c 3693 bdbb bf78 3e3c ebe9 6d3b
00000350: a344 673c a2ca 753c aa4e 54b8 f351 373c
00000360: bd1f 943c 0bdc e13b 1279 a2bb 8fe1 d13b
00000370: d3b4 29bc 0d3c e2bb 53a3 993b 4f70 9d3b
00000380: 3d0d 213c 3b64 0f3b affd 12bb c59d 4f3c
00000390: 24c0 063b 8312 ee3a e026 a43b 9105 413c
000003a0: 25e6 c53b ba70 f3ba 3d03 0b3c b3d3 0ebc
000003b0: ff5d 1d3c 67f5 7cba 7823 52bb a063 9b3b
000003c0: b578 32bb b737 31bb 2836 be38 404c a7bc
000003d0: 4417 ae3c 5317 e83b fb00 f2bc a5f0 50bb
000003e0: 0f38 0fbc 6506 e2bb 2315 47bc ebb6 2f3b
000003f0: 2c7b 2cba 7d58 333c b6fb ae3b 3f37 663c
-0.012757435 -0.0075936704 -0.0038241595 0.0037317746 -0.022408865 0.012841065 0.0053846575 0.015203026
0.013257521 0.009062758 0.0041203178 -0.014832268 -0.0044098054 0.0027315763 0.00812219 0.0034153338
0.016292233 0.0073382803 0.015720416 0.008466496 -0.0014790042 0.015346899 -0.006504271 -0.009951297
-0.022804448 -0.00010088694 0.012701347 0.0026312384 -0.014853827 0.020617595 -0.015169247 -0.012499685
-0.0052275048 -0.009807921 0.0022745382 0.015055992 0.009705134 -0.0030198267 -0.010109553 0.008050005
-0.0026973712 0.013600223 0.0021076745 0.004790485 0.009035932 -0.013917642 0.0072279586 0.006982499
0.009027085 0.002461899 0.0040030614 0.021521805 0.009858767 -0.010816281 -0.00049037446 0.00054693175
0.0125924265 0.013865272 0.011593386 0.014297751 0.0066680126 -0.0005030984 8.627757e-05 -0.008875215
0.0021677194 -0.013513791 -0.0072871926 -0.0007183825 0.020202994 -0.011951391 -0.004569702 0.009859611
-0.001350734 -0.0074369297 0.009723005 -0.006695341 -0.010637503 0.0026304633 0.00538102 0.013552419
0.0020813874 0.0066713276 -0.00040282152 -0.005741756 -0.00019529324 -0.0044193813 0.001984574 -0.0017092107
0.0005642913 0.020705214 -0.011765541 0.00039302252 0.0050140596 -0.006020804 -0.020800814 0.009388617
0.0099677285 0.0024121318 -0.0030255527 0.0017031099 0.00502987 -0.010184621 0.007764408 -0.0012788897
-0.009509127 0.006431434 -0.019700311 -0.008124738 -0.0008200745 0.0048852526 0.0002714548 -3.6845635e-05
0.0006898051 0.0020573658 0.009514379 -0.010325678 -0.009340696 0.002325366 0.025792137 -0.0074388976
0.006417206 0.009393284 0.0040707793 -0.0077508674 -0.0020636045 -0.011762646 -0.0068992646 0.0070548663
-0.0013904549 0.006316162 0.004438665 -0.0028453534 0.0049914694 0.001881003 -0.0023273611 0.0027452332
0.00651404 -0.00085088285 -0.0077131945 0.0041477657 -0.0028910972 0.002690829 0.00028365623 -0.0058472394
-0.00041954857 -0.008725489 0.007714329 -0.006107149 -0.0003827841 0.009308934 0.00032786996 0.012060208
0.0044638203 -0.010436389 -0.00061500183 0.003731707 0.0030637789 0.0021436873 -0.0041972194 0.0096785305
0.0026432413 -0.009207648 -0.009015115 0.011146854 0.012751499 0.0034563758 0.00040289058 0.0069306465
0.014596321 0.014025049 -0.00055389403 0.018705925 -0.008089569 0.014150652 -0.011745484 0.004739276
0.00089279015 -0.013646905 -0.010942868 -0.0052016242 -0.012892665 0.00205751 0.001947306 -0.0010433806
-0.0026358136 -0.0036288206 -0.005485004 0.0005114259 0.007819012 -0.012233757 0.010291951 -0.004404788
-0.0063696015 0.0048509166 -0.028098056 -0.008710664 -0.013548321 -0.0048269164 -0.012065497 0.0019260573
0.0020476354 0.007811504 0.026476065 0.0022805296 -0.0030812146 -0.00013588647 0.0033220698 -0.0024386866
0.009097067 -0.005785371 0.011625468 0.0036302756 0.014115485 0.015001925 -5.0618e-05 0.011188972
0.01808154 0.0068926862 -0.0049582804 0.0064050625 -0.010358053 -0.0069041313 0.004688659 0.004804648
0.009829816 0.002187981 -0.002242904 0.0126718925 0.0020561302 0.0018163476 0.005009517 0.011781112
0.0060393983 -0.0018573024 0.008484659 -0.008717465 0.00960493 -0.0009649605 -0.0032064598 0.004742101
-0.0027232592 -0.0027041265 9.0699934e-05 -0.020422101 0.021251328 0.0070828586 -0.029541483 -0.0031881717
-0.008741393 -0.006897735 -0.0121510355 0.0026811908 -0.00065796333 0.01094639 0.005340065 0.014051258

network_body._body_endoder.seq_layers.0.bias f4 [128]
00000000: 0000 0000 0000 0000 0000 0000 0000 0000
00000010: 0000 0000 0000 0000 0000 0000 0000 0000
00000020: 0000 0000 0000 0000 0000 0000 0000 0000
00000030: 0000 0000 0000 0000 0000 0000 0000 0000
00000040: 0000 0000 0000 0000 0000 0000 0000 0000
00000050: 0000 0000 0000 0000 0000 0000 0000 0000
00000060: 0000 0000 0000 0000 0000 0000 0000 0000
00000070: 0000 0000 0000 0000 0000 0000 0000 0000
00000080: 0000 0000 0000 0000 0000 0000 0000 0000
00000090: 0000 0000 0000 0000 0000 0000 0000 0000
000000a0: 0000 0000 0000 0000 0000 0000 0000 0000
000000b0: 0000 0000 0000 0000 0000 0000 0000 0000
000000c0: 0000 0000 0000 0000 0000 0000 0000 0000
000000d0: 0000 0000 0000 0000 0000 0000 0000 0000
000000e0: 0000 0000 0000 0000 0000 0000 0000 0000
000000f0: 0000 0000 0000 0000 0000 0000 0000 0000
00000100: 0000 0000 0000 0000 0000 0000 0000 0000
00000110: 0000 0000 0000 0000 0000 0000 0000 0000
00000120: 0000 0000 0000 0000 0000 0000 0000 0000
00000130: 0000 0000 0000 0000 0000 0000 0000 0000
00000140: 0000 0000 0000 0000 0000 0000 0000 0000
00000150: 0000 0000 0000 0000 0000 0000 0000 0000
00000160: 0000 0000 0000 0000 0000 0000 0000 0000
00000170: 0000 0000 0000 0000 0000 0000 0000 0000
00000180: 0000 0000 0000 0000 0000 0000 0000 0000
00000190: 0000 0000 0000 0000 0000 0000 0000 0000
000001a0: 0000 0000 0000 0000 0000 0000 0000 0000
000001b0: 0000 0000 0000 0000 0000 0000 0000 0000
000001c0: 0000 0000 0000 0000 0000 0000 0000 0000
000001d0: 0000 0000 0000 0000 0000 0000 0000 0000
000001e0: 0000 0000 0000 0000 0000 0000 0000 0000
000001f0: 0000 0000 0000 0000 0000 0000 0000 0000
0.0 0.0 0.0 0.0 0.0 0.0 0.0 0.0
0.0 0.0 0.0 0.0 0.0 0.0 0.0 0.0
0.0 0.0 0.0 0.0 0.0 0.0 0.0 0.0
0.0 0.0 0.0 0.0 0.0 0.0 0.0 0.0
0.0 0.0 0.0 0.0 0.0 0.0 0.0 0.0
0.0 0.0 0.0 0.0 0.0 0.0 0.0 0.0
0.0 0.0 0.0 0.0 0.0 0.0 0.0 0.0
0.0 0.0 0.0 0.0 0.0 0.0 0.0 0.0
0.0 0.0 0.0 0.0 0.0 0.0 0.0 0.0
0.0 0.0 0.0 0.0 0.0 0.0 0.0 0.0
0.0 0.0 0.0 0.0 0.0 0.0 0.0 0.0
0.0 0.0 0.0 0.0 0.0 0.0 0.0 0.0
0.0 0.0 0.0 0.0 0.0 0.0 0.0 0.0
0.0 0.0 0.0 0.0 0.0 0.0 0.0 0.0
0.0 0.0 0.0 0.0 0.0 0.0 0.0 0.0
0.0 0.0 0.0 0.0 0.0 0.0 0.0 0.0

network_body._body_endoder.seq_layers.0.weight f4 [128, 124]
00000000: 7616 c83d 1499 3cbd 5142 08be 454d dbbd
00000010: eaaf 9fbd 2607 1c3d 8458 b7bd f7d8 e8bd
00000020: 351d c13d 9050 5abd 78d0 7c3d 17bd 9cbd
00000030: 68d8 63be c9d6 5bbd 6361 ec3d e779 d03d
00000040: a510 1b3e 9cd8 0f3e dac5 13bd 6c7d f53b
00000050: 1972 44be 67e1 0e3e ae25 7f3d bc2e 74bc
00000060: beeb 90bd 0cf7 1e3e 387a 263e 0699 a63d
00000070: 4776 213c c956 843d 6cb7 41bd 7161 e93d
00000080: 8145 ef3d 8073 733c 8bb1 37bc 6568 ec3d
00000090: 26cb a23d ae64 0cbd 1424 833d 33c9 1cbd
000000a0: b7d9 e03d fc7a 103a d8e6 65bd 6e09 1a3e
000000b0: 97d0 873d a054 afbc 4bd6 e8bc 14a0 dabd
000000c0: a377 85bd f16f c63b ea18 183e db78 173e
000000d0: 5b59 cebd 12e2 07bd 71f1 af3d 8080 fa3b
000000e0: eebd cdbd ae46 133d 0582 0f3d 80f8 023e
000000f0: 9b4b 30bd 989f 2e3c c53a 9ebd d5a1 073d
00000100: 0c40 c13d fa09 0cbe 0e08 8ebd 6dcc ac3d
00000110: 4b43 dcbd 9fe8 91bd cab0 05bd 4983 e1ba
00000120: bbc4 a73d 4f54 a7bd a0d2 ac3b 135a 533d
00000130: 1b64 2dbe b0d4 41bd 485f 02be db74 1bbd
00000140: 1032 823d 9905 b73d 19a0 93bc 29b7 b63d
00000150: 0a5f de3c 98b0 003d 0de7 863d 5cb6 0cbd
00000160: 4113 a7bd ae6d babd 18b7 0a3d de96 1dbe
00000170: 6b4f 8a3c 0f9a 063d c4a3 b3bd 18fc 6fb9
00000180: 8a0c a8bd e455 f23d ad90 abbd f9bf b53d
00000190: df4c 1f3d ac3b 253c a4d8 dabd 9180 fabd
000001a0: cb1a 843b 2949 103e 9d08 e1bc f5c3 183e
000001b0: 9161 993d f1e6 22bc a396 8f3d 7114 a63c
000001c0: f045 64bd 0c47 28bb c875 b33d 65e2 26bc
000001d0: bd0a 963d 2470 043e 9c01 adbd 5e2d 063d
000001e0: e50f 05be f45e c93d 65d0 80bd 6e45 0abe
000001f0: fa73 14be 882e 20bd 9fe4 86bc ebf4 f5bd
00000200: 9af4 36be 9cff 933d 5b5f ce3c 2f33 a93d
00000210: 1b6b dc3c 13a5 6a3d db03 da3d 5f9a 49bd
00000220: 0c1b ea3d f0d1 3d3d 165c 103c 0a8b 9bbd
00000230: 639e 5bbd 853b 923d 9df1 043d 546a d63c
00000240: 9145 343d d4d1 babd 06e9 f33c b1af fa3b
00000250: 78f3 54be e1e9 67bc f8b7 8ebc cfc2 283d
00000260: f1cb 2bbe 3619 f23d 6393 6c3c 80f1 45bd
00000270: 805a c43d f90a c0bd 3ccc 90bd d238 3abe
00000280: b889 8e3c 42e1 b23d f64f db3d a384 523d
00000290: a85b f03c f0af 2ebd 75ca 5d3d fc4d ffbc
000002a0: 5681 923d e193 eebc 53c3 223e 5f36 d63d
000002b0: 86c5 fb3b 48e4 1a3d eec5 823d c2c9 a83c
000002c0: bf1c 3d3d 166f 2abd bb79 babd 5e6f 0f3e
000002d0: 0e2d d4bd a644 ff3b 8f53 05be 8126 093e
000002e0: 3145 cbbd d694 933c 829e 1fbe 33e0 753d
000002f0: 490a eb3c a96e 67bd c305 52bb a455 463d
00000300: 704a 54bd ccdd e1bd 2fe0 3ebd fee9 c03d
00000310: 4690 be3d 8864 023d 6852 473d ea62 50bd
00000320: 079f b43d 01cf 153e 4717 6ebd 0cdb e8bd
00000330: e51c a7bc a25f b23d e741 c4bd 9c99 823d
00000340: f38d 573d f72f 69bd 58bd 0f39 f84b 6dbd
00000350: 9ced 19bc 211c 0c3e 2ba2 09bd 694a 0a3e
00000360: 7e75 053d 3120 cd3d bb4a 13bd abe1 41be
00000370: bedc f8bd 8813 29bd 366c 96bd 3400 25be
00000380: ef6f a03d 9759 9dbc 5038 d0bd bed0 f63d
00000390: d31c 2e3c 7544 2ebe 27ff e53d 3837 aa3d
000003a0: ba27 77bd 2b8e 213e a7aa 993b f736 06be
000003b0: 1964 6dbe 7ca4 803c c9cc 323d e69f b43d
000003c0: ec07 bd3d c35c febd 8e67 9fbd 0e41 4d3d
000003d0: c0a3 e0bb 3d81 be3d 08d0 0cbd b2df 273e
000003e0: 68bd 0d3c 8810 01be 0f48 6a3d d125 3bbc
000003f0: eab6 a0bc 2be4 37be f592 0e3c 2b24 03bd
0.09769909 -0.046044424 -0.13306548 -0.10708097 -0.07797225 0.038092755 -0.0895243 -0.11369508
0.09429399 -0.053299487 0.06172225 -0.076532535 -0.22250521 -0.053671632 0.115420125 0.10179501
0.15143068 0.14047474 -0.036077358 0.007491758 -0.1918415 0.13953172 0.062291794 -0.0149037205
-0.07076214 0.15523928 0.1625756 0.08134656 0.00985486 0.064618655 -0.047294065 0.113955386
0.11683179 0.01485908 -0.011211763 0.11543349 0.07948904 -0.034275703 0.06403366 -0.038277816
0.10979026 0.000551149 -0.056128353 0.1504266 0.06631582 -0.021402657 -0.028422495 -0.10675064
-0.065169595 0.006055825 0.14853254 0.14792196 -0.10075637 -0.03317458 0.08590973 0.007644713
-0.10045992 0.035956077 0.035036106 0.12790108 -0.043040853 0.010658167 -0.07726053 0.03311332
0.09436044 -0.13675681 -0.0693513 0.084374286 -0.107550226 -0.07124447 -0.032639302 -0.0017205264
0.0819182 -0.081703775 0.005274132 0.051599573 -0.16932718 -0.047321975 -0.1273166 -0.03795324
0.06357205 0.089366145 -0.018020676 0.08921654 0.027144928 0.031418413 0.06587038 -0.0343536
-0.08157969 -0.09102951 0.033866018 -0.15389583 0.016883573 0.032861765 -0.0877147 -0.00022886728
-0.08205517 0.118327886 -0.08377204 0.088745065 0.03889167 0.010085028 -0.10685852 -0.12231553
0.0040315143 0.14090408 -0.027469927 0.14918502 0.074893124 -0.009942756 0.070111535 0.02027342
-0.05573076 -0.0025677113 0.08762699 -0.010185813 0.07326267 0.12933403 -0.084475726 0.03275811
-0.12994345 0.09832564 -0.06289748 -0.13503048 -0.14497367 -0.039106876 -0.016466437 -0.12009605
-0.17866746 0.07226488 0.025191953 0.082617156 0.02690654 0.057286333 0.106452666 -0.049219485
0.1143094 0.04634279 0.0088110175 -0.07594879 -0.053617846 0.07140259 0.032456983 0.026173748
0.044011656 -0.09122053 0.0297742 0.0076503386 -0.20796001 -0.014154882 -0.017421708 0.04120141
-0.16777016 0.11821215 0.014439437 -0.048326015 0.09587574 -0.09377093 -0.070702046 -0.18185738
0.017399654 0.08734371 0.10708611 0.051396023 0.02934058 -0.042648256 0.054148156 -0.031165116
0.07153575 -0.029123249 0.15894823 0.10459589 0.0076834587 0.037815362 0.06385408 0.020604018
0.046169993 -0.041609846 -0.091052495 0.14007327 -0.10360156 0.007790166 -0.13020156 0.13393594
-0.099253066 0.018015306 -0.1558781 0.060028266 0.028691428 -0.056502018 -0.0032046891 0.048421517
-0.0518288 -0.110286325 -0.046600517 0.094196305 0.09304862 0.031834155 0.048662573 -0.05087558
0.088193946 0.14629747 -0.058127668 -0.11369905 -0.02039952 0.08709647 -0.095828824 0.06376955
0.052625608 -0.05693051 0.00013708079 -0.057933778 -0.009395029 0.13682605 -0.03360192 0.13504948
0.032582752 0.10015906 -0.03595994 -0.18933742 -0.12151478 -0.041278392 -0.07344858 -0.16113359
0.0783385 -0.019207759 -0.10166991 0.12051533 0.010626989 -0.17018302 0.11230307 0.083113134
-0.06034062 0.15776889 0.004689533 -0.13106905 -0.23182715 0.015703432 0.04365233 0.08819561
0.092300266 -0.12420037 -0.07783423 0.05011087 -0.006855458 0.09301994 -0.03437808 0.16393927
0.008651115 -0.12603962 0.057197627 -0.01142259 -0.01961847 -0.17958133 0.0087020295 -0.032016914

network_body._body_endoder.seq_layers.2.bias f4 [128]
00000000: 0000 0000 0000 0000 0000 0000 0000 0000
00000010: 0000 0000 0000 0000 0000 0000 0000 0000
00000020: 0000 0000 0000 0000 0000 0000 0000 0000
00000030: 0000 0000 0000 0000 0000 0000 0000 0000
00000040: 0000 0000 0000 0000 0000 0000 0000 0000
00000050: 0000 0000 0000 0000 0000 0000 0000 0000
00000060: 0000 0000 0000 0000 0000 0000 0000 0000
00000070: 0000 0000 0000 0000 0000 0000 0000 0000
00000080: 0000 0000 0000 0000 0000 0000 0000 0000
00000090: 0000 0000 0000 0000 0000 0000 0000 0000
000000a0: 0000 0000 0000 0000 0000 0000 0000 0000
000000b0: 0000 0000 0000 0000 0000 0000 0000 0000
000000c0: 0000 0000 0000 0000 0000 0000 0000 0000
000000d0: 0000 0000 0000 0000 0000 0000 0000 0000
000000e0: 0000 0000 0000 0000 0000 0000 0000 0000
000000f0: 0000 0000 0000 0000 0000 0000 0000 0000
00000100: 0000 0000 0000 0000 0000 0000 0000 0000
00000110: 0000 0000 0000 0000 0000 0000 0000 0000
00000120: 0000 0000 0000 0000 0000 0000 0000 0000
00000130: 0000 0000 0000 0000 0000 0000 0000 0000
00000140: 0000 0000 0000 0000 0000 0000 0000 0000
00000150: 0000 0000 0000 0000 0000 0000 0000 0000
00000160: 0000 0000 0000 0000 0000 0000 0000 0000
00000170: 0000 0000 0000 0000 0000 0000 0000 0000
00000180: 0000 0000 0000 0000 0000 0000 0000 0000
00000190: 0000 0000 0000 0000 0000 0000 0000 0000
000001a0: 0000 0000 0000 0000 0000 0000 0000 0000
000001b0: 0000 0000 0000 0000 0000 0000 0000 0000
000001c0: 0000 0000 0000 0000 0000 0000 0000 0000
000001d0: 0000 0000 0000 0000 0000 0000 0000 0000
000001e0: 0000 0000 0000 0000 0000 0000 0000 0000
000001f0: 0000 0000 0000 0000 0000 0000 0000 0000
0.0 0.0 0.0 0.0 0.0 0.0 0.0 0.0
0.0 0.0 0.0 0.0 0.0 0.0 0.0 0.0
0.0 0.0 0.0 0.0 0.0 0.0 0.0 0.0
0.0 0.0 0.0 0.0 0.0 0.0 0.0 0.0
0.0 0.0 0.0 0.0 0.0 0.0 0.0 0.0
0.0 0.0 0.0 0.0 0.0 0.0 0.0 0.0
0.0 0.0 0.0 0.0 0.0 0.0 0.0 0.0
0.0 0.0 0.0 0.0 0.0 0.0 0.0 0.0
0.0 0.0 0.0 0.0 0.0 0.0 0.0 0.0
0.0 0.0 0.0 0.0 0.0 0.0 0.0 0.0
0.0 0.0 0.0 0.0 0.0 0.0 0.0 0.0
0.0 0.0 0.0 0.0 0.0 0.0 0.0 0.0
0.0 0.0 0.0 0.0 0.0 0.0 0.0 0.0
0.0 0.0 0.0 0.0 0.0 0.0 0.0 0.0
0.0 0.0 0.0 0.0 0.0 0.0 0.0 0.0
0.0 0.0 0.0 0.0 0.0 0.0 0.0 0.0

network_body._body_endoder.seq_layers.2.weight f4 [128, 128]
00000000: 8d98 bebd fae7 febd b627 3ebd bcec 133e
00000010: 79f7 9fbd 2220 193e b4c5 293d 2eb7 463c
00000020: 47dc 273d ed3f 1a3e 384c e33d 7fec b33d
00000030: fd86 44be 4659 e03d 341e be3c 4500 5ebd
00000040: 9411 46bc 6831 52bd be65 e5bd 9e00 f4bc
00000050: 4bed 11bd 62f1 2a3e 2a63 de3a 8019 5dbd
00000060: 062b 603d cf24 353d 80c3 873d 4326 f3bc
00000070: 3d6d cdbd 3d38 0cbe 8a2f fb3b 7cc1 c6bc
00000080: 8b9c c23d 97be fa3d f3bc 6a3e e13a c9bd
00000090: 5394 e4bd db15 7a3d 657e cebd e1b8 ed3d
000000a0: 618c 33bd bf47 79be 6db8 543c 378e 6a3d
000000b0: e06c 50bd 0ae4 543d 6e6c 27be 8a21 963d
000000c0: d78c a4bd da94 103e 6b37 bfbd 654d ccbd
000000d0: fa0b 733a 78a7 123c 0685 953d f3e8 f63d
000000e0: 873a bf3c fa7d 143d 9937 1e3c f267 933d
000000f0: 11a5 e9ba 7693 1b3d 73b9 033e 7efc 263d
00000100: 5f8c 463d 3100 4abb 621b 49bd 063b 91bd
00000110: dac9 963d 280a 0f3e a475 cfbc a1a7 5b3b
00000120: 8b45 87bd 72f9 633c b0a0 8a3b efe8 92bd
00000130: 64fc dabc 56c0 193e 1df9 643d bf06 e8bd
00000140: 973f 293c cd39 b6bd c00b 08bb 20a7 ffbd
00000150: 9406 49bd dd79 313d 7a94 e9bb 175d 0b3d
00000160: 9a71 48bb badd 83bd 75bc 083d c0a0 013d
00000170: 5b46 87bd e865 47bd 6185 a4bd 11a7 06bb
00000180: 210d 7fbd d666 183c 4388 a0bc 63b5 eb39
00000190: 124e 38bb 36fa 33bd c3d8 fbbb 3de1 c63c
000001a0: 5cf4 543d 8104 7c3c 3cf0 fb3d 833b c33d
000001b0: 8d15 0cbd 97ab 633e 8136 0f3d b92e 56bd
000001c0: 4000 17be 1caf d63b 4c8a 7f3c 5d1e ba3c
000001d0: 73b6 8ebd 1918 e23b 9f94 bf3d 25a8 8cbd
000001e0: 118b 1cbd f6e8 023d 5be7 b5bb a5b3 8bbd
000001f0: 0abf 09bd fd33 ddbc e738 06bd e613 5c3d
00000200: c4ca 88be 2193 7d3d 1c13 033c 0b1d d43c
00000210: 22d3 12bd 4e5b 44bb ce40 a03d 6a12 b9bd
00000220: cf2d bc3d 1f6c 5a3d 58ca cbbd 3b75 6ebd
00000230: a2ca 933c 2f5c 32bd bef5 143e c491 ffbd
00000240: eb49 f9bd 257f fb3d 133a 453b 9b9e 69bd
00000250: a58d 90bd 8e97 9b3d 116e 4b3d 9b69 723e
00000260: fed0 c13c 0d16 293d 6849 a8bd 9ac0 12be
00000270: b4a3 a2b9 04da 3dbc 42c6 66bd e649 39bd
00000280: 5ef5 dfbd 72f1 503c a821 7cbd aa79 5d3b
00000290: 14a8 57be 9008 23bd 6d70 cc3b 0711 173c
000002a0: e833 383d dcc2 aa3d 6a3f cc3d 52a4 40bc
000002b0: a987 fc3d 74bc c13d 287c c6bd bba3 3f3e
000002c0: cba3 37be 0be6 fb3b b2e6 84bd 07e6 983d
000002d0: 1ae7 88bd f17c 593c a0bc 47bd 8cbb 0cbd
000002e0: ab67 bcbd 3952 b9bd 1ad2 12bd 5b75 b33d
000002f0: 9c71 6cbd f347 09be 0027 ee3b c9ea b23d
00000300: f32f dc3d c542 993d 6b88 8cbb 6a37 35be
00000310: 8ab3 4b3d 79d1 703c 67c4 8abd de01 be3d
00000320: 7d42 2a3d 56d0 2d3e f5a2 ba3d aaea b8bd
00000330: c630 053e f558 a4bd 3208 93bd a848 bfbc
00000340: 3dd8 a8bd 0b48 a43d 0182 5dbd 751b 3bbc
00000350: 1104 fdbc bbc3 8b3d bd78 37bd 96bc ccbb
00000360: 0c52 81bd c768 143e fa6d b13c 6d97 e23d
00000370: e807 823d 9b0f d73d f843 ec3a 629b 2c3c
00000380: 8fc5 9bbd 3c87 14bd b35a c1bd a0f5 e13c
00000390: 4b0b d1bd 976c 5c3d 891d 7b3c 80e4 21bc
000003a0: 030c 8fbd 6404 0a3d bfce 3a3e 87b5 edba
000003b0: 7f87 91bd f314 3dbd f40c 6e3c 8e2f 39bd
000003c0: 007d 86bd 0ed9 773d 9e10 7b3d 86fb 3f3d
000003d0: d70c aa3c 2bce 213e a379 793e 1f59 c83d
000003e0: 2b7f 1bbe 6be3 dabb bf0b 42be 6d21 02be
000003f0: c2f1 00be e7cf 863c 47e9 183b d0f9 27b9
-0.093064405 -0.1244659 -0.04642459 0.14445776 -0.078108735 0.14953664 0.04144831 0.012128634
0.040981557 0.15063448 0.11098522 0.087853424 -0.19192119 0.109545276 0.023207761 -0.054199476
-0.012089152 -0.05131665 -0.112010464 -0.02978545 -0.03562669 0.16693643 0.0016966809 -0.053979397
0.05472853 0.044224557 0.066290855 -0.02968133 -0.10030601 -0.13693328 0.007665579 -0.024262182
0.095025145 0.122433834 0.22923641 -0.098256834 -0.11161103 0.061056 -0.100827016 0.116075285
-0.043835048 -0.24343775 0.012983424 0.057264533 -0.05088508 0.051975287 -0.16349956 0.07330616
-0.080346756 0.14119282 -0.09336742 -0.09975699 0.0009271499 0.0089510605 0.07300763 0.1205615
0.023343338 0.036252953 0.00965681 0.0719756 -0.0017825683 0.037982427 0.12863712 0.04076814
0.048473712 -0.0030822868 -0.04909838 -0.07091336 0.07362719 0.13968718 -0.02532465 0.0033516663
-0.06605061 0.013914453 0.004230581 -0.07173335 -0.026731677 0.15014777 0.055901635 -0.11329412
0.010330102 -0.088977434 -0.0020758957 -0.124830484 -0.04907854 0.04332911 -0.0071282955 0.034024324
-0.003058529 -0.06438775 0.03338285 0.031647444 -0.06605216 -0.04868117 -0.080332525 -0.0020546357
-0.06226838 0.009301862 -0.019596225 0.00044957837 -0.0028122705 -0.04393979 -0.007685752 0.024277324
0.05199085 0.015381933 0.123016804 0.09532835 -0.03420024 0.22233425 0.03496409 -0.052290652
-0.14746189 0.0065516364 0.015596937 0.022719556 -0.06968393 0.0068998453 0.09354519 -0.068680085
-0.03821856 0.03196045 -0.0055512614 -0.06821374 -0.033629455 -0.027002329 -0.03276911 0.053729914
-0.26717198 0.06190789 0.0080001615 0.025892755 -0.035845883 -0.0029961648 0.078248605 -0.09036715
0.09188425 0.05332577 -0.099507034 -0.05821727 0.018040959 -0.043544944 0.14546868 -0.124789745
-0.12172302 0.1228011 0.003009443 -0.057036024 -0.070582666 0.07597266 0.049665514 0.23673098
0.023659226 0.041280795 -0.08217126 -0.14331284 -0.00031021016 -0.0115876235 -0.056341417 -0.04523649
-0.10935472 0.012752878 -0.061555535 0.0033794441 -0.2106021 -0.039803088 0.006238988 0.009220368
0.044971377 0.08337948 0.09973033 -0.011757927 0.123305626 0.09459773 -0.0969165 0.18714802
-0.17933576 0.0076873354 -0.06489314 0.07465749 -0.06684704 0.013274417 -0.04876387 -0.034358546
-0.091994606 -0.09048886 -0.0358449 0.08762618 -0.057725534 -0.13406353 0.0072678328 0.08736188
0.10751333 0.074834384 -0.004288723 -0.1769692 0.04973177 0.01469838 -0.06775742 0.092777
0.041567314 0.16974005 0.09113113 -0.090291336 0.13006887 -0.0802478 -0.071792975 -0.023350075
-0.08244369 0.080215536 -0.05407906 -0.0114201205 -0.030885728 0.06824442 -0.04479288 -0.006248067
-0.06314477 0.14493094 0.021658886 0.110640384 0.06349164 0.105010234 0.0018025627 0.010535093
-0.07606041 -0.036261782 -0.09441128 0.027582943 -0.10207232 0.053814497 0.015326866 -0.009881139
-0.06984713 0.033695593 0.1824293 -0.0018135764 -0.07105922 -0.046162557 0.014529455 -0.045211367
-0.065668106 0.060509734 0.061295144 0.04687073 0.020758076 0.15801303 0.24362807 0.097826235
-0.1518523 -0.0066799424 -0.18949793 -0.12708063 -0.12592223 0.016456557 0.0023332404 -0.00016019423
