results/ppo/MoveToGoal/MoveToGoal-5153.onnx (onnx, 856695 bytes, 11 tensors)

action_model._continuous_distribution.log_sigma f4 [1, 2]
-0.0029466394 0.000859112
00000000: 681c 41bb 0836 613a

action_model._continuous_distribution.mu.bias f4 [2]
0.00031308093 -4.579693e-05
00000000: 0325 a439 1416 40b8

action_model._continuous_distribution.mu.weight f4 [2, 256]
-0.00083237747 -0.0031157478 0.0023056706 -0.008347954 0.0072608837 0.00380771 -0.0053210105 0.008054108
-0.0010747949 0.0018583422 0.015188234 0.013050352 -0.00048971147 -0.01698538 0.013854106 0.0049623093
0.0061588003 -0.03213313 0.002199489 -0.008861923 -6.67277e-05 -0.016056685 0.0030857793 -0.006689261
0.017003767 -0.0018419793 0.017089361 0.00089228095 -0.005809624 0.0006632192 0.001803422 0.011497156
-0.020946711 0.008074084 -0.004338272 -0.007194354 -0.0097682355 0.0076078465 0.016483273 -0.0028335988
0.0075060213 -1.4844293e-05 0.012526681 -0.014309608 0.014400505 0.017638402 0.00726362 -0.0017860013
0.0040238244 -0.005935768 -0.010386561 -0.00043622204 -0.0037222523 0.003607098 -0.012071593 -0.0009557185
-0.0014296101 0.0091923 0.012504483 0.004249033 -0.018297251 0.0095681725 -0.0024160016 0.00981149
-0.021726292 -0.0059523247 0.0038609519 -0.018092846 0.004868751 0.0139699215 0.0016724264 -0.001296878
0.004560025 -0.008143339 0.018102167 -0.017119993 0.017527184 -0.0062316786 -0.0020003791 0.011300978
-0.0062167514 0.0009851628 -0.013558043 -0.00034809328 -0.013824554 0.0048269616 -0.005832412 -0.0026255972
0.0036947406 0.004434953 0.0056523457 -0.00077052705 -0.011957854 0.010611289 0.0048106606 -0.013653541
-0.015585442 -0.0010000519 -0.017403863 0.003296264 0.023091888 -0.018417437 -0.0028419252 -0.018248918
-0.008563176 -0.0040803016 -0.0003104044 0.007918947 0.013456644 0.0052010836 -0.009265755 -0.010771975
0.004483492 -0.012284408 0.0070803575 -0.003719645 -0.025309272 0.009375562 -0.010769576 -0.007790205
0.024069985 0.006791289 -0.018520549 -0.0052789706 0.015710838 -8.651016e-05 -0.018259913 0.011577075
-0.00916957 0.003446635 0.016001424 0.022107659 0.005633666 0.00034440297 0.008561492 -0.023963429
0.004661493 0.0044873995 0.009186246 0.026917756 0.0021297734 -0.023649 0.0173753 0.008447008
-0.01170921 0.004463268 0.004734629 -0.0024414195 0.007174866 0.0036116105 0.007780417 -0.0069198213
-0.010336895 -0.004762688 0.0069465567 -0.020496044 -0.0069595813 -0.0044237236 -0.0061147185 0.012331065
0.012500444 0.004429083 0.00600707 -0.008615193 -0.0043991134 -0.025717966 0.008787999 -0.021923762
-0.0031555213 0.008787069 0.0018688153 0.021330928 0.008262381 -0.009654889 0.005871298 0.016314587
-0.0026969328 -0.016478028 0.001930318 -0.020780211 -0.0036072563 0.0012890359 -0.0022408275 -0.0054972805
-0.002702632 -0.0038842158 0.024678888 0.005364591 0.0035932453 0.008659718 0.005079392 0.01406901
0.0019893288 -0.008258383 -0.004905445 -0.0021609305 -0.018033963 -0.008177242 -0.00929209 -0.00060907495
0.01362041 -0.004840231 -0.00057442795 0.014679485 -0.010897904 -0.00011787953 -0.0044581206 -0.006682808
-0.00621772 -0.002680979 -0.008937933 0.0057350146 -0.015602712 0.00678911 0.0039692284 0.012860437
0.002781495 0.01650623 -0.005397746 -0.014424009 0.0036500362 0.0027231583 -0.012159246 0.016196752
-0.007963534 0.02097276 -0.019884225 0.008476821 -0.0016080493 -0.029312823 0.02173236 -0.0026278915
0.00034737523 -0.0033295043 -0.0128428675 -0.019168627 0.008731013 0.0077433307 0.003853839 -0.024724286
0.0014577903 0.011155787 0.021485819 -0.014218784 0.008403185 -0.010456444 7.3460076e-05 -0.0032974656
-0.010776709 -0.004234484 0.014526143 -0.008298727 -0.020282907 0.0032066018 0.02772227 -0.0071654012
00000000: e833 5aba 9331 4cbb bc1a 173b dbc5 08bc
00000010: b5ec ed3b c68a 793b df5b aebb 61f5 033c
00000020: 22e0 8cba 9e93 f33a 12d8 783c 25d1 553c
00000030: fb5f 00ba ec24 8bbc 55fc 623c de9a a23b
00000040: c3cf c93b 079e 03bd 4d25 103b 9931 11bc
00000050: 29f0 8bb8 4f89 83bc c93a 4a3b 9731 dbbb
00000060: 7c4b 8b3c 926e f1ba fdfe 8b3c f6e7 693a
00000070: a95e bebb e3db 2d3a cd60 ec3a 915e 3c3c
00000080: 7098 abbc 2a49 043c 1028 8ebb 9ebe ebbb
00000090: f30a 20bc 3e4b f93b ee07 873c e6b3 39bb
000000a0: 12f5 f53b c10b 79b7 b53c 4d3c d972 6abc
000000b0: 19f0 6b3c 697e 903c a903 ee3b 4218 eaba
000000c0: 49da 833b d580 c2bb 652c 2abc bbb4 e4b9
000000d0: 08f1 73bb 1065 6c3b eec7 45bc 2f89 7aba
000000e0: c161 bbba 4d9b 163c 9adf 4c3c 793b 8b3b
000000f0: 1ee4 95bc d3c3 1c3c c855 1ebb 5fc0 203c
00000100: 56fb b1bc b80b c3bb 0608 7d3b 7337 94bc
00000110: 0b8a 9f3b 19e2 643c 5135 db3a 01fc a9ba
00000120: 436c 953b a46b 05bc ff4a 943c 3a3f 8cbc
00000130: 2b95 8f3c 1c33 ccbb cb18 03bb bd27 393c
00000140: e4b5 cbbb 9420 813a 8e22 5ebc 4a80 b6b9
00000150: 6280 62bc 7d2b 9e3b d11d bfbb 3612 2cbb
00000160: 7623 723b 1553 913b 5037 b93b 32fd 49ba
00000170: e0ea 43bc f9da 2d3c bfa2 9d3b 1ab3 5fbc
00000180: 155a 7fbc 2c14 83ba 8c92 8ebc 2206 583b
00000190: 332b bd3c 2ae0 96bc 983f 3abb c17e 95bc
000001a0: 904c 0cbc 0db4 85bb c6bd a2b9 79be 013c
000001b0: 4179 5c3c da6d aa3b 65cf 17bc f07c 30bc
000001c0: 42ea 923b 8b44 49bc 5802 e83b 4ac5 73bb
000001d0: 6455 cfbc f59b 193c e072 30bc fa44 ffbb
000001e0: 6b2e c53c 7689 de3b 68b8 97bc 37fb acbb
000001f0: 04b4 803c ca6c b5b8 d095 95bc c6ad 3d3c
00000200: f73b 16bc f1e0 613b 6b15 833c 1f1b b53c
00000210: 9e9a b83b fc90 b439 8045 0c3c f44e c4bc
00000220: 70bf 983b 090b 933b e981 163c a082 dc3c
00000230: ab93 0b3b 8cbb c1bc a556 8e3c 5265 0a3c
00000240: fdd7 3fbc 9b40 923b f224 9b3b 3900 20bb
00000250: 231b eb3b c5b0 6c3b def2 fe3b abbf e2bb
00000260: 145c 29bc 5310 9cbb f19f e33b 52e7 a7bc
00000270: 330d e4bb e2f4 90bb fa5d c8bb 3c08 4a3c
00000280: aace 4c3c d721 913b f5d6 c43b bd26 0dbc
00000290: 7026 90bb 7cae d2bc 8afb 0f3c 7699 b3bc
000002a0: ddcc 4ebb a3f7 0f3c 09f3 f43a 33be ae3c
000002b0: f05e 073c 8a2f 1ebc 0464 c03b 2ba6 853c
000002c0: 06bf 30bb eefc 86bc b902 fd3a 433b aabc
000002d0: b867 6cbb def4 a83a d9da 12bb 8822 b4bb
000002e0: a41e 31bb 548e 7ebb 612b ca3c 73c9 af3b
000002f0: a77c 6b3b 7de1 0d3c 0771 a63b b481 663c
00000300: 665f 023b 2b4e 07bc dbbd a0bb 669e 0dbb
00000310: f6bb 93bc d7f9 05bc da3d 18bc 54aa 1fba
00000320: 2428 5f3c cd9a 9ebb 3595 16ba 3982 703c
00000330: 1f8d 32bc 1736 f7b8 6d15 92bb 75fb dabb
00000340: 04be cbbb 5db3 2fbb 6870 12bc caec bb3b
00000350: 84a2 7fbc 2f77 de3b 4d10 823b 95b4 523c
00000360: be49 363b 1338 873c 93df b0bb ae52 6cbc
00000370: 7235 6f3b 0477 323b 9337 47bc 0daf 843c
00000380: 7c79 02bc 11cf ab3c 3ee4 a2bc 5de2 0a3c
00000390: 2ec5 d2ba 7221 f0bc 1008 b23c b438 2cbb
000003a0: ea1f b639 d033 5abb e46a 52bc 8607 9dbc
000003b0: 860c 0f3c c4bb fd3b b090 7c3b 968a cabc
000003c0: 5313 bf3a c3c6 363c 0703 b03c e7f5 68bc
000003d0: 83ad 093c 8151 2bbc 940e 9a38 4b1a 58bb
000003e0: cb90 30bc 6dc1 8abb 0fff 6d3c 62f7 07bc
000003f0: 5728 a6bc da25 523b d019 e33c becb eabb

network_body._body_endoder.seq_layers.0.bias f4 [256]
0.00039262936 -0.00213177 -0.00035036722 -0.00034338608 -0.0012564358 -4.608149e-05 7.890142e-05 0.0022804565
0.00095393695 6.9584064e-05 0.001505547 -0.00057202217 -0.00063716504 0.0006027156 0.00089944364 -0.0012108833
-0.0005734514 -6.335056e-05 -0.0011047462 0.00077840086 -0.0005828037 0.0006448808 -0.0004858917 0.00084555056
-0.0025677732 -0.0004258441 -0.00047701443 -0.0019259779 0.00021752383 0.00027126 -0.0016735448 -0.0018966297
4.1912404e-05 -0.00050413114 -0.0023778167 1.3223719e-05 0.0025566733 -0.0014118598 0.00039977866 0.0017089057
0.00033339218 -0.0019204958 -0.0020407143 0.0003916801 0.0020077375 -9.992872e-05 -0.0008579928 -0.00026858324
0.00065027905 -0.00043643816 -0.00027832598 -8.343066e-05 -3.295709e-05 0.0019606063 0.00022487083 -0.0005032279
-0.0014632284 -6.209067e-05 0.00017729547 0.00013324479 -0.0017317857 -0.0022541832 0.00023632868 -0.00038278117
0.00053938373 -0.00033058878 7.145681e-05 -0.0017852277 -0.00039812492 -0.0006201778 7.413168e-05 -0.0012165041
0.0002615636 0.00018223112 -0.00016786171 -0.00017992557 -0.00046354896 -0.00050962495 0.0008086135 -0.00035597035
0.00015175225 -0.0008850958 -0.0011463134 -0.000341287 0.0023030068 -0.0003534226 0.0021337413 0.00019323494
0.00012841412 -0.00011762714 -0.00026287124 -0.0002864215 -0.00050812797 -0.00025495872 0.00064320874 -0.00021154399
-0.00035848457 0.00028447338 -0.000497584 -0.001825092 -0.0004081476 0.000120907665 -0.0011354511 -0.0001849913
-0.00042684012 0.00041610064 0.0001579299 -0.00020269034 -0.0018926987 -0.0008396739 0.0023571153 -0.00075949397
-0.0015674633 -0.00072545663 -0.0025511226 -0.0004975674 -0.002165209 0.0028654565 0.00080694014 -0.0015108021
-0.0013967584 0.0010853624 -0.00015268668 6.835273e-05 -0.0004088557 -0.0006128726 0.0008092263 -0.000375743
-0.00018411495 0.0002846518 0.0013986212 -0.0005190899 0.0009961837 -0.0011919417 0.0006486956 -0.00040068573
0.0018677367 -0.00026241684 0.00244723 0.00034081138 -0.00045313235 -7.0773676e-05 0.0020559765 -0.00038189066
0.00033667823 0.00030269736 -0.0025636991 0.00013973119 0.001473858 -0.0008953272 4.2514457e-06 -0.0008219472
0.00010387264 -0.00060054706 0.0004742085 0.00011192164 2.9612507e-05 -0.000382594 -0.0020837882 9.1631184e-05
0.0002490309 -0.00031559597 -0.0009339802 0.00054284517 -0.0019194641 -0.002410371 -0.00028604252 0.0006887365
-0.00023581725 0.00072403916 -0.00045708977 0.002166937 0.00014453377 -0.00031327878 -8.164185e-05 3.0209249e-05
0.002421025 0.0013026012 -0.0007377699 -0.00017916108 0.00044223265 -0.0002460028 -0.00068059267 -0.0016062568
0.00012225308 0.0008458454 0.00040479374 -0.0007758302 4.123001e-05 0.0010457095 -0.0009347736 0.00015524095
-0.00030297757 -0.0012981395 0.0012229801 -0.0020779897 0.00078053016 0.000179084 1.0997533e-05 9.610335e-05
0.000101185615 -0.0002742208 -0.0005927255 -0.00020807137 0.0015514551 4.5241708e-05 0.00032666328 -4.63309e-05
0.00015089518 0.0013553248 -0.00034535548 2.092311e-05 0.0011464247 0.00016829613 -0.00010256645 7.338266e-05
-0.00011140346 -0.0009510675 0.00026309182 -0.0028544406 0.00026865146 0.000982508 0.00026046968 0.000109243636
0.00031125636 8.994926e-05 0.0012164449 -0.00022991569 0.00083016104 -0.00013354135 0.00013079152 0.0005441878
-0.000851319 -0.00041406174 -0.00017785514 0.0005036072 5.3487503e-05 -0.0021787004 -0.0007114568 -0.00012550369
0.0013636247 -0.0009790087 -0.0020014367 0.00053042505 -0.0007380017 -0.0002956793 0.0010507482 -0.0002068347
0.0016986693 -0.000119829674 -0.0003874493 -0.00013964529 0.000865928 0.00074688636 -0.0004690425 -0.0005330958
00000000: d2d9 cd39 2ab5 0bbb 7eb1 b7b9 8008 b4b9
00000010: fdae a4ba a047 41b8 e177 a538 b673 153b
00000020: a011 7a3a a9ed 9138 c655 c53a c2f3 15ba
00000030: 6c07 27ba 8fff 1d3a a4c8 6b3a 80b6 9eba
00000040: ac53 16ba 13db 84b8 22cd 90ba 990d 4c3a
00000050: 4bc7 18ba 380d 293a 48bf feb9 f0a7 5d3a
00000060: 1648 28bb d443 dfb9 cb17 fab9 1871 fcba
00000070: 1c17 6439 e737 8e39 d85a dbba 5598 f8ba
00000080: 1acb 2f38 ab27 04ba 25d5 1bbb 71db 5d37
00000090: dc8d 273b 270e b9ba 6299 d139 5cfd df3a
000000a0: 24cb ae39 25b9 fbba 81bd 05bb 6a5a cd39
000000b0: 3f94 033b d390 d1b8 ecea 60ba a2d0 8cb9
000000c0: 7d77 2a3a bdd1 e4b9 48ec 91b9 7ff7 aeb8
000000d0: 683b 0ab8 847d 003b 4ecb 6b39 0deb 03ba
000000e0: ccc9 bfba ad36 82b8 64e8 3939 a0b7 0b39
000000f0: 16fd e2ba ebba 13bb ffce 7739 05b0 c8b9
00000100: 6e65 0d3a e052 adb9 15db 9538 4dfe e9ba
00000110: 6cbb d0b9 6d93 22ba 2577 9b38 1b73 9fba
00000120: 7922 8939 4b15 3f39 0904 30b9 67aa 3cb9
00000130: 7d08 f3b9 5a98 05ba 22f9 533a 88a1 bab9
00000140: af1f 1f39 c605 68ba e53f 96ba c4ee b2b9
00000150: 0bee 163b 944b b9b9 3dd6 0b3b 1c9f 4a39
00000160: e7a6 0639 97ae f6b8 fbd1 89b9 d82a 96b9
00000170: e433 05ba fbab 85b9 029d 283a e8d1 5db9
00000180: fcf2 bbb9 5f25 9539 4c70 02ba ed37 efba
00000190: a5fc d5b9 cf8f fd38 6bd3 94ba 39fa 41b9
000001a0: 83c9 dfb9 1528 da39 fc99 2539 4689 54b9
000001b0: 6e14 f8ba 901d 5cba d579 1a3b c718 47ba
000001c0: 5773 cdba 922c 3eba bc30 27bb 2f6f 02ba
000001d0: 2ee6 0dbb 62ca 3b3b d688 533a 1b06 c6ba
000001e0: 6f13 b7ba b842 8e3a 851a 20b9 9858 8f38
000001f0: af5b d6b9 2fa9 20ba 4222 543a 5fff c4b9
00000200: fb0e 41b9 513d 9539 f151 b73a 8913 08ba
00000210: 6192 823a ed3a 9cba 3a0d 2a3a 2113 d2b9
00000220: d8ce f43a fe94 89b9 b561 203b eeae b239
00000230: 6592 edb9 546c 94b8 90bd 063b 7f38 c8b9
00000240: 3084 b039 5ab3 9e39 bc03 28bb ce84 1239
00000250: 782e c13a 64b4 6aba a4a7 8e36 f177 57ba
00000260: 33d6 d938 086e 1dba 309f f839 79b7 ea38
00000270: 6068 f837 e696 c8b9 2a90 08bb 1e2a c038
00000280: 5d90 8239 9376 a5b9 5ad6 74ba b94d 0e3a
00000290: 8796 fbba 51f7 1dbb faf7 95b9 538c 343a
000002a0: b645 77b9 72cd 3d3a 8da5 efb9 2c03 0e3b
000002b0: fd8d 1739 913f a4b9 2237 abb8 de69 fd37
000002c0: 0faa 1e3b 0bbc aa3a e666 41ba 30dd 3bb9
000002d0: 76db e739 f0f9 80b9 cd69 32ba 0989 d2ba
000002e0: 1031 0039 b9bb 5d3a 7f3a d439 1561 4bba
000002f0: 63ee 2c38 3010 893a 980b 75ba 2dc8 2239
00000300: f6d8 9eb9 5526 aaba 674c a03a e22e 08bb
00000310: 7e9c 4c3a 7fc8 3b39 0b82 3837 188b c938
00000320: 9d33 d438 4bc5 8fb9 2361 1bba bc2d 5ab9
00000330: 325a cb3a eac1 3d38 0144 ab39 6d53 42b8
00000340: 9e39 1e39 27a5 b13a d410 b5b9 0984 af37
00000350: a143 963a a678 3039 f218 d7b8 04e5 9938
00000360: 47a1 e9b8 0f51 79ba 96ef 8939 9111 3bbb
00000370: cad9 8c39 7fc7 803a a68f 8839 bb19 e538
00000380: 1f30 a339 24a3 bc38 1e71 9f3a 8615 71b9
00000390: 2a9f 593a 3c07 0cb9 1525 0939 d3a7 0e3a
000003a0: 0d2b 5fba 6d16 d9b9 a07e 3ab9 8204 043a
000003b0: c557 6038 87c8 0ebb 0f81 3aba a499 03b9
000003c0: a7bb b23a 1552 80ba 892a 03bb 390c 0b3a
000003d0: 7576 41ba 6705 9bb9 42b9 893a c4e1 58b9
000003e0: e2a5 de3a 114d fbb8 9122 cbb9 bf6d 12b9
000003f0: 72ff 623a b2ca 433a d2e9 f5b9 74bf 0bba

network_body._body_endoder.seq_layers.0.weight f4 [256, 60]
0.11123362 0.029763188 0.07089561 0.28577843 0.13362323 0.009707102 -0.04447434 0.20926481
-0.20740484 -0.0035145292 -0.09257164 0.3312334 -0.0118788835 0.018501159 -0.27076364 0.09114118
0.014223857 -0.21534759 0.16551672 0.103887476 -0.040361945 -0.2599437 0.18391584 0.07453625
0.17742833 0.011286527 0.003984694 -0.05391934 -0.048082918 -0.20980011 0.018658113 -0.2316502
-0.0091530625 -0.0064322427 -0.10999694 -0.049388655 -0.1272114 -0.04293195 -0.23550041 -0.16823167
0.012535306 -0.041463237 0.014173295 0.030417735 -0.24298151 -0.16345063 0.096468516 0.10465339
0.017871596 0.010323105 0.043620657 0.34781617 0.030970048 -0.2221329 0.17644079 -0.06690906
-0.013475663 -0.019252509 -0.023283187 0.07641547 0.05850245 0.031686872 -0.10044664 0.014224029
-0.035380796 -0.2109251 0.102445625 -0.010866549 0.09455541 -0.13486996 -0.14713903 -0.0037289213
-0.21486963 -0.08578918 -0.10818796 -0.040418103 0.23437859 -0.08812715 -0.0807751 -0.21874462
-0.21009076 -0.30526274 -0.08663756 -0.18836686 -0.09434062 -0.0655311 0.10784903 0.047845427
0.06145469 0.18945517 0.14138345 -0.20803082 -0.19621643 0.12285701 0.042444207 0.015578324
-0.21558547 0.042669594 0.014513248 -0.030719277 -0.19373544 -0.024226135 0.08058338 -0.028713578
-0.027609691 -0.08019078 0.1331167 -0.03608407 0.2566352 -0.34157848 -0.10078523 0.17772488
0.09073603 -0.01255037 0.18305737 0.003736667 -0.08567117 -0.014095071 -0.043209326 0.18951823
-0.1109551 -0.028332327 0.28139606 0.066581875 -0.18864657 -0.106523916 -0.0089859525 0.0063765855
-0.07004727 0.115490794 0.04617858 -0.08914489 -0.018651199 0.039096642 0.033384867 0.13222004
-0.0063934186 0.10132366 0.2238858 0.043689866 -0.002498262 -0.018481782 -0.20976458 -0.06560571
0.21307547 0.02749896 0.11345437 0.11251691 -0.10104055 -0.16643254 0.08205795 0.16597956
0.15384832 -0.030323539 0.121035285 -0.089507654 0.08170693 0.20006718 0.018526958 -0.054216366
-0.04239406 -0.043260653 -0.15268421 -0.08476438 0.046953954 0.22886568 -0.101843245 0.012774594
-0.07365739 -0.016033776 0.004743398 -0.14259925 0.32958475 0.03686706 -0.009127912 -0.1487873
0.10575002 -0.16616058 0.36724997 0.0058997516 0.15250473 0.04889602 0.057569962 0.012789299
0.36487192 -0.019927636 0.11432832 0.41835794 0.14475684 -0.097282186 0.07671068 -0.07089513
-0.07099022 -0.13638647 0.0025543794 -0.071516596 -0.09488859 0.06619432 -0.15186004 -0.17253396
0.08144944 0.11599204 -0.19796108 0.12122911 -0.123604864 0.11955477 -0.16506992 0.081454106
-0.07658478 -0.07357901 -0.022619814 -0.08714739 0.18185885 -0.083180554 0.037656147 0.079672694
0.11474138 -0.061210126 -0.14665051 0.013633016 -0.029851703 -0.17256406 0.11611974 0.053459942
0.017007587 -0.27362427 0.071565144 -0.102204934 -0.065161936 0.16558927 0.03253161 -0.05345602
-0.028452128 -0.014309728 0.040627986 0.012533575 0.1093761 0.27036422 0.26310703 0.15206464
0.08664349 -0.021936808 -0.018919623 -0.07495823 -0.019851519 0.04910636 -0.15953319 -0.08921179
-0.042408083 0.2732445 0.14860035 0.20992726 -0.0074300338 0.03480748 0.17141242 -0.01435515
00000000: 74ce e33d eed1 f33c b831 913d 8d51 923e
00000010: 87d4 083e 890a 1f3c ba2a 36bd 8449 563e
00000020: ef61 54be 0454 66bb 3396 bdbd 6d97 a93e
00000030: a69f 42bc be8f 973c 88a1 8abe 3aa8 ba3d
00000040: 2e0b 693c 1484 5cbe 377d 293e f5c2 d43d
00000050: 9152 25bd 5717 85be 6f54 3c3e 76a6 983d
00000060: c6af 353e 20eb 383c 0992 823b 87da 5cbd
00000070: 98f2 44bd d7d5 56be e6d8 983c b635 6dbe
00000080: baf6 15bc 90c5 d2bb 1346 e1bd c24b 4abd
00000090: b543 02be 6ad9 2fbd 0527 71be ec44 2cbe
000000a0: e260 4d3c 5bd5 29bd 1c37 683c 9d2e f93c
000000b0: 25d0 78be 9a5f 27be 4991 c53d 8454 d63d
000000c0: 7467 923c 3e22 293c 93ab 323d f614 b23e
000000d0: e6b4 fd3c cf76 63be e5ac 343e 9e07 89bd
000000e0: 07c9 5cbc 70b7 9dbc 62bc bebc b77f 9c3d
000000f0: 44a0 6f3d 18ca 013d f8b6 cdbd e70b 693c
00000100: 74eb 10bd c0fc 57be 03cf d13d 9c09 32bc
00000110: 44a6 c13d 5a1b 0abe 9dab 16be eb60 74bb
00000120: c906 5cbe 3db2 afbd a691 ddbd 748d 25bd
00000130: f100 703e 027c b4bd 6a6d a5bd 97fe 5fbe
00000140: 0822 57be 664b 9cbe 086f b1bd 3ee3 40be
00000150: a835 c1bd 2b35 86bd f4df dc3d 91f9 433d
00000160: eab7 7b3d 8900 423e d3c6 103e 0806 55be
00000170: f6ec 48be 759c fb3d fad9 2d3d 3a3c 7f3c
00000180: 70c2 5cbe 50c6 2e3d f9c8 6d3c fea6 fbbc
00000190: 9562 46be e375 c6bc e608 a53d bd38 ebbc
000001a0: b82d e2bc 103b a4bd bf4f 083e e4cc 13bd
000001b0: b065 833e 60e3 aebe 7d68 cebd 83fd 353e
000001c0: d0d3 b93d 11a0 4dbc 6473 3b3e dfe2 743b
000001d0: 5e74 afbd 03ef 66bc 43fc 30bd 1111 423e
000001e0: 6d3c e3bd 3219 e8bc 2513 903e 145c 883d
000001f0: 912c 41be 3629 dabd d139 13bc adf2 d03b
00000200: f174 8fbd 7086 ec3d c025 3d3d 9991 b6bd
00000210: 66ca 98bc cd23 203d 92be 083d b164 073e
00000220: e27f d1bb c782 cf3d 5242 653e 25f4 323d
00000230: e2b9 23bb 1b67 97bc 87cc 56be 495c 86bd
00000240: 7530 5a3e 8045 e13c c45a e83d 446f e63d
00000250: 59ee cebd 4b6d 2abe 000e a83d 8cf6 293e
00000260: 6a8a 1d3e 1269 f8bc 59e1 f73d ca4f b7bd
00000270: f755 a73d 69de 4c3e d9c5 973c fb11 5ebd
00000280: 65a5 2dbd 1532 31bd 4059 1cbe f298 adbd
00000290: ca52 403d c45b 6a3e 3193 d0bd 884c 513c
000002a0: b0d9 96bd 4459 83bc 826e 9b3b 8a05 12be
000002b0: 55bf a83e ea01 173d 3d8d 15bc b35b 18be
000002c0: 7793 d83d 0026 2abe 3008 bc3e b452 c13b
000002d0: 332a 1c3e 3147 483d 7bce 6b3d 358a 513c
000002e0: 7ed0 ba3e 483f a3bc f724 ea3d 0333 d63e
000002f0: 233b 143e e23b c7bd 7d1a 9d3d 7731 91bd
00000300: 5263 91bd e5a8 0bbe 6067 273b 4b77 92bd
00000310: f354 c2bd e390 873d 3381 1bbe beac 30be
00000320: f7ce a63d 3c8d ed3d 4fb6 4abe f846 f83d
00000330: 8c24 fdbd 22d9 f43d 1708 29be 69d1 a63d
00000340: 7bd8 9cbd 98b0 96bd 304d b9bc 557a b2bd
00000350: 3539 3a3e 915a aabd 553d 1a3d 702b a33d
00000360: 87fd ea3d 78b7 7abd 8d2b 16be 035d 5f3c
00000370: 8f8b f4bc a2b4 30be 30d0 ed3d d0f8 5a3d
00000380: 7f53 8b3c 7b18 8cbe bf90 923d d250 d1bd
00000390: 9f73 85bd 3c90 293e de3f 053d b3f4 5abd
000003a0: 7014 e9bc 5973 6abc 8869 263d a059 4d3c
000003b0: 9400 e03d 2e6d 8a3e f7b5 863e d5b6 1b3e
000003c0: 2472 b13d d2b4 b3bc 53fd 9abc b383 99bd
000003d0: a79f a2bc c023 493d ab5c 23be acb4 b6bd
000003e0: 19b4 2dbd b4e6 8b3e b12a 183e 2cf7 563e
000003f0: a477 f3bb 4a92 0e3d bd86 2f3e dd31 6bbc

network_body._body_endoder.seq_layers.2.bias f4 [256]
-0.00067517103 0.0011573195 0.0019622631 -0.00037499517 -0.00056768203 -9.5216295e-05 -0.00042920755 -0.0003282494
-0.0008731222 -0.0011786226 -0.0014819092 -0.00030924627 -5.59367e-05 0.00032086676 0.0012993269 0.0001940741
-0.0016593204 0.00013733555 0.0010881008 -0.00066800177 -0.0015296736 -0.00029079863 2.0474825e-05 1.6813863e-05
0.0004787453 0.00016762404 -0.0006663511 0.0022681903 0.0010516862 -0.00057331315 -0.00019686892 -6.100437e-05
-0.0012962957 2.8824164e-05 0.00016682335 -0.0011235698 -0.00056487595 -0.000845377 -3.024484e-05 -0.0012538923
-3.308064e-05 -0.00067330716 -0.00041222034 1.702613e-05 -0.0018565598 -0.00026506206 -0.00087985164 0.0003956456
0.001981474 -0.000110832836 -0.00037025983 0.0008484247 -0.0010747912 5.74613e-05 8.926802e-05 0.00023155686
0.0017946233 -0.0014568906 -0.00026948072 -0.00047903208 0.0008950366 0.0008580506 -0.0010780523 -0.0007847708
-0.00014188666 -0.0005858234 -0.000557608 -0.0005621571 -0.0009197235 -0.00057609665 -0.0015884334 -0.00018059336
-7.559118e-05 -0.0008592796 -0.0003462754 -5.6861056e-05 0.0013868448 -0.0008302463 -0.00010878955 -0.0012702846
0.00033594144 -1.1920966e-05 -0.0009873848 -0.00083665317 -0.0004314046 -0.00082551426 0.00053162023 -0.0005672969
-0.0009957881 5.2869116e-05 -0.0007626879 0.0011387953 -0.0010829832 -0.00039640735 -0.002172252 -0.00026565694
0.0007685597 0.0015979293 -0.0005379063 -0.0017210096 -0.0008236303 0.00030661223 9.6897675e-05 0.0014833756
-0.00069448847 -0.0007800421 3.072586e-06 -0.00033432312 -0.00125606 8.6051085e-05 -0.00047603814 0.0008549143
0.00070586416 -0.0002563696 -0.00046587808 -0.0016236611 -0.00020118478 0.000109529705 0.0023833588 0.0007854804
0.00013784559 0.0013732772 0.00036398336 0.00020493819 -0.00013312155 -0.00011930031 -0.00031798717 0.00034693285
-0.00031551227 -0.00015119863 -0.00016957971 0.002511714 -0.0013055885 -0.00068726623 -0.0004445969 -0.0006650628
0.0025080342 -0.0004921748 -0.0006202858 0.0015543599 0.0008230816 -0.00041083634 -0.0010440958 0.00016235388
0.000117805714 1.4433428e-05 -4.218768e-06 -0.00093547994 -0.00050334976 -0.0015756534 0.0014159561 0.00013863281
0.000524158 -6.755245e-05 -0.0006959074 -0.00039730268 -0.00032276846 -0.002282185 -0.00012599099 -0.00040775927
0.0010403773 -0.00036957988 -0.0001711704 0.0013537315 0.00014919022 -0.000117932315 -0.00024462846 -0.00094705034
0.0002685325 -0.0005266679 -0.001622045 0.00060276844 -0.00030005947 -0.0015250286 -0.000567478 -0.00047574553
-0.00069295 -0.00066362915 -0.000819467 -0.0020189811 -0.00095357327 -0.0020104155 -0.0007130272 -0.0017081663
-0.0012235638 0.002005659 0.00012842681 -0.000502254 0.0004912371 -0.00010160659 7.346566e-06 -0.0025636044
-0.0004879779 -0.00010062021 -0.0005605644 -0.0006527548 -0.0030880806 0.00014226143 -0.0018816509 -0.00083206873
-5.7846424e-05 -0.0007036736 -4.8003993e-05 -0.00056665967 0.001449002 0.00077185186 -0.0008640009 -0.00044531206
3.4679735e-05 -0.0011569636 -0.0009213715 -0.00043384015 0.0004529698 0.00013375576 -0.0016184887 -0.0022685246
-0.00083391817 0.00023371962 4.9772178e-05 -0.00075929426 0.00046887688 -6.796116e-05 -0.00059885986 0.00017710865
-0.0006937707 -5.0813644e-05 -0.00014008793 -0.0010172662 -0.00054335216 -0.00021583324 0.0020058502 0.00019685528
-0.000154891 0.0001657037 0.00032069898 -0.00014670753 0.00043353558 0.0004942408 -0.00076185685 -0.0021587657
-0.00024039618 -0.0009012161 -8.5260945e-05 0.00061451487 -5.8838204e-06 -0.0013075268 -0.0009858481 0.00012867551
-0.00035278627 -0.00040069042 -0.0002877605 -0.0003427575 0.001197358 0.0024722414 -0.002107238 -0.000112129346
00000000: f6fd 30ba 33b1 973a 5099 003b 009b c4b9
00000010: 7fd0 14ba dcae c7b8 4307 e1b9 e418 acb9
00000020: 3de2 64ba 037c 9aba 9f3c c2ba 5522 a2b9
00000030: 939d 6ab8 023a a839 2d4e aa3a 5f80 4b39
00000040: 8e7d d9ba bb01 1039 9b9e 8e3a d71c 2fba
00000050: 547f c8ba 5576 98b9 5ac1 ab37 7f0b 8d37
00000060: 1b00 fb39 3cc4 2f39 11ae 2eba eba5 143b
00000070: bcd8 893a 654a 16ba 996e 4eb9 f2de 7fb8
00000080: 77e8 a9ba 6ccb f137 4ded 2e39 bf44 93ba
00000090: 2f14 14ba 4a9c 5dba 4db6 fdb7 a559 a4ba
000000a0: 11c0 0ab8 e180 30ba 471f d8b9 56d3 8e37
000000b0: cf57 f3ba 07f8 8ab9 d8a5 66ba a76e cf39
000000c0: 9edb 013b ed6e e8b8 6f1f c2b9 d168 5e3a
000000d0: 02e0 8cba 9a02 7138 6735 bb38 12ce 7239
000000e0: 9139 eb3a 23f5 beba 1749 8db9 9926 fbb9
000000f0: e4a0 6a3a cdee 603a 6f4d 8dba 14b9 4dba
00000100: 69c7 14b9 f191 19ba 702c 12ba b95d 13ba
00000110: 9919 71ba 3105 17ba fb32 d0ba a95d 3db9
00000120: b586 9eb8 4741 61ba 4c8c b5b9 187e 6eb8
00000130: cac6 b53a e3a4 59ba f225 e4b8 ae7f a6ba
00000140: 4c21 b039 2900 48b7 236b 81ba d852 5bba
00000150: 252e e2b9 5367 58ba 6e5c 0b3a a7b6 14ba
00000160: 1b85 82ba c8bf 5d38 1eef 47ba a143 953a
00000170: e3f2 8dba e5d4 cfb9 575c 0ebb df47 8bb9
00000180: 2b79 493a 9c71 d13a 4802 0dba 8093 e1ba
00000190: e5e8 57ba ccc0 a039 8b35 cb38 d36d c23a
000001a0: 550e 36ba bd7b 4cba a032 4e36 1748 afb9
000001b0: 61a2 a4ba 5376 b438 c294 f9b9 541c 603a
000001c0: be09 393a 5869 86b9 1941 f4b9 07d1 d4ba
000001d0: 21f5 52b9 50b3 e538 2032 1c3b b3e8 4d3a
000001e0: a58a 1039 89ff b33a 05d5 be39 ade4 5639
000001f0: 8b96 0bb9 de30 fab8 84b7 a6b9 8ae4 b539
00000200: 576b a5b9 138b 1eb9 35d1 31b9 919b 243b
00000210: 4820 abba a829 34ba c918 e9b9 9c57 2eba
00000220: d55d 243b 4b05 01ba ad9a 22ba aabb cb3a
00000230: 12c4 573a 8565 d7b9 0bda 88ba 8a3d 2a39
00000240: 760e f738 1a27 7237 f18e 8db6 ff3a 75ba
00000250: 3bf3 03ba 2886 ceba 9a97 b93a f65d 1139
00000260: a667 093a f2aa 8db8 8e6d 36ba 104d d0b9
00000270: 4039 a9b9 b690 15bb 731c 04b9 86c8 d5b9
00000280: 455d 883a 2cc4 c1b9 347c 33b9 b16f b13a
00000290: f26f 1c39 6e52 f7b8 7a41 80b9 7943 78ba
000002a0: d2c9 8c39 1610 0aba cc9a d4ba 1b03 1e3a
000002b0: 4d51 9db9 78e3 c7ba cec2 14ba 7c6d f9b9
000002c0: 16a7 35ba 66f7 2dba 80d1 56ba e250 04bb
000002d0: 38f9 79ba 2dc1 03bb 72ea 3aba 8de4 dfba
000002e0: fd5f a0ba 6071 033b 4faa 0639 b2a9 03ba
000002f0: 5dc6 003a 9f15 d5b8 8582 f636 2502 28bb
00000300: 49d7 ffb9 1004 d3b8 d7f2 12ba a21d 2bba
00000310: 6561 4abb 032c 1539 baa1 f6ba 301f 5aba
00000320: 20a0 72b8 bc76 38ba e557 49b8 e38b 14ba
00000330: 70ec bd3a 1a56 4a3a 1e7e 62ba c678 e9b9
00000340: 1575 1138 42a5 97ba 3288 71ba 0a75 e3b9
00000350: 947c ed39 ca40 0c39 7823 d4ba 87ab 14bb
00000360: 4d9b 5aba a212 7539 78c2 5038 600b 47ba
00000370: 97d3 f539 5f86 8eb8 cefc 1cba 3eb6 3939
00000380: 2ade 35ba bc20 55b8 91e4 12b9 ca55 85ba
00000390: bf6f 0eba 4b51 62b9 9574 033b f06a 4e39
000003a0: 3c6a 22b9 c0c0 2d39 7d23 a839 81d5 19b9
000003b0: 294c e339 f08f 013a 59b7 47ba 147a 0dbb
000003c0: dc12 7cb9 973f 6cba 1fce b2b8 6517 213a
000003d0: a26d c5b6 5261 abba 9337 81ba 12ed 0639
000003e0: 2cf6 b8b9 c213 d2b9 8fde 96b9 22b4 b3b9
000003f0: abf0 9c3a 5405 223b 9619 0abb fc26 ebb8

network_body._body_endoder.seq_layers.2.weight f4 [256, 256]
-0.12087247 0.06425325 0.025290277 0.0316487 -0.10009776 -0.029243452 -0.005484296 -0.07097179
0.0330908 -0.0864474 -0.060881734 0.010681275 -0.008518979 0.033917334 0.052850984 0.13089868
-0.011267067 0.012414523 0.09058031 -0.10066541 -0.0035858508 -0.062104207 -0.05718163 -0.06733363
-0.037983738 0.09818826 -0.005331672 -0.015646502 -0.019504447 0.035561997 -0.020096272 0.054692872
-0.037578512 -0.0019883167 -0.060805302 -0.00936183 -0.030300433 0.030643271 0.07441468 -0.018427508
-0.120629035 -0.037777796 0.06972489 -0.10155885 -0.032545272 -0.054509938 0.12124725 0.09896985
0.094350494 0.03663262 -0.06147503 0.20430337 0.03076814 -0.013748176 0.03080828 0.12191372
0.1025781 0.018660072 0.048067797 -0.06959478 0.0033204176 0.0023225697 -0.014302414 0.05577086
-0.021939214 0.03730833 -0.016267272 0.036742177 0.001512827 -0.003906638 0.048733745 -0.1824752
0.020872643 -0.04201186 0.001028712 0.08888116 -0.08433501 0.10640639 0.037451304 -0.1103037
-0.0066329683 -0.17857794 -0.03590351 -0.025491582 0.05784275 -0.004506873 0.01497721 -0.09576309
-0.13757269 0.09750771 -0.12089308 -0.100052014 -0.010316756 -0.028217148 0.05008481 -0.08584489
-0.017661704 0.012150677 0.09545777 0.0031796517 -0.029531695 -0.09175217 0.042805817 -0.049875792
-0.0025143498 0.004321632 -0.07339512 -0.030707613 0.025826799 0.049572848 0.03583652 -0.070346795
0.07986717 -0.08365598 -0.0015841178 -0.018345071 0.023837352 -0.051421907 -0.0037974366 -0.015849901
0.06988188 0.038200926 -0.085485764 -0.012715175 0.041636296 0.020616481 0.039631177 0.048578907
0.11517625 -0.039866734 -0.08379679 -0.021221386 0.049352754 -0.053882625 -0.032352027 -0.0576381
-0.03371266 -0.061089948 -0.02295028 -0.02512864 -0.1094309 -0.059509855 0.07532331 0.022201719
-0.026496343 0.04055371 -0.050814472 -0.022906419 0.10126705 -0.09018959 0.028560845 -0.013405463
0.07360204 -0.046758335 -0.05419684 -0.14759466 0.060666706 -0.116612375 0.05575883 0.07839856
0.067473985 -0.09005423 0.013877829 -0.13192855 0.1818515 0.111466534 -0.15097496 0.005168543
0.050298683 0.02248874 0.066924125 -0.042423382 0.030864442 0.04869131 0.15397376 0.061616156
-0.06313237 0.04476953 -0.054960456 0.055232003 0.045183502 0.096428014 0.06705377 -0.012078317
-0.00029537256 -0.045192152 -0.008590672 -0.09231638 0.09588838 0.035645597 0.025231509 0.035219386
0.01493418 0.024280334 0.0034996918 0.02954796 0.06419887 -0.019469725 0.023203501 0.021734798
0.10754973 -0.04095747 -0.024862025 0.050815795 0.082763605 -0.07476091 -0.04726057 0.09323914
-0.052046504 -0.0111505035 0.008987261 -0.041753765 -0.04584962 -0.034008227 -0.04239102 0.07716327
-0.044956762 0.024979608 -0.05104494 0.036136232 -0.03543364 0.016286839 -0.10271947 0.0026135242
-0.063823596 0.051518206 0.056546032 0.036828697 0.005770979 -0.09884909 -0.027563661 -0.025377188
-0.037967436 0.013355855 -0.08984317 -0.019282224 0.06980906 0.04625475 -0.1148337 -0.063794054
-0.04454753 0.04242926 -0.02310181 -0.043759134 -0.026587276 0.10124833 -0.04628619 0.03307363
-0.045785327 0.04822513 -0.027603755 0.10054275 -0.107316665 -0.05351914 -0.010036641 -0.036582377
00000000: fc8b f7bd 3597 833d 8e2d cf3c 11a2 013d
00000010: 0e00 cdbd f78f efbc 9cb5 b3bb a859 91bd
00000020: 388a 073d 560b b1bd 205f 79bd 8400 2f3c
00000030: 3093 0bbc e7ec 0a3d 467a 583d 4e0a 063e
00000040: 8199 38bc 4966 4b3c 2b82 b93d ab29 cebd
00000050: 9800 6bbb fb60 7ebd 4937 6abd 37e6 89bd
00000060: d694 1bbd ed16 c93d 4eb5 aebb 182d 80bc
00000070: cac7 9fbc 75a9 113d f0a0 a4bc a205 603d
00000080: edeb 19bd 6b4e 02bb fb0e 79bd 5c62 19bc
00000090: 9d38 f8bc 9907 fb3c b966 983d 49f5 96bc
000000a0: 5b0c f7bd e4bc 1abd eccb 8e3d 16fe cfbd
000000b0: 314e 05bd d045 5fbd 7a50 f83d b4b0 ca3d
000000c0: d53a c13d 160c 163d 3ecd 7bbd e734 513e
000000d0: 770d fc3c 0840 61bc a561 fc3c e7ad f93d
000000e0: 7814 d23d 02dd 983c bde2 443d b587 8ebd
000000f0: 5d9b 593b 4136 183b ac54 6abc fc6f 643d
00000100: deb9 b3bc 9fd0 183d f142 85bc f77e 163d
00000110: 0d4a c63a 4103 80bb 099d 473d c7da 3abe
00000120: 1bfd aa3c a114 2cbd d9d5 863a 5307 b63d
00000130: d5b7 acbd 98eb d93d 8a66 193d e8e6 e1bd
00000140: 5f59 d9bb 23dd 36be 8f0f 13bd b9d3 d0bc
00000150: 85ec 6c3d 64ae 93bb f962 753c 701f c4bd
00000160: dbdf 0cbe 1fb2 c73d cb96 f7bd 12e8 ccbd
00000170: 9c07 29bc a627 e7bc bb25 4d3d 72cf afbd
00000180: 47af 90bc a213 473c 5d7f c33d b461 503b
00000190: 74ec f1bc 90e8 bbbd 2755 2f3d 8f4a 4cbd
000001a0: cac7 24bb 7a9c 8d3b 2e50 96bd 888e fbbc
000001b0: b992 d33c e60c 4b3d 51c9 123d fb11 90bd
000001c0: 6691 a33d d453 abbd 2ca2 cfba 6748 96bc
000001d0: 8d46 c33c c79f 52bd 6ade 78bb a7d7 81bc
000001e0: 3b1e 8f3d 9378 1c3d 2913 afbd 4f53 50bc
000001f0: d28a 2a3d e5e3 a83c 4d54 223d adfa 463d
00000200: 87e1 eb3d 4d4b 23bd a79d abbd 79d8 adbc
00000210: 1d26 4a3d 07b4 5cbd 8f83 04bd ee15 6cbd
00000220: 4916 0abd 7439 7abd 3a02 bcbc 94da cdbc
00000230: 4f1d e0bd 9bc0 73bd 1c43 9a3d 61e0 b53c
00000240: dc0e d9bc a61b 263d d622 50bd 3ea6 bbbc
00000250: 1965 cf3d 52b5 b8bd 6ff8 e93c 96a2 5bbc
00000260: abbc 963d ab85 3fbd 81fd 5dbd 0e23 17be
00000270: a77d 783d 78d2 eebd 5f63 643d 6d8f a03d
00000280: cd2f 8a3d 5a6e b8bd d55f 633c 4718 07be
00000290: 4837 3a3e 9148 e43d 2e99 1abe e25c a93b
000002a0: fe05 4e3d 4e3a b83c 840f 893d 24c4 2dbd
000002b0: 6dd7 fc3c 8a70 473d 4cab 1d3e 3961 7c3d
000002c0: 8b4b 81bd 4160 373d 371e 61bd f43a 623d
000002d0: 5612 393d 0d7c c53d 7d53 893d 22e4 45bc
000002e0: 3cdc 9ab9 681b 39bd e4bf 0cbc 5f10 bdbd
000002f0: 2161 c43d 1e01 123d 4fb2 ce3c 3442 103d
00000300: 7eae 743c 8de7 c63c 165b 653b 900e f23c
00000310: b27a 833d f97e 9fbc 4515 be3c 2d0d b23c
00000320: 0843 dc3d 05c3 27bd 72ab cbbc 3924 503d
00000330: f77f a93d 3f1c 99bd 4d94 41bd 2af4 be3d
00000340: b72e 55bd 9ab0 36bc 4e3f 133c ff05 2bbd
00000350: d0cc 3bbd 364c 0bbd 35a2 2dbd c707 9e3d
00000360: 9524 38bd 09a2 cc3c 8014 51bd 9603 143d
00000370: dd22 11bd fa6b 853c 965e d2bd a947 2b3b
00000380: f2b5 82bd c104 533d d09c 673d b0d9 163d
00000390: 7b1a bd3b 6471 cabd 30cd e1bc d2e3 cfbc
000003a0: be83 1bbd 84d2 5a3c b2ff b7bd c1f5 9dbc
000003b0: 0df8 8e3d 9f75 3d3d ee2d ebbd 75a6 82bd
000003c0: 7977 36bd 4eca 2d3d 0240 bdbc c73c 33bd
000003d0: 8fcd d9bc 495b cf3d 9796 3dbd 3778 073d
000003e0: 6589 3bbd b787 453d 4521 e2bc 5be9 cd3d
000003f0: d7c8 dbbd e336 5bbd b970 24bc 67d7 15bd

network_body._body_endoder.seq_layers.4.bias f4 [256]
-0.0002006591 -0.00031147848 -0.0015202314 0.00054813904 0.0018570828 -0.00018318207 -3.381415e-05 -2.775158e-05
-4.232892e-05 0.00018734856 0.001507052 -0.00020046087 -2.8462857e-05 0.0011189445 -0.00075765175 0.0016232
-0.00040667123 -0.00040231302 -0.0013570797 -0.00037908822 -0.00036101218 0.0001792532 -0.00012495759 -0.0005184434
-0.0003103019 -0.00015295987 0.00010116321 -0.0008145046 -0.00060138234 0.000479166 -0.00044489178 -0.0002688376
-0.00014938327 3.189902e-05 -0.00017327645 -8.7781766e-05 -0.000605262 0.0005483022 -0.00058649544 -0.00058843195
-0.0007915832 0.00062069757 0.00029075376 -0.00010654587 7.692735e-05 -0.0025354945 -0.0002600371 -0.00030463247
0.0003382725 -0.00026616588 0.00035302696 2.6086284e-06 -0.00032322938 -0.00020016532 -0.00014696433 0.00010951194
0.00010123246 -0.00030396334 -0.0003828765 0.00017236742 0.00017391093 -0.00042336193 5.7950485e-05 -0.00035174887
-2.7994698e-05 -0.00013256115 -0.0003425997 -0.00020388344 1.40453885e-05 3.1556945e-06 -0.00022774852 -1.9358986e-05
0.0002592235 -6.3048254e-05 -0.00084926176 0.0016370252 -0.00047342223 -0.0006702183 0.00010153946 -0.0003776362
-0.00036952153 -2.5326239e-05 0.00021127879 -0.00018094464 -0.0004169314 -8.965979e-05 8.714144e-05 -0.00015085489
0.00037540356 0.00020296975 -0.00014993813 -0.0006169557 0.0002491591 -0.00066063885 -0.00039457885 0.00042217693
-0.00010247703 0.002367533 0.0011971416 0.00027370837 3.36318e-05 -0.0005362258 -0.00023634364 -0.0013144806
-0.00029782747 -0.00046449716 0.000148324 -0.0007291171 -0.00083006074 -0.00035952262 0.00044150607 0.0001404492
-0.00023887314 0.00031884902 -0.001750937 0.000184622 -8.296103e-06 -0.00043242762 -0.0001970399 -0.00013149875
-0.00032161226 -3.742871e-05 0.00080733374 -0.00060366385 -0.00014643634 -4.6510704e-06 -0.00013429411 0.001186134
0.00036085045 -0.00025000345 0.0004825344 -0.0034189299 -0.0013582719 -0.00017913785 0.0016715231 -0.0004850937
0.0008590825 0.001364405 0.00016593849 -0.0016552282 -0.0013140182 0.0011056584 0.00021178772 0.00084108324
-0.00013754607 0.000556286 -0.00076599437 0.0014474435 -7.048987e-05 9.335531e-05 0.00066877477 0.0001793741
-0.00016142846 -5.0990213e-05 -0.001503813 0.00024587588 0.0010481009 0.0028171905 -0.00031285893 0.00038297777
-0.00046955902 0.0008408035 -2.3361239e-05 0.0001717808 -2.5154899e-05 0.00038780287 -0.00042192327 9.7232325e-05
-0.00072233425 -0.00036346514 0.0011845018 -0.000278883 -2.6118716e-05 0.00051366363 -0.0006067783 -0.00031901442
-0.00033521332 -0.00071832887 0.0002201284 -0.0003503108 -2.5396239e-05 0.0009198384 0.00010197421 -0.000683821
-0.0004081365 -0.00022564876 -0.0004453977 -5.8216057e-05 -0.00071785465 0.00013018517 4.5398312e-05 -0.00062780536
-0.0002593716 0.00015650371 -0.00013865126 1.7553766e-05 -0.00050211756 -9.293709e-05 -0.00015276551 -0.002571077
-0.00041832443 -2.9850302e-05 0.0013917569 0.00037638415 3.913075e-05 -0.00014282414 -0.0009219306 7.994181e-06
0.0007210954 -0.00017175317 9.203186e-05 9.805472e-05 1.6836435e-05 2.7175149e-05 0.0001651296 -0.00025104207
-3.192478e-05 -0.00037474852 0.00071887736 -0.00011094768 -0.00068887055 -4.8038728e-05 0.00012566749 -0.000111411755
-0.0015248003 0.00036721493 0.00013808905 -0.0023233427 1.6601214e-05 -0.0002547355 8.781692e-06 -0.0005510826
-0.00042661218 5.4174143e-05 0.0012038467 0.00010647923 -0.00021399785 -5.453926e-05 -0.00031427038 0.00039677395
-0.00048017813 -0.00039421712 -6.571819e-05 2.6648888e-05 -0.00025647163 0.00011081977 -0.00013577251 -0.00029291943
0.00025237218 -0.0002784332 -0.00060210767 -0.00017761727 -0.00015073946 -0.00019093549 -0.0014982349 -0.00037436726
00000000: 0468 52b9 ef4d a3b9 8042 c7ba fdb0 0f3a
00000010: 5c69 f33a 9014 40b9 abd3 0db8 10cc e8b7
00000020: 558a 31b8 ff72 4439 4688 c53a ce32 52b9
00000030: 85c3 eeb7 8ca9 923a 269d 46ba 8ec1 d43a
00000040: 7d36 d5b9 8aed d2b9 0ae0 b1ba 5cc0 c6b9
00000050: 3c46 bdb9 eaf5 3b39 0c07 03b9 26e8 07ba
00000060: 04b0 a2b9 da63 20b9 9627 d438 7a84 55ba
00000070: 16a6 1dba 9238 fb39 5d40 e9b9 c6f2 8cb9
00000080: c4a3 1cb9 50cb 0538 8bb1 35b9 7a17 b8b8
00000090: 72aa 1eba f0bb 0f3a 0bbf 19ba 0041 1aba
000000a0: 4082 4fba 4fb6 223a 4f70 9839 6171 dfb8
000000b0: 0e54 a138 8a2a 26bb 9755 88b9 14b7 9fb9
000000c0: 2b5a b139 2e8c 8bb9 7a16 b939 e50f 2f36
000000d0: 1d77 a9b9 78e3 51b9 701a 1ab9 c6a9 e538
000000e0: c34c d438 455d 9fb9 d0bc c8b9 87bd 3439
000000f0: dc5b 3639 adf6 ddb9 dc0f 7338 ef6a b8b9
00000100: 28d6 eab7 1d00 0bb9 f49e b3b9 8bc9 55b9
00000110: 7ca4 6b37 6bc6 5336 c7cf 6eb9 1b65 a2b7
00000120: 64e8 8739 c638 84b8 fea0 5eba 7391 d63a
00000130: a835 f8b9 97b1 2fba 95f1 d438 79fd c5b9
00000140: 57bc c1b9 af73 d4b7 b88a 5d39 f5bb 3db9
00000150: 9697 dab9 bc07 bcb8 b4bf b638 cd2e 1eb9
00000160: d0d1 c439 47d4 5439 b638 1db9 32bb 21ba
00000170: 91a1 8239 b92e 2dba 7adf ceb9 a157 dd39
00000180: f0e8 d6b8 9d28 1b3b 68e9 9c3a 8480 8f39
00000190: df0f 0d38 8191 0cba 03d3 77b9 a64a acba
000001a0: ba25 9cb9 c187 f3b9 6c87 1b39 3822 3fba
000001b0: 6f98 59ba 4f7e bcb9 f179 e739 8c45 1339
000001c0: 057a 7ab9 312b a739 b27f e5ba 1797 4139
000001d0: 7e2f 0bb7 74b7 e2b9 7f9c 4eb9 ede2 09b9
000001e0: 119e a8b9 c5fc 1cb8 40a3 533a 323f 1eba
000001f0: b58c 19b9 6410 9cb6 4dd1 0cb9 0d78 9b3a
00000200: 8730 bd39 e512 83b9 acfc fc39 2010 60bb
00000210: 0b08 b2ba f3d6 3bb9 0217 db3a 2d54 feb9
00000220: 0d34 613a d6d5 b23a c6ff 2d39 3ef4 d8ba
00000230: 223b acba bdeb 903a 5513 5e39 247c 5c3a
00000240: 3e3a 10b9 b9d3 113a 03cd 48ba 25b8 bd3a
00000250: f6d3 93b8 c0c7 c338 b750 2f3a 5e16 3c39
00000260: 1f45 29b9 53de 55b8 971b c5ba e7e8 8039
00000270: 6e60 893a 9da0 383b 3707 a4b9 68ca c839
00000280: 252f f6b9 5e69 5c3a e1f7 c3b7 0f20 3439
00000290: bc03 d3b7 0552 cb39 9535 ddb9 35e9 cb38
000002a0: 085b 3dba 778f beb9 4941 9b3a 0b37 92b9
000002b0: 8419 dbb7 62a7 063a 3410 1fba 6441 a7b9
000002c0: 92bf afb9 3c4e 3cba 44d2 6639 eba9 b7b9
000002d0: 020a d5b7 4f21 713a fdda d538 7342 33ba
000002e0: 27fb d5b9 219c 6cb9 4484 e9b9 042d 74b8
000002f0: 692e 3cba 5182 0839 116a 3e38 4e93 24ba
00000300: 44fc 87b9 251b 2439 ea62 11b9 6d40 9337
00000310: 8aa0 03ba 38e7 c2b8 ae2f 20b9 847f 28bb
00000320: 8e52 dbb9 0967 fab7 9d6b b63a 6d55 c539
00000330: 5320 2438 10c3 15b9 b7ad 71ba bf1e 0637
00000340: e507 3d3a a418 34b9 3b01 c138 baa2 cd38
00000350: f83b 8d37 30f6 e337 a426 2d39 4c9e 83b9
00000360: f9e6 05b8 e579 c4b9 0b73 3c3a 95ac e8b8
00000370: 5295 34ba 317d 49b8 9cc5 0339 bba5 e9b8
00000380: cfdb c7ba c186 c039 ffcb 1039 3943 18bb
00000390: d642 8b37 058e 85b9 1455 1337 8776 10ba
000003a0: ebaa dfb9 0b39 6338 64ca 9d3a 9a4d df38
000003b0: 9c64 60b9 16c1 64b8 a8c4 a4b9 1906 d039
000003c0: 6bc0 fbb9 edae ceb9 2fd2 89b8 0d8c df37
000003d0: 0a77 86b9 e967 e838 285e 0eb9 fb92 99b9
000003e0: d250 8439 acfa 91b9 c3d6 1dba c63e 3ab9
000003f0: d10f 1eb9 db35 48b9 6c60 c4ba b946 c4b9

network_body._body_endoder.seq_layers.4.weight f4 [256, 256]
0.012517422 -0.107986085 -0.035865653 -0.0022838314 0.0055534192 -0.00081705226 -0.05526775 -0.074163854
0.0807216 -0.20238446 -0.021839889 -0.055050153 0.02066282 0.04174424 0.07424137 0.036276534
-0.0393562 0.029635401 -0.05081196 0.0340644 -0.05426926 0.012728715 -0.04691879 0.028580355
-0.034036875 -0.042874362 0.03693714 -0.03629511 0.0732062 0.066045836 0.015008525 -0.07896013
-0.09699956 0.0056850403 0.04931198 -0.0843645 0.018588882 -0.07595156 0.01054892 0.020990407
-0.001551231 -0.075524725 0.020975033 0.0582079 0.0816389 -0.04178636 0.045390613 -0.047984704
-0.032297537 0.031113947 -0.007947031 0.0036487945 0.07239576 0.09487171 -0.061539486 0.032078803
0.05801513 0.018036526 -0.017602796 -0.0108590815 -0.1448155 0.015817234 0.056773383 -0.12083027
-0.02945527 -0.06466494 0.05544848 0.00076276885 -0.03023201 0.025796073 0.078928314 -0.056924768
-0.068993896 -0.11340364 0.031098194 -0.0013022526 0.023132214 -0.018738573 0.010565609 0.011029646
-0.012252449 0.04483436 -0.043777887 -0.031324614 -0.022550242 0.023753311 -0.038710415 -0.030691423
-0.04067776 -0.0076507307 0.055082258 0.053697616 0.02107666 0.00013680264 0.042455047 0.028114507
0.038376093 0.039181303 -0.056710415 -0.06306885 -0.077252224 -0.007897701 0.036982242 -0.09871611
-0.081582606 0.05095016 -0.05137866 0.010141526 0.047760587 -0.0116636455 0.0028032502 -0.06265113
-0.0046809823 -0.04314485 0.05742673 0.12822053 -0.11773998 0.0029530202 0.024007201 -0.088983536
0.013576432 -0.011319951 0.050087266 0.07537197 -0.051446803 -0.06961619 0.1082031 -0.059065964
-0.06424392 -0.03647987 -0.013255102 -0.036677904 -0.020359073 0.09193075 0.0210891 -0.002052414
-0.09219331 0.04890264 0.031988665 0.022692952 0.0013501914 0.017647797 -0.04926485 -0.04317239
-0.0027864182 0.07341973 0.11201307 0.035826206 -0.04464606 -0.05497285 0.050177194 0.04805269
0.016783442 -0.022254378 0.017029187 -0.07239834 -0.07652099 -0.065746516 -0.0048511014 0.053563014
0.03093055 0.07222364 -0.044632636 -0.030771615 -0.065104075 -0.06407681 -0.1667363 -0.007280457
-0.024441063 0.039224636 0.06439913 0.004507199 0.01892264 0.061830964 -0.060905565 -0.027993456
-0.056405634 0.061169587 -0.18223196 -0.06346852 -0.039920863 0.04003953 0.006537643 -0.17049882
-0.037082735 0.076033466 0.013047335 0.11666785 0.05097685 0.06383486 0.06619752 -0.018120183
0.071604185 -0.033787414 0.030162258 0.039907776 0.03219094 -0.0068639545 -0.008769706 -0.06506596
-0.072921984 0.12069258 0.054978848 -0.11808051 -0.03620249 -0.06582716 -0.045821674 -0.019001093
-0.0032915375 0.08103003 0.11595834 0.04790576 -0.054217987 0.0042247823 0.003510589 0.012422033
-0.039303858 0.002211414 0.08428154 0.075295 -0.009510192 0.013597712 -0.052034777 -0.053492405
0.14405195 -0.0704967 -0.041954916 -0.0047969604 -0.053168416 -0.1643763 0.020095922 -0.043687034
0.07697747 -0.007148448 -0.07542503 0.011946255 0.121902175 0.11630236 -0.060187522 -0.010584037
-0.03818326 0.009521916 -0.0065365355 -0.041196138 -0.02743601 -0.065872125 -0.014231251 -0.023177719
-0.023689058 -0.04320542 -0.047885034 -0.083144315 -0.087151796 0.14423878 -0.00176427 -0.033278655
00000000: e015 4d3c cf27 ddbd dde7 12bd 55ac 15bb
00000010: 75f9 b53b 732f 56ba 7060 62bd 38e3 97bd
00000020: 5e51 a53d df3d 4fbe 91e9 b2bc 457c 61bd
00000030: 1345 a93c 02fc 2a3d dc0b 983d b496 143d
00000040: f733 21bd f1c5 f23c 3420 50bd 1d87 0b3d
00000050: 7249 5ebd 1a8c 503c eb2d 40bd 5921 ea3c
00000060: 406a 0bbd 079d 2fbd 664b 173d 2eaa 14bd
00000070: 22ed 953d 0a43 873d 51e6 753c d9b5 a1bd
00000080: b5a7 c6bd 9349 ba3b 5cfb 493d 4cc7 acbd
00000090: b647 983c 7e8c 9bbd 61d5 2c3c 13f4 ab3c
000000a0: ad52 cbba b5ac 9abd d5d3 ab3c 686b 6e3d
000000b0: 4c32 a73d 2d28 2bbd 82eb 393d 9c8b 44bd
000000c0: 6c4a 04bd ade2 fe3c 4434 02bc 9d20 6f3b
000000d0: 3a44 943d 194c c23d d410 7cbd 1065 033d
000000e0: 46a1 6d3d 56c1 933c bd33 90bc 4aea 31bc
000000f0: 844a 14be 2593 813c 358b 683d dc75 f7bd
00000100: 2e4c f1bc 0d6f 84bd f21d 633d 8df4 473a
00000110: 1fa9 f7bc 4952 d33c 2ba5 a13d f229 69bd
00000120: ac4c 8dbd 2b40 e8bd a4c1 fe3c 59b0 aaba
00000130: c57f bd3c a381 99bc 601b 2d3c b0b5 343c
00000140: 7fbe 48bc 3ca4 373d 7150 33bd 3d4e 00bd
00000150: 49bb b8bc 4e96 c23c d08e 1ebd 946c fbbc
00000160: b99d 26bd fbb2 fabb ef9d 613d 08f2 5b3d
00000170: f6a8 ac3c ae72 0f39 58e5 2d3d 6550 e63c
00000180: 4030 1d3d 937c 203d 2e49 68bd 3e2a 81bd
00000190: 6a36 9ebd 5c65 01bc b17a 173d ac2b cabd
000001a0: c814 a7bd 1db1 503d 6e72 52bd a528 263c
000001b0: 9ba0 433d e018 3fbc bcb6 373b 3c4f 80bd
000001c0: ed62 99bb a7b8 30bd 4a38 6b3d 3e4c 033e
000001d0: a921 f1bd 7587 413b c0aa c43c 003d b6bd
000001e0: af6f 5e3c 5177 39bc 4e28 4d3d 9f5c 9a3d
000001f0: e2b9 52bd ef92 8ebd 9699 dd3d 27ef 71bd
00000200: 5192 83bd eb6b 15bd ed2b 59bc 923b 16bd
00000210: 12c8 a6bc 3046 bc3d 0cc3 ac3c cb81 06bb
00000220: d9cf bcbd 224e 483d 8c06 033d 92e6 b93c
00000230: e8f8 b03a 1d92 903c f0c9 49bd 88d5 30bd
00000240: 579c 36bb 155d 963d 1c67 e53d 80be 123d
00000250: c9de 36bd 362b 61bd 9a86 4d3d e6d2 443d
00000260: 6e7d 893c d04e b6bc cb80 8b3c 9545 94bd
00000270: 09b7 9cbd 1ca6 86bd fdf5 9ebb e464 5b3d
00000280: 1162 fd3c fde9 933d b6d0 36bd c114 fcbc
00000290: 4955 85bd b43a 83bd ecbc 2abe e690 eebb
000002a0: a038 c8bc 03aa 203d b1e3 833d 20b1 933b
000002b0: a703 9b3c 7742 7d3d 1d78 79bd 8852 e5bc
000002c0: 9809 67bd f68c 7a3d 049b 3abe c9fb 81bd
000002d0: 0f84 23bd 7d00 243d b939 d63b 3e97 2ebe
000002e0: 11e4 17bd 6fb7 9b3d 7dc4 553c 8eef ee3d
000002f0: 1acd 503d dabb 823d 9192 873d c770 94bc
00000300: 37a5 923d ac64 0abd d716 f73c 5676 233d
00000310: a6da 033d 06eb e0bb d0ae 0fbc 4d41 85bd
00000320: 1f58 95bd ac2d f73d 8031 613d 32d4 f1bd
00000330: 1049 14bd 64d0 86bd 82af 3bbd 2ea8 9bbc
00000340: d6b6 57bb 13f3 a53d 917b ed3d d538 443d
00000350: ae13 5ebd 0b70 8a3b e911 663b c885 4b3c
00000360: 15fd 20bd 5fed 103b cd9b ac3d 4434 9a3d
00000370: a3d0 1bbc f0c8 5e3c 6b22 55bd da1a 5bbd
00000380: 5b82 133e 9360 90bd ebd8 2bbd d22f 9dbb
00000390: 20c7 59bd 4352 28be 34a0 a43c 2df1 32bd
000003a0: 5da6 9d3d 873d eabb 7078 9abd 3aba 433c
000003b0: d9a7 f93d ef2f ee3d 3187 76bd ab68 2dbc
000003c0: 0d66 1cbd cf01 1c3c 6f30 d6bb 48bd 28bd
000003d0: 7cc1 e0bc f7e7 86bd 312a 69bc 33df bdbc
000003e0: 8e0f c2bc 2bf8 30bd 1923 44bd 9147 aabd
000003f0: a47c b2bd 55b3 133e 143f e7ba 334f 08bd
