results/ppo/MoveToGoal/MoveToGoal-12545.pt (torch, 440375 bytes, 40 tensors)

discrete_act_size_vector f4 [1, 2]
00000000: 0000 8040 0000 0040
4.0 2.0

network_body._body_endoder.seq_layers.0.weight f4 [128, 4]
00000000: 5c92 4cbf 9b82 093f aa1d 6fbe 24f8 a6be
00000010: 732b b23e 62d3 83bf 5f3d 1ebf 1bd4 e2be
00000020: b5a1 dc3d eea2 55bf d6e1 d63d 88d6 1e3e
00000030: 0349 50bf 7549 8cbf e83d 9e3e 7315 b53d
00000040: c608 8b3e dc2b 2fbf 3a4b 09be 8691 073f
00000050: e90c 57bf ae1f 8bbe 04d8 063f 36c1 4dbf
00000060: 8425 093f 3a92 0d3f 1ac2 87bc b899 d03e
00000070: 8cd1 ebbd 3257 c5be 4800 e1be 0172 273f
00000080: 5ef2 20bf f7f4 a6be c9fa b93e 2778 b23f
00000090: 1a85 e93c 090e 813e fc37 9ebe 192b dcbd
000000a0: 46e0 05bd 1698 a6be 5969 103f 7380 88be
000000b0: 09d1 193c 3e3a 1f3f f3be b63e c65f f6bd
000000c0: 3e73 043e f320 8cbe fe3b 063e 6310 33be
000000d0: 9559 093e 62ee 3cbe 8f96 ba3c 2710 c2be
000000e0: f934 c0be e0ce 1dbd aad0 04bd 4820 b63e
000000f0: a0fd 343e 8d6e c73c a740 483d 7361 9db8
00000100: 6871 783e 8ff5 1fbe cbcf 65be 152a 54be
00000110: ef96 f6bd 0992 4dbf db41 d1be d5cd 053e
00000120: feb4 3abf 4873 a3be 0ed4 c03e 7545 adbd
00000130: 7988 5fbd ab28 adbe feff 5bbd 94bd c7bd
00000140: c1fc 103f b5a8 07be 7466 bb3d d1cc bc3e
00000150: 485f c33e 1863 9cbe d606 b8be aa3e 53bf
00000160: f648 283f 47a3 d5be f656 523f f0b8 d2bf
00000170: 1f20 74bf e5f6 023f 27d2 343f 8653 d9bd
00000180: d622 5c3e 0110 c43e 0a0e d63e 6807 783e
00000190: c62a e2bd 8ce6 34be 109a a9bf 9ac2 9bbe
000001a0: 5ea7 c13e 4bc0 1abe b43c 003e 5c2a e63d
000001b0: 660d eb3c fcb4 b5be 4025 d7bd 2af7 c03e
000001c0: 33bb edbd d930 353e 2503 b83e c002 7c3e
000001d0: ed2f e3be ac34 42bd 9c82 a53e 693b 60bf
000001e0: c0aa f7bd a437 243e bb0a 11be 46c4 45bf
000001f0: 9ee0 55be 3198 ca3e d009 bc3e f791 a1be
00000200: 53a9 f7be 76a8 debe 13db afbe 158e edbd
00000210: df80 21bf d156 903e 20c0 55bf 08b5 57bf
00000220: cfb1 a03e 2714 633d 9585 cebe f91b 3c3e
00000230: 19e2 873e 5b14 43be d1e7 14bf 377a 323f
00000240: 23cd 363e 104c 833e a608 053f ac51 bd3e
00000250: 79e3 f4bd 6439 03bf 01d0 02bd 19d2 44bf
00000260: 4a9d f8be cee7 a53e 6fec 92ba 4913 0d3f
00000270: ed3e 593f d9d6 cfbe 7f31 d2be 63a0 48be
00000280: cce9 88ba c0f1 32bf 8b23 d03e 49e4 c53b
00000290: e55d a53e 096f d53e c66b 42bf 809d 96be
000002a0: 1a03 3ebf 7dde 503e 7cca 583f 1aee d73d
000002b0: 914c 58bf 54f5 9a3d d584 643e 6cd4 3abf
000002c0: f3fd 783d dd52 73be 715d f73e 7a4a 2bbe
000002d0: 7743 643f b3af f83d 5299 3cbe 1a4d edbd
000002e0: 18f2 9d3d c778 63bf 0a6a 493f 6513 6bbf
000002f0: 4705 243f c4ac 8b3e 8f27 5dbe 0a46 a8bf
00000300: 3b5e 22bf deea a3be fcac 1e3f cb32 3e3e
00000310: e674 3fbd 4551 6c3f d389 783e 552b d33e
00000320: ff55 7b3e f38a 8bbe 92f8 f9bd c4ce 5fbe
00000330: 9a1a 21bf f46d b03e 17a9 14bf 5d62 553e
00000340: 002b 26bf 98d0 1a3e 9340 df3d f395 fa3e
00000350: bb06 c8bb 225c 443f 1085 6a3e 7704 7dbf
00000360: 470a 3cbe 8796 82be ac71 853e dd8d 0e3f
00000370: c90c 5dbc 218b 0bbc b9e3 22bb 12f3 54bf
00000380: 9dfe f8bc c8aa 92be 7425 a5bf 801d dfbe
00000390: 1899 183f ad05 853f a2e6 8c3e 9885 c4bc
000003a0: 83ce efbd 338c 2bbf ab79 fd3a 8095 813e
000003b0: e1b4 6dbe 8e2a d4be c136 88be f02e c9be
000003c0: 87ed dd3e 9c4f 76be ea93 6d3f 5ad4 04bf
000003d0: 15fa b2bd 1176 223e 9817 1a3f 4c3e 56be
000003e0: 1422 3ebf f58c 97be d666 743b 93c7 6d3f
000003f0: 3db5 6dbd f250 0bbf dd71 a9bd 18be c2be
-0.79910827 0.53714913 -0.2335116 -0.3261119 0.34798774 -1.0298884 -0.61812395 -0.4430245
0.10773031 -0.83451736 0.104922935 0.15511525 -0.8136141 -1.0959917 0.30906606 0.08841982
0.2715513 -0.684263 -0.13407603 0.52956426 -0.84004074 -0.27172607 0.52673364 -0.8037294
0.5357287 0.5530125 -0.016572047 0.40742278 -0.11514577 -0.38543087 -0.43945527 0.6540833
-0.6286982 -0.32608768 0.36324146 1.3942918 0.02850585 0.2520602 -0.30902088 -0.10750408
-0.032684587 -0.32537907 0.5641075 -0.266605 0.009388217 0.62198246 0.35692558 -0.12029986
0.12934586 -0.27368888 0.13108823 -0.1748672 0.13413079 -0.18450311 0.02277687 -0.37902948
-0.37540415 -0.03852737 -0.03242556 0.35571504 0.17674875 0.024344707 0.048889782 -7.504495e-05
0.24262011 -0.15621017 -0.22442548 -0.20719178 -0.12040507 -0.80300957 -0.40870556 0.130668
-0.7293242 -0.3192389 0.37661785 -0.084605135 -0.05457351 -0.3382009 -0.05371093 -0.09752956
0.5663567 -0.1324795 0.09150401 0.36875013 0.3815863 -0.30544353 -0.35942715 -0.8251749
0.6573633 -0.41726133 0.8216394 -1.6462688 -0.9536151 0.5115798 0.7063317 -0.10611634
0.21497664 0.3829346 0.41807586 0.24221575 -0.11043315 -0.17666072 -1.3250141 -0.30421907
0.37823004 -0.15112416 0.12523156 0.11238548 0.028692912 -0.35489643 -0.10505152 0.3768857
-0.11607971 0.17694415 0.359399 0.24610424 -0.44372502 -0.047413513 0.3232621 -0.8759065
-0.12093115 0.1603685 -0.1416425 -0.77252614 -0.20886466 0.39569238 0.36726236 -0.31556675
-0.48371372 -0.434879 -0.34346828 -0.115993656 -0.63087267 0.28191236 -0.83496284 -0.84260607
0.31385657 0.05543914 -0.4033629 0.18370046 0.26539686 -0.19050734 -0.58166224 0.69717735
0.17851691 0.2564397 0.5196632 0.36976373 -0.119574495 -0.51259446 -0.03193665 -0.76883084
-0.48557502 0.32403415 -0.0011209379 0.5510755 0.8486164 -0.40593603 -0.41053388 -0.19592433
-0.0010445653 -0.6990013 0.40652117 0.0060391766 0.32298198 0.41686276 -0.759457 -0.29417038
-0.7422348 0.20397373 0.84683967 0.10543461 -0.8449183 0.07566324 0.22316296 -0.7298038
0.06078906 -0.23762079 0.48313478 -0.1672763 0.89165443 0.12142887 -0.18417862 -0.115869716
0.07712191 -0.88856167 0.7867743 -0.9182647 0.6407055 0.27280247 -0.21597122 -1.3146374
-0.63425034 -0.32015127 0.61982703 0.18574063 -0.046742342 0.9231151 0.24271326 0.41243997
0.24544524 -0.27254447 -0.12205614 -0.21856219 -0.62931216 0.34458888 -0.5807051 0.20838304
-0.6490936 0.15118635 0.109009884 0.48942527 -0.006104318 0.76703084 0.22902322 -0.9883494
-0.18363295 -0.25505468 0.26063287 0.55685216 -0.013491818 -0.008517058 -0.0024854972 -0.83183396
-0.030394847 -0.2864592 -1.2902055 -0.43577194 0.596086 1.0392357 0.2751971 -0.023989484
-0.11709311 -0.670108 0.0019338628 0.25309372 -0.23213531 -0.41438717 -0.26604274 -0.39293623
0.4334528 -0.24053806 0.92803824 -0.5188652 -0.087391056 0.15865351 0.6019225 -0.20922202
-0.7427075 -0.2959973 0.003729274 0.9288265 -0.05803417 -0.5442039 -0.08273671 -0.38035655

network_body._body_endoder.seq_layers.0.bias f4 [128]
00000000: cc8f aebb d815 a13a 80aa abb7 d4ef cebb
00000010: 27e9 86ba 2b0e bb3a 7656 263b 53e1 cdbb
00000020: 7fd8 b2bb 545c ef3b e682 15ba a605 313a
00000030: 577f 70bb 54b4 15ba bbdd 7dbb 9304 a8bb
00000040: 8a11 493b b0df b93b 66eb c43b 975b c3bb
00000050: b473 d6bb 77b6 29bb 6c05 e13b 7308 b33b
00000060: 3d65 ec3b 525e d63b dcd8 f0bb c6cc 8aba
00000070: 3005 f4ba 8c53 cd3b d453 febb 9c2a bfba
00000080: 1d28 57bb 2904 533b 9a25 6abb b320 94ba
00000090: 7e1d 043c 0512 01bc 419e a7bb 8bb1 bfbb
000000a0: f38c 3f3a a040 e43b 17dd edbb 69dd e2ba
000000b0: 7d55 6eba 91e8 d73b ecb9 43bb 8665 073a
000000c0: f2d5 afbb bd88 823b 2fe5 c93b b1ef a2bb
000000d0: 2b31 f93a ed7c 7ebb bb9b 03bb 188b 15bb
000000e0: 17fe d8ba 68c6 1e3a 6162 bd3b 0851 a73b
000000f0: 2b78 003c e7e4 9a3b 90b2 d9bb ff46 ed3b
00000100: d061 a13b c3a0 ee3b 4302 8c3b 8889 f1bb
00000110: 0490 e9bb 0985 aebb f11b f73b 774a 96bb
00000120: b945 013c 3aed da3b 16b6 b73a f360 ffbb
00000130: c58b c7bb cefb 8d3b 1838 8e3b 1f76 eebb
00000140: 0e2b 933a 5dd9 b8bb 0411 033c fced a13a
00000150: 81ff b43b 92e3 263b ea98 01bb 647c e1bb
00000160: 855b 8dbb 6d68 cbbb 65a9 f7bb 0ad1 dd3b
00000170: 2c14 273b 78fe ba3b 78cc a3bb 0b75 cc3b
00000180: a5da f9bb 8bc4 b43b 8ec7 bb3b 1ec4 fdbb
00000190: 002d e4bb 6f1d 043c 0bd0 aa3b 84b9 e93b
000001a0: 179b fbbb 1a0d 963b 2d42 a939 ff78 96bb
000001b0: 90cc d2bb 2545 bbbb 2c06 cb3a 6deb e03b
000001c0: db9c 8f3b ad4d f33b ead5 51bb 0f7f e03b
000001d0: 4a20 813b a745 103b 0343 8b3b 6385 77bb
000001e0: f212 26bb 6537 763b 5062 f73b 515d 033b
000001f0: c223 a7ba 723c 9e3a 2ac2 643a 03f7 c1bb
-0.0053272005 0.0012289835 -2.0464184e-05 -0.006315211 -0.0010292873 0.001427119 0.0025381125 -0.0062829643
-0.0054579373 0.0073047075 -0.00057034043 0.0006752856 -0.0036696994 -0.000571077 -0.0038736898 -0.0051274984
0.003068062 0.0056724176 0.006009507 -0.005961846 -0.0065445546 -0.002589611 0.0068671014 0.0054636537
0.007214217 0.0065420056 -0.0073500704 -0.0010589592 -0.0018617269 0.006266063 -0.007761458 -0.0014584842
-0.0032830306 0.0032198525 -0.0035727979 -0.0011301249 0.008063672 -0.007877831 -0.005115301 -0.005850022
0.0007307075 0.0069657117 -0.007259022 -0.0017308417 -0.0009091718 0.0065890034 -0.0029865457 0.00051649695
-0.0053660804 0.0039835856 0.006161354 -0.004972421 0.0019011846 -0.0038831786 -0.0020081836 -0.0022818502
-0.0016555217 0.00060567865 0.00577955 0.005106095 0.00784115 0.0047269943 -0.0066436008 0.0072411294
0.0049249902 0.007282348 0.0042727306 -0.0073711313 -0.0071277637 -0.0053259176 0.0075411727 -0.0045865136
0.007890158 0.0066811116 0.0014016058 -0.0077935397 -0.00608966 0.004332996 0.004340183 -0.0072772647
0.0011228041 -0.005641146 0.007999662 0.001235425 0.0055236225 0.0025465232 -0.0019774982 -0.0068812836
-0.0043138885 -0.006207517 -0.007558035 0.006769304 0.00254942 0.0057066046 -0.00499874 0.0062395385
-0.0076249414 0.005516594 0.005730576 -0.0077443263 -0.006963372 0.008063658 0.005212789 0.007132711
-0.0076784003 0.0045791985 0.00032283497 -0.0045920606 -0.006433077 -0.00571503 0.001548951 0.0068640024
0.0043827123 0.007425031 -0.0032018372 0.006851084 0.0039406167 0.0022014172 0.004249932 -0.0037768714
-0.0025340882 0.0037569639 0.0075495616 0.0020044635 -0.0012751746 0.0012072457 0.00087264425 -0.0059193387

network_body._body_endoder.seq_layers.2.weight f4 [128, 128]
00000000: d6c5 fd3b f8d2 2fbd a132 d23d 5edb aa3d
00000010: 96a2 763e 239c a3bb 85d4 19be 5f09 42bd
00000020: 65fc 963d ae37 053e 0512 3dbe e470 c23d
00000030: 616c c0bb 2b56 6a3d 19da 233d 1831 47be
00000040: ad70 c33d eaea 233e 7737 04be e482 1abd
00000050: 8755 6bbc 004e db3d cb54 723d 34a6 3a3a
00000060: 4987 8dbc 7dd0 83bc bb29 ccbd 90aa 173d
00000070: ba84 97bc 289c 87bd 8c6b 8a3e 650f 55be
00000080: bbf1 ddbb 40cb e73d 68cc 393c 99e1 85bc
00000090: 5095 233e 4d29 883e 8fa8 043e 9a8d ebbc
000000a0: 121a fe3d 82ea 6a3e 3d85 c4bc 7be9 a5bd
000000b0: ded2 ccbd bedf 5b3b dec7 223e 1822 233d
000000c0: 2fec 953b 4040 32bc 0e15 e33c 1189 b93d
000000d0: 0b60 e23c ab45 23bc a37f 373d 97a2 93bd
000000e0: 5e8e 9bbd 29bb 69bd 8ef9 5fbd 87c9 c4bd
000000f0: 80a1 debd f1dc 583e 1dc9 dd3d f3ec bebc
00000100: d19e 51bd 1d2e de3d 9142 a3bc e170 a9bc
00000110: 947c 12bd 3b20 c23b e7e6 d5bd 966d f2bb
00000120: 3905 0fbd ca83 86bd 00cc c7bc ccc6 203e
00000130: d0e5 323c 5eab 69bc 85c2 73bd 9cf8 9a3d
00000140: d724 bc3d 53dc d53c bcb5 1f3e 4b9d ac3d
00000150: 2c72 8abc 1364 183d 207c 6f3d 3ce5 9f3b
00000160: 3455 9dbc a1d6 6fbd 72b9 2ebd 284d 57bd
00000170: 74d6 e43c 69f1 013b 87db b53d ecae 3dbd
00000180: 7bef c9bc af80 323d 49a0 acbd fedb 8abe
00000190: 5968 39bd 5007 2abb afdb acbd ea95 94bd
000001a0: 67ba d33d 5973 d23c f226 66bd 46a6 7a3c
000001b0: bb6e c33d 0cd0 a3bd adb0 ac3c 4c45 0ebc
000001c0: 47bf e3bd 1d8f 033e 29b2 903d 10a9 743e
000001d0: 30af 133e 8e70 4d3c acd1 8f3d f02f 2f3c
000001e0: d4d5 213e 5bfe 1c3c a60b 723d fb87 113e
000001f0: 2773 b23d fefb 113d 6a20 ed3d a5d8 3039
00000200: 20c5 033d a90d 173e 6636 823d 0f01 3b3d
00000210: ef44 c33c ab95 503d ab2c 133e bec5 88bd
00000220: 253d 173d e5f3 13bd e4a2 2d3e 202f c7bc
00000230: 4886 513d 68cf 5b3d bb3f 11bc 2f65 1f3d
00000240: 82e2 6f3d c3ab ff3c 3d04 083b 6aed fd3c
00000250: 4ccd 34be 6c92 353d 140b f2bb 6e9f a0bd
00000260: af0d fd3b c6d9 04bd 9345 593c 2701 12bc
00000270: 94ef dd3d 94bd a2bc dc3a 973d 9902 f0bd
00000280: ab4b d9bd a3bd c1bd fbdf 4ebb 9f44 ee3d
00000290: e529 ecbd f3a8 713b 8d2c 783c dfa2 813d
000002a0: ec70 233e 3a88 343d b3a0 273e 2739 f2bd
000002b0: 5e23 f6bc 493e 183e 9ab5 243e 410e a03d
000002c0: cd12 0b3d 8cf3 af3d d5a9 0f3e 57db 683d
000002d0: 6468 f2bc 8e82 383d 9ea3 99bd 4c9c 733b
000002e0: 01bc 5bbe 4ba3 063d 88fd e6bb fdf8 aabd
000002f0: 46f8 25bc e9ee 173d dc20 a33a eec1 eabd
00000300: 554e 0a3d ec94 85bd 3329 8e3b 73aa 243e
00000310: dde6 fc3c 74ec 18bc c03d a03d ccc0 03be
00000320: 49bb 913d 5aff 543d bda5 8fbb 95e0 67bd
00000330: 0eb9 973d af88 e73b 49e6 2cbe a262 c03d
00000340: 711f 3a3d 3973 98bd 1c19 06be 47a8 d6bc
00000350: 2874 ab3c cdeb e73c ffe6 7c3d fd06 f9bb
00000360: 3574 eebd 5461 32bd 277b 11bc 3e06 dcbc
00000370: 8cce 273c ed75 653d 95b0 4dbc a651 19bd
00000380: 1590 803d ec87 bcbd 250a 683d f41e a8bd
00000390: 4aac dbbc 1958 d63d f9be a9bd 6ed8 a93c
000003a0: a589 003e 4ebc 7cbc 2214 f6bc 4a64 b5bc
000003b0: bc17 96bd d130 633c 574a be3d 4ef7 d0bd
000003c0: ca66 d53d 8b1e 0abd 4496 653e c78a 74bd
000003d0: 257e c5bd 88d1 d3bd ba44 603d 32ca 30bd
000003e0: 9ca7 e03d e114 983d 66e7 82bc ae6d 0f3d
000003f0: 3864 fd3d 5a36 fcbc 1f65 3abe 19fb 82bd
0.007744531 -0.042925805 0.10263563 0.08342622 0.24085459 -0.004992978 -0.15022476 -0.04737222
0.07372359 0.13009521 -0.18463905 0.094941884 -0.005872295 0.057211082 0.040002916 -0.19452322
0.095429756 0.16007581 -0.12911783 -0.037722483 -0.014363653 0.10708237 0.059162896 0.0007120103
-0.017276423 -0.016090626 -0.09968897 0.037027895 -0.018495906 -0.06621581 0.27035177 -0.20806654
-0.0067732013 0.11318064 0.011340238 -0.016342925 0.15974927 0.2659401 0.12954925 -0.028754044
0.12407316 0.2294102 -0.023989314 -0.081011735 -0.10001157 0.0033550109 0.15896556 0.039827436
0.0045752744 -0.010879576 0.02772 0.090593465 0.027633687 -0.009965341 0.04479946 -0.07208746
-0.07595514 -0.057063255 -0.054681353 -0.09608751 -0.108706474 0.21178032 0.10829375 -0.023306346
-0.05117685 0.10848639 -0.019929202 -0.020683708 -0.03576334 0.0059242523 -0.10444432 -0.0073983176
-0.03491709 -0.065681055 -0.024389267 0.15700835 0.010919049 -0.0142620485 -0.05951168 0.0756695
0.09186714 0.026106035 0.1559667 0.08428439 -0.016900145 0.037204813 0.058467984 0.004879622
-0.019205667 -0.058554295 -0.042657323 -0.052563816 0.02793429 0.001982773 0.08879762 -0.046309397
-0.024650326 0.043579753 -0.084290095 -0.27120966 -0.04526553 -0.00259443 -0.08440339 -0.07255156
0.10338288 0.025689768 -0.056189485 0.015298432 0.095426045 -0.07998666 0.02108034 -0.008683514
-0.11120468 0.12847562 0.07065231 0.23892617 0.14422297 0.012539042 0.070224136 0.010692582
0.15804225 0.009582127 0.05909314 0.14212029 0.0871337 0.03564071 0.11578448 0.00016865374
0.032170415 0.14751305 0.06358032 0.045655306 0.023836581 0.050923984 0.14372508 -0.06678341
0.036923546 -0.036121268 0.16956669 -0.024314463 0.05115345 0.053664595 -0.008865292 0.038914856
0.058565624 0.031209832 0.002075448 0.030996997 -0.1765644 0.044329092 -0.0073865745 -0.07842909
0.0077225785 -0.032434247 0.013261217 -0.008911408 0.108367115 -0.019865789 0.073842734 -0.117192455
-0.10610136 -0.094599985 -0.0031566608 0.11634182 -0.11531428 0.0036874383 0.0151473405 0.06329893
0.15961045 0.04407523 0.16369896 -0.11827307 -0.030046161 0.1486751 0.160849 0.07815219
0.033953477 0.08591375 0.1402963 0.056849804 -0.029590793 0.04504638 -0.075019106 0.0037172018
-0.21458437 0.032870572 -0.0070492662 -0.08348272 -0.010129994 0.037093077 0.0012445706 -0.114627704
0.03376611 -0.06522545 0.0043384074 0.16080646 0.030871803 -0.009333719 0.07824278 -0.12866515
0.071158 0.052001335 -0.004383771 -0.056610662 0.07408343 0.0070658545 -0.16884722 0.09393813
0.04544014 -0.07443852 -0.13095516 -0.026203288 0.020929411 0.02831068 0.061743733 -0.00759971
-0.116432585 -0.04354985 -0.008879459 -0.026858445 0.010242116 0.056020666 -0.0125543075 -0.03743138
0.062774815 -0.092056125 0.0566503 -0.08209029 -0.026815552 0.10466022 -0.08288378 0.020733085
0.12552507 -0.015425755 -0.030038897 -0.022142548 -0.07328746 0.013866619 0.09291523 -0.102034196
0.10419996 -0.033720534 0.22420603 -0.05970266 -0.09643201 -0.10342699 0.054753043 -0.04316158
0.10969469 0.07425857 -0.01597948 0.035016708 0.12372631 -0.030787636 -0.18202637 -0.06395549

network_body._body_endoder.seq_layers.2.bias f4 [128]
00000000: 4525 34bb 8847 a6bb fafe 46bb 4c11 06bb
00000010: cab3 9bbb 9d16 f43b 1682 f7bb 9f42 ea39
00000020: f557 a73b 7a9d 0b3b dc99 a83b 2e26 5b3b
00000030: 3fc1 e8bb fd82 de3b 343a c6bb 7a4a ab3b
00000040: 173c f9bb c13c ab3b 0469 7fbb 83af 01bc
00000050: 118c 8d39 a18f e9bb 74f5 f13b 2287 9bbb
00000060: 274b f13a 10e8 883a a42e db3b 6efa aabb
00000070: da73 0c3b b805 663b 39d2 a0bb e57f 28bb
00000080: d5ac d93b 3068 52ba 3fad d7bb 206f f2bb
00000090: 0006 cebb 3ace 003b 3686 203b 575b c1bb
000000a0: 0fc9 d0bb 0a8c 80bb ed9b ee3b 17a8 823b
000000b0: 1eff 71bb aa8e e33b 75c2 393b 1406 8fba
000000c0: 4cb4 973b 97c7 15bb b71f cbbb 0b47 a0bb
000000d0: 512b c03b d6e7 cdbb 15a9 023b 0e8c b53b
000000e0: 0299 8aba d488 abbb 4ba0 bb3b 9cb8 d83b
000000f0: 3662 273a 30ca 2cbb 1d81 e7bb 7e90 00bb
00000100: d0cd 963b d952 863b d2d8 afbb 808c b7bb
00000110: 91ce e13b 9bd9 83bb a38a c8bb caf7 b8bb
00000120: 3437 813b b272 f13b 644f ab3b 228b 8f3b
00000130: 0e66 35bb d952 d3ba b83d 083a 91e8 ffbb
00000140: 5159 503a d3ad ee3b b384 d0bb bcde f63b
00000150: a773 69ba e02a e23b f3a9 bd3b 016c 343b
00000160: 28ae d33b e9e5 eb3a 72fe d9ba dcd5 a13b
00000170: 5063 3e39 9091 7f3b 7010 febb bd0d b6bb
00000180: 2031 62bb 055e 6abb d25a e43b c82b a7ba
00000190: ad64 c7bb acd4 ad3b d8ce b2bb 5107 643b
000001a0: 8ad9 b73b 712e 9ebb b700 bcb9 b1dd 80b9
000001b0: 4b62 d93b a398 88bb b4d9 b9ba 814a 843b
000001c0: f0fe eb3b f310 74b9 03cf 18bb ec73 e03b
000001d0: d04b 563b 23db 97bb 2dd0 763b 7e8d 5dbb
000001e0: 942f 033c 81d9 acbb 12e0 ebbb 412d 023c
000001f0: 354a a13b c072 cebb 0369 01bc e86f 4f3b
-0.0027488035 -0.005074445 -0.003036438 -0.0020457087 -0.004751657 0.007448985 -0.0075533492 0.00044681595
0.005106921 0.002130358 0.0051452946 0.0033439505 -0.007103115 0.0067905174 -0.006049419 0.005227384
-0.00760604 0.0052257483 -0.0038972506 -0.00791538 0.00026997973 -0.0071277176 0.0073839966 -0.0047463337
0.0018409238 0.0010445137 0.0066889096 -0.005217842 0.0021431358 0.0035098623 -0.004907873 -0.0025710997
0.0066429176 -0.00080263894 -0.006581932 -0.007398501 -0.0062873363 0.001965417 0.0024494058 -0.005900781
-0.0063716243 -0.003922944 0.0072817714 0.003987323 -0.0036925743 0.006944497 0.0028344665 -0.0010911846
0.0046296474 -0.002285456 -0.006198849 -0.0048912815 0.0058645387 -0.0062837405 0.0019937207 0.0055403775
-0.0010574164 -0.005234817 0.0057258955 0.006613804 0.0006385179 -0.002636563 -0.007064952 -0.0019617374
0.0046021715 0.0040992317 -0.005366423 -0.0056014657 0.0068910797 -0.0040237433 -0.0061200424 -0.005644773
0.0039433483 0.007368409 0.00522797 0.0043805996 -0.0027679238 -0.0016122713 0.0005197185 -0.0078097065
0.00079478795 0.007283905 -0.006363475 0.007533876 -0.0008905478 0.0069020838 0.005788082 0.0027530196
0.00645997 0.0017997596 -0.0016631617 0.004938824 0.00018156809 0.0038996674 -0.0077534243 -0.005555837
-0.0034514144 -0.0035761606 0.0069688344 -0.0012754137 -0.0060849995 0.0053048935 -0.0054567866 0.00347944
0.0056106495 -0.0048273136 -0.00035858687 -0.00024579235 0.006634032 -0.0041685863 -0.001417926 0.004037202
0.007202022 -0.00023275967 -0.0023316748 0.0068497565 0.0032698996 -0.0046342774 0.0037660704 -0.003380626
0.008006949 -0.005274952 -0.007198342 0.00794536 0.0049221762 -0.0063003004 -0.007898572 0.0031652395

action_model._discrete_distribution.branches.0.weight f4 [4, 128]
00000000: 9cd0 45bc 44fd 90bc 2806 4e3c 83dc d03c
00000010: 7a39 87ba 9eff 5dbc 789d 483c 9605 c5bb
00000020: 230f 0f3b 9b36 31bc b865 5b3c 7db7 83bb
00000030: 283f 3e3c d000 b43b 299c a03c 9e87 ebbb
00000040: c934 81ba 2cd9 523c fe65 de3b 1ced 313c
00000050: e0d1 e93b 31d3 783c 0513 073c f476 c53b
00000060: c610 ad3a e9aa 013c ca69 8839 7a35 ff3a
00000070: 356a d43b 0763 a53b 97d1 44bb 39bc 13bc
00000080: 78c1 c4ba a2aa 923c eecd b23a f748 48bb
00000090: a6c6 3a3b ff05 d03b 7bc2 973c 3b2d b33b
000000a0: 0449 873c 05cf 253c ea4b a039 c897 63bc
000000b0: ff8d a93c d710 e93b b9de 623b 4a80 92bb
000000c0: d330 b4bb 5cca 1b3c b0d5 693b e547 a0bb
000000d0: 7a7a eabb 19ed 73bc 5495 743b f689 173c
000000e0: e3e6 0d3c 0910 2cba 9166 4cbc 4119 29bc
000000f0: 6267 5d39 10d5 4c3b 937f bdbb cc3e a1bb
00000100: fafb a33b aec8 003a da76 d93b 8f01 583a
00000110: b798 0c3a 7f04 0b3c 7af9 f8bb 582b 093c
00000120: b707 3a3b bb8e bdbb 2404 69bb 5fe4 d739
00000130: 04c4 b13b 79ce 0bbc 3bed 26bc 335b 203a
00000140: 8fe0 04bc 4125 aeba 96ad 1e3c 038a 833b
00000150: f3f8 b1bc 7d20 e23b 2cc1 bdb9 fb4d 95bb
00000160: 2317 c43a 78c8 0abc 8627 08bc 8dc7 443b
00000170: 71d1 9f3b 4d7d 1cbc f658 8cbb 10c6 343c
00000180: 50e7 1cbb 3808 193c 7c9b 72bb d42a a93c
00000190: 74f7 403c ecaf f0bb dae4 c5bb b6bd 71bb
000001a0: ccc5 763b 620c 923b 017f 2c3a 11d6 703c
000001b0: 9b0b 043c 14e4 433c f73a 11bc 338c 8cbc
000001c0: 20f1 6cbc 62c3 edbb 9d86 11bc e631 1cbc
000001d0: b37c e13b 3955 15bc 8748 59bb e01f 793c
000001e0: f5f4 b0bb 1335 daba 314a 43bb bd67 e63a
000001f0: 2b96 8c3b 4037 d93b 66e1 1b3b 5126 213c
00000200: e313 d5ba 4dbe 8a3b bcc1 f339 295c feba
00000210: 717f 303b 06be 9ebc 4bf4 c93c 4e83 313c
00000220: d62c 2dba cade 5bbb e344 973b a206 1b3b
00000230: 9150 443c 1df7 8ebb 4b18 653c 1441 a5bc
00000240: 0edc 883c c80b 79b8 3738 46bb afba 3a3c
00000250: f846 51bb 9d1c 2d3c a74d 17bc c8c6 403b
00000260: 8fc5 433c 92c4 f0ba 6a6f a3bc a1f0 903b
00000270: 40a9 0c3a aa0d 4f3b b622 1d3c f407 dcbb
00000280: c38f 59bc c7e3 4f3c e37a 0d3c 8b96 3f3c
00000290: 87b0 943c 36ae 29bc a3ce 53bb 923c b83c
000002a0: 705e b23b c6ea 1e3c 20b7 11bc 2edd 4ebc
000002b0: 6ba5 843c 8e18 d03b 6e7e afbb f385 4f3b
000002c0: b04a 6cbb 04e3 e6ba ca91 813b 417f 9eb9
000002d0: a8cb 2fbc 10c1 5c3c 1f72 93bc 5a19 c6bc
000002e0: 6efb 27bc 99f7 e33b daa3 4cbc f71a 23bb
000002f0: 966f 86bb 5ba9 e53a 590d c73c fcc7 a9bb
00000300: 8d40 50ba ff17 a0ba 08e3 dc3b 3ac3 c7ba
00000310: da9b 77bc dc3a 173a 9ceb 91bb b7f1 883c
00000320: 6135 793b e8f5 18bc d41a 48bc b0d5 8aba
00000330: 5e2c 273c 3d04 91bb 1e68 d339 54dc ee3b
00000340: 59e5 2b3b bfb7 44bc 75ce 103c d12a c3bc
00000350: 7cd0 29bb bcfd 52bc d786 76bc 226e 0a3b
00000360: 2ca4 70bb 8767 9b3b efce c43b 76ec 45bb
00000370: 0352 d5b8 45d0 aebc 1519 6f3c eb96 af3c
00000380: 594e 5239 ade3 4bbc 5568 cdbc fc52 a9bb
00000390: e6a5 da3b bbea f3bb b4a4 18bb 4884 4abc
000003a0: f9f7 bf3b ed6e 6a3c 3492 58bb d35a 0b3a
000003b0: dac8 91bb aeed f0bb 10a7 a7bb b3fe 5a3b
000003c0: c19b 43bc f67d ee3b c1e1 f239 4cf3 72bc
000003d0: 0160 38bb 39c8 483b 88ac 13bc 6a5e 043c
000003e0: b0ab 6ebc 9483 5f3b ecb2 163c 2f66 5abc
000003f0: ac60 d3bb 5d8b c73c 37d8 573c 6b6c 2ebc
-0.012073662 -0.017698891 0.01257471 0.025495773 -0.0010316812 -0.013549713 0.012244575 -0.006012629
0.002182909 -0.010816242 0.013390951 -0.0040196762 0.011611737 0.005493261 0.019605713 -0.0071877977
-0.000985765 0.012869161 0.0067870608 0.010859754 0.0071356148 0.015187071 0.008244281 0.006026143
0.0013203851 0.007914283 0.0002601876 0.0019470893 0.0064823874 0.0050472054 -0.0030032152 -0.009017044
-0.0015011271 0.01790363 0.0013641694 -0.0030561069 0.0028499751 0.006348371 0.018525353 0.0054680384
0.016514309 0.010120158 0.00030574139 -0.013891168 0.020697592 0.007112603 0.0034617616 -0.0044708597
-0.0054989844 0.009508695 0.0035680346 -0.004891383 -0.0071557136 -0.014888071 0.0037320452 0.009249201
0.008661005 -0.0006563669 -0.012475626 -0.010320962 0.00021114715 0.0031254925 -0.0057830303 -0.004920816
0.005004403 0.0004912716 0.0066364827 0.00082399783 0.00053633325 0.008484959 -0.0075980993 0.00837215
0.0028385946 -0.005784837 -0.0035555447 0.00041178145 0.005424978 -0.008533114 -0.010188396 0.00061171054
-0.00811018 -0.0013286249 0.009684941 0.004014255 -0.021725154 0.0069008456 -0.00036192813 -0.004556415
0.0014960509 -0.008470647 -0.008310204 0.0030026168 0.0048772623 -0.009551358 -0.004283066 0.01103355
-0.0023941584 0.009340338 -0.0037018945 0.020650305 0.011777747 -0.0073451903 -0.006039244 -0.0036886758
0.0037654517 0.0044570426 0.00065802044 0.014699475 0.008059408 0.0119562335 -0.008864156 -0.017156696
-0.014461786 -0.0072559575 -0.008882192 -0.009533381 0.0068813204 -0.009114557 -0.0033154802 0.0152053535
-0.005400295 -0.0016647897 -0.002979886 0.0017578524 0.0042903624 0.0066289008 0.002378547 0.0098357955
-0.0016256537 0.0042341114 0.00046492915 -0.0019406128 0.002693143 -0.01937772 0.02465262 0.010834528
-0.00066061073 -0.003354954 0.0046163662 0.0023655077 0.011982099 -0.0043629543 0.013982843 -0.020172633
0.016706493 -5.93772e-05 -0.003024591 0.011397048 -0.003193317 0.010565904 -0.009234822 0.0029415358
0.011948957 -0.0018369129 -0.019950587 0.0044232165 0.00053657964 0.0031593838 0.009590795 -0.0067148153
-0.013278904 0.012688584 0.0086352555 0.011693607 0.018150581 -0.0103564765 -0.003231921 0.02248982
0.0054433867 0.009699529 -0.008893758 -0.0126259755 0.016192159 0.0063505834 -0.0053556478 0.0031665533
-0.003605526 -0.0017615263 0.003954147 -0.0003023092 -0.010729708 0.013473764 -0.017998753 -0.02418201
-0.010252817 0.006957006 -0.012490237 -0.0024887898 -0.0041026575 0.0017521785 0.024298357 -0.0051813107
-0.0007944189 -0.0012214183 0.0067409314 -0.0015240677 -0.0151128415 0.00057689636 -0.0044531357 0.016716821
0.00380262 -0.009335972 -0.012213428 -0.0010592248 0.010203449 -0.004425554 0.0004032263 0.0072894488
0.002622923 -0.012006699 0.008838286 -0.023824127 -0.002591162 -0.012877878 -0.015046797 0.0021122773
-0.0036718948 0.004742566 0.0060061137 -0.0030200756 -0.00010171907 -0.021339545 0.014593382 0.021434268
0.00020056347 -0.012444419 -0.025074163 -0.005167363 0.0066726087 -0.0074437535 -0.002329153 -0.01236064
0.005858418 0.014308673 -0.0033046128 0.0005315963 -0.004448992 -0.0073525524 -0.005116351 0.0033415973
-0.01193899 0.0072781993 0.00046326037 -0.014828514 -0.0028133395 0.003063692 -0.009013303 0.008079151
-0.014567301 0.0034105526 0.009197932 -0.0133300265 -0.006450733 0.024358446 0.013174108 -0.010645966

action_model._discrete_distribution.branches.0.bias f4 [4]
00000000: f980 45bb cb4d c1bb 9248 a33b 5474 693b
-0.0030136688 -0.005899166 0.0049830163 0.0035622315

action_model._discrete_distribution.branches.1.weight f4 [2, 128]
00000000: 02dc 5d3a 34e1 23bb 0a6e 20bc a21d 1e3a
00000010: 8f64 0dba 7ba0 223c 211a a7bc ff86 b3bb
00000020: 1f55 363c 0db9 1e3a e7b2 853b dec1 bebb
00000030: 5a0d 7abc 1e22 1d3b def8 d0bc ae91 ed3b
00000040: 9dd8 42bc 323b 20bb 5453 7bbc 1d02 3cbb
00000050: 01a7 883c c1d9 a8bc 97ce 623c aef5 483b
00000060: ae83 ecbb b9b6 c5bb 933b 1c3c 5099 ccbb
00000070: d706 7dbb c515 28bc 5004 ccbb 350e 363b
00000080: 37db 063c e21c b3bb f9d6 87bc a97c b2bb
00000090: cab1 5eb8 7c6b 823c a476 4f3c bb38 c7ba
000000a0: 4a74 87bc e85c 97bc c050 263a 33b1 14bb
000000b0: 311f a3bc 6f5c 4d3c d0bf c13b b0ea d83b
000000c0: e1b9 b03b 8413 d5bb e964 dcbb f644 423b
000000d0: beb6 483c 1917 3ebc e068 0fbc 799c 4e3b
000000e0: f218 3a3c e7dd a63b 96a8 e43a a10e d33b
000000f0: c38d 63bc 16b4 16bc 5b4f 18bc a186 66bc
00000100: 5089 ee3b 1c1c 773c c59f acba 4428 f53b
00000110: 3875 7b3c 795d 9ebc 3274 1ebc 5fc2 39bb
00000120: f3a1 8b3c a80b 4a3a 5b47 0dba 8485 fc3b
00000130: f04b 56bc 8f61 82ba c8ea 8c39 27af 86ba
00000140: 31ca 7a3b b7bc 813c 3c6e fbbb 628b 943c
00000150: f879 c2bb 1c84 cc3b 2376 8c3b 9171 11bc
00000160: 0a8d 9e3c 5cd1 d13b a5e1 163c 2319 273b
00000170: 18c0 673c 199c 5b3c d6b8 02bc 0c45 c5bb
00000180: 2a34 a1b9 332a cabc dc2d 023c 08b3 bcba
00000190: 010e c1bb 71d9 d53b ec2e 9d3b 1591 063c
000001a0: f9a1 ea3b 2b28 6abc a4f5 c0b9 e671 5dbb
000001b0: 02cf 353c 1038 91bc 0511 6cbc bd12 983c
000001c0: 1e3f 8d3c 0f7d 8eba af6a 99bb 23db aa3b
000001d0: dba2 29bc a5a9 15bc 242a 4d3b 9294 ffbb
000001e0: 4ab9 523c 97be 393c 5bec adbc e2a7 843c
000001f0: 6241 a63c 2eb0 8fba c7ff 98bc 7671 9fbb
00000200: b9af 783c c24a 13bb 09f5 c33b 5952 c93c
00000210: eec9 7d3c 2570 46bc 55b1 873c 1b11 013c
00000220: a6ae 10bc 038f 6ebc 87eb f5bb b244 383b
00000230: ff6f 9a3a 7909 92ba 1c0c 33bc 228c 9f3b
00000240: 2a33 9f3c a6e9 e6bc 391f f6b9 a43c 983c
00000250: c207 143c b21e 213c 7541 52bc fd4f 453a
00000260: 1abb 2fba e9f1 253b 9a0f 91ba d5ca 80bc
00000270: c204 6fba 602a d1b9 9abb e8bb d707 ec3a
00000280: cc9d 44bc 53e8 8cb9 f6e7 6b3b 101d 633c
00000290: 5ad3 273c 40b5 463b 2587 16bc 482a fc3b
000002a0: 41b3 0eba c99f 553c f19b 84bc 3e72 95bb
000002b0: 8bac 0b3c b75e 58bb 4d2c d4bb cc45 863b
000002c0: 80ec 0dbc 7aec c2bb 7e7f c93a 42d0 9dba
000002d0: 983d 8e3b 6563 023c 3122 ad3c 9e4f aabb
000002e0: 8aca 84bc 84a4 063c 6f26 9cbc d84b d0bb
000002f0: 3bc8 cd3b 76c0 9c3c c35c 5d3c e914 933c
00000300: 7fff a0bc 7006 93bc 1cd2 cdbb a471 ce3a
00000310: 4fe8 873b 75fd 693c 9660 4137 19a8 bb3b
00000320: 84d7 d93a 6784 94bc a31c 0ebc 6827 903c
00000330: 9318 3f3c c6ae 893c 484e cd3c 5b28 ed3c
00000340: 2262 2f3c 7bcb 4eba 323c d73b e791 08bc
00000350: bf62 37bc 2525 23bc db65 d8bb e214 d7ba
00000360: 5669 d5bb 623c 69bc 9ecb b13b 02d9 10bb
00000370: bc4d 89bc fba7 aa3b 7476 c23c a705 8c39
00000380: ce2b aa3c d04d cc3c 0064 c0bb 0097 443a
00000390: c126 403c 4e58 bd3b 8dc0 c13a 178a bf3b
000003a0: 1d32 f4ba e98f 4f3c f2f4 ca3b 9e75 a73c
000003b0: 909c 04bd a822 083b 34de 4ebb d7b2 a1bb
000003c0: 6e85 7abc 99bf c4ba f512 803c 51f0 c8bc
000003d0: a2fb 96bb 2d7c 66bc 0eab a1ba a51e 393c
000003e0: ee59 12bc 503f 0d3c 99e9 9f3c 0bcd 22bc
000003f0: 0c39 87bc 9c15 1c3c 6b19 3c3b a0a8 d33b
0.00084632647 -0.0025006058 -0.00979186 0.00060316373 -0.00053937075 0.009925957 -0.020398201 -0.0054787393
0.011128693 0.00060547964 0.0040801647 -0.0058214506 -0.015261972 0.0023976634 -0.025509294 0.0072500324
-0.011892465 -0.0024449346 -0.015339691 -0.0028687783 0.016681196 -0.020611646 0.0138432 0.0030664015
-0.007217846 -0.006033745 0.009535688 -0.006243862 -0.0038608813 -0.0102590965 -0.0062261 0.0027779464
0.008230976 -0.0054660896 -0.016582 -0.0054469896 -5.3094504e-05 0.015920393 0.0126625635 -0.0015199402
-0.016534943 -0.018476918 0.000634443 -0.0022688627 -0.019912334 0.012534245 0.0059127584 0.006619774
0.0053932522 -0.0065025706 -0.0067258966 0.0029643155 0.0122506 -0.011602187 -0.0087530315 0.003152637
0.0113584865 0.005092371 0.0017445262 0.006440953 -0.013888779 -0.009198209 -0.009296264 -0.014070184
0.0072795525 0.015082385 -0.0013170174 0.0074816067 0.015347771 -0.01933168 -0.009671258 -0.0028344614
0.017044997 0.00077074254 -0.0005389356 0.007706346 -0.013079628 -0.0009947288 0.00026877807 -0.0010275588
0.0038267488 0.015837057 -0.007673053 0.01813287 -0.00593495 0.0062413346 0.004286544 -0.008877174
0.019354362 0.0064031314 0.009209071 0.002549716 0.01414492 0.013403916 -0.007978639 -0.006020194
-0.00030747178 -0.024678325 0.007945504 -0.0014396617 -0.005891562 0.006526165 0.0047968533 0.008213301
0.007160422 -0.014291803 -0.0003680411 -0.0033789813 0.011096718 -0.017726928 -0.014408355 0.018563623
0.01724201 -0.0010871011 -0.004681907 0.0052141114 -0.010353769 -0.009134685 0.0031305635 -0.0077996934
0.012861559 0.011336944 -0.021230867 0.016193334 0.020294849 -0.001096254 -0.018676652 -0.0048658205
0.015178614 -0.002247498 0.005980138 0.0245754 0.015490038 -0.012111698 0.01656405 0.007877613
-0.008830702 -0.014560464 -0.0075048837 0.0028117117 0.0011782645 -0.0011141739 -0.01092818 0.004869
0.019433577 -0.028187584 -0.0004694404 0.018583603 0.009035053 0.0098339785 -0.012832989 0.0007526873
-0.00067036005 0.0025321192 -0.0011067272 -0.015721718 -0.00091178354 -0.00039895158 -0.007102442 0.0018007708
-0.012000512 -0.00026875976 0.0035996414 0.0138619095 0.010243261 0.0030320436 -0.009187494 0.00769547
-0.0005443581 0.013038584 -0.01618764 -0.004560738 0.008525024 -0.0033015439 -0.0064750076 0.004097676
-0.008662343 -0.0059486004 0.0015373079 -0.0012040215 0.0043408386 0.007958268 0.021134468 -0.0051974794
-0.01620986 0.0082179345 -0.019061295 -0.0063566975 0.006279973 0.019134741 0.013510886 0.017954307
-0.01965308 -0.017947406 -0.0062811505 0.001575042 0.0041475664 0.01428162 1.1526185e-05 0.005726826
0.0016620015 -0.01812954 -0.00867382 0.017596915 0.011663574 0.016806971 0.025061741 0.028949907
0.010704549 -0.00078885973 0.006568455 -0.008335567 -0.0111929765 -0.009957586 -0.006603939 -0.0016409422
-0.006512801 -0.014235588 0.0054258844 -0.0022102003 -0.0167607 0.005208013 0.023738123 0.00026707092
0.02077284 0.024939448 -0.005871296 0.00074993074 0.01172799 0.005778349 0.0014782116 0.005845319
-0.0018630658 0.012668588 0.0061937505 0.020441826 -0.032375872 0.002077261 -0.003156555 -0.0049346494
-0.015290601 -0.0015010714 0.01563404 -0.024528654 -0.0046076337 -0.014067692 -0.0012334303 0.01129881
-0.008932574 0.008621052 0.019520568 -0.009936581 -0.016506694 0.009526636 0.0028701674 0.0064593107

action_model._discrete_distribution.branches.1.bias f4 [2]
00000000: e882 d33b e682 d3bb
0.006454814 -0.0064548133

exp_avg f4 [128, 4]
00000000: 26b5 bc36 f3c8 7434 5ce4 f036 093d 9c34
00000010: 4157 79b5 ccb7 21b3 b056 47b5 9749 01b3
00000020: a1bb 21b7 59cb d1b4 095b 68b7 a9b3 16b5
00000030: 235c 0438 55b1 ab35 dad8 2e38 3ace e235
00000040: 9d63 1eb7 f474 cdb4 be4c 20b7 6eef cfb4
00000050: 7b42 2436 6d12 d533 7705 06b5 fad8 adb2
00000060: fd01 4cb8 dc50 04b6 bde9 77b8 c4ca 20b6
00000070: 3a44 8737 8876 2f35 5503 bc37 4ce2 7335
00000080: 6d01 1638 fd94 c235 b19e 5538 d68c 0a36
00000090: 8329 bcb7 ce13 74b5 454d d3b7 f40b 89b5
000000a0: b22e 35b8 0706 ebb5 fd45 59b8 75eb 0cb6
000000b0: 539d bdb7 1ef6 75b5 818b ffb7 f3bd a5b5
000000c0: 28a0 0434 310a ac31 2692 5936 dc1c 0d34
000000d0: 3704 92b7 4f68 3db5 fbf0 bab7 677e 72b5
000000e0: d9da a637 3970 5835 d8a9 e337 98a8 9335
000000f0: d92a e736 61ee 9534 4b5e 6c36 ec4d 1934
00000100: 805a 5a34 ea9e 0d32 6801 3436 237f e933
00000110: c4ca beb6 247d 77b4 1fa9 8db6 e2c1 37b4
00000120: 46e3 a5b6 0e2f 57b4 72af 4fb7 79b3 06b5
00000130: e52b 0938 1def b135 126c 0138 c6e1 a735
00000140: b72b 8a38 f43a 3336 47ca 9438 6101 4136
00000150: ab49 aa37 31e4 5c35 852f ba37 7383 7135
00000160: dc28 33b9 4d66 e8b6 ae31 49b9 b07d 02b7
00000170: faab 84b7 e618 2cb5 a945 0bb8 afa8 b4b5
00000180: 60be 91b8 b70d 3db6 b242 b5b8 f51f 6bb6
00000190: 2cd1 2ab6 f693 ddb3 7428 38b6 22e2 eeb3
000001a0: 3861 4938 859c 0236 dce6 6238 1f2a 1336
000001b0: 9789 d037 f640 8735 1b09 0c38 38a6 b535
000001c0: 5574 c536 c310 8034 fc8f 9936 2032 4734
000001d0: 88a3 2cb8 e6f0 dfb5 9d02 48b8 21b9 01b6
000001e0: b673 a437 4952 5535 314e d237 8566 8835
000001f0: 5435 0e37 bc77 b834 eb91 12b7 1d20 beb4
00000200: 9d66 9d36 c72c 4c34 ab8e ff36 01c0 a534
00000210: 2719 4ab6 d313 03b4 05ed b9b5 322d 71b3
00000220: 59b9 7337 3d13 1e35 342d 7c37 ac8e 2335
00000230: b1dc 03b5 ee0b abb2 f346 6ab5 c7f2 17b3
00000240: 79c0 d3b8 ab56 89b6 f436 fcb8 0195 a3b6
00000250: d04d 2138 e63c d135 16c1 4b38 c626 0436
00000260: bcdd 8637 94f1 2e35 05c5 da37 e2e3 8d35
00000270: 8783 1b36 19ba c933 e115 8836 7e86 3034
00000280: 9369 2337 12f9 d334 c27c 4837 5908 0235
00000290: 7153 49b7 9593 02b5 a9ff 68b7 6f1e 17b5
000002a0: 79e7 7f38 9bf9 2536 ae44 8d38 913f 3736
000002b0: 089d 35b6 2895 ebb3 6fda 3236 9300 e833
000002c0: 7654 0cb8 f907 b6b5 5e6c 47b8 ae57 01b6
000002d0: b7b2 dbb8 0c7e 8eb6 b62a dfb8 fbbd 90b6
000002e0: df03 82b7 ada6 28b5 cd6d a1b7 6566 51b5
000002f0: fc70 c5b7 990e 80b5 e2bf c3b7 66eb 7db5
00000300: 2665 0a38 7785 b335 9efa f237 8997 9d35
00000310: dc69 90b7 0354 3bb5 cba0 c3b7 10c3 7db5
00000320: 5c40 86b8 7125 2eb6 2efc 98b8 6a72 46b6
00000330: 8bfb 8834 68b0 3132 940b 2136 f8e6 d033
00000340: fe29 5434 0a9b 0932 9413 25b5 bd21 d6b2
00000350: fe57 8a37 6374 3335 acb3 9737 45c8 4435
00000360: cac4 12b6 1e62 beb3 c32f 4336 6c30 fd33
00000370: b06d 2738 af2e d935 33b2 3838 d694 ef35
00000380: e60b 9fb4 414f 4eb2 d625 97b4 4a10 44b2
00000390: a816 edb7 7fc5 99b5 3a97 d5b7 fc87 8ab5
000003a0: 603a 02b7 61ed a8b4 5da1 25b7 96d9 d6b4
000003b0: d162 06b7 2552 aeb4 8ffe 25b7 7552 d7b4
000003c0: c73a 25b9 7f54 d6b6 c346 45b9 6de6 ffb6
000003d0: 4944 97b8 cb37 44b6 4501 a3b8 c171 53b6
000003e0: a317 3537 1de8 ea34 a796 9e37 29b7 4d35
000003f0: ee43 01b8 b2ad a7b5 182a 2cb8 5f53 dfb5
5.623925e-06 2.2797376e-07 7.179142e-06 2.9101673e-07 -9.28867e-07 -3.7652896e-08 -7.4259424e-07 -3.0102083e-08
-9.640034e-06 -3.9077239e-07 -1.3849473e-05 -5.6140794e-07 3.155706e-05 1.2792103e-06 4.168679e-05 1.6898332e-06
-9.440727e-06 -3.826932e-07 -9.554611e-06 -3.8730963e-07 2.44766e-06 9.921937e-08 -4.992684e-07 -2.023852e-08
-4.8639242e-05 -1.97166e-06 -5.9107075e-05 -2.3959883e-06 1.6125025e-05 6.5365066e-07 2.2412898e-05 9.085386e-07
3.5764115e-05 1.4497488e-06 5.093095e-05 2.064558e-06 -2.2430677e-05 -9.0925903e-07 -2.5189142e-05 -1.0210774e-06
-4.319725e-05 -1.7510619e-06 -5.1802013e-05 -2.099868e-06 -2.2603816e-05 -9.162776e-07 -3.046333e-05 -1.234874e-06
1.2351722e-07 5.0070175e-09 3.242059e-06 1.3142147e-07 -1.7406519e-05 -7.0559776e-07 -2.2285143e-05 -9.0335965e-07
1.9890651e-05 8.0629576e-07 2.7139598e-05 1.1001421e-06 6.8893246e-06 2.7926856e-07 3.5221626e-06 1.4277583e-07
2.0335756e-07 8.243413e-09 2.6822909e-06 1.0873034e-07 -5.6860463e-06 -2.3049193e-07 -4.2218157e-06 -1.7113737e-07
-4.9438413e-06 -2.0040554e-07 -1.23790105e-05 -5.0180057e-07 3.2704225e-05 1.3257119e-06 3.0856645e-05 1.2508178e-06
6.588495e-05 2.6707394e-06 7.094867e-05 2.8760044e-06 2.0299884e-05 8.228845e-07 2.2195056e-05 8.997078e-07
-0.00017085992 -6.926048e-06 -0.00019187361 -7.777868e-06 -1.5815709e-05 -6.4111225e-07 -3.320506e-05 -1.3460138e-06
-6.949599e-05 -2.8171178e-06 -8.6431755e-05 -3.503633e-06 -2.5453728e-06 -1.03180284e-07 -2.7441683e-06 -1.1123872e-07
4.8012676e-05 1.9462616e-06 5.4097603e-05 2.1929225e-06 2.4859602e-05 1.007719e-06 3.338708e-05 1.3533927e-06
5.8846003e-06 2.3854054e-07 4.5765173e-06 1.8551555e-07 -4.1160296e-05 -1.6684905e-06 -4.768615e-05 -1.9330257e-06
1.9604206e-05 7.9468424e-07 2.5070362e-05 1.0162627e-06 8.476276e-06 3.435979e-07 -8.736252e-06 -3.5413623e-07
4.6909104e-06 1.901527e-07 7.616201e-06 3.0873346e-07 -3.0114986e-06 -1.2207538e-07 -1.3852556e-06 -5.615329e-08
1.4527083e-05 5.888758e-07 1.5030895e-05 6.0929847e-07 -4.912245e-07 -1.9912445e-08 -8.727504e-07 -3.5378232e-08
-0.00010097115 -4.0930076e-06 -0.00012026532 -4.875125e-06 3.845786e-05 1.5589437e-06 4.8578797e-05 1.9692102e-06
1.6077298e-05 6.5171594e-07 2.607937e-05 1.0571641e-06 2.3173359e-06 9.393643e-08 4.055663e-06 1.6440205e-07
9.740138e-06 3.9483035e-07 1.1949976e-05 4.844092e-07 -1.1999961e-05 -4.8643534e-07 -1.3887803e-05 -5.629617e-07
6.1012313e-05 2.4732205e-06 6.7361965e-05 2.7306126e-06 -2.7062506e-06 -1.09701716e-07 2.6651212e-06 1.0803446e-07
-3.345726e-05 -1.3562377e-06 -4.7546222e-05 -1.9273534e-06 -0.00010476022 -4.2466036e-06 -0.00010641424 -4.313651e-06
-1.549901e-05 -6.282742e-07 -1.9243826e-05 -7.800757e-07 -2.3536842e-05 -9.540992e-07 -2.3335164e-05 -9.4592394e-07
3.2995966e-05 1.3375383e-06 2.896535e-05 1.1741514e-06 -1.7215432e-05 -6.978518e-07 -2.3320687e-05 -9.45337e-07
-6.401606e-05 -2.5949814e-06 -7.294897e-05 -2.9570897e-06 2.5514996e-07 1.0342866e-08 2.399761e-06 9.727768e-08
1.9759315e-07 8.009701e-09 -6.149578e-07 -2.4928221e-08 1.6491857e-05 6.685206e-07 1.8084269e-05 7.330712e-07
-2.1870242e-06 -8.865412e-08 2.9085065e-06 1.17900385e-07 3.9918057e-05 1.6181347e-06 4.403498e-05 1.7850205e-06
-2.9624715e-07 -1.2008798e-08 -2.815347e-07 -1.1412405e-08 -2.8263152e-05 -1.1456867e-06 -2.5461999e-05 -1.0321378e-06
-7.762195e-06 -3.1465154e-07 -9.872337e-06 -4.001892e-07 -8.01003e-06 -3.2469794e-07 -9.894035e-06 -4.0106866e-07
-0.00015757522 -6.3875336e-06 -0.00018813745 -7.6264173e-06 -7.21296e-05 -2.9238752e-06 -7.772682e-05 -3.1507664e-06
1.0793944e-05 4.375478e-07 1.890522e-05 7.6634984e-07 -3.081926e-05 -1.2493022e-06 -4.10472e-05 -1.6639059e-06

exp_avg_sq f4 [128, 4]
00000000: 94c2 042c 1763 5f27 6f92 852c dbc0 e027
00000010: c58a de2c 993a 3b28 1274 042d fbde 5e28
00000020: 9a74 de2d ed27 3b29 4182 062e 5f54 6229
00000030: cdf7 962e 3f06 fe29 ce62 dd2e 9641 3a2a
00000040: 5a8e 702d 6562 ca28 a3a7 a42d f686 0a29
00000050: 7b22 7d2d 8bf7 d428 19d5 c62d 0a48 2729
00000060: b4da 422f 41ef a32a 3d0b 582f 05c3 b52a
00000070: 6727 602d be95 bc28 0a37 a22d 7a79 0829
00000080: 8ba0 de2e e54c 3b2a 5ad7 302f a6c7 942a
00000090: 0869 e82d f587 4329 96f2 f42d 3a14 4e29
000000a0: 8b39 ca2f b022 2a2b 08df ef2f ddce 492b
000000b0: 3602 ef2d 1c15 4929 1895 132e e753 7829
000000c0: a842 532f bebc b12a 8cfc 752f fef3 ce2a
000000d0: 4248 e72d 0495 4229 a41f ed2d 1d7f 4729
000000e0: db5f a92d 777f 0e29 2712 d62d 151a 3429
000000f0: 5cea bb2e cc18 1e2a fa27 ca2e e913 2a2a
00000100: 23a2 4a2e ae7a aa29 b362 612e 009f bd29
00000110: d7cd 512d 1783 b028 cc42 652d aee1 c028
00000120: 3aee e32c 26c3 3f28 86fd a02d b671 0729
00000130: c6de f62e 52b2 4f2a a40a 002f 9272 572a
00000140: 57eb c02f 7e4e 222b 0134 d52f 305f 332b
00000150: 034c 8e2e 246f ef29 d7c0 942e 3f4c fa29
00000160: 6d17 f030 56fe 492c cc72 f830 3c06 512c
00000170: 231b ad2d 25a3 1129 3551 6c2e 70d1 c629
00000180: 135e 842f fab9 de2a 8990 a72f aaf9 0c2b
00000190: 8041 c12a fc96 2226 6193 c82a 83bf 2826
000001a0: 5847 6f2f 454f c92a 6d90 822f 35b1 db2a
000001b0: b295 6d2e 71e2 c729 50dc 852e 253d e129
000001c0: 7ab1 2c2e 424a 9129 239f 732e a8f6 cc29
000001d0: b059 c12e 53ab 222a 86e8 ec2e bb50 472a
000001e0: a78a ba2d e3f0 1c29 fd93 f02d 2067 4a29
000001f0: 5b0d 3a2f 7887 9c2a a7b6 7d2f 3874 d52a
00000200: 96d0 0a2c 3393 6927 b4cb ab2c f288 1028
00000210: 01c6 2c2b 895b 9126 39b7 ae2b dafd 1227
00000220: cb24 ce2d c06e 2d29 8643 ec2d ecc5 4629
00000230: 18c8 9a2d 7e38 0229 75cd b52d 32f4 1829
00000240: d059 1c30 768a 832b e2cc 2e30 1310 932b
00000250: fdd2 b02e f8c3 142a dfb3 d72e 8479 352a
00000260: e178 d12d a23b 3029 bcc2 302e 4db6 9429
00000270: 8c36 042e 7677 5e29 ece8 152e 793e 7c29
00000280: 57a8 712d a44f cb28 a2f0 8a2d 21c9 e928
00000290: 5bc5 c62d ce3a 2729 87bd dc2d 84b6 3929
000002a0: 9a80 932f 6a31 f82a 64ca a42f 35a4 0a2b
000002b0: d65b 1c2c 2c8c 8327 31f9 bf2c c782 2128
000002c0: d490 6d2f 57de c72a c4ee 892f 3a17 e82a
000002d0: 0531 2b30 d006 902b 0d38 2c30 1be4 902b
000002e0: 2fde 192f b373 812a 2c57 3d2f b24b 9f2a
000002f0: 919d 5c2e a19b b929 d5d2 5c2e 72c8 b929
00000300: feb9 a02e e438 072a b3fb a72e d253 0d2a
00000310: 8936 6f2e 2041 c929 05fe 882e 2282 e629
00000320: dda9 4c2f f12f ac2a 422c 5a2f 8c8d b72a
00000330: 51f6 9028 35eb f323 c363 022b 0966 5b26
00000340: d9c1 ec2b 3630 4727 5cf6 b02c b8e1 1428
00000350: e37e 862e b14e e229 cb98 b92e 6225 1c2a
00000360: e6b4 302d a7aa 9428 4b18 7e2d 57c6 d528
00000370: f226 022f b7ff 5a2a 71c7 122f daf9 762a
00000380: 5220 0629 97af 6124 1b18 0829 44ff 6424
00000390: a48a 882f fcbf e52a fd47 8d2f 9db9 ed2a
000003a0: 5f23 042e 3257 5e29 5fc3 2b2e ee81 9029
000003b0: 0828 ae2c 5e85 1228 c843 252d 550a 8b28
000003c0: 59cc a330 78ce 092c adf6 b530 e016 192c
000003d0: c41f 0130 df44 592b d00d 0630 6e90 612b
000003e0: 90c6 cf2c 37ce 2e28 d2af 7a2d 53e8 d228
000003f0: 4c0f 7d2e 64e7 d429 da09 b42e 4378 172a
1.886634e-12 3.1001184e-15 3.7963447e-12 6.2381584e-15 6.325026e-12 1.0393292e-14 7.529104e-12 1.2371827e-14
2.529026e-11 4.155697e-14 3.058376e-11 5.025526e-14 6.8652285e-11 1.12809495e-13 1.0067468e-10 1.6542873e-13
1.3674029e-11 2.2469177e-14 1.8719087e-11 3.0759215e-14 1.4389041e-11 2.3644083e-14 2.2604628e-11 3.7143933e-14
1.7721896e-10 2.9120632e-13 1.9649078e-10 3.228738e-13 1.2741675e-11 2.0937133e-14 1.844171e-11 3.030343e-14
1.01239093e-10 1.6635615e-13 1.6083615e-10 2.6428615e-13 2.642199e-11 4.3416622e-14 2.7847318e-11 4.5758732e-14
3.6784473e-10 6.044427e-13 4.363232e-10 7.1696625e-13 2.7172136e-11 4.4649275e-14 3.3556352e-11 5.5139836e-14
1.9214019e-10 3.1572482e-13 2.2372343e-10 3.6762254e-13 2.6293748e-11 4.3205904e-14 2.6957832e-11 4.429713e-14
1.9255644e-11 3.1640892e-14 2.4337045e-11 3.999065e-14 8.545406e-11 1.4041822e-13 9.192998e-11 1.5105941e-13
4.607349e-11 7.570798e-14 5.124674e-11 8.420868e-14 1.192598e-11 1.9596776e-14 1.3031975e-11 2.1414155e-14
6.4781765e-12 1.0644946e-14 1.8302481e-11 3.007465e-14 1.1226357e-10 1.844716e-13 1.1645312e-10 1.9135586e-13
3.5091816e-10 5.766289e-13 3.8781425e-10 6.3725674e-13 6.470915e-11 1.0633012e-13 6.764516e-11 1.1115457e-13
1.7468956e-09 2.8705003e-12 1.8077002e-09 2.9704147e-12 1.9679874e-11 3.2337973e-14 5.3732314e-11 8.829298e-14
2.4077504e-10 3.956417e-13 3.0479821e-10 5.008447e-13 3.4329137e-13 5.640966e-16 3.5629401e-13 5.8546256e-16
2.176227e-10 3.5759777e-13 2.3749483e-10 3.9025177e-13 5.4020517e-11 8.8766566e-14 6.087275e-11 1.0002614e-13
3.9265903e-11 6.452175e-14 5.5393145e-11 9.102208e-14 8.7925556e-11 1.444793e-13 1.0773342e-10 1.770276e-13
2.1207326e-11 3.4847894e-14 2.7350561e-11 4.4942457e-14 1.6921346e-10 2.7805167e-13 2.3075107e-10 3.7917044e-13
1.9726768e-12 3.2415042e-15 4.882728e-12 8.023301e-15 6.138146e-13 1.0086207e-15 1.2414298e-12 2.0399183e-15
2.3435828e-11 3.8509777e-14 2.686008e-11 4.41365e-14 1.7596632e-11 2.8914798e-14 2.0668559e-11 3.3962586e-14
5.68801e-10 9.34654e-13 6.359199e-10 1.044944e-12 8.0410324e-11 1.3213031e-13 9.8090196e-11 1.6118189e-13
2.381423e-11 3.9131574e-14 4.0190726e-11 6.6041445e-14 3.0061773e-11 4.9397518e-14 3.4085554e-11 5.6009427e-14
1.3736643e-11 2.2572066e-14 1.5795646e-11 2.5955422e-14 2.2597637e-11 3.7132454e-14 2.5095271e-11 4.123656e-14
2.683052e-10 4.4087938e-13 2.9975233e-10 4.925533e-13 2.2219913e-12 3.651178e-15 5.4562123e-12 8.965653e-15
2.1606478e-10 3.550378e-13 2.5089808e-10 4.1227595e-13 6.22791e-10 1.0233706e-12 6.265289e-10 1.0295127e-12
1.3994204e-10 2.2995286e-13 1.722042e-10 2.8296598e-13 5.0162156e-11 8.242648e-14 5.0209465e-11 8.250422e-14
7.3089965e-11 1.2010147e-13 7.6389915e-11 1.2552397e-13 5.4390745e-11 8.9374905e-14 6.229687e-11 1.0236626e-13
1.861404e-10 3.0586604e-13 1.9842708e-10 3.2605548e-13 1.6094034e-14 2.6445727e-17 4.6323725e-13 7.611917e-16
1.6822612e-12 2.7642933e-15 5.0295722e-12 8.264595e-15 6.116154e-11 1.0050067e-13 8.4399675e-11 1.3868553e-13
1.0044609e-11 1.650531e-14 1.44436225e-11 2.3733767e-14 1.1837267e-10 1.9451008e-13 1.3349478e-10 2.1935874e-13
2.978201e-14 4.8937828e-17 3.0218974e-14 4.9655837e-17 2.4836766e-10 4.0811788e-13 2.56989e-10 4.2228452e-13
3.004474e-11 4.9369532e-14 3.9054423e-11 6.417424e-14 4.949822e-12 8.1335475e-15 9.394215e-12 1.543658e-14
1.191789e-09 1.9583484e-12 1.3239593e-09 2.1755306e-12 4.697507e-10 7.7189465e-13 4.8768545e-10 8.0136494e-13
5.9053387e-12 9.703656e-15 1.4249895e-11 2.3415438e-14 5.7539126e-11 9.454831e-14 8.187202e-11 1.3453218e-13

exp_avg f4 [128]
00000000: 361f f136 b895 47b5 2da9 68b7 090b 2f38
00000010: f563 20b7 b69e 06b5 fc23 78b8 fb27 bc37
00000020: 6bcd 5538 058d d3b7 5673 59b8 4bcb ffb7
00000030: c766 5936 171c bbb7 23d9 e337 7d80 6c36
00000040: 36e5 3336 1fd3 8db6 d3d7 4fb7 808c 0138
00000050: 4eeb 9438 ba5c ba37 dc6b 49b9 6f6c 0bb8
00000060: 557b b5b8 ce56 38b6 fe22 6338 8c24 0c38
00000070: 458f 9936 cb35 48b8 9e89 d237 76e6 12b7
00000080: deda ff36 5a39 bab5 2f4d 7c37 f94b 69b5
00000090: b975 fcb8 b7f7 4b38 cb04 db37 bb26 8836
000000a0: c3b0 4837 8935 69b7 4a6c 8d38 65de 3236
000000b0: 7fa3 47b8 4a66 dfb8 ef8a a1b7 30f3 c3b7
000000c0: 5e32 f337 5dd9 c3b7 3123 99b8 7a2f 2136
000000d0: 936e 25b5 32da 9737 4754 4336 9be6 3838
000000e0: 6847 97b4 54bf d5b7 87d6 25b7 c62d 26b7
000000f0: 9179 45b9 df2d a3b8 62bc 9e37 6a5b 2cb8
00000100: 4dfe 6c35 e0ab 81b8 d30f 72b7 6826 8038
00000110: fa30 5a37 bc85 d437 bc7a 7cb7 adbd 4e37
00000120: fa0f dfb8 d75e 22b9 32a6 4036 c890 9038
00000130: 2e6f 6237 0ef3 15b7 419f 2bb5 0d04 a037
00000140: e503 d6b6 2c62 1938 79b9 05b9 2f67 e7b7
00000150: e0b2 23b7 b528 7eb8 ce4e 1f37 efa4 8338
00000160: a088 a237 e37b ef37 0f52 c536 457e 72b9
00000170: 0809 c4b7 c46b e1b8 29a4 5337 6c53 8fb8
00000180: dc9e 2838 3217 22b8 1c36 0eb9 a174 ca37
00000190: 7ef3 5837 83e3 09b9 b2bd 4db8 5d17 90b9
000001a0: e7c6 8838 52a0 0eb8 553e a536 da7c 3e37
000001b0: bf9f 7538 1586 1037 a180 68b8 71f3 1cb8
000001c0: 2744 10b8 ce3f a6b7 9cc6 6836 867b 15b8
000001d0: 6427 3bb8 0073 04b6 39aa 01b8 9382 13b7
000001e0: 6806 0637 b18e a1b8 a71c e2b8 56ab f9b8
000001f0: cbf6 8535 158a 42b6 676d 6835 51ab b037
7.185993e-06 -7.4351146e-07 -1.3867667e-05 4.173353e-05 -9.560016e-06 -5.0149845e-07 -5.916132e-05 2.2429964e-05
5.0974468e-05 -2.5218827e-05 -5.1844247e-05 -3.0493035e-05 3.2395344e-06 -2.2305217e-05 2.716162e-05 3.524153e-06
2.6806497e-06 -4.226705e-06 -1.2388412e-05 3.0886848e-05 7.101019e-05 2.2216107e-05 -0.00019209035 -3.324117e-05
-8.653725e-05 -2.7468664e-06 5.4153606e-05 3.3412638e-05 4.576434e-06 -4.7733814e-05 2.5098034e-05 -8.7559365e-06
7.6250717e-06 -1.3874771e-06 1.5038341e-05 -8.690982e-07 -0.00012038224 4.8629674e-05 2.6109066e-05 4.0576247e-06
1.19620845e-05 -1.3900347e-05 6.743574e-05 2.6653518e-06 -4.7597565e-05 -0.000106525215 -1.9257392e-05 -2.3359054e-05
2.8991311e-05 -2.334703e-05 -7.3021634e-05 2.4018505e-06 -6.1628197e-07 1.8102208e-05 2.910632e-06 4.4083787e-05
-2.8177897e-07 -2.5480673e-05 -9.884715e-06 -9.9050285e-06 -0.00018832671 -7.78099e-05 1.892279e-05 -4.109313e-05
8.828691e-07 -6.1832136e-05 -1.4428008e-05 6.110669e-05 1.3005216e-05 2.5334644e-05 -1.5048947e-05 1.2322719e-05
-0.000106364445 -0.00015484855 2.8706968e-06 6.893423e-05 1.3496536e-05 -8.937683e-06 -6.393421e-07 1.9075373e-05
-6.3781504e-06 3.6569472e-05 -0.00012752962 -2.7585394e-05 -9.757205e-06 -6.059623e-05 9.495487e-06 6.277288e-05
1.9375526e-05 2.854871e-05 5.8806104e-06 -0.00023125958 -2.3369226e-05 -0.00010748909 1.2614802e-05 -6.83431e-05
4.020227e-05 -3.8645412e-05 -0.00013562333 2.4134586e-05 1.2931296e-05 -0.00013150093 -4.9052476e-05 -0.00027483227
6.522034e-05 -3.4004748e-05 4.9246396e-06 1.1353952e-05 5.8561327e-05 8.614287e-06 -5.5432905e-05 -3.742002e-05
-3.4395747e-05 -1.9818453e-05 3.46863e-06 -3.563941e-05 -4.462096e-05 -1.9736472e-06 -3.091453e-05 -8.7922845e-06
7.988514e-06 -7.7036566e-05 -0.00010781857 -0.00011905159 9.981098e-07 -2.8988627e-06 8.6585936e-07 2.106061e-05
