results/ppo/MoveToGoal/MoveToGoal-988.pt (torch, 267287 bytes, 14 tensors)

discrete_act_size_vector f4 [1, 2]
000000 00 00 80 40 00 00 00 40
       4.0 2.0

network_body._body_endoder.seq_layers.0.weight f4 [128, 118]
000000 f3 5d 8d 3d 38 f6 22 bd 03 d2 98 3c 56 88 97 3d
       0.06902685 -0.039785594 0.018654829 0.07399051
000010 90 dd 3f 3d 1e 4b bf bc 7b f0 67 3c a5 b2 7a 3c
       0.046842158 -0.023351248 0.014156456 0.015301381
000020 61 27 c0 bc 96 e3 88 3e 1a 4a 82 bd 64 88 60 bc
       -0.023456277 0.26736134 -0.0636179 -0.013704393
000030 a4 54 a4 bd 6c 89 55 bc 39 13 89 3d 20 e6 40 3c
       -0.080239564 -0.013033252 0.066931196 0.011773616
000040 f6 57 02 be 5d b0 5b 3c 25 51 e2 bc 38 f8 25 bd
       -0.12728867 0.0134087475 -0.027626583 -0.040519923
000050 c3 91 1d be 3f f0 14 be 2e 4a 81 bc 9c a4 6a ba
       -0.15387635 -0.14544772 -0.015782442 -0.00089509203
000060 c2 8f 56 3d 81 e5 11 3e c3 c0 c4 3c 91 54 88 3c
       0.052383192 0.14247705 0.024017697 0.016641887
000070 80 0c 6d 3d 89 97 59 3d 5b 62 89 3d 39 2b c0 bd
       0.05787325 0.05312303 0.06708213 -0.09383244
000080 f3 19 5f 3e 06 b9 d6 3d 28 a3 8c bd 6f 80 02 bd
       0.21787243 0.10484509 -0.06867057 -0.031860765
000090 e3 ae 19 3d 0b 3a 3a bd 0c 61 2e 3d 59 fb b1 3d
       0.0375203 -0.04546551 0.04257302 0.08690519
0000a0 be d5 8a bd 23 b4 c7 bd d8 b5 df bd c2 a6 e0 3d
       -0.06779049 -0.09751155 -0.10923356 0.109693065
0000b0 e6 e3 55 be 64 99 e1 3d 92 03 a4 bc 76 77 bb 3c
       -0.20887718 0.11015585 -0.020021234 0.022884112
0000c0 17 4a 64 be 74 d8 87 be 90 a2 a7 bd 22 91 40 be
       -0.22293888 -0.26532328 -0.08185303 -0.18805364
0000d0 0f 84 27 be 94 11 e3 bb 64 2b 03 bd b4 b6 34 bd
       -0.1635897 -0.0069295857 -0.032023802 -0.04411955
0000e0 6e 94 03 be 9b 88 23 3c 05 0f d4 bd 28 47 e8 3d
       -0.1284959 0.0099813 -0.10354427 0.11341697
0000f0 c7 9e b3 3d f6 a8 0b bd b4 f3 dc 3c 57 ce 05 3d
       0.08770519 -0.03409668 0.026971675 0.032667484
000100 bf 00 66 bd ee b8 3f be 8e 2c 92 bd fa 17 f3 3d
       -0.056153055 -0.18722889 -0.071374044 0.118698075
000110 3f 0b 9a bd cd 8f 47 bb 42 6a b1 3d 74 56 55 bd
       -0.07521676 -0.0030450702 0.08662845 -0.0520844
000120 dd 20 56 bd b4 f7 30 3d 0f 6f 09 3d 92 45 3b 3e
       -0.052277435 0.043204978 0.03355318 0.18288258
000130 ec d8 8c bd ad 7e 95 3d 14 99 e5 3d f1 74 59 3a
       -0.06877312 0.07299552 0.11210838 0.00082953187
000140 b6 5f db bd 0c 0c d3 3c b0 2f 88 3d ea bd 2f bd
       -0.10711615 0.02576258 0.06649721 -0.042905726
000150 d3 2b 86 3d 2e 50 77 bc ce 18 7b bd 6d d5 cf bd
       0.065513276 -0.0150948 -0.061302952 -0.101481296
000160 a8 39 82 bd b6 09 13 3e 3a 3c 8a 3d 6d 73 7a 3c
       -0.06358653 0.14359173 0.067497686 0.015286309
000170 6f 78 c7 ba 53 47 20 3e f3 ca 14 3d 4d 26 04 bd
       -0.0015218387 0.15652208 0.03632636 -0.03226309
000180 85 9f 8e 3d 7a 86 50 38 a8 23 1e 3d 0f 1c 55 3d
       0.0696402 4.9716306e-05 0.038608223 0.052028712
000190 b0 02 89 bc bd fc 88 3d 39 04 49 3d a2 66 0f bd
       -0.016724914 0.06688831 0.049076293 -0.035009988
0001a0 07 ff d5 3d cb aa 08 be aa 15 f4 bd c7 44 28 3e
       0.10449033 -0.13346402 -0.119181946 0.16432486
0001b0 31 c8 cb bd 61 46 e0 bd 16 ce e7 3c 30 93 11 bc
       -0.09950293 -0.10950924 0.028296512 -0.00888519
0001c0 5a aa 91 3c cf 1f d9 bd 65 49 36 3d f7 de 06 be
       0.017781425 -0.1060177 0.04450359 -0.13170992
0001d0 c7 ec c7 bd f3 3d d0 bc ad e4 ea bd 3b 48 f3 3c
       -0.097619586 -0.025420165 -0.11469398 0.029697528
0001e0 1c a3 a0 bb a4 ea d9 3b 8c 7b 71 3d 1d 1a 55 3e
       -0.0049022567 0.006650286 0.058955714 0.20810743
0001f0 9f f4 83 3d b3 34 bd 3d 0b fa ba 3d 91 ae e0 bd
       0.06443142 0.09238567 0.09129723 -0.10970796
000200 5f 16 4f bd 27 87 14 3c 91 e2 12 3e f0 a2 e5 bd
       -0.050558444 0.009065426 0.1434424 -0.112127185
000210 00 4e ef bd 81 ac 4c bd ac 34 40 3d 3b 7a d1 3c
       -0.11684799 -0.0499692 0.04692523 0.02557098
000220 62 3e 27 3d d3 00 2f 3e d3 fd 58 be 62 70 48 3c
       0.040830977 0.17090158 -0.21190576 0.012233825
000230 8f e5 c9 3d dc 5d 0b 3e e7 26 95 3d bc 6f 87 3a
       0.09858238 0.13610023 0.07282811 0.0010332982
000240 ef 10 12 bd f8 df dc 3c ca ef 2c 3d c4 e0 dd bc
       -0.03566068 0.026962265 0.04222087 -0.027084716
000250 7e 71 05 3d 86 4c 8a 3d 2b 27 19 3d 27 07 02 bd
       0.032578938 0.06752877 0.03739087 -0.031745102
000260 fb 85 25 be 72 28 be bc 88 6d 9d bd 0e ed 1d bd
       -0.1616439 -0.023212645 -0.07686907 -0.03855615
000270 d5 13 dc bd 6f de ca 3c af 5f 2a bd b8 aa 3f 3e
       -0.1074597 0.024764268 -0.041595157 0.18717468
000280 31 6c b1 3d 5b 43 d2 bc 0c 6c 49 3c d6 6b fb 3b
       0.08663214 -0.025666883 0.012293827 0.007672767
000290 2e 2e 0b bd e3 50 76 3d 14 12 48 3d ee 5e 02 3e
       -0.033979587 0.060135733 0.048845366 0.12731525
0002a0 b8 3d 89 bc c4 26 96 bc 5c 5b 2a bd 3e db a4 bc
       -0.016753063 -0.018329032 -0.041591033 -0.020124074
0002b0 7d 1a b9 bd 97 a5 dd bc 26 59 28 3d f2 42 09 bd
       -0.09038255 -0.027056498 0.041100644 -0.03351111
0002c0 86 c0 86 bd cb de 65 3d 4a eb 18 3e 8a 4f 0c 3e
       -0.0657969 0.056120675 0.14933506 0.13702217
0002d0 7c 32 4b bb d6 a8 e0 3d 53 20 b3 bd 35 b9 04 3d
       -0.0031005433 0.10969703 -0.087464 0.03240319
0002e0 f0 05 f5 bd 91 ce 83 3d 67 8f 88 bd 5c a3 1f 3d
       -0.11964023 0.06435884 -0.06667977 0.03897415
0002f0 36 5a 78 bb 46 da b5 3d e8 b9 a8 bd 0c 3e 3a be
       -0.0037895567 0.08879523 -0.08238584 -0.18187732
000300 00 88 a5 bc 96 9f 40 3e c8 a6 97 bd 3e 94 d2 3d
       -0.020206451 0.18810877 -0.07404858 0.10282181
000310 8b e1 51 3d d5 1b e8 3d 28 64 47 bc 03 ca 08 3d
       0.051240485 0.113334335 -0.012169875 0.03339578
000320 69 0a 56 bd 36 61 69 3d d7 d5 4c 3e e1 0d c9 bd
       -0.05225602 0.056977473 0.20003448 -0.098171
000330 d0 b2 e8 3d 8d 30 7b bd 14 e1 b1 3d a3 ca 3e 3d
       0.11362231 -0.0613256 0.08685508 0.04657997
000340 fe 81 cf bd f9 17 56 bd e9 75 21 3d fc c7 77 3d
       -0.10132216 -0.052268956 0.03941909 0.060493454
000350 5b b7 92 bd b6 37 2b be 80 be 33 bd 76 a9 cc bd
       -0.071638785 -0.16720471 -0.043882847 -0.099932596
000360 15 01 da 3d f8 f6 2c be 8d 8d e7 bd 20 50 b4 3b
       0.10644738 -0.16891086 -0.113062955 0.0055027157
000370 71 96 98 bd 76 f9 e0 3d 06 23 9a bd 1e d5 96 3b
       -0.074505694 0.10985081 -0.075262114 0.0046030423
000380 eb 5c da bd 54 6b b9 3d 1a ca 34 3e c1 00 60 3d
       -0.10662254 0.09053674 0.1765522 0.05468822
000390 30 c7 b5 bd b3 39 e2 3d af 21 a5 bd 92 55 b9 3c
       -0.088758826 0.110461615 -0.08063065 0.02262381
0003a0 31 74 69 bd 02 3f b9 bb d3 46 d0 3d bd 39 30 3d
       -0.056995574 -0.005653263 0.10169759 0.043023814
0003b0 6a cb 50 bd 35 ae 87 bd 8a 60 b9 bc de 50 9f bd
       -0.05097524 -0.06625024 -0.022629041 -0.07779096
0003c0 b5 f1 a8 bd b6 68 86 3d 44 8e 4c bd 86 3a 34 bd
       -0.08249227 0.06562941 -0.049940363 -0.044001125
0003d0 72 86 13 be 82 0e bb 3d 0b 85 08 be ed fa 4e be
       -0.14406756 0.091336265 -0.13332002 -0.20212908
0003e0 0f 25 c7 bd 6d 02 43 bd 12 35 68 3e 36 20 1b bd
       -0.09723865 -0.047609735 0.22676495 -0.037872516
0003f0 1a 40 1b be 6c 40 57 bd 71 21 cd 3b ae a1 e8 3c
       -0.15161172 -0.05255167 0.00626009 0.028397407

network_body._body_endoder.seq_layers.0.bias f4 [128]
000000 00 00 00 00 00 00 00 00 00 00 00 00 00 00 00 00
       0.0 0.0 0.0 0.0
000010 00 00 00 00 00 00 00 00 00 00 00 00 00 00 00 00
       0.0 0.0 0.0 0.0
000020 00 00 00 00 00 00 00 00 00 00 00 00 00 00 00 00
       0.0 0.0 0.0 0.0
000030 00 00 00 00 00 00 00 00 00 00 00 00 00 00 00 00
       0.0 0.0 0.0 0.0
000040 00 00 00 00 00 00 00 00 00 00 00 00 00 00 00 00
       0.0 0.0 0.0 0.0
000050 00 00 00 00 00 00 00 00 00 00 00 00 00 00 00 00
       0.0 0.0 0.0 0.0
000060 00 00 00 00 00 00 00 00 00 00 00 00 00 00 00 00
       0.0 0.0 0.0 0.0
000070 00 00 00 00 00 00 00 00 00 00 00 00 00 00 00 00
       0.0 0.0 0.0 0.0
000080 00 00 00 00 00 00 00 00 00 00 00 00 00 00 00 00
       0.0 0.0 0.0 0.0
000090 00 00 00 00 00 00 00 00 00 00 00 00 00 00 00 00
       0.0 0.0 0.0 0.0
0000a0 00 00 00 00 00 00 00 00 00 00 00 00 00 00 00 00
       0.0 0.0 0.0 0.0
0000b0 00 00 00 00 00 00 00 00 00 00 00 00 00 00 00 00
       0.0 0.0 0.0 0.0
0000c0 00 00 00 00 00 00 00 00 00 00 00 00 00 00 00 00
       0.0 0.0 0.0 0.0
0000d0 00 00 00 00 00 00 00 00 00 00 00 00 00 00 00 00
       0.0 0.0 0.0 0.0
0000e0 00 00 00 00 00 00 00 00 00 00 00 00 00 00 00 00
       0.0 0.0 0.0 0.0
0000f0 00 00 00 00 00 00 00 00 00 00 00 00 00 00 00 00
       0.0 0.0 0.0 0.0
000100 00 00 00 00 00 00 00 00 00 00 00 00 00 00 00 00
       0.0 0.0 0.0 0.0
000110 00 00 00 00 00 00 00 00 00 00 00 00 00 00 00 00
       0.0 0.0 0.0 0.0
000120 00 00 00 00 00 00 00 00 00 00 00 00 00 00 00 00
       0.0 0.0 0.0 0.0
000130 00 00 00 00 00 00 00 00 00 00 00 00 00 00 00 00
       0.0 0.0 0.0 0.0
000140 00 00 00 00 00 00 00 00 00 00 00 00 00 00 00 00
       0.0 0.0 0.0 0.0
000150 00 00 00 00 00 00 00 00 00 00 00 00 00 00 00 00
       0.0 0.0 0.0 0.0
000160 00 00 00 00 00 00 00 00 00 00 00 00 00 00 00 00
       0.0 0.0 0.0 0.0
000170 00 00 00 00 00 00 00 00 00 00 00 00 00 00 00 00
       0.0 0.0 0.0 0.0
000180 00 00 00 00 00 00 00 00 00 00 00 00 00 00 00 00
       0.0 0.0 0.0 0.0
000190 00 00 00 00 00 00 00 00 00 00 00 00 00 00 00 00
       0.0 0.0 0.0 0.0
0001a0 00 00 00 00 00 00 00 00 00 00 00 00 00 00 00 00
       0.0 0.0 0.0 0.0
0001b0 00 00 00 00 00 00 00 00 00 00 00 00 00 00 00 00
       0.0 0.0 0.0 0.0
0001c0 00 00 00 00 00 00 00 00 00 00 00 00 00 00 00 00
       0.0 0.0 0.0 0.0
0001d0 00 00 00 00 00 00 00 00 00 00 00 00 00 00 00 00
       0.0 0.0 0.0 0.0
0001e0 00 00 00 00 00 00 00 00 00 00 00 00 00 00 00 00
       0.0 0.0 0.0 0.0
0001f0 00 00 00 00 00 00 00 00 00 00 00 00 00 00 00 00
       0.0 0.0 0.0 0.0

network_body._body_endoder.seq_layers.2.weight f4 [128, 128]
000000 dd 08 8d 3d 95 17 ec bd f8 71 9a 3d 6c eb 77 3c
       0.06886456 -0.115279354 0.07541269 0.015131813
000010 18 be aa bd 96 48 83 bd 38 f8 94 bd 6f 4c 33 3d
       -0.08337039 -0.06410329 -0.072739065 0.043774065
000020 ed d4 dc 3d 93 d6 b1 3d 53 9a 60 3d 12 ca 02 3e
       0.107828 0.08683505 0.054834675 0.12772396
000030 76 8c 77 bd 60 68 36 3d cc d8 03 be 23 0e 85 bc
       -0.06043669 0.044533134 -0.1287567 -0.016242092
000040 d8 d2 59 3e e0 42 0d bd 68 e7 4e 3c ee 9e b7 bc
       0.21271837 -0.034487605 0.012628414 -0.02241465
000050 a4 83 0d 3e 23 e8 e9 bc 30 8b bf bd 60 c2 b6 3d
       0.13819748 -0.028553074 -0.0935272 0.08923793
000060 79 58 76 bb 09 20 c5 3d e9 bf d7 3d a8 73 0c bd
       -0.0037589355 0.09625251 0.10534651 -0.034289986
000070 19 c9 97 3d 9e 89 e2 bc 99 65 77 bd 6f 4e 48 bd
       0.07411403 -0.027653512 -0.060399625 -0.048902925
000080 59 bc c9 3c e9 75 f3 bd 4e 99 01 3d 26 59 06 3e
       0.024625944 -0.11887724 0.031640343 0.13119945
000090 82 76 be bc 1f 50 03 be ea 2a 84 bc 70 0f b2 bd
       -0.023249868 -0.12823533 -0.016133744 -0.08694351
0000a0 47 3d 78 bc e3 d6 e9 bc 42 57 be bd e9 d2 c6 bd
       -0.015151328 -0.028544849 -0.09293987 -0.09708197
0000b0 35 70 66 3d 1a c9 0a 3d 5b 68 97 bd 16 3d 6f 3c
       0.056259353 0.03388319 -0.07392951 0.014601966
0000c0 ac b4 52 be 60 b0 1e 3d 35 65 a8 bd 3a 69 f5 3d
       -0.20576733 0.038742423 -0.08222429 0.11982961
0000d0 82 d6 7b bd 56 b6 12 be 82 e6 e7 bc fc 80 6d bd
       -0.061483867 -0.14327368 -0.028308157 -0.057984337
0000e0 01 c3 29 bd da 74 4d 3c 44 78 3d bd fd 12 bd bb
       -0.041445736 0.012540067 -0.046257272 -0.005770086
0000f0 5c 1d 06 3e f9 a5 99 3d 48 40 a0 3d a2 4b 8e 3d
       0.13097137 0.0750236 0.07824761 0.069480196
000100 51 79 ac bd da 4b 8d ba 3a 07 54 bd 37 c8 dc bc
       -0.08421577 -0.0010780052 -0.051764704 -0.026950939
000110 cc 73 1b be 97 ac 84 3d 0a 92 ee bb 61 54 2c 3d
       -0.15180892 0.064782314 -0.007280593 0.042072657
000120 01 34 4c bd 26 66 a8 3d 04 f9 32 be b7 8b 4c bd
       -0.049854282 0.08222608 -0.17477804 -0.04993793
000130 9a b9 bd bc b0 5f c1 bc f2 8a 4a 3d 3e 42 b6 3d
       -0.02315979 -0.023605198 0.049448915 0.088993534
000140 05 ce 27 bc 40 d9 fe bc 17 b5 37 bd cc 7e eb bd
       -0.01024199 -0.031109452 -0.044850435 -0.11498794
000150 23 be 22 be 0c 56 8d 3c 54 5f 54 be aa 8f 07 bd
       -0.15892844 0.017252944 -0.2073949 -0.033095993
000160 2e 49 23 3b aa c2 10 3e e4 52 2d 3d d7 ff ad 3d
       0.0024915445 0.14136758 0.04231538 0.08496063
000170 4f 31 d5 bd c1 f9 a3 3d a3 94 3a bd dd ce 62 3d
       -0.104097955 0.08006621 -0.045551907 0.05537306
000180 0d 88 b5 bc f3 4a c1 3d 95 3b 14 bd 94 e0 50 b9
       -0.0221596 0.094381236 -0.036189634 -0.00019920088
000190 a6 68 24 be 97 fd 97 3d 5a 65 a8 bc 64 48 68 3d
       -0.16055545 0.07421415 -0.02055614 0.056709662
0001a0 bb 16 71 3c 35 51 a5 3c d5 39 c3 3d 93 42 35 3d
       0.014714892 0.020180324 0.09532515 0.044252943
0001b0 be 7c 36 be 3a 48 fb 3c f2 d7 bc 3d bd 24 c3 bd
       -0.17821023 0.030674089 0.09220876 -0.09528492
0001c0 2d 7b 3c bd 56 0c 70 bd 1d b4 21 3d b9 19 eb bd
       -0.046015907 -0.058605514 0.03947841 -0.114795156
0001d0 17 7f 6c bc 1c 93 c7 3d 77 b7 23 3e 2b d8 6a bc
       -0.014434597 0.09744856 0.15987955 -0.014333765
0001e0 8d c9 0a bd 5c 58 8e 3d ab 16 c2 bc f4 c3 eb bd
       -0.03388362 0.06950447 -0.02369245 -0.115119845
0001f0 a5 2c ff 3c 5d 9e 3a 3c 78 4f c3 bd 02 79 f1 ba
       0.031149218 0.011390296 -0.09536642 -0.0018422904
000200 a4 7c 88 bd 58 4a ee 3d 92 ff 36 3d b1 6a 56 3e
       -0.06664398 0.11635274 0.044677325 0.20939137
000210 7c 20 8f bb b1 3e 2f be ff d3 3c 3d 2a df 01 3d
       -0.004367886 -0.17113759 0.046100613 0.031706966
000220 ac ec a3 bd c6 22 c8 3d ea 0d 4a be 99 9f 2b be
       -0.08004126 0.097722575 -0.1973187 -0.167601
000230 e4 ec 00 3d 0d 80 96 3d b4 6a 51 3e 25 68 15 be
       0.031475917 0.073486425 0.2045086 -0.14590509
000240 f8 6d f7 bb 3a b0 a6 bd 12 eb 19 3d e7 2d 7e bd
       -0.007550951 -0.08139081 0.037577696 -0.062055495
000250 37 b9 bc bb 68 68 d1 3c d2 16 a1 bd e3 f1 ab bc
       -0.005759384 0.02556248 -0.07865681 -0.020989364
000260 75 7f a1 3d a9 80 89 3c 50 ab 15 bd 74 06 f7 bd
       0.078856386 0.016784983 -0.03654033 -0.12061778
000270 7c e0 c8 3d e1 b5 c9 bc c9 fc 3c 3c a2 89 f7 bd
       0.09808442 -0.02462286 0.011534878 -0.12086798
000280 13 a5 c0 3c 37 64 a3 bb e3 2d 50 3d ea 75 c7 bd
       0.023516214 -0.004986312 0.05082501 -0.09739287
000290 bf bb e7 bd b7 ac f3 3c ee ef 86 3d 17 74 ec 3d
       -0.113151066 0.029745443 0.06588732 0.1154558
0002a0 d1 66 ec 3d 55 1f e8 bc e1 a3 84 be 04 c6 01 be
       0.11543048 -0.028335253 -0.2590628 -0.12673193
0002b0 65 10 de 3c d4 88 18 3e 72 3b f1 bd 49 1d 8b bd
       0.027107427 0.14895946 -0.117789164 -0.06792695
0002c0 99 70 2f be 03 6d 39 be 27 e9 fb bc d6 cb d6 bd
       -0.17132796 -0.18107991 -0.030750824 -0.10488097
0002d0 a9 cc 45 3c de 8a fa bc 75 fb ef 3c ba 53 d5 3d
       0.012072721 -0.030583795 0.029294709 0.1041636
0002e0 21 c6 e1 ba 42 17 29 bd cd 54 a7 bd 1b 57 1b be
       -0.0017225185 -0.041281946 -0.08170471 -0.15169947
0002f0 3c a1 bf 3b d1 5c 43 3b bc b2 e9 bb 9b ab ef 3d
       0.005848078 0.0029809962 -0.0071319025 0.11702653
000300 fd f6 37 3c 5f d1 29 3e f3 b4 13 bd b3 62 0b 3e
       0.01122832 0.16583775 -0.03606124 0.1361187
000310 3b 96 de bd 39 17 9a bc f0 7f 1f 3d 48 34 03 bd
       -0.10868498 -0.018809902 0.03894037 -0.03203228
000320 80 a3 18 3d 17 de 1f 3d e1 84 d3 3c 33 3c 9d bd
       0.0372653 0.03903016 0.025820198 -0.07677498
000330 ea 4b 50 3e 6c 1e b5 bd 92 3e 89 3d fe c4 51 3d
       0.20341459 -0.08843693 0.067013875 0.051213257
000340 5b fc cf 3c c0 a1 76 bb 82 36 5d 3b 52 ba 2a bc
       0.025388887 -0.0037633032 0.0033754413 -0.010420399
000350 5f 1a 6e bd 48 82 ab 3c 5b d3 12 3d 10 75 05 3e
       -0.05813062 0.020936146 0.035846096 0.13032937
000360 a6 aa 5e 3d 3c 8d 3e 3d 58 71 5a bd bd 69 9d 3d
       0.05436196 0.04652141 -0.05333075 0.076861836
000370 8d f8 e4 bd 3a 68 d2 bd ce 4a 5e bc 40 f8 09 3e
       -0.1118022 -0.10273786 -0.0135676395 0.13473606
000380 2a ed cb bc 0d 1a 55 3e e9 96 97 bd fe 00 1e be
       -0.024893362 0.20810719 -0.07401831 -0.15430066
000390 55 2c 76 bd 4c 6f 08 3d db f5 94 3c 81 f9 e1 3d
       -0.060100872 0.033309266 0.01818364 0.11033917
0003a0 b8 04 1b 3e 77 49 1e bd 16 fa c3 3d de 70 06 be
       0.15138519 -0.03864428 0.095691845 -0.13128993
0003b0 2a 51 9a 3d bd c6 7c bc d3 e7 d2 3d dd 36 53 bd
       0.07535012 -0.015428242 0.10298123 -0.051565994
0003c0 76 85 4b be bb b8 a0 bd 54 ec 1c 3d 10 3c 21 be
       -0.1987513 -0.078477345 0.038311318 -0.15745568
0003d0 78 a1 63 3b 57 c3 0e 3e c6 08 7c bd 65 f8 7f bd
       0.0034733694 0.13941704 -0.061531805 -0.062492747
0003e0 37 d7 cb bd ad 49 35 3d c7 92 3f 3d 85 a5 83 bd
       -0.09953158 0.044259716 0.046770837 -0.06428055
0003f0 92 d1 9a bc 79 25 6b 3d 3a 12 64 bd ef 8f eb bc
       -0.018898759 0.057408784 -0.055681445 -0.028755156

network_body._body_endoder.seq_layers.2.bias f4 [128]
000000 00 00 00 00 00 00 00 00 00 00 00 00 00 00 00 00
       0.0 0.0 0.0 0.0
000010 00 00 00 00 00 00 00 00 00 00 00 00 00 00 00 00
       0.0 0.0 0.0 0.0
000020 00 00 00 00 00 00 00 00 00 00 00 00 00 00 00 00
       0.0 0.0 0.0 0.0
000030 00 00 00 00 00 00 00 00 00 00 00 00 00 00 00 00
       0.0 0.0 0.0 0.0
000040 00 00 00 00 00 00 00 00 00 00 00 00 00 00 00 00
       0.0 0.0 0.0 0.0
000050 00 00 00 00 00 00 00 00 00 00 00 00 00 00 00 00
       0.0 0.0 0.0 0.0
000060 00 00 00 00 00 00 00 00 00 00 00 00 00 00 00 00
       0.0 0.0 0.0 0.0
000070 00 00 00 00 00 00 00 00 00 00 00 00 00 00 00 00
       0.0 0.0 0.0 0.0
000080 00 00 00 00 00 00 00 00 00 00 00 00 00 00 00 00
       0.0 0.0 0.0 0.0
000090 00 00 00 00 00 00 00 00 00 00 00 00 00 00 00 00
       0.0 0.0 0.0 0.0
0000a0 00 00 00 00 00 00 00 00 00 00 00 00 00 00 00 00
       0.0 0.0 0.0 0.0
0000b0 00 00 00 00 00 00 00 00 00 00 00 00 00 00 00 00
       0.0 0.0 0.0 0.0
0000c0 00 00 00 00 00 00 00 00 00 00 00 00 00 00 00 00
       0.0 0.0 0.0 0.0
0000d0 00 00 00 00 00 00 00 00 00 00 00 00 00 00 00 00
       0.0 0.0 0.0 0.0
0000e0 00 00 00 00 00 00 00 00 00 00 00 00 00 00 00 00
       0.0 0.0 0.0 0.0
0000f0 00 00 00 00 00 00 00 00 00 00 00 00 00 00 00 00
       0.0 0.0 0.0 0.0
000100 00 00 00 00 00 00 00 00 00 00 00 00 00 00 00 00
       0.0 0.0 0.0 0.0
000110 00 00 00 00 00 00 00 00 00 00 00 00 00 00 00 00
       0.0 0.0 0.0 0.0
000120 00 00 00 00 00 00 00 00 00 00 00 00 00 00 00 00
       0.0 0.0 0.0 0.0
000130 00 00 00 00 00 00 00 00 00 00 00 00 00 00 00 00
       0.0 0.0 0.0 0.0
000140 00 00 00 00 00 00 00 00 00 00 00 00 00 00 00 00
       0.0 0.0 0.0 0.0
000150 00 00 00 00 00 00 00 00 00 00 00 00 00 00 00 00
       0.0 0.0 0.0 0.0
000160 00 00 00 00 00 00 00 00 00 00 00 00 00 00 00 00
       0.0 0.0 0.0 0.0
000170 00 00 00 00 00 00 00 00 00 00 00 00 00 00 00 00
       0.0 0.0 0.0 0.0
000180 00 00 00 00 00 00 00 00 00 00 00 00 00 00 00 00
       0.0 0.0 0.0 0.0
000190 00 00 00 00 00 00 00 00 00 00 00 00 00 00 00 00
       0.0 0.0 0.0 0.0
0001a0 00 00 00 00 00 00 00 00 00 00 00 00 00 00 00 00
       0.0 0.0 0.0 0.0
0001b0 00 00 00 00 00 00 00 00 00 00 00 00 00 00 00 00
       0.0 0.0 0.0 0.0
0001c0 00 00 00 00 00 00 00 00 00 00 00 00 00 00 00 00
       0.0 0.0 0.0 0.0
0001d0 00 00 00 00 00 00 00 00 00 00 00 00 00 00 00 00
       0.0 0.0 0.0 0.0
0001e0 00 00 00 00 00 00 00 00 00 00 00 00 00 00 00 00
       0.0 0.0 0.0 0.0
0001f0 00 00 00 00 00 00 00 00 00 00 00 00 00 00 00 00
       0.0 0.0 0.0 0.0

action_model._discrete_distribution.branches.0.weight f4 [4, 128]
000000 6f 3d 5a 3c b5 dc 13 3c f1 dc 04 3c e3 57 4a 3c
       0.013320311 0.009024789 0.008109317 0.012350055
000010 e6 13 c5 3c 53 2d c5 3b 42 30 00 bc 6e c4 0e bc
       0.02405734 0.006017366 -0.007824006 -0.008713825
000020 27 2a d4 3b bb 1e 9f b7 13 71 7d b9 10 3d c4 3b
       0.0064747515 -1.8968587e-05 -0.00024170084 0.0059887245
000030 0c 88 85 b9 83 77 ea bb b0 fa c5 b8 a2 18 d0 bb
       -0.000254691 -0.00715536 -9.440386e-05 -0.0063505927
000040 e5 36 87 3a da 63 8d 3b ea 3a 5f bc e0 99 e3 3b
       0.0010316042 0.0043148817 -0.013624886 0.0069458336
000050 4f 78 1e b9 15 4b ab 3b 0a a0 97 bb 95 f9 91 3b
       -0.00015112873 0.0052274563 -0.0046272324 0.0044548013
000060 7b 30 5e 3b 60 06 03 bc cb 2e 70 bb aa 11 ab 3a
       0.0033903408 -0.007997125 -0.0036648985 0.0013051529
000070 d7 c0 44 b9 d2 18 3f 3b 84 45 ab 3a 3f 5a 21 3b
       -0.00018763855 0.0029159081 0.0013066982 0.0024620441
000080 5a d1 85 3c 94 7d 3d bc cd 43 36 3c d5 5d 4f 3b
       0.016335178 -0.011565585 0.011124563 0.0031641622
000090 ae 3a c1 b7 6d 03 7c bb dd 3f c1 3b 0f d2 6f ba
       -2.3034718e-05 -0.003845419 0.0058975057 -0.00091484276
0000a0 d2 79 0c 3c 18 05 3c 3c ba 33 56 3c c3 74 63 3b
       0.008573966 0.011475824 0.013073856 0.0034707047
0000b0 3d 48 ef 3b 0f f1 e9 3b f4 a1 22 bb 81 65 80 3c
       0.0073023126 0.007139332 -0.002481577 0.0156734
0000c0 12 b1 8a 3b dd b0 54 bb ba ec 0a bb 63 b1 85 bb
       0.004232534 -0.0032454052 -0.002119823 -0.004079984
0000d0 86 06 9b 39 9c b4 c3 3b 27 2b 2a bc 32 e0 05 b9
       0.00029568764 0.005972458 -0.010386265 -0.00012767388
0000e0 83 c2 0f 3c b5 d7 2f 3c 67 0c c7 bb 17 2f 12 3c
       0.008774403 0.010732581 -0.0060744765 0.00892236
0000f0 0d f8 38 bc 81 9f 0a bc e3 47 d0 3b 97 6b 61 bb
       -0.011289609 -0.00846088 0.006356226 -0.0034396404
000100 8b 0a 56 3c 0b e2 8e 3b 85 ee 9d bb 72 db 0e 3c
       0.013064037 0.0043604425 -0.0048196935 0.008719312
000110 0b 80 a6 3c 74 d4 12 bb 4f d6 b0 3a af 18 b0 bb
       0.020324728 -0.0022404464 0.0013491603 -0.0053740363
000120 83 77 9c b9 9f 5d 85 3b e5 2d a2 3b d7 e8 21 3c
       -0.00029843682 0.0040699984 0.0049493187 0.0098821735
000130 27 72 ca 3b 0f 3b 1b bc 6a 0a 81 3c 49 26 05 3c
       0.006178159 -0.00947453 0.015752036 0.008126804
000140 91 a5 8c 3b 26 38 3a 3c 4d 63 00 bc 7b 29 22 3b
       0.004292198 0.011365926 -0.007836175 0.0024743963
000150 83 6d 06 bc 52 fd 72 3c 99 52 96 3a 1d b1 c0 ba
       -0.008204821 0.014830904 0.0011468708 -0.0014701221
000160 73 3d c3 bb b9 25 3d bb 33 7c 7a 3b 9b dc 1f bc
       -0.005958253 -0.0028861596 0.0038221 -0.009757186
000170 ef d8 2c 3c 6a 60 30 bb 56 03 40 3c 3a 4b 53 3b
       0.010549768 -0.0026912936 0.011719545 0.0032240883
000180 12 a6 2f bb 82 72 bb 3b 89 d8 08 3c f9 d1 14 bc
       -0.0026801866 0.0057204375 0.008352407 -0.0090832645
000190 f0 37 60 bb 3a 6f 07 3b e7 c7 c8 3b c0 0c f5 3b
       -0.003421303 0.0020665661 0.006127346 0.0074783266
0001a0 8a 24 b8 bb e7 61 81 bb 6b 7d f9 bb 69 25 16 3c
       -0.00561959 -0.0039484384 -0.007613828 0.009164193
0001b0 1f 63 c1 3b e2 30 d4 3b ba ff 8b 3b 58 51 5b 3c
       0.0059017087 0.006475554 0.0042724283 0.013386093
0001c0 90 9a ea 3b b0 a6 e2 3b 5b e3 51 3b e6 99 0f ba
       0.0071595386 0.0069168434 0.0032026384 -0.000547795
0001d0 3f 08 b5 3b 97 96 bd ba f8 e1 9e bb 8f a7 f6 bb
       0.0055246647 -0.0014464435 -0.004848715 -0.0075272988
0001e0 df de 43 bc 0b 0c c8 bb 58 02 14 3c 03 2e 9d 3c
       -0.011954992 -0.0061049513 0.009033762 0.01918698
0001f0 32 e1 20 3c 51 4a 9c 3c d3 5f 1b 3c bb 7e 87 3b
       0.009819316 0.019078406 0.0094832955 0.0041349805
000200 3a 82 7a 3c 77 fa f5 bb d2 6e d8 3a 7b ab 57 3b
       0.0152898375 -0.0075066644 0.0016512519 0.0032908607
000210 d6 c8 80 bc 88 45 0b bc aa 82 96 bb b2 5f 2b 3b
       -0.015720766 -0.008500464 -0.004593213 0.0026149568
000220 a9 55 13 bc c7 b9 5e 3c 2f d2 9a bb da 31 7e 3b
       -0.008992591 0.013594097 -0.004724763 0.0038787038
000230 f4 7f 0f bc c7 62 ff ba 97 d0 b0 bc e3 38 26 bc
       -0.008758534 -0.0019484394 -0.021583838 -0.010145399
000240 e2 2e e2 bb 00 ad 89 3a 5f bf 90 3a 4b 0f 8a bc
       -0.0069025615 0.0010503829 0.0011043361 -0.016852995
000250 fb 57 dc bb e2 1b 57 3b 98 d6 76 bb c2 62 76 bc
       -0.0067243553 0.0032823016 -0.003766453 -0.015038194
000260 ee 89 ac 3b 60 c5 0a bc 50 08 5e ba 1d 27 90 3c
       0.005265466 -0.008469909 -0.00084698666 0.017596776
000270 6f c6 26 bb 78 5b 24 3a 60 30 67 bb 5f e5 cf 39
       -0.0025447865 0.00062697334 -0.0035276636 0.00039653011
000280 d4 6a a7 bb 72 cb d4 ba 8d 9c 5b 3c 14 b1 b9 3a
       -0.0051091705 -0.0016234948 0.013404024 0.0014167153
000290 6e 45 34 3a 98 b4 91 bc 63 9e 87 bb ab 4b 3e bc
       0.0006876801 -0.01778631 -0.004138754 -0.01161472
0002a0 75 e3 8a 3c df b5 3e 3a fe 36 36 bc 59 ad 3b 3c
       0.016954163 0.0007275026 -0.01112151 0.0114549035
0002b0 ef 7f 07 bc f0 f6 fb bb eb 7c 1e bb 2e 1b 97 bc
       -0.008270248 -0.0076893494 -0.0024183344 -0.018445577
0002c0 97 2c 15 bb 98 40 fe 3b 2b 12 1d bc d5 cc ee ba
       -0.0022762173 0.007759165 -0.009586851 -0.0018219004
0002d0 f5 1d ef 3b b5 eb aa 3b 8f 8e a0 3a f4 62 30 3c
       0.0072972723 0.0052160867 0.0012249517 0.01076578
0002e0 92 6d 17 3b f3 c7 54 3c ba 1b ae ba 60 c0 27 3a
       0.002310608 0.012987125 -0.001328341 0.00063992105
0002f0 9f f4 aa 3c 9c 3b a8 3b d7 59 e1 3b db 2d bd 38
       0.020868598 0.005134059 0.006877165 9.0207635e-05
000300 a5 5f f5 38 ef ef 88 bb 26 b5 11 bc 5a 11 2c bc
       0.000117003256 -0.004178993 -0.008893287 -0.010502184
000310 fd 05 50 3a 43 f2 a7 3c a0 79 59 3c 45 05 eb 3a
       0.00079354626 0.020501262 0.013273627 0.0017930648
000320 f0 34 47 bc 2a b7 8c bb 1c b4 99 39 a2 58 61 3b
       -0.012158617 -0.004294296 0.00029316626 0.0034385105
000330 b1 cc ba 3b 67 e4 b4 bc 07 55 a7 3c a8 0c 09 3c
       0.0057006706 -0.022081567 0.020426286 0.008364834
000340 c7 55 0b bb 08 7d b9 3a 77 5e d0 bb 06 c1 ca 3a
       -0.0021260844 0.0014151642 -0.0063589173 0.0015468902
000350 fa 5a 0a bc f3 1e f7 bb f4 37 37 3c d7 52 2b bb
       -0.008444542 -0.007541531 0.011182774 -0.0026141906
000360 3f d7 10 3c 52 ce 63 3c 63 df bc 3b 97 cd a7 b9
       0.008840381 0.013904171 0.0057639345 -0.00032005899
000370 17 15 de ba af 73 3b 3b 9d 24 39 bc 81 3c a9 3b
       -0.0016943541 0.0028602888 -0.011300233 0.0051646833
000380 53 eb 09 3c db d7 72 3b 3e 1f 48 3b 9d 04 ca bb
       0.008417922 0.003705493 0.00305362 -0.0061651007
000390 7b c6 12 bc b0 58 e0 3b cb 63 8a bc 4e 57 a7 bb
       -0.008958454 0.00684651 -0.016893288 -0.005106843
0003a0 f8 d6 57 3a 75 68 d3 3b b5 3b 4d bc c6 7c 80 bb
       0.0008233632 0.0064516612 -0.012526442 -0.003921124
0003b0 9f 4c 91 3b 11 60 92 3b 02 3e db 3a 97 b7 e0 bb
       0.004434183 0.0044670184 0.0016726854 -0.006857823
0003c0 22 9a d3 bb 11 28 34 3a 5e 25 9f bb af de 17 3c
       -0.006457583 0.00068724254 -0.0048567494 0.0092694005
0003d0 95 84 aa 3b 6e 5a b1 bb b3 94 26 bb e7 f5 83 bb
       0.0052037933 -0.0054123914 -0.0025418221 -0.0040271166
0003e0 63 9a 39 3c e7 4a c0 3b 6d 46 cf bb d7 a2 30 3c
       0.011328313 0.005868304 -0.006325534 0.010781012
0003f0 1a 9e 1a 3c 38 e8 b0 bb ed 4a f3 3b 03 25 c0 3b
       0.009437108 -0.0053987764 0.0074247033 0.005863787

action_model._discrete_distribution.branches.0.bias f4 [4]
000000 00 00 00 00 00 00 00 00 00 00 00 00 00 00 00 00
       0.0 0.0 0.0 0.0

action_model._discrete_distribution.branches.1.weight f4 [2, 128]
000000 d8 04 6c bb 78 1c c7 b9 19 f6 07 bc 00 6b 3d bc
       -0.003601363 -0.0003797745 -0.00829842 -0.011561155
000010 18 52 f2 3b 45 f0 63 3a 7b 24 83 ba b3 bf e0 3b
       0.0073950402 0.0008695166 -0.0010005379 0.00685879
000020 80 4b da b9 f3 8e 81 bb 87 c9 71 3c 14 5d 1f 39
       -0.00041636452 -0.0039538085 0.0147575205 0.00015198096
000030 79 ff 2c 3c 02 bf f7 bb 8b 27 7e bb 98 9d 36 bc
       0.010558956 -0.0075606117 -0.0038780894 -0.011145972
000040 bf a1 15 3c 13 c2 d1 bb 48 7b 8c bc 0f 46 07 bc
       0.009132802 -0.0064013093 -0.017148629 -0.008256449
000050 4a 86 ce 3b 2a 7a 1a bc 24 ba 30 3c 50 a5 e4 3b
       0.0063026296 -0.00942854 0.010786567 0.0069777146
000060 9f c0 b5 3c 20 f2 e9 3a 48 86 05 3a 5f 31 a5 3b
       0.022186575 0.0017848648 0.0005093557 0.005041286
000070 af b0 90 bb 37 10 ba ba 67 32 81 bc f8 cc 6c bb
       -0.0044155936 -0.0014195506 -0.015771104 -0.0036132913
000080 35 04 1c 3c 9f fb cf 3a bb e0 f1 bb 40 a3 67 bc
       0.009522487 0.0015867836 -0.0073815263 -0.014138043
000090 9f a7 4e 3a da 3b 81 bc a3 06 4d 3c 4d e8 66 3c
       0.0007883254 -0.01577561 0.012513789 0.014093471
0000a0 1d 81 e1 3b a8 cf 73 bc 5b e0 c8 bb 87 d3 1d bb
       0.0068818466 -0.014881052 -0.006130261 -0.002408238
0000b0 80 4d 7d bb 90 80 65 3c 7e 2c b8 bb 0d de ec 3b
       -0.003865093 0.0140077025 -0.0056205383 0.007228619
0000c0 63 90 6a bb ba e6 a3 3a 07 88 89 3b 30 6d 5a bc
       -0.0035791628 0.0012504675 0.004197124 -0.013331696
0000d0 92 41 8a 3c 73 31 c4 3b ab 7f 81 bb ee 84 39 3a
       0.01687697 0.00598734 -0.003951987 0.0007076998
0000e0 6f 74 8b bc 98 0e 93 3b 23 90 b0 3b 37 b0 48 3a
       -0.017023293 0.0044878237 0.005388276 0.00076556526
0000f0 eb 83 83 3b a3 cd 31 bb ef da 38 bc a0 92 7a bc
       0.0040135286 -0.0027130626 -0.011282667 -0.015293747
000100 a0 83 88 3a 52 5f 57 bc 71 80 aa ba 5b d7 10 bc
       0.0010415204 -0.013145285 -0.0013008249 -0.008840407
000110 a2 f9 04 39 3b 5b 82 3b bc ad 11 3b 8b fa 38 bc
       0.00012681496 0.0039781607 0.0022228798 -0.011290203
000120 b7 3a 1d 3c 75 0f 5e 3c b5 40 9f 3b 74 d2 0f bc
       0.009596518 0.01355349 0.0048600086 -0.008778203
000130 a4 29 a9 bb 69 eb ba 3b fd 5b 6b bb e0 66 8f bb
       -0.0051624347 0.0057043326 -0.0035912984 -0.0043762773
000140 57 cc b5 b9 cd 8c 3b 3b 81 38 95 bb 69 9c a6 3c
       -0.00034675255 0.002861786 -0.004553855 0.020338254
000150 5b 12 4e 3c 78 b4 59 bb 43 93 b8 bb c7 08 ee bb
       0.0125776185 -0.003321914 -0.0056327893 -0.00726423
000160 d7 a0 da bb 90 4b 82 3c 54 e5 88 bc 4f 83 d2 3b
       -0.0066720056 0.015905172 -0.016710915 0.0064243446
000170 e7 0a a1 bb 6b ad ac 3a 34 54 19 3b ed fd 6c 3c
       -0.0049146297 0.0013174241 0.0023396136 0.0144648375
000180 ab b8 5f bc 8f ca 5a 3c a7 16 68 3b 7f 3d 3e bb
       -0.013654868 0.013353958 0.0035413892 -0.0029028354
000190 f3 45 02 3c d0 ad f9 3b ac 62 85 ba 01 81 88 3c
       0.0079512475 0.007619597 -0.0010176501 0.016663076
0001a0 a7 71 2e 3a c2 26 65 3c fa 0a 89 ba 5a 4f 09 bc
       0.0006654509 0.013986291 -0.0010455542 -0.008380735
0001b0 65 63 70 bb e5 04 81 b9 0a b8 70 bb 9c 5d 17 3c
       -0.0036680338 -0.00024608444 -0.003673079 0.009238627
0001c0 f0 05 f3 bb 1d fb 3c 3b 08 a9 3b 3c e7 63 fe 3b
       -0.0074164793 0.0028836199 0.011453874 0.007763374
0001d0 4f a9 88 3b 87 6e f6 3a 8d 7f ea b8 c3 98 3c 3c
       0.004170574 0.001880125 -0.00011181748 0.011511031
0001e0 17 35 2e bc 2e 4c 44 3b 56 a9 0e bc 32 1f 1c bc
       -0.010632775 0.0029952633 -0.008707365 -0.009528922
0001f0 5f 96 bc ba 0c 69 8c bb ec 23 9f 3b 03 90 9e 3b
       -0.0014388076 -0.0042849835 0.004856577 0.004838945
000200 26 c8 b9 3a aa 27 f4 3b b3 ef 29 bc 75 74 2b bc
       0.0014174029 0.0074510174 -0.01037209 -0.010464777
000210 7b c8 6f b9 df 83 f1 ba 62 1e f6 ba 1a 5e 82 3b
       -0.00022867501 -0.0018426141 -0.0018777365 0.003978503
000220 63 a1 82 bb f0 f4 61 ba ba 83 13 ba 83 26 9d 3b
       -0.003986524 -0.00086195674 -0.0005627234 0.0047958507
000230 58 9a 4e 3b ba 71 87 bb c7 33 fc ba 88 71 ea 3b
       0.0031525102 -0.0041334303 -0.0019241505 0.0071546473
000240 0f f8 d2 3b 92 91 b8 3a a3 5f 4d bc 83 8d dd bb
       0.0064382623 0.0014081469 -0.012535009 -0.0067612543
000250 18 b5 a0 ba ef 2b ce ba bf c0 41 3c c3 43 0d 3c
       -0.0012261001 -0.0015729646 0.011825739 0.008622113
000260 15 93 dd 3a b3 a1 20 bc 50 7f 9d 38 4e 55 bc bb
       0.0016904796 -0.009804177 7.510057e-05 -0.005747474
000270 ff b6 c7 ba 9b 4b b8 bb 17 30 b3 3b bf 53 e4 bb
       -0.0015237032 -0.0056242472 0.0054683792 -0.006967991
000280 1d 8a 65 bc c7 a5 b7 3b 64 b7 1d 3b 2f 7b b7 bb
       -0.01400998 0.005604479 0.0024065608 -0.0055994014
000290 13 2d b3 bb 92 3f 00 3c 80 95 a9 bc d4 94 13 bc
       -0.0054680197 0.007827656 -0.02070117 -0.009007651
0002a0 0b f1 11 3c 2f 96 2f 3c 71 3f 80 3c fa e8 56 bb
       0.008907567 0.010716959 0.015655251 -0.0032792673
0002b0 b3 6c 30 3c e8 1d 15 bb 44 45 8b bc 24 d3 c0 3b
       0.010768103 -0.0022753421 -0.017000802 0.005884545
0002c0 ef c3 47 b9 73 36 97 bc f7 07 7f bc 7e 80 28 bc
       -0.0001905111 -0.01845858 -0.015565864 -0.010284541
0002d0 7c e2 c1 bb 65 56 d5 ba 1f cd 03 bb 87 d9 d7 bb
       -0.0059168916 -0.0016276358 -0.0020111275 -0.0065872106
0002e0 d7 d4 e0 ba 56 35 84 bc c8 d1 e6 39 98 6d 05 3c
       -0.0017153275 -0.016138714 0.00044025318 0.008143805
0002f0 77 9a 3b ba dd 26 f6 bc f4 45 28 3b 73 b3 21 bb
       -0.0007156501 -0.030047828 0.002567646 -0.002467361
000300 f8 21 9f 3c 37 f0 49 bc 87 37 8b bc 17 7e a5 3c
       0.019425377 -0.012325338 -0.016994251 0.020201726
000310 e0 14 d5 bb e5 e8 fd bb 0d 55 d3 3b db ae 22 3c
       -0.0065027326 -0.0077487105 0.006449348 0.009929384
000320 10 d3 e1 bb d7 77 59 3b 15 55 5b 3b 5e df ac bb
       -0.0068916157 0.0033183002 0.003346746 -0.005275651
000330 f3 27 94 3b 9e ae 88 3c 6f 12 f0 bb 50 db a6 bb
       0.004521364 0.016684826 -0.007326416 -0.005092062
000340 f5 57 28 3b 90 63 99 bb f5 a0 73 bb b0 fe 44 3c
       0.0025687192 -0.004681058 -0.0037174795 0.012023613
000350 8c 51 85 3b bd 98 ce bb 64 e1 10 3c b8 a5 16 3c
       0.004068559 -0.006304829 0.0088428 0.009194784
000360 92 aa 1a bc ca 50 80 bc e3 ed 5f 3b cc 2f 9a 3c
       -0.009440081 -0.015663523 0.003416889 0.01882162
000370 d2 bb 97 bb 18 04 db bb c3 a2 0a bb 37 e7 9e ba
       -0.004630544 -0.0066838376 -0.0021154142 -0.0012123351
000380 7f 77 3b b9 c9 b9 95 3b f4 d0 09 3c 64 d2 45 3b
       -0.00017878225 0.0045692665 0.008411635 0.0030185217
000390 52 6d 34 bb b2 99 30 bc ad 36 62 bb f7 fc f3 ba
       -0.002753098 -0.010778831 -0.0034517453 -0.0018614818
0003a0 37 2b 51 bc 10 11 a1 bb 15 92 38 bb 67 2b 06 bb
       -0.012766651 -0.004915364 -0.0028163244 -0.0020472647
0003b0 93 5e a5 bc 4f 4a 1d bb 5a 73 74 3b 7a 6a 4d bb
       -0.020186698 -0.002400059 0.00373002 -0.0031343983
0003c0 56 65 b9 bb f6 aa 89 bc 33 63 06 3c 36 32 95 bb
       -0.005657832 -0.016805153 0.008202362 -0.0045531048
0003d0 c3 47 4d 3b 8a 02 2e 3c 3f 0c 57 3b 3d 2f 5e bb
       0.003132329 0.010620723 0.0032813696 -0.0033902668
0003e0 a7 81 04 3c ae 97 39 39 29 20 0e bc 15 ac 78 ba
       0.008087552 0.0001769948 -0.00867466 -0.00094860914
0003f0 21 ab 44 3a 77 24 05 bc 8b 4e e6 ba 37 eb d8 39
       0.0007502307 -0.00812637 -0.0017571015 0.0004137398

action_model._discrete_distribution.branches.1.bias f4 [2]
000000 00 00 00 00 00 00 00 00
       0.0 0.0

network_body._body_endoder.seq_layers.0.weight f4 [128, 118]
000000 4e 4c a5 bb 43 7c a6 3c 76 6f 37 be eb c1 71 3d
       -0.0050444966 0.020322924 -0.17913613 0.059022825
000010 b7 f5 ae bd 4b 0a ba bc c0 99 24 3c f9 6a ac ba
       -0.0854296 -0.022709986 0.0100464225 -0.0013154439
000020 df d5 96 bc 45 5e 6d bb c8 90 2f 3d 15 03 b1 3c
       -0.018412529 -0.003621952 0.042862684 0.021607915
000030 b6 72 97 3d ad c5 a3 bd 88 31 0c 3e 7b 6e 4c bd
       0.07394926 -0.07996688 0.1369077 -0.04991005
000040 f3 8b a3 bd d6 d5 98 3d 3e 46 24 3c 0f 67 f2 3c
       -0.079856776 0.07462661 0.010026513 0.029590158
000050 72 b2 0c bd af 85 cb bd 9b 07 00 be 3d 60 2c 3d
       -0.034349866 -0.099376075 -0.12502901 0.042083967
000060 df bc 3b 3e 94 f0 0f 3d 7d 55 e7 bd 57 13 df 3c
       0.18333767 0.035141543 -0.112956025 0.027230902
000070 40 dc d0 3c db d6 24 3e d9 5b fb 3d 3b 2c 37 bb
       0.025495648 0.16097586 0.12273378 -0.0027949947
000080 0a a6 06 bd 90 6b 02 3d 76 9b fb bd 09 a7 04 be
       -0.03287319 0.03184086 -0.12285511 -0.12954344
000090 93 d1 02 3e 25 1f 0a bd 30 d9 ca 3d 54 31 d2 3d
       0.12775259 -0.033721108 0.099047065 0.10263315
0000a0 1c a2 e5 3d 37 52 bb bc 03 31 b9 bd 58 9a 8f 3d
       0.112125605 -0.022866352 -0.09042551 0.070118606
0000b0 57 8e b3 3d 66 5c d4 3d 38 b5 a2 3d 0d 1a b6 bd
       0.087673835 0.10369186 0.07944721 -0.088916875
0000c0 7a e4 79 bd bb d2 0f 3e a3 5e 20 be a9 ed 4b 3d
       -0.061008908 0.14045231 -0.15661101 0.049787197
0000d0 ae 7e 8c 3c 4e 92 a2 bd 0e 91 91 3d a2 c6 ab bd
       0.01715025 -0.07938062 0.07107745 -0.083874956
0000e0 d6 76 01 be 7e ec 95 bc 9e b0 16 bc 41 b8 02 be
       -0.12642989 -0.018301245 -0.009197382 -0.127656
0000f0 ec 8e 40 3e 98 55 09 3d f9 29 11 3e 8a 6c b5 bd
       0.1880452 0.033528894 0.14176168 -0.08858593
000100 f3 64 50 3c 00 8d e8 3d 9d 08 71 3c 34 bc ba bd
       0.012719381 0.113550186 0.014711526 -0.09117928
000110 2c 9a bf bc 82 69 45 be 9f b8 03 bd 00 84 49 bd
       -0.023388945 -0.1927853 -0.03215849 -0.04919815
000120 e7 15 88 3d f1 0e 84 bd 61 86 c8 3d fc 8e e0 bd
       0.066448025 -0.06448162 0.09791256 -0.10964772
000130 b4 3f 81 bd 9c f5 9b bd a1 b1 9e 3d 84 c2 d6 3d
       -0.063109785 -0.07615206 0.07748724 0.1048632
000140 0a 04 6c bd 99 25 34 be 61 bf fe 3a 46 a0 fb 3d
       -0.05762104 -0.17592467 0.0019435697 0.12286429
000150 b4 ef 0d bd d0 d8 09 3d 3f 5c ee 3d de 7e db 3b
       -0.034652427 0.033654034 0.11638688 0.0066984734
000160 41 81 6f 3d 00 51 3e bd c2 56 a6 3c f4 c4 49 3d
       0.058472876 -0.046463966 0.020305041 0.049260095
000170 41 59 a7 bc b4 32 52 3d c7 c8 f0 bd 27 8a 10 be
       -0.020428302 0.051317886 -0.11757045 -0.14115201
000180 80 d3 8e 3d cf be eb bc dc 8f 78 bc 7b 10 aa 3d
       0.06973934 -0.028777508 -0.0151710175 0.08303925
000190 cb 72 50 3d 25 a2 b8 bd d0 46 a5 3d 8c a6 09 bd
       0.050890725 -0.090153016 0.08070147 -0.033606097
0001a0 71 fd 17 3d 20 2f fc 3d 05 ae 83 3d 6a e3 9e 3c
       0.037106935 0.12313676 0.06429676 0.019395549
0001b0 04 e2 02 be a6 f8 5e bd f5 34 37 be 73 72 98 bc
       -0.1278153 -0.05443635 -0.17891295 -0.018609261
0001c0 65 70 11 be 0e 82 36 3e f0 c9 56 bd cc ef 04 bd
       -0.14203031 0.1782305 -0.052438676 -0.03245525
0001d0 54 a2 4d 3b 78 e9 2f 3e b5 45 b9 3d 39 66 18 3e
       0.0031377273 0.17178905 0.09046499 0.14882745
0001e0 42 ab 86 bd 67 24 ed bd bc a0 a9 3d 85 38 34 3e
       -0.065756336 -0.11579209 0.08282611 0.17599685
0001f0 04 6a 1f 3e a5 8d a7 3d 0a 62 5a bc e3 55 31 3e
       0.15567786 0.081813134 -0.013329038 0.1731792
000200 e0 66 63 3c e3 18 2a bc 79 75 cb 3c 0b 57 79 bd
       0.013879508 -0.01038191 0.024836289 -0.060874026
000210 29 e0 15 3d 36 8c 63 bc 32 03 0c bd 7a 37 2c be
       0.03659073 -0.013888409 -0.034182735 -0.16818038
000220 f2 9a db 3c 29 99 dd bc 3a 33 06 be ea b9 7f bd
       0.026807282 -0.027050572 -0.13105479 -0.06243316
000230 d0 64 b1 bd fb 97 87 3c a8 23 3e be f2 12 9d bd
       -0.086618066 0.016551962 -0.1856829 -0.07669629
000240 24 99 13 3d 26 04 96 bc 7f 9b 8a bb 51 9b 2a bd
       0.03603472 -0.018312525 -0.0042299624 -0.041652028
000250 56 3b c0 bd 79 b2 0b bd cd a4 65 bd 20 c4 bb 3b
       -0.093863174 -0.03410575 -0.05606537 0.005730167
000260 e9 30 b3 3b 41 07 55 bc d6 76 2a bd ed 11 3d 3c
       0.005468477 -0.013002218 -0.041617237 0.011539918
000270 5b 0c c1 bb f1 31 0d be c2 e1 97 bd 81 b5 23 bd
       -0.0058913655 -0.13788582 -0.07416107 -0.039968017
000280 5d 49 cc bd 15 0a d5 bd e4 5e 97 bc 40 f9 56 be
       -0.099749304 -0.104023136 -0.018477865 -0.20993519
000290 ec 1f c9 bb 23 5e 91 bd 06 03 78 3d c3 6c 50 bd
       -0.0061378386 -0.07098033 0.06054976 -0.050884973
0002a0 a0 37 cd bc 04 db 5f bd b7 50 41 3d ab 38 d1 3d
       -0.025050938 -0.05465223 0.047196116 0.10215887
0002b0 57 b8 e4 3d 01 4a 08 bd 90 70 98 3d ae ca c6 3d
       0.111679725 -0.0332737 0.074433446 0.09706627
0002c0 e9 dd 30 3d 8a 6a 59 bd 20 d9 c0 3c 59 b7 78 3d
       0.04318038 -0.05308012 0.023541033 0.06072173
0002d0 6b 25 2d be 79 f8 d8 3d e2 17 6c bd 2f 37 c9 3d
       -0.16908805 0.105942674 -0.057639964 0.098249786
0002e0 99 f0 9c 3d 42 ff b7 bc c9 d5 94 bd 89 81 ac 3c
       0.07663078 -0.022460584 -0.07267339 0.02105786
0002f0 b0 60 0d be 8c 45 42 3d 89 c8 34 be f0 c9 0f 3d
       -0.13806415 0.047429606 -0.17654623 0.035104692
000300 9d 38 b2 bd 23 83 df bd 5f 68 ad bc 36 64 5b bd
       -0.087022044 -0.10913684 -0.021167932 -0.053562365
000310 47 64 da bc e2 7e 21 3d c0 8c 3a bd 35 4f a5 3d
       -0.026659144 0.039427646 -0.045544386 0.08071748
000320 dc 2a 4c bd 88 3e 76 bc 32 80 1b 3e f9 c3 5c 3d
       -0.04984556 -0.015029557 0.15185621 0.05389783
000330 7a c8 5b bd 32 46 27 bd d7 1e 6f be c6 63 4f 3d
       -0.053657986 -0.040838428 -0.23351608 0.05063226
000340 60 30 a1 bd bb b7 88 3d 98 8d a0 3c 24 c8 c1 3d
       -0.07870555 0.06675669 0.019598767 0.09462002
000350 b4 30 b1 bd 67 d1 a7 3d b7 b0 37 be e7 56 46 bd
       -0.086518675 0.08194237 -0.17938505 -0.04842272
000360 ba 55 3b 3d cc 3c e7 3d 59 7f b1 3c a4 77 3d 3e
       0.045736052 0.11290893 0.02166717 0.1850267
000370 36 01 75 b9 84 a7 7e bd 54 99 93 3d 01 1c dc bb
       -0.00023365472 -0.062171474 0.072069794 -0.0067172055
000380 2f 7b 7d 3d 0d f6 b4 bd 99 be 58 be ea cd b7 3c
       0.061885055 -0.08835993 -0.21166457 0.022437055
000390 58 0e dd bc dd d8 6f bd 16 93 df bc a4 c8 e1 bc
       -0.026984379 -0.058556426 -0.027291816 -0.027561493
0003a0 c4 7d 66 3e 30 aa 4a bd 76 25 91 bd 51 a0 51 3d
       0.22508913 -0.04947871 -0.07087223 0.05117828
0003b0 3f 45 35 bd fe 14 84 3d ab ed 59 3d 70 91 b5 3d
       -0.04425549 0.064493164 0.053205173 0.088656306
0003c0 5b eb 0d bd 0c e5 1c be f0 15 86 bd 1e ff bc bd
       -0.03464828 -0.1532175 -0.06547153 -0.09228347
0003d0 33 24 d0 bd 84 ea 5a bc 06 7c 5b bd e0 34 a3 bd
       -0.101631545 -0.013361577 -0.053585075 -0.079690695
0003e0 d8 77 41 3d a5 88 11 3e cb 5b c4 bd 8a 14 6a bd
       0.047233433 0.14212282 -0.095878206 -0.057148494
0003f0 24 d2 9c 3d cc 9f b8 bd b6 26 98 bd 4f 46 cb 3b
       0.07657269 -0.09014854 -0.074292585 0.00620345

network_body._body_endoder.seq_layers.0.bias f4 [128]
000000 00 00 00 00 00 00 00 00 00 00 00 00 00 00 00 00
       0.0 0.0 0.0 0.0
000010 00 00 00 00 00 00 00 00 00 00 00 00 00 00 00 00
       0.0 0.0 0.0 0.0
000020 00 00 00 00 00 00 00 00 00 00 00 00 00 00 00 00
       0.0 0.0 0.0 0.0
000030 00 00 00 00 00 00 00 00 00 00 00 00 00 00 00 00
       0.0 0.0 0.0 0.0
000040 00 00 00 00 00 00 00 00 00 00 00 00 00 00 00 00
       0.0 0.0 0.0 0.0
000050 00 00 00 00 00 00 00 00 00 00 00 00 00 00 00 00
       0.0 0.0 0.0 0.0
000060 00 00 00 00 00 00 00 00 00 00 00 00 00 00 00 00
       0.0 0.0 0.0 0.0
000070 00 00 00 00 00 00 00 00 00 00 00 00 00 00 00 00
       0.0 0.0 0.0 0.0
000080 00 00 00 00 00 00 00 00 00 00 00 00 00 00 00 00
       0.0 0.0 0.0 0.0
000090 00 00 00 00 00 00 00 00 00 00 00 00 00 00 00 00
       0.0 0.0 0.0 0.0
0000a0 00 00 00 00 00 00 00 00 00 00 00 00 00 00 00 00
       0.0 0.0 0.0 0.0
0000b0 00 00 00 00 00 00 00 00 00 00 00 00 00 00 00 00
       0.0 0.0 0.0 0.0
0000c0 00 00 00 00 00 00 00 00 00 00 00 00 00 00 00 00
       0.0 0.0 0.0 0.0
0000d0 00 00 00 00 00 00 00 00 00 00 00 00 00 00 00 00
       0.0 0.0 0.0 0.0
0000e0 00 00 00 00 00 00 00 00 00 00 00 00 00 00 00 00
       0.0 0.0 0.0 0.0
0000f0 00 00 00 00 00 00 00 00 00 00 00 00 00 00 00 00
       0.0 0.0 0.0 0.0
000100 00 00 00 00 00 00 00 00 00 00 00 00 00 00 00 00
       0.0 0.0 0.0 0.0
000110 00 00 00 00 00 00 00 00 00 00 00 00 00 00 00 00
       0.0 0.0 0.0 0.0
000120 00 00 00 00 00 00 00 00 00 00 00 00 00 00 00 00
       0.0 0.0 0.0 0.0
000130 00 00 00 00 00 00 00 00 00 00 00 00 00 00 00 00
       0.0 0.0 0.0 0.0
000140 00 00 00 00 00 00 00 00 00 00 00 00 00 00 00 00
       0.0 0.0 0.0 0.0
000150 00 00 00 00 00 00 00 00 00 00 00 00 00 00 00 00
       0.0 0.0 0.0 0.0
000160 00 00 00 00 00 00 00 00 00 00 00 00 00 00 00 00
       0.0 0.0 0.0 0.0
000170 00 00 00 00 00 00 00 00 00 00 00 00 00 00 00 00
       0.0 0.0 0.0 0.0
000180 00 00 00 00 00 00 00 00 00 00 00 00 00 00 00 00
       0.0 0.0 0.0 0.0
000190 00 00 00 00 00 00 00 00 00 00 00 00 00 00 00 00
       0.0 0.0 0.0 0.0
0001a0 00 00 00 00 00 00 00 00 00 00 00 00 00 00 00 00
       0.0 0.0 0.0 0.0
0001b0 00 00 00 00 00 00 00 00 00 00 00 00 00 00 00 00
       0.0 0.0 0.0 0.0
0001c0 00 00 00 00 00 00 00 00 00 00 00 00 00 00 00 00
       0.0 0.0 0.0 0.0
0001d0 00 00 00 00 00 00 00 00 00 00 00 00 00 00 00 00
       0.0 0.0 0.0 0.0
0001e0 00 00 00 00 00 00 00 00 00 00 00 00 00 00 00 00
       0.0 0.0 0.0 0.0
0001f0 00 00 00 00 00 00 00 00 00 00 00 00 00 00 00 00
       0.0 0.0 0.0 0.0
