results/lessview/MoveToGoal/MoveToGoal-1128.pt (torch, 145223 bytes, 11 tensors)

network_body._body_endoder.seq_layers.0.weight f4 [128, 1]
000000 4d 28 3d bf be 62 81 bf e5 33 a6 3f df 73 90 3f
       -0.7388962 -1.0108259 1.2984587 1.1285361
000010 7e 81 9c 3f 1b 26 4e bd 5f ad 1a 3d c8 cb dd be
       1.2227018 -0.05032931 0.037762996 -0.43319535
000020 a3 b5 bf bc 00 03 87 3f c4 b4 33 3e 3e bc 7a be
       -0.02340204 1.054779 0.17549425 -0.24485871
000030 82 55 81 bf c4 ab 61 bf 75 ee 0d be 74 a2 44 be
       -1.010422 -0.8815272 -0.13860495 -0.19202596
000040 7d 09 59 bf 96 9e a9 3e ae 16 48 3f 71 55 cd 3e
       -0.847801 0.33128804 0.78159606 0.4010425
000050 7c 7f 6b bf c6 8b da bf 7f ef 9c bf 25 63 4a 3f
       -0.919914 -1.7073905 -1.2260588 0.7905753
000060 19 5d 0d 3e ba ee a1 3f 7b 7d 27 bf bb d3 00 3f
       0.13805045 1.2650979 -0.65425843 0.50323075
000070 31 6e 16 bf 84 7b ba 3f 5e 35 2a bf d8 e3 2d be
       -0.5876189 1.4568944 -0.6648768 -0.16981447
000080 0b 32 9d 3f 0c a7 53 bf b9 4d ad bf fe 4a b0 3f
       1.2280897 -0.8267677 -1.3539344 1.3772886
000090 a9 4b 90 3f 88 50 27 bf ec 59 1e c0 25 46 6e 3f
       1.127309 -0.65357256 -2.4742384 0.9307578
0000a0 62 e8 ce bf 78 b0 88 3f 1e 4a 3b 3f 3d fc 3e 3f
       -1.6164668 1.0678854 0.7315997 0.74603635
0000b0 61 35 8a 3f 74 46 1f be 43 56 05 be 76 7c 18 3d
       1.079754 -0.1555422 -0.13021187 0.03722807
0000c0 43 91 90 3f 9c 62 5a bd 8e 56 02 bf 56 ef d4 be
       1.129433 -0.053316697 -0.5091332 -0.4158885
0000d0 64 65 71 3f 93 d2 31 3e 1f e4 48 bd 7d f5 f8 bf
       0.94295335 0.17365484 -0.04904568 -1.9449917
0000e0 9e 99 1b be 40 63 6f 3f 1b 00 d0 be d4 fa e3 3e
       -0.15195319 0.9351082 -0.4062508 0.44527304
0000f0 76 f8 75 3f 14 3c 09 bf e0 79 97 3e 33 eb a5 bf
       0.96082246 -0.53607297 0.2958517 -1.2962402
000100 08 61 9d bf d7 12 2a bf 0c 53 14 40 07 5b 52 bf
       -1.2295237 -0.66435 2.3175688 -0.82170147
000110 20 ba bc bf a1 f4 4a 3c ee 5d 3d 3d 17 b4 07 bf
       -1.4744301 0.012387426 0.046232156 -0.5300917
000120 2d b7 92 bf 2e 8b 95 3e 92 a4 a0 bf 67 7a bb bc
       -1.1462151 0.29207748 -1.2550223 -0.022885514
000130 00 89 7b 3f a5 da a1 bf 4e 4c a8 bd 3c de a5 bf
       0.9825592 -1.264485 -0.08217679 -1.2958446
000140 36 77 e2 3e 5e 46 cb 3e 19 6a c4 bf e2 91 5c 3f
       0.44231576 0.39702123 -1.5344878 0.861601
000150 3b e1 29 40 4e eb aa bf 2b 83 8b 3f 0d 58 35 3f
       2.654372 -1.3353059 1.0899404 0.7083748
000160 54 95 5a be 7a 73 c2 3f d8 1d 89 be cf 7c ad bf
       -0.21346027 1.5191491 -0.2678058 -1.3553714
000170 21 51 ed bf 42 8d fc be c6 98 e1 3e 01 19 ea bf
       -1.8540384 -0.4932652 0.4406187 -1.828888
000180 5c 7f 5b 3d 36 e0 9b 3f 7e a2 91 3f 37 97 0c 3f
       0.053588256 1.2177799 1.1377714 0.54918236
000190 f2 c8 10 bf 24 a8 9c be 35 12 93 3d f1 e0 c2 bf
       -0.5655662 -0.3059703 0.07181207 -1.5224897
0001a0 67 22 c5 3f 0e 5c 6d bf 74 52 28 be 09 08 e3 be
       1.5401124 -0.9271859 -0.16437703 -0.44342068
0001b0 d7 5d cf bb 34 bd e3 be 24 44 31 3e d3 67 3a 3f
       -0.0063283253 -0.44480288 0.1731115 0.72814673
0001c0 62 ff b6 bf 5a 55 dc bc dc 87 b2 bf 39 d0 6f 3f
       -1.4296687 -0.026896168 -1.3947711 0.936771
0001d0 d0 f8 23 3f da ed af bf 2c 5d df 3f 1e 66 03 bf
       0.6405153 -1.3744462 1.7450309 -0.51327693
0001e0 30 f3 7e 3e cf 4e 2c bf 3d 41 c2 3f 07 6e 45 bf
       0.24897456 -0.6730775 1.5176159 -0.77121013
0001f0 ba 5a 1c 3d a1 a9 53 bf 96 62 f7 be d0 10 a2 bf
       0.03817246 -0.8268071 -0.48317403 -1.2661381

network_body._body_endoder.seq_layers.0.bias f4 [128]
000000 00 00 00 00 00 00 00 00 00 00 00 00 00 00 00 00
       0.0 0.0 0.0 0.0
000010 00 00 00 00 00 00 00 00 00 00 00 00 00 00 00 00
       0.0 0.0 0.0 0.0
000020 00 00 00 00 00 00 00 00 00 00 00 00 00 00 00 00
       0.0 0.0 0.0 0.0
000030 00 00 00 00 00 00 00 00 00 00 00 00 00 00 00 00
       0.0 0.0 0.0 0.0
000040 00 00 00 00 00 00 00 00 00 00 00 00 00 00 00 00
       0.0 0.0 0.0 0.0
000050 00 00 00 00 00 00 00 00 00 00 00 00 00 00 00 00
       0.0 0.0 0.0 0.0
000060 00 00 00 00 00 00 00 00 00 00 00 00 00 00 00 00
       0.0 0.0 0.0 0.0
000070 00 00 00 00 00 00 00 00 00 00 00 00 00 00 00 00
       0.0 0.0 0.0 0.0
000080 00 00 00 00 00 00 00 00 00 00 00 00 00 00 00 00
       0.0 0.0 0.0 0.0
000090 00 00 00 00 00 00 00 00 00 00 00 00 00 00 00 00
       0.0 0.0 0.0 0.0
0000a0 00 00 00 00 00 00 00 00 00 00 00 00 00 00 00 00
       0.0 0.0 0.0 0.0
0000b0 00 00 00 00 00 00 00 00 00 00 00 00 00 00 00 00
       0.0 0.0 0.0 0.0
0000c0 00 00 00 00 00 00 00 00 00 00 00 00 00 00 00 00
       0.0 0.0 0.0 0.0
0000d0 00 00 00 00 00 00 00 00 00 00 00 00 00 00 00 00
       0.0 0.0 0.0 0.0
0000e0 00 00 00 00 00 00 00 00 00 00 00 00 00 00 00 00
       0.0 0.0 0.0 0.0
0000f0 00 00 00 00 00 00 00 00 00 00 00 00 00 00 00 00
       0.0 0.0 0.0 0.0
000100 00 00 00 00 00 00 00 00 00 00 00 00 00 00 00 00
       0.0 0.0 0.0 0.0
000110 00 00 00 00 00 00 00 00 00 00 00 00 00 00 00 00
       0.0 0.0 0.0 0.0
000120 00 00 00 00 00 00 00 00 00 00 00 00 00 00 00 00
       0.0 0.0 0.0 0.0
000130 00 00 00 00 00 00 00 00 00 00 00 00 00 00 00 00
       0.0 0.0 0.0 0.0
000140 00 00 00 00 00 00 00 00 00 00 00 00 00 00 00 00
       0.0 0.0 0.0 0.0
000150 00 00 00 00 00 00 00 00 00 00 00 00 00 00 00 00
       0.0 0.0 0.0 0.0
000160 00 00 00 00 00 00 00 00 00 00 00 00 00 00 00 00
       0.0 0.0 0.0 0.0
000170 00 00 00 00 00 00 00 00 00 00 00 00 00 00 00 00
       0.0 0.0 0.0 0.0
000180 00 00 00 00 00 00 00 00 00 00 00 00 00 00 00 00
       0.0 0.0 0.0 0.0
000190 00 00 00 00 00 00 00 00 00 00 00 00 00 00 00 00
       0.0 0.0 0.0 0.0
0001a0 00 00 00 00 00 00 00 00 00 00 00 00 00 00 00 00
       0.0 0.0 0.0 0.0
0001b0 00 00 00 00 00 00 00 00 00 00 00 00 00 00 00 00
       0.0 0.0 0.0 0.0
0001c0 00 00 00 00 00 00 00 00 00 00 00 00 00 00 00 00
       0.0 0.0 0.0 0.0
0001d0 00 00 00 00 00 00 00 00 00 00 00 00 00 00 00 00
       0.0 0.0 0.0 0.0
0001e0 00 00 00 00 00 00 00 00 00 00 00 00 00 00 00 00
       0.0 0.0 0.0 0.0
0001f0 00 00 00 00 00 00 00 00 00 00 00 00 00 00 00 00
       0.0 0.0 0.0 0.0

network_body._body_endoder.seq_layers.2.weight f4 [128, 128]
000000 65 5a f3 3d f5 d2 17 be bb 62 87 3d 10 bb 1c 3e
       0.11882476 -0.14826567 0.06610628 0.15305734
000010 de 0f 3f 3e c3 fd 7d 3c 16 2c 32 be 7f 15 0b be
       0.18658397 0.015502396 -0.1739963 -0.13582419
000020 f2 6e 8f 3c 43 56 36 3d 78 fc 21 3e 90 b0 9f 3d
       0.017508958 0.04451586 0.15818965 0.077973485
000030 fc 7b ff 3d ca b4 d5 3d f9 df 38 3e 07 36 29 3d
       0.1247482 0.104348734 0.18054189 0.04131129
000040 9e 58 b9 3d 8e eb 02 bd a7 08 55 bc 79 fd a4 3c
       0.090501055 -0.031962924 -0.013002551 0.020140396
000050 13 44 6b bd a1 ee ea bd 3b 8f c2 3d 14 49 28 bd
       -0.057437968 -0.11471296 0.09499975 -0.041085318
000060 6d e8 09 be 96 9a 79 bd 3a 02 e0 3c ac 8c 00 3d
       -0.1346757 -0.06093844 0.027344812 0.031384155
000070 02 d7 ea 3d 19 ec 36 bd 83 fb c6 bd d7 67 f6 bd
       0.11466791 -0.044658754 -0.09715941 -0.12031525
000080 af 42 2e 3c 31 b9 7f be 08 90 ba bc 8e d3 30 bc
       0.010636016 -0.24972989 -0.022773758 -0.010792626
000090 6f 7b 49 bc a4 a2 29 be 61 79 cf 3d 76 ee 0e 3e
       -0.012297495 -0.16565949 0.10130573 0.13958153
0000a0 f1 c5 1f 3e ae d3 13 3d 9b 2a 02 3c b0 3d 92 bc
       0.15602852 0.036090545 0.007944728 -0.01785168
0000b0 d8 13 b3 bc 4e c6 c5 3d 85 32 37 3d 1d ce db 3c
       -0.021860048 0.09656964 0.044725914 0.02683168
0000c0 da fc 1f bd fc 28 8a 3b 4e 51 25 3d 24 10 96 bd
       -0.039059497 0.0042163115 0.04036074 -0.07327297
0000d0 50 13 ba bc ed fa 24 3e 8c 36 a9 bd eb f1 9c bd
       -0.022714287 0.16111346 -0.08262357 -0.0766333
0000e0 67 3f 92 bc fc de 01 3e 19 c3 0d be 26 98 dd bd
       -0.017852498 0.12682718 -0.13843955 -0.10820036
0000f0 cd 51 1e bd e1 33 8e 3c d0 3b 6b 3d dd c1 e4 ba
       -0.03865223 0.017358722 0.05743009 -0.0017452795
000100 05 e7 f8 3d 07 ee 0c bd 98 25 06 be d0 f8 75 3a
       0.121534385 -0.034406688 -0.13100278 0.0009383084
000110 b9 ab 9e 3d 6c 33 61 3d 05 8b 98 bc 94 ca a0 bd
       0.07747597 0.05498068 -0.018620977 -0.07851139
000120 89 9c 26 3e 1b e0 bf 3d 68 2d 25 3b 02 ab 1d bd
       0.16270651 0.093689166 0.0025204066 -0.038493164
000130 cb 15 df bc f7 4c 3a be ee 03 41 3e 81 ba b9 3d
       -0.027232071 -0.18193422 0.18849155 0.09068776
000140 52 d5 e2 3c 56 12 21 bd 3d 9d 8f bd 5a 93 eb bd
       0.02768961 -0.039324127 -0.07012413 -0.115027145
000150 44 3c 73 bd ff 5d 0c be d2 ab 13 3e b9 d6 25 3d
       -0.059383646 -0.13707732 0.14421013 0.04048798
000160 a3 c0 15 3e 71 ed aa 3b 88 17 55 3d 18 33 59 3d
       0.14624266 0.0052162935 0.052024394 0.053027242
000170 45 cb c6 3d b5 b8 e7 3d 4a 87 65 3d 10 f3 00 bd
       0.09706739 0.11314527 0.056037225 -0.031481802
000180 09 c6 01 be 9e 8c 3f 3d 63 7a 59 bd 96 a7 7f bd
       -0.126732 0.046764962 -0.053095233 -0.06241568
000190 b2 51 26 be c3 61 0d bc 57 32 bb 3d f7 56 af bd
       -0.16242102 -0.008629265 0.09140461 -0.08561509
0001a0 4d c4 8c bd 04 71 b2 bc ef e3 88 3d 69 05 c0 bc
       -0.06873379 -0.021782406 0.066841 -0.02344008
0001b0 ab 3d 05 3e 69 38 e8 3d 85 e1 05 be e0 2b 7f bb
       0.13011806 0.113388844 -0.1307431 -0.0038936064
0001c0 53 f9 8d 3c e7 8d fc bd 28 10 22 3c b6 7f 80 bd
       0.017330801 -0.12331753 0.009891547 -0.06274359
0001d0 31 91 6c bc 4a a4 e5 3d d4 cd 46 3c 98 be 49 bd
       -0.014438913 0.11212976 0.012134034 -0.04925403
0001e0 d7 a2 48 3e aa 11 1d 3d 43 ef df bd 67 bd 7e 3d
       0.19593368 0.038346924 -0.109343074 0.062192347
0001f0 32 d9 a8 bc f1 f4 38 bd 0b 1b 3a bd b7 18 3a bd
       -0.02061138 -0.04515547 -0.045435946 -0.045433726
000200 4d 56 b9 bd 75 ea 05 be 57 e7 30 bd 7e 65 e7 3d
       -0.09049664 -0.1307772 -0.043189373 0.11298655
000210 dc fd 2b bd a9 d1 95 3d de e1 94 3d 17 a6 26 bd
       -0.041990146 0.0731538 0.07269643 -0.04068574
000220 8e 3d 66 bd 1d 85 a9 bd ad 10 7f bd 56 5d 94 3d
       -0.056211047 -0.082773425 -0.062271763 0.07244365
000230 30 cc b0 3d 5d 2c 28 bd cc 04 e6 3d 68 83 02 be
       0.08632696 -0.041057933 0.11231384 -0.1274544
000240 bc 2c 80 bd 9d f8 38 3e 44 bd 94 3d a6 81 38 3e
       -0.062585324 0.18063588 0.07262662 0.18018207
000250 25 77 28 3d 7c 8e 15 3e 35 66 ba bd b1 06 d0 bd
       0.04112925 0.14605135 -0.09101526 -0.10157526
000260 93 65 1d 3d 57 49 3c 3d bb a6 05 be 24 60 28 be
       0.038426947 0.04596838 -0.13051884 -0.16442925
000270 cc 53 06 3e b9 fc 34 3d dd b2 56 3c ae 58 11 bd
       0.13117903 0.044186328 0.013104168 -0.035484962
000280 e2 f2 0b bb 84 9a 12 3d 63 dc 01 3e 6b 76 5a bd
       -0.0021354486 0.03579189 0.12681727 -0.05333559
000290 79 92 8c 3d ae 2c 88 bd d7 14 d8 3c a0 6a a9 bc
       0.06863875 -0.06649147 0.026377125 -0.020680726
0002a0 c2 1a 85 3d 4f 3d 84 3b ad a1 ae 3d 52 c8 8a bd
       0.06499244 0.004035629 0.08526931 -0.06776489
0002b0 d7 be 85 bc c1 6f 1d be fb 8f 73 3d c3 96 71 3d
       -0.016326351 -0.15374662 0.059463482 0.05898167
0002c0 9a 60 81 bd fa 53 52 bd 21 ce 77 bc 7d 2c de 3d
       -0.063172534 -0.051349618 -0.015124829 0.10848329
0002d0 f7 d5 85 bd c6 b3 1e 3d 40 8d a6 3d 14 61 3a be
       -0.06534951 0.038745664 0.0813241 -0.18201095
0002e0 22 8a 9e bd b8 ef 05 be f0 53 ec bd 87 58 84 bd
       -0.077411905 -0.13079727 -0.11539447 -0.06462198
0002f0 6e d3 af 3d 6a 63 96 bd 81 f3 ae 3d a7 38 52 3d
       0.08585249 -0.073431805 0.085425384 0.05132356
000300 0a da 77 bd 29 99 fa bd 03 0b fb bd f0 71 06 3e
       -0.060510673 -0.12236244 -0.1225796 0.13129401
000310 1a e7 ed bd 58 91 a8 bd 56 24 da 3d 41 18 65 bd
       -0.11616345 -0.08230847 0.10651462 -0.055931333
000320 84 c1 86 bd af 4c 2e 3d cc d5 41 3d 63 4e 9f 3d
       -0.06579879 0.0425536 0.047323033 0.07778623
000330 9c 2c d5 3d d7 96 94 3d 70 fe 20 3d 38 eb 08 3e
       0.10408899 0.07255333 0.03930515 0.13370979
000340 1f ed bd bd 74 17 ae bc 75 4c 03 be c8 16 ce 3d
       -0.09273743 -0.021251418 -0.12822135 0.10062939
000350 6b 8b b0 bc 61 d6 ac 3d b8 43 0e bd f4 86 0c 3e
       -0.021550855 0.08439327 -0.03473255 0.13723356
000360 de 4e 92 3d 66 94 10 be 2f b2 e7 3c 56 28 b5 bb
       0.07143949 -0.1411911 0.028283207 -0.00552849
000370 ea 85 4d 3e 04 77 a9 bc c7 d1 48 bd 4d 01 00 3d
       0.20070615 -0.020686634 -0.049028184 0.03125124
000380 02 2d 11 be 24 b0 b5 3d 5c 95 82 be 1c 98 c0 3d
       -0.14177325 0.08871487 -0.25504577 0.094040126
000390 a7 3b 24 3d e5 40 23 be 2c b5 1b be 92 09 2f bd
       0.04009595 -0.15942724 -0.1520583 -0.042733736
0003a0 2f 97 04 be f0 d8 63 bc e1 0a 2c bd 0a 7f 70 bc
       -0.12948297 -0.013906702 -0.042002562 -0.014678726
0003b0 27 c4 d8 bc 47 04 41 bd e9 fa 2a 3d aa b4 55 3e
       -0.02646072 -0.04712322 0.041743193 0.20869699
0003c0 e6 2f d7 3d b7 0e dd 3a 78 7c 92 3b 76 27 0d 3d
       0.10507183 0.0016865347 0.0044704042 0.03446146
0003d0 9f 88 a7 bc da a2 15 3d d0 25 d5 3d c3 1b 6c bd
       -0.020450888 0.03653226 0.10407603 -0.057643663
0003e0 2b 3f 35 be 2b 49 73 3d 18 8b b4 3c ac 28 05 3e
       -0.17699878 0.05939595 0.022038981 0.13003796
0003f0 88 32 ba 3c 78 a8 96 ba 8d d5 99 bd 80 96 bb 3d
       0.022729173 -0.0011494299 -0.07511435 0.09159565

network_body._body_endoder.seq_layers.2.bias f4 [128]
000000 00 00 00 00 00 00 00 00 00 00 00 00 00 00 00 00
       0.0 0.0 0.0 0.0
000010 00 00 00 00 00 00 00 00 00 00 00 00 00 00 00 00
       0.0 0.0 0.0 0.0
000020 00 00 00 00 00 00 00 00 00 00 00 00 00 00 00 00
       0.0 0.0 0.0 0.0
000030 00 00 00 00 00 00 00 00 00 00 00 00 00 00 00 00
       0.0 0.0 0.0 0.0
000040 00 00 00 00 00 00 00 00 00 00 00 00 00 00 00 00
       0.0 0.0 0.0 0.0
000050 00 00 00 00 00 00 00 00 00 00 00 00 00 00 00 00
       0.0 0.0 0.0 0.0
000060 00 00 00 00 00 00 00 00 00 00 00 00 00 00 00 00
       0.0 0.0 0.0 0.0
000070 00 00 00 00 00 00 00 00 00 00 00 00 00 00 00 00
       0.0 0.0 0.0 0.0
000080 00 00 00 00 00 00 00 00 00 00 00 00 00 00 00 00
       0.0 0.0 0.0 0.0
000090 00 00 00 00 00 00 00 00 00 00 00 00 00 00 00 00
       0.0 0.0 0.0 0.0
0000a0 00 00 00 00 00 00 00 00 00 00 00 00 00 00 00 00
       0.0 0.0 0.0 0.0
0000b0 00 00 00 00 00 00 00 00 00 00 00 00 00 00 00 00
       0.0 0.0 0.0 0.0
0000c0 00 00 00 00 00 00 00 00 00 00 00 00 00 00 00 00
       0.0 0.0 0.0 0.0
0000d0 00 00 00 00 00 00 00 00 00 00 00 00 00 00 00 00
       0.0 0.0 0.0 0.0
0000e0 00 00 00 00 00 00 00 00 00 00 00 00 00 00 00 00
       0.0 0.0 0.0 0.0
0000f0 00 00 00 00 00 00 00 00 00 00 00 00 00 00 00 00
       0.0 0.0 0.0 0.0
000100 00 00 00 00 00 00 00 00 00 00 00 00 00 00 00 00
       0.0 0.0 0.0 0.0
000110 00 00 00 00 00 00 00 00 00 00 00 00 00 00 00 00
       0.0 0.0 0.0 0.0
000120 00 00 00 00 00 00 00 00 00 00 00 00 00 00 00 00
       0.0 0.0 0.0 0.0
000130 00 00 00 00 00 00 00 00 00 00 00 00 00 00 00 00
       0.0 0.0 0.0 0.0
000140 00 00 00 00 00 00 00 00 00 00 00 00 00 00 00 00
       0.0 0.0 0.0 0.0
000150 00 00 00 00 00 00 00 00 00 00 00 00 00 00 00 00
       0.0 0.0 0.0 0.0
000160 00 00 00 00 00 00 00 00 00 00 00 00 00 00 00 00
       0.0 0.0 0.0 0.0
000170 00 00 00 00 00 00 00 00 00 00 00 00 00 00 00 00
       0.0 0.0 0.0 0.0
000180 00 00 00 00 00 00 00 00 00 00 00 00 00 00 00 00
       0.0 0.0 0.0 0.0
000190 00 00 00 00 00 00 00 00 00 00 00 00 00 00 00 00
       0.0 0.0 0.0 0.0
0001a0 00 00 00 00 00 00 00 00 00 00 00 00 00 00 00 00
       0.0 0.0 0.0 0.0
0001b0 00 00 00 00 00 00 00 00 00 00 00 00 00 00 00 00
       0.0 0.0 0.0 0.0
0001c0 00 00 00 00 00 00 00 00 00 00 00 00 00 00 00 00
       0.0 0.0 0.0 0.0
0001d0 00 00 00 00 00 00 00 00 00 00 00 00 00 00 00 00
       0.0 0.0 0.0 0.0
0001e0 00 00 00 00 00 00 00 00 00 00 00 00 00 00 00 00
       0.0 0.0 0.0 0.0
0001f0 00 00 00 00 00 00 00 00 00 00 00 00 00 00 00 00
       0.0 0.0 0.0 0.0

action_model._discrete_distribution.branches.0.weight f4 [4, 128]
000000 82 e4 c5 bb 63 9d 23 bc 1a d2 3a 3c 7f db 70 bc
       -0.006039203 -0.009986254 0.011402631 -0.014700769
000010 a2 3a 2d 3c 72 04 ef ba f9 19 82 3b 34 57 07 3c
       0.010573061 -0.0018235578 0.0039703813 0.008260537
000020 7c 63 2c bc ea 54 dc 3b 18 ca 65 3a 82 80 d6 bb
       -0.010521766 0.0067239897 0.0008765771 -0.006546081
000030 fd ce 61 3c b1 34 23 3c 70 ea 9a bc ab 68 99 3b
       0.01378226 0.009961293 -0.018910617 0.004681667
000040 d7 0a ea 3a ef 22 1a 3c cb c5 47 3c d8 fc 0a bc
       0.0017856014 0.009407743 0.012193154 -0.008483134
000050 0a 86 29 3c 9b 13 a6 38 03 78 8d 3b 2f a0 e5 ba
       0.010346899 7.9191486e-05 0.004317285 -0.0017519052
000060 33 f5 7e ba 03 f2 ba 3b 6b b1 3a 3c cf 2c 32 bc
       -0.00097258686 0.0057051196 0.011394839 -0.010874941
000070 d7 58 44 bc 7c a7 98 3b 8e 5e 14 bc 5f de 01 bb
       -0.011984072 0.0046586376 -0.009055747 -0.0019816381
000080 03 47 02 3c 8b dd 15 3b f9 58 96 bb 78 aa 5c bb
       0.007951501 0.0022867646 -0.004588243 -0.0033670943
000090 e7 b7 f0 3b 47 a9 4b 3b 67 9e b9 bb 17 dc c5 ba
       0.0073461416 0.003107624 -0.005664635 -0.0015095499
0000a0 43 2b 5f bc 2d a9 40 3c 13 9b d0 3b 2d e8 e0 bb
       -0.013621154 0.011759085 0.0063661425 -0.006863615
0000b0 57 80 c2 3a 55 b4 9e 3b b8 67 73 bc 26 16 b7 bb
       0.0014839274 0.0048432746 -0.014856271 -0.005587357
0000c0 47 11 12 3c f8 da 2e 3b 27 dd 6c bc 87 a5 a4 3b
       0.008915252 0.0026680809 -0.014457024 0.005024615
0000d0 1b e4 2a 3c 30 67 5b 3c 3a 34 ae 3b 70 01 f6 3a
       0.010430361 0.013391301 0.0053162845 0.0018768739
0000e0 38 f3 f0 ba 68 e9 9a bb 5c 9e 93 3b ef 45 ad 3b
       -0.0018383032 -0.004727531 0.004504962 0.0052878777
0000f0 72 bf 92 3b ef ef 8b 3c c2 07 93 bb 37 56 53 3c
       0.0044783885 0.017082183 -0.004487009 0.012898973
000100 5b e3 82 3b 12 e2 01 b9 73 2a c2 bb d3 2f 40 bb
       0.003994388 -0.00012386616 -0.0059254705 -0.002932538
000110 76 b0 89 ba c1 04 97 bb 56 ae 31 3c 84 52 b8 3c
       -0.001050486 -0.004608721 0.010844788 0.022500284
000120 91 e4 12 3c 58 cc 4b 3c 13 27 c0 3b e0 21 1f bb
       0.008965627 0.012438856 0.005864033 -0.0024281666
000130 c5 c0 3c 3a df 2e b3 3b 0d 3f 6a 3c 76 14 3e bc
       0.0007200356 0.005468234 0.014297259 -0.011601558
000140 a7 7d fa 3a 1a d0 96 ba f3 d6 1d bc b7 cf 2d bb
       0.0019110934 -0.0011506111 -0.009633767 -0.0026521513
000150 b2 f3 d1 bb 28 15 1b 3c b3 5d af 3b 8f 62 31 bb
       -0.0064072246 0.009465493 0.005351746 -0.0027066802
000160 ea d0 26 ba 67 20 d1 bb 3b d4 d4 3b 4b a8 31 bc
       -0.0006363528 -0.0063820365 0.0064950264 -0.010843347
000170 6f 4f e9 ba 08 10 79 bb 57 d7 55 3b 49 6d 87 3c
       -0.0017800162 -0.003800394 0.0032629573 0.016531603
000180 08 c3 8b bb 8d dd fb 3a 47 55 b8 3b b8 19 da bb
       -0.004265193 0.0019215808 0.0056254 -0.006655898
000190 34 9e 19 3c 53 f8 0c ba 22 30 35 3b 63 e6 5e ba
       0.0093760975 -0.00053775794 0.0027647098 -0.0008502958
0001a0 c7 69 20 bb 30 a0 6e bb ab c1 6d bb 5c d3 80 bb
       -0.002447711 -0.0036411397 -0.0036278765 -0.003931446
0001b0 67 45 d9 bb 6a 8d 7f 3c 4d c9 b9 3c 51 84 11 3c
       -0.006630588 0.015597681 0.022678996 0.008881644
0001c0 ef 35 61 bc 08 46 72 bc 50 66 e3 bb 6c 72 06 3c
       -0.013745769 -0.014787205 -0.006939687 0.008205991
0001d0 af 88 a2 bb e4 13 97 3a fa 27 1c 3c 95 ae 1d bb
       -0.0049601416 0.0011526314 0.0095310155 -0.0024060358
0001e0 66 51 a0 3b 75 75 2e ba 24 39 39 bc 3d 79 34 bc
       0.004892516 -0.00066550757 -0.011305127 -0.011015234
0001f0 11 ca 98 bb 91 4a ba ba 9e 9e 31 bb 00 bb 39 bc
       -0.00466276 -0.0014212896 -0.00271026 -0.011336088
000200 b8 1b 76 bc 6f 0f 91 bb d2 8a 3f 3b af 1f f9 3a
       -0.015021257 -0.0044268887 0.002922703 0.0019006635
000210 5b 18 f1 3b 87 7b 77 3b 6f 46 bd bb 5f 02 33 3c
       0.0073576397 0.0037762837 -0.0057762186 0.010925858
000220 ff fc 0e 3c ba 61 e4 bb 0b 35 81 bc 73 85 60 bc
       0.008727311 -0.0069696577 -0.015772363 -0.013703692
000230 fa f2 8c ba 53 b0 4d 3c 48 1d 4e ba 8f b7 82 b8
       -0.0010753565 0.012554246 -0.00078626396 -6.2330735e-05
000240 23 31 b4 bb 17 e1 0c 3b 79 95 c5 bb ef 8d 21 bb
       -0.0054990216 0.0021496469 -0.0060297814 -0.002465125
000250 54 eb c0 bb eb 1d 06 bc 37 1d 50 bc 5f 1c 39 bc
       -0.0058874283 -0.008185844 -0.012702278 -0.011298268
000260 75 b9 cf 3b 74 ec 94 ba c8 96 ec 3b 3f 57 18 3c
       0.006339247 -0.0011361972 0.007220123 0.009298145
000270 09 e5 47 bb e7 1e a5 3b d2 c8 3d bc dc 7f b9 bb
       -0.0030501506 0.0050390842 -0.011583524 -0.005660994
000280 11 50 c0 3b 80 3c dd 3b 55 84 dd bb e4 47 33 bc
       0.0058689197 0.006751597 -0.00676016 -0.010942433
000290 0d 12 dd 3b bf d2 9b b9 65 0f ff bb aa b0 1e 3c
       0.0067465366 -0.00029720922 -0.0077838176 0.009685675
0002a0 5d 6d 53 bc b2 a6 d7 3b 6a 0e f3 ba bf 34 b2 bb
       -0.012904492 0.006581151 -0.0018543724 -0.0054384167
0002b0 3d 94 fc 3b 67 12 aa 3a 87 45 8d 3b ab d4 25 3c
       0.007708101 0.0012975455 0.004311267 0.010121505
0002c0 33 28 a2 bc a3 b2 2e 3c 52 9e 69 bc 0f d0 a6 bc
       -0.01979456 0.0106627075 -0.014258938 -0.020362882
0002d0 93 2c 4d 3a fb f1 1e ba da b9 6a ba eb f5 dc bb
       0.00078267715 -0.00060632796 -0.00089540856 -0.006743183
0002e0 73 5c e0 ba 85 60 c1 3b 62 d9 10 3c 6f bb 8c bb
       -0.0017117396 0.0059013986 0.008840891 -0.0042948048
0002f0 72 3b 20 3b 33 ef 07 3c 87 7f 0b bb 0d 50 81 bb
       0.0024449495 0.008296776 -0.002128573 -0.0039463104
000300 02 52 00 bb 57 d3 95 bb 27 22 1c ba 0a 86 34 3b
       -0.001958013 -0.004572313 -0.0005956017 0.0027545714
000310 cf 8f 09 bb da 97 a0 bb e3 a8 f3 ba 42 b0 98 bb
       -0.0020990258 -0.0049009146 -0.0018589761 -0.0046596834
000320 30 01 86 ba 4d c1 de b9 df 43 f6 bb 7b 14 e5 37
       -0.0010223743 -0.0004248716 -0.007515415 2.7308464e-05
000330 d5 3f 72 bb 48 6c 3d 3c bb b7 65 bc a5 30 de bb
       -0.0036964316 0.011561461 -0.014020856 -0.006780701
000340 83 71 37 3c 63 29 15 3c 97 89 0f 3c 3d 83 d8 bb
       0.011196497 0.009104106 0.008760831 -0.0066074417
000350 c0 b0 57 bb bf 4d 5a 3a e2 b6 9c 3c 83 4c 9e bc
       -0.0032911748 0.0008327625 0.019130174 -0.019323593
000360 5d 9d 99 bb da 92 07 3c f5 87 74 bb d9 1f 20 3c
       -0.0046879486 0.008274758 -0.0037312482 0.009773218
000370 68 f0 91 bb 5d e6 82 3c 3a 1e a0 3b 19 e8 09 3b
       -0.0044537075 0.015978986 0.004886416 0.0021042882
000380 48 68 3f 3b 57 e8 3e bc 77 d3 6e 3b 73 6f a3 3b
       0.0029206444 -0.011652074 0.003644196 0.004987651
000390 e3 ef a8 bb 1f be 95 bc fd d6 d5 3a 82 34 50 ba
       -0.00515555 -0.018279133 0.0016314682 -0.00079423946
0003a0 2d af 0c bc 22 d1 24 bc 47 2e 7e bb b0 42 df bb
       -0.008586687 -0.010059627 -0.0038784908 -0.0068133697
0003b0 03 d8 96 ba 39 99 88 3a dc c7 3a bb 8b a1 1b bc
       -0.0011508468 0.001042164 -0.0028500473 -0.009498964
0003c0 d7 aa 32 b9 ea 52 80 bb 98 1a ac bb 53 ef 8e bc
       -0.00017039046 -0.003916134 -0.0052521937 -0.017448103
0003d0 cb 60 43 bc 63 f1 34 bc 1d b7 b8 3a 67 fb e1 3b
       -0.011924933 -0.011043879 0.0014092658 0.0068964246
0003e0 62 ef 4f 3b 66 17 ba 3b 9d b6 eb 3b 51 3a 29 bc
       0.0031728377 0.005679059 0.0071934 -0.010328845
0003f0 0c 9a 40 3b af 17 4c bc ea de 1c bb 37 a3 a2 bb
       0.0029388694 -0.0124568185 -0.0023936578 -0.0049633044

action_model._discrete_distribution.branches.0.bias f4 [4]
000000 00 00 00 00 00 00 00 00 00 00 00 00 00 00 00 00
       0.0 0.0 0.0 0.0

network_body._body_endoder.seq_layers.0.weight f4 [128, 1]
000000 dd 91 6a 3d dc f8 61 3e b4 f1 ed be 71 62 3f bf
       0.057268012 0.22067589 -0.46473467 -0.74759585
000010 90 da 3e be 76 d2 ee 3e 60 b0 45 3e 7a 03 57 3e
       -0.18638062 0.46644944 0.19305563 0.2099742
000020 52 12 fd be f1 05 99 be 9f 56 ba be 5b 49 51 3f
       -0.4942804 -0.29887345 -0.36394212 0.81752557
000030 ec b6 0f bf 41 f5 78 bf f2 e4 53 3e 57 9e c3 bf
       -0.5613849 -0.9724923 0.20692804 -1.5282696
000040 64 bc 08 bf 99 b6 51 be cc 50 16 bf b5 92 d6 be
       -0.5341246 -0.20479812 -0.58717036 -0.41908804
000050 da 4a ee 3e f9 46 a7 3e 69 f6 3b 3f 1c 75 b2 3e
       0.46541482 0.32671335 0.7342287 0.34854972
000060 28 a2 d8 3e 85 03 0b bf bd e1 da bf 93 7d 6c 3f
       0.42311215 -0.54302245 -1.710014 0.9237911
000070 0d 40 df 3f 64 7b 96 bd 51 8f 73 bd 3e ae 85 3f
       1.7441422 -0.07347754 -0.05946285 1.04438
000080 2e d6 ec 3e f8 e2 ab bf f8 b9 04 40 a2 c0 0f 3f
       0.46257156 -1.342864 2.0738506 0.5615331
000090 aa 46 3f be e9 f3 19 3d 5d e9 a9 bf b7 ef 65 3f
       -0.186793 0.037586126 -1.3274342 0.898189
0000a0 b6 5b 2b 40 6b 2c 1e bf 84 00 2c bf 66 7c 8d bd
       2.6774726 -0.61786526 -0.67188287 -0.06908493
0000b0 76 cf 05 40 cd 92 64 3c 6c c2 a7 bf 8a c2 9b 3f
       2.0907874 0.013951016 -1.3106208 1.2168744
0000c0 33 60 28 3f c8 bd 28 bf ca 87 8a 3e f9 cb 06 40
       0.6577179 -0.65914583 0.27056724 2.1061995
0000d0 4c 7b 48 3f ea 92 7d 3f 79 3e aa be 07 4e cb bf
       0.78313136 0.990523 -0.33250788 -1.5883187
0000e0 8a 08 a5 3f f0 ae b4 3f 53 ef 0e bf 4f 92 d7 3f
       1.2893231 1.4115887 -0.5583393 1.6841525
0000f0 77 35 2a 3f e3 63 a1 bf 97 e0 b0 3f 61 89 bd be
       0.6648783 -1.2608608 1.3818539 -0.37018874
000100 cd df 64 be 24 f4 07 c0 5f f4 ac 3e e8 f6 21 bf
       -0.22350998 -2.1242762 0.3378019 -0.63267374
000110 24 68 08 c0 40 33 5e 3f 58 74 68 be 51 6c 16 3b
       -2.1313562 0.8679695 -0.22700632 0.0022952745
000120 d9 d5 dc 3e c2 5a 31 be 6b 91 49 bf 19 bc 62 bf
       0.43131903 -0.17319778 -0.78737515 -0.88568264
000130 21 57 18 bf fd 73 2b be fc 72 4a bc eb 72 ab bf
       -0.5950795 -0.16743465 -0.012356516 -1.3394445
000140 50 d2 86 bf 66 fc 19 40 ff a4 ba be 7e 75 9d 3d
       -1.0532932 2.4060302 -0.36454007 0.076884255
000150 12 dc 3f bf f9 79 2d 3f 2a 32 0e c0 6f 89 ea be
       -0.74945176 0.6776424 -2.2218118 -0.4580798
000160 50 fc fe 3f e9 c8 98 bf d5 4f 72 be ac d9 e7 bf
       1.992075 -1.1936313 -0.23663266 -1.8113303
000170 11 73 80 bd aa 7a 6a 3e 60 17 94 be 48 88 50 bf
       -0.06271947 0.22898355 -0.28924084 -0.8145795
000180 61 b2 2b bd 44 69 45 bf cb 65 60 bd b5 a4 36 bf
       -0.041918162 -0.7711375 -0.054784577 -0.71345073
000190 d2 f0 1c 3f bd 0e a6 3f 0f 61 4d 3f 0f ca 4f be
       0.6130496 1.2973248 0.80226225 -0.20291923
0001a0 07 3f ad 3f 00 69 f5 3e 8a 00 97 bf a9 93 24 3f
       1.353486 0.4793167 -1.179704 0.6428781
0001b0 5d 9f c8 bf ec 2b 72 3f 0a 15 f3 be 7b 54 bd 3f
       -1.5673634 0.9459827 -0.4747699 1.4791406
0001c0 50 93 18 be b8 bd e0 bf f3 0b 31 3f ba 9c 85 3e
       -0.14899945 -1.7557898 0.6915886 0.26096135
0001d0 77 96 13 3f bb d4 da 3f d1 0f 6b 3f ce 23 2f be
       0.57651466 1.709617 0.9182101 -0.17103502
0001e0 08 b6 e0 3f cd 80 84 3f 90 06 56 3f 66 70 91 3f
       1.7555552 1.0351807 0.83603764 1.1362426
0001f0 0b 64 03 40 6b 56 ba 3e 5d 35 c1 bf 3c a5 9d 3f
       2.0529811 0.36394057 -1.509441 1.231605

network_body._body_endoder.seq_layers.0.bias f4 [128]
000000 00 00 00 00 00 00 00 00 00 00 00 00 00 00 00 00
       0.0 0.0 0.0 0.0
000010 00 00 00 00 00 00 00 00 00 00 00 00 00 00 00 00
       0.0 0.0 0.0 0.0
000020 00 00 00 00 00 00 00 00 00 00 00 00 00 00 00 00
       0.0 0.0 0.0 0.0
000030 00 00 00 00 00 00 00 00 00 00 00 00 00 00 00 00
       0.0 0.0 0.0 0.0
000040 00 00 00 00 00 00 00 00 00 00 00 00 00 00 00 00
       0.0 0.0 0.0 0.0
000050 00 00 00 00 00 00 00 00 00 00 00 00 00 00 00 00
       0.0 0.0 0.0 0.0
000060 00 00 00 00 00 00 00 00 00 00 00 00 00 00 00 00
       0.0 0.0 0.0 0.0
000070 00 00 00 00 00 00 00 00 00 00 00 00 00 00 00 00
       0.0 0.0 0.0 0.0
000080 00 00 00 00 00 00 00 00 00 00 00 00 00 00 00 00
       0.0 0.0 0.0 0.0
000090 00 00 00 00 00 00 00 00 00 00 00 00 00 00 00 00
       0.0 0.0 0.0 0.0
0000a0 00 00 00 00 00 00 00 00 00 00 00 00 00 00 00 00
       0.0 0.0 0.0 0.0
0000b0 00 00 00 00 00 00 00 00 00 00 00 00 00 00 00 00
       0.0 0.0 0.0 0.0
0000c0 00 00 00 00 00 00 00 00 00 00 00 00 00 00 00 00
       0.0 0.0 0.0 0.0
0000d0 00 00 00 00 00 00 00 00 00 00 00 00 00 00 00 00
       0.0 0.0 0.0 0.0
0000e0 00 00 00 00 00 00 00 00 00 00 00 00 00 00 00 00
       0.0 0.0 0.0 0.0
0000f0 00 00 00 00 00 00 00 00 00 00 00 00 00 00 00 00
       0.0 0.0 0.0 0.0
000100 00 00 00 00 00 00 00 00 00 00 00 00 00 00 00 00
       0.0 0.0 0.0 0.0
000110 00 00 00 00 00 00 00 00 00 00 00 00 00 00 00 00
       0.0 0.0 0.0 0.0
000120 00 00 00 00 00 00 00 00 00 00 00 00 00 00 00 00
       0.0 0.0 0.0 0.0
000130 00 00 00 00 00 00 00 00 00 00 00 00 00 00 00 00
       0.0 0.0 0.0 0.0
000140 00 00 00 00 00 00 00 00 00 00 00 00 00 00 00 00
       0.0 0.0 0.0 0.0
000150 00 00 00 00 00 00 00 00 00 00 00 00 00 00 00 00
       0.0 0.0 0.0 0.0
000160 00 00 00 00 00 00 00 00 00 00 00 00 00 00 00 00
       0.0 0.0 0.0 0.0
000170 00 00 00 00 00 00 00 00 00 00 00 00 00 00 00 00
       0.0 0.0 0.0 0.0
000180 00 00 00 00 00 00 00 00 00 00 00 00 00 00 00 00
       0.0 0.0 0.0 0.0
000190 00 00 00 00 00 00 00 00 00 00 00 00 00 00 00 00
       0.0 0.0 0.0 0.0
0001a0 00 00 00 00 00 00 00 00 00 00 00 00 00 00 00 00
       0.0 0.0 0.0 0.0
0001b0 00 00 00 00 00 00 00 00 00 00 00 00 00 00 00 00
       0.0 0.0 0.0 0.0
0001c0 00 00 00 00 00 00 00 00 00 00 00 00 00 00 00 00
       0.0 0.0 0.0 0.0
0001d0 00 00 00 00 00 00 00 00 00 00 00 00 00 00 00 00
       0.0 0.0 0.0 0.0
0001e0 00 00 00 00 00 00 00 00 00 00 00 00 00 00 00 00
       0.0 0.0 0.0 0.0
0001f0 00 00 00 00 00 00 00 00 00 00 00 00 00 00 00 00
       0.0 0.0 0.0 0.0

network_body._body_endoder.seq_layers.2.weight f4 [128, 128]
000000 81 38 d6 ba d1 5e 8e 3d 1f 4f 91 bd b8 89 cd 3c
       -0.0016343744 0.069516785 -0.07095169 0.025090083
000010 77 17 96 bc 8c 7b a0 bd 4f 8d 20 3e 9f 48 0f bd
       -0.018321736 -0.07836065 0.15678905 -0.034981366
000020 d8 6f 2f 3e 8e 64 ad 3d a3 0a 9d 3d 75 62 9f bc
       0.17132509 0.08466445 0.076680444 -0.019456128
000030 d4 b2 4c bc d9 57 38 be b1 48 06 be 93 34 05 bb
       -0.012493808 -0.18002261 -0.13113667 -0.0020325526
000040 a4 76 bc bc 2f 2a 86 3d ed e9 b6 3d b3 79 36 3e
       -0.023005791 0.06551015 0.089313366 0.17819862
000050 c4 62 0f be 07 c7 11 be f9 b8 1d bd 16 57 90 3d
       -0.1400252 -0.14236079 -0.03850648 0.0704786
000060 3f 5a 9a bd 7d c7 d4 bb ee af b2 3c 3c 81 61 3c
       -0.07536744 -0.0064935074 0.021812405 0.013763722
000070 c4 1b 98 bc 49 c2 c2 3c 6c 96 8b 3d 2e 84 be 3b
       -0.018567927 0.023774283 0.068158 0.005814097
000080 24 d0 b3 bc 57 ae 46 be 3f 2e 1e be f8 71 28 3d
       -0.021949835 -0.19402443 -0.15447329 0.041124314
000090 99 cf 41 bd 11 b8 9e bc 95 c0 f6 3d 9d aa a0 bd
       -0.04731712 -0.01937488 0.12048451 -0.07845042
0000a0 e0 0e 96 3d c4 03 e7 3c 89 58 13 3e 01 60 31 3d
       0.07327056 0.028200038 0.14389242 0.043304447
0000b0 bf d5 20 3e 5f eb 18 bd c8 3b 3e bd eb 97 d3 bd
       0.15706538 -0.037333842 -0.04644373 -0.103317104
0000c0 42 93 7b 3c 5e f4 d1 3d b6 4a d2 3d ca f1 c1 3c
       0.015354933 0.102516875 0.10268156 0.023674864
0000d0 81 8f f7 3d e5 bc 9f bc ae 53 54 bb 31 8f 94 bd
       0.12087918 -0.019499252 -0.003239851 -0.07253874
0000e0 08 6f 05 3e f3 94 b5 bd 94 35 fe bd 15 44 b5 3d
       0.13030636 -0.088663004 -0.12412563 0.08850876
0000f0 49 b4 e3 bd 7e ec af bd ed 87 2f bc 44 6d e0 3d
       -0.11118371 -0.08590029 -0.01071356 0.10958341
000100 db 81 a8 bd 32 c9 99 3c da 37 01 3d c9 17 9e 3c
       -0.08227893 0.018772695 0.031547405 0.019298451
000110 7a 4b 8f bc a1 3d 1c bc ff 31 0c be 1d a0 80 3c
       -0.017492045 -0.009536178 -0.13690947 0.015701348
000120 03 72 a1 3c 25 dd 6d 3d a3 8c f6 3c 87 9a 8e bc
       0.019707685 0.058072228 0.030096358 -0.017407669
000130 59 14 a3 bd 7f ed 12 3d 7b b6 3c bd 13 f3 9d bd
       -0.079628654 0.035871025 -0.046072464 -0.07712378
000140 f3 49 72 3d bb 06 ba bd 5a 71 ba bd bc 89 a3 bc
       0.059152555 -0.09083315 -0.09103651 -0.019963138
000150 d3 4d de 3d 6b d0 d4 bb c9 52 14 3e ed a8 ce bd
       0.108546875 -0.006494572 0.14484705 -0.10090814
000160 ac 26 62 be 63 55 c3 3c f1 d8 67 3d 41 b0 4e bd
       -0.22085065 0.023844426 0.056603376 -0.050461058
000170 71 b0 67 bc c7 91 68 3d d6 fd 98 bb bb 4d 21 3d
       -0.014141188 0.05677965 -0.0046689315 0.03938077
000180 d0 45 97 3d 98 99 54 bd e8 63 0a bd da d6 fb 3c
       0.073863626 -0.05190429 -0.033786684 0.030742098
000190 a1 22 09 bc 32 7a e7 ba 39 b8 85 bd c8 bd 18 3e
       -0.008370073 -0.0017660318 -0.06529278 0.14916146
0001a0 5f f3 a1 bd c2 81 48 3d 7f e9 33 be bd 82 a2 3c
       -0.079077475 0.04895187 -0.1756954 0.019837731
0001b0 35 bb c0 bb 1c cc 89 3d fc 27 86 bd 7f f2 5b be
       -0.005881692 0.06728384 -0.06550595 -0.21479224
0001c0 4c 32 05 3c ff c0 85 bd 49 70 8c be c0 8d d9 bd
       0.0081296675 -0.06530952 -0.27429417 -0.1062274
0001d0 95 d1 d6 3d 36 a0 1e 3d 7e 84 3e bd 0a 8b a4 bd
       0.10489193 0.038727008 -0.046513073 -0.08034332
0001e0 a1 d7 e6 bc 6b b4 4c be 49 e0 84 3d 91 97 e9 bd
       -0.028178992 -0.19990699 0.064880915 -0.11405862
0001f0 6d c8 16 3b 66 06 a2 3d cc 68 b6 bd c5 bf c8 3c
       0.0023007647 0.07911377 -0.08906707 0.024505505
000200 95 bf 7c bc 4e 32 15 bd 52 c5 ea 3d 33 81 00 be
       -0.015426536 -0.036424927 0.11463417 -0.12549286
000210 d6 04 51 3d 8d f2 ed 3c ab 1a f9 3d b7 5a fc bc
       0.051030003 0.029046321 0.1216329 -0.030804975
000220 3c 32 78 3d be a6 89 3d ed 3d f5 bd fe 44 6c bd
       0.060594782 0.06721257 -0.11974702 -0.057682984
000230 3a 1d 9a bd cc 7f 42 bd 47 d7 fd 3c 8b ee 91 3c
       -0.07525106 -0.047485158 0.030986441 0.017813941
000240 d6 fd ba bd ca d7 19 3d 7c d4 a1 3d 8a f2 d7 bc
       -0.091304466 0.037559308 0.07901856 -0.026360769
000250 a7 16 3e bd 85 ed 41 be b9 b0 e9 3c b8 3c e0 bd
       -0.04640832 -0.18938263 0.02852665 -0.10949081
000260 2f 63 02 bb 32 d3 a5 bb 19 22 10 3d 04 9c b2 bd
       -0.0019895544 -0.005060577 0.035188768 -0.08721164
000270 9d 61 92 3c 32 bd f1 3c fc c1 46 3d 11 90 32 3d
       0.017868811 0.02950916 0.04852484 0.043594424
000280 91 1c 8b bd 3b 3f ce bc 13 22 e8 3c 9b 75 a6 3c
       -0.06792558 -0.025176635 0.02833656 0.02031975
000290 55 a2 eb bc 45 e9 68 bd c9 f5 42 3e 72 24 1a 3b
       -0.02876393 -0.05686309 0.19039072 0.0023520258
0002a0 d0 55 6b 3c f4 36 04 3d c5 e2 e8 3d 12 ec cc bd
       0.014363721 0.03227897 0.11371378 -0.10005964
0002b0 c7 9a e0 bc 2d 5d eb bd 3f cf c8 3d b0 7d 59 3b
       -0.027417554 -0.11492381 0.09805154 0.0033186488
0002c0 6a 92 03 be b2 f8 10 3d 89 36 2a bd 9d ad af bd
       -0.12848821 0.035393424 -0.041555915 -0.08578036
0002d0 c0 6e 84 bb 0b 91 a3 bc 8a 87 b7 3d 1a 6b 81 3d
       -0.0040415227 -0.019966623 0.08961399 0.06319256
0002e0 4d 99 7e 3d 50 ff e7 3d 20 dc 1c bd da bc ee 3d
       0.062157918 0.11327994 -0.038295865 0.11657114
0002f0 d9 2a d1 ba 71 f5 17 3e 43 f7 26 be b4 c0 71 bd
       -0.0015958204 0.14839722 -0.1630526 -0.059021667
000300 b3 20 4f bd 92 83 85 3d 6a e6 ad 3d 3d ea ad bd
       -0.050568294 0.06519236 0.084912136 -0.08491943
000310 28 eb 19 3e 2b a3 15 be 02 bb 09 bd bf b4 f0 bd
       0.15031111 -0.14613025 -0.03362561 -0.117532246
000320 94 72 ce 3c 04 31 21 3e 6f 34 26 3e d7 3f b5 3d
       0.02520112 0.15741354 0.1623094 0.08850067
000330 86 5f 07 bd 48 3c 77 3c 30 e4 60 3d 59 06 22 3e
       -0.033050083 0.015090056 0.054905117 0.15822734
000340 35 0a 12 3d 38 1c 37 3e 0f 55 2c bd e7 f8 00 3e
       0.035654265 0.17881858 -0.042073306 0.12594949
000350 9f 2e 19 be ba 8b 8e bb 67 bb 8f bc f7 aa ef 3c
       -0.14959191 -0.004350153 -0.017545415 0.029256327
000360 a5 4f 50 be e7 db 09 be 77 07 b8 bd 54 3e 82 3d
       -0.20342882 -0.13462792 -0.08985799 0.063595444
000370 cd 1d 65 3c 85 fb 72 3c 09 58 e6 bc 71 84 55 bd
       0.013984156 0.014830475 -0.02811815 -0.05212826
000380 e3 0b d8 bd 0b e6 8e 3c 49 5d 52 bd a3 f7 26 be
       -0.10549142 0.017443677 -0.051358495 -0.16305403
000390 64 7f a8 3d 57 51 7a 3c ce 62 04 3e 49 91 3a 3d
       0.08227423 0.015278182 0.12928316 0.04554871
0003a0 8a ae df 3c 37 93 4b 3d 4b 44 9b bd 29 15 3e 3d
       0.027304906 0.049700942 -0.07581385 0.0464069
0003b0 33 55 40 3e 4f da 28 bc 36 1d 70 3b 2c ce a4 bd
       0.18782501 -0.010305955 0.0036638505 -0.08047137
0003c0 26 de 48 3d 61 66 aa bd e4 3d 83 bd ad b8 ee 3c
       0.049039982 -0.083203085 -0.06408289 0.029140795
0003d0 08 c0 ba 3c 57 16 60 bc 9e e1 c6 bd d8 10 1d be
       0.022796646 -0.013677201 -0.09711002 -0.15338457
0003e0 0f 2e 8d bd 23 c2 d9 3d c2 14 a6 3d 4a e7 b8 3d
       -0.068935506 0.10632732 0.08109428 0.0902849
0003f0 f9 bd 05 bb 7e 85 ae 3c 46 85 0f be f0 2c fa bd
       -0.0020407422 0.021303888 -0.14015684 -0.122156024

network_body._body_endoder.seq_layers.2.bias f4 [128]
000000 00 00 00 00 00 00 00 00 00 00 00 00 00 00 00 00
       0.0 0.0 0.0 0.0
000010 00 00 00 00 00 00 00 00 00 00 00 00 00 00 00 00
       0.0 0.0 0.0 0.0
000020 00 00 00 00 00 00 00 00 00 00 00 00 00 00 00 00
       0.0 0.0 0.0 0.0
000030 00 00 00 00 00 00 00 00 00 00 00 00 00 00 00 00
       0.0 0.0 0.0 0.0
000040 00 00 00 00 00 00 00 00 00 00 00 00 00 00 00 00
       0.0 0.0 0.0 0.0
000050 00 00 00 00 00 00 00 00 00 00 00 00 00 00 00 00
       0.0 0.0 0.0 0.0
000060 00 00 00 00 00 00 00 00 00 00 00 00 00 00 00 00
       0.0 0.0 0.0 0.0
000070 00 00 00 00 00 00 00 00 00 00 00 00 00 00 00 00
       0.0 0.0 0.0 0.0
000080 00 00 00 00 00 00 00 00 00 00 00 00 00 00 00 00
       0.0 0.0 0.0 0.0
000090 00 00 00 00 00 00 00 00 00 00 00 00 00 00 00 00
       0.0 0.0 0.0 0.0
0000a0 00 00 00 00 00 00 00 00 00 00 00 00 00 00 00 00
       0.0 0.0 0.0 0.0
0000b0 00 00 00 00 00 00 00 00 00 00 00 00 00 00 00 00
       0.0 0.0 0.0 0.0
0000c0 00 00 00 00 00 00 00 00 00 00 00 00 00 00 00 00
       0.0 0.0 0.0 0.0
0000d0 00 00 00 00 00 00 00 00 00 00 00 00 00 00 00 00
       0.0 0.0 0.0 0.0
0000e0 00 00 00 00 00 00 00 00 00 00 00 00 00 00 00 00
       0.0 0.0 0.0 0.0
0000f0 00 00 00 00 00 00 00 00 00 00 00 00 00 00 00 00
       0.0 0.0 0.0 0.0
000100 00 00 00 00 00 00 00 00 00 00 00 00 00 00 00 00
       0.0 0.0 0.0 0.0
000110 00 00 00 00 00 00 00 00 00 00 00 00 00 00 00 00
       0.0 0.0 0.0 0.0
000120 00 00 00 00 00 00 00 00 00 00 00 00 00 00 00 00
       0.0 0.0 0.0 0.0
000130 00 00 00 00 00 00 00 00 00 00 00 00 00 00 00 00
       0.0 0.0 0.0 0.0
000140 00 00 00 00 00 00 00 00 00 00 00 00 00 00 00 00
       0.0 0.0 0.0 0.0
000150 00 00 00 00 00 00 00 00 00 00 00 00 00 00 00 00
       0.0 0.0 0.0 0.0
000160 00 00 00 00 00 00 00 00 00 00 00 00 00 00 00 00
       0.0 0.0 0.0 0.0
000170 00 00 00 00 00 00 00 00 00 00 00 00 00 00 00 00
       0.0 0.0 0.0 0.0
000180 00 00 00 00 00 00 00 00 00 00 00 00 00 00 00 00
       0.0 0.0 0.0 0.0
000190 00 00 00 00 00 00 00 00 00 00 00 00 00 00 00 00
       0.0 0.0 0.0 0.0
0001a0 00 00 00 00 00 00 00 00 00 00 00 00 00 00 00 00
       0.0 0.0 0.0 0.0
0001b0 00 00 00 00 00 00 00 00 00 00 00 00 00 00 00 00
       0.0 0.0 0.0 0.0
0001c0 00 00 00 00 00 00 00 00 00 00 00 00 00 00 00 00
       0.0 0.0 0.0 0.0
0001d0 00 00 00 00 00 00 00 00 00 00 00 00 00 00 00 00
       0.0 0.0 0.0 0.0
0001e0 00 00 00 00 00 00 00 00 00 00 00 00 00 00 00 00
       0.0 0.0 0.0 0.0
0001f0 00 00 00 00 00 00 00 00 00 00 00 00 00 00 00 00
       0.0 0.0 0.0 0.0

value_heads.value_heads.extrinsic.weight f4 [1, 128]
000000 f7 ed 06 3e 01 bb 0b bd 98 96 4f bd ef a4 f8 3c
       0.13176714 -0.034113888 -0.050680727 0.030352084
000010 b5 bb 24 3e c6 56 d1 bd 94 9c f7 bd f1 82 67 3c
       0.1608723 -0.10221629 -0.12090412 0.01413034
000020 ee 4c 7a bd 71 ea 1f bd 18 e6 bc 3d d3 01 b4 3d
       -0.061108522 -0.03904194 0.092235744 0.087894104
000030 a0 a1 43 3e e5 2d 56 3e 0c 0c 34 3e f4 46 39 be
       0.19104624 0.20915945 0.1758272 -0.18093473
000040 f6 12 32 3e 67 7f ee 3d 16 27 08 be 5f 59 cc 3d
       0.17390046 0.11645394 -0.1329616 0.09977984
000050 ff 69 1f be a8 fa 0a 3e db 79 ea 3d 34 2c 2b be
       -0.15567778 0.1357218 0.11449023 -0.16716081
000060 fc a2 c9 3d 4c 99 50 bd 5a af 2a 3d 1f 04 ac bd
       0.0984554 -0.050927445 0.041671135 -0.083992235
000070 35 56 05 bd b7 c1 2e 3e 87 c7 34 be b7 9b 2c bc
       -0.032552917 0.17066084 -0.17654239 -0.010535172
000080 28 30 94 bd 6d 8d a4 3d 73 d8 fd bb 4a fe c9 3d
       -0.072357476 0.08034787 -0.00774675 0.09862955
000090 5a 16 1c bc 74 b4 20 3e e0 92 0f 3e 72 e9 00 3e
       -0.009526813 0.15693837 0.14020872 0.12589052
0000a0 b4 6e eb bc 05 cf 00 bd bc 14 21 bd 3c 22 9d bd
       -0.02873931 -0.03144743 -0.039326414 -0.07672545
0000b0 9a af 1d 3e bc 33 33 3e 14 4f 10 bc 6a ce 22 be
       0.15399018 0.17500204 -0.008807916 -0.15899053
0000c0 3b 76 ac 3d b9 ab cb bd 52 07 38 be 01 52 63 bc
       0.08420988 -0.09944863 -0.17971542 -0.013874532
0000d0 17 2e 86 3d 17 f3 59 be 77 20 10 be df c4 57 be
       0.0655176 -0.21284138 -0.14074884 -0.21071194
0000e0 85 09 a3 bd 4a b5 bb bd 40 05 50 be bf 93 3a 3d
       -0.079608 -0.091654375 -0.20314503 0.045551058
0000f0 95 e2 5b bd ec de 23 be 72 76 91 bd 7b b3 5f 3d
       -0.053682882 -0.16003007 -0.0710267 0.054614525
000100 a6 ba ca 3d 29 b5 27 3e d2 5f 00 be 8b 73 17 bd
       0.098988816 0.16377701 -0.12536553 -0.036975425
000110 f1 83 9a bd f4 d8 c2 bd 3c 58 33 be 2f c7 75 3d
       -0.07544697 -0.09514037 -0.17514127 0.06000441
000120 9d f1 3d 3e 08 83 2a 3e bc 35 24 be db 9e 4e be
       0.185492 0.16651547 -0.16036123 -0.20177786
000130 2a dc 3e bd f5 c3 34 3e 2c 92 bf 3d b5 e0 63 bd
       -0.046596684 0.17652877 0.09354052 -0.05563422
000140 da 2e 02 3e ed b3 74 bd 6a 84 01 be a3 dc b5 3c
       0.12713185 -0.059741903 -0.12648168 0.022199934
000150 51 59 14 3e 21 52 aa bd c5 6a 36 3e 86 0b 25 3d
       0.14487197 -0.08316446 0.17814167 0.040294193
000160 36 96 34 be 79 c9 ba bb 82 fc 18 be 88 78 3d be
       -0.17635426 -0.005700287 -0.14940074 -0.1850301
000170 fd 6d fe 3d e3 d8 ef 3d 38 1d 32 be 27 51 55 3e
       0.12423322 0.1171129 -0.17393959 0.20831738
000180 a2 da 0f bd 19 61 4e be 1f 42 2e 3e 25 99 a0 3d
       -0.035120614 -0.20154227 0.1701741 0.0784171
000190 9d a8 23 3e 88 0c 85 3d 10 17 8a 3d 3a ca 32 3e
       0.1598229 0.06496531 0.0674268 0.17459956
0001a0 a9 02 da bc 0f 51 4b be a8 6b db 3c 6d f2 19 3d
       -0.026612597 -0.1985514 0.026784733 0.03758471
0001b0 02 aa 17 be fc e7 31 be 1a ab fe 3d d1 e0 12 3e
       -0.14810947 -0.17373651 0.12434979 0.14343573
0001c0 7b eb 9a bd f8 ba 5c 3e 17 34 00 3c d5 da 10 be
       -0.075644456 0.21555698 0.007824919 -0.14145978
0001d0 32 df 2f be 70 44 4f be 02 40 49 be cb 86 01 3d
       -0.17174986 -0.2024095 -0.19653323 0.03162269
0001e0 aa a9 9c bd 16 09 3a bd 50 e2 43 3d 94 a3 2c 3e
       -0.07649548 -0.04541882 0.04782325 0.16859275
0001f0 c8 6b d2 3d ae 75 b9 3d 1e a8 1b 3e 04 00 4d be
       0.10274464 0.09055649 0.1520085 -0.20019537
