results/lessview/MoveToGoal/MoveToGoal-2448.onnx (onnx, 72802 bytes, 6 tensors)

action_model._discrete_distribution.branches.0.bias f4 [4]
0	0x00000000	0.0
1	0x00000000	0.0
2	0x00000000	0.0
3	0x00000000	0.0

action_model._discrete_distribution.branches.0.weight f4 [4, 128]
0	0x3bd64d3f	0.00653997
1	0x3c898f9f	0.016792117
2	0x3be3e1fa	0.0069544287
3	0x3b0f0086	0.002182038
4	0x3bc8aff2	0.00612449
5	0x3c0ee8b7	0.008722476
6	0x3b3f86ee	0.0029224711
7	0xbc52e520	-0.0128720105
8	0x3c7d7caa	0.015471617
9	0xbb6f1c7b	-0.0036485482
10	0xbc9086af	-0.017642347
11	0xbbb958f1	-0.0056563546
12	0x3cd2c738	0.02572976
13	0xbb81c87b	-0.0039606667
14	0xbae9ca2f	-0.0017836745
15	0xbc82ea6c	-0.015980922
16	0xbb01f45e	-0.0019829492
17	0xbba043c3	-0.0048908903
18	0x3bc04347	0.005867395
19	0xbbf05795	-0.0073346593
20	0x3b352a98	0.0027643796
21	0xba93db7d	-0.0011280623
22	0x3b114068	0.0022163633
23	0xbae4cd4f	-0.0017456206
24	0xbbd365d0	-0.006451346
25	0x3ba5f5f4	0.0050647203
26	0x3b47b059	0.0030470102
27	0xbc02d737	-0.0079858815
28	0xbc0fa91d	-0.008768347
29	0x3c5935c3	0.013257447
30	0xbc2e8ea6	-0.010654127
31	0x3b2c11dd	0.0026255765
32	0x3a94126a	0.0011296992
33	0x3be3bb57	0.006949823
34	0xbae40238	-0.0017395681
35	0xbb458ed3	-0.0030144944
36	0xba63d642	-0.00086912897
37	0x3b4c12c6	0.003113912
38	0xbc025684	-0.007955197
39	0x3c52dc38	0.012869887
40	0xbbab4235	-0.0052263984
41	0x3c3ac6b9	0.011399918
42	0x3c194198	0.009354018
43	0x3be41fbf	0.0069617922
44	0x3a9c551e	0.0011927222
45	0x3c001792	0.00781812
46	0xbbd12da3	-0.006383614
47	0x3b1f7a38	0.0024334323
48	0xb9914b94	-0.00027712865
49	0x3c449977	0.0119994795
50	0x3cabbabb	0.020963063
51	0xbc345bdb	-0.011008228
52	0x39594fe8	0.000207245
53	0x3c1d0527	0.009583748
54	0x3a00fbc3	0.0004920328
55	0xbc15b67f	-0.009137749
56	0xbc72b7ea	-0.014814356
57	0xbb7ce99a	-0.0038591386
58	0xbb21102e	-0.0024576294
59	0x3ae13d9f	0.0017184502
60	0x3c5db283	0.01353133
61	0xbc3d4d57	-0.011554084
62	0x3c30edba	0.010798866
63	0x3c3ff5f3	0.011716354
64	0x3bae540d	0.005320078
65	0x3bc3b0df	0.0059720124
66	0x3ac37657	0.0014912587
67	0x3c133ed9	0.008987152
68	0xb99f3066	-0.00030362903
69	0xbb79e893	-0.003813301
70	0x3c52d2f8	0.012867682
71	0x3bbb7e83	0.0057218685
72	0xbb9224a2	-0.0044599334
73	0x3c33d453	0.010975915
74	0x3c1d1732	0.00958805
75	0xbb8d8fab	-0.004320105
76	0xb7e97c17	-2.7833548e-05
77	0x3818a0cf	3.638939e-05
78	0x3b6a7220	0.003577359
79	0x3aad495f	0.0013220719
80	0xbb8b0e8b	-0.004243677
81	0x3c8b14b9	0.016977655
82	0x3a985263	0.0011621233
83	0x3c506947	0.012720413
84	0x39bf8588	0.00036529847
85	0xbc21b072	-0.009868728
86	0x3b1fe01f	0.0024395061
87	0x3b911c8b	0.0044284514
88	0x3bbd2dcf	0.005773283
89	0x3a3fd603	0.0007317962
90	0x39e939a3	0.00044484166
91	0xbc86638f	-0.016404895
92	0xbbea6bb7	-0.007153954
93	0xb93058e7	-0.00016817787
94	0x3bd523d5	0.0065045157
95	0xba5f6a20	-0.0008522589
96	0xbadab575	-0.0016686158
97	0xbb0e5cd0	-0.00217228
98	0x3ba5f857	0.005065005
99	0x3c51ffdd	0.01281735
100	0x3b6545bb	0.003498419
101	0xbabb7009	-0.0014300357
102	0x3bab2d84	0.0052239317
103	0x3ac26045	0.0014829716
104	0xbb8d928f	-0.0043204497
105	0xbacb4e14	-0.001551094
106	0x3b4e3b68	0.0031468514
107	0xbcab88bb	-0.020939222
108	0x3bdb2f4d	0.0066889883
109	0x3ac23cfe	0.0014819202
110	0x3b8c0e7d	0.004274188
111	0x3b59b020	0.003321655
112	0x3c7a4372	0.015274869
113	0xbb95a2a6	-0.0045665083
114	0x3bca8da7	0.006181437
115	0x3add56c8	0.0016886825
116	0xbb00a231	-0.0019627924
117	0xbc56b76d	-0.013105256
118	0x3ab015d4	0.001343424
119	0xbc0fa725	-0.008767878
120	0x3b54b3d2	0.0032455814
121	0x3bea5b5b	0.0071520037
122	0x3bc4eecd	0.0060099126
123	0xbc40ec03	-0.01177502
124	0x3c523947	0.012831039
125	0xbb18714c	-0.002326089
126	0x3c5aae0a	0.013347158
127	0xbc81bdb7	-0.015837533
128	0x3c0b3f2e	0.00849895
129	0xbc29efae	-0.0103720855
130	0xb92ffbc3	-0.00016783089
131	0x3be99992	0.0071289027
132	0xbbeb6ccb	-0.0071846
133	0xbc34020f	-0.010986819
134	0x3c94afa7	0.018150164
135	0xbbfbe9e0	-0.007687792
136	0x3c4bca43	0.01243836
137	0xbba2dabe	-0.0049699238
138	0xbb223eb3	-0.002475661
139	0xbc35ba1f	-0.011091738
140	0x3912a032	0.00013983322
141	0xbc304fa7	-0.010761178
142	0xbc3b238f	-0.011422052
143	0x3c7ae6f5	0.0153138535
144	0x3bb8dff5	0.005641932
145	0x3c31ab6b	0.010844092
146	0xbbb3c7b8	-0.005486455
147	0xbc48c1ef	-0.012253269
148	0x3bea3f52	0.0071486617
149	0xbc342813	-0.010995883
150	0x3b0a149b	0.002106941
151	0xbb450f59	-0.0030068962
152	0x3c17f75b	0.009275283
153	0xbc5a8170	-0.013336524
154	0x3ad7d6ad	0.0016467177
155	0x3ad41cb2	0.0016182868
156	0xbc5e740a	-0.013577471
157	0xbc3f65b7	-0.011681966
158	0xbb03d921	-0.0020118433
159	0xbba4b423	-0.005026357
160	0xbb3abcd4	-0.0028493898
161	0x3c1860f3	0.009300458
162	0xbb5c743a	-0.0033638612
163	0x3c26777e	0.010160325
164	0x3c2cb59f	0.010541349
165	0xbc6cb355	-0.014447053
166	0xbc292f8e	-0.010326279
167	0xbbd9ec03	-0.0066504492
168	0xbbcdf282	-0.0062850127
169	0xbb869410	-0.004107006
170	0x3c15eacb	0.009150217
171	0xbaae2ce5	-0.0013288526
172	0xbc1ff470	-0.009762868
173	0xbbb534f3	-0.0055299937
174	0xbba1f5be	-0.004942625
175	0xbbe4463b	-0.00696638
176	0xbc7db6b2	-0.0154854525
177	0xbbc97d53	-0.006148973
178	0xbcac349f	-0.021021185
179	0xba8b4e8b	-0.0010628266
180	0x3ca5b213	0.020226514
181	0x3b5508ff	0.0032506583
182	0x3c7907fb	0.015199657
183	0xbc23f7b7	-0.01000779
184	0x3a37536e	0.0006993328
185	0xbc0db88e	-0.008649958
186	0x3c03f262	0.008053394
187	0x3bc2ee1b	0.0059487945
188	0xbb00e4e3	-0.0019667677
189	0xbc187ee1	-0.009307594
190	0x3c99e98b	0.01878812
191	0xbc8e810c	-0.017395519
192	0xbb961f43	-0.0045813634
193	0xbb139c53	-0.0022523596
194	0xbbcc1f21	-0.006229297
195	0xbc0b13ca	-0.008488605
196	0xbbad7a18	-0.0052940957
197	0x3b8ca042	0.004291565
198	0xbb60f54f	-0.0034325903
199	0xbb1653c8	-0.002293812
200	0xbc1eea3c	-0.0096994005
201	0x3bd3e8f3	0.0064669787
202	0xbc44f7a8	-0.0120219365
203	0xbc212c35	-0.0098372
204	0xbbd7b99d	-0.006583406
205	0x3b831b8c	0.0040010866
206	0xbc268791	-0.0101641575
207	0x3bd41f0f	0.006473429
208	0x3b8b4470	0.0042501017
209	0x3b829dd3	0.0039860993
210	0xba73ccf3	-0.0009300254
211	0x3bc96e3c	0.006147174
212	0xbabb8f7f	-0.0014309733
213	0xbbddd638	-0.0067699216
214	0xbc3e692e	-0.0116217565
215	0x3b6b1558	0.0035870876
216	0x3befe783	0.0073212995
217	0xbc4d55ef	-0.012532695
218	0x3c2bb9e6	0.010481333
219	0x3c00ed65	0.007869099
220	0x38f4b15f	0.000116678646
221	0xbc002377	-0.0078209555
222	0xbad01e67	-0.0015878201
223	0x3be0c95d	0.006859942
224	0xbb4c4c95	-0.0031173576
225	0xbb9b61b1	-0.0047418703
226	0xb961f118	-0.00021547487
227	0xbaffdedb	-0.0019521372
228	0x3a8a65ea	0.0010558937
229	0xbc23d28f	-0.009998932
230	0xbc1b6c6f	-0.009486302
231	0xba6f2b57	-0.00091235846
232	0x37ba2513	2.2190192e-05
233	0x3b29e048	0.0025921036
234	0xbbdf2670	-0.006810002
235	0x3b6960d2	0.0035610688
236	0xbc426b5d	-0.011866418
237	0x3b01206d	0.0019703165
238	0x3a782bea	0.0009466993
239	0x3be0cfc0	0.006860703
240	0x3c03c8cc	0.008043479
241	0xbb6e05f5	-0.0036319469
242	0xbbfc59b2	-0.007701122
243	0x3baa3e11	0.005195387
244	0x3bd48457	0.0064855027
245	0xbb538128	-0.0032273028
246	0xbc0219ed	-0.0079407515
247	0x3c7060c8	0.014671512
248	0xbc22626a	-0.009911159
249	0x3bf680d0	0.00752268
250	0xbc438f9b	-0.011936094
251	0x3c1f754d	0.0097325565
252	0xbc5e6972	-0.013574945
253	0x3c0f6dd7	0.008754215
254	0xbc412d3b	-0.011790569
255	0x3afc001b	0.0019226106

network_body._body_endoder.seq_layers.0.bias f4 [128]
0	0x00000000	0.0
1	0x00000000	0.0
2	0x00000000	0.0
3	0x00000000	0.0
4	0x00000000	0.0
5	0x00000000	0.0
6	0x00000000	0.0
7	0x00000000	0.0
8	0x00000000	0.0
9	0x00000000	0.0
10	0x00000000	0.0
11	0x00000000	0.0
12	0x00000000	0.0
13	0x00000000	0.0
14	0x00000000	0.0
15	0x00000000	0.0
16	0x00000000	0.0
17	0x00000000	0.0
18	0x00000000	0.0
19	0x00000000	0.0
20	0x00000000	0.0
21	0x00000000	0.0
22	0x00000000	0.0
23	0x00000000	0.0
24	0x00000000	0.0
25	0x00000000	0.0
26	0x00000000	0.0
27	0x00000000	0.0
28	0x00000000	0.0
29	0x00000000	0.0
30	0x00000000	0.0
31	0x00000000	0.0
32	0x00000000	0.0
33	0x00000000	0.0
34	0x00000000	0.0
35	0x00000000	0.0
36	0x00000000	0.0
37	0x00000000	0.0
38	0x00000000	0.0
39	0x00000000	0.0
40	0x00000000	0.0
41	0x00000000	0.0
42	0x00000000	0.0
43	0x00000000	0.0
44	0x00000000	0.0
45	0x00000000	0.0
46	0x00000000	0.0
47	0x00000000	0.0
48	0x00000000	0.0
49	0x00000000	0.0
50	0x00000000	0.0
51	0x00000000	0.0
52	0x00000000	0.0
53	0x00000000	0.0
54	0x00000000	0.0
55	0x00000000	0.0
56	0x00000000	0.0
57	0x00000000	0.0
58	0x00000000	0.0
59	0x00000000	0.0
60	0x00000000	0.0
61	0x00000000	0.0
62	0x00000000	0.0
63	0x00000000	0.0
64	0x00000000	0.0
65	0x00000000	0.0
66	0x00000000	0.0
67	0x00000000	0.0
68	0x00000000	0.0
69	0x00000000	0.0
70	0x00000000	0.0
71	0x00000000	0.0
72	0x00000000	0.0
73	0x00000000	0.0
74	0x00000000	0.0
75	0x00000000	0.0
76	0x00000000	0.0
77	0x00000000	0.0
78	0x00000000	0.0
79	0x00000000	0.0
80	0x00000000	0.0
81	0x00000000	0.0
82	0x00000000	0.0
83	0x00000000	0.0
84	0x00000000	0.0
85	0x00000000	0.0
86	0x00000000	0.0
87	0x00000000	0.0
88	0x00000000	0.0
89	0x00000000	0.0
90	0x00000000	0.0
91	0x00000000	0.0
92	0x00000000	0.0
93	0x00000000	0.0
94	0x00000000	0.0
95	0x00000000	0.0
96	0x00000000	0.0
97	0x00000000	0.0
98	0x00000000	0.0
99	0x00000000	0.0
100	0x00000000	0.0
101	0x00000000	0.0
102	0x00000000	0.0
103	0x00000000	0.0
104	0x00000000	0.0
105	0x00000000	0.0
106	0x00000000	0.0
107	0x00000000	0.0
108	0x00000000	0.0
109	0x00000000	0.0
110	0x00000000	0.0
111	0x00000000	0.0
112	0x00000000	0.0
113	0x00000000	0.0
114	0x00000000	0.0
115	0x00000000	0.0
116	0x00000000	0.0
117	0x00000000	0.0
118	0x00000000	0.0
119	0x00000000	0.0
120	0x00000000	0.0
121	0x00000000	0.0
122	0x00000000	0.0
123	0x00000000	0.0
124	0x00000000	0.0
125	0x00000000	0.0
126	0x00000000	0.0
127	0x00000000	0.0

network_body._body_endoder.seq_layers.0.weight f4 [128, 4]
0	0xbe10358b	-0.14082925
1	0x3ef1c544	0.47220814
2	0xbfa97c40	-1.3241043
3	0xbef0b582	-0.4701348
4	0x3ece950c	0.4034809
5	0xbe592dc0	-0.21208858
6	0xbf00cc9f	-0.50312227
7	0x3e6111b2	0.21979406
8	0x3f742fe2	0.95385563
9	0x3e609066	0.21930084
10	0xbe3f9db2	-0.187125
11	0x3e002211	0.12512995
12	0x3f4b6804	0.7945559
13	0x3f0afe37	0.5429415
14	0x3d8df90e	0.06932269
15	0x3e41473a	0.18874827
16	0x3f315b42	0.69279873
17	0xbf2ae43f	-0.66754526
18	0x3efc8f2e	0.49327987
19	0x3e1c96cb	0.15291898
20	0x3f21f61d	0.63266164
21	0x3f0a923e	0.541294
22	0x3f692f7e	0.9108809
23	0x3f0f6974	0.56020284
24	0xbc204e48	-0.009784289
25	0x3c7e71ea	0.015530089
26	0x3edf5e89	0.43626812
27	0xbe25f9ef	-0.16208623
28	0xbf2ed262	-0.6828977
29	0xbe87e868	-0.265445
30	0xbed7e317	-0.42165443
31	0x3f87d561	1.0611993
32	0xbe55778d	-0.20846386
33	0x3c22fa79	0.009947413
34	0x3e8962b5	0.2683312
35	0xbdf919d2	-0.12163128
36	0xbec62bd9	-0.38705328
37	0xbf488687	-0.7833027
38	0xbf2f1a96	-0.6839994
39	0xbea4ea3c	-0.32209957
40	0x3ecdef39	0.40221575
41	0xbd22775f	-0.039664622
42	0xbe86c176	-0.26319474
43	0x3e6cc404	0.23121649
44	0x3d0556aa	0.032553352
45	0xbd8ff191	-0.07028497
46	0x3cede2d2	0.02903882
47	0xbe594e03	-0.21221165
48	0xbdd26f05	-0.102750815
49	0xbe45fe74	-0.19335347
50	0xbf2260e8	-0.6342912
51	0x3ec21376	0.37905473
52	0xbca7b1d4	-0.020470537
53	0xbe98b1f9	-0.29823282
54	0xbea07589	-0.31339672
55	0x3f2f2d5b	0.6842858
56	0xbe6d455b	-0.23170988
57	0xbfa63a25	-1.2986494
58	0x3eeccb22	0.46248728
59	0xbc491967	-0.012274123
60	0xbe837aa1	-0.25679496
61	0xbf613081	-0.87964636
62	0x3ea87693	0.32902965
63	0x3f686ac0	0.9078789
64	0x3f2b8e89	0.67014366
65	0xbe028942	-0.12747672
66	0x3f257e87	0.6464619
67	0x3f4623bc	0.77398276
68	0x3e3195ae	0.17342255
69	0x3dba4b6a	0.09096415
70	0x3f76165f	0.96127886
71	0x3df4ee38	0.11959499
72	0x3fb1237e	1.3838956
73	0xbe5c2390	-0.21497941
74	0xbdb2a249	-0.0872236
75	0xbd800b16	-0.062521145
76	0x3f49ec91	0.78876597
77	0xbedda6cc	-0.43291318
78	0xbe624798	-0.22097623
79	0xbe008eae	-0.12554428
80	0x3f00ab3d	0.5026129
81	0x3d762a73	0.060099076
82	0xbe5d78a5	-0.21628053
83	0xbf78215a	-0.9692589
84	0x3e0ef25e	0.13959643
85	0x3db1a7e8	0.08674604
86	0x3e989cb7	0.29807064
87	0xbe6e47a4	-0.23269516
88	0xbe29b532	-0.16573027
89	0xbeeaf32f	-0.4588866
90	0x3f8b6b2c	1.0892081
91	0xbd87c03a	-0.06628461
92	0x3f00078f	0.50011533
93	0xbf0aa9d8	-0.5416541
94	0x3f41d87a	0.7572094
95	0x3e091b90	0.1338942
96	0xbf0e323a	-0.5554539
97	0x3bc880d8	0.006118875
98	0xbe0d93ee	-0.13825962
99	0x3e2c55ed	0.16829653
100	0x3f18bfc8	0.59667635
101	0x3f3e2aaa	0.7428385
102	0xbe6b42a7	-0.22974645
103	0x3e26f9e4	0.16306263
104	0x3f2ee13b	0.68312424
105	0x3e9288d0	0.28620005
106	0xbdca78a3	-0.09886291
107	0xbf5f855f	-0.87312883
108	0xbe634e66	-0.22197875
109	0x3ee1de9d	0.44115153
110	0x3f15a8c8	0.58460665
111	0xbdbce47b	-0.09223267
112	0xbf0e42e3	-0.5557081
113	0xbe72e21b	-0.23719065
114	0x3eda12d0	0.42592478
115	0xbf477273	-0.7790901
116	0xbd97d404	-0.07413486
117	0x3dd33b49	0.10314042
118	0xbd833738	-0.064070165
119	0xbf833790	-1.0251331
120	0xbe7c1319	-0.2461666
121	0xbf57c713	-0.8428814
122	0x3ed66df9	0.41880777
123	0x3ed9c9c3	0.42536744
124	0xbc30943e	-0.010777531
125	0xbf1917e4	-0.5980208
126	0xbd23eb5e	-0.040019386
127	0x3d12f7a3	0.035880696
128	0xbd10814d	-0.03527956
129	0xbe4bddf5	-0.19908889
130	0x3d2b74ea	0.041859545
131	0x3e0be697	0.13662182
132	0xbe16a0a7	-0.14709722
133	0xbdfe287f	-0.12410068
134	0xbeb6653c	-0.3562411
135	0x3edab57b	0.42716584
136	0x3e36af47	0.178403
137	0x3f24eeef	0.64427084
138	0xbf2433c0	-0.64141464
139	0xbf1d6058	-0.61475134
140	0xbf5ebe9c	-0.87009597
141	0x3f308557	0.6895346
142	0xbeb18e97	-0.346791
143	0x3e05c98b	0.13065164
144	0x3f8f0b54	1.1175332
145	0xbebe4cbb	-0.37167916
146	0x3dacddb7	0.08440726
147	0x3e50eabe	0.20402047
148	0xbda82fc9	-0.08212239
149	0xbecf45cc	-0.40482938
150	0xbf07cc68	-0.53046274
151	0xbeec4433	-0.46145782
152	0x3ea6d4bb	0.32584175
153	0xbe08d8e9	-0.13363995
154	0xbe24085a	-0.16018811
155	0x3e561588	0.20906651
156	0xbe50c31b	-0.20386927
157	0xbda2e699	-0.07954139
158	0xbdd2169e	-0.1025822
159	0x3e0e1310	0.1387446
160	0x3f63734b	0.888478
161	0x3e268938	0.16263282
162	0x3e05375a	0.13009396
163	0x3e85ea1e	0.2615518
164	0x3edbaf78	0.4290731
165	0xbe2cc698	-0.16872633
166	0xbe8947c9	-0.2681258
167	0x3ebeb1bc	0.37244976
168	0xbeb2fd04	-0.3495866
169	0xbea9628d	-0.33083
170	0xbe0fc2ec	-0.140392
171	0xbe6644fb	-0.22487251
172	0xbec7fe8b	-0.39061388
173	0x3f0b18a1	0.54334456
174	0xbe13de47	-0.14440261
175	0xbe80d259	-0.25160483
176	0xbeb50d87	-0.35361883
177	0x3ece2c0a	0.40267974
178	0xbf2c18b0	-0.6722517
179	0xbf158be8	-0.58416605
180	0xbdc527f6	-0.096267626
181	0xbe9b8d6b	-0.3038133
182	0x3e217aea	0.15769544
183	0xbe412db1	-0.18865086
184	0xbf1a7f57	-0.60350555
185	0x3e2779c0	0.16355038
186	0x3e59cfd6	0.2127069
187	0x3f642d34	0.89131474
188	0xbf1b5876	-0.60681856
189	0x3f082a20	0.5318928
190	0xbe2e95ea	-0.17049375
191	0x3e38477e	0.17996022
192	0x3e092abf	0.13395213
193	0x3d10265d	0.035192836
194	0xbef362d9	-0.47536352
195	0x3f5db1ea	0.865996
196	0xbf071221	-0.5276204
197	0xbeb707ab	-0.35748038
198	0xbedf70b0	-0.4364066
199	0xbe7a1dd6	-0.24425444
200	0xbe955e94	-0.2917372
201	0x3db7ea72	0.08980264
202	0xbcb9116f	-0.02259132
203	0xbe72a1dd	-0.23694558
204	0xbf4854d8	-0.7825446
205	0xbe109349	-0.14118685
206	0x3ea67a4e	0.32515186
207	0x3f4eed0b	0.8083045
208	0xbde3a853	-0.1111609
209	0xbec196a8	-0.37810254
210	0x3e43fa08	0.19138348
211	0x3edb075a	0.42779046
212	0xbebc84f2	-0.3682018
213	0x3e4f2407	0.20228587
214	0x3f11ab33	0.56901854
215	0xbec6ec78	-0.38852286
216	0xbfde59fc	-1.7371211
217	0xbdb389a8	-0.0876649
218	0x3eb2c95c	0.3491925
219	0xbdb6cec2	-0.08926155
220	0x3ecc5add	0.39913073
221	0x3f3baf4c	0.73314357
222	0x3f7f4bed	0.9972523
223	0xbf1101cd	-0.5664337
224	0xbe8c8b1a	-0.27449876
225	0x3f270c1f	0.6525287
226	0xbe8a308d	-0.26990166
227	0x3d6005cc	0.05469303
228	0x3f17a966	0.59242857
229	0x3e460fcc	0.19341964
230	0xbee6bf63	-0.4506789
231	0x3f8664db	1.0499529
232	0xbf08c9b1	-0.53432757
233	0x3d4def2a	0.050276913
234	0x3e39dc7e	0.18150517
235	0x3f452286	0.77005804
236	0xbf7df31f	-0.991991
237	0x3ead8523	0.33890638
238	0xbdf05d42	-0.117365375
239	0xbf1978d4	-0.59949994
240	0xbdf47b27	-0.11937552
241	0x3eab5de3	0.33470067
242	0xbefc7e9b	-0.49315342
243	0xbeb14d5d	-0.34629336
244	0xbe972acf	-0.29524848
245	0xbfc587cd	-1.5432068
246	0xbbc7d937	-0.006098892
247	0xbd80a2e6	-0.062810704
248	0xbe1ab0dd	-0.1510653
249	0xbfc18946	-1.5120018
250	0xbf0341d5	-0.51272327
251	0x3efe4b18	0.49666667
252	0x3eceb034	0.40368807
253	0x3d471180	0.048600674
254	0xbf3d3cec	-0.73921084
255	0x3f490240	0.7851906

network_body._body_endoder.seq_layers.2.bias f4 [128]
0	0x00000000	0.0
1	0x00000000	0.0
2	0x00000000	0.0
3	0x00000000	0.0
4	0x00000000	0.0
5	0x00000000	0.0
6	0x00000000	0.0
7	0x00000000	0.0
8	0x00000000	0.0
9	0x00000000	0.0
10	0x00000000	0.0
11	0x00000000	0.0
12	0x00000000	0.0
13	0x00000000	0.0
14	0x00000000	0.0
15	0x00000000	0.0
16	0x00000000	0.0
17	0x00000000	0.0
18	0x00000000	0.0
19	0x00000000	0.0
20	0x00000000	0.0
21	0x00000000	0.0
22	0x00000000	0.0
23	0x00000000	0.0
24	0x00000000	0.0
25	0x00000000	0.0
26	0x00000000	0.0
27	0x00000000	0.0
28	0x00000000	0.0
29	0x00000000	0.0
30	0x00000000	0.0
31	0x00000000	0.0
32	0x00000000	0.0
33	0x00000000	0.0
34	0x00000000	0.0
35	0x00000000	0.0
36	0x00000000	0.0
37	0x00000000	0.0
38	0x00000000	0.0
39	0x00000000	0.0
40	0x00000000	0.0
41	0x00000000	0.0
42	0x00000000	0.0
43	0x00000000	0.0
44	0x00000000	0.0
45	0x00000000	0.0
46	0x00000000	0.0
47	0x00000000	0.0
48	0x00000000	0.0
49	0x00000000	0.0
50	0x00000000	0.0
51	0x00000000	0.0
52	0x00000000	0.0
53	0x00000000	0.0
54	0x00000000	0.0
55	0x00000000	0.0
56	0x00000000	0.0
57	0x00000000	0.0
58	0x00000000	0.0
59	0x00000000	0.0
60	0x00000000	0.0
61	0x00000000	0.0
62	0x00000000	0.0
63	0x00000000	0.0
64	0x00000000	0.0
65	0x00000000	0.0
66	0x00000000	0.0
67	0x00000000	0.0
68	0x00000000	0.0
69	0x00000000	0.0
70	0x00000000	0.0
71	0x00000000	0.0
72	0x00000000	0.0
73	0x00000000	0.0
74	0x00000000	0.0
75	0x00000000	0.0
76	0x00000000	0.0
77	0x00000000	0.0
78	0x00000000	0.0
79	0x00000000	0.0
80	0x00000000	0.0
81	0x00000000	0.0
82	0x00000000	0.0
83	0x00000000	0.0
84	0x00000000	0.0
85	0x00000000	0.0
86	0x00000000	0.0
87	0x00000000	0.0
88	0x00000000	0.0
89	0x00000000	0.0
90	0x00000000	0.0
91	0x00000000	0.0
92	0x00000000	0.0
93	0x00000000	0.0
94	0x00000000	0.0
95	0x00000000	0.0
96	0x00000000	0.0
97	0x00000000	0.0
98	0x00000000	0.0
99	0x00000000	0.0
100	0x00000000	0.0
101	0x00000000	0.0
102	0x00000000	0.0
103	0x00000000	0.0
104	0x00000000	0.0
105	0x00000000	0.0
106	0x00000000	0.0
107	0x00000000	0.0
108	0x00000000	0.0
109	0x00000000	0.0
110	0x00000000	0.0
111	0x00000000	0.0
112	0x00000000	0.0
113	0x00000000	0.0
114	0x00000000	0.0
115	0x00000000	0.0
116	0x00000000	0.0
117	0x00000000	0.0
118	0x00000000	0.0
119	0x00000000	0.0
120	0x00000000	0.0
121	0x00000000	0.0
122	0x00000000	0.0
123	0x00000000	0.0
124	0x00000000	0.0
125	0x00000000	0.0
126	0x00000000	0.0
127	0x00000000	0.0

network_body._body_endoder.seq_layers.2.weight f4 [128, 128]
0	0xbdd0841a	-0.101814464
1	0x3de0dd20	0.10979676
2	0xbdbb9a43	-0.091602825
3	0xbc91b241	-0.017785193
4	0xbd88fccc	-0.06688842
5	0xbb4b6b90	-0.0031039454
6	0xba9bf541	-0.0011898653
7	0xbdaffcfe	-0.08593176
8	0xbcf68e77	-0.03009723
9	0xbd6c8312	-0.057742186
10	0x3ddb7d14	0.10717216
11	0x3db85d91	0.090022214
12	0x3ddfba88	0.1092425
13	0x3c9e6d78	0.019339308
14	0x3d69fc0f	0.057125147
15	0xbd47cc82	-0.04877902
16	0x3e251df5	0.16124709
17	0x3d02cb84	0.03193237
18	0xbe132f55	-0.14373524
19	0x3e714f11	0.23565318
20	0x3d9851dc	0.074374884
21	0xbe3f6ec4	-0.18694597
22	0xbd72105e	-0.05909764
23	0xbe45d82d	-0.19320746
24	0xbda97b15	-0.08275429
25	0xbc1dd2f7	-0.0096328175
26	0xbcb0e9bb	-0.021595826
27	0xbe2160ff	-0.15759657
28	0xbba1db80	-0.0049394965
29	0x3ddc9683	0.10770895
30	0xbd9001e8	-0.070316136
31	0xbd815522	-0.06315066
32	0x3d1ed878	0.03878066
33	0xbd8f5711	-0.069990285
34	0xbe1ce7e5	-0.15322836
35	0xbe267d30	-0.16258693
36	0xbcec83ad	-0.028871382
37	0xbe380af6	-0.17972931
38	0xbdfef783	-0.12449553
39	0xbd9fb815	-0.07798783
40	0xbd663110	-0.056199133
41	0x3dc9a29e	0.0984547
42	0xbe10a0dc	-0.14123863
43	0xbcfd5753	-0.030925428
44	0xbe7cf7ca	-0.24703899
45	0x3d998b68	0.07497293
46	0x3c03b36b	0.008038382
47	0x3dd2c7c2	0.10292007
48	0xbda58b79	-0.08083243
49	0xbd03d868	-0.032188803
50	0xbd07f9b4	-0.03319712
51	0x3d5dfb8c	0.054194972
52	0xbc733415	-0.01484396
53	0x3c81fa57	0.015866442
54	0x3ce4db8f	0.027936725
55	0x3be2e702	0.006924511
56	0x3cb43a33	0.022000408
57	0xbbcf2a20	-0.0063221604
58	0xbcf3ce20	-0.029761374
59	0x3bcba420	0.0062146336
60	0x3d86c532	0.06580581
61	0xbd80f96d	-0.06297574
62	0xbd1560f5	-0.03646942
63	0x3cf7ccf6	0.0302491
64	0x3c26dd48	0.0101845935
65	0x3d6efac6	0.058344625
66	0xbddb4bf2	-0.10707845
67	0xba182dde	-0.00058051746
68	0x3d576130	0.05258292
69	0xbd409995	-0.047021467
70	0xbe479b34	-0.19492799
71	0x3e0e7551	0.1391194
72	0x3d8c3f39	0.06847996
73	0x3bcb7920	0.0062095076
74	0xbd94db54	-0.07268396
75	0xbd516ea3	-0.051130902
76	0x3deb3d2e	0.114862785
77	0x3d26d1bc	0.040727362
78	0xbdbcb1c7	-0.09213596
79	0xba945360	-0.0011316352
80	0xbc65dcc5	-0.014029686
81	0xbdf8f250	-0.121555924
82	0xbc47d85a	-0.012197578
83	0x3dc650d4	0.096833855
84	0xbe428ee6	-0.18999824
85	0x3c30a38e	0.010781182
86	0xbc70dd97	-0.014701269
87	0x3d7180f8	0.058960885
88	0xbd8dd687	-0.069256835
89	0x3db2e808	0.08735663
90	0xbd5cba47	-0.053888585
91	0x3c1bfa93	0.009520191
92	0x3d96fbcb	0.073722444
93	0xbdab8309	-0.08374602
94	0x3d811501	0.06302834
95	0xbc0157ad	-0.007894439
96	0xbcce4079	-0.025177227
97	0xbd690408	-0.05688861
98	0xbd6a13c1	-0.057147745
99	0x3c3436fe	0.010999439
100	0x3dd7538c	0.10513982
101	0xbdd871fb	-0.10568615
102	0x3c689b46	0.014197176
103	0xbb758614	-0.003746395
104	0xbdcdd41b	-0.100502215
105	0x3b27faa4	0.0025631571
106	0xbd41ac1e	-0.047283284
107	0x3d9e8d1b	0.077417575
108	0x3dcad485	0.09903816
109	0xbd4cae6b	-0.049971025
110	0x3cde3e02	0.027129177
111	0x3cc75acc	0.024335288
112	0x3dc7a29b	0.097478114
113	0xbd92e1f6	-0.07172005
114	0xbda5e634	-0.081005484
115	0xbcfdfb72	-0.031003688
116	0x3cd9f015	0.026603738
117	0xbd5b1747	-0.053488996
118	0x3c83539c	0.016031079
119	0xbe08cf3d	-0.13360305
120	0xbd499ba0	-0.04922068
121	0x3d1861f4	0.03720279
122	0x3be5e112	0.007015356
123	0x3ca11223	0.019661969
124	0x3d879c39	0.06621594
125	0xbcd6c95e	-0.026219066
126	0xbdca7d90	-0.098872304
127	0x3e13d196	0.1443542
128	0xbe36f406	-0.17866525
129	0x3d6eb0be	0.058274023
130	0x3d1a57c4	0.037681356
131	0x3de1d9ce	0.11027871
132	0xbdf626e4	-0.120191365
133	0xbd863139	-0.06552357
134	0xbccb1404	-0.024789818
135	0xbcb61e21	-0.022231163
136	0x3d11e72b	0.03562085
137	0xbba58bdd	-0.0050520734
138	0x3d780790	0.060554087
139	0x3cd3a437	0.02583514
140	0xbdf2984f	-0.11845457
141	0xbe1eed04	-0.15520102
142	0xbd40db8f	-0.047084387
143	0x3c9c9f93	0.01911906
144	0xbdb9f12b	-0.09079202
145	0x3bc0693d	0.0058719204
146	0xbcecaf2c	-0.028892122
147	0x3d15a3d3	0.036533188
148	0x3c51433b	0.012772377
149	0x3d5300c4	0.051514402
150	0x3db5cac5	0.08876566
151	0x3e482f26	0.19549236
152	0xbd1a1d44	-0.037625566
153	0x3df625bb	0.12018915
154	0x3d2e047a	0.042484738
155	0x3d03e660	0.032202125
156	0xbdbd2da9	-0.092372246
157	0xbce77f4c	-0.028258942
158	0xbdaa539d	-0.08316729
159	0xbd453512	-0.048146315
160	0x3dc9c466	0.09851913
161	0xbb3c8b56	-0.0028769574
162	0x3d88c0ee	0.066774234
163	0xbd8a742c	-0.06760439
164	0x3dc181e4	0.09448603
165	0xbd061385	-0.03273346
166	0x3e4ecff3	0.20196514
167	0xbc15d932	-0.009146022
168	0x3e3f0095	0.18652566
169	0x3de06be4	0.109580785
170	0xbd91c20c	-0.0711709
171	0xbe402178	-0.18762767
172	0xbc919234	-0.01776991
173	0x3d5b930e	0.05360704
174	0xbdca1a27	-0.098682694
175	0xbda1b2be	-0.078954205
176	0xbd6b472e	-0.05744093
177	0x3d8ad65b	0.06779166
178	0x3d5c3591	0.053762022
179	0xbd9c0d14	-0.07619682
180	0x3d1183b4	0.035525993
181	0x3e405759	0.1878332
182	0x3d193ca4	0.037411347
183	0xbe320915	-0.17386277
184	0x3deb04eb	0.114755474
185	0x3d86fdde	0.0659139
186	0x3e015630	0.12630534
187	0x3d146e04	0.03623773
188	0x3d92e000	0.07171631
189	0x3be396f6	0.006945486
190	0x3d062cd4	0.032757595
191	0x3e29515d	0.16534944
192	0xbd32b659	-0.04363093
193	0x3da72ce6	0.081628606
194	0x3df3fc26	0.11913328
195	0xbd02573c	-0.031821474
196	0x3d087518	0.033314794
197	0xbd68e82f	-0.056862053
198	0x3dfa49b3	0.12221088
199	0x3e3356ab	0.1751353
200	0xbda8d279	-0.082432695
201	0xbd0ec252	-0.034853287
202	0x3dd7bd25	0.10534123
203	0xbc553b0f	-0.013014569
204	0x3e1a49b1	0.15067174
205	0xbdf9a31f	-0.12189316
206	0x3db767c9	0.08955342
207	0x3dad22a0	0.0845387
208	0xbd1dc0ae	-0.03851383
209	0x3e2a121c	0.1660847
210	0xbc5ced87	-0.013484365
211	0xbde040e8	-0.1094988
212	0x3d056b6c	0.03257315
213	0x3e15c362	0.14625314
214	0xbd5061b0	-0.050874412
215	0x3c52ea20	0.012873203
216	0xbe011b6a	-0.12608114
217	0x3d9e77b6	0.07737677
218	0x3db56518	0.08857173
219	0xbd7539b9	-0.0598695
220	0x3aefd319	0.0018297165
221	0xbd3f1a8a	-0.04665617
222	0x3df82c11	0.1211778
223	0xbcaae50a	-0.020861167
224	0x3d57396f	0.052545007
225	0x3db157bb	0.086593114
226	0x3d25b9a9	0.040460262
227	0xbe248012	-0.1606448
228	0x3ccdd7e6	0.025127362
229	0x3ddf4271	0.109013446
230	0x3dfe6a86	0.124226615
231	0x396c1291	0.0002251363
232	0x3d161b74	0.036647275
233	0x3d7dab3e	0.061930887
234	0x3d8c2ae1	0.06844116
235	0x3e204a14	0.15653259
236	0xbd31c803	-0.043403637
237	0x3c2b020a	0.010437498
238	0xba6f1f84	-0.00091218227
239	0xbe1c6961	-0.15274574
240	0x3d225f49	0.039641652
241	0xbc58232a	-0.0131919775
242	0x3dc0bf4f	0.09411489
243	0x3e04e5ae	0.12978241
244	0x3db223e9	0.086982556
245	0x3ddb7c43	0.107170604
246	0x3e0cae8f	0.13738464
247	0xbc91bcce	-0.017790224
248	0xbb4d0412	-0.0031282944
249	0x3e4d6bbb	0.20060627
250	0xbe060b3b	-0.13090222
251	0xbc382805	-0.01124001
252	0x3e106990	0.14102769
253	0xbd82aa16	-0.063800976
254	0x3cee6be2	0.029104177
255	0xbd3038ee	-0.043023042
