results/newValues/MoveToGoal/MoveToGoal-499964.pt (torch, 426055 bytes, 33 tensors)

network_body._body_endoder.seq_layers.0.weight f4 [128, 1]
000000 b7 20 0c bf c0 c8 96 3d b2 ea da bf b4 1c 3e be
       -0.5473742 0.07362509 -1.7102873 -0.18565637
000010 30 1e ec be f5 b3 29 bf d2 9d 05 40 80 3f af be
       -0.4611678 -0.6629022 2.0877576 -0.34228134
000020 89 8d bb bf c1 ef 16 3f 53 07 72 be 0e 15 90 3d
       -1.4652568 0.58959585 -0.23635606 0.07035266
000030 c5 da fa 3f 0a 29 c5 bf ea f9 1b bd aa 42 10 be
       1.9598013 -1.5403149 -0.038080133 -0.1408793
000040 58 d4 0d c0 4f b3 86 3f 72 69 f6 3f d9 c6 17 3f
       -2.2160854 1.0523471 1.9250929 0.5928779
000050 24 e1 c1 bd b1 1a 01 3e 0a a4 75 3f e4 38 5e 3f
       -0.0946677 0.12607838 0.9595343 0.8680556
000060 be c6 51 3f 25 b6 7a bf 60 8a 4c bf 02 31 71 3f
       0.8194388 -0.9793418 -0.79898643 0.94215405
000070 41 48 a3 bf 75 43 63 3f a7 a2 cc 3e db 29 8b bf
       -1.2756425 0.88774806 0.39967844 -1.0872148
000080 e4 75 33 3f 0d a3 d0 be 03 f2 17 3f 48 b3 0d c0
       0.7010176 -0.40749398 0.59353656 -2.2140675
000090 a3 c5 49 be 04 c7 c4 3e 48 41 60 3d 85 d4 57 3f
       -0.19704299 0.38433087 0.054749757 0.84308654
0000a0 97 bc 66 3e e7 22 51 3d e9 02 1e 3e ba 05 ce 3e
       0.22532879 0.051058676 0.15430798 0.40238744
0000b0 31 18 5b be eb a0 8a be b9 31 1d bf ce e1 87 be
       -0.21395947 -0.27075896 -0.61403996 -0.26539463
0000c0 04 d2 c5 3f 5e 50 83 3e f9 ee b6 be 5c 51 88 3f
       1.5454717 0.25647253 -0.35729197 1.0649829
0000d0 d9 16 cc bf 83 ef 6f bd f4 71 8a bf e9 1b 33 bf
       -1.5944473 -0.058578026 -1.0816026 -0.6996446
0000e0 98 d5 ad 3e 13 5f e9 3f b6 13 31 bf d2 74 67 3f
       0.33952022 1.8232139 -0.691707 0.9041263
0000f0 f6 82 c7 3e 94 cb 2c bd 55 49 eb 3f 43 31 f0 be
       0.38967103 -0.042186335 1.8381754 -0.46912584
000100 a2 08 a8 3f 08 b0 1a bf 7b 37 59 be d9 bc 47 3f
       1.3127635 -0.6042485 -0.2121257 0.78022534
000110 cb e5 ee bf 52 ac ab be db 8f b3 3e b5 5c 62 be
       -1.8663877 -0.33529907 0.3507069 -0.22105677
000120 24 a2 7c bf 54 c4 ee bf e5 09 dc 3f db 83 e8 be
       -0.98684907 -1.8653665 1.719052 -0.45413098
000130 8e 95 00 c0 ab 8c fb 3f 51 67 bd 3e 83 43 98 3f
       -2.009128 1.9652303 0.36992887 1.1895603
000140 e7 e8 18 bf f7 1d ef bd 92 1a 60 3f 81 65 dc 3e
       -0.5973038 -0.11675637 0.87540543 0.4304619
000150 db 7c 90 3f 14 97 0a bf 4c c4 d3 3e 76 ee dd bf
       1.1288103 -0.54136777 0.413607 -1.7338398
000160 8d 1e db 3e 61 06 60 bd 99 08 2a bf d9 99 9e be
       0.42796746 -0.054693583 -0.6641937 -0.3097675
000170 a1 1f 82 3e dd 11 c6 3f 2d c2 b8 3f 3e f0 ca bf
       0.25414756 1.5474201 1.4434258 -1.5854566
000180 15 16 a0 3e 72 dd 01 3f 62 ce 41 40 5e b4 df be
       0.31266847 0.50728524 3.0282216 -0.43692297
000190 d3 5a 69 3f 5f 43 ac 3e 16 ac e3 be 45 7f 84 3e
       0.9115421 0.3364515 -0.4446723 0.2587835
0001a0 da 4a 20 c0 3f 34 ff 3e 40 6d 18 40 8c 53 09 be
       -2.5045686 0.49844548 2.381668 -0.13410777
0001b0 7d c0 a3 bf 3e a9 83 3f 23 f2 15 be 0d c4 7d bf
       -1.2793118 1.0286024 -0.14643149 -0.99127275
0001c0 c6 5c 54 3f e5 c2 65 bf 5c 55 8c be 8a 8c 26 3e
       0.8295406 -0.8975051 -0.27408874 0.16264549
0001d0 11 62 12 bf 4c fe d3 3e 76 19 5a 3e ed 40 b7 bf
       -0.5718089 0.4140495 0.21298775 -1.4316689
0001e0 e2 27 54 be e8 18 09 3f 1f 31 e1 3e d1 65 9c 3e
       -0.20718339 0.5355363 0.4398279 0.3054643
0001f0 ff 63 09 be f5 d8 13 c0 a0 25 e0 bd 09 47 82 3f
       -0.13417052 -2.310117 -0.109446764 1.0177928

network_body._body_endoder.seq_layers.0.bias f4 [128]
000000 d8 6a a3 3d b8 6c 8f 3d 3d 9e 8b bd 84 6a a5 3d
       0.07979363 0.07003158 -0.06817291 0.08076957
000010 cb f7 9e bd 36 1c a2 3d 04 ca 97 bd e1 2b a0 3d
       -0.077621065 0.07915537 -0.07411578 0.07820869
000020 15 eb 9c 3d 24 d9 9b 3d d7 74 94 3d 5e 40 a1 3d
       0.07662026 0.07609776 0.07248848 0.07873605
000030 b7 13 97 bd 13 b0 a0 bd 3e 6c 99 bd 27 5a 9e 3d
       -0.07376807 -0.078460835 -0.07491349 0.07732039
000040 7a 12 99 3d 3c 17 9c 3d 63 b1 9c 3d ad 89 a1 3d
       0.07474227 0.07621619 0.07651021 0.07887588
000050 fd c2 99 3d 50 e9 9f bd a3 93 9c 3d 1b 22 a0 bd
       0.07507894 -0.07808173 0.07645347 -0.07819005
000060 a5 c4 9c bd cb 26 96 3d b4 db 9e 3d 04 15 a0 bd
       -0.076546945 0.07331618 0.07756749 -0.078165084
000070 c4 b3 a1 3d b7 a4 9a 3d 25 3b 9e 3d 99 6d a0 bd
       0.07895616 0.07550948 0.07726125 -0.07833404
000080 d4 b4 8b bd b0 d9 9e 3d ee 56 93 bd f0 bc a3 3d
       -0.068215996 0.07756364 -0.07194315 0.07995021
000090 dc ac 97 3d e0 d9 99 3d 18 55 a1 bd 40 9e 9f 3d
       0.07406017 0.075122595 -0.078775585 0.07793856
0000a0 a6 83 9f 3d 4a 57 9c 3d 2d 91 a2 bd 0d 98 99 3d
       0.07788782 0.076338366 -0.07937846 0.074997045
0000b0 34 8c 9f bd 17 79 8a bd ab 78 a0 3d 94 7c 9e 3d
       -0.077904135 -0.06761377 0.078355156 0.07738605
0000c0 0e b0 9c 3d d7 1a a6 3d 4d 92 a0 3d 04 56 a0 bd
       0.07650767 0.08110588 0.07840405 -0.07828906
0000d0 be db a0 3d 90 d3 9d 3d 72 6e a0 bd 89 3d 9e bd
       0.078544125 0.07706368 -0.07833566 -0.07726581
0000e0 99 59 9e bd 0f d2 9c 3d 68 9b 8f bd 80 16 a0 3d
       -0.07731933 0.07657253 -0.07012063 0.078167915
0000f0 45 66 a1 bd e2 a0 a0 3d 16 3b a6 3d 7d 26 9d bd
       -0.078808345 0.07843186 0.081167385 -0.07673357
000100 99 b8 99 3d 97 35 a0 bd 60 ce a1 3d ac bc a0 bd
       0.07505912 -0.078227215 0.07900691 -0.07848486
000110 79 f7 a2 bd a8 2e 9f 3d bc 17 a2 bd 68 5e 9a bd
       -0.07957358 0.07772571 -0.07914683 -0.07537538
000120 7f 8d 9d 3d 66 a2 9b bd a1 e4 9d bd 8a 8d 9f bd
       0.07693004 -0.075993344 -0.07709623 -0.07790668
000130 c9 b7 8f bd b9 6c 9d bd 48 a6 9e 3d 9a fa 9c 3d
       -0.07017476 -0.07686753 0.077465594 0.07664986
000140 45 72 96 3d 8d 1f a0 3d 12 33 9a bd 8e 85 9c bd
       0.07346014 0.07818518 -0.07529272 -0.07642661
000150 0e cb a4 bd 6f a0 a3 3d bf c6 93 bd 7d 18 96 3d
       -0.08046542 0.07989585 -0.07215642 0.073288895
000160 20 5b 9b 3d ab b5 9f 3d ee f5 9e bd b7 30 9c bd
       0.0758574 0.07798322 -0.07761751 -0.07626479
000170 05 a2 a2 3d 9a 1c a1 3d 70 b2 a0 bd 43 ee 9f bd
       0.07941059 0.078667834 -0.07846534 -0.07809117
000180 06 ba 9d 3d 94 d6 9e bd f9 c2 a0 bd 28 1b a3 3d
       0.07701497 -0.07755771 -0.07849688 0.07964164
000190 43 45 a0 3d c6 34 a1 3d 5b dd a0 bd 1d 28 99 3d
       0.078257106 0.07871394 -0.0785472 0.07478354
0001a0 e2 29 9f 3d 80 aa 80 bd bb 33 94 bd 21 d0 a1 bd
       0.077716604 -0.0628252 -0.07236429 -0.079010256
0001b0 23 91 90 3d 19 62 90 3d ea c3 94 bd 22 9c a0 bd
       0.07058933 0.07049961 -0.0726393 -0.0784228
0001c0 bf 45 9d 3d a1 09 9c 3d f1 c6 95 bd 45 22 9d bd
       0.07679319 0.07619024 -0.07313336 -0.07672552
0001d0 24 20 a0 3d 4f c5 99 3d 85 dd 9c 3d 66 cd a1 bd
       0.0781863 0.07508337 0.07659439 -0.07900505
0001e0 3b 7d 96 bd 12 68 a5 3d 07 42 9e 3d d2 a6 99 bd
       -0.073481046 0.080764905 0.077274375 -0.075025216
0001f0 2f 58 a1 3d d8 30 a2 bd 7a ac 9e bd 9f 92 a2 3d
       0.07878148 -0.079194725 -0.07747741 0.07938122

network_body._body_endoder.seq_layers.2.weight f4 [128, 128]
000000 c7 b2 ed 3d d2 e9 9e 3c 7c 3e 8b 3d e0 1d b4 3c
       0.11606365 0.019398604 0.06799027 0.021986902
000010 56 d1 46 3e 1f 02 83 be 2b e8 35 3e db ad 2b be
       0.19415793 -0.25587556 0.17764346 -0.1676554
000020 42 19 a4 bd b2 9a 86 bd 15 ad 9e bd 6f 11 5e 3d
       -0.0801263 -0.065724745 -0.077478565 0.054215845
000030 df 5f 04 3e f0 4d 62 3e be d6 56 3d fb 1b 1c be
       0.12927197 0.22100043 0.052450888 -0.15245049
000040 95 49 a1 3d 82 9d 05 be 1d c8 18 be 45 05 d9 bb
       0.07875363 -0.13048366 -0.14920087 -0.0066229426
000050 5a 36 34 3d ab 68 d6 bb f3 a2 6d bd 47 6c 13 3c
       0.043997146 -0.006543239 -0.05801673 0.008997983
000060 8f 19 f6 3d ce 01 d0 bc 5e 68 b6 bd 92 60 56 3e
       0.12016594 -0.025391486 -0.08906625 0.20935276
000070 dc 5e 15 be cc e9 61 bd ec a5 02 be 98 11 8f 3e
       -0.14586967 -0.055154607 -0.12758607 0.2794311
000080 81 f2 22 bd 39 ed 8f bd 70 95 6f 3d 14 78 be bd
       -0.03978205 -0.070276685 0.058492124 -0.09300247
000090 37 4a 23 be a3 41 1c bd 7d d5 ad bc a5 e7 f0 3b
       -0.1594628 -0.038148534 -0.021219963 0.007351833
0000a0 04 cf 46 be 7f 83 0b be 03 b5 d8 3d 57 3c cd bd
       -0.19414908 -0.1362438 0.105814 -0.100212745
0000b0 45 cb 02 3d 78 f5 5e 3d a0 01 8b bd 75 e0 89 bd
       0.031932134 0.054433316 -0.06787419 -0.06732265
0000c0 e7 b8 bc bd ea d6 ae bd 24 7f f6 3c 23 8e 85 bd
       -0.09214955 -0.08537085 0.030089922 -0.06521251
0000d0 65 6d 2a be 69 d6 25 be a3 6a 9d 3c 1b cc f3 bd
       -0.16643293 -0.16195072 0.019215887 -0.119041644
0000e0 99 78 69 3d 88 7a 48 bd e8 76 12 3e 1f 9f cd bd
       0.056999777 -0.04894498 0.14303172 -0.100401156
0000f0 da cf bc bc 0b fc 09 be 94 24 8a bd a7 bf 90 3c
       -0.02304833 -0.13475053 -0.06745258 0.017669512
000100 70 02 10 be 89 84 46 3e 4c 3a e5 bd 36 58 94 bd
       -0.1406343 0.19386496 -0.1119276 -0.072433874
000110 fe fa 8c 3e 99 ff 13 be 0b 74 6b 3e b7 12 e4 3d
       0.27535242 -0.14452972 0.22993486 0.11136382
000120 8e ec 5e bd dc dd 2f 3d ad d5 d3 3b 4a 83 33 bb
       -0.054424815 0.04293619 0.006464681 -0.0027391487
000130 3b 06 0f 3e 8e 54 46 bd 92 c2 87 3d 03 9e ab be
       0.1396722 -0.04842048 0.06628908 -0.3351899
000140 87 76 18 be 03 ee b9 bd 36 a9 89 3d 51 3b 4b 3e
       -0.14888965 -0.090786 0.067217276 0.19846846
000150 66 04 c4 bd c3 bb 20 be 65 2a 57 3e 2b c7 d0 bd
       -0.095711514 -0.15696625 0.21012266 -0.10194238
000160 e0 bc cb bc 6e 30 f7 bd 62 b6 58 3e 01 f5 10 3e
       -0.024870336 -0.12069784 0.21163324 0.14155962
000170 cc 81 c5 3c 4f 37 5a bd ef ce b2 3c d9 bd 2f bd
       0.024109744 -0.053275403 0.02182719 -0.042905662
000180 e7 16 47 bd 0d 07 bb 3e 39 8a 0b 3e a8 7d a2 bc
       -0.048605826 0.36528817 0.13626947 -0.019835308
000190 9a 88 70 bd 10 33 36 bc e9 cb 7a 3e 14 15 a7 bd
       -0.058724023 -0.011120573 0.24491848 -0.08158317
0001a0 fe ad ee bd 4c 47 85 3e 22 8f b0 3c 87 66 24 3e
       -0.1165428 0.26030958 0.021552626 0.16054736
0001b0 75 24 88 bd 6a 40 b3 bd 54 7f d6 3d de b0 38 3e
       -0.066475786 -0.087525204 0.10473505 0.1803622
0001c0 51 0a a4 bd e2 80 d8 bd 4e ee 7e 3e 71 32 e9 3d
       -0.0800978 -0.105714574 0.24895594 0.11386574
0001d0 28 ae 55 3d 11 66 97 bd 3d d7 08 be 5a c0 3b 3e
       0.05216804 -0.073925145 -0.13363357 0.18335095
0001e0 0f fd c3 3d 5f d5 e5 bc 5a 43 13 bd 2a 36 83 3e
       0.095697515 -0.028055845 -0.035952903 0.2562726
0001f0 c8 92 07 be d4 40 eb 3d b2 27 92 bd cc 18 2c bc
       -0.13239586 0.11486974 -0.071364775 -0.010503959
000200 c8 b6 10 3e b0 ae 84 3d d4 19 2a be 60 89 8b 3d
       0.14132226 0.064786315 -0.16611415 0.068133116
000210 b7 99 7d 3d a2 e0 20 3d 4b 0f e2 bd a7 d6 37 3e
       0.061914172 0.039276727 -0.11038073 0.17952977
000220 dc a2 47 3e 62 9b a3 3d d2 73 50 3d 85 97 9a 3c
       0.1949572 0.07988621 0.050891705 0.018871078
000230 9f e4 a9 bd bb c0 6c be 84 81 81 bd 67 43 72 3d
       -0.08295559 -0.23120396 -0.06323531 0.05914631
000240 78 91 cb bb d0 52 8d bc 52 7c f8 3d 4a 60 26 3e
       -0.0062124096 -0.017251402 0.12133087 0.16247669
000250 0d 4c 7e 3e 5e b7 87 bd e7 56 24 3e 09 3a df bd
       0.24833699 -0.066267714 0.16048776 -0.10899741
000260 8f 40 2d 3b f5 99 31 3d 7a bf 18 3e 0b bc 20 3b
       0.0026436185 0.043359715 0.14916793 0.0024526145
000270 c9 ab 0a 3d e8 01 f0 bc e6 bd 18 3e e6 ab 8c be
       0.033855233 -0.029297784 0.1491619 -0.27474898
000280 8b d0 2e be 05 d3 37 3e 70 96 86 bd f5 4d e2 ba
       -0.1707174 0.17951591 -0.065716624 -0.0017265665
000290 dd 5e b6 bc 74 bd b0 3d e5 8a af bd 6b ff 17 3d
       -0.022262031 0.08629885 -0.08571414 0.03710882
0002a0 49 82 24 3e 01 11 23 3e c6 5b 92 bd b0 d6 e4 bb
       0.16065325 0.15924455 -0.07146411 -0.0069836006
0002b0 89 14 b2 bd 4a 69 08 be be a9 22 3e de 64 60 3e
       -0.08695323 -0.13321415 0.15885064 0.21913478
0002c0 a7 1a 76 3d bf 22 1d 3d fb 87 a4 3d 73 32 2d 3e
       0.06008401 0.038363215 0.08033749 0.16913776
0002d0 32 3c 56 3e 67 ab 57 3d 5e 41 24 be 0e 7f 0f be
       0.209214 0.052653696 -0.1604056 -0.14013311
0002e0 0e d7 11 be 72 08 96 3e 18 57 b3 3d 3f a8 21 3c
       -0.14242193 0.29303318 0.08756846 0.009866773
0002f0 c4 04 b2 bd c8 7a 67 3e 39 77 df 3d c7 96 30 be
       -0.08692315 0.22605431 0.10911412 -0.17245017
000300 c0 6b c5 3d 3d 71 00 be 93 6a 44 bc d0 04 46 bd
       0.09639692 -0.12543197 -0.0119883 -0.048344433
000310 32 ad dc 3b 67 81 86 bd 09 ca 05 bd b9 3e f2 bc
       0.0067345137 -0.0656765 -0.03266338 -0.029570924
000320 65 9e b4 3d b6 76 14 be 28 82 db bd 41 9d 88 3c
       0.08819274 -0.1449841 -0.10718185 0.016676547
000330 a6 ba 86 bd e5 5a 1d bc 4b 2e 3b 3e 29 56 80 bd
       -0.06578569 -0.0096041905 0.18279378 -0.06266434
000340 0f 7f c8 3c 2e 18 0a 3e ae 93 09 bd 2a f0 14 be
       0.024474649 0.13485786 -0.033588104 -0.1454474
000350 6b 05 8e bd 9d cd 20 3e 98 59 fa bd 8c f4 92 3e
       -0.06934627 0.15703435 -0.1222412 0.287022
000360 29 3c 9f 3d 68 37 94 bd 2a 48 1b 3d 26 93 21 bd
       0.077751465 -0.072371304 0.037910618 -0.039446972
000370 8f 4a 52 bd ed c4 60 3d 04 9a de bc 41 c7 f0 bd
       -0.051340636 0.054875303 -0.02717305 -0.11756755
000380 89 eb 95 3d 76 23 71 bd 3b 63 c4 bc e3 56 be bc
       0.073203154 -0.05887171 -0.023973098 -0.02323479
000390 4d 8a cb bc 21 5c 43 bd 77 9a 34 be 74 5a 27 3e
       -0.02484622 -0.047695283 -0.17637049 0.16343099
0003a0 a5 dc 13 3c 59 e6 16 3d ff 19 a8 bd 6f e2 e6 bd
       0.009024774 0.03684077 -0.08208083 -0.112736575
0003b0 b6 11 bc 3d ac 33 20 3d 00 16 47 be 45 26 09 bd
       0.091830656 0.03911178 -0.19441986 -0.033483762
0003c0 77 5e 6d bc ac 8f 59 3e fd b2 68 be c7 9c 0e be
       -0.014487854 0.21246213 -0.22724529 -0.13926993
0003d0 bc 4a 24 3e 26 10 12 3d 5d bc 6f 3b a4 04 cc 3c
       0.16044134 0.03565993 0.003658078 0.024904557
0003e0 ed 51 1d be d0 e9 3b 3d 85 ca 00 3d 35 9c a8 bd
       -0.15363283 0.045877278 0.031443138 -0.08232919
0003f0 85 9f b0 3d 54 7b 5d bd 2c dc e6 bd f0 55 51 3e
       0.08624176 -0.054072693 -0.11272463 0.20442939

network_body._body_endoder.seq_layers.2.bias f4 [128]
000000 d6 36 62 bd 35 60 76 3d aa 21 81 3d 87 be 81 bd
       -0.055228077 0.060150344 0.06305249 -0.06335168
000010 d4 68 7b 3d 11 a5 85 bd fe b5 8f 3d a1 a2 80 bd
       0.06137927 -0.065256245 0.07017134 -0.06281019
000020 39 67 68 bd 1a a0 85 3d 0e 74 77 bd 6b 82 71 bd
       -0.056739066 0.065246776 -0.060413413 -0.058962267
000030 3c e0 8e 3d 0a 40 84 bd fb 11 8a 3d 7a d7 80 bd
       0.06976363 -0.06457527 0.06741711 -0.06291099
000040 9f 33 76 bd 57 c9 75 bd 1c 22 8e 3d ad 5b 7c bd
       -0.060107823 -0.060006466 0.069400996 -0.061610866
000050 da e6 83 3d 0d be 93 3d c1 9d 84 3d ed 84 79 bd
       0.06440516 0.07213984 0.06475402 -0.060917784
000060 33 fd 5c 3d 3c c2 84 3d 11 6e 8b 3d 95 e7 6e bd
       0.053952407 0.0648236 0.06808103 -0.058326323
000070 cb 29 57 bd a9 b5 5f bd c5 0c 8b 3d bc 7e 92 3d
       -0.05253009 -0.054616604 0.06789545 0.07153079
000080 be 68 7a bd 28 10 7e 3d 28 21 7c bd 99 17 89 3d
       -0.061135046 0.062027127 -0.061555058 0.06693954
000090 52 cc 60 bd c9 90 87 bd 8b 2b 82 3d b1 49 86 3d
       -0.054882355 -0.066194125 0.063559614 0.06557024
0000a0 ac e3 8d 3d 92 84 82 bd d5 7f 7f 3d 56 9c 88 3d
       0.069281906 -0.06372942 0.06237777 0.06670444
0000b0 e9 55 66 bd 53 2c 7e bd 3f 2e 79 bd 17 fa 8d 3d
       -0.056234274 -0.06205399 -0.06083512 0.069324665
0000c0 b9 f1 81 bd ab 9e 73 bd 07 0a 6e 3d 50 79 82 3d
       -0.06344933 -0.05947749 0.05811503 0.06370795
0000d0 a7 0c 8a 3d df 79 80 3d 9a c0 89 bd 40 03 5a 3d
       0.067406945 0.06273245 -0.06726189 0.053225756
0000e0 43 f0 7d 3d 80 3c 80 bd bd 88 85 3d c5 92 8a 3d
       0.06199671 -0.062615395 0.065202214 0.06766275
0000f0 bf 39 8f 3d 71 13 5e bd c6 2b 6a bd 3a d2 89 3d
       0.06993436 -0.05421776 -0.05717065 0.06729551
000100 64 4c 83 bd 18 78 87 3d 97 8c 7e bd 65 a0 85 3d
       -0.06411055 0.06614703 -0.062145796 0.065247335
000110 7f 05 65 bd b1 4a 66 bd 55 c9 6a bd a8 83 6d 3d
       -0.055913445 -0.056223575 -0.05732091 0.057986885
000120 80 5e 79 3d 2e 11 87 3d b9 ac 92 3d d5 60 7f 3d
       0.060881138 0.06595074 0.071618505 0.062348206
000130 c0 df 6b bd c0 ee 87 3d b5 a3 74 bd c1 fd 89 3d
       -0.05758643 0.06637335 -0.059726436 0.06737853
000140 98 ea 83 bd 88 51 8a bd a2 e9 8b 3d 00 9e 70 bd
       -0.064412296 -0.06753832 0.06831671 -0.05874443
000150 32 c3 78 3d 37 32 91 3d 95 cb 84 3d f6 7b 81 bd
       0.060733028 0.07089656 0.06484143 -0.06322472
000160 71 3f 6f bd 74 47 83 3d b0 80 7c bd f5 9c 71 bd
       -0.05841011 0.06410113 -0.061646163 -0.058987577
000170 f6 be 8f 3d f6 35 7e bd d7 a4 8f 3d 5a ba 91 3d
       0.07018845 -0.06206318 0.070138626 0.07115622
000180 e7 c4 7e bd 1c a1 83 bd 58 14 6b bd c5 89 6e bd
       -0.0621995 -0.064272135 -0.05739245 -0.058236856
000190 8b 00 82 bd 49 ba 8d 3d dc e8 89 3d c2 09 80 bd
       -0.0634776 0.06920297 0.067338675 -0.06251861
0001a0 7e e1 59 bd 80 24 78 bd df 09 91 3d 24 73 8b 3d
       -0.05319356 -0.060581684 0.07081961 0.06809071
0001b0 f3 f6 82 bd 88 e0 7e bd be 1b 93 3d e7 f5 69 bd
       -0.06394758 -0.06222585 0.07183026 -0.057119276
0001c0 5a 57 75 bd 10 5a 80 3d 83 00 80 bd 6b 30 7f 3d
       -0.059897758 0.06267178 -0.062500976 0.062302034
0001d0 21 e7 91 3d 10 de 89 3d c1 86 80 3d ba 2f 85 bd
       0.071241625 0.06731808 0.06275702 -0.06503244
0001e0 c7 34 88 3d 92 40 5f bd da 36 8f 3d 09 95 86 bd
       0.066506915 -0.05450494 0.06992884 -0.06571395
0001f0 13 01 60 bd 48 98 50 bd d8 45 74 bd 66 63 4f 3d
       -0.054688524 -0.050926477 -0.05963692 0.050631903

action_model._discrete_distribution.branches.0.weight f4 [4, 128]
000000 5f a5 61 3d 99 b2 f9 bc 52 e4 52 bd 69 ea 0a 3d
       0.05508935 -0.03048067 -0.051487274 0.033914957
000010 f8 bd 26 bd b4 3a 17 3d 60 a3 25 bd 84 8a 27 3d
       -0.040708512 0.036921218 -0.04043901 0.040903583
000020 fb 9c 77 3d 30 aa 31 bd 4d cb f8 3c af 36 37 3d
       0.060452443 -0.043375194 0.030370379 0.044729885
000030 80 d8 1c bd 7f 72 1c 3d a8 73 d8 bc b9 46 1a 3d
       -0.038292408 0.03819513 -0.026422337 0.037665103
000040 e4 cc 0e 3d f5 3f 19 3d 17 cc 2a bd 2a 40 23 3d
       0.034863368 0.03741451 -0.04169854 0.039856113
000050 4a 96 4f bd 16 fb 21 bd 14 a0 24 bd 53 db 29 3d
       -0.050680436 -0.039546095 -0.040191725 0.04146893
000060 a6 56 3d bd 83 03 52 bd 97 09 21 bd 8f cf 3c 3d
       -0.046225213 -0.05127288 -0.039315786 0.04609638
000070 c8 73 5c 3d 76 19 2e 3d 04 50 37 bd 2e 14 47 bd
       0.053821355 0.04250475 -0.044754043 -0.04860323
000080 2a f4 33 3d 7e 7f d0 bc b9 6b 24 3d 0f ef 2e bd
       0.043934025 -0.025451418 0.040141795 -0.042708453
000090 8f d1 ce 3c db 99 28 3d 4c b1 1a bd 39 05 29 bd
       0.02524641 0.041162353 -0.03776674 -0.041264746
0000a0 53 f3 00 bd cb dd f5 3c 3e ea 6c bd c9 48 22 bd
       -0.031482052 0.030012986 -0.05784058 -0.039620195
0000b0 d7 88 46 3d 93 5c 38 3d 13 10 5f 3d 70 56 0d bd
       0.048470344 0.04501016 0.05445869 -0.03450626
0000c0 74 19 22 3d a1 ba 16 3d e0 70 2c bd 18 40 04 bd
       0.039575055 0.036799077 -0.042099833 -0.032287687
0000d0 99 bb 12 bd 46 71 42 bd b3 ec 24 3d 99 8c 69 bd
       -0.03582344 -0.047471307 0.040264796 -0.05701885
0000e0 1d a5 23 bd fc 7b 0f 3d ec 31 78 bd 90 0d 46 bd
       -0.039952386 0.03503035 -0.060594484 -0.048352778
0000f0 91 ff 30 bd 87 bb 56 3d e7 42 e1 3c 97 bf 2d bd
       -0.043212477 0.052424934 0.027497722 -0.042419042
000100 8d 51 0d 3d 8e ba 15 bd ec 1b 04 3d d8 7a 66 bd
       0.0345016 -0.036554866 0.03225319 -0.056269497
000110 7a 90 38 3d 15 e2 f0 3c c0 f1 31 3d b6 74 3a bd
       0.04505966 0.02940468 0.04344344 -0.04552146
000120 95 c5 74 bd a9 3b 5b bd 40 13 16 bd e2 cb 30 bd
       -0.05975874 -0.053523693 -0.036639452 -0.043163188
000130 31 b7 33 3d fc 89 2e bd 0a 1b 03 3d 3f 21 20 bd
       0.043875877 -0.04261206 0.03200821 -0.039094206
000140 d4 34 2f 3d 4e 45 31 3d 38 8f 27 bd 30 39 05 3d
       0.04277499 0.043278985 -0.04090807 0.03252524
000150 8e 79 59 bd f0 cb 29 bd 82 f1 38 bd 46 09 18 3d
       -0.05309444 -0.041454256 -0.045152195 0.03711822
000160 67 2e 0e 3d 40 7a d6 bc 38 79 2b 3d 53 5c dd 3c
       0.03471222 -0.02618134 0.04186365 0.027021563
000170 41 33 4b bd 36 16 2b 3d 5a fd 2e bd 3f c2 35 bd
       -0.049609426 0.04176923 -0.042722084 -0.0443747
000180 6e f0 2b 3d ab 0d 28 3d 96 a8 4f 3d ad 21 34 3d
       0.04197734 0.04102866 0.050697885 0.04397743
000190 a1 70 2c 3d ee 82 09 bd e9 85 47 bd ae 1a 03 3d
       0.0420996 -0.03357213 -0.04871169 0.032007866
0001a0 a6 9d 37 3d 7d fc 46 3d de fa 3b bd 96 70 05 bd
       0.04482808 0.048580635 -0.045893542 -0.032578073
0001b0 1b 1f 24 3d db 59 1a 3d ba ad 07 bd 5e b4 b1 3c
       0.040068727 0.03768335 -0.033124663 0.021692451
0001c0 89 c4 f5 3c 0e 4a 37 bd 32 d8 1a 3d 08 e0 43 bd
       0.030000942 -0.04474836 0.037803836 -0.047821075
0001d0 b7 ac 4b bd d5 5a 2d bd 08 ea 69 bd c5 eb 3b 3d
       -0.04972526 -0.042322952 -0.057107955 0.045879144
0001e0 0f 40 23 bd 43 fe db 3c 6d f6 3a bd dc 0a 20 3d
       -0.039856013 0.02685464 -0.045645166 0.039072856
0001f0 f1 7c 24 3d c5 87 84 3d 5a 78 43 3d c7 a7 14 bd
       0.040158216 0.064712085 0.047722198 -0.036292817
000200 31 1d 98 3d d1 a2 85 bd f1 52 89 bd 3e 9a 85 3d
       0.07427443 -0.065251954 -0.06705273 0.0652356
000210 13 a3 99 bd 91 4b 89 3d 53 0f a5 bd 8e 7f a1 3d
       -0.07501807 0.06703866 -0.080595635 0.07885657
000220 29 40 98 3d 97 0e 82 bd f9 19 81 3d 9f 0b 93 3d
       0.074341126 -0.06350439 0.06303782 0.07179951
000230 9c 9b 8e bd 3e 20 8a 3d 05 63 90 bd 83 c1 81 3d
       -0.06963274 0.06744431 -0.070501365 0.063357376
000240 bd 37 7b 3d fc 96 96 3d c3 75 8a bd 19 a5 b1 3d
       0.061332453 0.07353017 -0.067607425 0.08674068
000250 1a 83 98 bd 67 0b 8a bd d9 fd 9a bd e0 58 82 3d
       -0.07446881 -0.06740456 -0.07567949 0.06364608
000260 d0 8a 88 bd e3 ff 88 bd fd 74 9a bd bb a5 85 3d
       -0.066671014 -0.066894315 -0.07541845 0.06525751
000270 d9 fe a7 3d 99 80 78 3d 19 a3 94 bd 95 49 a3 bd
       0.08202905 0.060669515 -0.07257671 -0.07973019
000280 92 88 91 3d 34 e6 c6 bd 3f dd 94 3d 9b 3c 85 bd
       0.07106127 -0.097118765 0.07268762 -0.065057
000290 21 94 8f 3d 8a 55 8d 3d 3b cf ac bd b6 b0 93 bd
       0.07010675 0.06901081 -0.084379636 -0.07211439
0002a0 30 e2 9b bd 91 92 76 3d c1 a4 91 bd 00 0e 8e bd
       -0.07611501 0.06019837 -0.071115024 -0.06936264
0002b0 db 41 87 3d b9 40 96 3d 46 d2 a7 3d ef 1d 8b bd
       0.06604358 0.073365636 0.08194403 -0.06792819
0002c0 01 cc 9e 3d 98 1f 8e 3d 66 8a 77 bd d5 ba 98 bd
       0.077537544 0.0693962 -0.06043472 -0.074575104
0002d0 a4 5c 70 bd 8e 83 86 bd 41 98 96 3d 37 b1 85 bd
       -0.0586821 -0.06568061 0.07353259 -0.06527942
0002e0 28 2a 8c bd b5 75 86 3d eb 4b a1 bd 03 e6 9f bd
       -0.06843978 0.065654196 -0.07875808 -0.07807543
0002f0 0a 3e 96 bd 12 c0 8c 3d 81 25 9d 3d 72 e0 a4 bd
       -0.07336052 0.06872572 0.07673169 -0.08050622
000300 6b 1d 84 3d 73 c0 7f bd 6b 5d 70 3d ed 05 9d bd
       0.064509235 -0.062439393 0.05868284 -0.07667146
000310 36 2a 71 3d 0c ad a9 3d dd 29 a0 3d 03 fd 8f bd
       0.058878146 0.08284959 0.07820485 -0.0703068
000320 b0 4b 91 bd 07 06 93 bd 76 26 8d bd a6 85 6d bd
       -0.07094514 -0.07178884 -0.068921015 -0.057988785
000330 0b 73 95 3d 88 47 90 bd 5b 76 92 3d ff 78 a7 bd
       0.07297333 -0.070448935 0.07151481 -0.08177375
000340 f9 0c 98 3d cb 34 90 3d 9f df 88 bd 92 6b 97 3d
       0.07424349 0.070413195 -0.06683277 0.07393564
000350 28 17 7a bd 19 0f 9b bd 83 77 9c bd 04 86 90 3d
       -0.06105724 -0.07571239 -0.076399826 0.070568115
000360 6b 99 9a 3d 48 46 aa bd 6e 09 a4 3d af a9 a1 3d
       0.075487934 -0.08314186 0.08009611 0.07893693
000370 1b 52 9e bd cb 59 89 3d 79 b6 89 bd 95 99 93 bd
       -0.07730504 0.0670658 -0.06724257 -0.07207028
000380 43 4c 86 3d 13 29 a0 3d bb d5 86 3d e2 36 77 3d
       0.065575145 0.07820334 0.065837346 0.060355075
000390 2f 95 9f 3d ee ee 8f bd f8 de 96 bd 52 b2 97 3d
       0.077921264 -0.07027994 -0.07366747 0.07407059
0003a0 f2 54 63 3d 9a 3d 9e 3d f6 b5 98 bd 77 3f 92 bd
       0.055500932 0.07726593 -0.07456581 -0.07141011
0003b0 23 b5 97 3d 95 ed a0 3d 73 f5 81 bd 86 f6 a0 3d
       0.07407596 0.07857815 -0.06345644 0.078595206
0003c0 85 dc 93 3d b2 32 96 bd 60 17 81 3d 67 80 79 bd
       0.07219795 -0.07333888 0.063032866 -0.06091347
0003d0 03 ff a0 bd ed d9 a5 bd b9 a9 91 bd 91 cb 9f 3d
       -0.078611396 -0.08098207 -0.0711245 0.07802499
0003e0 8b fd 80 bd fe cb 74 3d 10 65 9c bd e7 bd 87 3d
       -0.062983595 0.059764855 -0.07636464 0.06628018
0003f0 c8 e2 92 3d fc 56 85 3d 1c 87 86 3d 86 e4 70 bd
       0.07172161 0.065107316 0.06568739 -0.058811687

action_model._discrete_distribution.branches.0.bias f4 [4]
000000 07 89 c6 bc 14 a5 28 bd e3 f6 29 3d 05 ee 55 3b
       -0.024235262 -0.041173056 0.041495215 0.0032643091

exp_avg f4 [128, 1]
000000 00 00 00 00 00 00 00 00 00 00 00 00 00 00 00 00
       0.0 0.0 0.0 0.0
000010 00 00 00 00 00 00 00 00 00 00 00 00 00 00 00 00
       0.0 0.0 0.0 0.0
000020 00 00 00 00 00 00 00 00 00 00 00 00 00 00 00 00
       0.0 0.0 0.0 0.0
000030 00 00 00 00 00 00 00 00 00 00 00 00 00 00 00 00
       0.0 0.0 0.0 0.0
000040 00 00 00 00 00 00 00 00 00 00 00 00 00 00 00 00
       0.0 0.0 0.0 0.0
000050 00 00 00 00 00 00 00 00 00 00 00 00 00 00 00 00
       0.0 0.0 0.0 0.0
000060 00 00 00 00 00 00 00 00 00 00 00 00 00 00 00 00
       0.0 0.0 0.0 0.0
000070 00 00 00 00 00 00 00 00 00 00 00 00 00 00 00 00
       0.0 0.0 0.0 0.0
000080 00 00 00 00 00 00 00 00 00 00 00 00 00 00 00 00
       0.0 0.0 0.0 0.0
000090 00 00 00 00 00 00 00 00 00 00 00 00 00 00 00 00
       0.0 0.0 0.0 0.0
0000a0 00 00 00 00 00 00 00 00 00 00 00 00 00 00 00 00
       0.0 0.0 0.0 0.0
0000b0 00 00 00 00 00 00 00 00 00 00 00 00 00 00 00 00
       0.0 0.0 0.0 0.0
0000c0 00 00 00 00 00 00 00 00 00 00 00 00 00 00 00 00
       0.0 0.0 0.0 0.0
0000d0 00 00 00 00 00 00 00 00 00 00 00 00 00 00 00 00
       0.0 0.0 0.0 0.0
0000e0 00 00 00 00 00 00 00 00 00 00 00 00 00 00 00 00
       0.0 0.0 0.0 0.0
0000f0 00 00 00 00 00 00 00 00 00 00 00 00 00 00 00 00
       0.0 0.0 0.0 0.0
000100 00 00 00 00 00 00 00 00 00 00 00 00 00 00 00 00
       0.0 0.0 0.0 0.0
000110 00 00 00 00 00 00 00 00 00 00 00 00 00 00 00 00
       0.0 0.0 0.0 0.0
000120 00 00 00 00 00 00 00 00 00 00 00 00 00 00 00 00
       0.0 0.0 0.0 0.0
000130 00 00 00 00 00 00 00 00 00 00 00 00 00 00 00 00
       0.0 0.0 0.0 0.0
000140 00 00 00 00 00 00 00 00 00 00 00 00 00 00 00 00
       0.0 0.0 0.0 0.0
000150 00 00 00 00 00 00 00 00 00 00 00 00 00 00 00 00
       0.0 0.0 0.0 0.0
000160 00 00 00 00 00 00 00 00 00 00 00 00 00 00 00 00
       0.0 0.0 0.0 0.0
000170 00 00 00 00 00 00 00 00 00 00 00 00 00 00 00 00
       0.0 0.0 0.0 0.0
000180 00 00 00 00 00 00 00 00 00 00 00 00 00 00 00 00
       0.0 0.0 0.0 0.0
000190 00 00 00 00 00 00 00 00 00 00 00 00 00 00 00 00
       0.0 0.0 0.0 0.0
0001a0 00 00 00 00 00 00 00 00 00 00 00 00 00 00 00 00
       0.0 0.0 0.0 0.0
0001b0 00 00 00 00 00 00 00 00 00 00 00 00 00 00 00 00
       0.0 0.0 0.0 0.0
0001c0 00 00 00 00 00 00 00 00 00 00 00 00 00 00 00 00
       0.0 0.0 0.0 0.0
0001d0 00 00 00 00 00 00 00 00 00 00 00 00 00 00 00 00
       0.0 0.0 0.0 0.0
0001e0 00 00 00 00 00 00 00 00 00 00 00 00 00 00 00 00
       0.0 0.0 0.0 0.0
0001f0 00 00 00 00 00 00 00 00 00 00 00 00 00 00 00 00
       0.0 0.0 0.0 0.0

exp_avg_sq f4 [128, 1]
000000 00 00 00 00 00 00 00 00 00 00 00 00 00 00 00 00
       0.0 0.0 0.0 0.0
000010 00 00 00 00 00 00 00 00 00 00 00 00 00 00 00 00
       0.0 0.0 0.0 0.0
000020 00 00 00 00 00 00 00 00 00 00 00 00 00 00 00 00
       0.0 0.0 0.0 0.0
000030 00 00 00 00 00 00 00 00 00 00 00 00 00 00 00 00
       0.0 0.0 0.0 0.0
000040 00 00 00 00 00 00 00 00 00 00 00 00 00 00 00 00
       0.0 0.0 0.0 0.0
000050 00 00 00 00 00 00 00 00 00 00 00 00 00 00 00 00
       0.0 0.0 0.0 0.0
000060 00 00 00 00 00 00 00 00 00 00 00 00 00 00 00 00
       0.0 0.0 0.0 0.0
000070 00 00 00 00 00 00 00 00 00 00 00 00 00 00 00 00
       0.0 0.0 0.0 0.0
000080 00 00 00 00 00 00 00 00 00 00 00 00 00 00 00 00
       0.0 0.0 0.0 0.0
000090 00 00 00 00 00 00 00 00 00 00 00 00 00 00 00 00
       0.0 0.0 0.0 0.0
0000a0 00 00 00 00 00 00 00 00 00 00 00 00 00 00 00 00
       0.0 0.0 0.0 0.0
0000b0 00 00 00 00 00 00 00 00 00 00 00 00 00 00 00 00
       0.0 0.0 0.0 0.0
0000c0 00 00 00 00 00 00 00 00 00 00 00 00 00 00 00 00
       0.0 0.0 0.0 0.0
0000d0 00 00 00 00 00 00 00 00 00 00 00 00 00 00 00 00
       0.0 0.0 0.0 0.0
0000e0 00 00 00 00 00 00 00 00 00 00 00 00 00 00 00 00
       0.0 0.0 0.0 0.0
0000f0 00 00 00 00 00 00 00 00 00 00 00 00 00 00 00 00
       0.0 0.0 0.0 0.0
000100 00 00 00 00 00 00 00 00 00 00 00 00 00 00 00 00
       0.0 0.0 0.0 0.0
000110 00 00 00 00 00 00 00 00 00 00 00 00 00 00 00 00
       0.0 0.0 0.0 0.0
000120 00 00 00 00 00 00 00 00 00 00 00 00 00 00 00 00
       0.0 0.0 0.0 0.0
000130 00 00 00 00 00 00 00 00 00 00 00 00 00 00 00 00
       0.0 0.0 0.0 0.0
000140 00 00 00 00 00 00 00 00 00 00 00 00 00 00 00 00
       0.0 0.0 0.0 0.0
000150 00 00 00 00 00 00 00 00 00 00 00 00 00 00 00 00
       0.0 0.0 0.0 0.0
000160 00 00 00 00 00 00 00 00 00 00 00 00 00 00 00 00
       0.0 0.0 0.0 0.0
000170 00 00 00 00 00 00 00 00 00 00 00 00 00 00 00 00
       0.0 0.0 0.0 0.0
000180 00 00 00 00 00 00 00 00 00 00 00 00 00 00 00 00
       0.0 0.0 0.0 0.0
000190 00 00 00 00 00 00 00 00 00 00 00 00 00 00 00 00
       0.0 0.0 0.0 0.0
0001a0 00 00 00 00 00 00 00 00 00 00 00 00 00 00 00 00
       0.0 0.0 0.0 0.0
0001b0 00 00 00 00 00 00 00 00 00 00 00 00 00 00 00 00
       0.0 0.0 0.0 0.0
0001c0 00 00 00 00 00 00 00 00 00 00 00 00 00 00 00 00
       0.0 0.0 0.0 0.0
0001d0 00 00 00 00 00 00 00 00 00 00 00 00 00 00 00 00
       0.0 0.0 0.0 0.0
0001e0 00 00 00 00 00 00 00 00 00 00 00 00 00 00 00 00
       0.0 0.0 0.0 0.0
0001f0 00 00 00 00 00 00 00 00 00 00 00 00 00 00 00 00
       0.0 0.0 0.0 0.0

exp_avg f4 [128]
000000 e2 fd 82 ba b6 5b 5c ba 49 99 5d 3a c2 01 75 ba
       -0.0009993876 -0.0008406 0.0008453322 -0.000934627
000010 d0 6c 54 3a b5 dc 74 ba b6 db 57 3a 64 c4 8a ba
       0.00081033725 -0.0009340749 0.00082343386 -0.0010587093
000020 55 17 6c ba f7 b2 7a ba e5 19 69 ba a6 c4 82 ba
       -0.0009006162 -0.0009563411 -0.0008892103 -0.0009976819
000030 90 de 54 3a 30 c7 63 3a dd e7 78 3a 73 0e 7c ba
       0.00081203226 0.0008689044 0.00094949995 -0.000961519
000040 02 8f 59 ba b9 f6 7b ba e7 f0 83 ba 24 91 70 ba
       -0.0008299203 -0.00096116547 -0.0010066301 -0.0009176901
000050 ba ee 5e ba c0 fd 5d 3a 14 08 74 ba 99 d3 71 3a
       -0.0008504201 0.00084682927 -0.0009309065 0.0009224951
000060 c9 2a 66 3a 5e a2 74 ba ca d8 94 ba b3 93 3a 3a
       0.0008780179 -0.0009332056 -0.0011356112 0.0007117346
000070 70 f0 7d ba a9 b9 81 ba f7 a4 72 ba 58 02 47 3a
       -0.0009687012 -0.000989725 -0.0009256149 0.0007591597
000080 26 90 36 3a de 8e 7b ba d6 ec 3b 3a 6c 57 81 ba
       0.0006964229 -0.0009596179 0.0007168775 -0.0009867973
000090 a2 f1 7d ba eb 73 8c ba 67 bc 54 3a 82 94 84 ba
       -0.000968719 -0.0010715699 0.00081152323 -0.001011506
0000a0 41 94 7c ba 99 03 92 ba 6a 3c 51 3a 86 9d 85 ba
       -0.00096351287 -0.0011139988 0.00079817197 -0.001019404
0000b0 41 c8 3b 3a 74 13 51 3a c5 b1 6a ba d4 fa 80 ba
       0.0007163324 0.0007975616 -0.00089528813 -0.0009840378
0000c0 1e 9c 75 ba 13 56 4f ba 66 f1 89 ba 19 51 65 3a
       -0.00093692716 -0.00079092494 -0.0010524213 0.0008747741
0000d0 be 01 78 ba 8d 24 72 ba 45 bb 54 3a 16 09 56 3a
       -0.0009460709 -0.0009237014 0.00081150635 0.0008164806
0000e0 b8 5f 45 3a 79 5d 7e ba d8 67 4e 3a da 1f 71 ba
       0.0007529217 -0.00097032596 0.00078737503 -0.00091981667
0000f0 3f de 46 3a e8 48 8f ba 76 bf 72 ba 64 58 76 3a
       0.0007586218 -0.0010931762 -0.0009260097 0.00093973265
000100 7f f1 7f ba 0f 3e 51 3a 22 9c 75 ba de 5f 6a 3a
       -0.0009763464 0.0007981965 -0.0009369274 0.0008940677
000110 76 1e 39 3a e0 29 55 ba 99 9c 58 3a df 1d 43 3a
       0.0007061729 -0.0008131545 0.0008263081 0.0007443111
000120 06 22 8e ba dd e9 5b 3a f6 99 70 3a 44 b4 59 3a
       -0.001084388 0.00083890354 0.00091782154 0.0008304755
000130 53 57 51 3a 2d 34 55 3a 1f 40 85 ba ed fc 7b ba
       0.00079857296 0.000813308 -0.0010166204 -0.0009612579
000140 c3 26 5a ba 07 70 82 ba 18 2d 69 3a d4 7a 84 3a
       -0.0008321816 -0.00099516 0.0008894964 0.0010107406
000150 84 3c 58 3a ab d9 81 ba 9a 0f 62 3a 73 2c 72 ba
       0.00082487636 -0.0009906789 0.00086235406 -0.0009238191
000160 54 41 87 ba a4 fb 73 ba 66 61 57 3a 75 10 4a 3a
       -0.0010319152 -0.0009307212 0.00082161126 0.0007708141
000170 b8 63 66 ba 81 4f 5b ba fb f6 5e 3a 7a bd 52 3a
       -0.0008788663 -0.0008366034 0.0008505431 0.00080390985
000180 5a c8 8b ba e7 55 55 3a 62 2f 6a 3a b1 1e 6c ba
       -0.0010664568 0.00081381056 0.0008933452 -0.0009007259
000190 fd 34 4d ba ff d9 6d ba eb 72 59 3a aa 75 78 ba
       -0.0007828025 -0.00090733165 0.0008295017 -0.00094779825
0001a0 f4 16 88 ba b4 82 31 3a b0 f6 44 3a 92 9d 61 3a
       -0.0010382817 0.00067714904 0.0007513566 0.00086065487
0001b0 83 b1 5a ba c1 0d 5f ba 59 8e 45 3a a9 e6 73 3a
       -0.00083424913 -0.00085088244 0.0007536165 0.00093040854
0001c0 5f c0 83 ba 2d 83 68 ba 7e b0 63 3a bd b4 54 3a
       -0.0010051838 -0.00088696444 0.0008685662 0.00081140903
0001d0 56 17 70 ba 5b b3 73 ba aa 59 82 ba fb c8 45 3a
       -0.0009158751 -0.00092964404 -0.0009944935 0.0007544902
0001e0 be 83 65 3a 51 91 8d ba 73 8c 78 ba 87 70 6d 3a
       0.0008755288 -0.0010800754 -0.0009481378 0.00090576004
0001f0 76 7b 8b ba 52 45 56 3a 2c b6 5d 3a 9d a9 87 ba
       -0.0010641653 0.00081737817 0.00084576267 -0.0010350231

exp_avg_sq f4 [128]
000000 a5 76 d5 36 40 05 96 36 a7 ff 97 36 73 7d ba 36
       6.3617067e-06 4.4709595e-06 4.5299125e-06 5.557836e-06
000010 cc 74 8f 36 e3 93 bf 36 1a 60 92 36 ef c2 f4 36
       4.275329e-06 5.70946e-06 4.3623268e-06 7.29446e-06
000020 71 29 af 36 2a c2 c5 36 10 3a a9 36 63 a2 d6 36
       5.220231e-06 5.893661e-06 5.043352e-06 6.3966013e-06
000030 4b 90 8c 36 28 50 a4 36 c5 6b c7 36 88 e0 c7 36
       4.189123e-06 4.8969123e-06 5.943208e-06 5.956801e-06
000040 b7 14 92 36 8e b8 c9 36 a4 08 da 36 13 fe b1 36
       4.3535506e-06 6.011752e-06 6.497912e-06 5.304589e-06
000050 80 72 9c 36 8c 7a 9b 36 9a a6 b8 36 14 a0 b9 36
       4.662492e-06 4.6336263e-06 5.5030223e-06 5.532065e-06
000060 e4 f5 a5 36 41 05 b8 36 c8 f5 0a 37 18 71 59 36
       4.9460086e-06 5.484239e-06 8.282666e-06 3.240135e-06
000070 9d cf c9 36 2d 85 d3 36 a7 54 b7 36 72 1d 7c 36
       6.014436e-06 6.3037937e-06 5.46368e-06 3.7568066e-06
000080 9d 04 51 36 3b e7 c5 36 5d 39 5f 36 e8 47 cd 36
       3.1146112e-06 5.8979763e-06 3.326298e-06 6.117847e-06
000090 8a 84 cb 36 c0 88 f8 36 d9 95 8f 36 6e c7 dc 36
       6.065301e-06 7.4068957e-06 4.2791767e-06 6.5797276e-06
0000a0 59 05 c6 36 c2 8a 07 37 bb 88 89 36 03 37 e0 36
       5.9014824e-06 8.078934e-06 4.0988357e-06 6.6821244e-06
0000b0 48 6d 5d 36 da 97 87 36 69 53 aa 36 14 8c ce 36
       3.2995176e-06 4.0409914e-06 5.076105e-06 6.1555857e-06
0000c0 ae f8 b9 36 fa 4f 86 36 8d 0d f1 36 e5 a2 a8 36
       5.5423798e-06 4.0028217e-06 7.183937e-06 5.0257536e-06
0000d0 18 36 bc 36 51 56 b9 36 b5 cf 8e 36 dc df 8f 36
       5.609134e-06 5.523478e-06 4.25611e-06 4.2877928e-06
0000e0 db 55 7a 36 97 5b c8 36 a1 53 86 36 b0 a0 b5 36
       3.7302877e-06 5.971127e-06 4.003247e-06 5.412927e-06
0000f0 41 e5 75 36 59 c3 01 37 ad 97 b6 36 1e 29 c4 36
       3.6641288e-06 7.734482e-06 5.44168e-06 5.846042e-06
000100 92 9d c9 36 c3 b9 8b 36 3b 90 bd 36 03 10 af 36
       6.0086104e-06 4.1641483e-06 5.6494296e-06 5.2172704e-06
000110 93 c8 59 36 3f af 8e 36 29 72 94 36 97 04 70 36
       3.245227e-06 4.252331e-06 4.4240337e-06 3.5765459e-06
000120 12 fb f9 36 0f 31 97 36 ca 8d b8 36 f4 97 93 36
       7.4500067e-06 4.505862e-06 5.5001337e-06 4.398631e-06
000130 a8 92 88 36 47 2d 90 36 13 66 df 36 1f ee ca 36
       4.070189e-06 4.2968054e-06 6.657801e-06 6.04779e-06
000140 e2 37 92 36 83 7e d2 36 8e 1d b0 36 53 d4 df 36
       4.3576447e-06 6.2732156e-06 5.2486494e-06 6.6706357e-06
000150 08 3d 94 36 ed 33 d0 36 48 6b a0 36 2d 9d b5 36
       4.4178487e-06 6.204928e-06 4.7808608e-06 5.412518e-06
000160 04 14 e3 36 19 8e ba 36 cf b3 91 36 3d a2 7f 36
       6.7674573e-06 5.5597743e-06 4.342269e-06 3.8092396e-06
000170 32 fb a4 36 0a 31 98 36 3b 9e 9c 36 fd 24 8a 36
       4.916824e-06 4.535662e-06 4.6675827e-06 4.1170265e-06
000180 06 1d f6 36 20 da 92 36 43 48 af 36 56 ac ac 36
       7.33475e-06 4.376532e-06 5.223819e-06 5.146062e-06
000190 87 49 82 36 52 30 b2 36 86 f8 96 36 7e 6c be 36
       3.8828616e-06 5.3104386e-06 4.4992803e-06 5.6750714e-06
0001a0 25 bd e7 36 a1 32 47 36 86 f8 74 36 f4 1c a2 36
       6.906356e-06 2.968278e-06 3.6503493e-06 4.831347e-06
0001b0 93 e2 91 36 fd 1a 99 36 54 46 75 36 3f 57 bf 36
       4.3477135e-06 4.562897e-06 3.6548781e-06 5.7024004e-06
0001c0 47 14 dc 36 15 1d a4 36 10 8d a7 36 af ed 8d 36
       6.5588715e-06 4.8909665e-06 4.9934097e-06 4.2297975e-06
0001d0 b3 94 b1 36 25 b8 b6 36 27 6f d5 36 72 b5 75 36
       5.292322e-06 5.44546e-06 6.3608345e-06 3.661346e-06
0001e0 cd 9b a5 36 07 03 fa 36 8d 8e bd 36 09 af b2 36
       4.935521e-06 7.450933e-06 5.649234e-06 5.32519e-06
0001f0 ce f1 f5 36 26 46 94 36 ab 27 9e 36 2a eb e6 36
       7.3297188e-06 4.41891e-06 4.713385e-06 6.881911e-06

exp_avg f4 [128, 128]
000000 5c a5 8d 36 04 7c 77 36 f6 ea 60 b6 0e 7d 8f 36
       4.221378e-06 3.6878055e-06 -3.3515366e-06 4.2762904e-06
000010 8b bc 7e b6 0a 80 8c 36 61 af 73 b6 38 ba 8a 36
       -3.7958696e-06 4.187231e-06 -3.6311906e-06 4.134399e-06
000020 17 cf 87 36 1a df 86 36 f5 44 80 36 46 bf 8b 36
       4.047422e-06 4.0194836e-06 3.822725e-06 4.16479e-06
000030 b6 a4 72 b6 e2 b8 80 b6 8b 30 76 b6 1a 24 89 36
       -3.6156684e-06 -3.8362205e-06 -3.6685112e-06 4.087121e-06
000040 8b 5e 84 36 47 14 87 36 b9 99 87 36 96 fa 8b 36
       3.944913e-06 4.025674e-06 4.041209e-06 4.171695e-06
000050 98 fe 84 36 1a 19 80 b6 03 7f 87 36 e3 4d 80 b6
       3.963545e-06 -3.8176195e-06 4.0380996e-06 -3.8237645e-06
000060 92 65 7b b6 a1 c3 81 36 af 94 89 36 52 44 80 b6
       -3.7461036e-06 3.867274e-06 4.100227e-06 -3.822651e-06
000070 1d 26 8c 36 1d d3 85 36 b6 06 89 36 4d 83 80 b6
       4.176762e-06 3.9882857e-06 4.0836994e-06 -3.8299827e-06
000080 c8 f8 60 b6 97 94 89 36 34 ce 6c b6 90 f5 8d 36
       -3.352341e-06 4.1002163e-06 -3.5286766e-06 4.2307147e-06
000090 60 1e 83 36 4c 18 85 36 00 3d 81 b6 84 46 8a 36
       3.9076403e-06 3.9665374e-06 -3.851601e-06 4.1209296e-06
0000a0 a1 32 8a 36 a9 49 87 36 3e 2d 82 b6 52 e1 84 36
       4.1186145e-06 4.0318887e-06 -3.879569e-06 3.9601373e-06
0000b0 7d b5 7f b6 14 0c 5f b6 3c 09 8b 36 95 43 89 36
       -3.81036e-06 -3.323662e-06 4.143598e-06 4.0907858e-06
0000c0 b9 99 87 36 c8 1c 90 36 a5 23 8b 36 30 69 80 b6
       4.041209e-06 4.294885e-06 4.1466724e-06 -3.8269427e-06
0000d0 6d 5a 8b 36 ba a4 88 36 59 83 80 b6 a3 b0 7d b6
       4.1530498e-06 4.0722925e-06 -3.829988e-06 -3.7802754e-06
0000e0 fc e3 7d b6 a1 ba 87 36 07 0f 67 b6 a4 b1 8a 36
       -3.7832642e-06 4.04504e-06 -3.443043e-06 4.1334006e-06
0000f0 28 3e 81 b6 fb 24 8b 36 3f 3e 90 36 b1 05 7c b6
       -3.8517355e-06 4.146828e-06 4.298781e-06 -3.755424e-06
000100 4e fd 84 36 3b 54 80 b6 f7 35 8c 36 46 b9 80 b6
       3.963395e-06 -3.824503e-06 4.1786075e-06 -3.836266e-06
000110 bd 7d 82 b6 ad e3 89 36 ff c3 81 b6 0f a6 77 b6
       -3.88894e-06 4.109423e-06 -3.8673165e-06 -3.6902527e-06
000120 24 6d 88 36 2e b9 79 b6 d1 11 7d b6 66 bb 7f b6
       4.0658215e-06 -3.721168e-06 -3.7710308e-06 -3.8107041e-06
000130 2d 2e 67 b6 70 70 7c b6 6f 5f 89 36 18 e9 87 36
       -3.444856e-06 -3.7616373e-06 4.094028e-06 4.050449e-06
000140 2d 0e 82 36 32 b9 8a 36 bc 6f 77 b6 f4 fb 7a b6
       3.875952e-06 4.13428e-06 -3.6870906e-06 -3.739956e-06
000150 49 d9 83 b6 be da 8d 36 bd 7a 6d b6 26 be 81 36
       -3.9293996e-06 4.2275924e-06 -3.5387195e-06 3.866636e-06
000160 aa 73 86 36 7e 4f 8a 36 94 bc 7e b6 2b 8f 7a b6
       4.0069763e-06 4.1219746e-06 -3.7958716e-06 -3.7336238e-06
000170 49 fc 8c 36 e9 95 8b 36 9d b8 80 b6 2f 19 80 b6
       4.201695e-06 4.1599747e-06 -3.836189e-06 -3.817629e-06
000180 e1 89 88 36 34 87 7e b6 20 cc 80 b6 1f 6a 8d 36
       4.069167e-06 -3.7927648e-06 -3.8384605e-06 4.2144816e-06
000190 e5 d4 8a 36 5d aa 8b 36 d7 d3 80 b6 fb 78 84 36
       4.1375047e-06 4.1623557e-06 -3.8393587e-06 3.9479905e-06
0001a0 73 df 89 36 4b d2 4f b6 9e 38 6e b6 a8 8e 81 b6
       4.108931e-06 -3.096781e-06 -3.549772e-06 -3.861107e-06
0001b0 88 85 79 36 38 44 79 36 de 17 6f b6 df a0 80 b6
       3.7181617e-06 3.71436e-06 -3.5627668e-06 -3.833425e-06
0001c0 21 1f 88 36 cd 12 87 36 a0 8f 70 b6 95 04 7c b6
       4.0567397e-06 4.025502e-06 -3.5846388e-06 -3.7553593e-06
0001d0 f7 b9 8a 36 b7 fe 84 36 8d ce 87 36 41 8e 81 b6
       4.1343696e-06 3.9635593e-06 4.047359e-06 -3.86106e-06
0001e0 e6 bd 71 b6 fa 7b 8f 36 ba 0e 89 36 89 9a 76 b6
       -3.6022334e-06 4.276165e-06 4.0846326e-06 -3.6746808e-06
0001f0 45 cb 8b 36 2c de 81 b6 e1 50 7e b6 d0 ea 8c 36
       4.1661865e-06 -3.870364e-06 -3.7896027e-06 4.199661e-06
000200 39 61 47 b7 21 2d 2e b7 9c 4b 1e 37 46 f9 49 b7
       -1.1883961e-05 -1.0381716e-05 9.435138e-06 -1.2038572e-05
000210 44 48 33 37 62 c4 45 b7 2d 81 2b 37 8d 45 43 b7
       1.0686057e-05 -1.1787839e-05 1.022247e-05 -1.1639099e-05
000220 e8 29 3f b7 20 d8 3d b7 c2 8c 34 b7 a1 b4 44 b7
       -1.1394244e-05 -1.1315598e-05 -1.0761609e-05 -1.1724566e-05
000230 8d c5 2a 37 43 30 35 37 5b 44 2d 37 84 09 41 b7
       1.01787855e-05 1.07996775e-05 1.0327519e-05 -1.1505912e-05
000240 6f 52 3a b7 ea 22 3e b7 c9 de 3e b7 8c 08 45 b7
       -1.1105657e-05 -1.1333012e-05 -1.1376754e-05 -1.1744105e-05
000250 bb 33 3b b7 3f 4f 34 37 2f b9 3e b7 a6 99 34 37
       -1.1158113e-05 1.0747287e-05 -1.1367999e-05 1.076461e-05
000260 9f ee 30 37 c0 a7 36 b7 61 a8 41 b7 c5 8b 34 37
       1.0545976e-05 -1.0887103e-05 -1.15429e-05 1.0761379e-05
000270 4e 45 45 b7 d3 5e 3c b7 9f e0 40 b7 cf e4 34 37
       -1.1758251e-05 -1.1227751e-05 -1.14963905e-05 1.078211e-05
000280 04 55 1e 37 35 a8 41 b7 ac a9 26 37 26 d2 47 b7
       9.437328e-06 -1.154286e-05 9.933876e-06 -1.1910253e-05
000290 c7 8f 38 b7 f9 57 3b b7 0a ea 35 37 62 a2 42 b7
       -1.100073e-05 -1.1166551e-05 1.0842932e-05 -1.1601109e-05
0002a0 52 86 42 b7 17 6e 3e b7 66 3c 37 37 f5 0a 3b b7
       -1.1594575e-05 -1.1350515e-05 1.0921713e-05 -1.114862e-05
0002b0 a8 f7 33 37 d2 fa 1c 37 d3 b4 43 b7 10 36 41 b7
       1.0726893e-05 9.356723e-06 -1.1665007e-05 -1.1516284e-05
0002c0 c9 de 3e b7 b0 d9 4a b7 ef d9 43 b7 f6 bf 34 37
       -1.1376754e-05 -1.2090823e-05 -1.1673647e-05 1.077353e-05
0002d0 09 27 44 b7 a7 56 40 b7 df e4 34 37 d2 8b 32 37
       -1.1691599e-05 -1.1464267e-05 1.0782124e-05 1.0642181e-05
0002e0 c5 af 32 37 7c 0c 3f b7 cd 9d 22 37 93 39 43 b7
       1.0650551e-05 -1.1387394e-05 9.692693e-06 -1.1636311e-05
0002f0 d2 eb 35 37 d0 db 43 b7 b6 08 4b b7 59 5f 31 37
       1.0843347e-05 -1.1674085e-05 -1.2101771e-05 1.0572222e-05
000300 eb 31 3b b7 00 a3 34 37 76 5b 45 b7 ae 30 35 37
       -1.1157691e-05 1.0766787e-05 -1.176341e-05 1.0799775e-05
000310 6b ad 37 37 6b 17 42 b7 25 a8 36 37 3d 4b 2e 37
       1.0948027e-05 -1.15687535e-05 1.0887195e-05 1.0388726e-05
000320 73 08 40 b7 16 c1 2f 37 ed 1b 32 37 52 fb 33 37
       -1.1446059e-05 1.0475769e-05 1.0616129e-05 1.07277465e-05
000330 1e b4 22 37 77 aa 31 37 61 5d 41 b7 45 4e 3f b7
       9.697889e-06 1.0589712e-05 -1.1525438e-05 -1.1402711e-05
000340 02 10 37 b7 29 44 43 b7 17 25 2e 37 32 a4 30 37
       -1.0911377e-05 -1.16387755e-05 1.0379844e-05 1.0528647e-05
000350 da 96 39 37 57 ac 47 b7 93 23 27 37 60 9f 36 b7
       1.1061982e-05 -1.190145e-05 9.962258e-06 -1.0885153e-05
000360 aa 40 3d b7 54 af 42 b7 47 48 33 37 7c 57 30 37
       -1.1280334e-05 -1.1604123e-05 1.068606e-05 1.05107865e-05
000370 ed 72 46 b7 2c 7a 44 b7 d8 2f 35 37 5c 4f 34 37
       -1.1828478e-05 -1.1710956e-05 1.079958e-05 1.0747313e-05
000380 d3 30 40 b7 b9 22 33 37 a7 4a 35 37 74 0d 47 b7
       -1.145546e-05 1.0677316e-05 1.0805822e-05 -1.1864457e-05
000390 14 6b 43 b7 94 97 44 b7 17 56 35 37 a3 77 3a b7
       -1.1647837e-05 -1.1717802e-05 1.0808485e-05 -1.1114319e-05
0003a0 fd 10 42 b7 63 43 12 37 58 a8 27 37 0b 5d 36 37
       -1.15672565e-05 8.717968e-06 9.993171e-06 1.0869709e-05
0003b0 c1 9c 2f b7 6a 6e 2f b7 d4 45 28 37 86 0f 35 37
       -1.046731e-05 -1.0456521e-05 1.0029838e-05 1.0792055e-05
0003c0 94 9a 3f b7 ba 20 3e b7 40 4e 29 37 46 5e 31 37
       -1.1420478e-05 -1.1332502e-05 1.0091404e-05 1.0571972e-05
0003d0 28 45 43 b7 e3 33 3b b7 f1 28 3f b7 8d 5c 36 37
       -1.1639007e-05 -1.1158149e-05 -1.139402e-05 1.0869594e-05
0003e0 2a 23 2a 37 32 f7 49 b7 96 eb 40 b7 18 8f 2d 37
       1.0140977e-05 -1.2038088e-05 -1.1498943e-05 1.034492e-05
0003f0 4a c5 44 b7 11 cd 36 37 90 fc 32 37 a7 5a 46 b7
       -1.1728445e-05 1.0895791e-05 1.0668431e-05 -1.1822826e-05
