results/newValues/MoveToGoal/MoveToGoal-499987.pt (torch, 426055 bytes, 33 tensors)

network_body._body_endoder.seq_layers.0.weight f4 [128, 1]
-0.24470504 0.56209266 -0.48932877 0.5099345 0.27158868 0.2465756 2.196924 1.4651324
-0.6973167 -0.55626047 0.24343485 -1.8293502 -2.056235 -0.19082345 -1.3481756 -0.7983755
-1.4994684 -0.19348891 -0.012241927 1.5077335 -0.62339705 0.046796605 0.038977124 1.3663422
-1.4043564 -1.3647989 -2.309902 1.074434 -0.8933234 -1.7162249 0.20115265 -0.8180889
1.0919751 -0.30561233 1.0613642 0.43002236 0.5326516 -0.34267274 -0.17770715 0.8272946
-0.6450814 -0.7236139 -0.8720402 -0.6617474 -1.5710325 1.7010932 1.8752159 0.5777789
0.062743485 -1.4869723 -0.6681485 1.0374305 1.3151824 -0.55125934 -1.2139388 -0.066403806
-0.7213202 0.94055676 1.831596 0.88723063 1.6674968 -1.092154 -0.16934144 0.9168602
0.87304175 -0.28982177 1.4404881 -0.60283 -1.0942221 0.4657847 0.6953321 0.14685407
-0.2367729 1.7112077 -0.7830691 0.80307436 2.0642335 -0.3227223 0.33592746 0.186617
2.267683 -0.10470308 -0.22492146 -0.24090031 0.18414545 1.3225341 -0.38246524 -0.61926097
1.7067012 0.14215517 -0.09072498 2.2152524 -1.6951373 0.98275685 0.024602158 -0.025464695
-0.80269754 -0.16389333 0.38212663 -0.4109438 1.3666848 -1.0606519 0.069054 -0.20408
-1.6013649 -0.980209 0.45403418 -0.34209055 -1.291579 -0.5072388 0.433008 -1.660519
-1.154791 1.5543782 -0.71608275 0.21298641 -1.8257301 0.24465191 1.8044288 0.07365923
0.15564947 0.6523063 -0.2838097 -0.6527594 -1.9885806 -1.4974016 0.75840634 -1.6467324
00000000: f593 7abe 4ee5 0f3f 4d89 fabe 118b 023f
00000010: ac0d 8b3e 507e 7c3e 679a 0c40 7589 bb3f
00000020: 5983 32bf 1667 0ebf fc46 793e 2628 eabf
00000030: 5b99 03c0 3967 43be 0591 acbf 5662 4cbf
00000040: 95ee bfbf f521 46be 5d92 48bc 69fd c03f
00000050: f396 1fbf ccad 3f3d 7aa6 1f3d 4de4 ae3f
00000060: f3c1 b3bf bbb1 aebf 6fd5 13c0 0e87 893f
00000070: d8b0 64bf 42ad dbbf f6fa 4d3e 466e 51bf
00000080: d7c5 8b3f 3879 9cbe c8da 873f e42b dc3e
00000090: db5b 083f cd72 afbe ddf8 35be 94c9 533f
000000a0: 0e24 25bf c33e 39bf 073e 5fbf 4768 29bf
000000b0: 9817 c9bf 6cbd d93f 1307 f03f 51e9 133f
000000c0: a87f 803d 1c55 bebf c80b 2bbf 86ca 843f
000000d0: e657 a83f 551f 0dbf 5962 9bbf b8fe 87bd
000000e0: 71a8 38bf 54c8 703f bd71 ea3f 8c21 633f
000000f0: 8970 d53f b4cb 8bbf d867 2dbe 5ab7 6a3f
00000100: aa7f 5f3f 8563 94be ea61 b83f 1153 1abf
00000110: 780f 8cbf 557b ee3e 4901 323f ea60 163e
00000120: 9874 72be db08 db3f 3777 48bf 4896 4d3f
00000130: 671c 0440 db3b a5be affe ab3e 8718 3f3e
00000140: b821 1140 926e d6bd d051 66be 92ae 76be
00000150: a090 3c3e cc48 a93f 7cd2 c3be e387 1ebf
00000160: 2f75 da3f 2091 113e 05ce b9bd b2c6 0d40
00000170: 42fa d8bf f495 7b3f 778a c93c 569b d0bc
00000180: 967d 4dbf a7d3 27be 1aa6 c33e 3a67 d2be
00000190: 87ef ae3f 71c3 87bf 2f6c 8d3d 59fa 50be
000001a0: 86f9 ccbf faee 7abf 2b77 e83e 7e26 afbe
000001b0: 7652 a5bf 67da 01bf 39b3 dd3e e38b d4bf
000001c0: 31d0 93bf ddf5 c63f 3351 37bf 1c19 5a3e
000001d0: 86b1 e9bf 0886 7a3e 86f7 e63f a6da 963d
000001e0: 9362 1f3e 8cfd 263f 814f 91be 3d1b 27bf
000001f0: cf89 febf dbaa bfbf eb26 423f 21c8 d2bf

network_body._body_endoder.seq_layers.0.bias f4 [128]
-0.059553184 -0.078906246 0.068365976 -0.07617152 0.07551288 -0.07592197 0.07327411 0.07284271
-0.07383611 0.07810196 0.06987607 -0.068899855 0.0776486 -0.07577973 0.074180044 -0.077140264
0.07724563 -0.07656081 0.07400437 -0.07552876 0.07807931 -0.075786404 -0.07640668 0.07538942
-0.07631301 -0.07018664 0.0772307 -0.077472925 0.07627182 -0.072947316 0.07794538 -0.07632917
-0.069383465 0.07618309 0.07256392 0.0750752 -0.07496482 -0.07522564 0.077635944 0.074851826
-0.06725595 -0.059965063 0.07487525 0.077854864 -0.06833657 0.069417804 0.07556004 0.07588471
0.07630814 -0.06616146 0.07488264 -0.074415654 -0.07835808 -0.07409187 0.07677233 0.07291512
-0.07529506 0.07646791 -0.07205241 -0.075385556 0.06724601 -0.07892393 -0.06725079 0.07422906
-0.07536319 -0.06262989 -0.0745399 -0.07541247 -0.06930821 -0.070163004 -0.07571978 -0.072028816
0.0763242 -0.06501061 -0.0717609 -0.07928973 -0.07923356 -0.07884173 -0.075582735 -0.073842004
0.076046236 -0.072901376 0.07427259 -0.07605037 0.07743231 0.06998878 0.07519098 0.07397935
-0.073578104 -0.07498754 0.07851297 0.078687094 -0.075258076 -0.07489603 -0.07891416 -0.071637
-0.07584004 0.0728284 -0.065996006 0.07337933 0.06977988 0.07302259 -0.07527151 -0.07798885
0.07524907 -0.06328885 0.07774594 0.07604165 -0.069486745 0.07778466 -0.07275199 -0.07448009
0.074948736 -0.07522933 -0.07550406 0.07335271 0.07656631 -0.06363987 0.071956165 -0.073162265
0.07842585 -0.07534 -0.07595193 0.07125571 -0.07867648 0.07750518 0.075499944 -0.07423861
00000000: 0aee 73bd 9999 a1bd 7603 8c3d d0ff 9bbd
00000010: 7fa6 9a3d fa7c 9bbd bd10 963d 8f2e 953d
00000020: 6337 97bd ecf3 9f3d 2f1b 8f3d 5e1b 8dbd
00000030: 3b06 9f3d 6732 9bbd b5eb 973d b7fb 9dbd
00000040: f532 9e3d eacb 9cbd 9a8f 973d d3ae 9abd
00000050: 0ce8 9f3d e735 9bbd 1b7b 9cbd c565 9a3d
00000060: ff49 9cbd 03be 8fbd 212b 9e3d 20aa 9ebd
00000070: 6634 9c3d 6765 95bd d4a1 9f3d 7852 9cbd
00000080: eb18 8ebd e105 9c3d 649c 943d 07c1 993d
00000090: 2887 99bd e60f 9abd 98ff 9e3d ea4b 993d
000000a0: 7dbd 89bd ed9d 75bd 3258 993d 5f72 9f3d
000000b0: 0bf4 8bbd ec2a 8e3d 39bf 9a3d 7169 9b3d
000000c0: 7147 9c3d a97f 87bd 125c 993d 3c67 98bd
000000d0: 337a a0bd 7abd 97bd d03a 9d3d 8654 953d
000000e0: 4c34 9abd 359b 9c3d 3790 93bd be63 9abd
000000f0: 47b8 893d dfa2 a1bd c8ba 89bd 6805 983d
00000100: 0458 9abd 1a44 80bd 60a8 98bd da71 9abd
00000110: 76f1 8dbd 9fb1 8fbd f912 9bbd d883 93bd
00000120: dd4f 9c3d 4824 85bd 61f7 92bd a762 a2bd
00000130: 3445 a2bd c677 a1bd 1fcb 9abd 7a3a 97bd
00000140: 21be 9b3d 514d 95bd 3a1c 983d 4cc0 9bbd
00000150: d594 9e3d 4756 8f3d bbfd 993d 7c82 973d
00000160: 1eb0 96bd 1193 99bd 68cb a03d b326 a13d
00000170: e820 9abd 1763 99bd bf9d a1bd 6bb6 92bd
00000180: 0652 9bbd 0e27 953d ea28 87bd e747 963d
00000190: c1e8 8e3d de8c 953d f327 9abd 9eb8 9fbd
000001a0: 2f1c 9a3d 969d 81bd 4339 9f3d b9bb 9b3d
000001b0: 114f 8ebd 904d 9f3d fffe 94bd 0489 98bd
000001c0: b97e 993d d611 9abd dfa1 9abd f239 963d
000001d0: ccce 9c3d 9f55 82bd c15d 933d 19d6 95bd
000001e0: bb9d a03d dc4b 9abd af8c 9bbd 84ee 913d
000001f0: 2221 a1bd 09bb 9e3d b79f 9a3d 6a0a 98bd

network_body._body_endoder.seq_layers.2.weight f4 [128, 128]
0.113378294 -0.031121692 -0.099406034 0.1529261 0.019111995 0.17254207 0.084941976 -0.1973333
0.20637009 -0.0888855 -0.1419191 0.087014705 -0.07462014 0.16438887 0.094348006 0.061053526
-0.08887505 0.01738063 -0.13128251 0.19450542 -0.13529818 0.07721982 0.10513901 0.0017367364
-0.05866247 0.11084077 -0.040084977 0.058237042 -0.17380075 0.041360036 -0.050217044 0.20867948
-0.003923619 -0.19243765 -0.066701725 -0.013430439 0.078755334 0.027974885 0.075418234 -0.0370536
-0.062048122 -0.14155504 -0.026406016 -0.07779905 0.09515352 -9.4285424e-05 -0.012850299 0.068605155
-0.094101116 0.04551299 -0.13581994 0.030607829 0.04423211 0.037410777 -0.10381385 -0.073793404
0.12155696 -0.07197829 0.12936333 0.18153737 -0.06008129 0.113453604 0.018266898 -0.12456428
0.13643673 0.22979927 0.028998777 0.055835284 0.08890001 -0.05286273 0.20367512 -0.0068144226
-0.07140745 0.08521148 0.15429707 0.09461019 0.19780894 0.1948397 -0.033999454 0.10193976
-0.06201446 0.10966629 -0.030517962 0.15007558 -0.12257847 -0.16117264 -0.17221825 0.016605305
0.0754438 0.21530074 0.07018269 -0.06767689 0.12024036 0.022978922 0.035099898 0.15015976
0.0053277705 -0.085098565 -0.031593483 -0.06473882 -0.0048025316 0.024231529 0.14203934 0.2161691
-0.14318918 0.053263027 -0.09926986 -0.18802413 0.26833206 -0.048291527 0.2649579 0.16068177
0.08771878 -0.013229616 0.0868158 -0.072336756 -0.37083822 0.093596846 -0.009095341 0.0046411003
-0.14117894 0.01473826 0.13841249 -0.03334272 0.028783925 -0.15876146 0.011168857 0.01850113
-0.14999095 -0.17599915 0.15464833 -0.15010066 0.12471837 0.022723306 -0.045430917 0.056376584
-0.073168054 0.05070049 0.26349634 -0.14744921 0.18029484 0.01033505 0.20281897 0.010059842
0.027132746 -0.08422427 0.04336489 -0.3057687 0.056983348 -0.17058784 -0.11362251 0.14106348
-0.15170544 -0.16329744 0.15307252 -0.036445633 0.20765606 -0.063143045 -0.010265509 -0.08233049
-0.08614199 0.17304805 0.16675498 0.087365925 -0.006478708 -0.03389497 0.095855184 0.19927761
-0.17189068 -0.10554028 0.11582191 0.13851887 -0.07437328 0.07509586 0.11400411 -0.0011447163
0.2004088 -0.013026375 0.12666777 -0.16432457 -0.037938043 0.029900594 0.05405681 -0.003364063
-0.20373577 -0.049589697 0.013187123 -0.16749206 0.030914353 -0.12113127 0.041516803 0.020585842
-0.09546211 -0.09934357 -0.019739492 -0.13767226 -0.16077042 -0.35167137 -0.03274184 0.04886247
0.20947832 -0.080402315 -0.1169749 -0.046302713 0.074622296 -0.08823807 -0.11716433 -0.17926681
-0.013404422 -0.12773131 0.04709744 -0.0076575996 0.103439264 0.0437602 0.08010267 0.024839167
-0.1054977 -0.066269964 0.08426759 0.08831132 -0.058345426 -0.18778479 -0.13154233 -0.0689784
-0.046938308 0.14128324 0.005132557 0.17282277 0.13645697 0.07660155 -0.18005309 -0.057434015
0.009752726 -0.18565287 -0.10081291 -0.0474488 -0.01749764 -0.08343815 -0.0331767 -0.11567881
0.2328167 -0.048945375 -0.0819594 0.01613602 0.14066148 -0.068012916 0.19631946 -0.030699031
0.15901448 -0.020360205 0.04705764 -0.0378916 -0.19109225 0.04421728 0.021080533 -0.24018492
00000000: e132 e83d ebf2 febc 6495 cbbd a998 1c3e
00000010: c290 9c3c deae 303e 0ff6 ad3d be11 4abe
00000020: ae52 533e 9a09 b6bd 3e53 11be c434 b23d
00000030: 72d2 98bd 8e55 283e 8739 c13d 4313 7a3d
00000040: 1f04 b6bd d361 8e3c ec6e 06be 6e2c 473e
00000050: 9b8b 0abe 6d25 9e3d 1f53 d73d 34a3 e33a
00000060: 0f48 70bd 7c00 e33d 2530 24bd f789 6e3d
00000070: d3f8 31be 2469 293d 63b0 4dbd 13b0 553e
00000080: b491 80bb 600e 45be ea9a 88bd 580b 5cbc
00000090: 7a4a a13d 962b e53c e074 9a3d 84c5 17bd
000000a0: 2c26 7ebd cef3 10be 6e51 d8bc 1c55 9fbd
000000b0: d9df c23d 1abb c5b8 0f8a 52bc dc80 8c3d
000000c0: 16b8 c0bd d46b 3a3d 6214 0bbe 45bd fa3c
000000d0: bb2c 353d 0b3c 193d 5b9c d4bd ff20 97bd
000000e0: dbf2 f83d 5b69 93bd d277 043e efe4 393e
000000f0: cc17 76bd 5d5a e83d 76a4 953c 8f1b ffbd
00000100: 12b6 0b3e 8050 6b3e d88e ed3c 8ab3 643d
00000110: 3511 b63d 9786 58bd 3690 503e 854b dfbb
00000120: 123e 92bd 5b83 ae3d 0d00 1e3e fdc2 c13d
00000130: 6d8e 4a3e 0f84 473e 0343 0bbd cbc5 d03d
00000140: e002 7ebd b898 e03d ce00 fabc 6aad 193e
00000150: 6c0a fbbd 710a 25be fb59 30be d907 883c
00000160: 4782 9a3d cc77 5c3e f1bb 8f3d 2e9a 8abd
00000170: 9440 f63d 4b3e bc3c e9c4 0f3d 7bc3 193e
00000180: 9494 ae3b 2848 aebd 2b68 01bd c995 84bd
00000190: 8e5e 9dbb 3381 c63c c372 113e 6f5b 5d3e
000001a0: 2fa0 12be 552a 5a3d ff4d cbbd 6689 40be
000001b0: d262 893e 56cd 45bd 90a8 873e c389 243e
000001c0: e7a5 b33d 08c1 58bc 7bcc b13d 4b25 94bd
000001d0: 82de bdbe b4af bf3d a004 15bc 5f14 983b
000001e0: 3691 10be be78 713c 01bc 0d3e 6092 08bd
000001f0: 44cc eb3c 5d92 22be 95fd 363c af8f 973c
00000200: 3a97 19be 1f39 34be 225c 1e3e fdb3 19be
00000210: 586c ff3d 3a26 ba3c c515 3abd 22eb 663d
00000220: 22d9 95bd 51ab 4f3d fee8 863e edfc 16be
00000230: 369f 383e 5754 293c c7af 4f3e 09d2 243c
00000240: 7e45 de3c c67d acbd 629f 313d b78d 9cbe
00000250: 5f67 693d 94ae 2ebe ebb2 e8bd f272 103e
00000260: ac58 1bbe 7237 27be 0bbf 1c3e 0448 15bd
00000270: caa3 543e 2451 81bd aa30 28bc e39c a8bd
00000280: 366b b0bd 8233 313e d1c1 2a3e e8ec b23d
00000290: 574b d4bb 74d5 0abd b94f c43d 6e0f 4c3e
000002a0: 1c04 30be 8125 d8bd 0a34 ed3d e4d7 0d3e
000002b0: 0551 98bd dccb 993d fd7a e93d 4e0a 96ba
000002c0: f737 4d3e 946c 55bc 32b5 013e b344 28be
000002d0: ec64 1bbd 17f2 f43c ac6a 5d3d 9d77 5cbb
000002e0: 1ca0 50be 911e 4bbd ce0e 583c 0a83 2bbe
000002f0: 1940 fd3c ac13 f8bd 860d 2a3d a4a3 a83c
00000300: a481 c3bd a474 cbbd b7b4 a1bc f5f9 0cbe
00000310: 00a1 24be 450e b4be 4f1c 06bd 0324 483d
00000320: 7c81 563e f8a9 a4bd 8990 efbd eaa7 3dbd
00000330: 93d3 983d 29b6 b4bd daf3 efbd b891 37be
00000340: 399e 5bbc ffcb 02be 3fe9 403d 9aec fabb
00000350: f7d7 d33d e53d 333d de0c a43d 827b cb3c
00000360: 2e0f d8bd 8cb8 87bd 7c94 ac3d 91dc b43d
00000370: 9dfb 6ebd a84a 40be 08b3 06be 8c44 8dbd
00000380: 6242 40bd 8eac 103e 022f a83b 74f8 303e
00000390: 60bb 0b3e 46e1 9c3d d65f 38be ee3f 6bbd
000003a0: e6c9 1f3c c91b 3ebe 0077 cebd ac59 42bd
000003b0: 3657 8fbc 9fe1 aabd 4be4 07bd 03e9 ecbd
000003c0: 8067 6e3e f27a 48bd 54da a7bd b02f 843c
000003d0: 9009 103e 5b4a 8bbd f807 493e 897c fbbc
000003e0: b1d4 223e 72ca a6bc 83bf 403d 3934 1bbd
000003f0: b0ad 43be 2e1d 353d 15b1 ac3c 09f3 75be

network_body._body_endoder.seq_layers.2.bias f4 [128]
-0.05793912 0.063894294 0.06218694 -0.050075866 -0.057658654 -0.061769452 -0.06397531 0.06775763
0.053866133 -0.06287529 0.06708022 0.06847524 -0.05496246 0.0650999 -0.06199221 -0.063680425
-0.04712731 -0.059001483 0.06704172 0.068084486 -0.058559734 0.06872924 0.069552645 -0.055381544
0.06795917 0.06724057 0.063978314 0.041186597 -0.062341526 0.06264458 0.059320252 0.06325238
-0.059102055 0.05511135 0.064389236 0.070710376 -0.05999216 0.06534188 -0.061903723 0.063340835
-0.057410605 -0.061839983 -0.0656812 0.0650469 -0.058292195 -0.06297398 0.064588286 0.054978196
-0.04892886 0.06767805 -0.06324686 -0.0640322 0.05139765 -0.060784496 -0.051824484 -0.04528108
-0.06213105 0.060251962 -0.05660465 0.061056655 0.06781694 0.057470363 -0.062642194 0.06956604
0.06070086 0.06693836 -0.05466628 0.071370475 0.0630053 -0.05719963 0.059072975 0.07082325
0.07086959 -0.058419798 0.069728196 0.06760036 -0.06164887 0.06306041 -0.047869857 -0.062389217
-0.060110755 -0.060114108 0.058922492 0.06641425 -0.06090918 -0.06125918 -0.06305412 0.06278518
-0.06575168 0.06870208 0.05081094 -0.05553945 0.067800246 0.06531609 -0.05896679 -0.06120055
0.053184453 -0.057506062 -0.05695442 -0.061181534 0.06588866 -0.05091047 -0.058415975 0.05828304
-0.055803318 -0.055734817 0.055062737 -0.05597519 0.06719739 0.064235374 0.051749922 -0.05854385
0.06397874 -0.062072255 -0.058755234 -0.06129717 -0.060154196 -0.059162095 0.06704618 0.06790839
0.06545939 0.05893685 0.06634891 -0.0586556 -0.062052786 0.05608809 0.07195296 -0.061885636
00000000: 9251 6dbd 03db 823d bcb7 7e3d 5a1c 4dbd
00000010: 7b2b 6cbd f701 7dbd 7d05 83bd 83c4 8a3d
00000020: bca2 5c3d c3c4 80bd 5b61 893d bf3c 8c3d
00000030: 5120 61bd 1953 853d 8beb 7dbd e26a 82bd
00000040: 9108 41bd 8aab 71bd 2b4d 893d e16f 8b3d
00000050: 55dc 6fbd eac1 8c3d 9e71 8e3d c2d7 62bd
00000060: 2d2e 8b3d 6db5 893d 1007 833d 47b3 283d
00000070: d459 7fbd cd4b 803d cbf9 723d 778a 813d
00000080: ff14 72bd 70bc 613d 81de 833d 9ad0 903d
00000090: 57ba 75bd f7d1 853d c28e 7dbd d7b8 813d
000000a0: 6227 6bbd ec4b 7dbd dd83 86bd 4f37 853d
000000b0: ccc3 6ebd 81f8 80bd dd46 843d d130 613d
000000c0: a169 48bd ca9a 8a3d 9287 81bd 5023 83bd
000000d0: 5886 523d 2af9 78bd e945 54bd a778 39bd
000000e0: 217d 7ebd c3ca 763d 47da 67bd 8b16 7a3d
000000f0: 9ce3 8a3d 0b66 6b3d 8d4a 80bd a478 8e3d
00000100: 77a1 783d fb16 893d c0e9 5fbd af2a 923d
00000110: ec08 813d 294a 6abd 81f6 713d c80b 913d
00000120: 1324 913d 9949 6fbd a8cd 8e3d 0f72 8a3d
00000130: 8783 7cbd d125 813d 2f13 44bd d68b 7fbd
00000140: b236 76bd 363a 76bd b658 713d 3204 883d
00000150: e87b 79bd e8ea 7abd 8522 81bd 8495 803d
00000160: d1a8 86bd adb3 8c3d 221f 503d 567d 63bd
00000170: dbda 8a3d 71c4 853d 2987 71bd 6ead 7abd
00000180: f1d7 593d 7a8b 6bbd 0a49 69bd 7d99 7abd
00000190: a2f0 863d 7f87 50bd 9745 6fbd 32ba 6e3d
000001a0: 0592 64bd 314a 64bd 7789 613d 3e46 65bd
000001b0: c99e 893d d68d 833d baf7 533d adcb 6fbd
000001c0: 4907 833d 7a3f 7ebd 54a9 70bd be12 7bbd
000001d0: 3f64 76bd f453 72bd 824f 893d 8e13 8b3d
000001e0: 930f 863d c467 713d f0e1 873d db40 70bd
000001f0: 102b 7ebd a0bc 653d 135c 933d cb7b 7dbd

action_model._discrete_distribution.branches.0.weight f4 [4, 128]
0.03264007 -0.056366183 -0.048914652 0.04011757 0.048515905 0.041660834 0.04586405 -0.052010566
-0.034196816 0.043865677 -0.036917955 -0.028678108 0.048592895 -0.045106955 0.040793378 0.0414994
0.023497997 0.031708147 -0.053342994 -0.039479733 0.05613498 -0.05444027 -0.043483265 0.024325585
-0.037583284 -0.051647767 -0.034947347 -0.039228003 0.0414483 -0.050241258 -0.021119699 -0.048743192
0.03144029 -0.04674369 -0.059019156 -0.043604538 0.037038222 -0.04470215 0.037785474 -0.046012945
0.03282183 0.047864582 0.037584297 -0.046918087 0.049676828 0.03754458 -0.044057183 -0.019999407
0.053601734 -0.040880248 0.039224315 0.044892974 -0.032431893 0.045917038 0.060493696 0.042623572
0.044878922 -0.059942998 0.02870309 -0.04228395 -0.037976004 -0.04317761 0.03332949 -0.03212493
-0.04846562 -0.046637133 0.034286957 -0.04790825 -0.028985117 0.03020681 -0.05491766 -0.041359056
-0.039204262 0.045382664 -0.042330567 -0.055245597 0.045224104 -0.04965409 0.039590858 0.03423163
0.0340729 0.040362924 -0.05377388 -0.036506973 0.03186384 0.029652959 0.047057442 -0.042116623
0.040900365 -0.032843802 -0.022149868 0.058053978 -0.043231975 -0.048061926 0.04071193 0.04699207
-0.040933475 0.043211177 0.026597979 0.038855862 -0.03353574 0.048346322 0.035947494 -0.02977262
0.030238932 0.043468427 -0.062124453 0.040636793 -0.034098703 -0.052018225 -0.038084734 0.048206244
-0.041906744 0.05001389 0.03361585 0.04771313 0.051933907 0.04334989 -0.042318314 -0.04294817
-0.051366333 -0.056666397 -0.04426553 0.03304169 0.03113785 -0.033969633 -0.04528821 0.045924224
0.08327616 -0.080265254 -0.06608407 0.056333102 0.06730272 0.07963141 0.07512298 -0.08276656
-0.06886988 0.08607713 -0.062186196 -0.0706152 0.06383212 -0.08258022 0.07425374 0.06686017
0.07562218 0.07860784 -0.08983372 -0.080821864 0.07317896 -0.07962448 -0.08031543 0.072644144
-0.06891714 -0.08110193 -0.06287734 -0.06542206 0.08660614 -0.08227423 -0.07714653 -0.062264733
0.080203265 -0.063757665 -0.07418831 -0.08149827 0.0620958 -0.06955051 0.07047498 -0.059601422
0.07334338 0.070288986 0.07160871 -0.07219812 0.06494202 0.07338846 -0.07957245 -0.07574015
0.061755408 -0.079722434 0.06481997 0.076345764 -0.076354854 0.06754802 0.07255465 0.05976353
0.074575916 -0.07045437 0.08235943 -0.07828313 -0.077600755 -0.07748876 0.067506276 -0.07370389
-0.0699819 -0.07436781 0.08552207 -0.077569395 -0.08671314 0.077015355 -0.06540747 -0.07737262
-0.07176849 0.06702307 -0.08325055 -0.08131452 0.0795306 -0.08379906 0.07783766 0.070637286
0.071858555 0.088752665 -0.07127116 -0.09053692 0.07573018 0.0785073 0.08366148 -0.07703223
0.077067226 -0.0738468 -0.07093464 0.07069427 -0.09055161 -0.07171606 0.08576574 0.07344699
-0.060830217 0.07584875 0.07897041 0.07494166 -0.084413335 0.06109056 0.07029828 -0.08397976
0.08449876 0.072215855 -0.07433745 0.06801308 -0.08441476 -0.07298473 -0.083353356 0.06778356
-0.06687276 0.07279175 0.077653795 0.07304708 0.07027027 0.06987157 -0.09343343 -0.07396072
-0.09156716 -0.072927766 -0.07883527 0.08616159 0.075915925 -0.07716885 -0.07763034 0.07126855
00000000: 98b1 053d 3ae0 66bd bb5a 48bd 5252 243d
00000010: 9db8 463d 8da4 2a3d f1db 3b3d 0809 55bd
00000020: f611 0cbd 7fac 333d 4837 17bd 5aee eabc
00000030: 5809 473d 12c2 38bd f516 273d 46fb 293d
00000040: df7e c03c 67e0 013d 2f7e 5abd 80b5 21bd
00000050: cbed 653d c3fc 5ebd 821b 32bd 7346 c73c
00000060: eef0 19bd 9c8c 53bd f324 0fbd 8bad 20bd
00000070: b1c5 293d c7c9 4dbd 3803 adbc f1a6 47bd
00000080: 89c7 003d 5076 3fbd 12be 71bd ac9a 32bd
00000090: 64b5 173d 9a19 37bd f1c4 1a3d 1278 3cbd
000000a0: 2f70 063d a70d 443d fef1 193d 2e2d 40bd
000000b0: ee79 4b3d 58c8 193d 4e75 34bd ccd5 a3bc
000000c0: 7e8d 5b3d 0c72 27bd ada9 203d b2e1 373d
000000d0: 4ed7 04bd 8113 3c3d 3dc8 773d 0e96 2e3d
000000e0: f6d2 373d ca86 75bd be22 eb3c ef31 2dbd
000000f0: ba8c 1bbd 01db 30bd 8184 083d 6e95 03bd
00000100: e383 46bd 9406 3fbd 7b70 0c3d 713b 44bd
00000110: 3272 edbc 4674 f73c 57f1 60bd 1d68 29bd
00000120: a694 20bd 2ce3 393d d162 2dbd 3549 62bd
00000130: e93c 393d 1662 4bbd 062a 223d 7736 0c3d
00000140: 0690 0b3d 9853 253d 0042 5cbd 5688 15bd
00000150: a883 023d c3ea f23c 4ebf 403d 7b82 2cbd
00000160: 2487 273d 3987 06bd a473 b5bc 02ca 6d3d
00000170: 0314 31bd 95dc 44bd 8dc1 263d c27a 403d
00000180: dca9 27bd 34fe 303d 01e4 d93c 5327 1f3d
00000190: c65c 09bd cb06 463d ae3d 133d b6e5 f3bc
000001a0: a3b7 f73c f30b 323d 3676 7ebd c472 263d
000001b0: 15ab 0bbd 1011 55bd bdfe 1bbd e973 453d
000001c0: 68a6 2bbd 5ddb 4c3d c6b0 093d d86e 433d
000001d0: a6b8 543d a78f 313d f855 2dbd 6cea 2fbd
000001e0: 8165 52bd 061b 68bd c64f 35bd b956 073d
000001f0: ce14 ff3c be23 0bbd 2180 39bd 0a1b 3c3d
00000200: b18c aa3d 1c62 a4bd 1657 87bd 8abd 663d
00000210: 02d6 893d cb15 a33d 14da 993d 8481 a9bd
00000220: a70b 8dbd 3549 b03d f4b6 7ebd b49e 90bd
00000230: 6aba 823d d21f a9bd 5812 983d fced 883d
00000240: cddf 9a3d 26fd a03d befa b7bd ef85 a5bd
00000250: dade 953d 2912 a3bd 6b7c a4bd 74c6 943d
00000260: 6e24 8dbd c518 a6bd d6c5 80bd 00fc 85bd
00000270: 8f5e b13d 647f a8bd 00ff 9dbd 4e09 7fbd
00000280: 9c41 a43d 6193 82bd 0af0 97bd 91e8 a6bd
00000290: 2a58 7e3d 7f70 8ebd 3055 903d 9f20 74bd
000002a0: 0e35 963d acf3 8f3d 96a7 923d 9cdc 93bd
000002b0: 5200 853d b04c 963d e1f6 a2bd a71d 9bbd
000002c0: 3df3 7c3d 8445 a3bd 55c0 843d 2b5b 9c3d
000002d0: ef5f 9cbd 9e56 8a3d 8897 943d 9aca 743d
000002e0: 42bb 983d 614a 90bd 10ac a83d e852 a0bd
000002f0: 25ed 9ebd 6db2 9ebd bb40 8a3d 11f2 96bd
00000300: ac52 8fbd 264e 98bd 3226 af3d b4dc 9ebd
00000310: a996 b1bd 3aba 9d3d 5af4 85bd 8975 9ebd
00000320: 5cfb 92bd 6443 893d 447f aabd 3a88 a6bd
00000330: f0e0 a23d d79e abbd 5a69 9f3d 48aa 903d
00000340: 942a 933d f5c3 b53d 9df6 91bd 6c6b b9bd
00000350: 6d18 9b3d 6fc8 a03d b656 ab3d 13c3 9dbd
00000360: 6cd5 9d3d fe3c 97bd 2e46 91bd 28c8 903d
00000370: 1f73 b9bd dfdf 92bd f3a5 af3d 606b 963d
00000380: 1b29 79bd 9756 9b3d 3dbb a13d 037b 993d
00000390: e6e0 acbd 183a 7a3d 8bf8 8f3d 95fd abbd
000003a0: b00d ad3d e8e5 933d 3c3e 98bd 714a 8b3d
000003b0: a5e1 acbd 0579 95bd 2ab5 aabd 1bd2 8a3d
000003c0: 96f4 88bd d713 953d f408 9f3d b599 953d
000003d0: dce9 8f3d d318 8f3d 075a bfbd b878 97bd
000003e0: 9087 bbbd 275b 95bd 6374 a1bd 7d75 b03d
000003f0: cf79 9b3d b40a 9ebd a8fc 9ebd 3ff5 913d

action_model._discrete_distribution.branches.0.bias f4 [4]
-0.02727868 -0.04407829 0.035826102 0.01718401
00000000: 8a77 dfbc 708b 34bd 64be 123d 7bc5 8c3c

exp_avg f4 [128, 1]
0.0 0.0 0.0 0.0 0.0 0.0 0.0 0.0
0.0 0.0 0.0 0.0 0.0 0.0 0.0 0.0
0.0 0.0 0.0 0.0 0.0 0.0 0.0 0.0
0.0 0.0 0.0 0.0 0.0 0.0 0.0 0.0
0.0 0.0 0.0 0.0 0.0 0.0 0.0 0.0
0.0 0.0 0.0 0.0 0.0 0.0 0.0 0.0
0.0 0.0 0.0 0.0 0.0 0.0 0.0 0.0
0.0 0.0 0.0 0.0 0.0 0.0 0.0 0.0
0.0 0.0 0.0 0.0 0.0 0.0 0.0 0.0
0.0 0.0 0.0 0.0 0.0 0.0 0.0 0.0
0.0 0.0 0.0 0.0 0.0 0.0 0.0 0.0
0.0 0.0 0.0 0.0 0.0 0.0 0.0 0.0
0.0 0.0 0.0 0.0 0.0 0.0 0.0 0.0
0.0 0.0 0.0 0.0 0.0 0.0 0.0 0.0
0.0 0.0 0.0 0.0 0.0 0.0 0.0 0.0
0.0 0.0 0.0 0.0 0.0 0.0 0.0 0.0
00000000: 0000 0000 0000 0000 0000 0000 0000 0000
00000010: 0000 0000 0000 0000 0000 0000 0000 0000
00000020: 0000 0000 0000 0000 0000 0000 0000 0000
00000030: 0000 0000 0000 0000 0000 0000 0000 0000
00000040: 0000 0000 0000 0000 0000 0000 0000 0000
00000050: 0000 0000 0000 0000 0000 0000 0000 0000
00000060: 0000 0000 0000 0000 0000 0000 0000 0000
00000070: 0000 0000 0000 0000 0000 0000 0000 0000
00000080: 0000 0000 0000 0000 0000 0000 0000 0000
00000090: 0000 0000 0000 0000 0000 0000 0000 0000
000000a0: 0000 0000 0000 0000 0000 0000 0000 0000
000000b0: 0000 0000 0000 0000 0000 0000 0000 0000
000000c0: 0000 0000 0000 0000 0000 0000 0000 0000
000000d0: 0000 0000 0000 0000 0000 0000 0000 0000
000000e0: 0000 0000 0000 0000 0000 0000 0000 0000
000000f0: 0000 0000 0000 0000 0000 0000 0000 0000
00000100: 0000 0000 0000 0000 0000 0000 0000 0000
00000110: 0000 0000 0000 0000 0000 0000 0000 0000
00000120: 0000 0000 0000 0000 0000 0000 0000 0000
00000130: 0000 0000 0000 0000 0000 0000 0000 0000
00000140: 0000 0000 0000 0000 0000 0000 0000 0000
00000150: 0000 0000 0000 0000 0000 0000 0000 0000
00000160: 0000 0000 0000 0000 0000 0000 0000 0000
00000170: 0000 0000 0000 0000 0000 0000 0000 0000
00000180: 0000 0000 0000 0000 0000 0000 0000 0000
00000190: 0000 0000 0000 0000 0000 0000 0000 0000
000001a0: 0000 0000 0000 0000 0000 0000 0000 0000
000001b0: 0000 0000 0000 0000 0000 0000 0000 0000
000001c0: 0000 0000 0000 0000 0000 0000 0000 0000
000001d0: 0000 0000 0000 0000 0000 0000 0000 0000
000001e0: 0000 0000 0000 0000 0000 0000 0000 0000
000001f0: 0000 0000 0000 0000 0000 0000 0000 0000

exp_avg_sq f4 [128, 1]
0.0 0.0 0.0 0.0 0.0 0.0 0.0 0.0
0.0 0.0 0.0 0.0 0.0 0.0 0.0 0.0
0.0 0.0 0.0 0.0 0.0 0.0 0.0 0.0
0.0 0.0 0.0 0.0 0.0 0.0 0.0 0.0
0.0 0.0 0.0 0.0 0.0 0.0 0.0 0.0
0.0 0.0 0.0 0.0 0.0 0.0 0.0 0.0
0.0 0.0 0.0 0.0 0.0 0.0 0.0 0.0
0.0 0.0 0.0 0.0 0.0 0.0 0.0 0.0
0.0 0.0 0.0 0.0 0.0 0.0 0.0 0.0
0.0 0.0 0.0 0.0 0.0 0.0 0.0 0.0
0.0 0.0 0.0 0.0 0.0 0.0 0.0 0.0
0.0 0.0 0.0 0.0 0.0 0.0 0.0 0.0
0.0 0.0 0.0 0.0 0.0 0.0 0.0 0.0
0.0 0.0 0.0 0.0 0.0 0.0 0.0 0.0
0.0 0.0 0.0 0.0 0.0 0.0 0.0 0.0
0.0 0.0 0.0 0.0 0.0 0.0 0.0 0.0
00000000: 0000 0000 0000 0000 0000 0000 0000 0000
00000010: 0000 0000 0000 0000 0000 0000 0000 0000
00000020: 0000 0000 0000 0000 0000 0000 0000 0000
00000030: 0000 0000 0000 0000 0000 0000 0000 0000
00000040: 0000 0000 0000 0000 0000 0000 0000 0000
00000050: 0000 0000 0000 0000 0000 0000 0000 0000
00000060: 0000 0000 0000 0000 0000 0000 0000 0000
00000070: 0000 0000 0000 0000 0000 0000 0000 0000
00000080: 0000 0000 0000 0000 0000 0000 0000 0000
00000090: 0000 0000 0000 0000 0000 0000 0000 0000
000000a0: 0000 0000 0000 0000 0000 0000 0000 0000
000000b0: 0000 0000 0000 0000 0000 0000 0000 0000
000000c0: 0000 0000 0000 0000 0000 0000 0000 0000
000000d0: 0000 0000 0000 0000 0000 0000 0000 0000
000000e0: 0000 0000 0000 0000 0000 0000 0000 0000
000000f0: 0000 0000 0000 0000 0000 0000 0000 0000
00000100: 0000 0000 0000 0000 0000 0000 0000 0000
00000110: 0000 0000 0000 0000 0000 0000 0000 0000
00000120: 0000 0000 0000 0000 0000 0000 0000 0000
00000130: 0000 0000 0000 0000 0000 0000 0000 0000
00000140: 0000 0000 0000 0000 0000 0000 0000 0000
00000150: 0000 0000 0000 0000 0000 0000 0000 0000
00000160: 0000 0000 0000 0000 0000 0000 0000 0000
00000170: 0000 0000 0000 0000 0000 0000 0000 0000
00000180: 0000 0000 0000 0000 0000 0000 0000 0000
00000190: 0000 0000 0000 0000 0000 0000 0000 0000
000001a0: 0000 0000 0000 0000 0000 0000 0000 0000
000001b0: 0000 0000 0000 0000 0000 0000 0000 0000
000001c0: 0000 0000 0000 0000 0000 0000 0000 0000
000001d0: 0000 0000 0000 0000 0000 0000 0000 0000
000001e0: 0000 0000 0000 0000 0000 0000 0000 0000
000001f0: 0000 0000 0000 0000 0000 0000 0000 0000

exp_avg f4 [128]
2.0808828e-05 1.4650629e-05 -2.352035e-06 9.244397e-06 -6.244886e-06 1.1547121e-06 -1.3971785e-05 -9.048551e-06
1.3368302e-05 -2.6521304e-05 -5.4629483e-05 4.2832125e-05 -1.3367936e-05 -1.1961163e-05 -2.9807692e-05 2.0677508e-05
3.1255242e-06 3.6845864e-05 4.2913576e-05 -3.166089e-06 -6.0997504e-06 1.4854335e-06 1.6770982e-05 7.635107e-06
4.721014e-05 5.7710745e-06 -2.2661783e-05 2.6036354e-05 -3.3496795e-05 -8.001814e-06 -8.888706e-06 -2.3077903e-06
-4.646442e-06 -8.625188e-06 -7.2773837e-06 2.9789358e-06 2.985019e-05 5.9694965e-05 -2.1470158e-05 -1.0802099e-07
-1.3379041e-05 5.023472e-05 -9.040334e-06 1.9215695e-06 5.3329077e-05 -4.6953387e-06 1.0918557e-05 8.575637e-06
-8.938399e-06 -9.808798e-06 -2.692829e-05 -9.505526e-06 6.5452805e-06 -1.13650885e-05 -2.5238543e-05 2.866667e-05
2.519606e-05 -2.0518812e-05 -3.359737e-06 -1.6220913e-05 -1.654956e-05 6.651149e-06 2.315158e-05 1.1837918e-05
1.1245108e-05 1.5902759e-05 5.3463806e-05 -2.442256e-06 -3.2308624e-05 -5.089155e-06 3.9635374e-06 -3.406734e-05
-6.0712564e-06 2.8288947e-05 2.9825418e-05 9.788506e-06 2.1610058e-05 1.1564884e-05 2.384896e-06 3.857409e-05
-1.1100663e-05 3.2368614e-05 -5.7755693e-05 -7.758504e-06 -1.878666e-05 -7.1504664e-06 -2.3872868e-05 9.25173e-08
4.459902e-05 4.360579e-05 -3.763865e-05 -2.3497694e-05 8.109843e-06 1.5592568e-05 1.9414096e-05 1.9622577e-05
1.8937746e-05 -2.1559797e-05 -5.4289958e-05 1.6500626e-05 9.749076e-06 -1.0741601e-05 2.2556882e-05 2.274848e-06
-8.678637e-06 -5.8200058e-05 7.4641903e-06 -2.1070664e-05 -4.5019362e-05 -9.229559e-06 5.195573e-06 -2.4338426e-05
-1.8249051e-05 1.2038319e-05 -1.8735342e-05 -2.6319212e-05 -2.8337741e-05 2.0116866e-05 3.161844e-05 -5.540258e-06
-5.2387113e-06 1.245347e-05 2.1553777e-05 -3.3120969e-06 3.0942403e-05 -1.7934548e-05 -2.3895167e-05 2.9228519e-05
00000000: 9e8e ae37 f9cb 7537 a7d7 1db6 6218 1b37
00000010: 2a8b d1b6 9bfb 9a35 5c68 6ab7 3bcf 17b7
00000020: 6b48 6037 117a deb7 f621 65b8 a5a6 3338
00000030: d946 60b7 ceac 48b7 880b fab7 9c74 ad37
00000040: 19c0 5136 f28a 1a38 1afe 3338 ff78 54b6
00000050: 75ac ccb6 1b5f c735 69af 8c37 8918 0037
00000060: 8003 4638 27a5 c136 cf19 beb7 a568 da37
00000070: e97e 0cb8 883f 06b7 b420 15b7 89df 1ab6
00000080: a2e8 9bb6 e6b4 10b7 4030 f4b6 bae9 4736
00000090: cb66 fa37 fb60 7a38 d01a b4b7 2bf9 e7b3
000000a0: 8b76 60b7 1fb3 5238 f0ab 17b7 50f4 0036
000000b0: a9ad 5f38 a78c 9db6 d82e 3737 15e0 0f37
000000c0: 22f6 15b7 7790 24b7 10e4 e1b7 ec79 1fb7
000000d0: 889f db36 afac 3eb7 5cb7 d3b7 3479 f037
000000e0: 205c d337 d01f acb7 d877 61b6 2512 88b7
000000f0: e9d3 8ab7 ef2c df36 a435 c237 789b 4637
00000100: 5fa9 3c37 ea66 8537 533e 6038 a3e5 23b6
00000110: 1f83 07b8 82c3 aab6 87fe 8436 87e3 0eb8
00000120: b2b7 cbb6 0d4e ed37 9931 fa37 5039 2437
00000130: 3f47 b537 cc06 4237 340c 2036 9dca 2138
00000140: fc3c 3ab7 89c3 0738 b43e 72b8 852a 02b7
00000150: 0c98 9db7 0aee efb6 9842 c8b7 ecad c633
00000160: d50f 3b38 5ce5 3638 31de 1db8 ea1c c5b7
00000170: 830f 0837 c9cc 8237 74db a237 2a9b a437
00000180: 80dc 9e37 50db b4b7 66b5 63b8 d36a 8a37
00000190: f68f 2337 d336 34b7 8938 bd37 97a9 1836
000001a0: 769a 11b7 d61b 74b8 e874 fa36 e8c0 b0b7
000001b0: 2cd3 3cb8 a7d8 1ab7 a255 ae36 5f2a ccb7
000001c0: 8a15 99b7 30f8 4937 d729 9db7 14c8 dcb7
000001d0: d6b6 edb7 a4c0 a837 0b9e 0438 74e6 b9b6
000001e0: 30c8 afb6 3fef 5037 62ce b437 6445 5eb6
000001f0: 27c8 0138 2672 96b7 7b72 c8b7 c42f f537

exp_avg_sq f4 [128]
2.110602e-06 2.930586e-06 3.425137e-06 3.975405e-06 5.580185e-06 3.0289862e-06 4.215158e-06 3.3176993e-06
2.680423e-06 4.7022504e-06 2.9618097e-06 2.6223797e-06 4.583539e-06 3.1484683e-06 5.3764397e-06 3.4547618e-06
4.0230407e-06 2.7312894e-06 7.3461965e-06 3.4740815e-06 4.7444223e-06 2.9960306e-06 2.795575e-06 4.5250417e-06
3.578794e-06 2.3607624e-06 6.5874888e-06 3.8222674e-06 3.4817929e-06 2.9181267e-06 3.516028e-06 2.7637693e-06
2.6900725e-06 4.8377947e-06 3.273698e-06 4.878825e-06 2.9340883e-06 2.9809707e-06 3.7418142e-06 5.724878e-06
3.090666e-06 2.2533e-06 5.0239632e-06 4.1768844e-06 3.383355e-06 2.7960607e-06 4.3843934e-06 5.9700615e-06
4.9449513e-06 2.6820196e-06 5.0570657e-06 3.6115894e-06 2.8734455e-06 3.26837e-06 4.4008125e-06 4.2135875e-06
3.0562999e-06 4.2235847e-06 2.54636e-06 3.2412468e-06 3.7070497e-06 2.5904665e-06 2.5609206e-06 3.6259437e-06
3.1007205e-06 2.375328e-06 2.3730702e-06 3.5091077e-06 2.9250052e-06 2.7087572e-06 3.6198694e-06 3.8971834e-06
4.83194e-06 2.6176203e-06 2.844755e-06 2.7381539e-06 2.665019e-06 2.936445e-06 3.6711615e-06 3.996085e-06
4.0431305e-06 3.2191276e-06 4.2908514e-06 3.755586e-06 5.248728e-06 4.180351e-06 5.0953913e-06 3.205105e-06
2.7048995e-06 3.4453353e-06 3.1835682e-06 3.3666984e-06 2.4016151e-06 4.4814983e-06 3.0245358e-06 3.4907098e-06
2.589837e-06 3.7450927e-06 3.6071845e-06 4.021977e-06 4.418688e-06 4.0664627e-06 3.6686406e-06 3.9541965e-06
4.333665e-06 3.194988e-06 4.9764544e-06 4.9913083e-06 3.6258384e-06 4.8223937e-06 3.1035859e-06 3.9499787e-06
3.4949198e-06 2.9744351e-06 3.8073338e-06 3.141966e-06 4.96443e-06 2.141659e-06 3.9750244e-06 2.6985265e-06
4.3159393e-06 2.566736e-06 3.6297483e-06 3.7156099e-06 2.6392427e-06 3.906774e-06 4.158684e-06 4.215318e-06
00000000: dea3 0d36 16ab 4436 68db 6536 7864 8536
00000010: 6d3d bb36 9645 4b36 ee6f 8d36 a4a5 5e36
00000020: 51e1 3336 06c8 9d36 81c3 4636 24fc 2f36
00000030: 4dcc 9936 464a 5336 4467 b436 5bd8 6736
00000040: a8fd 8636 324b 3736 597f f636 4424 6936
00000050: 4732 9f36 6a0f 4936 9d9b 3b36 d0d5 9736
00000060: 362b 7036 976d 1e36 190a dd36 0741 8036
00000070: bfa8 6936 09d5 4336 e7f4 6b36 3279 3936
00000080: 1887 3436 5754 a236 b4b1 5b36 cab4 a336
00000090: 41e7 4436 b00c 4836 e11b 7b36 5418 c036
000000a0: 3d69 4f36 6637 1736 8493 a836 2a27 8c36
000000b0: 990d 6336 f5a3 3b36 a71d 9336 7052 c836
000000c0: cfec a536 bffc 3336 ddaf a936 a25e 7236
000000d0: 6bd5 4036 2b56 5b36 b1aa 9336 7162 8d36
000000e0: d51a 4d36 51b8 8d36 22e2 2a36 3284 5936
000000f0: a1c6 7836 e0d7 2d36 48dc 2b36 3d55 7336
00000100: f915 5036 d367 1f36 0941 1f36 037e 6b36
00000110: 354b 4436 18c8 3536 e2ec 7236 8dc4 8236
00000120: 0c22 a236 60aa 2f36 85e8 3e36 20c1 3736
00000130: aed8 3236 be0f 4536 135e 7636 1c16 8636
00000140: 3aaa 8736 3108 5836 22fa 8f36 7a08 7c36
00000150: 3b1e b036 f144 8c36 14f9 aa36 4917 5736
00000160: d285 3536 6936 6736 49a5 5536 70ef 6136
00000170: 6f2b 2136 c75f 9636 21f9 4a36 f041 6a36
00000180: 10cd 2d36 3454 7b36 f512 7236 85f4 8636
00000190: 3e44 9436 a672 8836 c432 7636 4aae 8436
000001a0: e669 9136 7a69 5636 6bfb a636 037b a736
000001b0: 6e53 7336 0cd0 a136 3347 5036 0f8a 8436
000001c0: 448a 6a36 689c 4736 7f81 7f36 91da 5236
000001d0: 2194 a636 6cb9 0f36 3361 8536 5518 3536
000001e0: a3d1 9036 3040 2c36 9a96 7336 b159 7936
000001f0: d81d 3136 ef16 8336 d38a 8b36 4e71 8d36

exp_avg f4 [128, 128]
-4.2116935e-07 -5.526457e-07 5.152966e-07 -5.3398855e-07 5.713344e-07 -5.325752e-07 5.535651e-07 5.5042074e-07
-5.1840146e-07 5.916793e-07 5.272604e-07 -4.8501613e-07 5.8812253e-07 -5.31572e-07 5.6068836e-07 -5.406576e-07
5.847181e-07 -5.366573e-07 5.593519e-07 -5.2993045e-07 5.9138046e-07 -5.3168117e-07 -5.357551e-07 5.7039927e-07
-5.3529914e-07 -4.939144e-07 5.847053e-07 -5.428813e-07 5.7714254e-07 -5.125434e-07 5.904496e-07 -5.3530084e-07
-4.8815036e-07 5.76627e-07 5.48203e-07 5.677947e-07 -5.2597323e-07 -5.277477e-07 5.8782837e-07 5.6602005e-07
-4.7389221e-07 -4.24033e-07 5.6638913e-07 5.896026e-07 -4.8103334e-07 5.2370063e-07 5.7173486e-07 5.740364e-07
5.7757256e-07 -4.6634148e-07 5.664198e-07 -5.223959e-07 -5.488518e-07 -5.2017845e-07 5.811444e-07 5.5088753e-07
-5.2819877e-07 5.788546e-07 -5.063854e-07 -5.290692e-07 5.0679085e-07 -5.526662e-07 -4.738792e-07 5.6112816e-07
-5.286457e-07 -4.422902e-07 -5.232286e-07 -5.290804e-07 -4.877056e-07 -4.934927e-07 -5.3123586e-07 -5.063203e-07
5.77585e-07 -4.5822125e-07 -5.044686e-07 -5.5526306e-07 -5.548502e-07 -5.522009e-07 -5.3028333e-07 -5.184077e-07
5.753681e-07 -5.121612e-07 5.615548e-07 -5.3346525e-07 5.864192e-07 5.2815045e-07 5.68687e-07 5.593206e-07
-5.166237e-07 -5.2615513e-07 5.9489946e-07 5.9625427e-07 -5.2812123e-07 -5.255281e-07 -5.526555e-07 -5.0364935e-07
-5.31763e-07 5.503664e-07 -4.653765e-07 5.544527e-07 5.2641144e-07 5.5177077e-07 -5.281792e-07 -5.464321e-07
5.691373e-07 -4.4675653e-07 5.8871814e-07 5.753627e-07 -4.890291e-07 5.891441e-07 -5.1121117e-07 -5.2284105e-07
5.6689294e-07 -5.277529e-07 -5.295373e-07 5.5442234e-07 5.7937797e-07 -4.4918806e-07 5.433282e-07 -5.139395e-07
5.9405716e-07 -5.286247e-07 -5.326476e-07 5.3798874e-07 -5.5089686e-07 5.869204e-07 5.712829e-07 -5.2107924e-07
-6.803836e-07 -8.928368e-07 8.323625e-07 -8.6255056e-07 9.2302867e-07 -8.606575e-07 8.941842e-07 8.892423e-07
-8.374248e-07 9.560314e-07 8.5193994e-07 -7.835538e-07 9.5027303e-07 -8.594043e-07 9.0567323e-07 -8.733469e-07
9.444868e-07 -8.668625e-07 9.0352034e-07 -8.562536e-07 9.553032e-07 -8.592159e-07 -8.654666e-07 9.217561e-07
-8.6474074e-07 -7.978948e-07 9.445243e-07 -8.7694445e-07 9.322939e-07 -8.2832094e-07 9.540078e-07 -8.647808e-07
-7.885237e-07 9.318297e-07 8.856302e-07 9.172144e-07 -8.4962363e-07 -8.525105e-07 9.4953174e-07 9.143253e-07
-7.655873e-07 -6.85152e-07 9.152865e-07 9.5241904e-07 -7.770157e-07 8.461908e-07 9.239121e-07 9.2724235e-07
9.330657e-07 -7.53318e-07 9.151931e-07 -8.4393645e-07 -8.873192e-07 -8.403169e-07 9.3878555e-07 8.898873e-07
-8.5321415e-07 9.3541206e-07 -8.180312e-07 -8.5467764e-07 8.188764e-07 -8.927717e-07 -7.6561963e-07 9.0640617e-07
-8.5392963e-07 -7.1457634e-07 -8.455714e-07 -8.5468736e-07 -7.8780545e-07 -7.9714226e-07 -8.5850024e-07 -8.1825146e-07
9.3302333e-07 -7.4202444e-07 -8.15126e-07 -8.9732424e-07 -8.965044e-07 -8.921181e-07 -8.572443e-07 -8.374077e-07
9.294057e-07 -8.274047e-07 9.071828e-07 -8.6209576e-07 9.4763226e-07 8.533763e-07 9.1863797e-07 9.036171e-07
-8.3454063e-07 -8.506062e-07 9.611954e-07 9.63281e-07 -8.534648e-07 -8.489072e-07 -8.928071e-07 -8.139415e-07
-8.5895437e-07 8.8942e-07 -7.521199e-07 8.95627e-07 8.503626e-07 8.913585e-07 -8.532782e-07 -8.827288e-07
9.1934993e-07 -7.217074e-07 9.5096993e-07 9.2941855e-07 -7.900015e-07 9.517575e-07 -8.26153e-07 -8.446544e-07
9.1581586e-07 -8.525004e-07 -8.5536425e-07 8.957208e-07 9.358617e-07 -7.257149e-07 8.7765784e-07 -8.302784e-07
9.596008e-07 -8.5400245e-07 -8.6040785e-07 8.6902634e-07 -8.8986394e-07 9.481523e-07 9.231979e-07 -8.417165e-07
00000000: 131d e2b4 8659 14b5 ea52 0a35 6a57 0fb5
00000010: cd5d 1935 4af6 0eb5 b498 1435 a0c0 1335
00000020: 4728 0bb5 e4d3 1e35 0f89 0d35 0e32 02b5
00000030: 79df 1d35 5ab1 0eb5 3682 1635 b521 11b5
00000040: 86f5 1c35 cf0e 10b5 5f26 1635 8b40 0eb5
00000050: 5bbf 1e35 dab8 0eb5 cfd0 0fb5 8a1d 1935
00000060: 7ab1 0fb5 8a95 04b5 a4f4 1c35 85ba 11b5
00000070: efec 1a35 b795 09b5 637f 1e35 98b1 0fb5
00000080: 7009 03b5 81c9 1a35 3928 1335 8e6a 1835
00000090: 9b30 0db5 8caa 0db5 42cb 1d35 9af0 1735
000000a0: 406b feb4 a7a6 e3b4 f709 1835 2f45 1e35
000000b0: 5c20 01b5 6f94 0c35 5279 1935 7b17 1a35
000000c0: 7c0a 1b35 7c5d fab4 130c 1835 c63a 0cb5
000000d0: cf54 13b5 64a2 0bb5 f0ff 1b35 b4e0 1335
000000e0: 8bc9 0db5 9662 1b35 8aee 07b5 5c05 0eb5
000000f0: 670a 0835 ef5a 14b5 7669 feb4 6fa0 1635
00000100: 42e8 0db5 e773 edb4 ff73 0cb5 2106 0eb5
00000110: e0ea 02b5 8f78 04b5 409a 0eb5 11ea 07b5
00000120: 570b 1b35 7301 f6b4 d16a 07b5 630d 15b5
00000130: 04f1 14b5 f53a 14b5 cb58 0eb5 b528 0bb5
00000140: ff72 1a35 737b 09b5 c1bd 1635 7433 0fb5
00000150: 6c6a 1d35 39c6 0d35 e0a7 1835 3824 1635
00000160: 1cae 0ab5 1b3d 0db5 2eb1 1f35 480e 2035
00000170: 37c4 0db5 0412 0db5 325a 14b5 8532 07b5
00000180: 7abe 0eb5 e4bc 1335 dcd8 f9b4 b3d5 1435
00000190: b84e 0d35 661d 1435 33c8 0db5 87ae 12b5
000001a0: d1c6 1835 c0d9 efb4 6708 1e35 a072 1a35
000001b0: d345 03b5 ad25 1e35 2a3a 09b5 5d59 0cb5
000001c0: 962c 1835 e7aa 0db5 8725 0eb5 9dd3 1435
000001d0: 8d86 1b35 f027 f1b4 3bd9 1135 a7f5 09b5
000001e0: 4c77 1f35 d0e6 0db5 44fb 0eb5 4e6a 1035
000001f0: 58e1 13b5 dd8c 1d35 435a 1935 4be0 0bb5
00000200: 9ba3 36b5 47ab 6fb5 846f 5f35 068a 67b5
00000210: 0cc6 7735 ef07 67b5 df07 7035 44b4 6e35
00000220: 65cb 60b5 fd50 8035 deb0 6435 6855 52b5
00000230: 4416 7f35 d0b1 66b5 641d 7335 f16f 6ab5
00000240: a488 7d35 56b2 68b5 7289 7235 4dd9 65b5
00000250: f837 8035 dea4 66b5 6952 68b5 996e 7735
00000260: 8820 68b5 ea2e 56b5 378b 7d35 2a67 6bb5
00000270: c042 7a35 c859 5eb5 750b 8035 4923 68b5
00000280: f0aa 53b5 d922 7a35 0bbc 6d35 7e36 7635
00000290: b111 64b5 13d8 64b5 53e3 7e35 f56f 7535
000002a0: c282 4db5 49eb 37b5 02b2 7535 bda9 7f35
000002b0: 1d94 50b5 ca25 6335 c202 7835 9ce7 7835
000002c0: c977 7a35 9e37 4ab5 97ab 7535 df8a 62b5
000002d0: 1c30 6eb5 2392 61b5 da00 7c35 97e0 6e35
000002e0: 6e08 65b5 0719 7b35 ad96 5bb5 006d 65b5
000002f0: c2d0 5b35 cea6 6fb5 fb84 4db5 c24f 7335
00000300: 9939 65b5 50d1 3fb5 39fb 62b5 ab6d 65b5
00000310: 9479 53b5 33fb 55b5 b073 66b5 d0a5 5bb5
00000320: e074 7a35 882f 47b5 08cf 5ab5 a7df 70b5
00000330: 50a7 70b5 e479 6fb5 611d 66b5 38ca 60b5
00000340: 467c 7935 d11a 5eb5 2185 7335 c56a 67b5
00000350: cb60 7e35 9313 6535 5298 7635 1890 7235
00000360: 3205 60b5 3755 64b5 6c02 8135 154a 8135
00000370: a819 65b5 75e0 63b5 3da9 6fb5 a27d 5ab5
00000380: e592 66b5 7ac0 6e35 49e5 49b5 056b 7035
00000390: 7944 6435 b145 6f35 d50c 65b5 a9f4 6cb5
000003a0: 3fc9 7635 5bbb 41b5 2846 7f35 287d 7935
000003b0: 7d10 54b5 477c 7f35 cdc4 5db5 35bc 62b5
000003c0: 63d6 7535 62d7 64b5 2f9c 65b5 7771 7035
000003d0: ed37 7b35 c0ce 42b5 3098 6b35 4ce0 5eb5
000003e0: a2cb 8035 9a3e 65b5 c7f6 66b5 0947 6935
000003f0: fcde 6eb5 8884 7e35 add1 7735 51f2 61b5

exp_avg_sq f4 [128, 128]
3.0217495e-11 5.8018337e-11 4.7265355e-11 5.392428e-11 6.0517764e-11 5.357511e-11 5.603237e-11 5.5210968e-11
5.01693e-11 6.491712e-11 4.9022942e-11 4.251691e-11 6.467657e-11 5.3707296e-11 5.76475e-11 5.550933e-11
6.3598314e-11 5.4134867e-11 5.8262555e-11 5.3089557e-11 6.533064e-11 5.3276585e-11 5.4111486e-11 6.048442e-11
5.3949355e-11 4.44974e-11 6.3780384e-11 5.5955372e-11 6.1011675e-11 4.8916145e-11 6.4906025e-11 5.4297313e-11
4.3645858e-11 6.1704926e-11 5.4732788e-11 5.9778966e-11 5.192752e-11 5.188606e-11 6.41484e-11 5.923888e-11
4.0846063e-11 3.047655e-11 5.922272e-11 6.490749e-11 4.1694488e-11 4.8838714e-11 6.084273e-11 6.1407275e-11
6.1910484e-11 3.9080215e-11 5.88438e-11 5.142258e-11 5.721937e-11 5.115143e-11 6.251611e-11 5.5890417e-11
5.1963697e-11 6.1816406e-11 4.7866107e-11 5.3072328e-11 4.535523e-11 5.854208e-11 4.0289234e-11 5.7858756e-11
5.2553767e-11 3.4416095e-11 5.0703428e-11 5.2961167e-11 4.4038672e-11 4.4813875e-11 5.3441248e-11 4.820735e-11
6.1883755e-11 3.7198862e-11 4.662804e-11 5.8909336e-11 5.842413e-11 5.794748e-11 5.3000174e-11 5.0071402e-11
6.131045e-11 4.8703947e-11 5.733125e-11 5.4225704e-11 6.4275356e-11 4.9915693e-11 5.9543676e-11 5.6835918e-11
4.9255044e-11 5.1626422e-11 6.548359e-11 6.563179e-11 5.25249e-11 5.196905e-11 5.8140617e-11 4.676165e-11
5.3070152e-11 5.4921345e-11 3.975489e-11 5.6640786e-11 4.994966e-11 5.5399397e-11 5.2629096e-11 5.7015337e-11
5.988446e-11 3.6039755e-11 6.5079324e-11 6.1431776e-11 4.4676016e-11 6.481896e-11 4.8523244e-11 5.185505e-11
5.8559456e-11 5.250013e-11 5.3074902e-11 5.5641148e-11 6.222153e-11 3.5338257e-11 5.409553e-11 4.956935e-11
6.578447e-11 5.2513223e-11 5.360074e-11 5.22809e-11 5.734518e-11 6.41231e-11 6.019004e-11 5.0873115e-11
2.7602207e-10 5.093351e-10 4.2476384e-10 4.743485e-10 5.3558336e-10 4.714985e-10 4.98406e-10 4.918334e-10
4.4330725e-10 5.742638e-10 4.4134324e-10 3.79869e-10 5.7053395e-10 4.716327e-10 5.120047e-10 4.873098e-10
5.625162e-10 4.76832e-10 5.1520394e-10 4.6698867e-10 5.7662275e-10 4.692089e-10 4.763716e-10 5.348673e-10
4.7463006e-10 3.9656778e-10 5.630276e-10 4.9118815e-10 5.420387e-10 4.3282894e-10 5.73539e-10 4.7725784e-10
3.8866899e-10 5.457617e-10 4.8770143e-10 5.291518e-10 4.57709e-10 4.5818402e-10 5.6725813e-10 5.248795e-10
3.6455608e-10 2.7857844e-10 5.247887e-10 5.731739e-10 3.7287703e-10 4.3874596e-10 5.379698e-10 5.4264904e-10
5.4767296e-10 3.5051115e-10 5.225324e-10 4.5296258e-10 5.0247934e-10 4.5013007e-10 5.533947e-10 4.963118e-10
4.594543e-10 5.4793303e-10 4.231238e-10 4.664312e-10 4.0851147e-10 5.1241084e-10 3.6114883e-10 5.1419635e-10
4.6321103e-10 3.107426e-10 4.487359e-10 4.657834e-10 3.9082987e-10 3.9841688e-10 4.697859e-10 4.2511267e-10
5.476357e-10 3.350902e-10 4.1465362e-10 5.160475e-10 5.129673e-10 5.0864096e-10 4.6676574e-10 4.4246912e-10
5.4295035e-10 4.309622e-10 5.104601e-10 4.7570603e-10 5.669846e-10 4.475206e-10 5.2814797e-10 5.0693894e-10
4.3669204e-10 4.5596063e-10 5.7959987e-10 5.8160404e-10 4.6265214e-10 4.5783013e-10 5.099908e-10 4.1508263e-10
4.681004e-10 4.898933e-10 3.539586e-10 5.028648e-10 4.4685072e-10 4.9355786e-10 4.6300228e-10 4.996964e-10
5.30607e-10 3.2291633e-10 5.7351845e-10 5.4328936e-10 3.950861e-10 5.7214944e-10 4.297286e-10 4.5576784e-10
5.2151744e-10 4.6228923e-10 4.6688936e-10 4.9660814e-10 5.505145e-10 3.1958677e-10 4.8132154e-10 4.3733886e-10
5.811797e-10 4.6290366e-10 4.71456e-10 4.672912e-10 5.042208e-10 5.665458e-10 5.3343696e-10 4.4872947e-10
00000000: e0e5 042e d72a 7f2e 0fe0 4f2e 5829 6d2e
00000010: 7914 852e 36a0 6b2e d76e 762e 06d2 722e
00000020: 9ca5 5c2e 17c1 8e2e ed9a 572e c9fd 3a2e
00000030: ac39 8e2e 0a35 6c2e 5189 7d2e f321 742e
00000040: abda 8b2e 7116 6e2e e71e 802e 877d 692e
00000050: e1a9 8f2e 1a50 6a2e 1efc 6d2e b401 852e
00000060: 9345 6d2e 9eb3 432e 2a41 8c2e 2618 762e
00000070: 852a 862e af22 572e d8ba 8e2e 57cd 6e2e
00000080: def4 3f2e c9b0 872e a4b7 702e 9174 832e
00000090: 3161 642e 8332 642e 5710 8d2e 8644 822e
000000a0: 94a4 332e 8b09 062e 6d3b 822e abbb 8e2e
000000b0: d25f 372e 81cb 562e 69cb 852e 3909 872e
000000c0: 8124 882e 69e0 2b2e 1d66 812e ae28 622e
000000d0: 49a7 7b2e 64f7 602e 7179 892e 04cf 752e
000000e0: ec89 642e 8bef 872e 7284 522e 216a 692e
000000f0: 7379 472e 43bc 802e a531 312e 2b77 7e2e
00000100: 4822 672e 145d 172e fcfe 5e2e f9ec 682e
00000110: 23af 412e f017 452e 7f09 6b2e a704 542e
00000120: 7515 882e 329a 232e 8212 4d2e 028b 812e
00000130: dc79 802e 10db 7e2e e418 692e 6337 5c2e
00000140: b7d2 862e c533 562e 4025 7c2e b77c 6e2e
00000150: cf57 8d2e 1388 5b2e 1cf0 822e 8ef7 792e
00000160: 40a0 582e 2f0e 632e fcff 8f2e 6a53 902e
00000170: c801 672e f38f 642e 84b4 7f2e f0a8 4d2e
00000180: ae67 692e f08b 712e 07d8 2e2e db1b 792e
00000190: 51ae 5b2e 2da6 732e 1877 672e 90c1 7a2e
000001a0: f4af 832e 2881 1e2e 671c 8f2e 0417 872e
000001b0: b97c 442e d589 8e2e 5168 552e 990f 642e
000001c0: 0bc6 802e e4e5 662e 076d 692e 5db6 742e
000001d0: 9bd3 882e 576b 1b2e 27ea 6d2e 2002 5a2e
000001e0: 5da9 902e a2f4 662e 11bd 6b2e 0fef 652e
000001f0: ef34 7c2e 1902 8d2e fb5b 842e 09be 5f2e
00000200: a7be 972f 4501 0c30 3284 e92f 4f63 0230
00000210: 5438 1330 c29a 0130 3400 0930 b331 0730
00000220: f3b5 f32f 39da 1d30 8aa1 f22f cfd5 d02f
00000230: c2d3 1c30 33a4 0130 21bd 0c30 61f3 0530
00000240: 8f9f 1a30 1212 0330 419e 0d30 685d 0030
00000250: 3880 1e30 a4f9 0030 acf1 0230 f105 1330
00000260: 1f77 0230 f403 da2f 8cc3 1a30 4b04 0730
00000270: 95fe 1430 42f3 ed2f 38a7 1d30 0930 0330
00000280: 4cac d52f 9104 1630 f00e 0630 bf73 1130
00000290: d1a0 fb2f abe3 fb2f 3eed 1b30 1c47 1030
000002a0: b56a c82f 6e26 992f b940 1030 878d 1d30
000002b0: c7fd cc2f 0134 f12f 42e0 1330 8829 1530
000002c0: 0f8b 1630 0fb2 c02f f3a1 0f30 d104 f92f
000002d0: d71e 0a30 2d76 f72f b11d 1830 d76c 0830
000002e0: 7296 fc2f 5c9d 1630 629d e82f 2e36 0030
000002f0: e194 e02f b5d9 0c30 2e8b c62f 5a57 0d30
00000300: 28a7 fe2f 22d5 aa2f f7b1 f62f 9808 0030
00000310: 6adc d62f 3108 db2f 3e22 0130 4ab5 e92f
00000320: 7088 1630 c137 b82f 4ff5 e32f 9dd9 0d30
00000330: dd00 0d30 6dd0 0b30 b84d 0030 fe3f f32f
00000340: bc3e 1530 8aec ec2f 7050 0c30 d6c2 0230
00000350: ffd9 1b30 ed06 f62f 1c2d 1130 a858 0b30
00000360: f112 f02f c1aa fa2f b751 1f30 bfde 1f30
00000370: 8058 fe2f ddb1 fb2f 6a2f 0c30 b031 e42f
00000380: a3ab 0030 2da9 0630 3f97 c22f f739 0a30
00000390: a6a8 f52f 0cab 0730 c789 fe2f 025b 0930
000003a0: 26da 1130 6f86 b12f c6a5 1d30 9756 1530
000003b0: 6d33 d92f 7045 1d30 ed3e ec2f 9f8f fa2f
000003c0: 875a 0f30 6d25 fe2f 6b56 0030 b181 0830
000003d0: 0453 1730 d7b1 af2f fe4d 0430 f96d f02f
000003e0: e3c0 1f30 e67b fe2f c497 0130 b272 0030
000003f0: 6299 0a30 1ebb 1b30 4aa1 1230 0fb1 f62f

exp_avg f4 [128]
1.4580317e-05 2.3498671e-05 2.5862622e-05 1.6850781e-05 -1.3770819e-05 1.648208e-05 1.25341e-05 -4.357259e-06
0.00011140286 2.532731e-05 2.168788e-05 -4.1793708e-08 -2.4286723e-05 -6.946357e-05 -4.4860585e-06 -6.00997e-06
-5.4846405e-05 -2.2964306e-05 -0.000118518554 -2.3961076e-05 3.109137e-05 -9.851002e-06 2.1206717e-05 -3.190639e-05
3.6276044e-05 8.7929875e-06 6.1520375e-05 -0.000114327166 -5.689228e-06 2.8001008e-05 4.065403e-05 -5.2695832e-05
-9.548032e-06 -1.4662591e-05 -7.476356e-05 -3.5607243e-06 -3.6528147e-06 2.2016095e-05 2.2395176e-05 -4.4045035e-05
-2.234696e-05 1.2129444e-05 6.683485e-06 -8.536389e-05 3.654176e-06 -2.7727926e-06 5.1623367e-05 0.00011438652
1.0783047e-05 -7.6608725e-05 1.8160155e-05 1.7403449e-05 -7.5011667e-06 2.3443474e-05 -4.600015e-06 -3.515124e-05
3.8656704e-06 -4.2250867e-06 3.3685053e-05 8.415364e-05 3.1086154e-05 0.0001101024 -1.4028659e-05 -2.963278e-05
6.214077e-05 -1.2013311e-05 -3.4462166e-05 -1.1178674e-06 2.7578622e-05 -3.1563e-05 2.817668e-05 1.1130119e-05
-3.0967356e-05 -1.8194394e-05 -3.291918e-05 -3.740729e-05 -1.0632761e-05 3.2140946e-05 -6.988505e-05 1.4907696e-06
-7.5968233e-06 1.7951741e-05 1.1053955e-05 -7.5841395e-05 -1.6432283e-05 -4.4438793e-06 -1.3819644e-06 6.372314e-05
9.14072e-06 3.6413398e-06 0.00014644011 4.9072543e-05 -5.8328176e-05 2.5401478e-05 3.199422e-05 2.847614e-05
-4.327678e-05 -3.3607328e-05 -2.4621248e-05 4.4723306e-06 8.107959e-07 -4.7233472e-05 4.8397305e-05 6.4496715e-05
-2.409877e-05 -4.079113e-05 9.0175374e-05 -3.2022293e-05 -5.3083426e-05 -2.773131e-05 -6.80304e-05 -7.063567e-06
-0.00010940097 2.0618795e-06 4.8738515e-05 -8.904362e-06 1.2645922e-05 -1.1131069e-05 -6.3381594e-05 -5.4658474e-05
-6.983099e-06 6.150535e-05 -8.85434e-05 -2.0610107e-05 -9.6193135e-06 -9.948219e-05 1.610642e-06 -5.787561e-06
00000000: fc9d 7437 031f c537 8ff3 d837 c75a 8d37
00000010: 3809 67b7 ff42 8a37 8d49 5237 9234 92b6
00000020: f4a0 e938 fc75 d437 5eee b537 ab80 33b3
00000030: 57bb cbb7 f8ac 91b8 f386 96b6 40a9 c9b6
00000040: e10a 66b8 79a3 c0b7 2a8d f8b8 0500 c9b7
00000050: 1b68 0238 bb45 25b7 14e5 b137 3ad3 05b8
00000060: 1b27 1838 9885 1337 8004 8138 eec2 efb8
00000070: 19e6 beb6 b5e3 ea37 ef83 2a38 b805 5db8
00000080: 7c30 20b7 59ff 75b7 61ca 9cb8 c7f4 6eb6
00000090: e122 75b6 34af b837 46dd bb37 ffbc 38b8
000000a0: bb75 bbb7 917f 4b37 b342 e036 6405 b3b8
000000b0: 443a 7536 3714 3ab6 2b86 5838 cce2 ef38
000000c0: d6e8 3437 ffa8 a0b8 a356 9837 9ffd 9137
000000d0: 88b2 fbb6 7aa8 c437 d459 9ab6 5b6f 13b8
000000e0: dbb5 8136 38c5 8db6 0d49 0d38 a47b b038
000000f0: 8162 0238 c7e6 e638 a25c 6bb7 e993 f8b7
00000100: 9251 8238 c78c 49b7 788b 10b8 a209 96b5
00000110: a458 e737 8362 04b8 f65c ec37 7fbb 3a37
00000120: f2e2 01b8 2aa0 98b7 b312 0ab8 c6e5 1cb8
00000130: 5c63 32b7 14cf 0638 408f 92b8 7416 c835
00000140: 37e8 feb6 1297 9637 6074 3937 0a0d 9fb8
00000150: 0fd8 89b7 a21c 95b6 ef7b b9b5 1aa3 8538
00000160: 185b 1937 be5d 7436 b88d 1939 3ed3 4d38
00000170: 67a5 74b8 4215 d537 8831 0638 0ce0 ee37
00000180: 1784 35b8 98f5 0cb8 ba89 ceb7 0711 9636
00000190: 78a5 5935 8e1c 46b8 36fe 4a38 6942 8738
000001a0: b727 cab7 2417 2bb8 891c bd38 ad4f 06b8
000001b0: e5a5 5eb8 89a0 e8b7 8bab 8eb8 9403 edb6
000001c0: 336e e5b8 d25e 0a36 956c 4c38 f263 15b7
000001d0: d229 5437 94bf 3ab7 bceb 84b8 1741 65b8
000001e0: 5d50 eab6 6ffc 8038 60b0 b9b8 dee3 acb7
000001f0: a362 21b7 18a1 d0b8 3d2d d835 c532 c2b6
