results/newValues/MoveToGoal/MoveToGoal-5128.pt (torch, 145223 bytes, 11 tensors)

network_body._body_endoder.seq_layers.0.weight f4 [128, 1]
000000 09 7e b8 3f f2 4d ee be 8e 41 ca 3e 2c 16 18 3e
       1.4413463 -0.46543843 0.3950314 0.14852208
000010 34 20 07 c0 86 d2 25 3e f4 b8 0d 3f 91 f4 15 bf
       -2.1113405 0.1619359 0.5536034 -0.58576304
000020 c8 79 9a 3f 04 92 d4 3d 63 e8 ee be 2c af b9 be
       1.2068415 0.10379413 -0.46661672 -0.36266458
000030 b5 d0 e7 be 99 90 b4 bf 2a 3c 43 bf 2a 74 a6 3f
       -0.45276418 -1.4106628 -0.7626368 1.30042
000040 eb a2 15 3f 9c 1f 82 bd d9 57 37 40 97 48 43 3f
       0.5845172 -0.06353685 2.8647368 0.7628264
000050 78 41 99 be 92 87 7b 3e c8 a8 aa bd c5 3e 80 bf
       -0.2993276 0.24563435 -0.08332974 -1.0019156
000060 3d 1a f0 be 6a 7b e0 be 4a 66 52 bf ff 17 51 3f
       -0.46895018 -0.43844157 -0.8218733 0.8167724
000070 c0 d0 f7 bf 11 81 be 3e 57 54 5e 3f 39 6a 11 3f
       -1.936058 0.37207845 0.8684744 0.5680271
000080 18 e1 4e bf cc f2 69 3f 46 8d 7c bf 25 6f 98 bf
       -0.80812216 0.91386104 -0.98653066 -1.1908919
000090 5a f8 9d bd bf e2 19 3f 00 2e f3 3e b0 f5 78 bf
       -0.07713385 0.6011161 0.47496033 -0.9724989
0000a0 62 f9 0f 3f a2 cf a8 3f 25 82 61 be 4a 35 34 3d
       0.562399 1.3188365 -0.22022302 0.043996133
0000b0 b9 b2 e1 bf eb 53 37 bf 69 69 94 bf c8 95 11 c0
       -1.7632667 -0.71612424 -1.1594669 -2.274767
0000c0 8e 51 03 40 38 8f b0 bf 51 fc 3b c0 96 69 83 bf
       2.0518527 -1.3793707 -2.9372752 -1.0266597
0000d0 c9 41 d3 3e 67 66 ca 3f d0 cf c6 3d 38 4f 53 be
       0.41261128 1.5812501 0.09707606 -0.20635688
0000e0 24 5e 7e bf 06 55 e3 3e 5e da 95 3f c2 13 dc bf
       -0.993624 0.44400805 1.1707265 -1.719353
0000f0 c6 85 34 3f e4 b7 1f 3f 12 7c fd 3f 26 c9 16 bf
       0.7051662 0.6238997 1.9803488 -0.5890068
000100 08 a2 87 bf 3a 1f 55 be ba 2e 9d bf e9 03 b2 be
       -1.0596323 -0.20812693 -1.2279885 -0.34768608
000110 85 46 24 3f 55 f0 85 3e 2a a4 09 3f f5 24 52 bf
       0.64170104 0.2615992 0.5376612 -0.8208764
000120 1e 97 c3 bf b3 d7 d4 bd 15 64 c0 3e b2 09 08 3d
       -1.5280492 -0.10392704 0.37576357 0.03321237
000130 20 6f 3c 3f 5f 18 41 3f db 18 fd 3f 60 46 07 bf
       0.73607063 0.7542781 1.977321 -0.5284176
000140 fb af 38 3e 72 da e8 3e 60 32 d9 bc 12 29 da 3f
       0.18035881 0.4547916 -0.026513278 1.7043784
000150 a8 c6 aa bf bd 22 8a be 95 a1 a5 3d 2c 21 ad be
       -1.3341875 -0.26979628 0.0808746 -0.3381437
000160 73 59 c5 3d df 4a dd bd 4d c1 df bd 39 85 88 be
       0.09636202 -0.10805296 -0.10925541 -0.2666414
000170 67 9c 48 3f e6 fb 7a 3f a2 41 8d bf 72 d5 03 bc
       0.7836365 0.98040617 -1.1035655 -0.008046495
000180 2b 27 8d be 08 74 25 bf 7f 2d 01 3f ff 0f c8 be
       -0.27568945 -0.64630175 0.50460047 -0.39074704
000190 bd 4a af 3f af df 0c bf 1d 5c bb 3e f0 5d 2f be
       1.3694683 -0.55028814 0.36593714 -0.17125678
0001a0 fc 75 0b bd 18 a7 b7 bf 9b 98 85 3d 86 94 8b be
       -0.034048066 -1.4347868 0.06523248 -0.27261752
0001b0 42 1b dc 3e d2 85 23 bf 9e 31 ae 3d 98 44 e5 be
       0.42989546 -0.6387607 0.085055575 -0.44778895
0001c0 d9 17 93 3e ef 3c 02 bf d2 8c ac bf 65 08 91 be
       0.28729132 -0.5087423 -1.3480475 -0.28326717
0001d0 43 53 e4 bf 23 e8 44 bf aa 28 ad bf ac 47 d7 bf
       -1.783791 -0.7691671 -1.3528035 -1.6818748
0001e0 7c 89 83 3f 76 ab 1c 3f 49 c1 08 3e 22 ad ee be
       1.0276332 0.6119913 0.13354982 -0.46616465
0001f0 bb f4 ae bf d5 18 4d bf b5 af 2f bf e5 2c 09 be
       -1.3668436 -0.80116016 -0.6862748 -0.13396032

network_body._body_endoder.seq_layers.0.bias f4 [128]
000000 00 00 00 00 00 00 00 00 00 00 00 00 00 00 00 00
       0.0 0.0 0.0 0.0
000010 00 00 00 00 00 00 00 00 00 00 00 00 00 00 00 00
       0.0 0.0 0.0 0.0
000020 00 00 00 00 00 00 00 00 00 00 00 00 00 00 00 00
       0.0 0.0 0.0 0.0
000030 00 00 00 00 00 00 00 00 00 00 00 00 00 00 00 00
       0.0 0.0 0.0 0.0
000040 00 00 00 00 00 00 00 00 00 00 00 00 00 00 00 00
       0.0 0.0 0.0 0.0
000050 00 00 00 00 00 00 00 00 00 00 00 00 00 00 00 00
       0.0 0.0 0.0 0.0
000060 00 00 00 00 00 00 00 00 00 00 00 00 00 00 00 00
       0.0 0.0 0.0 0.0
000070 00 00 00 00 00 00 00 00 00 00 00 00 00 00 00 00
       0.0 0.0 0.0 0.0
000080 00 00 00 00 00 00 00 00 00 00 00 00 00 00 00 00
       0.0 0.0 0.0 0.0
000090 00 00 00 00 00 00 00 00 00 00 00 00 00 00 00 00
       0.0 0.0 0.0 0.0
0000a0 00 00 00 00 00 00 00 00 00 00 00 00 00 00 00 00
       0.0 0.0 0.0 0.0
0000b0 00 00 00 00 00 00 00 00 00 00 00 00 00 00 00 00
       0.0 0.0 0.0 0.0
0000c0 00 00 00 00 00 00 00 00 00 00 00 00 00 00 00 00
       0.0 0.0 0.0 0.0
0000d0 00 00 00 00 00 00 00 00 00 00 00 00 00 00 00 00
       0.0 0.0 0.0 0.0
0000e0 00 00 00 00 00 00 00 00 00 00 00 00 00 00 00 00
       0.0 0.0 0.0 0.0
0000f0 00 00 00 00 00 00 00 00 00 00 00 00 00 00 00 00
       0.0 0.0 0.0 0.0
000100 00 00 00 00 00 00 00 00 00 00 00 00 00 00 00 00
       0.0 0.0 0.0 0.0
000110 00 00 00 00 00 00 00 00 00 00 00 00 00 00 00 00
       0.0 0.0 0.0 0.0
000120 00 00 00 00 00 00 00 00 00 00 00 00 00 00 00 00
       0.0 0.0 0.0 0.0
000130 00 00 00 00 00 00 00 00 00 00 00 00 00 00 00 00
       0.0 0.0 0.0 0.0
000140 00 00 00 00 00 00 00 00 00 00 00 00 00 00 00 00
       0.0 0.0 0.0 0.0
000150 00 00 00 00 00 00 00 00 00 00 00 00 00 00 00 00
       0.0 0.0 0.0 0.0
000160 00 00 00 00 00 00 00 00 00 00 00 00 00 00 00 00
       0.0 0.0 0.0 0.0
000170 00 00 00 00 00 00 00 00 00 00 00 00 00 00 00 00
       0.0 0.0 0.0 0.0
000180 00 00 00 00 00 00 00 00 00 00 00 00 00 00 00 00
       0.0 0.0 0.0 0.0
000190 00 00 00 00 00 00 00 00 00 00 00 00 00 00 00 00
       0.0 0.0 0.0 0.0
0001a0 00 00 00 00 00 00 00 00 00 00 00 00 00 00 00 00
       0.0 0.0 0.0 0.0
0001b0 00 00 00 00 00 00 00 00 00 00 00 00 00 00 00 00
       0.0 0.0 0.0 0.0
0001c0 00 00 00 00 00 00 00 00 00 00 00 00 00 00 00 00
       0.0 0.0 0.0 0.0
0001d0 00 00 00 00 00 00 00 00 00 00 00 00 00 00 00 00
       0.0 0.0 0.0 0.0
0001e0 00 00 00 00 00 00 00 00 00 00 00 00 00 00 00 00
       0.0 0.0 0.0 0.0
0001f0 00 00 00 00 00 00 00 00 00 00 00 00 00 00 00 00
       0.0 0.0 0.0 0.0

network_body._body_endoder.seq_layers.2.weight f4 [128, 128]
000000 8c 89 90 3c f9 bb 23 bd 7c 18 35 3d ce 75 df ba
       0.017643712 -0.039974187 0.044212803 -0.0017048658
000010 c8 2a 7e bd e6 1e fb bc f3 e9 93 3d 0c 0f 5b bc
       -0.062052518 -0.030654382 0.07222357 -0.013370287
000020 41 62 46 be f5 a8 c6 3d 8e 49 0a be 76 53 0b 3d
       -0.19373418 0.09700195 -0.13504621 0.03401514
000030 b1 55 19 3e c8 e8 f3 3b cd 72 be 3c 0b 2b b2 bc
       0.14974095 0.007443521 0.0232481 -0.02174904
000040 0c d5 21 3d 10 61 89 3d b8 a9 78 3c 29 57 16 bd
       0.039509818 0.06707966 0.015177183 -0.036704216
000050 2b 50 85 3d d7 07 9f bd 26 55 8d 3d af 88 c4 bc
       0.065094315 -0.07765167 0.069010064 -0.023990957
000060 eb e4 8f bd da 62 5a be 44 94 1c 3c 64 f9 3f be
       -0.070260845 -0.21326771 0.009556834 -0.18747479
000070 ec c1 58 bd de de 29 be 48 cc e2 3d 18 d1 4d 3a
       -0.052919313 -0.16588923 0.1107412 0.0007851287
000080 80 77 0b bd f9 4b d0 bd 04 a7 9f bd 92 8d ce bd
       -0.03404951 -0.10170741 -0.077955276 -0.10085596
000090 34 7f 2b bd f4 c8 76 bc 36 10 0d bd 19 57 4f 3d
       -0.041869357 -0.015062559 -0.034439288 0.050620172
0000a0 89 f0 ea bd 32 48 5a be fd aa d1 3d db 79 ca bd
       -0.1147166 -0.21316603 0.102376916 -0.09886523
0000b0 2a c0 d2 bc c2 fd af 3c 79 3b 0d bd 96 c6 9f bd
       -0.025726397 0.021483306 -0.034480546 -0.07801549
0000c0 85 98 9d bd 0e 5d c2 3d 08 73 4e bd b0 3b fd 3d
       -0.076951064 0.09490405 -0.05040267 0.123649
0000d0 3f 81 cb bd 33 8e b2 3d 7d ce 7c bd 23 4c c1 bc
       -0.09936761 0.087185286 -0.06172036 -0.023595875
0000e0 43 47 df bc 43 1a 1b 3e bc 3c ab bc c5 d1 a2 bd
       -0.02725566 0.15146737 -0.020902984 -0.079501666
0000f0 24 c1 b4 3d d5 d4 ac bd 49 03 0b 3e 32 0c da bb
       0.08825901 -0.08439032 0.13575472 -0.006654286
000100 30 fa 89 3d d4 7a 99 bd db 24 79 bd 9f e7 22 3d
       0.067371726 -0.07494131 -0.060826164 0.039771672
000110 e7 84 89 3c 4d 3a ec bd a8 06 ad 3d d0 bd 4b 3b
       0.016787006 -0.115345575 0.08448535 0.003108848
000120 4f f1 db 3d e2 98 2b 3b 7e 21 b7 3d 94 14 92 be
       0.10739385 0.0026183655 0.08941935 -0.28531325
000130 90 ba 43 3a 3a 66 39 bd 81 22 ac 3d a5 cd 67 bd
       0.00074664596 -0.045263506 0.084050186 -0.056592602
000140 5c 57 37 3e 59 da a4 bc a2 05 c1 bd b0 9e d5 bd
       0.17904419 -0.020123648 -0.094249025 -0.10430658
000150 e3 ec 88 bd 88 df 43 3d 23 6b b5 bd 49 3c f5 bd
       -0.066858076 0.047820598 -0.08858325 -0.11974389
000160 40 00 c3 bc be 0b 05 3c 05 1b be bd 2b 73 c5 bc
       -0.02380383 0.008120475 -0.09282497 -0.024102768
000170 b3 82 c9 bd 73 11 b3 3d d7 7c 1d 3d 2b b3 5a 3d
       -0.09839382 0.087435625 0.038449135 0.053393524
000180 9a 83 01 bd b9 4d e0 bd 07 43 9a bc 5a 6d 24 3e
       -0.031619646 -0.109523244 -0.01883079 0.1605734
000190 8a 13 1c be 96 6d 79 3d ae 01 0a 3d 35 94 87 bd
       -0.15241829 0.060895525 0.033693008 -0.06620065
0001a0 45 89 ec bd c2 1a 2a be 49 4a dd 3d 2c 4c 3f 3e
       -0.115496196 -0.1661177 0.108051844 0.18681401
0001b0 ac 90 bb 3b 06 31 3e 3d ab ca 5f 3d 63 a8 87 bd
       0.0057240333 0.04643347 0.05463664 -0.06623914
0001c0 f0 d4 43 3d 3f e3 9c bd 3e e0 e9 3d f0 0b a0 bd
       0.047810495 -0.07660531 0.11419724 -0.07814777
0001d0 e8 a7 60 3e 5b 73 40 3d b0 d9 c9 bd 43 1f f0 3c
       0.21939051 0.04698501 -0.09855974 0.029311782
0001e0 ab 31 9f 3c 32 60 07 be 1b b5 87 bd c1 de 26 be
       0.019432863 -0.1322029 -0.0662634 -0.16295911
0001f0 7a 79 44 be f1 ee 1a 3d 74 e9 34 ba 09 0b 92 3d
       -0.19186965 0.03782553 -0.00069012423 0.07131011
000200 91 ed 76 bc 3a 9c 89 bd 5e 64 e4 bc 78 80 55 3d
       -0.015071289 -0.06719251 -0.02787989 0.05212447
000210 0e aa 2b 3d 84 78 82 bd a2 6b dd 3d 3e 9b b4 bd
       0.041910224 -0.06370643 0.10811545 -0.088186726
000220 e2 fb d7 bd 71 82 fe bc dc a2 23 3d 4d 1b 05 3e
       -0.1054609 -0.031068059 0.039950237 0.12998696
000230 d4 05 d2 3c c5 6e 1a 3a 83 7b 4c 3c e4 25 45 3e
       0.025637545 0.000589114 0.012480619 0.19252735
000240 8e c9 87 3c 73 ac 9d bc f2 f0 a4 bd c6 e3 6b be
       0.016575601 -0.01924727 -0.08053769 -0.23036107
000250 d1 b6 ad 3d 12 74 de 3d 51 7a c5 bd ab 9b 91 3b
       0.08482135 0.108619824 -0.09642471 0.004443606
000260 5f 47 f9 3a 94 81 0e be 81 30 a9 bd 6f 3d 03 3e
       0.0019018463 -0.13916618 -0.082612045 0.12816404
000270 c5 a7 e5 3b b2 97 f4 3d d2 67 ea 3d 4b 35 f0 3d
       0.007008525 0.11942996 0.114455834 0.11728915
000280 ae b0 08 3d c6 cf bb 3c 93 95 00 3d 4d f6 fa 3c
       0.03337162 0.022926223 0.031392645 0.030635023
000290 1a 38 ac 3b 9a 63 69 bd 8e cd bc bd c1 20 ca 3d
       0.0052557113 -0.056979753 -0.09218894 0.098695286
0002a0 86 67 14 be e2 7f 54 3d 64 81 fa bd 33 f1 a1 bd
       -0.14492616 0.05187977 -0.122317106 -0.07907333
0002b0 e5 5c c2 3c 7c 4a a0 bd 33 42 0e bc 3b d0 2b bd
       0.023725936 -0.07826707 -0.008682775 -0.04194663
0002c0 04 bb bf bd 03 47 06 bd 5e f0 8c 3c 73 20 ed 3d
       -0.09361842 -0.032782566 0.01720446 0.11578455
0002d0 f6 c9 48 3d e1 97 90 bc 92 bf 32 3d 4f e3 a7 bc
       0.04902073 -0.017650547 0.043639727 -0.020494131
0002e0 01 43 9e 3c 4d fe 01 3d c8 36 0c 3e 57 0f 98 3d
       0.01931906 0.03173666 0.13692772 0.07424801
0002f0 16 3e b9 bd d0 1f 23 3b 1e 72 c1 3a 9d 43 00 be
       -0.09045045 0.0024890788 0.0014758741 -0.12525792
000300 87 11 db bc db 25 5a 3d 20 ee cb bd 40 2a 3c be
       -0.026741756 0.053258758 -0.09957528 -0.18375492
000310 a7 d7 3f bd 6b 66 d4 bc b2 76 a5 bd aa a1 9a 3c
       -0.04683652 -0.025927743 -0.0807928 0.018875916
000320 ce 15 2f bd ba 73 74 3e e5 30 3a 3d ae 4a 01 bc
       -0.042745404 0.23872271 0.045456786 -0.00789134
000330 3b 78 05 ba 11 c7 87 3d 61 47 32 bd db 0d fa bc
       -0.0005091463 0.06629766 -0.043525103 -0.030524185
000340 5c c2 1e bd be 72 a1 bd 88 65 80 3b 58 84 75 bc
       -0.038759574 -0.078832135 0.0039183535 -0.0149851665
000350 d1 04 8b 3d 03 be b7 3c a3 89 08 3e db 60 84 3d
       0.06788028 0.022429472 0.13333754 0.06463786
000360 af c1 da bd 5b 58 a9 bd 92 16 01 3e 90 82 9c bc
       -0.106814735 -0.082688056 0.12606266 -0.019105226
000370 48 f6 de 3d 74 db ec bc 6c f8 12 be 21 59 7a bd
       0.10886818 -0.028913237 -0.14352578 -0.061120156
000380 a7 3c 76 3d fb cc 9e 3c 8b 7f af 3d 75 58 11 be
       0.060116436 0.019384852 0.08569249 -0.141939
000390 4d 24 e2 3c ba 03 28 be 2f 57 d9 3d aa 9d 64 3d
       0.0276052 -0.16407672 0.10612332 0.055814423
0003a0 6e 42 39 3d 91 bb 06 3d 5b 3d 94 3b 39 7a 8a bd
       0.045229368 0.03289372 0.0045239157 -0.06761593
0003b0 dc 86 fe bd fe 94 69 bd 71 1b 25 3d 93 8f da 3c
       -0.12428066 -0.057026856 0.040309373 0.02667979
0003c0 9b 31 99 3d ba 59 b5 bc ea 28 fc bd d9 37 2a 3d
       0.074801646 -0.022137512 -0.12312491 0.041557167
0003d0 04 74 ce bd e2 d2 1e bd 75 96 ed 3a ae b1 c6 bd
       -0.10080722 -0.038775332 0.0018126505 -0.097018585
0003e0 45 f4 40 be af fd 36 3d 6b 42 04 3e a4 b2 08 bc
       -0.18843181 0.044675525 0.12915961 -0.0083433725
0003f0 7e 58 d6 3d cc 18 45 3d 30 93 6d bd 5f f8 4b 3e
       0.10466097 0.04811935 -0.058001697 0.19918965

network_body._body_endoder.seq_layers.2.bias f4 [128]
000000 00 00 00 00 00 00 00 00 00 00 00 00 00 00 00 00
       0.0 0.0 0.0 0.0
000010 00 00 00 00 00 00 00 00 00 00 00 00 00 00 00 00
       0.0 0.0 0.0 0.0
000020 00 00 00 00 00 00 00 00 00 00 00 00 00 00 00 00
       0.0 0.0 0.0 0.0
000030 00 00 00 00 00 00 00 00 00 00 00 00 00 00 00 00
       0.0 0.0 0.0 0.0
000040 00 00 00 00 00 00 00 00 00 00 00 00 00 00 00 00
       0.0 0.0 0.0 0.0
000050 00 00 00 00 00 00 00 00 00 00 00 00 00 00 00 00
       0.0 0.0 0.0 0.0
000060 00 00 00 00 00 00 00 00 00 00 00 00 00 00 00 00
       0.0 0.0 0.0 0.0
000070 00 00 00 00 00 00 00 00 00 00 00 00 00 00 00 00
       0.0 0.0 0.0 0.0
000080 00 00 00 00 00 00 00 00 00 00 00 00 00 00 00 00
       0.0 0.0 0.0 0.0
000090 00 00 00 00 00 00 00 00 00 00 00 00 00 00 00 00
       0.0 0.0 0.0 0.0
0000a0 00 00 00 00 00 00 00 00 00 00 00 00 00 00 00 00
       0.0 0.0 0.0 0.0
0000b0 00 00 00 00 00 00 00 00 00 00 00 00 00 00 00 00
       0.0 0.0 0.0 0.0
0000c0 00 00 00 00 00 00 00 00 00 00 00 00 00 00 00 00
       0.0 0.0 0.0 0.0
0000d0 00 00 00 00 00 00 00 00 00 00 00 00 00 00 00 00
       0.0 0.0 0.0 0.0
0000e0 00 00 00 00 00 00 00 00 00 00 00 00 00 00 00 00
       0.0 0.0 0.0 0.0
0000f0 00 00 00 00 00 00 00 00 00 00 00 00 00 00 00 00
       0.0 0.0 0.0 0.0
000100 00 00 00 00 00 00 00 00 00 00 00 00 00 00 00 00
       0.0 0.0 0.0 0.0
000110 00 00 00 00 00 00 00 00 00 00 00 00 00 00 00 00
       0.0 0.0 0.0 0.0
000120 00 00 00 00 00 00 00 00 00 00 00 00 00 00 00 00
       0.0 0.0 0.0 0.0
000130 00 00 00 00 00 00 00 00 00 00 00 00 00 00 00 00
       0.0 0.0 0.0 0.0
000140 00 00 00 00 00 00 00 00 00 00 00 00 00 00 00 00
       0.0 0.0 0.0 0.0
000150 00 00 00 00 00 00 00 00 00 00 00 00 00 00 00 00
       0.0 0.0 0.0 0.0
000160 00 00 00 00 00 00 00 00 00 00 00 00 00 00 00 00
       0.0 0.0 0.0 0.0
000170 00 00 00 00 00 00 00 00 00 00 00 00 00 00 00 00
       0.0 0.0 0.0 0.0
000180 00 00 00 00 00 00 00 00 00 00 00 00 00 00 00 00
       0.0 0.0 0.0 0.0
000190 00 00 00 00 00 00 00 00 00 00 00 00 00 00 00 00
       0.0 0.0 0.0 0.0
0001a0 00 00 00 00 00 00 00 00 00 00 00 00 00 00 00 00
       0.0 0.0 0.0 0.0
0001b0 00 00 00 00 00 00 00 00 00 00 00 00 00 00 00 00
       0.0 0.0 0.0 0.0
0001c0 00 00 00 00 00 00 00 00 00 00 00 00 00 00 00 00
       0.0 0.0 0.0 0.0
0001d0 00 00 00 00 00 00 00 00 00 00 00 00 00 00 00 00
       0.0 0.0 0.0 0.0
0001e0 00 00 00 00 00 00 00 00 00 00 00 00 00 00 00 00
       0.0 0.0 0.0 0.0
0001f0 00 00 00 00 00 00 00 00 00 00 00 00 00 00 00 00
       0.0 0.0 0.0 0.0

action_model._discrete_distribution.branches.0.weight f4 [4, 128]
000000 c0 56 0f bc 48 ef 8e bb 8d 50 a9 bb f6 14 35 bc
       -0.00874871 -0.0043620206 -0.005167073 -0.011052361
000010 66 53 00 bb 0b 74 7c 3c 93 c1 2f 3c af ea ab bb
       -0.001958096 0.015408526 0.010727304 -0.0052464823
000020 71 cb 11 3a 02 35 00 3c a8 cd 63 bc d8 1e 76 ba
       0.0005561626 0.007825138 -0.013904013 -0.00093887514
000030 1b 1d 9f bc 47 04 80 3b 9f 01 03 3b 8f a1 54 bc
       -0.019423058 0.00390676 0.001998998 -0.012977972
000040 ae 8a b9 3b 8b 33 99 bb d3 33 50 bc e3 6a f7 bb
       0.005662284 -0.004675334 -0.012707668 -0.0075505837
000050 17 ae f6 3b 39 58 13 3c f8 d0 c9 bb 4e 34 99 3b
       0.0075280773 0.008993202 -0.006158944 0.0046754247
000060 11 42 2b ba 85 d0 db ba f6 0d 08 3b 1f 8d 81 ba
       -0.0006532977 -0.0016770518 0.0020760274 -0.0009883976
000070 67 6d 8c bb 07 f1 62 3a fb 63 1d 3c 47 30 c9 bb
       -0.0042855027 0.00086571317 0.009606357 -0.0061397883
000080 27 5a 81 3b a8 a2 ed bb 73 81 45 bb af cb 26 bc
       0.0039475146 -0.007252056 -0.0030136972 -0.010180398
000090 04 ab 81 bb de 17 43 3c 3c a6 a7 ba 70 3d 17 3b
       -0.003957154 0.011907546 -0.001279063 0.002307739
0000a0 18 04 99 bb 40 0b fd 3a 7b a4 ad ba 07 3a b7 3b
       -0.0046696775 0.0019305721 -0.0013247872 0.005591634
0000b0 3f ee a2 bb ad cb e9 3b 60 dc 51 bc b9 13 06 bb
       -0.004972249 0.0071348757 -0.012808889 -0.0020458533
0000c0 56 6d ac 3b ab ee 01 bb 45 58 c1 3a 75 05 28 3b
       0.0052620573 -0.0019826095 0.0014751038 0.0025638018
0000d0 a4 15 00 bb 01 bc 03 bb 88 8b 8d bb 35 d5 f9 ba
       -0.0019544149 -0.0020101073 -0.004319612 -0.0019060733
0000e0 15 3e fa ba bc 12 23 3c 6b 4d 7d 3b a4 34 82 3c
       -0.0019091988 0.009953197 0.003865088 0.015894242
0000f0 69 25 a0 bc 07 93 4f 3c 51 41 b3 3b 93 b8 84 3b
       -0.019549089 0.012669331 0.005470433 0.0040503233
000100 b0 28 7d bb 0d ec 24 bc c9 0a 80 3c c6 76 33 3c
       -0.0038628988 -0.0100660445 0.015630143 0.010953611
000110 28 de 89 3b 68 0d ae 3b bf 74 59 3c 41 b7 98 3c
       0.0042073913 0.0053116567 0.013272463 0.01864207
000120 9a d3 60 3c 07 fd ba bb 4f f0 f8 3a 4b 84 29 bc
       0.013722325 -0.0057064327 0.0018992516 -0.0103464825
000130 ef 52 ec ba 1e 55 b3 ba 1f 73 3f bc 27 5e 37 bc
       -0.0018030087 -0.0013681983 -0.011685162 -0.011191881
000140 93 e2 35 3b 33 bb 13 bc 5b 78 91 bb e2 aa c8 bb
       0.0027753457 -0.0090168 -0.0044393963 -0.0061238864
000150 7f 5a a4 3a 03 3c c3 bb f4 fb 42 3b 75 ce e6 ba
       0.0012539177 -0.0059580817 0.0029752227 -0.0017609136
000160 3f 02 bb bb 90 c4 4e bc 28 e9 4c bc a2 8f 15 bc
       -0.005707055 -0.012620106 -0.012506761 -0.009128483
000170 ef 8a a2 3b bb a2 41 bc 7d b2 a9 39 05 0c 12 3c
       0.00496041 -0.011818583 0.00032367176 0.0089139985
000180 51 03 c3 3b 37 09 f5 3b 14 bf 3a 3b 63 8b c7 3a
       0.005951323 0.007477905 0.002849524 0.0015224036
000190 a7 4f 3c bb cb 80 30 3c 10 74 f9 bb b0 7c 7f 3a
       -0.0028734 0.010772894 -0.0076127127 0.0009746058
0001a0 41 77 49 3c f6 42 02 3c 05 31 3b bb 41 7d 08 3b
       0.012296499 0.007950535 -0.0028563153 0.002082661
0001b0 c8 8c 49 3c bb 69 43 bb 74 cc b7 3b 41 2d 2d 3c
       0.012301631 -0.002981766 0.0056090895 0.010569871
0001c0 5b e4 8c bb 7a 45 9e 39 cd e9 21 3c 98 e5 63 ba
       -0.004299683 0.00030187872 0.009882403 -0.0008693575
0001d0 3a e5 81 3c 93 f9 17 bc d7 cb 19 bb f3 02 a1 bc
       0.015856374 -0.009275812 -0.0023467445 -0.019654727
0001e0 aa 2e 69 3c 23 69 a8 bc e8 e2 86 bc 5b ba 6e bb
       0.014232317 -0.020557946 -0.01646562 -0.0036426994
0001f0 ab 75 5d bb 3a 49 40 3b 70 8b 53 bb f7 7b 29 3c
       -0.003379206 0.0029340521 -0.0032279156 0.010344497
000200 93 98 08 3c ef cc fc 39 6f b2 0e 3c c0 0b 1c bc
       0.008337158 0.00048217873 0.008709534 -0.009524286
000210 e3 7b 54 3c 23 3f 74 bb 68 7d be b7 f1 44 ad 3b
       0.01296899 -0.0037269078 -2.2708162e-05 0.0052877595
000220 07 31 e7 3b 4d 66 8f bb cc ba 0d bb e5 d1 26 36
       0.007055405 -0.004376209 -0.0021626232 2.4858102e-06
000230 d5 16 71 3c 1b d6 16 39 90 dc 26 3c 75 ee d7 3b
       0.014714916 0.00014384875 0.010184422 0.0065897056
000240 21 74 2f 3c 40 5d 1f 3c 92 cc 6a 3b ab f4 ea 3b
       0.01070884 0.009726822 0.00358275 0.00717028
000250 4b e8 d4 bb 8b b5 06 3b 7c 27 2d bc f7 49 71 bc
       -0.006497418 0.0020554985 -0.010568496 -0.014727107
000260 a3 52 c5 ba 37 13 9a 3c eb 5d 0c bc b8 14 ca ba
       -0.0015054535 0.01880799 -0.008567314 -0.0015417552
000270 34 28 84 ba 9a 31 a3 3c 3d 4b ad 3b 83 7c 94 ba
       -0.0010082782 0.019921113 0.00528851 -0.0011328611
000280 08 7d da bb 4d 9d 19 bb 17 5d 2b 3c 46 bd 19 3b
       -0.006667737 -0.0023439706 0.010459206 0.0023458763
000290 b8 8e ef bb 12 d9 c4 bb fb 55 52 3b 9c cf a2 3b
       -0.0073107146 -0.006007322 0.0032094705 0.0049685966
0002a0 4f 9f 81 bb a4 1d 33 3a 16 02 aa bb 13 f1 c9 3b
       -0.0039557586 0.0006832725 -0.005188237 0.0061627715
0002b0 a5 77 fc 3b 07 d0 39 3b a0 fa f7 bb 35 5f 6d ba
       0.0077046924 0.0028352754 -0.0075677186 -0.00090550195
0002c0 02 fd e2 bb 84 51 2a bb f9 91 1d 3c d7 7e 87 bb
       -0.0069271335 -0.0025988529 0.009617322 -0.0041349935
0002d0 b3 2e 38 3c 15 f8 60 bc 90 91 74 3c d9 7c 2c bb
       0.011241603 -0.013731022 0.014927283 -0.0026319532
0002e0 90 01 4e 3c c7 21 a9 bb b2 91 f0 ba 1b 88 b1 3c
       0.012573615 -0.0051614973 -0.0018353967 0.021671345
0002f0 53 57 d4 3b 7a b7 bb 3c 68 6c 2d 3a 6f 81 b6 3b
       0.0064801364 0.022914637 0.000661558 0.005569629
000300 15 15 29 bb b7 6b a0 3a fc aa 42 3c 80 65 73 3b
       -0.002579992 0.0012239133 0.011881586 0.0037139356
000310 db 06 b4 bb ea 2b c2 3b 1d 72 6e 3c 08 3d f8 3a
       -0.0054939813 0.005925645 0.014553574 0.0018939087
000320 e2 45 82 ba 43 bd a3 bb 8a a8 64 3b 46 a2 ba 39
       -0.000993904 -0.004996927 0.0034890496 0.00035597588
000330 67 bf dc 3b 0a f5 2b 3c 13 42 0f 3a 1b bd 44 3c
       0.006736684 0.010495434 0.0005464863 0.012007977
000340 50 8d 88 bb 1d 8c 61 3c 8c d6 47 ba 23 02 9a bb
       -0.0041672364 0.013766316 -0.00076232175 -0.0046999617
000350 2d 0a 55 3c 16 57 0b bc ff c0 8d 3b 98 1b 40 3c
       0.013002914 -0.00850465 0.0043259854 0.011725329
000360 bb 89 9c ba 8d 02 81 3c 7d 14 63 3b bb d1 96 3c
       -0.0011942902 0.015748287 0.0034649663 0.018410554
000370 c0 b2 92 bb bf 57 49 bb 6c e1 a5 3b a5 56 ec ba
       -0.004476875 -0.0030722467 0.005062273 -0.0018031193
000380 c7 1d f3 3b bf 7a 9c b9 5a d7 08 3b 87 9b 24 3c
       0.007419321 -0.00029846092 0.0020880313 0.010046846
000390 77 3f ac 3b 53 ad 6b ba e7 d7 b8 3a e4 b3 13 3c
       0.005256589 -0.0008990366 0.001410243 0.009015057
0003a0 c7 1f 41 3c cc 34 11 3c 87 0b 94 3c b2 9e a9 bc
       0.011787361 0.008862685 0.018071903 -0.020705555
0003b0 48 a7 fc ba 03 c8 a4 bb ab 0f 26 3c 71 0d 9a bb
       -0.0019275928 -0.005028726 0.0101355715 -0.0047013094
0003c0 a7 67 c9 3b b2 8a 27 bc d0 30 e0 3b 0d 4d 98 bb
       0.0061463895 -0.010225939 0.0068417564 -0.004647857
0003d0 66 ee 3e bc ac 5a 8a 3c 6d 1b 83 3c c7 d8 a7 3b
       -0.011653518 0.016888939 0.016004289 0.0051222774
0003e0 d4 5e 87 3c 6f 0e 1b bc 0c 3e 36 bc b2 33 10 bc
       0.01652471 -0.00946389 -0.011123192 -0.008801388
0003f0 c3 ab 40 3b 8f 4d a5 3c e0 5e 9b bb b6 bc 8e 3b
       0.0029399253 0.020178584 -0.0047415346 0.004355992

action_model._discrete_distribution.branches.0.bias f4 [4]
000000 00 00 00 00 00 00 00 00 00 00 00 00 00 00 00 00
       0.0 0.0 0.0 0.0

network_body._body_endoder.seq_layers.0.weight f4 [128, 1]
000000 10 ce af bf df d7 8d 3f 88 73 c2 3f 7f 4e d9 3f
       -1.373476 1.1081504 1.5191507 1.697708
000010 6f 5d 14 c0 87 f9 cc be 96 b5 0c 40 cc 75 76 be
       -2.3182027 -0.40034124 2.1985831 -0.24068373
000020 98 6e 29 be eb 00 02 3f 0e 82 3c 3c 62 c9 38 3f
       -0.16546094 0.5078265 0.011505617 0.72182286
000030 42 35 06 bf ea 6e a4 be a3 2d 2a bf 6e 89 2f bf
       -0.52425015 -0.3211587 -0.66475886 -0.68569076
000040 d4 37 56 3f db fd a5 3e be b1 9c bf 01 b7 a9 3c
       0.83678937 0.3242024 -1.2241743 0.020717146
000050 db ea 1f 3e 1c b8 9f bf 15 5b dd 3f d2 cc d2 3d
       0.15616934 -1.2478061 1.7293421 0.102929726
000060 e1 50 a7 bf 18 ec 00 be dc bf 8f 3f 27 52 ab be
       -1.3071557 -0.12590063 1.1230426 -0.33461115
000070 f7 8c 68 be ea da e8 bd 32 62 e3 3e d7 50 85 bf
       -0.22710024 -0.113698795 0.44410855 -1.0415295
000080 d0 26 53 3e 1f 38 56 be 50 cb 84 3e e0 65 16 c0
       0.20620275 -0.20919846 0.25936365 -2.349968
000090 a4 a8 e4 bf a5 8e a2 bf ee 18 08 3f e0 18 be be
       -1.7863965 -1.2699782 0.5316304 -0.37128353
0000a0 80 11 f8 3e b8 3a 0d be 88 ac ed 3d 88 aa 8e bf
       0.4845085 -0.1379193 0.11605173 -1.1145792
0000b0 94 0e c7 be 3f a0 9b 3e e6 37 1a 3f 58 79 ab bf
       -0.3887831 0.30395696 0.60241544 -1.3396406
0000c0 97 2f a5 be 2a c6 93 3f b5 5a 5a be e1 01 b1 3f
       -0.3226287 1.154485 -0.21323664 1.3828698
0000d0 c9 ae 14 3f 7a fc 01 3f b8 32 94 3e 19 3d c0 3f
       0.580792 0.50775874 0.28944945 1.5018646
0000e0 eb 7a 43 bf ef 47 b1 3e aa cd f8 3e 32 c8 99 3f
       -0.7635943 0.34625193 0.4859441 1.201422
0000f0 c2 50 7b be b8 19 15 bf 44 1b a6 bf 8e 71 c7 3f
       -0.24542525 -0.5824237 -1.2977071 1.5581529
000100 36 a8 cc 3f 99 68 b7 be 07 52 cb 3d e4 e4 e2 3f
       1.5988834 -0.3582199 0.09927755 1.7726102
000110 0a cf 51 3f 2c 6c ed 3f a6 71 1a c0 07 90 87 3f
       0.8195654 1.8548636 -2.4131866 1.0590829
000120 2f ae a6 bf f3 18 20 3f 16 36 f9 be bd 8d 96 bf
       -1.3021907 0.6253807 -0.48674077 -1.1762005
000130 35 41 ae be af 88 ce be 5c c3 fb be 15 6e 06 40
       -0.34034124 -0.40338656 -0.49172485 2.1004689
000140 92 c5 a0 3d 25 07 89 bd 61 3d 7b bf 06 c1 c0 bd
       0.078501835 -0.06690816 -0.9814053 -0.09411816
000150 2c 73 80 3f 3a 3d e0 3d 24 7f 96 3f 75 d8 8e 3f
       1.0035148 0.10949178 1.175755 1.1159807
000160 69 b0 73 bf a8 85 88 3d 8a 71 19 bc 8f e8 92 3f
       -0.95191056 0.06666118 -0.009365449 1.1477221
000170 15 43 78 bf 96 10 0f bf 76 5c cd 3e 11 55 11 c0
       -0.9697736 -0.55884683 0.40109605 -2.270817
000180 33 d1 a1 3e 0a 1f 25 be df 30 1b bd 8c b5 79 3f
       0.3160492 -0.16125122 -0.037888404 0.97542644
000190 22 54 88 bf 16 a0 38 3f ca 9b 96 3f db 33 8d 3f
       -1.0650675 0.7211927 1.1766293 1.103145
0001a0 fb 19 d9 3f 2c d5 9a be 6c 40 e7 bf 7b d6 76 bf
       1.6961054 -0.30240762 -1.8066535 -0.9642102
0001b0 82 1e d4 3d de 09 4f bf dd 0a 01 3e d4 6d 8c be
       0.103573814 -0.8087443 0.126018 -0.27427542
0001c0 36 06 6b bd 25 14 d9 bf df 1e b0 bf cd 00 d7 bf
       -0.05737897 -1.6959273 -1.3759421 -1.6797119
0001d0 12 a8 e0 3d 94 8a c5 3d d1 34 17 3f a6 54 b6 3f
       0.10969557 0.09645572 0.59064966 1.4244583
0001e0 f6 8a a6 3f 6c 5e a2 be 15 ef 46 3f ac b8 65 3f
       1.3011158 -0.31712663 0.7770856 0.8973491
0001f0 dd d0 03 3f 81 f5 a6 3e 21 7e 4a bf bf e8 3c 3f
       0.51490575 0.3260918 -0.7909871 0.7379264

network_body._body_endoder.seq_layers.0.bias f4 [128]
000000 00 00 00 00 00 00 00 00 00 00 00 00 00 00 00 00
       0.0 0.0 0.0 0.0
000010 00 00 00 00 00 00 00 00 00 00 00 00 00 00 00 00
       0.0 0.0 0.0 0.0
000020 00 00 00 00 00 00 00 00 00 00 00 00 00 00 00 00
       0.0 0.0 0.0 0.0
000030 00 00 00 00 00 00 00 00 00 00 00 00 00 00 00 00
       0.0 0.0 0.0 0.0
000040 00 00 00 00 00 00 00 00 00 00 00 00 00 00 00 00
       0.0 0.0 0.0 0.0
000050 00 00 00 00 00 00 00 00 00 00 00 00 00 00 00 00
       0.0 0.0 0.0 0.0
000060 00 00 00 00 00 00 00 00 00 00 00 00 00 00 00 00
       0.0 0.0 0.0 0.0
000070 00 00 00 00 00 00 00 00 00 00 00 00 00 00 00 00
       0.0 0.0 0.0 0.0
000080 00 00 00 00 00 00 00 00 00 00 00 00 00 00 00 00
       0.0 0.0 0.0 0.0
000090 00 00 00 00 00 00 00 00 00 00 00 00 00 00 00 00
       0.0 0.0 0.0 0.0
0000a0 00 00 00 00 00 00 00 00 00 00 00 00 00 00 00 00
       0.0 0.0 0.0 0.0
0000b0 00 00 00 00 00 00 00 00 00 00 00 00 00 00 00 00
       0.0 0.0 0.0 0.0
0000c0 00 00 00 00 00 00 00 00 00 00 00 00 00 00 00 00
       0.0 0.0 0.0 0.0
0000d0 00 00 00 00 00 00 00 00 00 00 00 00 00 00 00 00
       0.0 0.0 0.0 0.0
0000e0 00 00 00 00 00 00 00 00 00 00 00 00 00 00 00 00
       0.0 0.0 0.0 0.0
0000f0 00 00 00 00 00 00 00 00 00 00 00 00 00 00 00 00
       0.0 0.0 0.0 0.0
000100 00 00 00 00 00 00 00 00 00 00 00 00 00 00 00 00
       0.0 0.0 0.0 0.0
000110 00 00 00 00 00 00 00 00 00 00 00 00 00 00 00 00
       0.0 0.0 0.0 0.0
000120 00 00 00 00 00 00 00 00 00 00 00 00 00 00 00 00
       0.0 0.0 0.0 0.0
000130 00 00 00 00 00 00 00 00 00 00 00 00 00 00 00 00
       0.0 0.0 0.0 0.0
000140 00 00 00 00 00 00 00 00 00 00 00 00 00 00 00 00
       0.0 0.0 0.0 0.0
000150 00 00 00 00 00 00 00 00 00 00 00 00 00 00 00 00
       0.0 0.0 0.0 0.0
000160 00 00 00 00 00 00 00 00 00 00 00 00 00 00 00 00
       0.0 0.0 0.0 0.0
000170 00 00 00 00 00 00 00 00 00 00 00 00 00 00 00 00
       0.0 0.0 0.0 0.0
000180 00 00 00 00 00 00 00 00 00 00 00 00 00 00 00 00
       0.0 0.0 0.0 0.0
000190 00 00 00 00 00 00 00 00 00 00 00 00 00 00 00 00
       0.0 0.0 0.0 0.0
0001a0 00 00 00 00 00 00 00 00 00 00 00 00 00 00 00 00
       0.0 0.0 0.0 0.0
0001b0 00 00 00 00 00 00 00 00 00 00 00 00 00 00 00 00
       0.0 0.0 0.0 0.0
0001c0 00 00 00 00 00 00 00 00 00 00 00 00 00 00 00 00
       0.0 0.0 0.0 0.0
0001d0 00 00 00 00 00 00 00 00 00 00 00 00 00 00 00 00
       0.0 0.0 0.0 0.0
0001e0 00 00 00 00 00 00 00 00 00 00 00 00 00 00 00 00
       0.0 0.0 0.0 0.0
0001f0 00 00 00 00 00 00 00 00 00 00 00 00 00 00 00 00
       0.0 0.0 0.0 0.0

network_body._body_endoder.seq_layers.2.weight f4 [128, 128]
000000 f8 35 7a 3d 93 00 82 bd f4 b7 c6 3d 68 0e ba bd
       0.061086625 -0.06347766 0.09703055 -0.09084779
000010 a9 4e e6 bc 36 a2 8f bd 64 2b 9f 3d e5 a7 d3 3d
       -0.02811368 -0.07013361 0.07771948 0.10334758
000020 38 4b c6 3d 9c 94 0c 3c b0 7e 0e 3d 7c 74 1e 3d
       0.096823156 0.008580353 0.034788787 0.038685307
000030 93 c4 1a bb fb 52 e8 3b ba 95 53 bd fe 7d f0 3d
       -0.0023615703 0.00708997 -0.051656462 0.11742781
000040 32 0a 53 bd 9b 5a eb bd 30 75 e5 bd be 5c 74 3d
       -0.051523395 -0.11491891 -0.11203992 0.05965876
000050 e7 a8 f0 3d 9e da cf 3c 3b 66 48 be 84 fc e3 3c
       0.117509656 0.0253728 -0.19570248 0.02783037
000060 2c ee ca 3a 84 d2 1e 3e af 5b 83 bd 5c d2 95 3d
       0.0015482358 0.15509993 -0.06413972 0.073155135
000070 b7 08 dd 3d 6f 1b f4 bd 3f d3 eb 3d aa 91 c6 3d
       0.10792678 -0.11919295 0.11514901 0.09695752
000080 b4 99 bb bb 64 5c 4f 3d 50 1d a3 3c ce 93 08 3d
       -0.00572511 0.05062522 0.019911438 0.033344083
000090 7b 43 8f 3d f7 25 b8 3d bf 98 a9 bd aa 7f 14 3d
       0.06995293 0.08991616 -0.08281087 0.036254562
0000a0 70 fb f3 bc d9 0b 52 3d 54 85 92 3c 4a 79 5d 3e
       -0.02978298 0.05128083 0.017885841 0.216283
0000b0 3f bc f9 bd a9 db de bd 12 b9 41 bc 35 2a 3e 3e
       -0.12194108 -0.108817406 -0.011823909 0.18570788
0000c0 dc 98 a8 b9 ad 6a 19 3d 01 32 a0 3c 63 80 e3 bd
       -0.00032157346 0.03745525 0.019555094 -0.11108472
0000d0 d7 a5 1b bd 9b 0e 08 3d 95 2a ac bd 13 96 19 be
       -0.037999954 0.033217054 -0.084065594 -0.14998655
0000e0 7c b5 f1 3b c8 35 eb bd ec 7d e1 3d 9a cc 32 3e
       0.007376371 -0.11484867 0.11010346 0.17460862
0000f0 48 2f 86 bd 12 c5 a9 bc c6 c6 ac 3d dd 45 c8 3d
       -0.06551987 -0.020723853 0.084363505 0.0977895
000100 82 6f 79 bd 8e 77 0a bb b1 49 52 3d 69 ff 64 3d
       -0.060897358 -0.002112839 0.05133981 0.05590764
000110 29 a5 f6 3c 88 bd a4 3c 53 14 d0 3d 08 bb 38 3d
       0.030108051 0.020109907 0.101601265 0.045100242
000120 1c b0 0c 3e ed 99 bf bc 6d a3 14 3d b0 30 3e bc
       0.13739055 -0.023388827 0.036288667 -0.011608288
000130 b6 bb 1e 3d 5d bc 90 3c 28 f8 23 3e 35 83 5d 3e
       0.038753234 0.017667944 0.16012633 0.21632083
000140 14 cb dc bc 26 a5 31 be 87 7f 2e be 3c 95 74 be
       -0.026952304 -0.17348155 -0.17040835 -0.23885053
000150 65 95 07 be b0 ac 83 bd 8e 4c 1a 3e 69 df 68 3e
       -0.13240583 -0.06429422 0.15068266 0.22741474
000160 7e 9e 95 3d c7 f0 ea 3c 2d bf cf bd aa f8 00 3d
       0.073056206 0.028679265 -0.10143886 0.031487145
000170 68 61 26 3d f4 3f f5 3c a2 cb a5 bd 6f 3f e9 3c
       0.040620238 0.029937722 -0.080954805 0.02847263
000180 bc a0 cb 3d 6a 28 ae 3c ff 64 eb 3c 1f a5 b3 3d
       0.09942767 0.021259505 0.028734682 0.08771729
000190 9a 81 4f bd b4 46 2b 3e 71 50 39 3c 4b c1 f3 3d
       -0.050660707 0.1672619 0.011310683 0.11902102
0001a0 77 5b c5 bd 40 77 82 3d 81 db ea bd 81 d0 79 bd
       -0.09636586 0.063704014 -0.11467648 -0.06098986
0001b0 18 55 fa bd 4d cc 2f 3c c9 f9 27 3d 20 fa 07 bd
       -0.122232616 0.010729861 0.041009698 -0.033197522
0001c0 08 84 c9 bd 9f 9c 7f be 52 3f 60 bd 0f 2f 7d bd
       -0.09839636 -0.2496209 -0.054747887 -0.061812457
0001d0 d1 ba 4d 3e 35 78 5c 3d 88 fd fc bd 83 ac 2f be
       0.20090796 0.053825576 -0.12353045 -0.17155652
0001e0 b1 9f 64 be 13 4a f6 3d 14 39 e0 bd 15 58 40 3d
       -0.22326542 0.12025847 -0.10948387 0.046959
0001f0 20 6c d9 3b 8b 0c 2f 3d ea a9 8e 3c 93 ab 43 3e
       0.006635204 0.04273657 0.017415006 0.19108419
000200 25 d7 40 3d 7d 0b 57 3d c5 24 5b bc 3a 88 be bd
       0.047080178 0.05250119 -0.013375466 -0.09303327
000210 8b e5 fe 3d 7b 63 62 bc b7 7d 86 bd 06 5d 61 be
       0.124461256 -0.013817663 -0.06566947 -0.22008142
000220 31 2d 92 bd 33 6b 38 bd d4 0f 3f 3e 97 3b 11 3d
       -0.07137526 -0.04502411 0.18658382 0.03545722
000230 72 5c a6 3d 4e c0 56 be 91 2e 18 bd 5b b8 63 3c
       0.08123101 -0.20971796 -0.037153784 0.013898934
000240 a9 c9 4c 3d bb c5 ad 3d 4e 9b 5e bd df 83 4e bd
       0.049997006 0.0848498 -0.05434733 -0.05041873
000250 40 50 14 bd e7 58 34 3d 8e 27 12 3d 4f 3e 13 be
       -0.036209345 0.044030096 0.035682254 -0.14379238
000260 e8 e7 95 39 6d 41 53 bd 16 01 10 be 35 79 6a 3c
       0.00028592278 -0.051576067 -0.14062914 0.014311125
000270 29 6b d2 ba c0 51 10 bd d3 08 d3 3d 18 87 51 3e
       -0.0016053665 -0.035234213 0.103044175 0.2046169
000280 23 85 ba 3c f2 45 89 bd 4a 2f 3f 3d cb 15 87 bb
       0.022768563 -0.06702794 0.046675958 -0.004122471
000290 35 96 06 3e 42 91 08 3d 7d f9 3e 3d 1d 53 35 be
       0.13143237 0.033341654 0.04662465 -0.17707486
0002a0 97 1d 58 bd 3b ce de bc 2c 4a 52 bd f8 b9 5e bc
       -0.052762594 -0.027197948 -0.051340267 -0.013594143
0002b0 80 02 d4 bd 31 b2 2c 3d 32 a6 ef 3b 2c 4b 0a be
       -0.10352039 0.042162124 0.007313513 -0.13505238
0002c0 01 a9 c9 bd 36 68 36 be 6b 1c bf 3c d7 be 32 bc
       -0.09846688 -0.17813191 0.02332898 -0.010909758
0002d0 b5 69 27 be 45 2d 83 3e d5 46 dc 3d 7c 68 9b bd
       -0.16348918 0.25620475 0.10755698 -0.07588288
0002e0 f5 05 e8 b8 b0 bb 2a be fb fb 64 3d 54 44 54 bd
       -0.00011063732 -0.1667316 0.05590437 -0.051822975
0002f0 fa ee 93 bd d8 8a 4e 3d aa ee 82 be 62 c8 8c 3d
       -0.072233155 0.05042538 -0.2557271 0.068741575
000300 f1 1f f7 bd 06 d5 09 3e d9 35 e4 3d a6 b2 cc 3d
       -0.12066639 0.13460168 0.11143083 0.09995012
000310 20 02 03 be 78 80 8c 3d d2 bd 80 bb bb 0b 04 bc
       -0.1279378 0.06860441 -0.0039288783 -0.008059437
000320 e6 82 82 bd fe 2e 6f 3d a0 46 6d 3d 2d 5a bf 3d
       -0.06372623 0.058394425 0.05792868 0.093433715
000330 7e 9e a9 bd a4 ea 43 bd 92 71 56 3c 24 37 06 be
       -0.08282183 -0.047831193 0.013088601 -0.13106972
000340 c5 66 3d be 21 a3 06 bd 6f cd da bd 35 f0 29 bd
       -0.18496235 -0.032870416 -0.106837146 -0.041488845
000350 75 35 c4 3d d6 bf 15 3d 37 8a 9d 3c 2e f9 d1 bd
       0.095805086 0.036559902 0.019230945 -0.102526054
000360 be 00 98 3d 02 5a e7 bd 9c 75 79 bd ad a4 22 bd
       0.074220166 -0.112964645 -0.060903177 -0.03970783
000370 65 e1 d5 bd e3 95 85 bc 67 23 a9 bc 18 05 4b 3c
       -0.10443381 -0.016306823 -0.020646764 0.012391351
000380 d5 48 73 3c 54 1c ca bd 8a 27 08 3e 02 fb fa bc
       0.0148489075 -0.098686844 0.13296333 -0.030637268
000390 cb bc 0d bd 37 7f e3 3d c3 12 b0 bd 40 1e 7f 3c
       -0.034603875 0.11108249 -0.085973285 0.015571177
0003a0 4e 3b 3a 3d 74 16 5b bc 72 0e ec bd 5b ee 75 bd
       0.045466714 -0.013372052 -0.11526193 -0.060041767
0003b0 9d c7 38 bd 0a 77 90 3d 19 53 10 be d4 90 82 bd
       -0.04511224 0.07053955 -0.14094199 -0.0637528
0003c0 ff b0 19 bd 91 25 0e be 4e df 19 3b 50 f0 0c bd
       -0.037522312 -0.13881518 0.0023479047 -0.034408867
0003d0 c9 5e b6 bb 05 ea e4 bc e8 93 8b 3c e7 97 36 bd
       -0.0055654985 -0.02794362 0.0170383 -0.04457846
0003e0 5e 1b 12 bd 24 b1 b5 bd 26 71 81 bd 7f 50 cc 3c
       -0.03567063 -0.088716775 -0.063204095 0.024940727
0003f0 1b 95 bd bb 8b 25 77 3c 70 cb 01 3d 4b bb 02 3d
       -0.005785597 0.015084635 0.031688154 0.031916898

network_body._body_endoder.seq_layers.2.bias f4 [128]
000000 00 00 00 00 00 00 00 00 00 00 00 00 00 00 00 00
       0.0 0.0 0.0 0.0
000010 00 00 00 00 00 00 00 00 00 00 00 00 00 00 00 00
       0.0 0.0 0.0 0.0
000020 00 00 00 00 00 00 00 00 00 00 00 00 00 00 00 00
       0.0 0.0 0.0 0.0
000030 00 00 00 00 00 00 00 00 00 00 00 00 00 00 00 00
       0.0 0.0 0.0 0.0
000040 00 00 00 00 00 00 00 00 00 00 00 00 00 00 00 00
       0.0 0.0 0.0 0.0
000050 00 00 00 00 00 00 00 00 00 00 00 00 00 00 00 00
       0.0 0.0 0.0 0.0
000060 00 00 00 00 00 00 00 00 00 00 00 00 00 00 00 00
       0.0 0.0 0.0 0.0
000070 00 00 00 00 00 00 00 00 00 00 00 00 00 00 00 00
       0.0 0.0 0.0 0.0
000080 00 00 00 00 00 00 00 00 00 00 00 00 00 00 00 00
       0.0 0.0 0.0 0.0
000090 00 00 00 00 00 00 00 00 00 00 00 00 00 00 00 00
       0.0 0.0 0.0 0.0
0000a0 00 00 00 00 00 00 00 00 00 00 00 00 00 00 00 00
       0.0 0.0 0.0 0.0
0000b0 00 00 00 00 00 00 00 00 00 00 00 00 00 00 00 00
       0.0 0.0 0.0 0.0
0000c0 00 00 00 00 00 00 00 00 00 00 00 00 00 00 00 00
       0.0 0.0 0.0 0.0
0000d0 00 00 00 00 00 00 00 00 00 00 00 00 00 00 00 00
       0.0 0.0 0.0 0.0
0000e0 00 00 00 00 00 00 00 00 00 00 00 00 00 00 00 00
       0.0 0.0 0.0 0.0
0000f0 00 00 00 00 00 00 00 00 00 00 00 00 00 00 00 00
       0.0 0.0 0.0 0.0
000100 00 00 00 00 00 00 00 00 00 00 00 00 00 00 00 00
       0.0 0.0 0.0 0.0
000110 00 00 00 00 00 00 00 00 00 00 00 00 00 00 00 00
       0.0 0.0 0.0 0.0
000120 00 00 00 00 00 00 00 00 00 00 00 00 00 00 00 00
       0.0 0.0 0.0 0.0
000130 00 00 00 00 00 00 00 00 00 00 00 00 00 00 00 00
       0.0 0.0 0.0 0.0
000140 00 00 00 00 00 00 00 00 00 00 00 00 00 00 00 00
       0.0 0.0 0.0 0.0
000150 00 00 00 00 00 00 00 00 00 00 00 00 00 00 00 00
       0.0 0.0 0.0 0.0
000160 00 00 00 00 00 00 00 00 00 00 00 00 00 00 00 00
       0.0 0.0 0.0 0.0
000170 00 00 00 00 00 00 00 00 00 00 00 00 00 00 00 00
       0.0 0.0 0.0 0.0
000180 00 00 00 00 00 00 00 00 00 00 00 00 00 00 00 00
       0.0 0.0 0.0 0.0
000190 00 00 00 00 00 00 00 00 00 00 00 00 00 00 00 00
       0.0 0.0 0.0 0.0
0001a0 00 00 00 00 00 00 00 00 00 00 00 00 00 00 00 00
       0.0 0.0 0.0 0.0
0001b0 00 00 00 00 00 00 00 00 00 00 00 00 00 00 00 00
       0.0 0.0 0.0 0.0
0001c0 00 00 00 00 00 00 00 00 00 00 00 00 00 00 00 00
       0.0 0.0 0.0 0.0
0001d0 00 00 00 00 00 00 00 00 00 00 00 00 00 00 00 00
       0.0 0.0 0.0 0.0
0001e0 00 00 00 00 00 00 00 00 00 00 00 00 00 00 00 00
       0.0 0.0 0.0 0.0
0001f0 00 00 00 00 00 00 00 00 00 00 00 00 00 00 00 00
       0.0 0.0 0.0 0.0

value_heads.value_heads.extrinsic.weight f4 [1, 128]
000000 17 99 58 3e 63 9f e6 bd d9 d9 23 be a7 11 4c be
       0.21152149 -0.11260869 -0.16001071 -0.19928609
000010 07 07 91 3d ad 32 51 bd 01 71 1b 3e ca 10 41 3e
       0.070814185 -0.05107372 0.15179826 0.18854061
000020 1f b2 3b 3d e2 2b f1 bd bf 3b 21 bd 50 94 42 be
       0.045824166 -0.11775948 -0.03936362 -0.19001889
000030 bb a1 52 3e 6e 39 e4 3d c2 fe e5 bd 2b bb 53 3d
       0.20569508 0.11143766 -0.11230232 0.05169217
000040 1a 28 90 bd 8c ba 18 3e 0f 36 fd bd e2 74 c4 3d
       -0.07038899 0.14914912 -0.123638265 0.09592606
000050 7f 4f 6e 3d 5d 7d 3f be 95 42 23 bd a6 33 98 bd
       0.058181282 -0.18700166 -0.03985842 -0.07431726
000060 4b d2 03 bd 39 49 62 3d 61 1b ab bd 46 15 e9 bd
       -0.032182973 0.05524561 -0.083548315 -0.11381011
000070 ca e6 0f be 4c b4 f8 3c 45 33 e4 3b 50 51 2a 3e
       -0.14052883 0.03035941 0.0069641196 0.16632581
000080 fd 44 1c bc e1 28 d6 3d 20 e2 ad 3c 9f 94 23 3e
       -0.009537932 0.10457016 0.021225989 0.15974663
000090 76 4c 10 3e 9b 1d e2 3c dd a6 dc 3d 13 81 f9 3d
       0.14091668 0.027602008 0.10774014 0.12182822
0000a0 78 6b 70 bd e1 ae 56 be 07 37 03 bd c3 3c a5 3d
       -0.05869624 -0.20965149 -0.0320349 0.0806823
0000b0 ea b1 5a bb b5 aa c9 3d 48 b3 0c 3e 20 d7 2d be
       -0.0033370205 0.09847013 0.13740265 -0.16976595
0000c0 3a 8e c3 3c 92 67 d3 bd be 01 94 bd b4 83 ff bd
       0.02387153 -0.10322489 -0.07226895 -0.12476292
0000d0 36 3b c0 3d 71 7c f8 3c 25 89 41 3d d5 b2 0b be
       0.093862936 0.030332776 0.04724993 -0.13642438
0000e0 5e 53 e6 bd ad 37 fc bd 71 bf 57 be 60 41 51 be
       -0.1124637 -0.12315307 -0.21069123 -0.20435095
0000f0 0b 81 d9 bc e1 7c 05 3d 6a 6a b0 bc 8b 54 28 3e
       -0.02655079 0.032589797 -0.021535117 0.164385
000100 c2 0e 2b be af 19 a9 3c ae 8f f2 3d 86 58 00 be
       -0.16704848 0.02064213 0.11843811 -0.12533769
000110 9b 38 22 be 44 48 95 bd a3 ae 4b be db 5c 2f be
       -0.15841906 -0.07289174 -0.19890837 -0.17125265
000120 ad 93 4f 3e e2 31 4f 3e 02 17 1e 3e 00 60 08 be
       0.20271178 0.20233873 0.15438464 -0.13317871
000130 f3 95 03 be ae b9 ef 3d 77 e7 37 be 89 9f a5 bd
       -0.1285017 0.117053375 -0.1795939 -0.080870695
000140 6c b8 4d 3d be 55 d5 bc b0 bd 6c bb f4 7b 59 be
       0.050224707 -0.026041862 -0.0036123805 -0.2123869
000150 82 9a ee 3d 57 be 20 be 85 f6 04 3d 4e 8b 40 bd
       0.11650564 -0.15697609 0.03246166 -0.04700785
000160 ca d9 e9 3c 50 51 c4 bd fe 4f b2 bd 02 89 96 3d
       0.028546233 -0.09585822 -0.087066635 0.07350351
000170 34 fc c9 3d a0 94 1a 3e e0 5d 54 bd 59 c7 45 3e
       0.09862557 0.15095758 -0.05184734 0.19314326
000180 63 40 ee bd 19 7c 19 be c6 8a 56 be bb 1b bf 3c
       -0.116333745 -0.14988746 -0.20951375 0.023328653
000190 23 47 ef 3d 5b 74 ab bd c5 42 54 bc ea b7 0b 3e
       0.1168349 -0.083718024 -0.012955372 0.13644376
0001a0 28 3a 2d be dd 1f 3d 3e 2b 24 12 be d9 19 08 3e
       -0.16916716 0.18469186 -0.1427161 0.1329111
0001b0 de f0 e9 3d 7c dd 59 3e 77 3c 57 3e 96 5b 90 3c
       0.11422895 0.21275896 0.2101916 0.017621797
0001c0 0e b0 94 bd 38 23 58 3e fd 25 19 be 35 ed a4 3d
       -0.07260142 0.21107185 -0.14955898 0.08053056
0001d0 c6 a6 ce 3d b2 6d 99 bd 78 4e 08 bb 6f 1c 0e 3d
       0.10090403 -0.07491626 -0.0020798724 0.034695085
0001e0 fb 22 9c bd 5c cc c7 3d d1 ce c9 bc e5 09 a7 bd
       -0.076238595 0.09755775 -0.02463475 -0.08156184
0001f0 5c 55 1c 3e 28 99 26 bc b3 b0 07 3e d7 c2 49 3e
       0.15266937 -0.010168351 0.13250999 0.19703232
