results/newValues1/MoveToGoal/MoveToGoal-103190.onnx (onnx, 71778 bytes, 6 tensors)

action_model._discrete_distribution.branches.0.bias f4 [4]
-0.017103141 -0.022555841 0.028700154 0.010334301
00000000: e31b 8cbc 07c7 b8bc 961c eb3c 3351 293c

action_model._discrete_distribution.branches.0.weight f4 [4, 128]
0.039750744 -0.030082516 0.038229395 -0.026925124 -0.020735199 -0.034639385 -0.03444473 0.025736025
0.013250892 -0.020686591 0.023684872 -0.008285872 0.02688299 -0.03289023 -0.027689928 -0.028207306
0.040197033 0.033336516 -0.040787283 -0.039080508 -0.017288394 -0.030423954 -0.010439335 0.023391362
-0.031534445 0.037418507 0.02660891 0.01925131 -0.038403917 -0.037563376 -0.025165208 -0.022232506
0.009115702 0.01928976 0.03806839 -0.015606292 -0.041167974 0.02471725 0.0031214838 -0.024478858
-0.026901007 0.020037 -0.030039066 -0.035157684 -0.010101923 -0.031119384 -0.03435794 -0.017368207
0.025765121 0.038268544 0.028443823 0.04085768 -0.042553 -0.023027578 -0.012831405 0.033738244
-0.04063235 -0.016423883 -0.019707067 -0.04585263 0.02855827 0.037971415 -0.03451049 0.018219398
-0.016738659 -0.0481823 -0.008767009 0.012668771 0.021536585 0.0410806 -0.040674143 0.017538976
0.02781996 -0.03313517 -0.02213289 0.033617835 0.01449849 -0.006164097 0.021422358 0.033368025
0.012468323 0.019374514 0.028424658 -0.03211235 0.013813304 -0.033201773 0.038500298 -0.021007612
-0.04030974 0.03058206 0.037272293 0.027777396 -0.020495448 -0.036058426 -0.033153143 0.02609045
-0.015184994 -0.0021240094 -0.02945875 -0.017776 0.0237486 -0.027829476 0.01908815 0.030641034
0.006188487 -0.039995763 0.020918388 0.029115496 0.016516184 -0.038929943 -0.023794627 -0.017231798
-0.027007556 0.034698088 -0.02614789 0.02033433 0.010707582 -0.030226542 -0.02634765 0.036262777
0.027181644 -0.024679825 0.04505259 -0.026556078 -0.029903686 -0.024820335 -0.030057212 -0.022526374
0.04877724 -0.048665944 0.054484967 -0.043894824 -0.052182876 -0.036492907 -0.046502963 0.045176916
0.028433738 -0.057115644 0.038064774 -0.03882021 0.028340848 -0.04016039 -0.057354704 -0.04700989
0.039568376 0.052059475 -0.0424626 -0.05016743 -0.048414715 -0.036702003 -0.046492007 0.040335804
-0.061163448 0.03063547 0.05109949 0.050225537 -0.05548785 -0.059771232 -0.022967784 -0.04076903
0.021728463 0.04213504 0.05695119 -0.042509843 -0.028721431 0.04091645 0.024162678 -0.05026177
-0.047471583 0.051694047 -0.04562744 -0.04371841 -0.04396688 -0.049224507 -0.036374114 -0.04737026
0.039664265 0.052924417 0.04673838 0.03320426 -0.04966675 -0.057615377 -0.034088537 0.056748547
-0.059033282 -0.04952486 -0.061229866 -0.047493935 0.057099115 0.04117273 -0.04274083 0.04600326
-0.050895564 -0.02868197 -0.050507605 0.03712516 0.05141304 0.047096543 -0.0560382 0.06373636
0.053612508 -0.031695418 -0.037819017 0.04102738 0.043020703 -0.018614722 0.041178457 0.04471487
0.04387218 0.04996997 0.055579737 -0.039598577 0.052673392 -0.039424103 0.041183893 -0.0486748
-0.028655017 0.05549184 0.052937876 0.037745263 -0.043422185 -0.060212445 -0.05014741 0.041654367
-0.05313053 -0.025122637 -0.0437107 -0.047436524 0.04007808 -0.048583683 0.04998736 0.048485663
0.058374103 -0.036815442 0.05707427 0.043752596 0.0443378 -0.04518345 -0.038404863 -0.049851798
-0.042675547 0.047701787 -0.05019703 0.052045997 0.03871967 -0.056924827 -0.05263823 0.05179092
0.045700386 -0.038393825 0.038859792 -0.043054167 -0.046972293 -0.049899906 -0.052328013 -0.04832405
00000000: add1 223d 9c6f f6bc 6d96 1c3d 1492 dcbc
00000010: dddc a9bc 07e2 0dbd eb15 0dbd 5bd4 d23c
00000020: 451a 593c ed76 a9bc c706 c23c 77c1 07bc
00000030: b739 dc3c e8b7 06bd fdd5 e2bc 0213 e7bc
00000040: a5a5 243d df8b 083d 9110 27bd e212 20bd
00000050: 64a0 8dbc a83b f9bc bf09 2bbc 3e9f bf3c
00000060: 432a 01bd 2644 193d eefa d93c ecb4 9d3c
00000070: 6d4d 1dbd 0edc 19bd 4427 cebc f220 b6bc
00000080: 065a 153c 8f05 9e3c 9aed 1b3d 88b1 7fbc
00000090: c09f 28bd d57b ca3c cf91 4c3b e387 c8bc
000000a0: 805f dcbc a224 a43c 7d14 f6bc 8101 10bd
000000b0: 8982 25bc 14ee febc e9ba 0cbd c547 8ebc
000000c0: 6011 d33c 7abf 1c3d 0503 e93c 625a 273d
000000d0: 0e4c 2ebd 55a4 bcbc d03a 52bc 1d31 0a3d
000000e0: 1b6e 26bd 618b 86bc b770 a1bc f8cf 3bbd
000000f0: 08f3 e93c ea87 1b3d df5a 0dbd d940 953c
00000100: 831f 89bc ce5a 45bd 80a3 0fbc ad90 4f3c
00000110: 7e6d b03c 2244 283d ee99 26bd e6ad 8f3c
00000120: afe6 e33c beb8 07bd 0950 b5bc dbb2 093d
00000130: 138b 6d3c 32fc c9bb f17d af3c e9ac 083d
00000140: f047 4c3c 4db7 9e3c d4da e83c 3d88 03bd
00000150: 3251 623c 95fe 07bd 7db2 1d3d 2818 acbc
00000160: d31b 25bd 3a87 fa3c d5aa 183d 6c8d e33c
00000170: 12e6 a7bc 00b2 13bd 97cb 07bd a4bb d53c
00000180: 7bca 78bc f732 0bbb 7a53 f1bc f99e 91bc
00000190: 6d8c c23c a4fa e3bc c05e 9c3c e802 fb3c
000001a0: cbc8 ca3b 99d2 23bd 0a5d ab3c 9f83 ee3c
000001b0: f34c 873c 0175 1fbd f3ec c2bc b329 8dbc
000001c0: f33e ddbc 951f 0e3d 1a34 d6bc 2e94 a63c
000001d0: db6e 2f3c a79d f7bc 07d7 d7bc 4788 143d
000001e0: 0aac de3c 582d cabc 1189 383d 228c d9bc
000001f0: 93f8 f4bc 0454 cbbc 8b3a f6bc 3b89 b8bc
00000200: a5ca 473d f155 47bd a12b 5f3d 0fcb 33bd
00000210: b6bd 55bd 9679 15bd e479 3ebd 6e0b 393d
00000220: dfed e83c 18f2 69bd cfe9 1b3d f101 1fbd
00000230: 112b e83c 397f 24bd c4ec 6abd 718d 40bd
00000240: 7312 223d 513c 553d 43ed 2dbd 5d7c 4dbd
00000250: 824e 46bd d754 16bd 676e 3ebd 2837 253d
00000260: 8686 7abd 3df7 fa3c b34d 513d 4bb9 4d3d
00000270: 3a47 63bd aed2 74bd ef26 bcbc 6dfd 26bd
00000280: e4ff b13c cb95 2c3d a745 693d cd1e 2ebd
00000290: 3549 ebbc 0298 273d cff0 c53c 49df 4dbd
000002a0: 9071 42bd 23bd 533d d7e3 3abd 1312 33bd
000002b0: 9d16 34bd a39f 49bd 06fd 14bd 5107 42bd
000002c0: ff76 223d 46c7 583d be70 3f3d 3101 083d
000002d0: 5d6f 4bbd 1afe 6bbd 6ca0 0bbd 2a71 683d
000002e0: e2cc 71bd 94da 4abd 2bcc 7abd 0089 42bd
000002f0: c3e0 693d bda4 283d 0211 2fbd ea6d 3c3d
00000300: de77 50bd 73f6 eabc 10e1 4ebd 8d10 183d
00000310: 7b96 523d 4ee8 403d 5088 65bd 3588 823d
00000320: ca98 5b3d 0ed3 01bd 1de8 1abd 530c 283d
00000330: 7a36 303d e77d 98bc beaa 283d f126 373d
00000340: 51b3 333d 50ad 4c3d 94a7 633d 1e32 22bd
00000350: 0ec0 573d 2b7b 21bd 71b0 283d 3a5f 47bd
00000360: edbd eabc 694b 633d 63d5 583d c79a 1a3d
00000370: 76db 31bd 53a1 76bd 5f67 4dbd c59d 2a3d
00000380: 669f 59bd fdcd cdbc fe09 33bd cd4c 42bd
00000390: ea28 243d afff 46bd 8cbf 4c3d e798 463d
000003a0: af19 6f3d cacb 16bd b6c6 693d ec35 333d
000003b0: 8e9b 353d 4812 39bd 6b4e 1dbd 6631 4cbd
000003c0: 8ecc 2ebd f362 433d 679b 4dbd 2f2e 553d
000003d0: 8498 1e3d 022a 69bd 2f9b 57bd b722 543d
000003e0: 5430 3b3d d842 1dbd 722b 1f3d 9159 30bd
000003f0: 0566 40bd d863 4cbd e655 56bd 70ef 45bd

network_body._body_endoder.seq_layers.0.bias f4 [128]
0.05246977 0.054369416 -0.05556798 0.05320691 0.058649007 0.051200148 -0.05002528 -0.053106476
-0.05392335 -0.052998364 -0.049520593 0.050833523 0.05376938 0.056016777 0.056633096 -0.055117756
0.055481814 0.05642157 -0.052160446 -0.05379557 0.05367423 -0.051902857 -0.044656232 0.041025512
-0.05496159 -0.053650305 0.050528355 0.054865576 -0.048226602 0.05059679 -0.05548085 -0.0484734
-0.055716734 -0.05701175 -0.0539801 0.051591277 -0.04761498 -0.047786508 -0.05167918 0.05624985
-0.054007173 0.044379435 0.044990122 -0.05281751 0.05629669 0.043636255 -0.047043186 -0.055273023
-0.04910439 -0.0562846 -0.049133126 -0.05593412 -0.052109167 -0.044100747 0.05575357 0.04458035
0.05705863 -0.05777448 0.043243647 0.052030522 0.05384616 -0.05201134 -0.05433938 -0.050924912
0.04655245 0.046550907 -0.044133764 -0.049582805 0.052518077 0.05095697 -0.043010607 -0.05025326
0.057006028 -0.04792634 -0.0543396 0.05040657 0.05265662 0.05854955 0.049956694 0.041826997
0.032148052 0.0480757 -0.04650616 0.051965833 -0.05611081 -0.04753901 -0.05476325 0.05286547
0.035364915 -0.047961276 -0.05521795 0.053438652 -0.04975753 0.05594993 -0.054472458 0.056918334
0.042675246 0.053572517 -0.054491606 -0.04695378 0.05081812 -0.047359597 -0.050816443 -0.05486971
-0.054177526 -0.057233736 -0.052198358 0.048476513 -0.044058304 -0.04932448 -0.05603749 -0.053117156
0.049694348 0.045507826 -0.058648612 -0.052472405 0.04758205 -0.05631256 -0.054401215 -0.03801495
0.051096015 -0.05355749 0.052917454 0.05388678 0.057510626 0.05549399 -0.05109623 0.045974832
00000000: 8bea 563d 77b2 5e3d 409b 63bd 7def 593d
00000010: f139 703d 3fb7 513d 4fe7 4cbd 2d86 59bd
00000020: bbde 5cbd d014 59bd 1bd6 4abd d036 503d
00000030: 483d 5c3d d971 653d 1bf8 673d 28c3 61bd
00000040: e640 633d 4e1a 673d 31a6 55bd be58 5cbd
00000050: 82d9 5b3d 1798 54bd 74e9 36bd 5e0a 283d
00000060: 671f 61bd 6cc0 5bbd d2f6 4e3d baba 603d
00000070: 4289 45bd 943e 4f3d e33f 63bd 0b8c 46bd
00000080: 3b37 64bd 2785 69bd 3d1a 5dbd 6051 533d
00000090: ed07 43bd c9bb 43bd 8cad 53bd 3e66 663d
000000a0: a036 5dbd 36c7 353d 9047 383d 2c57 58bd
000000b0: 5c97 663d eebb 323d 5bb0 40bd f765 62bd
000000c0: af21 49bd ae8a 66bd d13f 49bd 2d1b 65bd
000000d0: 6c70 55bd fca2 34bd db5d 643d e399 363d
000000e0: 4fb6 693d efa4 6cbd 4020 313d f51d 553d
000000f0: cb8d 5c3d d809 55bd f892 5ebd a496 50bd
00000100: c8ad 3e3d 2aac 3e3d 9bc5 34bd 5717 4bbd
00000110: 321d 573d 41b8 503d e42b 30bd 5dd6 4dbd
00000120: 277f 693d 694e 44bd 3393 5ebd 1f77 4e3d
00000130: 78ae 573d a7d1 6f3d 649f 4c3d c952 2b3d
00000140: adad 033d 06eb 443d 3e7d 3ebd 20da 543d
00000150: 73d4 65bd 44b8 42bd 6e4f 60bd 7789 583d
00000160: cdda 103d 0b73 44bd 382c 62bd 7de2 5a3d
00000170: 8dce 4bbd c12b 653d 831e 5fbd 3323 693d
00000180: 3dcc 2e3d db6e 5b3d 9732 5fbd 9b52 40bd
00000190: a926 503d 23fc 41bd e724 50bd 10bf 60bd
000001a0: 41e9 5dbd ec6d 6abd f2cd 55bd 4f8f 463d
000001b0: 7b76 34bd 7708 4abd 9187 65bd 6091 59bd
000001c0: 4d8c 4b3d 6a66 3a3d 8739 70bd 4eed 56bd
000001d0: 65e5 423d 00a8 66bd cfd3 5ebd 90b5 1bbd
000001e0: 0e4a 513d 195f 5bbd f9bf 583d 62b8 5c3d
000001f0: 4390 6b3d ab4d 633d 484a 51bd 1b50 3c3d

network_body._body_endoder.seq_layers.0.weight f4 [128, 2]
-0.36124593 0.28482231 1.2919579 -0.12191406 -0.3606027 -0.6428993 -0.09920993 0.52053183
-0.77160823 0.61486846 0.009638272 -0.47464266 -0.6678236 0.5568309 -0.7721388 0.47859842
0.9898275 -0.5497768 -1.2103692 0.35910177 0.13395919 0.7797783 -0.7849933 0.042958904
0.32290697 -0.8868272 0.3315216 -0.5337581 0.88779163 0.11762394 -0.1412132 -0.83069843
0.5629347 0.43996197 -0.6754053 -1.1565864 0.9239015 -0.24810712 0.44311067 -1.2527629
0.64888585 0.17291933 -0.24287589 -1.3298632 -0.006119837 0.23189294 -0.4360286 1.0571746
-0.53254944 -0.677279 -0.36611196 -0.056604538 0.4537532 0.32906663 -0.6836337 0.8647955
0.25025803 -0.5775999 -0.280778 -0.574595 0.38133124 0.48772565 1.2580137 -0.5216287
0.3060261 -0.07097339 -0.43474633 -0.57797503 -0.02793268 0.40712944 -0.31261608 -0.57801217
0.57810843 -0.20727172 -0.621975 0.12139139 0.0938861 1.0352057 0.5918943 -0.8631585
-0.28293362 0.62218714 -0.4747273 -1.209475 0.51058966 -0.91236806 0.85476756 0.3089589
1.4961938 -0.50121593 -0.21521278 -1.0369349 -0.716057 0.23418546 -1.0798539 0.3557921
0.2003431 0.30841815 0.25719035 -0.018626774 -1.2033215 0.109112866 0.0169725 -1.9619443
0.5427328 0.15061505 -0.69189394 0.8870191 1.2895787 0.10008239 -0.60414356 -1.2664026
-0.50768316 -0.2839823 -0.5429827 -0.67749816 -0.20312287 -0.1812275 0.16937202 -0.32534853
-0.04002933 -0.6419905 -1.1887861 -0.26511747 -0.49312732 1.3060358 0.1176605 0.3630409
0.88684136 -0.09322701 0.467723 -0.16044815 -0.7020664 -0.18179692 0.7194793 0.68779176
0.9474477 -0.6476099 -0.1708101 -0.39643967 -0.8786002 1.1262257 -0.80638653 -0.37268043
1.0718415 0.64945966 0.08952687 -1.4221599 1.3173608 0.18551002 -0.5922602 -0.8524049
-0.39763865 1.6000046 0.38407937 0.35385934 -1.1703578 -0.7581109 -0.49514484 0.088836715
-2.0482647 0.048236124 -1.2482076 -0.19329911 -0.38422635 -0.68095756 -1.5010328 -0.07672309
0.055277247 0.7363233 -0.10689427 -0.64775664 1.162838 -0.021628547 -0.018952662 0.9857139
-0.045801617 0.4434207 -0.05253365 0.3497863 0.57686704 -0.48146343 -0.0528697 0.17562276
0.3653899 1.4083885 0.15282872 1.3698918 0.094436094 -0.63196224 0.44564104 -0.5813955
1.177358 -0.17029575 0.88188595 0.15872222 -0.122830085 1.1659257 -0.43470705 -0.18769176
-0.0848582 0.8080314 0.5937584 0.44033247 -0.3913697 -0.24438842 0.82130325 1.3105091
0.19622968 1.157554 -0.28138444 0.45047003 -0.32771337 -0.85735565 0.75449425 1.3988167
-0.5070074 1.0309678 0.5556386 -0.2670456 0.5816885 0.8452841 0.87369984 -0.7571274
-0.10821615 -0.30884767 -2.1065807 -1.3599406 1.940643 -0.2917732 1.0137662 0.5135539
0.5175204 -0.13925548 0.7302804 0.042058285 -0.0143320775 0.46368727 -0.49653038 -0.75671554
0.40597695 -0.16366561 1.5015718 -0.87203884 0.7693467 -1.2366549 -1.8977416 0.53325075
-1.3977671 -0.9838356 -0.15948418 0.015728815 0.4635455 0.65760106 -0.49297932 -0.7548159
00000000: 3af5 b8be 3bd4 913e e05e a53f 14ae f9bd
00000010: eba0 b8be 0c95 24bf 932e cbbd 9341 053f
00000020: 1e88 45bf 0568 1d3f d8e9 1d3c 5d04 f3be
00000030: 7df6 2abf 788c 0e3f e3aa 45bf da0a f53e
00000040: 5665 7d3f 2cbe 0cbf 61ed 9abf 30dc b73e
00000050: 992c 093e 8d9f 473f 52f5 48bf adf5 2f3d
00000060: 1054 a53e 1b07 63bf 33bd a93e 5fa4 08bf
00000070: 5046 633f d2e4 f03d 319a 10be a7a8 54bf
00000080: 7d1c 103f b242 e13e 5de7 2cbf 060b 94bf
00000090: cf84 6c3f cb0f 7ebe 67df e23e 895a a0bf
000000a0: 621d 263f c411 313e 75b4 78be f538 aabf
000000b0: ea88 c8bb 5875 6d3e 243f dfbe 7f51 873f
000000c0: 2955 08bf 2862 2dbf 0773 bbbe 29da 67bd
000000d0: 5752 e83e 6c7b a83e 9e02 2fbf 3d63 5d3f
000000e0: d221 803e 96dd 13bf 22c2 8fbe a818 13bf
000000f0: d93d c33e 2db7 f93e 9806 a13f 7589 05bf
00000100: 74af 9c3e 7f5a 91bd 1297 debe 2cf6 13bf
00000110: 13d3 e4bc 4573 d03e 370f a0be 9bf8 13bf
00000120: eafe 133f 0a3f 54be c139 1fbf 0d9c f83d
00000130: 5b47 c03d 9f81 843f 6386 173f f5f7 5cbf
00000140: addc 90be a847 1f3f 750f f3be 14d0 9abf
00000150: 01b6 023f f490 69bf 0cd2 5a3f dc2f 9e3e
00000160: 4783 bf3f b04f 00bf bd60 5cbe 48ba 84bf
00000170: 834f 37bf 50ce 6f3e a738 8abf 622a b63e
00000180: be26 4d3e fce8 9d3e 74ae 833e 2d97 98bc
00000190: 7006 9abf 9176 df3d ea09 8b3c fe20 fbbf
000001a0: 89f0 0a3f d53a 1a3e f61f 31bf af13 633f
000001b0: ea10 a53f fff7 cc3d 27a9 1abf 7b19 a2bf
000001c0: 86f7 01bf 2166 91be ea00 0bbf 8570 2dbf
000001d0: 71ff 4fbe b493 39be dc6f 2d3e 1594 a6be
000001e0: cbf5 23bd 7d59 24bf 252a 98bf 7abd 87be
000001f0: 2f7b fcbe 2e2c a73f fdf7 f03d 7fe0 b93e
00000200: 0908 633f cded bebd 6479 ef3e 854c 24be
00000210: a0ba 33bf f928 3abe cc2f 383f 1f13 303f
00000220: ef8b 723f c3c9 25bf d8e8 2ebe 24fa cabe
00000230: f1eb 60bf 2a28 903f 596f 4ebf f8cf bebe
00000240: 1a32 893f fd42 263f dd59 b73d 5609 b6bf
00000250: 479f a83f 57f6 3d3e 5d9e 17bf 3537 5abf
00000260: 4b97 cbbe f3cc cc3f 0da6 c43e 0d2d b53e
00000270: 49ce 95bf 8e13 42bf a083 fdbe 06f0 b53d
00000280: c516 03c0 3e93 453d 44c5 9fbf 34f0 45be
00000290: 51b9 c4be 3c53 2ebf d821 c0bf ff20 9dbd
000002a0: 656a 623d af7f 3c3f 62eb dabd 61d3 25bf
000002b0: e0d7 943f 5a2e b1bc 9d42 9bbc bf57 7c3f
000002c0: 7a9a 3bbd 0a08 e33e 862d 57bd 3117 b33e
000002d0: 8fad 133f 6082 f6be e68d 58bd 74d6 333e
000002e0: 6314 bb3e 1346 b43f 227f 1c3e 9d58 af3f
000002f0: b667 c13d 47c8 21bf 102b e43e 56d6 14bf
00000300: abb3 963f 0262 2ebe 47c3 613f 1488 223e
00000310: 578e fbbd 0e3d 953f ec91 debe 4532 40be
00000320: 23ca adbd 25db 4e3f 8d00 183f 4273 e13e
00000330: 9c61 c8be f540 7abe ee40 523f c3be a73f
00000340: 6ff0 483e bb2a 943f 9f11 90be 02a4 e63e
00000350: 0cca a7be a97b 5bbf 8926 413f 6d0c b33f
00000360: 3dcb 01bf c1f6 833f 553e 0e3f 33ba 88be
00000370: 8ae9 143f 8a64 583f cbaa 5f3f 1ad3 41bf
00000380: 6ea0 ddbd 4821 9ebe 38d2 06c0 8912 aebf
00000390: fd66 f83f 4c63 95be 17c3 813f 4578 033f
000003a0: 387c 043f fd98 0ebe a8f3 3a3f 4f45 2c3d
000003b0: 17d1 6abc 6b68 ed3e 3b39 febe 1cb8 41bf
000003c0: 36dc cf3e f597 27be 8133 c03f f03d 5fbf
000003d0: e8f3 443f b54a 9ebf 32e9 f2bf 1f83 083f
000003e0: 08ea b2bf a6dc 7bbf d24f 23be b7d9 803c
000003f0: d655 ed3e 8b58 283f c967 fcbe 9d3b 41bf

network_body._body_endoder.seq_layers.2.bias f4 [128]
-0.04291174 0.049206227 -0.04834951 0.050088137 0.042590883 0.04148441 0.0478258 -0.035972565
-0.038280554 0.037970565 -0.048239067 0.026730144 -0.033187713 0.047052074 0.044228017 0.040575102
-0.035303824 -0.046121296 0.040187202 0.047717538 0.03537932 0.038449775 0.03760427 -0.046921648
0.04458788 -0.039149858 -0.044446923 -0.036526848 0.049860414 0.04459067 0.038314924 0.046994697
-0.011657044 -0.043360546 -0.044055633 0.042300247 0.029039383 -0.04301571 -0.029637083 0.029722102
0.041072316 -0.037915662 0.04844662 0.042404592 0.036817502 0.046698686 0.04083764 0.03588732
-0.044259828 -0.047445882 -0.04530488 -0.03811738 0.043090094 0.04040401 0.036696956 -0.042168543
0.045068692 0.039448664 0.037899967 0.03667308 -0.0388113 -0.033744436 0.04792878 -0.04419847
0.038993403 0.032649837 0.03015053 -0.031171447 -0.039274126 -0.042964224 0.047329642 -0.03125036
-0.043206323 0.025721248 0.028420478 -0.04602379 -0.012385857 0.0034150537 -0.046102047 -0.03834961
-0.03786361 -0.04171885 -0.042373512 0.044553332 -0.033926647 0.04005755 -0.042632338 0.027219908
0.033229966 -0.043884944 -0.04372355 -0.044722565 0.051053282 0.04830669 0.050562896 -0.044213347
0.02693503 0.013420174 0.046534676 0.043709155 -0.045000877 0.04732134 -0.042157803 -0.04607006
-0.026288148 0.027394056 -0.03225864 -0.043787297 -0.042904194 0.04817621 0.034856237 0.035097037
0.043260586 -0.04609725 0.048433088 -0.033759337 -0.027812688 0.04540237 0.04523208 -0.042166013
-0.04830599 0.041526154 -0.038672596 0.04896203 0.04261722 0.044183638 0.044801015 0.03949616
00000000: 38c4 2fbd 788c 493d 230a 46bd 3829 4d3d
00000010: c773 2e3d 8feb 293d fce4 433d f857 13bd
00000020: 12cc 1cbd 0687 1b3d 5496 45bd 2df9 da3c
00000030: d7ef 07bd adb9 403d 7028 353d 1432 263d
00000040: be9a 10bd afe9 3cbd 569b 243d 7773 433d
00000050: e8e9 103d 837d 1d3d ef06 1a3d ea30 40bd
00000060: c8a1 363d 9a5b 20bd fa0d 36bd 2d9d 15bd
00000070: 6f3a 4c3d b5a4 363d 1cf0 1c3d 837d 403d
00000080: 30fd 3ebc d49a 31bd ae73 34bd 0643 2d3d
00000090: 00e4 ed3c 3e31 30bd 78c9 f2bc c47b f33c
000000a0: 723b 283d 744d 1bbd f76f 463d 70b0 2d3d
000000b0: f3cd 163d 1f47 3f3d 5f45 273d 95fe 123d
000000c0: cb49 35bd 9d56 42bd 9c91 39bd f820 1cbd
000000d0: 3d7f 303d ad7e 253d 8c4f 163d ecb8 2cbd
000000e0: f399 383d ec94 213d ff3c 1b3d 8336 163d
000000f0: 99f8 1ebd 9b37 0abd f850 443d 7409 35bd
00000100: 8cb7 1f3d d6bb 053d 3ffe f63c 435b ffbc
00000110: e8dd 20bd 41fb 2fbd badc 413d 6100 00bd
00000120: 1df9 30bd 5eb5 d23c 10d2 e83c 7183 3cbd
00000130: 0dee 4abc 18cf 5f3b 80d5 3cbd 7b14 1dbd
00000140: df16 1bbd 63e1 2abd d98f 2dbd 8e7d 363d
00000150: abf6 0abd 6313 243d 3f9f 2ebd 49fc de3c
00000160: 251c 083d b3c0 33bd 7717 33bd 022f 37bd
00000170: 3f1d 513d 3cdd 453d 0a1b 4f3d 0e19 35bd
00000180: daa6 dc3c 4ae0 5b3c 259b 3e3d 5f08 333d
00000190: d752 38bd 05d4 413d a9ad 2cbd f6b3 3cbd
000001a0: 3e5a d7bc 8069 e03c a321 04bd 4f5a 33bd
000001b0: 4fbc 2fbd 6b54 453d 6ac5 0e3d e9c1 0f3d
000001c0: 0332 313d 78d0 3cbd c661 463d 3b47 0abd
000001d0: 6fd7 e3bc d6f7 393d 4645 393d 45b6 2cbd
000001e0: 80dc 45bd 5417 2a3d 2867 1ebd 698c 483d
000001f0: 658f 2e3d e7f9 343d 4581 373d bac6 213d

network_body._body_endoder.seq_layers.2.weight f4 [128, 128]
-0.1725194 -0.10074197 0.12433758 -0.05622341 0.103177994 -0.09232659 0.14542817 0.11301805
0.106842 0.17742473 0.099893145 -0.14865522 0.06758268 -0.04798139 -0.044327486 0.16564925
0.013612716 -0.18399325 -0.007204057 0.048930228 -0.14953797 0.010712738 0.1156121 -0.028456217
0.082697615 0.10993911 -0.12511456 -0.04927896 0.010516844 0.041885164 0.01699152 -0.118590474
0.07759624 0.03764054 0.1294266 -0.17322345 0.016893907 0.14503767 0.011634184 -0.16523404
0.06972833 0.029341694 0.093844734 0.016335964 -0.06713995 -0.019130588 -0.08287768 0.15192135
0.05014451 0.03242788 -0.05364897 0.006543485 0.018066242 0.07906261 -0.18073513 -0.026806632
-0.014256098 0.005404662 0.012236382 0.051752925 0.037147623 0.07596583 0.089281015 -0.03540574
0.07118921 0.0055979034 0.13434829 0.0030071428 -0.16314536 0.017876452 0.014941626 0.041109804
-0.10335032 -0.1158051 0.0042620734 -0.0023213946 -0.090957895 -0.19258626 -0.033428013 -0.11358458
-0.00092549965 0.06295613 -0.09144724 -0.05416999 0.1776115 0.02688294 0.006510292 -0.10467922
-0.023504734 0.05564354 0.098432235 -0.053186122 0.20566203 0.038201947 0.023876445 0.09829873
-0.1143208 0.006648311 0.1600093 0.053128622 0.107644424 0.14489196 -0.05816807 0.15760876
0.083495 0.16161874 -0.12289675 -0.22748147 0.052759416 0.10818672 0.17525062 0.0322896
0.019432403 -0.102276616 0.05567675 0.1327313 -0.11044449 -0.078926265 0.04143924 0.059040148
-0.056709398 0.09527589 -0.0064629195 -0.07810599 -0.06666286 -0.040722612 0.09479524 -0.050104517
0.12247677 0.113173544 -0.10875614 0.04282056 0.057518493 -0.0863203 0.009562568 -0.09661905
-0.12847508 0.020200366 0.01703348 0.014016735 0.16082789 0.21846834 -0.010110288 -0.16227579
0.136542 0.18171585 -0.08340369 0.13191798 0.10248287 -0.16563354 -0.043229174 -0.023864185
-0.012436216 -0.091189586 0.023864781 -0.008229065 0.022736127 0.10310624 -0.10216933 -0.13336188
0.039383993 -0.1321144 -0.09675304 0.10374712 -0.0890025 -0.3479732 -0.09127858 0.19345365
-0.07443396 0.07214221 -0.017852856 -0.10309784 0.08071999 0.044246554 -0.08135443 -0.13829935
-0.012538795 -0.1938501 -0.15152577 -0.09485741 0.0217243 -0.16650167 0.032780733 0.08229688
-0.09186791 -0.21673602 0.25384656 0.27126697 -0.06966919 -0.15571304 0.020332644 -0.06009678
0.02029335 0.08455538 0.027462281 -0.054213554 0.0075211646 0.068115406 -0.21137933 -0.19772959
-0.045042418 -0.22763558 -0.12604837 0.054581918 0.05750244 0.13169321 -0.115725055 0.039187644
0.22022402 0.05628804 -0.123364896 0.04902841 -0.17082435 -0.14519872 -0.05683482 -0.009923502
0.041485853 -0.07599948 0.006761307 0.13436155 -0.02210359 -0.020938251 -0.1130346 0.18046018
-0.0028134044 -0.097086295 -0.07134173 -0.15127929 0.03252493 -0.06724188 -0.12316007 -0.03153013
-0.035669487 0.017167322 -0.078688964 0.038140744 -0.2147621 -0.12598968 -0.07045771 -0.20929894
-0.028941609 -0.01707739 -0.08314371 -0.113456614 0.025841134 -0.14259234 -0.052105058 0.039905373
-0.020702079 0.028233465 0.007468757 0.16611978 0.08885598 -0.04232432 -0.06846983 0.18232319
00000000: eda8 30be ce51 cebd b3a4 fe3d 854a 66bd
00000010: fc4e d33d b915 bdbd 1feb 143e 0276 e73d
00000020: facf da3d d4ae 353e c794 cc3d 1339 18be
00000030: ca68 8a3d 2288 44bd bd90 35bd f59f 293e
00000040: df07 5f3c ba68 3cbe 0310 ecbb 106b 483d
00000050: 7b20 19be 7b84 2f3c 09c6 ec3d 031d e9bc
00000060: 5e5d a93d c227 e13d 081e 00be bcd8 49bd
00000070: d74e 2c3c c78f 2b3d cd31 8b3c 90df f2bd
00000080: c7ea 9e3d f82c 1a3d 6888 043e 7d61 31be
00000090: 1765 8a3c c184 143e 4e9d 3e3c 1d33 29be
000000a0: bacd 8e3d fe5d f03c ab31 c03d 00d3 853c
000000b0: ac80 89bd c0b7 9cbc c6bb a9bd 4591 1b3e
000000c0: 5464 4d3d 19d3 043d 06bf 5bbd bb6a d63b
000000d0: a8ff 933c 94eb a13d a112 39be 9599 dbbc
000000e0: 6992 69bc 9719 b13b 1b7b 483c e0fa 533d
000000f0: 1b28 183d f993 9b3d f7d8 b63d 9c05 11bd
00000100: a6cb 913d 9e6e b73b 9992 093e 7c13 453b
00000110: 940f 27be a371 923c b9cd 743c c162 283d
00000120: 55a9 d3bd 392b edbd dda8 8b3b 8a22 18bb
00000130: 2248 babd 5535 45be d0eb 08bd 089f e8bd
00000140: 3b9d 72ba 25ef 803d b148 bbbd 5ae1 5dbd
00000150: cadf 353e 9d39 dc3c 4a54 d53b 0f62 d6bd
00000160: 008d c0bc 7bea 633d d796 c93d b1d9 59bd
00000170: 1199 523e a579 1c3d 8998 c33c d850 c93d
00000180: 0621 eabd 13da d93b 7ad9 233e 669d 593d
00000190: ae74 dc3d 8f5e 143e a441 6ebd 3164 213e
000001a0: 6dff aa3d 627f 253e 4bb1 fbbd e7f0 68be
000001b0: 421a 583d 0091 dd3d e674 333e 1a42 043d
000001c0: b430 9f3c 6776 d1bd 4e0d 643d b7ea 073e
000001d0: b930 e2bd 18a4 a1bd 31bc 293d 15d4 713d
000001e0: 1d48 68bd 0120 c33d e6c6 d3bb 09f6 9fbd
000001f0: 8a86 88bd c1cc 26bd 0224 c23d 653a 4dbd
00000200: 1ad5 fa3d 88c7 e73d 8abb debd 9d64 2f3d
00000210: 8398 6b3d b3c8 b0bd 51ac 1c3c 35e0 c5bd
00000220: f98e 03be 3d7b a53c cc89 8b3c 73a6 653c
00000230: 11b0 243e 2ab6 5f3e 9fa5 25bc a02b 26be
00000240: abd1 0b3e b813 3a3e 8ecf aabd 8215 073e
00000250: 8ae2 d13d d79b 29be 1311 31bd d37e c3bc
00000260: 45c1 4bbc 9bc1 babd 1380 c33c 33d3 06bc
00000270: 1d41 ba3c 5d29 d33d 273e d1bd 0490 08be
00000280: 1c51 213d ff48 07be 7526 c6bd 5f79 d43d
00000290: f146 b6bd 8b29 b2be 44f0 babd b718 463e
000002a0: d570 98bd 4cbf 933d 2740 92bc f624 d3bd
000002b0: 8650 a53d e03b 353d 279d a6bd 589e 0dbe
000002c0: 856f 4dbc a480 46be 9229 1bbe 9a44 c2bd
000002d0: 29f7 b13c 6a7f 2abe 1745 063d 448b a83d
000002e0: 3e25 bcbd 0cf0 5dbe 2df8 813e 81e3 8a3e
000002f0: b8ae 8ebd 3d73 1fbe a590 a63c 0b28 76bd
00000300: 3d3e a63c 5f2b ad3d 94f8 e03c 080f 5ebd
00000310: 1a74 f63b 1780 8b3d d373 58be a079 4abe
00000320: 667e 38bd 4d19 69be d312 01be 4a91 5f3d
00000330: ae87 6b3d 96da 063e 4201 edbd 3983 203d
00000340: 6882 613e 4a8e 663d bca6 fcbd 04d2 483d
00000350: 94ec 2ebe f9ae 14be a1cb 68bd 2f96 22bc
00000360: 12ed 293d 9ea5 9bbd f48d dd3b 1396 093e
00000370: 9712 b5bc b286 abbc af7e e7bd 8eca 383e
00000380: 1861 38bb 2ed5 c6bd 9d1b 92bd f5e8 1abe
00000390: dc38 053d 1cb6 89bd 593b fcbd bd25 01bd
000003a0: 2b1a 12bd 7ca2 8c3c ae27 a1bd 7839 1c3d
000003b0: 99ea 5bbe 7003 01be 224c 90bd 7652 56be
000003c0: f416 edbc e2e5 8bbc 4047 aabd f15b e8bd
000003d0: c9b0 d33c ba03 12be 1d6c 55bd d173 233d
000003e0: 6897 a9bc de49 e73c 7abc f43b 4e1b 2a3e
000003f0: 20fa b53d 445c 2dbd e939 8cbd eeb2 3a3e
