Assets/Brains/Test01.onnx (onnx, 925583 bytes, 13 tensors)

action_model._continuous_distribution.log_sigma f4 [1, 2]
000000 9b 94 2a bd 6f 35 f0 bc
       -0.041645627 -0.029322354

action_model._continuous_distribution.mu.bias f4 [2]
000000 20 aa 80 3a 64 37 96 3b
       0.0009816326 0.00458424

action_model._continuous_distribution.mu.weight f4 [2, 256]
000000 78 68 e6 39 fb db 74 bc 88 47 dc 3b 19 1c dd 3b
       0.00043946854 -0.014945026 0.0067223944 0.0067477343
000010 75 91 02 3c 40 55 5d bc ab 00 f6 ba 8a 0b 25 3c
       0.00796925 -0.013509095 -0.001876851 0.010073552
000020 63 db 19 bc 70 6e a3 bc 4f de 49 3c c8 1f e1 3b
       -0.009390685 -0.019950122 0.012321069 0.0068702437
000030 0b bc 09 bc 7e 24 8d 3b ca ca a1 3c 42 67 d2 b8
       -0.008406649 0.0043073287 0.019750018 -0.000100328136
000040 3d 2b df 3c 5a 6c 0e bc c9 81 48 bb c2 a7 70 3c
       0.027242297 -0.008692825 -0.0030594936 0.014688434
000050 61 fc a2 3a 51 01 00 3c 2d 49 64 3c 0d a2 f0 3b
       0.0012434834 0.007812814 0.013933462 0.0073435367
000060 7f 14 01 3c 30 c3 55 bc c6 41 47 3c a8 95 28 3b
       0.007878422 -0.013047025 0.012161678 0.0025723968
000070 54 92 00 b9 5b 27 40 3c 74 b1 ab 3a 44 83 20 bc
       -0.00012261543 0.011728133 0.001309915 -0.009796921
000080 df ce 1b 3c 62 78 d8 3b bd 52 b4 3b d4 00 35 bc
       0.009509771 0.0066061476 0.0055030272 -0.011047561
000090 54 eb 68 3b 0c 55 52 3c 06 1b e3 3b e6 7f 0c 3c
       0.0035540657 0.01283766 0.0069307117 0.008575415
0000a0 5a cb 1b bc 1e d1 99 3c b7 3d ac bc 4b 67 17 3b
       -0.009508932 0.018776473 -0.021025522 0.002310234
0000b0 ca c4 71 3c a9 91 6c 3c 66 5b fe bb 23 3c 8b 3b
       0.014756391 0.014439025 -0.0077623604 0.004249112
0000c0 32 5b 21 3b f7 c3 7a bc d2 99 22 3c 2c 72 63 bc
       0.0024621007 -0.015305511 0.009924369 -0.013882201
0000d0 65 55 c5 3a e3 04 90 3c 1d 07 f6 bb 6a b2 24 bc
       0.0015055357 0.017580455 -0.007508172 -0.010052303
0000e0 12 70 22 3c f2 de 52 3c c9 ac 8e bb d7 c1 7e 3a
       0.009914415 0.012870537 -0.0043540937 0.00097182154
0000f0 a6 ad 53 3c 23 fa ae bb b3 cf 1b bb 88 9e fb 3c
       0.012919819 -0.005339877 -0.0023774921 0.030715242
000100 2e 85 84 3c a9 a4 60 3c 19 59 21 bc 23 9a 20 bc
       0.016176786 0.013711133 -0.009847903 -0.009802374
000110 52 cb b4 3a 6d 79 62 bc 5e 31 8b bb a9 af b1 3a
       0.0013793504 -0.0138228955 -0.0042478284 0.0013556379
000120 a7 92 55 bb 26 b7 5f 3c ad 67 9e bb 29 eb 05 bb
       -0.0032588632 0.013654506 -0.0048341365 -0.0020434356
000130 05 d1 33 bc 0d d3 a3 38 5b 22 89 3b ba ff 2f 3c
       -0.010975127 7.811757e-05 0.0041850037 0.010742122
000140 7e 5d 9b 3b 90 07 85 bc e0 42 68 3b 1c 05 1b bc
       0.0047413697 -0.016238958 0.0035440251 -0.009461667
000150 0e 53 ad 3b bb 3c bb bb 5f cc 86 3b 67 9f 46 bc
       0.005289442 -0.0057140267 0.0041137184 -0.012122965
000160 4a ff 26 bc ce b3 98 3c a9 0f 0e bc f5 85 26 bc
       -0.010192702 0.018640425 -0.008670726 -0.010163774
000170 a3 89 ee bb b5 9b 97 39 ab 96 81 bc 5c 3d cf 3a
       -0.007279591 0.00028916975 -0.015818914 0.0015811133
000180 c1 8c 97 3c f1 75 bb 3b 33 a6 4d bb 72 68 0d bc
       0.018499734 0.005720847 -0.003137958 -0.008630859
000190 09 6b fd 3c 4a 4b c8 b9 e0 ee c8 3c 66 7f ae 3b
       0.030934827 -0.00038203067 0.024527967 0.0053252457
0001a0 b1 a5 50 3c 4d 8e 22 3b 7b b2 91 bc 16 d8 cb ba
       0.012734816 0.0024804056 -0.017785301 -0.001555207
0001b0 1f b4 2f 3c 37 77 bb bb 99 40 31 bc 8a 2a 3b 3c
       0.010724097 -0.0057209986 -0.010818624 0.011423716
0001c0 6f 91 27 3c 2a 53 d4 3a b8 b1 8d 3b 1b 2d 89 3b
       0.010227545 0.0016199101 0.0043241642 0.004186285
0001d0 ab 27 0a bb 11 c8 25 3c 6d 2f cd bb 6f 00 c3 ba
       -0.0021080773 0.0101185 -0.006261757 -0.0014877449
0001e0 d4 60 c4 3c 81 cf aa 3c 86 3b 9d 3c a8 7b a3 bc
       0.023971952 0.020850899 0.019193422 -0.019956425
0001f0 cb 65 c3 bb 8e 57 d2 bb b9 49 88 3c 22 7f 9f 3c
       -0.0059630624 -0.0064191287 0.016636716 0.019469801
000200 ce 0b ae 3b 5c 51 11 3b 20 3b ff 3b 76 51 a9 3b
       0.005311466 0.0022173738 0.0077890307 0.0051671816
000210 ad e7 84 3c f6 ac 8f bc e1 39 77 3c 5b b5 52 3b
       0.016223753 -0.017538529 0.015089483 0.0032151553
000220 d3 0a 3c bb 05 d2 61 bc 88 a6 c0 39 f7 3e 6f 3b
       -0.0028692975 -0.013782983 0.0003674517 0.0036506036
000230 aa c3 ab bb 4d 45 72 3c 56 07 b0 3b fd 0b 1d bb
       -0.005241831 0.01478703 0.0053719683 -0.0023963444
000240 05 72 dd bb d5 78 97 bb ba d2 f5 bc c3 37 c3 3b
       -0.006757977 -0.0046225586 -0.030007709 0.005957575
000250 cb dc 6a 3c 94 1f 89 3c 46 28 f2 b9 26 b7 85 3c
       0.014334868 0.01673869 -0.00046187843 0.016322684
000260 9d ed 81 3b bc 6a 2b 3c 84 dc c9 3b 07 67 53 bc
       0.0039650933 0.010462459 0.0061603207 -0.012902982
000270 6d 09 fe 3b cb cb 4f bc 90 6d 8a bc 59 6d b7 bc
       0.0077525885 -0.012682865 -0.016897947 -0.022391008
000280 f8 9b 12 3c 87 27 cc 3a 34 9c a0 3a 27 91 8a 3c
       0.008948319 0.0015575745 0.0012253583 0.016914917
000290 03 cb 55 3c 07 97 8e bc 29 e2 b6 3c 17 6e 87 3b
       0.01304889 -0.017406 0.022324638 0.004132997
0002a0 0e 2a 94 3c 35 66 9e bb 5c e1 66 bc ca 77 6e 3c
       0.01808646 -0.0048339614 -0.014091816 0.014554927
0002b0 b6 d2 1d 39 d9 0c e7 bc 37 c9 d9 ba 59 0b be bc
       0.00015051183 -0.028204368 -0.0016615753 -0.02319877
0002c0 4b 1d 04 3b ce d3 9b b9 46 6d b5 3c b7 9e 1e 3c
       0.0020159062 -0.0002972171 0.022146832 0.009681395
0002d0 8d 12 9d 3a 30 65 98 3c 67 d0 40 bc f7 da b5 3b
       0.0011983678 0.018602937 -0.011768437 0.0055497843
0002e0 76 4b e9 39 8a b7 63 39 9d 44 09 3c 4d 60 28 bc
       0.00044497446 0.0002171678 0.008378175 -0.010276866
0002f0 1c 05 4e 3c 85 d7 83 3c a8 2c 48 ba 23 3f 90 3b
       0.01257446 0.016093979 -0.0007636049 0.0044020577
000300 62 7a de 3c b2 ff 06 bc 39 60 51 3b 42 84 e3 3c
       0.027157966 -0.008239673 0.0031948222 0.027773026
000310 fb 54 a7 bc 80 39 22 3c cc 4d 6d 3c b2 92 a9 bb
       -0.020426264 0.009901404 0.01448388 -0.005174958
000320 14 ed 91 3b dc b2 b5 bb 3e 07 91 bc 76 ce 81 3b
       0.0044533107 -0.0055450033 -0.017703649 0.0039613796
000330 a5 1b de 3c ff 02 73 3c c7 8c 12 bc 5e 83 11 bc
       0.027112791 0.014832257 -0.008944697 -0.008881418
000340 db 4f b3 3b 39 62 56 3c 39 f2 a8 bb 8f 06 a8 bb
       0.005472166 0.013084942 -0.0051558283 -0.005127735
000350 3e 41 ae 3b f3 f5 9e 3c 60 41 df 3c 71 84 e9 3b
       0.005317836 0.019404387 0.027252853 0.007126384
000360 f8 f9 de 3b e9 c2 9b 39 45 71 86 3b 58 00 81 bb
       0.006804701 0.00029709123 0.0041028582 -0.0039368086
000370 74 90 9e 3b ff 53 9b ba 79 40 f5 bb ae b3 b6 3b
       0.0048389975 -0.0011850594 -0.0074844924 0.0055756187
000380 c2 ed c5 bb e9 11 a6 3c b5 9b c1 bc f6 52 17 bc
       -0.006040306 0.020272212 -0.023633817 -0.009236088
000390 8d 43 a4 3b f5 62 d1 bb 4b 87 2c 3c 0d 56 ee 3b
       0.0050129355 -0.0063899704 0.010530303 0.0072734416
0003a0 2f 6d f9 ba 13 e8 27 3c 9f a6 21 3c 11 8e ce 3a
       -0.0019029732 0.010248202 0.009866386 0.0015758892
0003b0 ae e1 04 3c d4 49 85 bb 14 86 47 3c d1 7b 43 3b
       0.008110447 -0.004067639 0.012177963 0.002982844
0003c0 56 10 ec 3c 58 a4 71 bb 32 55 74 3c 4f aa 3b bc
       0.028816383 -0.0036871638 0.01491289 -0.011454179
0003d0 6e 06 d7 bb db f5 c3 3c 2b 3d 75 bb b4 c7 d8 3a
       -0.006562046 0.023920944 -0.0037420492 0.0016539008
0003e0 ec 97 f9 3b fa 6b a2 3b 60 42 19 b9 7b 31 03 ba
       0.0076169875 0.0049567195 -0.00014615944 -0.00050046266
0003f0 9e 64 3f 3b 20 75 d1 bb 69 86 2e bc f3 28 dc 3b
       0.002920426 -0.006392136 -0.010652163 0.0067187487

action_model._discrete_distribution.branches.0.bias f4 [2]
000000 d0 7a c2 bb d0 7a c2 3b
       -0.0059350505 0.0059350505

action_model._discrete_distribution.branches.0.weight f4 [2, 256]
000000 ad dc 02 bc 58 99 f5 3b b5 03 e9 bb ef ba 24 bb
       -0.0079871835 0.0074950866 -0.0071110376 -0.0025135835
000010 fb de 6f bb 03 32 4d bb cb 2b aa bb a0 fa 56 3b
       -0.0036601413 -0.0031310327 -0.005193209 0.0032803193
000020 aa b3 2a 3c b3 a2 32 bb a3 09 0a ba e3 30 23 bc
       0.010418812 -0.002725762 -0.0005265718 -0.009960386
000030 fa c6 9f 3b 9c 1d 54 3c c5 38 bb bb df 66 75 3b
       0.004876015 0.012946513 -0.0057135546 0.003744535
000040 3c 43 c2 bb ad 6e c3 3b 73 38 9c bb 99 67 02 bc
       -0.005928425 0.0059641213 -0.0047674715 -0.00795927
000050 9d a0 ab 3b dd 4f f0 ba 42 c0 f3 bb 8c 2d a1 3b
       0.0052376525 -0.0018334348 -0.0074386904 0.0049187597
000060 d6 be 7c bb f2 d2 6a bb cc 10 e3 bb a6 59 3a 3c
       -0.0038565896 -0.00358313 -0.0069294926 0.011373913
000070 e1 97 d2 3b e7 9b 80 bb c0 ef 6f bb 96 60 fe 3b
       0.006426797 -0.003924835 -0.0036611408 0.007762979
000080 86 a7 78 3c 25 c2 0d bb 50 7f 0f bc e6 70 1d 3c
       0.015176659 -0.0021630612 -0.008758381 0.009609437
000090 c8 7a 60 3b ef 46 8a bb b8 10 25 bc 10 cf 3b bc
       0.003425287 -0.0042198817 -0.010074787 -0.011462942
0000a0 9f 52 58 3c ed 1d 73 3b cb 42 bd bb f4 b1 d3 bb
       0.013203292 0.0037096695 -0.0057757846 -0.0064604226
0000b0 bb fb 3f 3b e8 a8 2f bc 7c 6f fa 3a 87 bb e5 39
       0.002929433 -0.010721423 0.0019106711 0.00043818002
0000c0 11 6e 31 ba b9 7d 0e bb 21 01 9c bb fa 2c 62 3c
       -0.00067684153 -0.0021742417 -0.0047608768 0.013804669
0000d0 90 79 6c ba 12 f6 be 38 6a a4 eb 3b a4 00 58 3b
       -0.00090208 9.10574e-05 0.0071912305 0.0032959366
0000e0 40 91 5b 3b 44 b1 58 3a 8a cb d5 bb b3 ee 5d 3c
       0.0033503324 0.0008266161 -0.006524508 0.01354568
0000f0 1e c7 4b 3b a7 08 07 3c 8e 94 e1 3b 7c c9 4b bb
       0.0031094025 0.008241809 0.006884164 -0.0031095436
000100 b7 e5 7b 39 1c a4 ac 3b fe 38 4a 3b 8d 03 88 3c
       0.00024022801 0.005268587 0.0030856724 0.016603256
000110 10 eb c5 3a 87 4a 5f bc b0 06 3d 3c 3d ec 85 bb
       0.0015099961 -0.013628609 0.011537239 -0.0040869997
000120 63 ee da 3a df 5d bf bb 92 48 7c 3b 6e 3c 24 ba
       0.0016703125 -0.0058400477 0.0038495404 -0.0006265108
000130 74 06 ba ba 55 d8 5d 3c 6f 8d 78 3c 2b 88 8e b9
       -0.0014192597 0.013540347 0.015170439 -0.00027185804
000140 91 e0 2f ba df 1e ac bb 86 18 2a 3b 63 a0 30 bc
       -0.0006709183 -0.0052527036 0.0025954559 -0.010780427
000150 cb 33 02 3b 8f 6b 4a bb c8 ce 6c 3b 74 4b f3 3b
       0.0019867297 -0.0030886864 0.0036133993 0.007424766
000160 ac 84 74 3b 8b e3 7a bc bb 18 01 3b ae 08 bf bb
       0.0037310524 -0.0153130395 0.0019698578 -0.005829892
000170 c9 d6 b5 b8 b1 95 86 3a 2a d5 f6 ba d6 e5 59 ba
       -8.6707594e-05 0.0010268 -0.0018831838 -0.0008312141
000180 fc c2 06 3c d9 70 7e 3c 69 7e e5 ba fe 6d 90 3c
       0.008225199 0.015529835 -0.0017508987 0.017630573
000190 d5 18 70 bc 14 9f da bb 5a f4 38 bc c9 ef 1c 3b
       -0.014654358 -0.0066717956 -0.011288727 0.0023946634
0001a0 60 51 0c 3c 1e 6c ff bb 22 7f ee 3b 52 f8 d1 3b
       0.008564323 -0.007794871 0.007278339 0.006407776
0001b0 fe 80 97 bb e0 a0 20 3c 5b 76 aa bb 6e 0a c5 3b
       -0.0046235314 0.009803981 -0.0052020974 0.006013206
0001c0 14 99 ab b9 04 5a 22 bb 54 35 8c 3b 58 7d 87 3b
       -0.00032729714 -0.0024772892 0.004278818 0.004134815
0001d0 83 2a aa bb 84 92 d1 bb 73 31 9b 3b 07 36 b8 b9
       -0.005193056 -0.00639564 0.0047361194 -0.00035135468
0001e0 d2 d4 67 ba da 7f de bb 1b 7a 61 bb 14 b4 09 bb
       -0.00088436634 -0.0067901434 -0.0034405056 -0.0021011876
0001f0 16 9e 73 3c 3c c8 e0 3b b3 69 0c 3c 64 76 30 bb
       0.014869234 0.0068598073 0.0085701225 -0.0026926035
000200 46 72 4b ba 54 6f 40 ba f7 59 a7 3b 6b 99 0b bb
       -0.00077608635 -0.0007340808 0.00510716 -0.002130116
000210 cc 7c bf bb c3 c2 91 3b c5 17 97 bc 7c 70 9b 3b
       -0.0058437344 0.0044482662 -0.018443951 0.004743634
000220 0a 13 af bb 47 7f ab bb 12 3e 34 3b f9 b5 18 3b
       -0.005342846 -0.0052336785 0.0027502817 0.0023301824
000230 5e 4c 29 39 4a 85 91 3b de 12 91 bc a4 b7 a1 ba
       0.00016145545 0.004440938 -0.017709192 -0.0012338054
000240 83 5e ce bb 21 6d ad ba c4 0d eb 3b e8 23 59 bb
       -0.006297888 -0.0013231375 0.007173272 -0.0033132974
000250 4a 93 81 3c 18 d5 b5 bb 97 24 18 bb 8b 3f b6 3b
       0.015817303 -0.0055490844 -0.0023215169 0.005561774
000260 88 b2 81 3b 13 b0 6e bb 42 70 ea 3b d1 13 3e bb
       0.00395805 -0.0036420866 0.0071544955 -0.002900351
000270 40 72 1d 3a 31 07 1f 3c 80 42 38 ba 36 a1 b1 3b
       0.0006006099 0.009706304 -0.0007028952 0.005420829
000280 b8 34 ab 3b ce 11 64 3b 49 f5 5a 3b 61 ac a9 bb
       0.0052247904 0.0034800651 0.0033410362 -0.00517802
000290 da 61 a9 3b b4 d1 ee ba c8 75 42 39 33 7b fc 3b
       0.0051691355 -0.0018220455 0.00018545159 0.007705116
0002a0 e6 57 b6 39 b4 a8 71 38 36 15 45 bc 7e 1c 8a 3b
       0.00034779235 5.7615995e-05 -0.012028983 0.0042148223
0002b0 8a 6f 98 3b d1 0a 23 3b e7 85 a4 3b bb eb 03 bc
       0.0046519684 0.0024878273 0.005020845 -0.008051808
0002c0 53 72 31 bc 64 88 65 3b 36 cc 5f bc 94 dd 3c 3c
       -0.01083048 0.0035023922 -0.0136595275 0.011527438
0002d0 93 6c 55 bb ad 93 55 3b ac 81 5b ba 60 10 c1 bb
       -0.0032565936 0.0032589242 -0.00083735096 -0.0058918446
0002e0 4a 1e e1 3b 23 0e f2 bb 43 6e ed 3b 5d 2d 91 3c
       0.006870066 -0.007386939 0.0072458102 0.017721826
0002f0 f5 93 96 3b 5b 00 35 bc 45 65 2e 3c e8 3b f3 bb
       0.0045952746 -0.011047448 0.010644262 -0.007422913
000300 19 f0 2d bc d2 71 fb 3b 28 bc b2 3a 6f ec 99 ba
       -0.010616326 0.0076734805 0.0013636397 -0.0011743436
000310 4e b8 e3 3b 02 7b 45 3b 08 52 31 bc 0b 92 3e bc
       0.006949461 0.0030133133 -0.01082278 -0.011631499
000320 04 26 35 bc 7a b7 78 bc 25 38 f9 3a e6 68 f7 3b
       -0.011056427 -0.015180463 0.0019013925 0.0075503467
000330 bf 12 55 bb 1e 2e c9 3b b5 24 d0 39 f6 a9 b6 3b
       -0.0032512394 0.006139531 0.000397002 0.00557446
000340 b6 fd 0e bb da 51 11 3a 78 98 bb 3a da be 3f 3b
       -0.0021818704 0.0005543508 0.0014312407 0.0029258044
000350 b6 ff b1 3b cf 71 8f bb d7 5a 43 bb 81 08 56 3b
       0.0054320944 -0.0043775807 -0.0029808783 0.0032658877
000360 c8 81 24 3c 96 8c 49 3b 48 b3 8c bb cf 00 30 bc
       0.010040708 0.0030753962 -0.004293833 -0.01074238
000370 66 71 27 bb 7a 10 03 3c 65 47 88 3a ff fb 6e 3b
       -0.0025549768 0.007999534 0.0010397254 0.003646612
000380 7d ce 7c bb 45 d5 af 3b 49 b1 b7 bc 48 44 25 bb
       -0.0038575225 0.005366 -0.022423403 -0.00252177
000390 cb 3a ab 3b 1a 93 00 3c ce 20 80 3c fb 3a 96 3b
       0.0052255145 0.007847572 0.015640642 0.0045846677
0003a0 35 dc cb 3b ee 48 11 3c 23 46 c9 ba a2 e9 50 3b
       0.006221319 0.008867485 -0.0015355985 0.0031877537
0003b0 22 f3 9a bb a5 0e 5f 3c a1 84 6c bb 47 d6 92 bb
       -0.0047286907 0.013614331 -0.0036089795 -0.0044811103
0003c0 8d e5 07 bc bd 9b 46 3c 47 7a a5 3c 1e d3 bd b9
       -0.008294475 0.012122092 0.020199908 -0.00036206184
0003d0 6f 80 38 3c 18 d9 39 bc 46 a8 d6 bb b7 4e 96 3b
       0.01126109 -0.011343263 -0.0065508215 0.0045870203
0003e0 94 e9 e6 ba 23 2c 02 bb 4b d6 0b ba 96 2a e4 bb
       -0.0017617219 -0.0019862733 -0.00053343613 -0.0069630845
0003f0 4d 4c 13 3c 4d 8f 25 bc ee 9c c2 bb 74 43 3c ba
       0.0089903595 -0.010104966 -0.0059391176 -0.0007181682

network_body._body_endoder.seq_layers.0.bias f4 [256]
000000 af 7e 2d bb 22 74 8d 3b d7 42 67 3b 9b b2 82 bb
       -0.0026473214 0.0043168226 0.0035287642 -0.0039885766
000010 a6 22 a1 3b 1b b0 9a ba 67 78 0e 3c 5e c4 36 bc
       0.0049174605 -0.0011801751 0.008695698 -0.011155216
000020 af 99 a1 3b 4b 53 bb 39 42 86 e7 3b be 46 82 3b
       0.0049316506 0.00035729478 0.0070655653 0.0039757183
000030 38 a7 c3 bb d3 ab 93 3b 1c ba 5a bb 97 97 c0 bb
       -0.0059708618 0.004506567 -0.003337509 -0.005877446
000040 af f9 54 bb f7 2b cc 39 49 ea 89 b9 ca ab 26 bb
       -0.0032497456 0.00038942668 -0.00026305232 -0.0025431984
000050 eb 5f 36 3c 42 74 f4 38 c9 4c 90 3b 34 b7 07 bc
       0.011131267 0.000116564814 0.0044036848 -0.008283425
000060 29 9b 07 bc 91 29 a0 3b 05 6f 89 bb 47 61 84 bb
       -0.008276739 0.0048877676 -0.0041941428 -0.0040399167
000070 49 9b 2b 3c c5 98 0c 3c dc a4 10 bc bb 41 3e bb
       0.010474035 0.008581345 -0.008828368 -0.0029030878
000080 14 bd 3d 3b ee 51 4c bb 6e 28 bf bb b5 4c 93 ba
       0.002895181 -0.0031176764 -0.005833677 -0.001123807
000090 09 01 1c 3a a1 87 ca 3a ec 85 a0 bb 32 c4 ac bb
       0.0005951082 0.0015451798 -0.004898777 -0.0052724117
0000a0 20 1e 76 3b ef dd 54 3b 7e 47 41 bb f8 0f 85 bb
       0.0037554577 0.0032480916 -0.0029492076 -0.0040607415
0000b0 c1 fa c6 bb e6 dd 3d bb 3e dc e0 bb 2c 0d 4a 3c
       -0.0060723727 -0.0028971373 -0.0068621924 0.012332242
0000c0 a4 12 1e b9 45 e5 b8 3b a7 6e 51 3b ce be c1 bb
       -0.00015074998 0.0056425654 0.0031956823 -0.0059126383
0000d0 b1 9f ba 3a b6 0d 1f bb 36 a3 ae bb e1 c1 ab ba
       0.0014238266 -0.0024269647 -0.005329515 -0.0013104045
0000e0 d8 b0 12 3c d4 b5 0d bb 54 b2 38 3b c6 b6 36 bc
       0.008953296 -0.002162327 0.0028182464 -0.011151975
0000f0 c2 41 8f bb a8 9b 63 3b cc df bb 3b 57 be 49 bc
       -0.0043718526 0.003473023 0.005733466 -0.012313447
000100 67 49 df bb 35 04 02 3b bb 9b 92 3a e4 aa 9a 39
       -0.00681417 0.0019838933 0.0011185327 0.00029500492
000110 16 32 95 3a 33 45 8e ba ba 10 48 bb fe 28 ef b9
       0.0011382725 -0.0010854363 -0.0030527548 -0.00045616174
000120 70 57 24 3b f1 ed 3c 3b 71 4f ad bb 9f a8 70 bc
       0.002507653 0.0028828348 -0.005289011 -0.01468864
000130 3f 71 d7 ba 81 07 a0 bb be 99 59 bc d5 1a 8e ba
       -0.0016436948 -0.004883707 -0.013281284 -0.0010841737
000140 b0 51 4e bb 51 a2 53 bb 32 17 ac 3a e7 d6 a9 bb
       -0.0031481795 -0.0032292793 0.0013129471 -0.005183089
000150 50 bb 1f 3b b2 69 65 3b f5 96 6d 3a b8 a2 82 3b
       0.0024373122 0.0035005626 0.0009063327 0.0039866827
000160 b4 50 d9 3b 36 8c ab 3b e1 7d 61 3b 04 a2 a5 bb
       0.006631935 0.0052352203 0.0034407305 -0.005054714
000170 e2 b3 49 3a 01 42 88 bb 08 ba e4 ba ac 60 06 bc
       0.0007694346 -0.004158259 -0.0017450461 -0.008201759
000180 df 98 dd bb 1a 0b 92 3c 2a 33 87 bb 28 37 a5 3b
       -0.0067626084 0.01782756 -0.0041259723 0.0050419755
000190 1c 3b c5 3a 33 7c 14 3b ea 1f 21 ba fb 68 0b bb
       0.0015047523 0.0022657036 -0.0006146418 -0.002127229
0001a0 c7 bf d5 3b 3f 28 91 3a a0 20 ab bb a9 cd 2a b9
       0.006523106 0.0011074616 -0.005222395 -0.00016289078
0001b0 28 4a 59 bc af 8d 32 3b 0e a2 87 bb 7a 38 b9 ba
       -0.013262309 0.0027245095 -0.0041391915 -0.0014131211
0001c0 7e 41 7e bb de 73 26 3b 77 19 53 3a b8 00 79 bb
       -0.003879636 0.0025398652 0.0008052806 -0.0037994813
0001d0 70 52 4a bb 5b 57 e6 bb de 59 e7 ba 84 1c 67 39
       -0.003087189 -0.0070294566 -0.0017650684 0.000220405
0001e0 28 a2 58 bb e9 96 c6 3b 13 7c e7 b9 82 4e ef ba
       -0.0033055637 0.0060604704 -0.00044152196 -0.001825765
0001f0 e8 3c ed bb a9 2d 9a bb d0 1d 8b 3b 51 30 1f bb
       -0.0072399266 -0.00470515 0.0042454973 -0.0024290273
000200 d2 3a 54 3c 77 d5 5c 39 4b 9b f0 3b 35 e3 30 bc
       0.012953477 0.00021060357 0.007342731 -0.010796358
000210 b5 1e b4 bb a6 15 41 37 84 62 98 bb 81 6c b7 bb
       -0.0054968246 1.1508737e-05 -0.004650416 -0.0055976515
000220 88 7c 6f 3a 7d 74 25 bc d9 56 e3 bb 4b 63 8a bb
       0.0009135683 -0.010098574 -0.0069378433 -0.0042232624
000230 12 a1 3c bc af d7 0d 39 51 0d 19 bc b8 d3 93 3b
       -0.0115130115 0.00013527156 -0.009341554 0.004511323
000240 61 bd 7e 3c 12 a8 e3 bb 75 1e 14 bc e8 77 0f bc
       0.015548081 -0.006947526 -0.009040465 -0.008756615
000250 61 e9 1d bc b6 d7 16 bb e4 f5 84 bb 12 74 64 3c
       -0.009638161 -0.0023016757 -0.0040576328 0.013943689
000260 a0 9b f2 bb a3 c1 18 3a 3d 7e 3b bb 01 4a 68 3b
       -0.007403806 0.0005827194 -0.002860918 0.00354445
000270 ac 6b 62 bb 2d f4 89 bb 7e bb 6a bb 8b 83 3c bb
       -0.003454904 -0.004210016 -0.003581732 -0.002876493
000280 d5 22 ad bb 36 ff 25 3c 24 75 92 b9 86 23 de 39
       -0.0052836933 0.010131648 -0.00027934567 0.00042369607
000290 df 9f ea 3a e0 ec f7 b8 b7 a9 4a 3a c6 67 1d bb
       0.0017900429 -0.00011821999 0.0007730978 -0.0024018153
0002a0 f7 a8 8e bb 26 74 ce 39 0d 72 12 bb 71 55 97 bb
       -0.0043536383 0.0003937792 -0.0022345812 -0.0046183397
0002b0 16 bc 32 3c d8 cf fb ba c9 cc 97 3c 34 6e 26 ba
       0.010909101 -0.0019211723 0.018530266 -0.0006348819
0002c0 a5 32 ae 3b 29 2b d6 bb 69 7b 87 bb 03 68 b5 bb
       0.005316096 -0.006535907 -0.0041345847 -0.005536081
0002d0 76 1c bf ba 01 54 3e 3b 11 a9 30 bb c1 52 90 3a
       -0.0014580626 0.002904177 -0.002695624 0.0011010991
0002e0 65 d0 d2 3b 03 82 0e bb d7 78 db 3b 16 bb e1 bb
       0.006433534 -0.0021744973 0.006697755 -0.0068887575
0002f0 80 4e 08 ba 56 8c 96 39 f4 e0 22 3c f2 c3 98 ba
       -0.00051996857 0.00028714788 0.009941328 -0.0011655076
000300 3b 2d ad 3a e4 7d 05 3b 25 e0 b6 3b db e9 21 bc
       0.0013212332 0.0020369226 0.0055809193 -0.009882416
000310 a2 a3 da 3a d0 83 42 3c a2 ed 66 3b b2 8b 91 3a
       0.0016680846 0.011872247 0.0035236855 0.0011104255
000320 87 47 e0 3b 93 de cb bb a6 0c c9 3a 98 7e 01 3c
       0.006844464 -0.0062216013 0.0015338853 0.007903717
000330 64 d4 b6 bb c1 b7 18 39 79 c2 26 3b 78 66 4a ba
       -0.005579518 0.00014564303 0.0025445505 -0.00077209575
000340 c6 b1 f9 bb 62 77 16 3b 41 e5 bd 3a b1 64 58 3b
       -0.007620069 0.0022959341 0.0014487879 0.0033019
000350 3a 95 2a bb a5 35 0f 3c a3 64 f1 3b 07 62 35 3b
       -0.0026028887 0.008740817 0.007366733 0.0027676837
000360 b1 bc c4 3a 22 f6 cf bb 40 ab 43 3c c2 60 a4 3a
       0.0015009848 -0.00634648 0.011942685 0.0012541043
000370 47 81 eb 3b 12 da 16 bc 98 f4 de 3a ec 08 4a 3c
       0.007187042 -0.009207265 0.001701015 0.012331229
000380 c0 cc ba 3a 10 d9 a3 ba 5d e7 87 ba b2 41 d8 3b
       0.0014251694 -0.0012500603 -0.0010368634 0.0065996284
000390 c6 f4 92 3c ba 50 eb 3b 16 0a a0 bb 0f 09 7f 3b
       0.017938983 0.007181254 -0.004884015 0.0038915311
0003a0 79 a2 0e 3a b2 46 10 ba 9c 2f 57 ba 34 83 6f bb
       0.00054410804 -0.00055036985 -0.00082086935 -0.003654671
0003b0 e6 c9 fa bb b9 67 52 3c 32 d9 32 b8 68 d8 a9 3b
       -0.0076534627 0.012842112 -4.2640786e-05 0.0051832683
0003c0 4a 8f be bb 40 fe 1c 3c f7 cf 93 3b 37 e7 8b 3b
       -0.005815421 0.009582102 0.0045108753 0.0042695063
0003d0 85 62 0d bb b4 12 8a bb fc a1 21 bb 49 16 cb ba
       -0.0021573615 -0.0042136554 -0.00246632 -0.0015494312
0003e0 a7 94 6f bb a3 df 35 ba 6d 87 bb 3b 72 01 39 3a
       -0.003655711 -0.00069379265 0.005722931 0.00070574053
0003f0 4b d8 79 bb d8 0a d1 3a a7 38 bf bb bd f0 cf bb
       -0.0038123305 0.0015948666 -0.005835611 -0.006345837

network_body._body_endoder.seq_layers.0.weight f4 [256, 124]
000000 36 76 c4 3d fa c3 f5 bd b6 69 f5 3c d3 fb de 3b
       0.095928594 -0.1200027 0.029957633 0.006804922
000010 eb fc b7 bd 4b 9c f0 bd 1e 59 bd 3d 2e c0 0f bd
       -0.08983787 -0.117485605 0.092455134 -0.035095386
000020 af 47 5a 3c e9 29 82 bc 94 d6 b3 3d b0 9c 2c 3e
       0.013322755 -0.015889125 0.08781162 0.16856647
000030 90 91 c6 bd d4 dd ad 3d 42 95 4e bc 11 eb cc bc
       -0.096957326 0.08489576 -0.012608828 -0.025014432
000040 09 50 71 bd c9 48 f9 bc 80 1d a3 3c 14 1d 4e 3e
       -0.058914218 -0.030430214 0.019911528 0.2012828
000050 ad 1b 7e bd a6 7c d4 bd a3 89 e2 3d 74 90 a3 bd
       -0.062038112 -0.10375337 0.11061408 -0.079865366
000060 97 22 00 bd 7c ce 23 3c 82 0d 17 bd 29 b4 74 bd
       -0.031282987 0.00999796 -0.036878116 -0.059742127
000070 df 4c d6 bc 9d 95 57 3d ce ec 7e 3d 6a a2 8d 3c
       -0.026159702 0.052632917 0.062237553 0.01728936
000080 42 1e c9 3c 4d a5 a3 bc 9c 6c 05 3e eb b8 db bd
       0.02455056 -0.019976282 0.13029712 -0.1072863
000090 9f 67 ab bd 1c ae f7 bd 11 42 3a be 98 9f 27 3d
       -0.083693735 -0.120937556 -0.18189265 0.040923685
0000a0 97 07 a7 bd 7d 12 55 bd 16 52 db 3d 9b bc 35 3e
       -0.081557445 -0.052019585 0.10709016 0.17747729
0000b0 88 0b 76 bd 41 24 b3 bd 29 47 c5 3c 49 c4 1b bd
       -0.06006959 -0.08747149 0.024081783 -0.03802899
0000c0 f4 2a 9a 3d 72 81 0a 3d 68 d0 ff bd 36 c2 45 be
       0.07527724 0.033814855 -0.12490922 -0.19312367
0000d0 69 e1 22 be a7 88 c3 bd 7b ff ff bc 36 82 56 be
       -0.159063 -0.09547549 -0.031249752 -0.20948109
0000e0 92 c5 ea 3c 7a 69 eb bc 11 7f 8c 3d d7 67 a8 3d
       0.028658662 -0.028736819 0.068601735 0.08222931
0000f0 0c b9 47 bc 25 18 16 bd bf 26 1a be 02 d4 7a 3c
       -0.012190115 -0.03664412 -0.15053843 0.015309336
000100 00 7e 0c 3e b3 59 d4 bd 24 4a a8 bd 85 91 a8 3d
       0.1371994 -0.10368671 -0.08217266 0.08230881
000110 d8 b0 3f 3d c8 9b 4f 3c b5 76 97 3d 35 e1 05 3e
       0.04679951 0.0126714185 0.073956884 0.13074191
000120 e7 63 b1 bc 3b f3 b9 3d 42 db a5 bd dc 47 f4 3d
       -0.021654082 0.09079596 -0.08098461 0.119277686
000130 c8 36 36 be 89 81 1c be 62 5f e6 bb aa e5 85 3c
       -0.17794335 -0.15283789 -0.0070304135 0.016344864
000140 9e 65 84 3d d0 5b aa 3c 3b 88 2a bd 15 56 1b bd
       0.064646944 0.020795733 -0.041633826 -0.03792389
000150 d2 35 14 be 08 d1 2d be ff 83 5e bc da ce af 3d
       -0.14473656 -0.1697427 -0.013581275 0.08584376
000160 3d 50 19 bc 2b bb d1 3b 18 b0 97 3c 87 bf 28 3b
       -0.009357509 0.006400486 0.018516585 0.0025748925
000170 30 b7 23 bd 17 53 13 be 20 ab df bd 86 db 48 3e
       -0.039969623 -0.14387165 -0.109213114 0.19614992
000180 50 0f d4 bd 11 64 08 bd 2d 69 12 bd 35 bb 26 3c
       -0.10354483 -0.033298556 -0.035744835 0.01017647
000190 1b fc 5b bc c6 53 cf bc 5e 79 85 3d 97 55 08 bc
       -0.013426806 -0.025308501 0.065172896 -0.008321187
0001a0 ab 4e 81 bd 3b 3d 15 bd 74 c8 1f be 0f 75 10 bd
       -0.06313833 -0.036435347 -0.1560381 -0.035267886
0001b0 79 6d 1d bb 84 4c b0 bc 87 4b a1 be 7b e0 1f 3e
       -0.002402155 -0.02152086 -0.31502935 0.15612976
0001c0 0f 95 51 3c e9 7e 34 3c 80 8f 15 3e 24 83 9e 3d
       0.012791886 0.011016586 0.14605522 0.07739857
0001d0 e8 ac 70 bd ea 7b 34 3e 00 0e 92 bd 46 cd db ba
       -0.058758646 0.17625394 -0.071315765 -0.001676955
0001e0 06 f8 46 bd 9d 88 8a bd db b9 88 bc e4 ee 4b be
       -0.048576377 -0.06764338 -0.016690185 -0.19915348
0001f0 4a 39 97 3c 4f 7b 1a 3d 17 0a 2e bd ba a7 79 3d
       0.018459935 0.037715252 -0.04249009 0.060950972
000200 37 20 38 bd 46 ce 09 3c 37 56 96 3d 99 f3 fa 3b
       -0.044952597 0.008410996 0.07340663 0.0076584336
000210 3f 63 96 3d 17 9e b5 bc 40 66 ea 3c 00 6e ca 3d
       0.073431484 -0.02217011 0.02861321 0.09884262
000220 7a 4f b6 bc a7 0b 28 bd 22 70 c3 bd 87 3b bb 3d
       -0.022254694 -0.041026738 -0.09542872 0.09142213
000230 b3 5c 22 be ce 6b e7 3d 99 8a b9 bc fb fe 4e bd
       -0.15855674 0.11299859 -0.022649096 -0.050536137
000240 11 31 30 bc 06 04 3a bd b0 50 48 3d 43 c9 57 3c
       -0.010753886 -0.045413993 0.048905075 0.013170543
000250 46 42 2c be d7 38 08 3d c6 e6 b3 3c 58 3c bd 3d
       -0.16822156 0.03325733 0.021960627 0.09240025
000260 17 fc 1b be f3 0b d7 3b ca ab 43 3c 04 30 c0 3d
       -0.15232883 0.0065627038 0.011942813 0.09384158
000270 00 12 96 bd 45 08 13 3e cb ff 8c 3d 31 17 89 bd
       -0.07327652 0.14358623 0.06884726 -0.066938765
000280 51 07 0f bc af 9d e8 bd c9 c6 78 be 23 0d d6 3d
       -0.008729772 -0.11358201 -0.2429458 0.104517244
000290 07 68 22 bc 76 25 f9 bb a2 35 3a 3d 5d a5 52 3d
       -0.009912497 -0.0076033426 0.045461304 0.051427234
0002a0 94 49 31 be 8f 6c dd 3d 6c 2e 23 bd 5d 55 53 3d
       -0.17313224 0.108117215 -0.039839193 0.05159508
0002b0 f8 5c 7e 3c 0a 57 ee 3d 06 c7 08 be 0a 9c f9 3c
       0.015525095 0.11637695 -0.13357171 0.030469913
0002c0 21 1b 65 bd 9b 59 08 3e 45 87 50 be 36 25 3e bc
       -0.055934075 0.13315432 -0.20364101 -0.0116055515
0002d0 2d 0e 4b be b8 8c 63 3c d5 65 60 3d 96 42 7d 3e
       -0.19829626 0.01388853 0.054784615 0.24732432
0002e0 3b ca 02 bd 5b c4 1e 3e 1d f9 13 3d bb c5 65 bc
       -0.031931143 0.15504591 0.036126245 -0.014024193
0002f0 0e 52 86 3d b0 ae 44 bd d9 0b fc bb 47 c3 06 bd
       0.065586194 -0.048018157 -0.007691842 -0.032901075
000300 da 85 bd 3d ea 83 7c 3c 21 c9 63 bd e1 82 42 3b
       0.09254046 0.01541231 -0.055611733 0.002968006
000310 d5 6b 14 3d ca 1c 66 3d d8 36 bc 3c 22 a4 3c 3d
       0.03623565 0.0561798 0.02297537 0.046054967
000320 63 9c fd bd 36 34 26 3d bb ed 25 3d c1 d9 c6 bd
       -0.12383344 0.040577136 0.04050992 -0.09709502
000330 c3 c4 0a 3d 0d 37 6f 3d 5d 15 de bd d6 29 97 3d
       0.033879053 0.05840211 -0.108439185 0.073810264
000340 4f e3 a4 bd 5e 73 33 be ee 50 82 bd 9b 2e 9d 3d
       -0.08051168 -0.17524478 -0.06363092 0.07674905
000350 35 e6 00 be 00 4f 01 be 83 e2 6e b9 65 30 9c bd
       -0.12587817 -0.12627792 -0.00022781831 -0.07626418
000360 67 c4 81 3d f4 da ba 3b b6 90 da 3d b7 40 70 bd
       0.06336289 0.005702371 0.10672133 -0.058655467
000370 11 e7 15 3d eb 96 f3 3d 6d d3 10 bd 14 f5 f3 bd
       0.036597315 0.1189402 -0.03535788 -0.11911979
000380 3f 13 14 be 7d 3b ca bd a6 42 84 3d cd 0b 49 3e
       -0.14460467 -0.09874628 0.06458025 0.19633408
000390 1a 20 4e 3c 49 ce 07 be e9 ae 37 3d 02 2e b6 bc
       0.012580896 -0.13262285 0.04484454 -0.022238735
0003a0 47 3a d0 3c d9 e2 08 3b 7c 08 b2 bd 94 2b 3f be
       0.025418414 0.0020887165 -0.086930245 -0.18668967
0003b0 a4 86 d2 bd 3a 9b bc 3d 11 b6 2d 3e fc 3c c2 3d
       -0.10279587 0.092092946 0.16963984 0.09484288
0003c0 c3 7f 8e 3d 49 b1 3d 3d 72 56 c4 3c d0 95 1c be
       0.06957962 0.04631165 0.023967002 -0.15291524
0003d0 a3 78 08 bc 64 b1 3a bb 82 71 84 3b d1 f8 4c bd
       -0.008329543 -0.002848708 0.0040418515 -0.050041977
0003e0 fe 78 a5 3d e5 f4 76 bd d6 20 c4 bd 10 c3 3a 3d
       0.08079718 -0.060292143 -0.095765755 0.045596182
0003f0 ca 69 ef 3c 2f f8 dd bd 49 fd 49 be a6 ca 48 3d
       0.029225249 -0.10838353 -0.19725527 0.049021386

network_body._body_endoder.seq_layers.2.bias f4 [256]
000000 8b 11 b3 bb 1e 85 c5 39 83 75 3d bb 39 70 5f bb
       -0.005464738 0.00037673948 -0.0028909154 -0.003409399
000010 b6 87 3a bb fc cd 12 bb a3 32 4b b9 c2 e4 71 3b
       -0.0028462238 -0.0022400608 -0.00019378452 0.0036910032
000020 4e 79 df bb e2 6a fe ba 3d 33 a4 3b b9 c1 50 bc
       -0.0068198806 -0.0019410516 0.005010991 -0.0127415
000030 21 67 fd 39 38 d0 8e bb 73 b6 77 3b b0 2b f6 bb
       0.00048332757 -0.0043583177 0.0037797957 -0.007512532
000040 b8 b4 ee bb 04 f6 d2 39 53 af 9c 3b 5e 1f f9 3a
       -0.007284727 0.00040237617 0.0047816425 0.001900654
000050 9f 9c 1a bb 64 14 d5 bb 34 27 76 bb af 1c e3 3a
       -0.0023591889 -0.006502675 -0.0037559988 0.0017327274
000060 49 37 6b ba 70 01 8f b9 e6 d1 1a 3c f8 36 85 3b
       -0.00089727767 -0.00027276156 0.009449458 0.0040653907
000070 c2 ae 03 3a 86 df 78 bb b4 23 30 bb 53 65 f8 b8
       0.00050232944 -0.0037975027 -0.002687675 -0.000118444346
000080 b7 1f cf 3a 84 50 a2 bb 51 90 9b bb d7 b6 0d ba
       0.0015802298 -0.004953446 -0.0047474285 -0.00054059684
000090 1a a9 bf 3b 19 32 1a bb d1 73 88 3b 6c 9b 32 bb
       0.005849016 -0.0023528396 0.004164197 -0.0027253283
0000a0 77 6a 87 bb 4f 41 09 3b e7 4f 87 ba 4a 48 50 3b
       -0.0041325646 0.0020943468 -0.0010323495 0.003178137
0000b0 d6 33 af bb 46 4b c9 3a 92 0c db ba 19 46 77 3b
       -0.0053467555 0.0015357516 -0.001671212 0.003773099
0000c0 ed e9 f7 b9 68 2b 5c ba 6a 83 a5 bb 3e df 00 bc
       -0.000472858 -0.0008398802 -0.005051066 -0.007865725
0000d0 de df d5 bb 72 6b 53 ba e0 52 82 ba 22 4c ec 3b
       -0.006526931 -0.0008065022 -0.0009942912 0.007211224
0000e0 f5 5a 37 3c 21 36 b1 3b d0 d3 c2 38 37 32 88 bb
       0.011191119 0.005408064 9.290094e-05 -0.0041563767
0000f0 1f 72 28 39 5a 93 03 38 20 c4 26 bb 59 1b c3 bb
       0.00016064242 3.1370066e-05 -0.002544649 -0.005954188
000100 64 12 78 bb 6a 3a a8 ba 13 60 95 bb da 8a d8 bb
       -0.0037852759 -0.0012834792 -0.004558572 -0.0066083493
000110 b6 18 60 3a d7 01 b7 bb d6 b0 93 3b 63 b9 ee ba
       0.0008548604 -0.005584936 0.0045071645 -0.0018213209
000120 0d 02 2f 3c 48 8d 9c ba 6e c7 ae bb 4e eb 8c 37
       0.010681641 -0.001194396 -0.0053338325 1.6798873e-05
000130 71 a4 62 bb f2 64 64 3c e4 89 c8 ba e2 e0 1e b9
       -0.0034582878 0.013940083 -0.0015299884 -0.0001515183
000140 b4 6c d5 38 8d c3 c3 3a 56 09 8f 3b 9f 14 aa bb
       0.00010176879 0.0014935598 0.0043651266 -0.0051904465
000150 f6 a2 48 ba bd 31 62 ba 1b 8b 0b 3b 31 66 4b bb
       -0.00076536776 -0.00086286274 0.002129263 -0.0031036253
000160 3a 5d d2 ba 7a f9 94 3a b9 a8 91 ba 22 4b 20 3b
       -0.0016049512 0.0011365854 -0.0011112905 0.0024458845
000170 47 c3 77 3b 25 9a 3c 3c 7e 66 b8 b8 8d 4d e0 3b
       0.0037805603 0.01151136 -8.7928944e-05 0.0068451823
000180 db e5 cf b9 74 ce 02 bc 2e d0 b4 bb 5d 6b ae bb
       -0.00039653372 -0.007983793 -0.005517981 -0.0053228573
000190 0c f3 e2 ba 9c cd 98 3b eb ed 77 ba 34 8b ae 3a
       -0.0017314865 0.0046631824 -0.0009457755 0.0013316632
0001a0 13 b4 75 bb bc 81 8c bb 98 00 14 3c 23 70 f1 b9
       -0.0037491366 -0.0042879265 0.009033345 -0.0004605065
0001b0 cc 1a df 3a 48 48 ce bb 1b 7c 36 3c 6c cc bc 3c
       0.0017021536 -0.0062952377 0.0111379875 0.023046695
0001c0 66 03 a0 bb ee 89 c4 ba 8e c9 ab bb fe 2c 46 bb
       -0.0048832176 -0.001499472 -0.005242533 -0.003023922
0001d0 84 c7 ff ba 9d a1 cd bb e2 16 ca 3b bd 2e 02 bc
       -0.0019514416 -0.0062753693 0.0061672786 -0.007945714
0001e0 14 f9 31 39 cc 13 66 3b a5 7d 14 3b d7 a9 dd b9
       0.00016972824 0.0035107015 0.0022657898 -0.00042278945
0001f0 5f b9 ab 3b f6 ed 3e bb 27 13 34 ba f8 eb f4 bb
       0.005240604 -0.0029133535 -0.0006869309 -0.0074744187
000200 24 02 35 3b 90 dd 2d 3a 83 34 41 3b da 86 c6 bb
       0.0027619684 0.00066324417 0.0029480762 -0.006058556
000210 c3 09 7b bb 2e ff 3c 3c f0 54 10 3b 1f 83 82 bb
       -0.003830538 0.011535449 0.0022023283 -0.003982916
000220 a3 e1 99 3b 6c 0b 56 3a df fa 0e bb 87 77 cd bb
       0.0046960874 0.0008165154 -0.0021817011 -0.0062703523
000230 47 a3 34 3b 10 8f 44 bb be 45 8d bb 33 34 ab bb
       0.0027563141 -0.0029992498 -0.0043112924 -0.0052247285
000240 68 35 8d 39 36 6d d4 bb 92 45 e9 bb 0d 16 eb bb
       0.00026933406 -0.0064827455 -0.007118889 -0.0071742595
000250 30 ec 1e 3c a0 78 fb bb d1 4c 53 bc 66 e9 03 bb
       0.009699866 -0.0076742917 -0.012896732 -0.002012813
000260 d5 c3 a0 ba ae a9 00 bc 74 80 2f bb 9d 18 85 ba
       -0.0012265394 -0.007852955 -0.0026779445 -0.001015443
000270 34 93 49 b9 f0 65 97 b9 9f 16 de bb ab 48 6b bb
       -0.00019223691 -0.00028876914 -0.006777599 -0.0035901468
000280 27 f3 be 3b 0c ed fe b9 0c 5a 2a bb a8 68 03 bb
       0.005827326 -0.0004862327 -0.0025993614 -0.0020051394
000290 78 99 96 bb 51 95 a6 3a 50 de 84 3c a4 29 08 bc
       -0.0045959316 0.0012709295 0.016219288 -0.008310709
0002a0 66 18 2c 3a cf 9d c0 b9 de a0 23 bb 28 35 51 bc
       0.0006564915 -0.0003673867 -0.002496771 -0.012769021
0002b0 1d 8e 49 bb af 53 23 3b 9c fd d7 bb 07 f3 e8 bb
       -0.0030754872 0.0024921705 -0.006591512 -0.0071090492
0002c0 cc fc f1 bb 08 da 0a bc 3e b0 18 bb a0 e1 20 bb
       -0.007384872 -0.008474834 -0.0023298408 -0.0024548545
0002d0 4e 67 9b 3b f6 c5 87 bb 8b 42 70 bb 32 a9 9a bb
       0.0047425395 -0.004143472 -0.0036660756 -0.0047198767
0002e0 e5 36 08 b7 aa 4c 4a bb c8 cc 08 b9 68 24 81 3a
       -8.119013e-06 -0.003086845 -0.00013046258 0.0009852769
0002f0 c6 ce 31 bb 57 fd a7 bb 74 b2 bb 3b c0 27 b6 bb
       -0.0027131303 -0.005126636 0.0057280604 -0.005558938
000300 53 49 fb 3b fb f1 53 3b 9a 58 31 bb b8 86 ff ba
       0.007668653 0.0032340277 -0.0027060867 -0.0019495105
000310 46 90 db ba c4 cc 01 ba 55 d7 cd 3a fe c5 d9 bb
       -0.0016751371 -0.0004951472 0.0015704433 -0.006645917
000320 eb a1 e7 3a 31 35 69 3b 80 ca 16 ba f7 95 1e bb
       0.0017672157 0.0035584683 -0.0005752221 -0.0024198273
000330 02 62 b7 3a 4c 22 0c 3c 94 95 63 ba 76 e7 d1 3a
       0.0013991001 0.008553099 -0.00086816517 0.0016014415
000340 30 f2 96 3c 17 25 12 bb d9 51 22 3b 63 f4 cb 39
       0.01842603 -0.002229994 0.0024768023 0.0003890126
000350 35 e4 10 bc 75 8d 92 b8 04 e7 d5 bb dc 6b dc bb
       -0.008843471 -6.988171e-05 -0.0065277833 -0.006726725
000360 6e 8a d8 ba 0f f7 a1 3a c8 06 00 bc a2 1c 8e bb
       -0.0016520747 0.0012356954 -0.007814117 -0.0043369094
000370 32 e9 c6 bb 86 11 94 bb 9c 10 8e 3b a7 7b 75 ba
       -0.0060702795 -0.0045186905 0.004335476 -0.0009364434
000380 4b 25 18 bb 0b 2b 64 bb 82 bf 32 bb fd bf e2 3a
       -0.0023215588 -0.0034815695 -0.0027274792 0.0017299649
000390 88 26 2e bb f0 f8 d0 3a f6 ea e5 bb 9f a7 25 bb
       -0.002657326 0.001594333 -0.007016535 -0.0025276912
0003a0 d5 e5 79 bb 42 b7 7f 3c 11 e4 1c ba 0b e3 3e 3a
       -0.0038131375 0.015607657 -0.0005984912 0.0007281757
0003b0 35 cc 8e bb 14 2d fb 3b 04 ed 4b bb 87 d4 d5 3a
       -0.0043578395 0.007665286 -0.0031116614 0.0016313948
0003c0 48 8e 97 ba 83 19 18 bc be fb 74 3b 92 96 e7 3a
       -0.0011562789 -0.009283426 0.0037381495 0.0017668775
0003d0 c9 46 72 ba 03 af 21 3b 3c 91 92 3c fe 75 e3 b9
       -0.0009242115 0.0024670966 0.017891519 -0.00043384725
0003e0 a2 14 ea bb 9a e1 7b bb bf f2 d3 bb 16 29 5b 3b
       -0.007143573 -0.003843403 -0.0064681466 0.0033441237
0003f0 dd 69 bf 3b 23 db 8f 3c 38 54 df 3a ac 9d a5 3c
       0.0058414773 0.017560547 0.0017038649 0.020216785

network_body._body_endoder.seq_layers.2.weight f4 [256, 256]
000000 09 0b 54 3d b9 75 a9 bd bb 0f e7 bc 65 da cf 3d
       0.051768336 -0.08274407 -0.028205743 0.10149077
000010 b1 e7 b0 bd 1a 8e 85 3a 6e ff e7 3b f8 fc c5 3b
       -0.08637942 0.0010189444 0.00708001 0.006042119
000020 88 05 26 3d a3 58 1d 3e 90 f4 31 bd 45 45 30 bc
       0.04053262 0.15365843 -0.043446124 -0.010758703
000030 9f ce 0b bd 80 69 48 3c b7 ee e4 3c d3 a8 57 3c
       -0.034132596 0.012232184 0.02794586 0.013162809
000040 32 ae f9 bd 20 78 e6 3c ad e7 d2 3d c2 bb 8d bd
       -0.12191428 0.028133452 0.10298095 -0.069205776
000050 82 fe f9 3b 55 2c f8 bc 18 7b 14 bc 72 41 73 bd
       0.0076292166 -0.030294577 -0.009062551 -0.059388585
000060 26 b5 84 bc 19 6b 13 3d b4 44 1c 3a 99 aa 1d 3e
       -0.01619966 0.03599081 0.00059611653 0.15397109
000070 51 62 5d bd 9b 83 fe 3c 67 b3 3c 3c 3d f7 65 bc
       -0.05404884 0.031068614 0.011517382 -0.014035997
000080 c4 04 e1 bd 17 ab 7c bd 54 d0 35 3d 7f 39 00 3e
       -0.10987237 -0.0616866 0.04438813 0.12521933
000090 df 18 5d 3d 83 f9 85 bd 90 e0 8c bb ab 1c aa bd
       0.053978797 -0.06541731 -0.004299231 -0.08306249
0000a0 e4 5f 12 3e a4 2b a3 bc 82 02 c0 3d 54 e3 d7 3d
       0.14294392 -0.01991827 0.09375478 0.10541406
0000b0 84 64 de 3c ee a4 d8 bc 80 6f 02 bc a9 cf 99 3d
       0.027147539 -0.026445832 -0.007961154 0.07510311
0000c0 81 3e 45 3d ab 99 92 bd 9a 57 e9 bd 2d 36 88 3d
       0.04815531 -0.07158216 -0.11393662 0.06650958
0000d0 57 90 13 3e 8d ad 33 3d f8 3b 96 bc df 70 12 bd
       0.1441053 0.043866683 -0.018339142 -0.035752174
0000e0 e7 97 00 bd d9 d0 49 bd 45 4b 8b 3c 97 b8 7c 3c
       -0.031394865 -0.04927144 0.017003665 0.015424869
0000f0 32 d2 5d 3d 7d 9f 94 bd b3 09 ff 3d 80 13 d9 3d
       0.054155536 -0.072569825 0.12453022 0.105994225
000100 74 d6 06 bd b1 7f 45 3b 65 8a 76 3d 6b cd e5 bd
       -0.032919362 0.0030135924 0.060190577 -0.11220821
000110 2f 25 83 bd 7e 76 6c 3d bf dc b5 bd b2 36 d4 3d
       -0.064035766 0.05773019 -0.088799946 0.10361995
000120 8a 0d c6 bd 48 46 5e 3d 29 c7 c3 3d c4 d5 0e bd
       -0.09670551 0.054266244 0.09559471 -0.03487183
000130 63 55 10 3d 07 ff 90 3d 84 67 bf 3d 34 65 d0 bd
       0.03523768 0.070798926 0.09345916 -0.10175553
000140 24 c3 90 3d a5 77 c8 bd 3c 2f 9c bd 1f 55 cd 3d
       0.0706847 -0.097884454 -0.07626197 0.10026001
000150 37 8e a4 bb a8 64 45 3b 89 15 79 bd e8 69 85 3b
       -0.005021836 0.003011981 -0.060811553 0.004071463
000160 88 7f 8a 3d e0 68 44 3d aa 8e f8 bc a2 50 aa 3c
       0.06762606 0.04795158 -0.030341465 0.020790402
000170 c1 37 bc bd 6d 42 05 3d 43 8e 6e bc c8 86 bd bd
       -0.09190322 0.03253405 -0.014560285 -0.09254223
000180 6a 2a 81 3c b0 0f 8b 3c f2 16 93 3d 97 c4 29 bd
       0.015767295 0.016975254 0.07182111 -0.04144725
000190 a7 14 97 3d 4b a7 04 3d 8d 89 8a 3d 4d 1f ec 3d
       0.07376986 0.032386106 0.06764517 0.11529408
0001a0 1f 96 a8 3d 05 47 d5 3d 53 00 6e 3c 7d f3 9a 3c
       0.08231758 0.104139365 0.0145264445 0.018914932
0001b0 c2 e5 69 bd dc ed 98 bd 23 a4 20 3c 54 14 43 bd
       -0.05710388 -0.07467243 0.009804758 -0.04762681
0001c0 db 3b ac 3d 70 c8 71 3d 3a 53 84 bd 21 63 50 3d
       0.08409854 0.059029043 -0.06461187 0.050875787
0001d0 24 e4 80 3c c9 8c 0d bc c9 3a 45 3d 90 c4 95 bd
       0.015733786 -0.008639523 0.048151765 -0.07312882
0001e0 6f 02 1f bd d4 c1 a4 bc c1 88 84 bd 24 13 ca bc
       -0.03882068 -0.020111956 -0.06471396 -0.02466733
0001f0 d5 e0 b7 3d 38 5f 11 3e b8 69 60 bd c0 86 de bd
       0.0897843 0.1419648 -0.05478832 -0.10865545
000200 c8 d8 b3 3d f4 35 9b bb 6d fd 3e 3d 66 02 95 3d
       0.08781582 -0.0047366563 0.046628404 0.07275848
000210 e3 97 28 bd 6c af 7e bd 1f 81 b0 bc a0 f7 85 3b
       -0.041160475 -0.062179014 -0.021545945 0.004088357
000220 3e bb 2f 3c f0 53 b3 bc db 86 6e bd 15 48 94 bb
       0.010725794 -0.02189061 -0.058234077 -0.0045251944
000230 86 b2 92 bd e4 f4 cd 3b e4 85 4e 3d 53 5e 0d bd
       -0.07162957 0.0062852968 0.050420657 -0.034513783
000240 38 7e bc 3d 22 d0 6c 3c c2 51 73 bd a3 9d f5 3c
       0.09203762 0.01445392 -0.059404142 0.029982394
000250 2e 54 39 bc a3 c2 4a bd 9f 3a b7 bd af 63 c5 bd
       -0.011311574 -0.049502026 -0.08946728 -0.09638154
000260 9c d2 1f 3d 2a f7 03 bd 51 fa 3e 3d 50 4f cc 3b
       0.039019212 -0.032218136 0.04662544 0.0062350407
000270 7b 1f 83 bd 65 d2 14 3d 6b 4f dd 3c b1 c7 01 bd
       -0.06402489 0.03633346 0.027015409 -0.03168458
000280 7f 8d 6d bc 9a 23 cc 3c 1b 38 fb 3c 12 ac 38 be
       -0.014499067 0.02491932 0.030666402 -0.1803439
000290 13 cc 3b 3d 12 4b 55 bd e4 90 f8 bd a6 7f dc 3c
       0.045848917 -0.052073546 -0.12137011 0.026916336
0002a0 c6 29 54 3d 83 28 20 bb 7b 94 d7 3d d6 60 9f 3d
       0.05179765 -0.002443821 0.10526367 0.07782142
0002b0 17 13 cd 3d 0d 17 9a 3d de 24 36 3d 37 d5 07 bd
       0.10013407 0.07523928 0.044468753 -0.033162322
0002c0 6c ee 93 3d 30 5f 9f bd eb f5 bc bb 56 d2 8b 3c
       0.0722321 -0.077818274 -0.0057666204 0.01706807
0002d0 e7 0b 61 3d 7b a2 70 3d 77 77 6b 3c ae 09 aa bc
       0.05494299 0.058748703 0.014371744 -0.020756569
0002e0 ac 42 18 3e e5 fb 2f 3d a6 16 ca bc 75 13 0d 3d
       0.14869183 0.042964835 -0.024669003 0.034442384
0002f0 8a b1 58 3d 53 bf 1a 3c 45 8f 56 bd e2 7d 2b 3b
       0.05290369 0.009445029 -0.052382726 0.0026167561
000300 01 fb 79 bd 69 38 7b bc 9e b9 8c bd 2d 31 aa bc
       -0.06103039 -0.015333273 -0.06871341 -0.020775402
000310 00 9c b0 bd 61 83 2e 3d 02 30 24 3e 86 41 5b bd
       -0.08623505 0.04260576 0.16033939 -0.053529285
000320 0d 61 e5 ba 89 73 58 bc 7b 27 a1 3c a4 27 94 bd
       -0.0017500237 -0.0132111395 0.019672146 -0.07234123
000330 10 35 2c bd ca 33 07 ba 43 3d b7 bc 27 3d 62 3d
       -0.04204279 -0.00051575585 -0.022368079 0.0552341
000340 cb d4 4d 3d 99 8a 1b bd 88 33 96 3d 14 b1 99 3c
       0.050251763 -0.037973974 0.073340476 0.018761195
000350 94 45 5e 3c 17 5c 0a 3d ac 13 c3 bd 05 11 d8 3c
       0.013566393 0.03377923 -0.095252365 0.026375303
000360 6f d0 0b 3c 0d 5a b8 bd 7d 3b 89 3d e3 1b 56 bc
       0.008533581 -0.09001551 0.067007996 -0.013068172
000370 bf fd 60 bd 72 fd 72 3c e5 77 4f bd 7d 9d d9 ba
       -0.05492949 0.014830934 -0.05065145 -0.0016602721
000380 bd 02 82 bd 5b 09 d2 3d a3 bf ac 3c 3f 6f 1d 3d
       -0.063481785 0.10255691 0.021087473 0.03843617
000390 ff c4 b9 3d c7 f6 fd bb 5d fa cc 3d 6e b8 84 bd
       0.09070777 -0.0077503654 0.100086905 -0.0648049
0003a0 09 e7 76 bd 0d fa 71 3c 46 5c 20 bc 57 b5 00 bd
       -0.060278926 0.014769089 -0.009787625 -0.03142294
0003b0 43 4c 01 bd 3c 3f 06 3e c1 95 da 3c 8a 1a e2 3c
       -0.03156687 0.1311006 0.026682736 0.027600545
0003c0 bf b8 c4 3c 31 c1 84 bc 02 cc 9c 3d bd f3 f5 bb
       0.024013875 -0.016205402 0.07656099 -0.0075058625
0003d0 62 51 7c bc 07 00 60 3d 2e 5c 52 bc 8e 5c 01 3c
       -0.015400263 0.054687526 -0.01283936 0.007895602
0003e0 21 5f ff 3d 8c 7d c8 3c 2d d4 51 bc 0e 10 0a bd
       0.12469316 0.024473928 -0.012806934 -0.033706717
0003f0 37 91 1d 3d af 51 0f bd 96 04 44 3d 0d d2 76 3c
       0.038468566 -0.03499001 0.047855936 0.015064728
