Assets/results/ppo/MoveToGoal/MoveToGoal-87227.pt (torch, 440375 bytes, 40 tensors)

discrete_act_size_vector f4 [1, 2]
000000 00 00 80 40 00 00 00 40
       4.0 2.0

network_body._body_endoder.seq_layers.0.weight f4 [128, 4]
000000 66 86 b8 be 95 cc e7 be 57 1f 01 3f 86 db 35 3f
       -0.36040038 -0.4527327 0.50438446 0.7103809
000010 21 cb 31 bf 88 10 0a bf 97 ce a0 3e db f2 37 3f
       -0.69450575 -0.53931475 0.31407616 0.71854943
000020 37 f9 40 bf 8f 6a a1 bc ba 56 9d 3c f5 bf 9f bf
       -0.7538027 -0.019704131 0.019206394 -1.2480456
000030 16 32 cf bd 79 65 e5 3e cd e3 95 3d 86 48 9c 3e
       -0.10116975 0.4480398 0.0731884 0.3052408
000040 26 4c a5 3e 5b d2 1b be 06 b5 5f 3c 6d 04 7a bf
       0.3228466 -0.15216963 0.013653999 -0.97663003
000050 af 9f e0 3e 6a 25 5b 3e c8 43 ab 3e 34 39 c0 be
       0.4387183 0.21400991 0.3345015 -0.37543643
000060 6b 65 90 3d 43 81 74 3d b4 fd bb 3e 20 61 d7 be
       0.07050594 0.059693586 0.36716998 -0.42066288
000070 09 e6 85 3d 33 b0 28 bf aa 00 10 3f de d4 f0 be
       0.06538016 -0.6589386 0.56251013 -0.47037405
000080 28 59 87 3d 1a 68 1b bf b6 cf 96 3e 90 ac 5c 3f
       0.06608802 -0.6070572 0.29455346 0.8620081
000090 6d c9 04 3f 76 e0 bd be 80 2d f0 3d da 9d db 3e
       0.5186985 -0.37085313 0.117274284 0.4289387
0000a0 92 b5 cc be a5 7f 73 bf 81 d9 1a be 00 5b 45 3f
       -0.39982277 -0.95116645 -0.15122034 0.7709198
0000b0 57 a5 6e bf 4b 8a ba be a0 19 0d 3e 04 5c 13 3f
       -0.9322104 -0.36433634 0.13779306 0.5756228
0000c0 57 f7 e7 be 78 9b 60 bd 06 93 f0 3e 98 c0 b6 be
       -0.45305893 -0.054835767 0.4698717 -0.35693812
0000d0 23 a7 92 bf 83 79 4a be b8 ce 22 bd c8 28 51 3f
       -1.1457256 -0.19772916 -0.039747924 0.8170285
0000e0 59 bd fb bc f9 9f 09 3e 36 ee b0 3e a8 9a 74 bd
       -0.030729936 0.13439931 0.3455674 -0.059717804
0000f0 7a 38 36 3e ca b1 33 3d 81 78 18 3e 84 46 57 bf
       0.17794982 0.043870725 0.14889719 -0.84091973
000100 33 1d 5c be dd 6c a8 3e 49 90 10 bf 03 22 27 bf
       -0.21495514 0.32895556 -0.5647016 -0.6528627
000110 0c d5 28 bf 25 9a 87 be 92 db 5c 3f c5 58 d8 be
       -0.65950084 -0.2648479 0.8627254 -0.42255226
000120 c9 af 92 bf 1b 07 8f bf 1c d6 c4 3d 8a c6 09 be
       -1.1459895 -1.1174043 0.096111506 -0.13454643
000130 ac 04 76 3e 23 83 0a 3d c5 36 04 be d8 81 c1 3e
       0.2402522 0.033816468 -0.12911518 0.37794375
000140 44 4d 03 3e b8 24 07 bf a1 68 33 3f d7 49 de 3e
       0.12822443 -0.52790403 0.70081526 0.4341571
000150 53 7c e4 3e 4d 29 10 3e 85 d4 8f be dc ce dc be
       0.44626102 0.14078255 -0.28091827 -0.4312657
000160 6c c7 ce 3b a0 5c 31 be 47 71 d9 3e f8 79 98 be
       0.006310394 -0.1732049 0.42469236 -0.29780555
000170 5e 75 cf 3e 5c 44 c4 3e dc 7b 87 be e6 52 20 3f
       0.40519232 0.38333404 -0.26461685 0.6262649
000180 6d 4e 47 be f5 7d 8c 3b 5a 0c 70 bd 91 fc 02 3e
       -0.19463511 0.004287476 -0.05860553 0.12791659
000190 c4 6b 1c 3f 1a 56 f1 be 39 72 89 be e5 ad 7e 3f
       0.6110194 -0.47136003 -0.26844957 0.9948409
0001a0 f8 a4 7a be 4b 26 23 bf 76 11 69 be 93 0a 17 3e
       -0.24476993 -0.63730305 -0.22760567 0.14750127
0001b0 05 30 8d be 5d 6d 6f bf 56 1d e9 be be 75 8e bf
       -0.27575698 -0.9352625 -0.45530194 -1.1129682
0001c0 a0 c8 1a be 48 0c 88 bf f9 0d f3 bd c6 64 96 3e
       -0.15115595 -1.0628748 -0.118678994 0.2937376
0001d0 67 e4 2d 3f c2 00 29 bf f0 d9 de bd 09 09 eb bd
       0.6792664 -0.6601678 -0.10881412 -0.11476333
0001e0 e3 c5 de bd 7f 84 84 3d 7a fc 69 3f 19 39 b0 3e
       -0.10877588 0.06470584 0.91400874 0.34418562
0001f0 16 ee bd be c4 b6 80 be 3a da 15 be 9a 11 6d 3f
       -0.37095708 -0.2513944 -0.14634028 0.9260498
000200 25 90 fd be a0 21 32 3f 38 15 fe be cd 2d 6d 3e
       -0.49524036 0.6958256 -0.49625564 0.23162003
000210 17 f5 f2 3d fb 99 69 3f af 6e 1c bf 0c dd 9f be
       0.118631534 0.9125058 -0.6110639 -0.31223333
000220 0d 67 c1 be 33 27 05 bf a2 b0 18 bf c7 90 f8 bd
       -0.37773934 -0.5201294 -0.5964452 -0.12136989
000230 87 a2 84 3f 64 26 81 3f f4 c7 b1 3e 9e a8 82 3e
       1.03621 1.0089841 0.34722865 0.2551927
000240 c7 61 bd be 3e 77 31 bf 68 bb c5 3d 4e f7 9c bd
       -0.3698866 -0.69322574 0.096548855 -0.07664357
000250 74 be 98 be 08 de ed 3e 2b 9d dd be 08 ab 85 3e
       -0.29832804 0.4645846 -0.43283972 0.2610705
000260 60 9e 0e bf 53 0d 35 be fe 2c 3a bf c8 d7 94 3f
       -0.5571041 -0.17680864 -0.727249 1.1628351
000270 18 e1 91 3e 6e 41 93 3e 41 1a ac 3e 96 83 8b 3e
       0.28492045 0.28760856 0.3361378 0.2724883
000280 1c 31 b8 3d 9c 41 ab 3e c4 77 82 3e 73 5f c6 bd
       0.08993742 0.33448493 0.25482 -0.09686174
000290 83 50 6c 3e 57 28 fb 3e fd 66 a1 3e cb f0 fc 3e
       0.23077588 0.49054214 0.31523886 0.4940246
0002a0 73 ba e4 3c 67 30 50 bf a2 72 91 3f 95 a5 38 be
       0.027920937 -0.81323856 1.1363108 -0.18031915
0002b0 11 e2 5c 3f ca 79 ff 3d 31 76 14 3f d7 21 26 bd
       0.8628245 0.12474401 0.57992846 -0.040559616
0002c0 32 5f 84 3e 31 3f 00 3f a0 6d 4b 3e 89 40 13 bf
       0.25853878 0.5009642 0.19866037 -0.5752035
0002d0 c2 6b 91 bd 3c 6e d9 3e 05 40 97 3e 39 02 e3 be
       -0.07100631 0.42466915 0.2954103 -0.44337633
0002e0 41 a5 a2 3f af 21 a2 be bb 0b 82 3e d1 cf 76 bc
       1.2706681 -0.31666324 0.25399575 -0.015064196
0002f0 1a f0 86 3f f4 2f 23 be 1d ca 96 be 40 64 14 3e
       1.0542023 -0.15936261 -0.29451075 0.14491367
000300 86 ed 74 bf d1 61 50 3e 8c 2e 66 3d 84 74 21 bf
       -0.9567493 0.20349814 0.056196734 -0.63068414
000310 47 e5 fa 3e eb 60 10 be bb 9f fa 3e 08 5e fd be
       0.4900305 -0.14099471 0.4894999 -0.49485803
000320 1f 12 37 3e 04 ba 03 be f5 19 f1 3d bb 0f f2 3e
       0.17878006 -0.12863928 0.11772529 0.47277626
000330 a7 c9 2a 3f 3a b4 54 bd ad 9a 13 3d 39 d9 07 be
       0.6671395 -0.05192969 0.036036182 -0.13266458
000340 fd 4a db be f4 c2 14 be d2 60 9c be 5a e3 cf bd
       -0.4283065 -0.14527494 -0.30542618 -0.10150786
000350 bb 0d 03 bf 13 68 11 3f a0 88 a3 be 7a 5e 7c 3f
       -0.51192826 0.5679943 -0.31940174 0.9858166
000360 ef fa e5 3d 14 7f 81 3e 0e f6 3e bf 75 39 d7 3e
       0.112295024 0.25292265 -0.745942 0.42036024
000370 ad c2 77 be 24 e5 d7 be 27 65 74 3d 76 a9 e5 3d
       -0.24195357 -0.42167008 0.05966678 0.11213963
000380 64 90 9c be 05 ef d8 3d 69 4f b2 bc 19 7d 25 be
       -0.3057891 0.10592464 -0.021766381 -0.16161002
000390 d1 bd 26 3e 27 44 ed be 4d 19 37 3f be e9 9d be
       0.16283347 -0.4634106 0.7152298 -0.30842394
0003a0 77 5c 0b 3e d6 bb ca bd 11 a4 28 3d 21 3c cc be
       0.13609491 -0.09899108 0.04117209 -0.39889625
0003b0 b3 5e 5e 3f 49 52 55 be b8 69 3b bf a1 f7 53 be
       0.8686325 -0.2083217 -0.7320819 -0.20699932
0003c0 91 c4 c2 bf 2c db af bd 75 1e 83 3d 46 d4 cd 3e
       -1.5216237 -0.085867256 0.064022936 0.40201014
0003d0 53 ee 19 bf 24 7e 0e 3f 88 7f 3d be 91 31 36 3f
       -0.6012928 0.55661225 -0.1850568 0.7116938
0003e0 44 30 b7 3e 69 58 06 bf 1e 68 3c 3f 63 52 01 3f
       0.3577901 -0.52478653 0.7359637 0.5051634
0003f0 5b 92 b4 be c9 1d 3f bc 39 05 8b 3e f9 bf 62 bf
       -0.3526791 -0.011664816 0.27152422 -0.8857418

network_body._body_endoder.seq_layers.0.bias f4 [128]
000000 62 a7 db 3b 4b a8 20 bb c6 85 48 3c 20 3e 88 3c
       0.006703303 -0.0024514373 0.012238925 0.016631186
000010 76 c6 4f ba 51 ec d0 3b c6 75 01 3c 19 36 76 3b
       -0.00079259963 0.0063758274 0.0079016145 0.0037568866
000020 6c de a7 3b b6 a2 84 3c 04 e3 4e bc 5a f5 38 bc
       0.0051229503 0.016190868 -0.012627367 -0.011288965
000030 f4 9c 82 bc 83 ff 08 bc 0e e7 d9 3b ca a2 0b 3c
       -0.015943982 -0.0083617 0.0066498583 0.008522699
000040 d3 00 88 bc 0d 3d 6f bc df 87 42 bc 3b 30 89 bb
       -0.016601956 -0.014601958 -0.0118732145 -0.0041866577
000050 4b d3 69 3c 78 fe 29 3c 17 50 f7 bb 35 e8 b7 3c
       0.014271568 0.0103756115 -0.0075473893 0.022449592
000060 83 42 9c bc 3c 7f 81 3c 5f 80 82 3c 82 12 9c bc
       -0.019074684 0.01580774 0.015930353 -0.019051794
000070 1b 91 03 bc ce 75 23 bc 11 32 a4 3c 37 19 59 bb
       -0.008030201 -0.009976817 0.020043405 -0.0033126601
000080 3f 90 39 bc e7 62 14 bc f0 2d 7d bc da 6f 73 3c
       -0.011325895 -0.009056783 -0.015452847 0.01485821
000090 99 dd f0 3b d6 c7 2a 3c 39 e9 f7 bb e6 17 86 3c
       0.0073506352 0.010423621 -0.007565644 0.016368818
0000a0 f3 00 9b 3c d2 73 48 3c db c2 8c 3c e3 4f a6 3c
       0.018921351 0.012234645 0.017182758 0.020301765
0000b0 20 f5 22 3c 5d 81 9a 39 5e e5 89 3c 76 b2 86 3c
       0.009946138 0.00029469552 0.016833004 0.016442519
0000c0 0b 07 75 bc 12 ed 7f 3c f8 b8 24 bc 45 c4 d2 3b
       -0.014955292 0.015620487 -0.010053866 0.0064320886
0000d0 92 8c 85 bc 13 a0 3d 3c 18 27 6e bc a7 d0 ac bb
       -0.01630238 0.011573809 -0.014535688 -0.0052738967
0000e0 39 b8 85 bc 84 f4 9f bb 60 b7 0c 3b 6b 9b a7 3c
       -0.016323196 -0.0048814435 0.0021471605 0.020459851
0000f0 3f 24 2c 3b 4a d2 7c bc 21 c5 91 3c 25 a4 14 3b
       0.0026266722 -0.015430996 0.017794194 0.0022680846
000100 70 62 85 3c 35 be 99 ba 7f f8 8f 3c d7 a3 29 bb
       0.01628229 -0.001172966 0.017574547 -0.002588501
000110 ca 98 92 ba 91 2b 4f 3c 2f c5 19 3c 4b 1a ab 3c
       -0.0011184451 0.012644664 0.009385391 0.02088656
000120 f5 6c 6e 3c 7c 7f 8f 3b 8c 68 e0 bb 56 a3 fc 3b
       0.014552345 0.004379211 -0.0068484005 0.007709901
000130 32 23 20 bc cf 9c 8a 3c e7 4f 63 3c 89 a4 a8 bc
       -0.009774016 0.016920475 0.013874031 -0.020586269
000140 69 a5 4f 3c ff d5 63 b9 9f 87 02 bc c2 50 1e 3c
       0.012673714 -0.00021728127 -0.007966905 0.009662809
000150 53 71 31 3c d3 91 a9 3c 04 f1 9d 3c 00 7c 96 3c
       0.010830241 0.020699417 0.019279964 0.018369675
000160 1a ff 8c 3a c4 25 1c bc 94 fb 36 3c d4 a1 90 bc
       0.0010757179 -0.009530488 0.011168379 -0.01765529
000170 ad 39 9b bb d1 37 58 bc 7f 09 bc 3b 3f 3c 94 bc
       -0.0047371 -0.013196901 0.0057384367 -0.018095134
000180 bd de 1b bc 7a 87 39 3c 51 29 de ba f3 19 54 bc
       -0.009513554 0.011323804 -0.0016949569 -0.01294564
000190 90 c1 7d 3c 81 ce a4 3c af 01 86 bc 32 30 7f 3a
       0.015488043 0.020118 -0.016358225 0.00097346597
0001a0 3a bb 5d 3c 5e 9f 8e bc 61 c5 dc 3b b3 cd 9f 3c
       0.013533408 -0.017409977 0.0067373966 0.019507265
0001b0 31 bf 56 3c 81 bc 0c 3a 94 44 87 3c 78 1e 6e 3a
       0.013107107 0.00053686654 0.016512193 0.00090835197
0001c0 78 c0 5b bc b1 e8 4e bc a2 d9 20 3c 3f 3c 94 3c
       -0.013412587 -0.01262872 0.009817513 0.018095134
0001d0 4d 72 dc bb d7 71 9e bc fa 42 4c 3c b1 d2 51 bc
       -0.006727493 -0.019341392 0.01246714 -0.01280658
0001e0 ee dd 0d bb 95 85 7c 3c cb 61 e3 bb 90 1e 6f bc
       -0.0021647173 0.015412708 -0.006939148 -0.014594689
0001f0 85 6c 8f bc 9e fc ad 3c b8 31 2a bb f3 18 4c bc
       -0.0175078 0.021238621 -0.0025969576 -0.01245712

network_body._body_endoder.seq_layers.2.weight f4 [128, 128]
000000 05 83 15 be f8 ed d5 bd e9 58 41 3e 70 dd ac 3c
       -0.14600761 -0.104457796 0.18881573 0.021101683
000010 78 1e f9 bd 1b 6a 9b 3b d8 64 32 3b 50 bb 2c 3d
       -0.121640146 0.0047428734 0.0027220752 0.042170823
000020 54 2c 8d 3c 44 e1 5a 3c ec 7c ee bb 9a 82 73 bd
       0.017233051 0.013359372 -0.0072780754 -0.059450723
000030 94 d4 9b bd 75 f7 70 bd 98 ad 5e bd d8 38 72 3d
       -0.076089054 -0.058829743 -0.05436477 0.05913624
000040 ba 63 c7 bd 1e b7 02 bc 28 53 f7 3c b7 72 8a 3d
       -0.09735818 -0.007978229 0.03019102 0.06760161
000050 2a c1 dc 3d da 9a 38 3d 15 25 90 3d aa ba 39 3d
       0.107790306 0.045069553 0.07038323 0.045344032
000060 6e 82 32 3b e5 a7 7a bc 38 a1 fb 3d 5f d4 6a bb
       0.0027238387 -0.015298818 0.122866094 -0.003583215
000070 3c cd a7 bb 95 25 fd 3d 04 81 ba 3c e4 18 8b bd
       -0.0051209014 0.12360684 0.022766598 -0.06791857
000080 57 e9 40 3b 0c f7 40 be 26 c7 07 bd bf b5 f8 3d
       0.0029435956 -0.18844241 -0.033148907 0.1214404
000090 8e 97 8a bd 63 fc 39 3d 01 03 18 be f4 89 bc bd
       -0.06767188 0.04540671 -0.14844896 -0.09206
0000a0 db 3f 82 3b dd a7 15 bd de 2c c1 bb a1 a3 1e bd
       0.0039748973 -0.03653704 -0.005895241 -0.038730267
0000b0 ad d1 0f 3d da 1c 47 bc da b3 ab bc dc 22 43 3d
       0.03511207 -0.012152875 -0.020959783 0.047640666
0000c0 08 9c ac 3d 16 8c 52 bd 36 5e 8c bd 21 bf 97 bd
       0.08428198 -0.051403128 -0.06853907 -0.07409502
0000d0 5f eb 38 bd b9 52 eb 3d b6 d4 85 bd e0 22 75 3d
       -0.045146342 0.114903875 -0.06534712 0.059847713
0000e0 ce 54 e2 bd ac 4c 3c bd 16 74 05 3b 3a 2c 8c bd
       -0.110513315 -0.045971557 0.0020363382 -0.06844373
0000f0 34 26 1b bd 70 8e 40 be dd 46 0e bc 45 0e 22 bd
       -0.03787823 -0.18804336 -0.008683887 -0.03956439
000100 a6 54 81 3d 37 96 14 3d ca 45 83 3d a9 5a 90 3d
       0.063149735 0.03627607 0.064097956 0.07048542
000110 65 ad 05 3e 7e a0 cf 3d 98 fe 13 be bd f9 8c 3d
       0.13054426 0.10138033 -0.14452589 0.06883571
000120 6d bb b7 3d a0 44 92 bd e9 9c 35 3d 5c cb ad bb
       0.089712955 -0.071419954 0.044339094 -0.0053037833
000130 1c 8b 54 3d 69 50 21 3d ab e7 3d 3d 1f 9b c7 bd
       0.051890478 0.039383326 0.046363514 -0.09746384
000140 11 ac 0e 3d 24 1e 1f 3e 5c 64 21 3d 41 0c d4 bc
       0.034832064 0.15538841 0.03940235 -0.02588475
000150 56 15 9c 3c 2e 73 b8 3d 57 e6 f7 3d 4f ea b7 3d
       0.019053143 0.09006344 0.12104481 0.08980238
000160 09 44 5b 3d 32 79 91 be f9 95 3f bd 1b 28 f9 bd
       0.05353168 -0.28412777 -0.046773884 -0.12165853
000170 2f bd b1 bc 6e 62 07 be 56 b6 02 3e 02 20 de bd
       -0.021696655 -0.13221142 0.12764868 -0.10845949
000180 28 3b f2 3d f1 65 73 3d 53 e4 68 3c ce 18 20 be
       0.118276894 0.05942339 0.014214593 -0.15634462
000190 92 84 d7 bc ea dd 08 3e 6c 23 85 3d 3f 65 97 3d
       -0.026308332 0.13365903 0.06500897 0.07392358
0001a0 bb f8 63 3d 64 f3 08 be 66 be 15 3e 18 43 74 3d
       0.05565713 -0.13374096 0.14623412 0.059634298
0001b0 db a4 89 3d 37 6b 44 bd 27 ee da bd f1 41 5f 3d
       0.06720897 -0.04795381 -0.10689955 0.054506246
0001c0 10 36 a3 bd 26 64 ff 3b f0 98 18 3e 0f 90 8d bd
       -0.07969296 0.007793921 0.14902091 -0.069122426
0001d0 5a 9c 95 bd ca 2c 70 bd bd 26 91 bc 45 33 1b be
       -0.07305212 -0.058636464 -0.017718667 -0.15156277
0001e0 bf 13 cb 3d 14 01 03 bd de df 0a bd 35 c7 eb bd
       0.09915876 -0.03198345 -0.033904903 -0.11512605
0001f0 db 08 cf 3d bb 01 dd bb 44 cc e5 3d 86 7c fa 3c
       0.10109111 -0.006744591 0.11220601 0.030576956
000200 98 55 5b 3e fa d4 ff bc 25 fa 59 3c 2a cb af 3c
       0.2141937 -0.031229485 0.013304268 0.02145918
000210 98 c1 e4 3d 8c 23 96 bd c3 f1 1e bd 80 c2 30 3e
       0.111697376 -0.07330999 -0.03880478 0.17261696
000220 5d 0b ad 3d 65 0c f2 bc 1c 03 3a be dd 90 0a 3d
       0.08449433 -0.029546926 -0.18165249 0.03382956
000230 4e 45 6c 3c e6 83 9c bc 60 51 b3 bd 30 0d 12 3d
       0.01442082 -0.019105863 -0.087557554 0.035657108
000240 28 60 8f bc f8 b7 5c 3d ef 34 ba 3d 49 e1 f7 bd
       -0.017501906 0.053886384 0.090921275 -0.121035166
000250 e6 b8 82 bd ae 6a 9f 3d dd 9d df 3d 45 5f 20 bc
       -0.06382923 0.077840194 0.10918782 -0.009788339
000260 ff 23 0a bd 41 f3 5f 3c 33 85 d1 bd 09 5d 81 bc
       -0.033725735 0.013668836 -0.10230484 -0.015791433
000270 c4 74 93 bc 76 74 07 3d 0e 27 3d bd e7 21 fa bd
       -0.018000014 0.03307005 -0.046179824 -0.122134976
000280 c6 be 3f 3c 16 81 93 bc b3 c2 82 bd 2e 5d c4 bc
       0.011703199 -0.018005889 -0.06384792 -0.023970213
000290 70 64 40 bd 21 d0 b2 bc 91 0f 41 3d 14 3e f3 bc
       -0.046970785 -0.02182776 0.047133986 -0.029692687
0002a0 64 b3 45 bd 8a 4e a9 bd 37 40 1e 3e fb d1 af 3c
       -0.048266783 -0.08266933 0.15454184 0.021462431
0002b0 7e 30 9a 3d ff 70 9f 3c ef 17 06 be aa 4c 9c 3d
       0.075287804 0.01946306 -0.13095067 0.0763181
0002c0 b7 7c 32 3d 97 6a 3e bb 61 06 44 3e 25 5e a2 bd
       0.04357597 -0.0029055232 0.19143058 -0.07928113
0002d0 4a f8 23 3d 33 50 34 bd c2 d4 f3 bd 3a 46 08 bd
       0.04003171 -0.044021796 -0.11905815 -0.0332701
0002e0 10 d8 a7 3c c0 e0 02 3d cf c3 f2 3d 7f 4e 0b 3d
       0.020488769 0.03195262 0.11853754 0.034010407
0002f0 d7 92 23 bc 29 0f 51 bc 70 eb e4 bd 26 89 2c 3d
       -0.00998374 -0.012759962 -0.11177719 0.042122982
000300 76 04 e8 bc 12 0b 0b be d8 18 0c bd 3d 3d 7c bc
       -0.02832244 -0.13578442 -0.03420338 -0.01539546
000310 62 3e 38 3d 7d e6 d2 3d 9c 08 16 bd f9 8e 14 bd
       0.044981368 0.102978684 -0.036629304 -0.03626916
000320 e9 de 06 3e 37 99 a8 bd 07 ff cb 3d 1d b7 4e 3a
       0.13170971 -0.082323484 0.09960752 0.00078855624
000330 dc 62 31 bd 42 56 91 bc dc a0 4e be b0 b7 fe bc
       -0.04330717 -0.017741326 -0.2017855 -0.031093448
000340 c9 02 ff 3d d2 92 15 bd a3 b1 b8 3d 0c d7 38 bd
       0.12451703 -0.036516972 0.090182565 -0.04512696
000350 15 3a 00 3d a9 54 ff 3d 14 7c 1d 3d 29 1a 85 3c
       0.03130539 0.124673195 0.03844841 0.016247826
000360 c4 0e 9e 3d 54 6a 4b bd 23 97 61 37 3e 7d 29 3e
       0.0771766 -0.04966195 1.3446234e-05 0.16551682
000370 9c ff 28 3e 62 2e f4 bd 34 b5 7a 3d f3 ed 9e 3d
       0.16503757 -0.11922909 0.061207965 0.07760229
000380 d4 08 2e 3d 24 32 84 bd 34 b0 04 3d db 7f 37 bd
       0.042488888 -0.06454876 0.032394603 -0.044799667
000390 ac 52 59 be d3 a2 58 3d 02 af 8b bd cb 28 85 3d
       -0.21222943 0.052889656 -0.068204895 0.06501921
0003a0 23 5a fd bd bf de f7 bb e7 39 6c bd a3 29 27 3e
       -0.12370708 -0.007564395 -0.057672407 0.16324477
0003b0 b3 7f bf 3c 98 e1 93 3c 67 35 55 bb 56 e9 77 3d
       0.023376321 0.018051907 -0.003253305 0.06052526
0003c0 4f e7 81 3d 19 8e 4c be 26 c4 e1 bd 2a 57 30 3e
       0.06342947 -0.19976081 -0.110237405 0.1722075
0003d0 3f cf fd 3b 25 56 08 bd db e4 94 3c 50 4a c1 bd
       0.007745653 -0.03328528 0.018175533 -0.09438002
0003e0 b2 eb 0d 3e 9c a7 b6 bc 84 8d 1e 3c e0 a4 09 be
       0.13859442 -0.02229672 0.009677295 -0.13441801
0003f0 a8 21 3f bd 0a 13 fd 3c 0c 3f 27 bc 69 b6 3e bd
       -0.046662956 0.030892868 -0.010207903 -0.04656068

network_body._body_endoder.seq_layers.2.bias f4 [128]
000000 ed 51 94 3c c5 52 7f 3c 20 56 40 bc f8 e1 59 3c
       0.018105472 0.015583699 -0.011739284 0.013298504
000010 e9 10 30 bc 61 af 91 3c 75 e3 61 bc ff 43 f5 3a
       -0.010746219 0.017783822 -0.01378714 0.0018712281
000020 d3 75 32 bc 97 51 30 bc 2d d5 92 3c 89 6e 88 bc
       -0.010892349 -0.01076164 0.017923916 -0.01665427
000030 48 38 78 3c 15 6d 62 3a 03 a9 4c bb 62 c1 a9 3b
       0.015150137 0.00086374703 -0.0031228669 0.0051805237
000040 58 3f cd ba b7 5d f1 bb 5e fd 70 bc 5d a7 50 bc
       -0.0015659137 -0.007365908 -0.014708845 -0.012735215
000050 66 0e d6 bb 36 38 71 3c b5 2e 47 bc cb d3 86 bc
       -0.006532478 0.014722874 -0.012157132 -0.016458413
000060 0b 87 1d 3c da c6 85 bc 86 12 11 bc 1f 19 1f 3c
       0.009614716 -0.016330171 -0.008854514 0.009710579
000070 34 1b 96 3c 1e 6c 99 3c 81 fd 06 3c 87 7e 7b 3c
       0.018323518 0.018728312 0.008239151 0.015349991
000080 93 8f 31 bc 93 92 40 3c 3b 30 8c 3b 20 c6 0d bc
       -0.010837453 0.011753696 0.0042782105 -0.008653194
000090 b2 2f 88 3c c0 70 23 bc b8 05 95 3c 35 e1 33 3c
       0.016624305 -0.009975612 0.018191203 0.0109789865
0000a0 26 d8 bd 3b 4d b7 63 bc 94 06 41 bc 68 40 93 3c
       0.005793589 -0.013898683 -0.0117813535 0.017975047
0000b0 83 ed a1 bb 60 4d 69 bc 09 4f 85 3c fa fd 20 bc
       -0.0049416437 -0.014239639 0.016273038 -0.009826178
0000c0 5a 0a 9e 3c af a6 62 bc 29 93 26 bc 5a ce 39 bc
       0.019292045 -0.013833686 -0.010166922 -0.011340702
0000d0 9e c4 a1 3b 44 d6 1a bc 06 f4 73 3c 71 1c 83 bc
       0.0049367687 -0.009450499 0.014889723 -0.016004773
0000e0 37 f7 af bb 3b 5d 89 bc 63 71 18 bc ed d0 90 3c
       -0.0053700465 -0.016768089 -0.009304377 0.017677749
0000f0 d3 88 4f bc b4 93 09 3c 59 7a 86 3c 6f d9 14 bc
       -0.012666899 0.008397032 0.016415762 -0.009085043
000100 2d c6 c4 3b 75 9d 9c 3c 39 c4 26 bc d0 f6 b6 3b
       0.0060050697 0.01911805 -0.010178619 0.0055836216
000110 d5 ff 92 3b 91 b2 3e 3c c5 36 90 bc 5c 0f 5c 3c
       0.004486064 0.011639253 -0.017604241 0.013431396
000120 54 75 44 bc 9b 41 6e 3c 1d b3 5b bc d6 d3 85 bb
       -0.011990864 0.014542009 -0.013409403 -0.0040840907
000130 83 23 6d bc f1 3a 83 bc eb 30 36 3c 09 68 93 3c
       -0.014473799 -0.016019316 0.011120061 0.017993944
000140 0a c8 31 3c 75 77 88 3c fb 18 af bb 2a 4b 86 3c
       0.010850916 0.016658524 -0.005343554 0.016393263
000150 16 bd 0e 3c 65 af 29 bc 39 36 8d 3c e2 ba 53 3c
       0.008712074 -0.010356759 0.01723777 0.012922974
000160 33 23 18 bc 65 ac 74 bc eb 18 50 bc f0 b4 e7 3b
       -0.009285736 -0.01493368 -0.012701253 0.00707113
000170 a6 a8 38 3c 7e a2 f1 3b 01 7c 82 bc 2e 58 85 3c
       0.011270678 0.007374107 -0.01592827 0.016277399
000180 50 10 75 3c 1e e1 c1 b9 01 23 07 bc e9 13 65 bc
       0.0149575025 -0.00036979554 -0.008248092 -0.013981798
000190 35 dc 86 bc 8a 51 96 3c 1a 94 73 bc 97 a2 66 bc
       -0.016462425 0.018349428 -0.014866853 -0.01407685
0001a0 5c 94 0f bc ec af 68 bc 6c d6 f5 b9 38 75 9f 39
       -0.008763399 -0.014202099 -0.00046889798 0.00030414178
0001b0 f5 29 7a 3c 52 14 97 b9 cd 8f e3 3b 0f c5 83 bc
       0.015268792 -0.00028816104 0.0069446326 -0.016085176
0001c0 24 f8 46 bc 9c aa 2b 3c 8d 89 3b 3c 71 f9 fb 3b
       -0.012144122 0.010477688 0.011446369 0.007689648
0001d0 8b a2 45 3c 70 a0 18 bc 4e 17 9d 3c 92 09 7b bc
       0.012062679 -0.009315595 0.019176152 -0.015322106
0001e0 56 dd 78 3c b6 65 86 bc f9 b6 6d 3c 61 21 a1 3a
       0.015189489 -0.016405921 0.014508956 0.0012293273
0001f0 92 56 ab ba 23 00 a0 3c 67 6e 8f 3c 93 fb 8e bc
       -0.0013072065 0.019531315 0.017508699 -0.017453944

action_model._discrete_distribution.branches.0.weight f4 [4, 128]
000000 7a 07 8a bc 96 80 46 bc b7 be 02 3c 58 61 aa bc
       -0.016849268 -0.012115618 0.00798004 -0.02079837
000010 1b b6 c6 3c 86 6a d0 bc e4 d1 02 3d 53 b1 4a bc
       0.024256757 -0.02544142 0.03193845 -0.012371379
000020 99 ea 89 3c bd e9 03 3a de 33 1a bd f1 7b 85 3c
       0.016835498 0.0005032083 -0.03764712 0.016294451
000030 b3 58 86 bc 57 cf e4 3a 97 2e 25 3a 32 18 be bc
       -0.016399717 0.0017456812 0.0006301193 -0.023204897
000040 9f 10 17 3c 87 2d 39 bc c8 aa ad 3c 6a ac 85 3c
       0.009220271 -0.0113023585 0.021199599 0.016317565
000050 b4 29 c8 3c ff 80 f5 bc 11 6d 8d 3c 33 09 a2 3c
       0.024433948 -0.029968737 0.017263921 0.019779777
000060 2d 92 ec 3b 62 4d ca 3c ca d1 2c 3c 23 3a 5f bc
       0.007219574 0.024695102 0.0105480645 -0.013624701
000070 77 0a a7 bb 6b 1d 92 bc 6f e0 a4 bc c7 2c 08 bc
       -0.005097683 -0.017836293 -0.02012655 -0.008311457
000080 61 8e f2 3c 20 27 ba bc bf dd 6a bc e7 8a 96 3c
       0.029608907 -0.022723734 -0.014335095 0.01837678
000090 8f 57 50 bc a4 31 35 3c 34 32 0c bd 0f da 45 bb
       -0.012716188 0.0110591985 -0.034227565 -0.0030189788
0000a0 23 22 47 3b 5b 25 e0 3c 88 41 02 3d 3a 6b 1d bc
       0.0030385337 0.027361562 0.031800777 -0.009608084
0000b0 1c 73 59 3b e0 e2 90 3c 69 e9 45 bc 25 46 05 3c
       0.0033180183 0.017686307 -0.012079575 0.0081344
0000c0 56 30 18 bd cc 5f 9e 3c 3a a0 99 3c ce 86 4a 3c
       -0.03715547 0.019332789 0.01875316 0.0123612415
0000d0 72 21 02 bb fb 5a cd 3c 5c 4f cd bc 97 3d 19 3c
       -0.001985636 0.025067797 -0.025062256 0.009353063
0000e0 0d 7f ad 3c a0 9e 0a 3d 0c 3b 08 3c 28 81 05 bd
       0.021178747 0.033842683 0.008314859 -0.032593876
0000f0 8a 07 43 3c 74 66 85 bc 3b 50 92 bc 3a e1 b5 3c
       0.011903653 -0.016284205 -0.017860522 0.022202123
000100 f6 21 ca bb c2 96 9c bc 8a ab e7 3c 0c 00 09 3c
       -0.0061685992 -0.019114856 0.028280038 0.008361828
000110 34 92 e0 bc c5 11 9a bc f4 03 bb 3c c8 9c d4 bc
       -0.027413465 -0.018807301 0.022829033 -0.025953665
000120 be 6f 9e 3c d1 d1 9f 39 99 47 f1 3c 31 c5 82 3c
       0.019340392 0.0003048317 0.029453086 0.015963169
000130 39 35 44 3c 93 f7 c5 3c 49 b0 ef bc ad 18 84 bc
       0.01197558 0.024165904 -0.029258864 -0.016125048
000140 ae d3 a2 bc 5e 2e 78 bc 07 1f a2 3c b6 a1 c9 bc
       -0.019876327 -0.015147774 0.019790186 -0.024613243
000150 96 40 41 bc ab 07 28 3c 22 47 a9 bc 36 27 74 bc
       -0.011795184 0.010255734 -0.020663802 -0.014901927
000160 19 ff b5 3c ea ab b5 3c 4c 87 98 3c 98 f5 82 39
       0.022216367 0.022176702 0.018619202 0.00024978514
000170 4f 27 9b bc ef 32 15 bb be e7 d4 3c 77 5a 9c bc
       -0.018939642 -0.0022765954 0.02598941 -0.019086106
000180 61 16 93 bc a0 12 b2 3c 02 9d c0 3c e1 04 8c 3c
       -0.017955007 0.021737397 0.023512367 0.01709217
000190 b5 43 c1 3c 46 07 d5 bc d7 83 9c 3c 2d f3 1f 3d
       0.023591856 -0.026004445 0.019105835 0.03905027
0001a0 ac 81 bb 3b 13 50 ba bb 72 6e 15 bc e1 66 9f 3c
       0.005722245 -0.005685815 -0.0091205705 0.019458236
0001b0 6a 1a 81 bc 3e 01 f3 bc c3 89 08 bd 53 e5 ae 3c
       -0.015759666 -0.029663678 -0.033334505 0.021349585
0001c0 61 46 f1 3c 97 0c 93 bc a6 d8 aa bc e5 c4 09 bc
       0.029452505 -0.01795034 -0.02085526 -0.00840876
0001d0 79 43 15 bb d8 4e b7 3c e9 fd 83 bc ea 52 d1 3c
       -0.0022775813 0.022376463 -0.016112285 0.025552232
0001e0 e6 de ec bc a0 76 cd 3c 3d cf d9 bc 9d e6 0c 3c
       -0.02891488 0.025080979 -0.026588077 0.008599904
0001f0 a0 19 81 3c b1 92 6b bc f8 40 c5 bc 75 fd 4f 3c
       0.01575929 -0.014378236 -0.024078831 0.012694706
000200 a3 5b 90 bc 83 b3 80 bc c6 49 01 3b 37 81 21 bc
       -0.01762182 -0.015710598 0.001972781 -0.009857467
000210 1a 54 c7 3c 5a e2 73 bc 31 8b bb 3c d8 15 3e bc
       0.024332095 -0.014885509 0.02289352 -0.011601888
000220 ca 13 2b 3c 91 e4 87 3c 77 94 8f bc bf 80 8d 3c
       0.01044173 0.016588481 -0.017526848 0.017273305
000230 4e 54 af bc 75 17 61 3c fd d4 ac bb fb 19 68 bc
       -0.021402504 0.013738503 -0.0052744136 -0.0141663505
000240 5f 4f 95 3c 4d b7 1c bc 98 87 c2 3c 98 b2 82 3c
       0.018226324 -0.009565187 0.023746297 0.0159543
000250 85 19 04 bc ae 2e 83 bc 16 c2 86 3c 3d 78 1a 3c
       -0.008062725 -0.01601347 0.01644997 0.009428081
000260 e5 31 19 bb 85 e7 8c 3c 30 b6 a6 3c bb 86 d1 bc
       -0.0023375687 0.01720024 0.020350546 -0.02557694
000270 e4 79 a9 bc 2d 36 00 bd 89 b1 9b bc ad 10 a5 bc
       -0.020688005 -0.031301666 -0.019005554 -0.020149553
000280 a4 a2 43 3a 18 3a 68 bb 24 b0 56 bc 16 59 cc 3c
       0.0007462895 -0.0035435017 -0.013103519 0.024944823
000290 13 75 ab bc 08 b2 0a 3d a9 8e da bc 7f 0a ba bc
       -0.020929849 0.03386119 -0.026679354 -0.022710083
0002a0 39 bf cb 3b 70 2d 6c 3c 0c 5b e6 3b b7 05 43 bc
       0.006217864 0.01441513 0.0070298966 -0.011903218
0002b0 46 f1 ee 3b 41 3e f5 3c 45 8f c3 bc 7c 7c d6 3c
       0.0072919456 0.029936912 -0.023872027 0.026182406
0002c0 e8 af 7e bc a9 4b 87 3c 6b 04 9a 3c 14 9e a2 3c
       -0.015544869 0.01651557 0.018800935 0.019850768
0002d0 17 24 0b bc ef 77 88 3c eb e4 e4 bb b0 04 8a 3c
       -0.008492491 0.016658751 -0.006985297 0.016847938
0002e0 72 93 b3 3c 77 b5 df 3c 63 13 f3 3c 04 66 05 bd
       0.021920893 0.027308209 0.02967233 -0.032567993
0002f0 c9 49 7b 3c dd 27 53 bc 5e f0 c1 bc 67 cd 8f 3c
       0.015337416 -0.012887922 -0.023674186 0.017553998
000300 b9 34 ab bc 5c aa 8a bc 44 aa b5 3b 33 51 f3 3b
       -0.020899164 -0.016926937 0.005543979 0.007425451
000310 f9 63 2d bc 42 fe d7 bc 82 39 ca 3c 34 80 73 bb
       -0.010582917 -0.026366357 0.024685625 -0.0037155272
000320 27 22 a4 3c fd b4 00 bd a4 41 33 3c 16 fe 2b 3c
       0.020035816 -0.031422604 0.010940943 0.0104975905
000330 19 45 a1 3c e1 dc b9 3c 57 af 8b bc 23 a8 f0 bc
       0.019686269 0.022688331 -0.017051382 -0.029377049
000340 d1 ac 3b bc ba 71 af bc 25 96 4a bb 03 e4 a0 bc
       -0.011454777 -0.021416534 -0.0030912247 -0.019639974
000350 99 f0 a8 bc ed 64 d9 3c 4c fa c3 bc 11 7e 81 bc
       -0.020622538 0.026537383 -0.023923062 -0.015807183
000360 14 57 a1 3c ae cd b3 3c b6 14 d6 3c e3 ba 55 3c
       0.019694842 0.021948662 0.026132923 0.013045046
000370 9a 4c a4 bc fa a8 8e 3b 2c f1 8a 3c 0c c1 8a bc
       -0.020056058 0.0043536397 0.016960703 -0.016937755
000380 49 cf 42 bc 7d ca 92 ba d5 e2 ea 3a 4b 8c 28 3d
       -0.011890241 -0.0011199262 0.0017920384 0.04114942
000390 e9 91 02 3d ff 50 cf bc 46 dd d8 3c a2 a6 92 3c
       0.031877432 -0.025307177 0.026472699 0.017901722
0003a0 be fa c4 3c fb be 93 bb c4 a5 12 bc f2 1d 13 3c
       0.024045344 -0.0045088506 -0.008950654 0.0089793075
0003b0 da 17 c2 bc e7 62 09 bc 66 5b 68 bc f5 1b 0b 3d
       -0.023693014 -0.008385397 -0.014181947 0.03396221
0003c0 17 c5 31 3c dd 18 20 bc 35 f2 c7 bc f3 41 1a 3c
       0.010850213 -0.009771553 -0.024407485 0.009415138
0003d0 98 f3 d5 bc 7e 42 37 bb 54 78 8c bc 8d 1d 1e 3c
       -0.026117131 -0.0027963216 -0.01714722 0.0096506
0003e0 8c 0c 0c bd c1 62 a2 3c 6a a0 47 bc 7e 81 ed 3b
       -0.034191653 0.01982248 -0.012184242 0.0072481027
0003f0 af 53 2f 3b 9d 29 e2 bc 31 30 fb bc a0 96 f1 3c
       0.002675276 -0.027607733 -0.030662628 0.029490769

action_model._discrete_distribution.branches.0.bias f4 [4]
000000 35 45 6c bc bc f1 77 bc 08 2d 7f 3c 16 6f ca 3a
       -0.014420797 -0.015133318 0.015574701 0.0015444483

action_model._discrete_distribution.branches.1.weight f4 [2, 128]
000000 58 39 6f bb ba 0d e6 bb 3c 89 68 3b eb ad 21 bc
       -0.0036502685 -0.0070206793 0.0035482189 -0.009868125
000010 47 16 d9 bb 62 3c b3 3b 63 d8 73 bc c4 17 17 bb
       -0.00662497 0.0054698447 -0.014883134 -0.0023054937
000020 70 5a d9 3b 8c 6d 8c bc 99 dd e0 bb df 0d 24 3b
       0.0066330954 -0.01714208 -0.006862354 0.0025032682
000030 44 d6 fa 3a 8f c7 fa 3b 07 88 1b bb b7 34 35 3c
       0.0019137342 0.007653184 -0.0023732202 0.0110599315
000040 66 b5 4d bc 99 c6 b2 3a 3a 6e 8e bb dc 1f 4e 3c
       -0.012555456 0.0013639509 -0.004346636 0.012580838
000050 7a 0b 18 3c 62 51 3b 3c 9a d4 4b 3c 2e 82 81 3b
       0.00928008 0.011432977 0.012440825 0.003952286
000060 98 d6 c9 3b 41 60 f4 bb 50 ca 97 3c e7 13 03 3b
       0.006159615 -0.0074577634 0.018529087 0.0020000876
000070 21 98 73 bb ed ff 92 3c f2 68 45 3b d5 1e e4 b9
       -0.0037169533 0.0179443 0.0030122367 -0.0004351052
000080 53 00 65 bb 1d 2f 37 3c 8d 72 91 bb e0 35 17 bc
       -0.003494282 0.011180666 -0.0044387043 -0.009229153
000090 4a 27 a7 bb 96 bf 11 3b 6b 0e 0d bc 4a b5 9a 3b
       -0.005101119 0.0022239438 -0.008609395 0.0047213184
0000a0 ff ac fb bb f1 3d cf ba 0d ba b7 3b da 12 25 ba
       -0.007680535 -0.0015811307 0.005606896 -0.00062970596
0000b0 55 45 38 3c 40 c2 99 bb e7 43 f3 3b ab 6c 65 3c
       0.011246999 -0.004692346 0.007423866 0.014002959
0000c0 9f ab 49 3a 00 fd 3d b9 d9 72 ea 3b e1 c5 ea 3b
       0.0007693115 -0.00018118694 0.007154804 0.0071647023
0000d0 b8 91 90 ba 88 15 52 3c 69 41 0b 3c 19 98 30 bc
       -0.0011029756 0.012822516 0.008499482 -0.01077845
0000e0 3b bf 09 3b 39 ee e2 bb 76 ea 34 bb d2 7e 45 bc
       0.0021018523 -0.006925371 -0.002760557 -0.012054162
0000f0 f7 25 89 bb 51 9a 09 3c d1 2a 08 bc b7 ee a6 3c
       -0.004185434 0.008398608 -0.0083109895 0.0203775
000100 7c 98 29 bc e8 b5 c0 bc 4a 51 4c bc 97 8d 26 bc
       -0.0103512965 -0.02352424 -0.012470553 -0.010165594
000110 57 8a 97 ba 57 3b 70 bc a2 8f eb 3a 57 01 01 3a
       -0.0011561614 -0.014662585 0.0017971883 0.0004921159
000120 8b 2d ae b9 1f ef be ba 12 03 a3 3c b2 24 d3 bb
       -0.00033221798 -0.0014567113 0.019898925 -0.0064435834
000130 6d cd 11 bc 06 97 ef bb 6c da f2 bb 76 08 90 3c
       -0.008899075 -0.0073117046 -0.007411292 0.01758216
000140 9e e1 8b 3c ec de fc 3a 79 7a a8 3b 1a 1f 80 3b
       0.017075356 0.001929251 0.005141553 0.0039099576
000150 79 7a 28 bc 4d 03 eb 39 ff d3 33 ba 0a 2d c6 3b
       -0.010283106 0.00044825152 -0.0006859898 0.0060478495
000160 14 75 03 3c 2e 7a 85 b9 79 f6 4c 3c b3 cf 4e 3b
       0.008023519 -0.00025458768 0.012509936 0.0031556904
000170 27 86 17 bc 8f 02 4d bb 0e ed 70 38 54 c1 29 bc
       -0.009248293 -0.0031282043 5.7441233e-05 -0.010361034
000180 df 66 3b bc dc 60 25 3b 92 c8 31 bc 68 76 08 3b
       -0.011438101 0.0025234735 -0.010851042 0.0020822529
000190 0d 45 33 bb 4a fe 13 3c 66 e6 02 bc 81 83 94 bb
       -0.002735439 0.009032795 -0.007989502 -0.004532278
0001a0 08 b3 12 3c ed fe 3d bc cf 0f fb bb 7b 62 e4 ba
       0.008953817 -0.011596424 -0.0076617966 -0.0017424369
0001b0 d9 29 7b bb 64 07 08 3c d5 cd 35 bb 88 95 37 3b
       -0.0038324504 0.008302543 -0.0027741094 0.0028012712
0001c0 a7 1e e4 3b be cd 01 3c eb 5f cb bb 97 ff eb bb
       0.006961662 0.007922588 -0.0062065027 -0.0072020995
0001d0 6d 7b 37 bc 26 47 3d 3c 1e 59 65 3c e3 e1 01 3a
       -0.011198861 0.011552608 0.013998298 0.0004954619
0001e0 c0 4d 7b bc 97 0b 4f bc 77 87 0b 3b 79 49 97 ba
       -0.015338361 -0.012637041 0.002129046 -0.0011542282
0001f0 68 3a 2b bc 5d 64 0d 3b fb 66 ec bb 62 66 f9 ba
       -0.010450937 0.0021574714 -0.0072144247 -0.0019027705
000200 63 95 97 3b b7 fb c6 bb f4 6d 3f 3b 73 9e 7c bc
       0.0046259626 -0.006072487 0.0029209824 -0.015418637
000210 90 f8 66 3b 3e 6c 23 bc 74 48 3a 3c 83 29 18 bc
       0.003524337 -0.009974537 0.011369813 -0.009287241
000220 e4 da ef ba fa 35 ad bb bd f5 c3 bb 19 52 46 3b
       -0.0018299487 -0.0052859755 -0.005980222 0.0030261336
000230 07 de 12 bc 00 d1 3a 3c e7 6f 15 ba 8f 3c fc ba
       -0.008964068 0.011402369 -0.00057005737 -0.0019244122
000240 c7 c9 17 bb 73 20 d2 ba ff ea 0c bb 0e a2 06 3c
       -0.002316104 -0.0016031399 -0.0021502373 0.008217348
000250 b2 ee 6f 3b 83 a8 a7 3a 3e 31 39 3b 52 3b 8f 3c
       0.003661078 0.0012791309 0.002825811 0.01748434
000260 7a 93 3e bc a1 31 b5 bb 31 59 da 39 28 67 ec 3b
       -0.011631841 -0.005529598 0.00041646653 0.0072144456
000270 dd 8a 07 bb 9a 0d 00 3c a5 bf 7d bc ef a6 76 bb
       -0.0020682134 0.007815743 -0.015487586 -0.0037636121
000280 ff 79 34 3b 2e e1 a6 bb a2 b5 a4 bc 2c 39 10 3c
       0.0027538536 -0.0050927615 -0.02010614 0.008802693
000290 7b 55 48 3c b4 57 93 bb 14 26 12 bb ba 35 1e 3c
       0.012227411 -0.004496539 -0.0022300528 0.009656364
0002a0 10 17 17 3c a1 b7 b3 bb 80 83 14 b9 7a bf a1 3b
       0.009221807 -0.0054845368 -0.00014163367 0.004936156
0002b0 56 a9 23 bb 80 73 01 bc 81 de f8 3b 53 42 9e bb
       -0.0024972758 -0.0079010725 0.007594884 -0.004829684
0002c0 b4 4a 28 3b 70 8a e7 3b 3d 3f df bb 84 15 89 bb
       0.0025679292 0.0070660636 -0.0068129585 -0.004183473
0002d0 e0 a2 80 3b 78 95 00 bc 54 80 2e 3b 5b 30 85 bc
       0.003925666 -0.007848136 0.0026626782 -0.01625841
0002e0 08 8a 83 bc 78 a3 ff bb 8b 68 8f 3b 9e a8 2a bb
       -0.01605703 -0.0078014694 0.004376476 -0.0026040445
0002f0 d4 87 8f b9 00 5c ca bc fe 77 4f 3b 98 33 21 bc
       -0.00027376285 -0.024702072 0.0031657214 -0.009838961
000300 35 4b 1e 3c 99 1a 96 bc 42 92 c6 3b b8 ed 92 3b
       0.009661485 -0.01832323 0.0060599158 0.0044839047
000310 16 67 23 bc 30 0a 13 bb 6d 39 8f 3b 0d 3a 93 3a
       -0.009973308 -0.0022436492 0.0043708594 0.001123251
000320 f6 e7 66 bc 82 a7 6c bc eb d1 a8 ba 74 4d f5 bb
       -0.01409339 -0.014444234 -0.0012879943 -0.00748604
000330 17 b3 fc bb a5 d4 2a 3b a0 7c d0 3b 04 34 00 bc
       -0.007711779 0.0026066687 0.0063625127 -0.0078249015
000340 69 df 6d bc 98 cc cc bb e4 85 21 bb 16 a9 27 3c
       -0.014518597 -0.0062499754 -0.0024646455 0.010233184
000350 bb 26 60 3b 6f 1c 3a 3b a3 f7 0f 3c c6 d3 30 bc
       0.0034202773 0.0028398295 0.008787069 -0.010792678
000360 00 8c be ba dc 6c 10 bb 3e 95 33 bc d5 68 ed 3b
       -0.0014537573 -0.0022037541 -0.010960875 0.007245163
000370 40 23 05 39 08 0c 69 bb fe 6f 9c bb 38 26 59 bb
       0.00012697 -0.003556015 -0.0047740927 -0.0033134352
000380 77 bd 44 3c 4b 0f ad 3b 28 88 56 3b 43 07 e4 3a
       0.012008063 0.005281364 0.0032734964 0.0017397184
000390 ff a8 08 3c b0 a7 ac ba 34 95 3a bc 7f 90 2f 3b
       0.008341073 -0.0013172533 -0.011388112 0.0026789007
0003a0 cc 5b 19 bc a4 ea 35 b8 e1 8e cb ba 50 48 14 bc
       -0.009360265 -4.337229e-05 -0.0015530252 -0.009050444
0003b0 ea 00 b7 bb d9 58 54 3b f2 f6 6b 3c 66 c1 b3 bb
       -0.0055848258 0.003240159 0.014402138 -0.0054857014
0003c0 f6 76 47 bb bd 37 59 bc 34 54 8d ba 60 48 f7 3a
       -0.0030435896 -0.013257918 -0.0010782541 0.0018866174
0003d0 31 50 87 bb bc 4c 81 3c b6 fa a6 3b 96 66 fb 3b
       -0.0041294326 0.01578366 0.005095805 0.0076721413
0003e0 d0 ce 41 3b d9 a5 21 bc 3f 2a 51 3c 00 ba 23 bc
       0.0029572733 -0.009866201 0.01276642 -0.009993076
0003f0 90 1b 6c 3a d1 88 ab 37 c5 01 b4 3b 0d 4c cb 3b
       0.00090067927 2.0448499e-05 0.005493375 0.0062041343

action_model._discrete_distribution.branches.1.bias f4 [2]
000000 7a 47 86 ba 7d 47 86 3a
       -0.001024469 0.0010244694

exp_avg f4 [128, 4]
000000 b5 bb 88 b7 98 5d 31 b5 51 01 7e b7 4c be 24 b5
       -1.6299871e-05 -6.6073835e-07 -1.5139886e-05 -6.137168e-07
000010 15 96 fa 37 a1 86 a2 35 17 7b f0 37 c0 f8 9b 35
       2.987221e-05 1.2109123e-06 2.8667548e-05 1.1620796e-06
000020 17 a6 b2 36 ae bc 67 34 04 d5 ac 36 19 31 60 34
       5.324149e-06 2.1582193e-07 5.1507977e-06 2.0879487e-07
000030 df d8 7f b8 1e f0 25 b6 f6 e0 7a b8 2f b7 22 b6
       -6.0998715e-05 -2.4726683e-06 -5.9814156e-05 -2.4246508e-06
000040 c7 b9 ce b7 26 14 86 b5 e7 70 c8 b7 a6 00 82 b5
       -2.4643623e-05 -9.989642e-07 -2.3894432e-05 -9.685943e-07
000050 cc 53 bd b8 bc 96 75 b6 65 9c bb b8 c3 5c 73 b6
       -9.027831e-05 -3.6595584e-06 -8.9459856e-05 -3.6263816e-06
000060 6a dc 8a b8 2d 20 34 b6 fd e9 88 b8 a2 99 31 b6
       -6.621408e-05 -2.684082e-06 -6.528569e-05 -2.6464481e-06
000070 58 0a da b7 cc 6a 8d b5 3a dc d5 b7 bf b4 8a b5
       -2.5992442e-05 -1.0536401e-06 -2.549413e-05 -1.0334405e-06
000080 a9 ea d2 35 fb cb 88 33 4e e4 1d 36 d2 cf cc 33
       1.5714514e-06 6.370097e-08 2.3527714e-06 9.5372926e-08
000090 22 76 c9 b8 17 aa 82 b6 44 b7 c4 b8 4b 2c 7f b6
       -9.606431e-05 -3.894103e-06 -9.380144e-05 -3.8023743e-06
0000a0 f1 62 b6 36 de 95 6c 34 ae 7e 97 36 8d 83 44 34
       5.435541e-06 2.2033734e-07 4.514898e-06 1.830178e-07
0000b0 6f 5a 04 37 1c af ab 34 17 97 e1 36 58 50 92 34
       7.888869e-06 3.197864e-07 6.7231117e-06 2.7253077e-07
0000c0 ae a3 c0 37 97 e2 79 35 4e 46 b7 37 c7 bc 6d 35
       2.2964403e-05 9.308946e-07 2.1848038e-05 8.856409e-07
0000d0 45 61 84 36 fb b7 2b 34 91 ae 1c 36 07 3e cb 33
       3.94523e-06 1.5992548e-07 2.3347422e-06 9.464207e-08
0000e0 26 52 a1 b7 87 42 51 b5 b1 3f 9a b7 0c 16 48 b5
       -1.9230949e-05 -7.795538e-07 -1.838789e-05 -7.453789e-07
0000f0 f8 6a 44 b8 55 c9 fe b5 46 a2 40 b8 c5 e0 f9 b5
       -4.6829664e-05 -1.898307e-06 -4.5927496e-05 -1.8617362e-06
000100 98 3c 73 37 53 c2 1d 35 0b 65 6b 37 44 ac 18 35
       1.4498037e-05 5.8769837e-07 1.4030617e-05 5.687509e-07
000110 08 ea 02 b7 3f d1 a9 b4 6e 6c 08 b7 c7 f6 b0 b4
       -7.8030935e-06 -3.163095e-07 -8.131477e-06 -3.296211e-07
000120 cd 69 8e 36 ca bb 38 34 ee be 3f 36 d5 b9 f8 33
       4.2442466e-06 1.7204653e-07 2.8572354e-06 1.15822026e-07
000130 07 85 78 b7 7d 2f 21 b5 a9 6c 73 b7 7e e1 1d b5
       -1.4812925e-05 -6.004628e-07 -1.4509228e-05 -5.881519e-07
000140 d2 fe f4 b8 55 e6 9e b6 e4 df f0 b8 22 3a 9c b6
       -0.00011682291 -4.735581e-06 -0.00011485795 -4.65593e-06
000150 a9 c7 a5 b7 45 0b 57 b5 00 f6 9e b7 da 32 4e b5
       -1.9762507e-05 -8.011014e-07 -1.894962e-05 -7.681498e-07
000160 9b 67 33 b7 b6 b7 e8 b4 ef 18 37 b7 f2 81 ed b4
       -1.0693354e-05 -4.3347035e-07 -1.0913455e-05 -4.4239238e-07
000170 a8 27 8d b8 ea 19 37 b6 73 ae 8a b8 8a e4 33 b6
       -6.7307905e-05 -2.728421e-06 -6.6128465e-05 -2.6806106e-06
000180 d4 91 71 38 84 ad 1c 36 bf 60 6b 38 7b a9 18 36
       5.759469e-05 2.334681e-06 5.6118468e-05 2.2748416e-06
000190 b4 e9 cd b8 31 8d 85 b6 2e a7 cb b8 fa 15 84 b6
       -9.818692e-05 -3.9801457e-06 -9.710934e-05 -3.936465e-06
0001a0 23 a1 22 37 0c f5 d2 34 77 01 24 37 14 be d4 34
       9.69347e-06 3.9293843e-07 9.775503e-06 3.9626377e-07
0001b0 5b 33 72 37 4d 16 1d 35 a2 46 67 37 64 00 16 35
       1.4436281e-05 5.851951e-07 1.3785118e-05 5.5879923e-07
0001c0 aa 9b a6 37 41 1e 58 35 8b 3c 9f 37 5a 8e 4e 35
       1.9861229e-05 8.0510296e-07 1.898247e-05 7.694813e-07
0001d0 e0 2b ee b7 4c 79 9a b5 0b 3e ed b7 0b df 99 b5
       -2.8392242e-05 -1.1509196e-06 -2.8281493e-05 -1.1464302e-06
0001e0 40 ca d7 b8 2b f5 8b b6 0a 70 d3 b8 83 22 89 b6
       -0.00010289671 -4.171064e-06 -0.00010082133 -4.086936e-06
0001f0 5c 80 7b 37 92 1e 23 35 79 3f 78 37 5f 02 21 35
       1.4990652e-05 6.076672e-07 1.479673e-05 5.9980624e-07
000200 9b bb 85 36 3c 79 2d 34 f3 4a 70 36 86 d9 1b 34
       3.985549e-06 1.6155985e-07 3.5806413e-06 1.4514634e-07
000210 5d 8a 2d 36 46 1c e1 33 fd a8 05 36 f9 60 ad 33
       2.5859547e-06 1.0482522e-07 1.9916909e-06 8.0735795e-08
000220 44 83 3c 37 3d 88 f4 34 66 85 2f 37 06 ae e3 34
       1.1236236e-05 4.5547668e-07 1.0461872e-05 4.2408664e-07
000230 83 cd 31 b9 ba a3 e6 b6 11 01 2f b9 66 02 e3 b6
       -0.00016956594 -6.8735944e-06 -0.00016689698 -6.7654064e-06
000240 5e c8 1b 37 6c 13 ca 34 9c 14 1f 37 8a 5a ce 34
       9.285372e-06 3.7639563e-07 9.481937e-06 3.8436366e-07
000250 98 e6 81 b7 b6 80 28 b5 ae bf 83 b7 5e e6 2a b5
       -1.5485377e-05 -6.2772176e-07 -1.5705675e-05 -6.3665163e-07
000260 19 18 64 35 1a f0 13 33 c3 0b 9d 34 ec b6 4b 32
       8.4971686e-07 3.4444476e-08 2.9252087e-07 1.1857747e-08
000270 0f a8 88 b8 1c 44 31 b6 02 85 84 b8 5c e6 2b b6
       -6.516289e-05 -2.64147e-06 -6.319025e-05 -2.5615072e-06
000280 0b 76 f6 b7 b3 d9 9f b5 60 0b ee b7 3b 64 9a b5
       -2.9380453e-05 -1.1909782e-06 -2.8377108e-05 -1.1503065e-06
000290 b8 2b 5d b8 90 72 0f b6 4f 1e 58 b8 ad 2b 0c b6
       -5.2731222e-05 -2.1375345e-06 -5.152664e-05 -2.0887048e-06
0002a0 4b 68 09 b9 76 3d b2 b6 d8 03 05 b9 d8 8a ac b6
       -0.0001310419 -5.3119684e-06 -0.000126853 -5.142163e-06
0002b0 b8 aa 7e b9 26 2c 25 b7 bc ff 79 b9 1c 25 22 b7
       -0.00024286925 -9.8450455e-06 -0.00023841759 -9.664593e-06
0002c0 f1 98 db b7 55 6d 8e b5 17 f1 d1 b7 1f 2a 88 b5
       -2.6178053e-05 -1.0611644e-06 -2.5027008e-05 -1.0145048e-06
0002d0 f7 95 0a b8 c7 c4 b3 b5 2c ba 06 b8 73 c3 ae b5
       -3.304143e-05 -1.3393809e-06 -3.2121476e-05 -1.3020893e-06
0002e0 fc eb 5e b9 50 95 10 b7 8d 53 5c b9 5e e6 0e b7
       -0.00021259481 -8.617833e-06 -0.0002101196 -8.517496e-06
0002f0 80 ff df b8 01 48 91 b6 0d 02 dd b8 8b 57 8f b6
       -0.00010681059 -4.329719e-06 -0.00010538483 -4.2719234e-06
000300 b0 09 19 37 ee 83 c6 34 2b 7b 06 37 ba 71 ae 34
       9.121766e-06 3.6976365e-07 8.0157e-06 3.2492773e-07
000310 00 bd 8f b8 c9 73 3a b6 58 e7 8c b8 7a c6 36 b6
       -6.853975e-05 -2.7783556e-06 -6.718811e-05 -2.7235642e-06
000320 0a bb 59 b7 5e 37 0d b5 d3 78 50 b7 19 36 07 b5
       -1.2977756e-05 -5.2607163e-07 -1.2425898e-05 -5.037014e-07
000330 37 27 f4 b6 80 5a 9e b4 87 2d d2 b6 4f 51 88 b4
       -7.276332e-06 -2.949564e-07 -6.263788e-06 -2.5391134e-07
000340 81 12 83 36 bd 05 2a 34 52 dc 53 36 bc 68 09 34
       3.9062584e-06 1.5834571e-07 3.1569693e-06 1.2797221e-07
000350 99 20 de b6 65 11 90 b4 c9 2b dd b6 9b 72 8f b4
       -6.6199104e-06 -2.6834746e-07 -6.5914105e-06 -2.6719212e-07
000360 fd d9 a5 37 06 23 57 35 e2 a4 a3 37 fb 45 54 35
       1.9771041e-05 8.014471e-07 1.9507894e-05 7.907799e-07
000370 a0 6d b4 37 92 0b 6a 35 9f 06 b2 37 d1 ed 66 35
       2.150872e-05 8.718863e-07 2.1222337e-05 8.6027745e-07
000380 a8 b0 2b 38 da b5 de 35 c9 f9 25 38 43 4c d7 35
       4.09341e-05 1.6593215e-06 3.9571696e-05 1.6040943e-06
000390 40 e7 ed 37 c9 4c 9a 35 dc f1 f2 37 de 91 9d 35
       2.8360286e-05 1.1496242e-06 2.8961273e-05 1.1739864e-06
0003a0 2c ec ad b7 32 9b 61 b5 d2 d3 ab b7 76 e3 5e b5
       -2.0733183e-05 -8.404487e-07 -2.0483425e-05 -8.3032444e-07
0003b0 54 c4 9b b8 30 0e 4a b6 8e 6f 9a b8 29 54 48 b6
       -7.427545e-05 -3.0108604e-06 -7.364071e-05 -2.985131e-06
0003c0 1d 74 30 b5 b0 e3 e4 b2 88 7f 9a b5 de 68 48 b3
       -6.5734076e-07 -2.6646234e-08 -1.1511011e-06 -4.6661505e-08
0003d0 1f ec aa 37 ed b6 5d 35 9b 88 9d 37 df 58 4c 35
       2.0375532e-05 8.259511e-07 1.877947e-05 7.6125247e-07
0003e0 89 e2 07 b9 e4 43 b0 b6 33 84 04 b9 4b e5 ab b6
       -0.00012958994 -5.2531122e-06 -0.00012637749 -5.1228903e-06
0003f0 dc d8 d0 37 60 74 87 35 c8 a5 cf 37 38 ad 86 35
       2.4896515e-05 1.0092153e-06 2.475352e-05 1.0034191e-06
