Assets/results/ppo/MoveToGoal/MoveToGoal-2944.pt (torch, 267287 bytes, 14 tensors)

discrete_act_size_vector f4 [1, 2]
000000 00 00 80 40 00 00 00 40
       4.0 2.0

network_body._body_endoder.seq_layers.0.weight f4 [128, 118]
000000 9c ba b5 bd 38 a0 42 3d c3 08 7b bd c2 e6 59 bc
       -0.088734835 0.047516078 -0.061287653 -0.013299646
000010 0c 1b c4 bc 50 a4 27 be 2e 0d da 3d f0 1d 0d 3c
       -0.023938678 -0.16371274 0.10647045 0.008613095
000020 9c 7d a7 3d c7 36 fb bd 2b dd da 3c 32 27 0e bd
       0.08178255 -0.12266307 0.02671679 -0.03470535
000030 32 d5 87 3d 8b 2f 2c 3c cb 44 ea bd 39 29 50 3d
       0.06632461 0.010509382 -0.114389025 0.050820563
000040 e3 0f e6 3d 17 79 b7 3d 57 8b 98 3d ec 7d 05 bd
       0.11233499 0.08958643 0.07448452 -0.03259079
000050 cc 1a e4 bd 52 3c 03 bd 45 f3 d0 3c 9d 57 ac ba
       -0.111379236 -0.032039948 0.025506625 -0.0013148669
000060 e8 48 1f bd ad 21 03 3e e7 89 09 bd f4 0a e8 3b
       -0.03888789 0.12805815 -0.03357878 0.007081384
000070 24 0e 59 be b6 24 92 bc 6a c2 a2 3c c0 46 88 3d
       -0.211968 -0.01783977 0.019868094 0.066541195
000080 d0 57 b3 3d 35 3f 45 bb 73 d6 8d bd dd 2f dc bd
       0.08756983 -0.0030097489 -0.069256686 -0.10751317
000090 a4 f2 ac 3d 77 4b 39 3d 43 92 4a 3d e6 3e 4a 3e
       0.084447175 0.045237985 0.049455892 0.19750556
0000a0 79 78 0f 3e ce de d1 3d 97 9a a3 bd 53 87 de 3d
       0.140108 0.10247575 -0.0798847 0.10865655
0000b0 c6 6b 0a be f8 30 62 3d b1 b6 ab bd 1c 7d d9 3d
       -0.13517675 0.05522248 -0.08384455 0.10619566
0000c0 50 eb 40 be 15 24 50 bc cb db dd 3c 3a 71 ae 3d
       -0.18839765 -0.012703915 0.027082345 0.0851769
0000d0 f1 82 8d ba 02 6b e8 3c bf b2 ac bb 13 e7 e7 3b
       -0.001079647 0.028371338 -0.0052703316 0.0070771067
0000e0 52 30 68 bd 4c 0c 25 3d ec 79 c3 3c 97 59 5c bc
       -0.056686707 0.04029493 0.023861848 -0.013449094
0000f0 0e 09 ad bc ed c6 50 bd 8a be 1f 3b e3 c2 79 3d
       -0.021122482 -0.05097096 0.0024375045 0.060976874
000100 e4 cf 4e 3e 40 28 a3 bd 89 d1 5b bd 7e 69 73 3d
       0.20196491 -0.079666615 -0.053666625 0.059426777
000110 d0 14 7c bd 1a 54 75 3c 21 9a 2a 3c 27 a6 97 bd
       -0.061543286 0.014973665 0.010412724 -0.07404738
000120 e3 e5 18 bd 57 35 8c bd 68 9d 1a 3d 58 95 03 3d
       -0.037328612 -0.06846111 0.03774777 0.032124847
000130 02 9a f3 bd 04 2f 4d 3d 6b 77 7b 3c bf 0a d1 3c
       -0.11894609 0.050093666 0.015348296 0.02551782
000140 68 a3 a8 bd f2 9a 29 3d 02 5f 4a be bd 8d 04 be
       -0.08234292 0.041407533 -0.19762805 -0.12944694
000150 94 81 20 be 9a 06 bd 3d c6 97 03 be ec 61 b9 bc
       -0.1567443 0.09229775 -0.12850866 -0.0226297
000160 aa 14 31 3d ad be 4e be 49 58 74 bd ae 8e 61 3d
       0.043232597 -0.20189925 -0.059654508 0.05506771
000170 3a 74 c6 3d 1c 1b 8c 3e a1 24 95 3c bd 38 bf bd
       0.09690137 0.27364433 0.018205943 -0.09336994
000180 e2 c3 67 3a 4d c4 d6 3d 35 2a 28 3e 3c d6 a1 3c
       0.00088411395 0.1048666 0.1642235 0.019755475
000190 65 95 be bd d8 6d df 3c fe 71 de 3d 7a e7 1c bd
       -0.093058385 0.027274057 0.10861586 -0.03830669
0001a0 20 da 5b 3d 64 69 9f bc 3b d6 78 bd 8d cb d8 3c
       0.053674817 -0.019459434 -0.06075118 0.026464248
0001b0 a4 7a 8c 3d de e6 ea 3d dc 3c 19 3e 74 93 c3 bd
       0.06859329 0.11469816 0.14964622 -0.09549609
0001c0 e3 ef e8 bd 21 43 9c bc 7d 39 02 be 1f 1b 6e bc
       -0.1137388 -0.019074978 -0.12717243 -0.014532833
0001d0 1f bd 2d 3e 98 7d ac 3d e0 03 90 bd 10 1a 8c 3d
       0.16966675 0.084223926 -0.07031989 0.068409085
0001e0 1d 4e bf 3b b3 5b 2a 3e 3d c1 d6 3d f0 2b f7 3b
       0.0058381693 0.16636543 0.10486076 0.0075430796
0001f0 c8 90 1e bc a5 3a 1e 3d cb b3 04 be 7e 0e ba bb
       -0.009678073 0.038630147 -0.1295921 -0.005677997
000200 35 1e 2a 3d ac 05 c9 3d 86 54 78 bc 6c a8 bd bc
       0.041532714 0.09815535 -0.015156871 -0.023151599
000210 21 24 e9 bd 7b 88 f0 bc 2a d5 5e be 59 9d ed 3d
       -0.11383844 -0.029361954 -0.21761003 0.11602277
000220 70 7b 23 3e 2d 7b 55 3d dc 0b f5 bc 94 97 80 3c
       0.15965056 0.052119423 -0.029912882 0.015697278
000230 eb c1 ad bc 85 2d 91 3d 8a f0 94 3d 75 8c ab 3d
       -0.021210631 0.0708876 0.07272442 0.083763994
000240 9b 76 f3 bc 6b e2 0e be 41 45 91 3d a5 ce 8f bc
       -0.029719641 -0.13953559 0.07093287 -0.01755459
000250 02 d1 cf bb ad 12 57 3e 75 2d e9 bc 04 b2 7e 3d
       -0.0063420543 0.21003218 -0.028464058 0.062181488
000260 5b a1 e1 3d 2e 61 d4 3d f4 da 24 3d 1e 1d fe 3d
       0.11017104 0.10370098 0.040247872 0.124078974
000270 12 d5 57 3c 0f e3 a5 39 ee c3 43 bd 6b 82 62 3e
       0.0131733585 0.00031640424 -0.047794275 0.22120063
000280 42 c1 a6 3a 2d 6e 1e be e2 3e 41 3c d9 f2 e3 bd
       0.001272239 -0.15471716 0.011794778 -0.11130304
000290 52 e8 d5 bc 46 92 26 3e 2c c2 44 be aa 7e 44 bd
       -0.026111756 0.16266736 -0.19214696 -0.04797236
0002a0 e5 b8 ed bd e2 17 a3 bd b2 3d 7e bd f8 62 35 3d
       -0.116075315 -0.0796354 -0.062070556 0.044283837
0002b0 e1 3c e3 bd f5 5a b3 bc ae 0b 22 3d 31 5f 29 3e
       -0.11095596 -0.021893958 0.03956192 0.16540219
0002c0 c1 b0 3f 3d 2b 8e 81 3d 11 00 d6 3c c2 60 3b bd
       0.046799425 0.063259445 0.026123079 -0.045746572
0002d0 3a 0c 1b 3c d8 83 2c 3d 4d d8 1b be b8 3b ba 3d
       0.009463364 0.042117923 -0.15219231 0.09093422
0002e0 e6 1d d3 bc e5 96 3d bd 14 53 5f 3e 48 df 85 be
       -0.025771093 -0.046286482 0.21809036 -0.26146913
0002f0 91 cb 1a bd 9a d6 d8 bc 7f 9e 90 bd 85 5b bd 3d
       -0.037791792 -0.026469517 -0.07061481 0.092459716
000300 7d 79 98 3d 2a ab 37 bd 08 8a 09 bd f4 db 91 3d
       0.07445047 -0.04484097 -0.033578902 0.07122031
000310 ea e8 d8 bd 97 fe ee 3d 6a 17 79 3d 5a 44 90 bd
       -0.105913 0.11669653 0.060813345 -0.07044287
000320 6e e7 19 be 06 86 dd bc 52 b4 67 3d ec e8 6e bd
       -0.1502969 -0.027041446 0.05656845 -0.0583276
000330 ff 7a d4 3d 89 16 b4 3c 8d 06 c6 3d 3d ac c0 bd
       0.10375022 0.021983402 0.09669218 -0.09407852
000340 12 b9 ac 3d 6d 39 86 bd ce ed 57 bd 51 49 7d 3b
       0.08433737 -0.06553922 -0.052717023 0.0038648436
000350 19 39 08 be d4 24 db 3d 53 66 9b 3c 6a 8a b8 ba
       -0.13303031 0.10700384 0.01896969 -0.0014079337
000360 9c 97 53 be 05 c2 24 ba f2 ae ac bd 20 16 82 bd
       -0.20663303 -0.00062850147 -0.08431806 -0.06351876
000370 61 b3 9a bd c0 d3 bc 3d 51 f9 9b 3c 15 83 69 bd
       -0.07553745 0.092200756 0.019039782 -0.057009775
000380 cb d6 dc bd 70 72 6c 3d ac 57 83 bc 0d 0c aa 3d
       -0.10783156 0.057726324 -0.016033016 0.0830308
000390 4a c8 4f bc 89 36 68 3d be c6 5c 3d 16 ed c4 3d
       -0.01268203 0.056692634 0.053900473 0.09615533
0003a0 aa 48 74 3c 77 eb 34 3d a2 79 f4 bd b3 86 7c 3d
       0.014909903 0.04416987 -0.11937262 0.061651897
0003b0 21 b6 27 3d 3f c6 0d 3c 43 32 c7 b9 74 fb c6 3d
       0.040945176 0.008653223 -0.00037993686 0.097159296
0003c0 bf 0a a9 bd 88 11 ba bd 25 df 91 bd 80 f2 8d 3d
       -0.08254003 -0.09085375 -0.071226396 0.06931019
0003d0 ec f8 3a bd 8a 48 96 ba e5 8b 77 bd f8 68 64 bc
       -0.045647547 -0.001146571 -0.06043615 -0.013941042
0003e0 c3 51 89 bd af 70 42 bc e7 aa bd 3b 20 cf 5e bd
       -0.06705048 -0.011867686 0.0057881954 -0.05439675
0003f0 2e 48 61 bd 00 40 2b 3e d7 1b c6 bc a1 1e f6 bd
       -0.055000477 0.16723633 -0.024183197 -0.12017561

network_body._body_endoder.seq_layers.0.bias f4 [128]
000000 00 00 00 00 00 00 00 00 00 00 00 00 00 00 00 00
       0.0 0.0 0.0 0.0
000010 00 00 00 00 00 00 00 00 00 00 00 00 00 00 00 00
       0.0 0.0 0.0 0.0
000020 00 00 00 00 00 00 00 00 00 00 00 00 00 00 00 00
       0.0 0.0 0.0 0.0
000030 00 00 00 00 00 00 00 00 00 00 00 00 00 00 00 00
       0.0 0.0 0.0 0.0
000040 00 00 00 00 00 00 00 00 00 00 00 00 00 00 00 00
       0.0 0.0 0.0 0.0
000050 00 00 00 00 00 00 00 00 00 00 00 00 00 00 00 00
       0.0 0.0 0.0 0.0
000060 00 00 00 00 00 00 00 00 00 00 00 00 00 00 00 00
       0.0 0.0 0.0 0.0
000070 00 00 00 00 00 00 00 00 00 00 00 00 00 00 00 00
       0.0 0.0 0.0 0.0
000080 00 00 00 00 00 00 00 00 00 00 00 00 00 00 00 00
       0.0 0.0 0.0 0.0
000090 00 00 00 00 00 00 00 00 00 00 00 00 00 00 00 00
       0.0 0.0 0.0 0.0
0000a0 00 00 00 00 00 00 00 00 00 00 00 00 00 00 00 00
       0.0 0.0 0.0 0.0
0000b0 00 00 00 00 00 00 00 00 00 00 00 00 00 00 00 00
       0.0 0.0 0.0 0.0
0000c0 00 00 00 00 00 00 00 00 00 00 00 00 00 00 00 00
       0.0 0.0 0.0 0.0
0000d0 00 00 00 00 00 00 00 00 00 00 00 00 00 00 00 00
       0.0 0.0 0.0 0.0
0000e0 00 00 00 00 00 00 00 00 00 00 00 00 00 00 00 00
       0.0 0.0 0.0 0.0
0000f0 00 00 00 00 00 00 00 00 00 00 00 00 00 00 00 00
       0.0 0.0 0.0 0.0
000100 00 00 00 00 00 00 00 00 00 00 00 00 00 00 00 00
       0.0 0.0 0.0 0.0
000110 00 00 00 00 00 00 00 00 00 00 00 00 00 00 00 00
       0.0 0.0 0.0 0.0
000120 00 00 00 00 00 00 00 00 00 00 00 00 00 00 00 00
       0.0 0.0 0.0 0.0
000130 00 00 00 00 00 00 00 00 00 00 00 00 00 00 00 00
       0.0 0.0 0.0 0.0
000140 00 00 00 00 00 00 00 00 00 00 00 00 00 00 00 00
       0.0 0.0 0.0 0.0
000150 00 00 00 00 00 00 00 00 00 00 00 00 00 00 00 00
       0.0 0.0 0.0 0.0
000160 00 00 00 00 00 00 00 00 00 00 00 00 00 00 00 00
       0.0 0.0 0.0 0.0
000170 00 00 00 00 00 00 00 00 00 00 00 00 00 00 00 00
       0.0 0.0 0.0 0.0
000180 00 00 00 00 00 00 00 00 00 00 00 00 00 00 00 00
       0.0 0.0 0.0 0.0
000190 00 00 00 00 00 00 00 00 00 00 00 00 00 00 00 00
       0.0 0.0 0.0 0.0
0001a0 00 00 00 00 00 00 00 00 00 00 00 00 00 00 00 00
       0.0 0.0 0.0 0.0
0001b0 00 00 00 00 00 00 00 00 00 00 00 00 00 00 00 00
       0.0 0.0 0.0 0.0
0001c0 00 00 00 00 00 00 00 00 00 00 00 00 00 00 00 00
       0.0 0.0 0.0 0.0
0001d0 00 00 00 00 00 00 00 00 00 00 00 00 00 00 00 00
       0.0 0.0 0.0 0.0
0001e0 00 00 00 00 00 00 00 00 00 00 00 00 00 00 00 00
       0.0 0.0 0.0 0.0
0001f0 00 00 00 00 00 00 00 00 00 00 00 00 00 00 00 00
       0.0 0.0 0.0 0.0

network_body._body_endoder.seq_layers.2.weight f4 [128, 128]
000000 66 cf e6 bd 1f 14 18 bd 0f 7c 12 3e ac a9 07 3e
       -0.11270027 -0.037128564 0.14305137 0.13248318
000010 64 b0 1f 3d 1a b2 0c 3d 48 17 1a bd a0 4b 96 3c
       0.03898658 0.03434954 -0.03761986 0.018346608
000020 e8 d3 48 3e 44 73 51 3e dc 87 df 3d 39 3c 89 3d
       0.19612086 0.20454127 0.10914585 0.0670094
000030 b3 71 c0 bb c9 25 19 be e8 87 55 3e 75 d3 cb 3c
       -0.005872929 -0.1495582 0.20852625 0.024881104
000040 bb b2 eb bd d2 d0 64 3e 72 cb 89 3b d0 06 26 be
       -0.115086995 0.22345284 0.004205161 -0.16213536
000050 e5 82 85 3d 00 ca f2 bb d0 36 01 3d 25 23 3a 3e
       0.06519107 -0.007409334 0.031546414 0.18177469
000060 97 d9 ac 3d 75 1a 0d 3d a1 b5 b9 3d ce aa f1 bd
       0.084399395 0.03444906 0.09067846 -0.118001565
000070 59 a8 68 bd e0 20 b3 bd 53 91 88 bb fb 06 d2 bc
       -0.056801174 -0.08746505 -0.0041677146 -0.025638094
000080 c6 93 d6 3d 72 c7 16 bd 78 04 cb 3d b4 8a cf 3d
       0.10477404 -0.0368113 0.09912962 0.101338774
000090 d4 37 5d bc d1 b0 b7 bd 9e 92 34 3c ce c8 9d 3d
       -0.01350208 -0.08969272 0.011021284 0.07704316
0000a0 38 cd 2e bd 72 9a c6 3d a1 81 fc bc 7a ba 25 3e
       -0.04267618 0.09697427 -0.03082353 0.16184416
0000b0 39 2a f5 bc 1a 3c 87 bd fd 0f e8 3a 02 67 fd bd
       -0.02992736 -0.0660326 0.001770496 -0.12373163
0000c0 f0 9f b1 39 41 93 9d bd ce ed d3 bd 89 2b ed bd
       0.00033879234 -0.07694102 -0.10348092 -0.11580569
0000d0 84 b3 02 be 0d ab bb 3d 0f 4f cb bd 1b 3c ca bc
       -0.12763792 0.09163485 -0.099271886 -0.024686864
0000e0 c7 36 5c bc 83 c1 af bb 3c f9 53 3d 0c 0b 9f 3d
       -0.013440794 -0.0053636446 0.05175136 0.07765779
0000f0 a3 4d 82 bd f4 2f ec bd df 08 b4 bd 75 1a 09 be
       -0.06362464 -0.11532584 -0.087907545 -0.13388999
000100 2d e9 24 3d 9a 97 0c be 92 19 1f bd 22 4a c3 3d
       0.040261436 -0.13729706 -0.038842745 0.09535624
000110 49 45 25 3e 76 6b 03 bd 71 f5 41 bd 97 3e 71 bd
       0.16139711 -0.032084905 -0.04735321 -0.05889758
000120 12 00 d5 bd 87 be 30 3d 07 e0 1b be 5d 5c 7a 3a
       -0.10400404 0.04315045 -0.15222178 0.00095505064
000130 76 eb f6 3d 59 b1 b8 bc 0e ea 1f 3e f6 e8 7a bc
       0.12056629 -0.022545503 0.15616629 -0.015314331
000140 ed 3c 93 3d bf 28 f7 3d 2d e8 9d 3d ad 79 db 39
       0.07189355 0.120683186 0.077103 0.0004186159
000150 a1 0b 88 3b ee e5 c4 bd f2 39 77 3d 0b c4 7f 3d
       0.004151777 -0.09614168 0.060357995 0.06244282
000160 52 ac 74 bd cc 61 16 3d 87 bd 00 bd c3 13 8b 3d
       -0.05973465 0.03671436 -0.031430747 0.067908786
000170 3c 3d 27 bd 12 aa 9c bd c1 84 a5 bc 76 31 ea 3c
       -0.040829882 -0.07649626 -0.020204904 0.028588038
000180 79 4a 29 3d cc 2b e6 bd fd f6 66 3d f0 e8 ab bd
       0.04133079 -0.11238822 0.05638789 -0.08394039
000190 cb c4 e0 ba e3 16 51 3e 98 e1 29 bd 13 bc 8e 3d
       -0.0017148493 0.20418887 -0.04147491 0.06969466
0001a0 2c 56 74 bd 15 ea e7 3c 6d 0d 06 3e ea c5 bb bd
       -0.059652492 0.028309861 0.13091059 -0.091686085
0001b0 1f eb 91 3d bc 9b 11 3d 5b c6 f7 bc de 31 2d bd
       0.07124924 0.03554891 -0.03024595 -0.042283885
0001c0 1c 9d 6d 3d 3b 04 d9 3d 63 5b ef 3d 9f c0 19 bd
       0.05801116 0.1059651 0.116873525 -0.037537213
0001d0 1b e8 b3 bd f8 98 94 3d a0 9b 53 3d c3 17 d4 bb
       -0.08784505 0.07255739 0.051662087 -0.006472559
0001e0 13 3c eb bd a9 3f d5 bd b8 f3 5d bc 8d 6a c2 bd
       -0.114860676 -0.10412533 -0.013546877 -0.09492979
0001f0 2f e9 0e bd 3c 4d ce 3d 3b 42 9a bd b5 83 91 bd
       -0.03489035 0.10073325 -0.07532164 -0.07105199
000200 0a 11 8b 3d a1 35 70 bd 08 23 ad 3d 9f 5a 26 3d
       0.06790359 -0.058644895 0.08453947 0.040613767
000210 b2 99 57 bd ab 3e b5 3d 53 f1 b8 bc 6d 8c e0 3b
       -0.05263681 0.088498436 -0.02257601 0.0068526776
000220 98 3d aa 3d 46 37 1d be da 27 c3 bd 64 85 ab 3d
       0.08312529 -0.15353116 -0.095290855 0.083750516
000230 41 7e 82 3c a0 89 c8 3d 5f 23 1c 3e b2 75 77 bd
       0.015929343 0.09791875 0.15247868 -0.060414977
000240 c4 e7 dc 3c 20 ad ad 3c 13 bd ce bb 22 73 10 3d
       0.026965983 0.021200716 -0.0063091605 0.03526605
000250 7b fe 6b 3d 2f 56 25 bd 92 c9 d3 bd eb 47 07 3a
       0.05761574 -0.040365394 -0.10341181 0.0005160558
000260 79 cf 33 3a ff 19 a4 bd 0a c8 c8 bd fa 9d 73 3d
       0.0006859224 -0.08012771 -0.098037794 0.05947683
000270 52 f5 6f 3c 73 93 de 3b 13 db 57 3b b0 b6 b5 3d
       0.014645891 0.0067924797 0.0032936975 0.088727355
000280 7c 75 4c 3c d9 91 31 bc bc 9b a0 3d f0 44 65 bc
       0.012479182 -0.010837995 0.07842204 -0.013993487
000290 e5 aa 60 bd 38 52 5f bd 94 c1 7e bc bf ff 80 3e
       -0.054850478 -0.05452177 -0.015549082 0.2519512
0002a0 09 86 91 bd 1b 29 8f 3d f9 c5 22 bd 00 de 78 3d
       -0.07105643 0.06990262 -0.039739583 0.06075859
0002b0 dd f3 db 3d 8a ad 25 3c b7 2a a4 3c f2 33 2d 3c
       0.107398726 0.010112176 0.0200399 0.010571467
0002c0 f5 62 dc bd f8 bc c9 3c b2 c0 00 3d c6 7e 46 3c
       -0.10761062 0.02462624 0.03143377 0.012115186
0002d0 f9 aa 15 be 35 21 1e 3e d2 2b 6c bd a3 af 11 3d
       -0.14616002 0.15442355 -0.057658978 0.03556789
0002e0 d2 a0 44 bd 81 07 e6 3d 9f 1c 80 3b 39 fe 60 3e
       -0.048004933 0.112319 0.003909662 0.21971978
0002f0 0e cb dc 3d 94 ad d1 3a 59 3b f3 3c 0a 88 33 bd
       0.10780917 0.0015997165 0.029691385 -0.04383091
000300 8b 80 56 be a9 43 91 bc 88 3f e4 bd 06 1e ce 3d
       -0.20947473 -0.017732458 -0.1114493 0.1006432
000310 62 8a ef bc ab 73 e1 bd d8 fd 54 3d 7a 57 30 3d
       -0.02924079 -0.1100839 0.051999897 0.043052174
000320 6f ce 7e 3a 6a 61 1e be 34 95 4b 3e 55 87 b5 3d
       0.0009720092 -0.15466848 0.19881135 0.08863703
000330 51 4c c2 3d 6c ca af 3d d4 71 9f 3a 7e 22 18 bb
       0.094872124 0.08583531 0.0012164661 -0.0023213918
000340 ee ba 26 3c 86 5a c1 3d ed 8a 4d 3c ad d2 46 be
       0.010176403 0.09441094 0.0125453295 -0.19416304
000350 56 4c 16 be bc d6 5a 3d 40 27 ee bd 19 74 b0 39
       -0.14677557 0.053427443 -0.1162858 0.00033655835
000360 b4 96 12 3e 67 89 cf bd 12 d5 34 3e 3c b9 20 3b
       0.14315301 -0.10133629 0.17659405 0.002452447
000370 9e 05 06 be 8b 9f c5 bd e6 b2 65 bd 42 1e 7f bc
       -0.1308808 -0.09649571 -0.056078814 -0.015571179
000380 c5 95 55 bd 1c 78 66 3d 31 88 94 bd e8 d6 2c be
       -0.052144784 0.05626689 -0.07252539 -0.16878855
000390 8a 97 30 bd 9a d1 ac bd e6 be 0e 3e 0f d7 cc bd
       -0.04311327 -0.08438416 0.1394001 -0.10001957
0003a0 f4 67 89 3d 79 95 66 be ca ac 21 be 95 76 08 bd
       0.067092806 -0.22517957 -0.1578857 -0.033316214
0003b0 da 05 2b 3c d0 8b c8 bd be a1 b4 bc 52 95 8d 3d
       0.010438407 -0.09792292 -0.022049781 0.06913246
0003c0 a0 65 e2 3d 36 05 bc 3d 12 09 27 be 7a 4b 04 bd
       0.1105454 0.091806814 -0.16312054 -0.032298543
0003d0 4c 9b 8c 3d 97 e4 b1 3d 96 ca 1d be 8d 4e e3 bd
       0.06865558 0.08686178 -0.15409312 -0.11098967
0003e0 53 a6 08 3d 03 8b df bc a8 63 83 bc 0e 09 75 bd
       0.033361744 -0.027287966 -0.01603873 -0.05982309
0003f0 38 49 a8 bc 59 3e d4 3d 31 1b 4a 3c 62 c1 b9 bb
       -0.020542726 0.10363454 0.0123355845 -0.005668805

network_body._body_endoder.seq_layers.2.bias f4 [128]
000000 00 00 00 00 00 00 00 00 00 00 00 00 00 00 00 00
       0.0 0.0 0.0 0.0
000010 00 00 00 00 00 00 00 00 00 00 00 00 00 00 00 00
       0.0 0.0 0.0 0.0
000020 00 00 00 00 00 00 00 00 00 00 00 00 00 00 00 00
       0.0 0.0 0.0 0.0
000030 00 00 00 00 00 00 00 00 00 00 00 00 00 00 00 00
       0.0 0.0 0.0 0.0
000040 00 00 00 00 00 00 00 00 00 00 00 00 00 00 00 00
       0.0 0.0 0.0 0.0
000050 00 00 00 00 00 00 00 00 00 00 00 00 00 00 00 00
       0.0 0.0 0.0 0.0
000060 00 00 00 00 00 00 00 00 00 00 00 00 00 00 00 00
       0.0 0.0 0.0 0.0
000070 00 00 00 00 00 00 00 00 00 00 00 00 00 00 00 00
       0.0 0.0 0.0 0.0
000080 00 00 00 00 00 00 00 00 00 00 00 00 00 00 00 00
       0.0 0.0 0.0 0.0
000090 00 00 00 00 00 00 00 00 00 00 00 00 00 00 00 00
       0.0 0.0 0.0 0.0
0000a0 00 00 00 00 00 00 00 00 00 00 00 00 00 00 00 00
       0.0 0.0 0.0 0.0
0000b0 00 00 00 00 00 00 00 00 00 00 00 00 00 00 00 00
       0.0 0.0 0.0 0.0
0000c0 00 00 00 00 00 00 00 00 00 00 00 00 00 00 00 00
       0.0 0.0 0.0 0.0
0000d0 00 00 00 00 00 00 00 00 00 00 00 00 00 00 00 00
       0.0 0.0 0.0 0.0
0000e0 00 00 00 00 00 00 00 00 00 00 00 00 00 00 00 00
       0.0 0.0 0.0 0.0
0000f0 00 00 00 00 00 00 00 00 00 00 00 00 00 00 00 00
       0.0 0.0 0.0 0.0
000100 00 00 00 00 00 00 00 00 00 00 00 00 00 00 00 00
       0.0 0.0 0.0 0.0
000110 00 00 00 00 00 00 00 00 00 00 00 00 00 00 00 00
       0.0 0.0 0.0 0.0
000120 00 00 00 00 00 00 00 00 00 00 00 00 00 00 00 00
       0.0 0.0 0.0 0.0
000130 00 00 00 00 00 00 00 00 00 00 00 00 00 00 00 00
       0.0 0.0 0.0 0.0
000140 00 00 00 00 00 00 00 00 00 00 00 00 00 00 00 00
       0.0 0.0 0.0 0.0
000150 00 00 00 00 00 00 00 00 00 00 00 00 00 00 00 00
       0.0 0.0 0.0 0.0
000160 00 00 00 00 00 00 00 00 00 00 00 00 00 00 00 00
       0.0 0.0 0.0 0.0
000170 00 00 00 00 00 00 00 00 00 00 00 00 00 00 00 00
       0.0 0.0 0.0 0.0
000180 00 00 00 00 00 00 00 00 00 00 00 00 00 00 00 00
       0.0 0.0 0.0 0.0
000190 00 00 00 00 00 00 00 00 00 00 00 00 00 00 00 00
       0.0 0.0 0.0 0.0
0001a0 00 00 00 00 00 00 00 00 00 00 00 00 00 00 00 00
       0.0 0.0 0.0 0.0
0001b0 00 00 00 00 00 00 00 00 00 00 00 00 00 00 00 00
       0.0 0.0 0.0 0.0
0001c0 00 00 00 00 00 00 00 00 00 00 00 00 00 00 00 00
       0.0 0.0 0.0 0.0
0001d0 00 00 00 00 00 00 00 00 00 00 00 00 00 00 00 00
       0.0 0.0 0.0 0.0
0001e0 00 00 00 00 00 00 00 00 00 00 00 00 00 00 00 00
       0.0 0.0 0.0 0.0
0001f0 00 00 00 00 00 00 00 00 00 00 00 00 00 00 00 00
       0.0 0.0 0.0 0.0

action_model._discrete_distribution.branches.0.weight f4 [4, 128]
000000 5b 99 1d bb a9 75 38 3c 40 4c 97 bb 3b f6 a5 bc
       -0.0024047706 0.011258521 -0.004617244 -0.020259013
000010 67 95 d0 39 66 64 34 bb dc 2d af 3b aa bf 28 3b
       0.00039784165 -0.0027525662 0.005346043 0.0025749006
000020 72 b5 e6 bb 91 f9 a3 bb ae 27 13 3a 02 0b 78 3c
       -0.007040673 -0.005004116 0.0005613518 0.015139343
000030 50 d9 b2 bc 6d d5 f8 bb 16 17 02 3c af 21 45 bc
       -0.021832138 -0.0075938017 0.007940074 -0.012031957
000040 62 5a 0e bc 08 ce d5 3b 9a 32 e7 3b 93 63 2c bc
       -0.008688541 0.006524805 0.0070555927 -0.010521787
000050 7f 0e 18 3c 04 f1 16 3b 7f 62 85 3b ea 57 07 3c
       0.0092808 0.002303184 0.0040705795 0.008260706
000060 35 32 22 bc 24 7e 32 3b 68 6c d8 bb 02 aa eb 3b
       -0.009899666 0.002723583 -0.00660472 0.0071918974
000070 47 7e 0a bb a7 c7 b2 bb 71 24 9c bc b6 56 02 bc
       -0.0021132396 -0.0054559293 -0.019060345 -0.007955244
000080 5b c3 f7 bb a2 c2 38 ba 08 3c 0d 3c 30 cc 3e 3c
       -0.00756113 -0.00070480455 0.00862027 0.011645362
000090 6a ba 5a ba b5 cc 6c bb 8f 9f e4 ba 80 15 c9 3a
       -0.0008343818 -0.0036132757 -0.0017442572 0.001534149
0000a0 38 f7 0a 3c 16 60 b6 ba 12 20 fe b8 f7 4c 9c bc
       0.008481793 -0.0013914134 -0.000121176374 -0.019079668
0000b0 10 2d cd bc 60 9f db bc 63 4d 95 3c 81 1e 98 bb
       -0.025045902 -0.026809394 0.018225377 -0.004642308
0000c0 57 a1 e4 ba eb 81 57 bb de 53 ca bb db b1 d1 3b
       -0.0017443103 -0.0032883834 -0.0061745485 0.006399376
0000d0 ab 05 88 3b 9f 5d a2 3b 1f 6f 11 3c 6b 75 81 3c
       0.0041510663 0.004955008 0.008876591 0.01580306
0000e0 7c 5f 3c bb d3 b8 3c bc 4a a7 df bb b7 ad 61 bb
       -0.0028743437 -0.011518675 -0.0068253623 -0.0034435818
0000f0 5a e1 55 bc a2 4a f0 bb e0 c5 1a 3b 78 6a ed bb
       -0.013054216 -0.0073331157 0.0023616478 -0.007245358
000100 4f b8 0f bc 13 4e 0d 3b ab 00 50 39 61 77 04 bc
       -0.00877197 0.0021561428 0.00019836675 -0.008085103
000110 49 97 a1 bc e5 38 5d 3c 7b 9a f7 bb ee c8 27 bc
       -0.019725459 0.013502334 -0.0075562573 -0.010240776
000120 67 01 b4 3a ff 38 de bb 67 b6 9e 3a dc 35 9b bb
       0.0013733328 -0.006781697 0.0012108803 -0.004736645
000130 5f 55 7f bb 3c 1e 42 3c 22 0c ef bb 8e 3a 40 3c
       -0.0038960797 0.011848029 -0.0072951475 0.0117327105
000140 91 7d 14 bc 98 ce 01 3c 4c 29 3e bb da fa 78 3c
       -0.0090631405 0.007922791 -0.0029016314 0.015196526
000150 6f 87 9c bb a2 ea 71 3b 67 2d af 3b 97 75 77 bb
       -0.004776887 0.0036913534 0.0053459886 -0.0037759298
000160 7b b9 2b 3c 5f 61 50 3b 05 63 7a bb 23 d6 59 3b
       0.010481234 0.003179632 -0.0038205993 0.0033239208
000170 77 6c c9 bc 32 08 30 bb bc ee 3c 3c f3 3e 2f 3c
       -0.024587853 -0.0026860354 0.011531528 0.010696161
000180 39 a8 8b bb 18 7a 42 bb b7 9d ff bb f7 90 5c 3b
       -0.004261997 -0.0029674824 -0.0078007835 0.0033655742
000190 53 5c 7b bc 23 ba 8c 3b 43 2d 4a 39 fc b6 48 3c
       -0.015341836 0.00429465 0.00019281082 0.012250658
0001a0 fd 4b 7c 3c 0f 31 4a bb f7 c0 29 bc 2f 48 aa bb
       0.015398976 -0.0030851995 -0.010360948 -0.0051965932
0001b0 f5 16 91 3b 79 b5 13 3b 03 85 ee 3a cb e2 fe 3b
       0.0044277855 0.0022538586 0.00181976 0.0077785007
0001c0 cb 88 69 3b 53 36 c4 3b ba f8 d5 3b 05 3d 6a bb
       0.0035634513 0.0059879213 0.0065298947 -0.0035741937
0001d0 c2 52 72 ba e2 78 78 3c f3 84 a5 3c b2 fb 72 bc
       -0.0009243899 0.015165539 0.020204997 -0.014830517
0001e0 da 14 5c 3c 77 91 87 bb af 01 3a 37 16 4b 4c bc
       0.013432706 -0.004137214 1.1086856e-05 -0.012469074
0001f0 50 5f 70 3b df 96 5e bc ed 9e dc 3a 63 bb b8 bb
       0.0036677904 -0.013585775 0.0016832032 -0.0056375726
000200 7f 39 6a bc 53 8c 3c 3b 03 80 bf 3c 07 30 cd 3b
       -0.014295935 0.0028770163 0.02337647 0.006261829
000210 03 a5 65 3b 7e 58 24 3c e2 bd 82 ba 84 3f 84 3b
       0.0035040982 0.010030864 -0.0009974802 0.004035892
000220 c2 73 9b ba 9d 2c df 38 73 03 dd ba 88 46 eb ba
       -0.001186006 0.000106417785 -0.001686199 -0.0017950097
000230 63 cb 1a b9 63 d8 c8 bb a2 80 0d 3c 1c fa 12 bc
       -0.00014762352 -0.006129311 0.0086366255 -0.0089707635
000240 15 ff 85 3b d5 f2 97 3b 22 b8 60 ba 39 03 a3 3a
       0.004089246 0.004637102 -0.000857236 0.0012436874
000250 f5 c5 26 3a fa fe 3c bc 58 f7 91 bb 4b 81 95 3a
       0.00063618954 -0.0115354005 -0.0044545345 0.001140633
000260 68 95 56 bb 04 a6 9f bc e7 da d4 bc a5 f4 f3 3a
       -0.0032742862 -0.019488342 -0.025983287 0.0018612338
000270 4d 90 d0 3c bb 86 59 3b 52 86 71 3c 9b 4e a0 ba
       0.025459433 0.0033191878 0.014741497 -0.0012230458
000280 ee d7 43 bc bb eb b4 3b 6a 0a ea bb 43 5d ba 3b
       -0.011953337 0.0055212653 -0.0071423547 0.005687387
000290 e2 74 f7 bb a1 ed 35 3c d5 22 1d bc f3 ce 0e bc
       -0.0075517753 0.011104018 -0.009590824 -0.008716333
0002a0 97 4d 2e bc b8 fa ea 3a 42 9e d7 3b 68 f5 76 ba
       -0.010638616 0.0017927503 0.006580145 -0.00094207237
0002b0 8d 40 5c 3c 73 63 18 3c 55 16 36 3c 05 75 67 3c
       0.0134431245 0.009301054 0.011113723 0.014127021
0002c0 fb c7 9c 3a df a6 c2 bb 12 01 e4 3b 9f 28 bf bb
       0.0011961454 -0.0059403027 0.0069581354 -0.0058337
0002d0 85 72 e3 3b 63 f7 a9 3a 92 31 8d bb db 5f ac 3b
       0.006941142 0.0012967404 -0.0043088878 0.0052604503
0002e0 8c 81 b9 3c a6 51 98 bb 62 23 9b bb be 78 86 bc
       0.02264478 -0.004648405 -0.0047344426 -0.016414996
0002f0 e1 bd a2 bc 3a b3 e5 3b 6a 67 45 3c d5 b7 6d 3c
       -0.019865932 0.007009891 0.012048582 0.014509161
000300 27 32 12 3b b0 f5 6b bb c5 40 19 3c af cb 68 3b
       0.0022307725 -0.0036004595 0.009353821 0.0035521796
000310 07 c9 ac bb 95 dc 10 3c 00 4b 88 3c 4d 2d b8 bb
       -0.0052729878 0.008841653 0.016637325 -0.0056206346
000320 23 dd 86 bb c9 b4 95 bc a0 87 7e 3c 23 72 87 3b
       -0.004115717 -0.018274682 0.015535265 0.004133479
000330 f8 e2 ff bb 1b ed 5d ba a0 c7 a9 bb 47 02 7e 3b
       -0.007809039 -0.00084658124 -0.005181268 0.0038758682
000340 1d 64 7b bb fa 8e 00 bc 0f 33 54 bc af 7e 2d b8
       -0.0038359233 -0.007846588 -0.012951626 -4.1364397e-05
000350 60 e7 15 3c 83 50 05 bc 19 91 9d 3a 88 f7 d3 bb
       0.009149402 -0.008136871 0.0012021392 -0.006468717
000360 1b a6 88 bb 18 e7 56 bc f0 a6 c8 3b 5a 5a 62 3c
       -0.004170192 -0.0131166205 0.006123416 0.013815487
000370 e0 c0 15 bb 87 df cc bb cf 3f 38 3c 4d 02 14 3c
       -0.0022850558 -0.0062522325 0.011245682 0.009033752
000380 cd 8e 86 ba 02 6a 98 3a 93 af e5 3b 6b da 30 3c
       -0.0010265947 0.0011628272 0.0070094555 0.010794262
000390 6b be c6 3b cf a2 53 3b ef 75 25 3a 50 bc 55 bc
       0.00606518 0.0032293086 0.0006311824 -0.0130453855
0003a0 5c 28 8a bb e7 ff f7 3b 39 a0 3f 3c 1b bd 94 3c
       -0.004216237 0.0075683477 0.011695915 0.018156579
0003b0 db 0d 9c ba 33 66 90 ba 65 e4 48 3b 57 27 ce b9
       -0.0011905985 -0.0011016786 0.0030653712 -0.00039320692
0003c0 6d 9c 3f 3a 55 69 f3 ba eb ce b8 bb 8d 0f 54 3b
       0.0007309381 -0.001857082 -0.005639901 0.0032357902
0003d0 9f c8 aa ba c7 89 a9 3b a2 60 e6 3c ab af 09 3c
       -0.001302976 0.005173895 0.02812225 0.008403699
0003e0 7a 94 dc bb 13 64 59 bc 68 ff 91 bc b8 b7 c0 3b
       -0.006731567 -0.013268488 -0.017821983 0.005881276
0003f0 a7 2b 85 bc 52 a0 77 bb 6f 2d 6c ba 98 bd 0c 3b
       -0.016256167 -0.0037784767 -0.00090094557 0.0021475311

action_model._discrete_distribution.branches.0.bias f4 [4]
000000 00 00 00 00 00 00 00 00 00 00 00 00 00 00 00 00
       0.0 0.0 0.0 0.0

action_model._discrete_distribution.branches.1.weight f4 [2, 128]
000000 bd e9 cf ba 3b 23 11 bc ee a1 0e bc cd 21 4d 3c
       -0.0015862506 -0.008858497 -0.008705599 0.012520266
000010 0b 8d de 3b f6 56 08 bc 6d da f4 3b 2f 46 29 bb
       0.006791716 -0.008321514 0.0074723274 -0.0025829186
000020 ab 67 0a 39 43 95 a3 bb 82 a0 80 bc 5a 27 80 3b
       0.00013199325 -0.0049921586 -0.015701536 0.003910941
000030 fe 76 12 3c d0 b9 28 3c 34 0c 39 3b 43 35 1c 3c
       0.008939503 0.010298207 0.0028236033 0.009534183
000040 c3 76 27 bc 17 f7 bf 3b 87 58 7c bb 8a c7 8e 3c
       -0.010221186 0.005858313 -0.0038504915 0.017429132
000050 c3 8d f3 bb 9e 0f c3 bb 0c 8a 43 3b 33 e2 43 bb
       -0.007432671 -0.0059527894 0.002983692 -0.0029889464
000060 ce a5 c3 3b 10 15 e8 3b 10 4c 20 bc 68 40 e4 3b
       0.005970693 0.007082589 -0.00978376 0.0069656856
000070 d7 12 c3 bc 07 be 44 bc 0b dc d9 3b 33 81 11 bc
       -0.023812694 -0.012008197 0.0066485456 -0.008880901
000080 5c 30 0c 3c e4 c9 16 39 13 65 70 bb 02 a5 b7 bb
       0.008556452 0.00014380325 -0.0036681339 -0.0056043873
000090 ec 38 11 bb c2 d5 e9 3b b7 7c 86 bc c7 99 71 3a
       -0.0022159172 0.0071360776 -0.01641689 0.0009216335
0000a0 06 c0 b1 bb aa 10 82 bb 1a 43 fd bb 27 6c 98 3a
       -0.0054245023 -0.0039692717 -0.0077289464 0.0011628912
0000b0 93 ce 07 3c 5c 09 8c bb 7a 5f be 3b 03 64 cc bb
       0.008288997 -0.0042735767 0.0058097215 -0.0062375083
0000c0 f3 f9 89 bb 68 bb dc ba 36 e1 9a b9 a8 fe c3 bb
       -0.0042107045 -0.0016840519 -0.00029540964 -0.005981285
0000d0 09 31 9d 3a 03 ee 34 3c 6d dc 03 bb fe c4 9e bb
       0.0011992763 0.011043075 -0.0020120398 -0.0048452606
0000e0 7e a7 11 3c 3c 19 2b 3c 3d 9a e4 bb 10 27 6c 3b
       0.008890031 0.010443028 -0.0069763944 0.0036034025
0000f0 a1 dd 4a 3c 34 69 88 39 9e a2 bb bb db 35 27 3b
       0.012381942 0.00026018324 -0.0057261726 0.0025514278
000100 bf 80 90 bc 37 ab 7c bb ad ff e7 3b 3b 02 1a 3c
       -0.017639516 -0.00385542 0.0070800395 0.009399946
000110 ce cc 0a 3c e3 bb 64 3a 27 55 84 3b 62 6a 0d bc
       0.008471681 0.0008725507 0.0040384713 -0.008631321
000120 08 1c 1f bb f5 0f 98 3a c7 8c 96 3c 53 90 8b 3b
       -0.0024278183 0.0011601435 0.018377675 0.004259148
000130 bb b4 9f 3b 33 69 0f 3c ab 7a 88 3b ae 35 09 3b
       0.0048738397 0.008753109 0.004165014 0.0020936537
000140 90 52 78 bb db c5 99 bc 33 68 b5 3b 65 9a 9f 3b
       -0.0037891008 -0.018771103 0.005536103 0.0048707
000150 d7 c2 3b 3b 22 66 e4 3b 61 1d 92 bb 01 ad b3 3b
       0.002865007 0.006970183 -0.0044590686 0.00548327
000160 21 77 ad 3b 9f 16 85 b8 b7 b9 be 3b 7a e6 cf 3a
       0.0052937423 -6.346148e-05 0.005820479 0.0015861534
000170 b2 23 a5 bb 23 74 02 bc 03 9e f6 bb 74 27 a8 3b
       -0.0050396556 -0.007962259 -0.0075261607 0.0051316563
000180 0a 1c e0 b8 e2 51 c8 bb 73 15 1b 3a 56 e3 4a bc
       -0.00010686375 -0.006113277 0.0005915977 -0.012383303
000190 83 29 41 bc 32 46 c5 ba 53 11 03 bc 30 75 01 3c
       -0.011789682 -0.0015050827 -0.007999736 0.007901475
0001a0 4a 25 45 bc ff 12 71 bc 21 10 a4 bb 5a d2 63 3b
       -0.012032816 -0.014714002 -0.0050068055 0.003476283
0001b0 93 8c 5e bc 60 0b dd 3a 49 6d b4 bc 52 30 2e 3b
       -0.01358332 0.0016864352 -0.022024767 0.0026579094
0001c0 3c 1b 4c bc 36 28 99 bc 92 3d 17 3b e6 2f 1b bc
       -0.012457665 -0.018695932 0.002307747 -0.009471869
0001d0 cf 4a 28 3b 2d 50 9b 39 d6 70 c8 3b 10 31 15 bb
       0.0025679355 0.0002962364 0.0061169667 -0.002276484
0001e0 ad 35 60 bc 6f 81 90 b9 95 0e f0 bb 3b 46 e0 3a
       -0.013684672 -0.00027562256 -0.007325957 0.0017110774
0001f0 ca 11 4d bb e5 a1 0e 3c c3 79 eb bb 33 18 cc 3b
       -0.003129112 0.008705591 -0.007186146 0.0062284707
000200 71 bb 3e bb 1d 17 4f 3c 57 c3 0b bc e3 c6 01 bc
       -0.0029103423 0.012639788 -0.008530459 -0.007920953
000210 3b e8 08 3c 7e bb 83 bb 01 ba 10 3c 2e 03 15 3c
       0.008356149 -0.0040201535 0.008833409 0.009094996
000220 5b bb 75 3c 40 45 65 bc 67 67 f7 bb 0d d1 46 3c
       0.014998282 -0.013993561 -0.0075501683 0.0121348025
000230 1a 03 70 3b 4b e3 40 bc 1d 30 64 bc 5b 8d ad 3a
       0.0036622942 -0.011772941 -0.013927487 0.001324098
000240 13 0a ab bc 1d 72 46 3b f4 30 86 3a cf 59 8b 3c
       -0.020878827 0.003028042 0.0010237978 0.017010598
000250 ab 8a 2d 3c 81 ec 08 3c 42 a6 d8 bb ad ac 5f 3c
       0.010592143 0.008357168 -0.0066116164 0.013652009
000260 a0 16 a9 bc 57 ed 69 bc ea b3 67 bc e3 54 d1 3a
       -0.020640671 -0.014277778 -0.014142016 0.0015970733
000270 e3 70 73 ba 32 b1 a3 3b 4f 2e 17 3c 44 59 21 bb
       -0.0009286536 0.0049954886 0.009227349 -0.0024619857
000280 d1 a8 2b 3b 8b c5 3f bb 52 59 7d 3c 47 b2 78 3b
       0.0026193152 -0.0029262032 0.01546319 0.0037948058
000290 66 c9 ab 3b 60 92 bb 3b 88 5c 3e bc 77 a2 d9 ba
       0.0052425144 0.0057242364 -0.011618741 -0.0016604204
0002a0 0c f7 af 38 ce 17 26 3c bb 37 63 3b d7 0c 26 bb
       8.390666e-05 0.010137511 0.003467067 -0.0025337243
0002b0 dd e6 0a bc 9f 4b cf 3b 37 87 21 bc 83 16 0e bc
       -0.008477894 0.0063261534 -0.009858898 -0.008672359
0002c0 8f 3a af bb a3 9f 15 3c e7 4c 1e 3a 13 ef 89 bb
       -0.005347557 0.009132299 0.0006038681 -0.004209408
0002d0 f7 01 c4 bb 16 2a 8d 3c 79 2e b4 bb 4a 79 48 3b
       -0.0059816795 0.017231982 -0.005498704 0.0030589872
0002e0 70 6b fb 3a 48 61 27 3c 2d 74 f1 3b 2f e4 5a bc
       0.0019181799 0.010216065 0.0073685856 -0.013360067
0002f0 90 2d 75 3c 7d b5 81 b9 ba 01 66 ba 37 95 dd 3b
       0.014964476 -0.00024740017 -0.0008774061 0.0067621726
000300 55 5d 78 bb 0c 31 85 3c 5b e3 d1 3a 1a 7f 0c bc
       -0.0037897427 0.016258739 0.0016013192 -0.008575225
000310 9b 3c 4e bc aa 6b 84 3b 80 13 6e bb 2e 44 80 3a
       -0.012587692 0.004041155 -0.003632754 0.0009785944
000320 cf 7f 0f bb c8 b8 a8 bc 4b 8f 01 3c 99 e2 14 3c
       -0.0021896248 -0.020595923 0.007907699 0.009087228
000330 a9 5c 3c bb 5e 37 b1 3b a8 fd 84 bc db 53 f4 b9
       -0.0028741753 0.0054082116 -0.016234234 -0.00046601784
000340 31 e5 24 39 1f eb 9e 3b cd 23 26 bc e9 d0 1b 3b
       0.00015725639 0.004849806 -0.0101403715 0.0023775643
000350 03 b4 88 bb 17 6a a3 bc 27 31 c1 ba 12 b3 6e 3c
       -0.0041718497 -0.019948049 -0.001473938 0.014569061
000360 1f 94 d3 bb 56 75 0a bc 54 14 4c bb 47 2e 28 3c
       -0.0064568664 -0.008450827 -0.0031140046 0.01026494
000370 13 c1 c9 3b e7 62 42 3c f3 ea 24 3b 5b 9d bb 3b
       0.0061570494 0.0118644005 0.0025164455 0.0057255453
000380 10 18 7a bc c7 2b fc bb fb 06 53 bb 0b 37 86 ba
       -0.015264526 -0.0076956484 -0.0032200206 -0.0010239793
000390 51 09 20 3c 30 d8 40 3a b3 52 1b 3c e7 fd 3d bc
       0.009767846 0.0007356433 0.009480166 -0.01159618
0003a0 a2 35 f1 ba 0f f8 41 bc bf 1a 2b 3b 5f f0 49 bc
       -0.0018402825 -0.011838927 0.0026108471 -0.012325375
0003b0 b1 4c 0f 3c 27 62 99 bb dd 8c 2b 3c 13 19 a4 3b
       0.008746312 -0.00468089 0.010470596 0.005007872
0003c0 da 3f 84 3b ce f4 2d 3b 8f f5 60 3b 8b dc ff 3b
       0.004035932 0.002654362 0.0034326052 0.007808273
0003d0 e1 69 0c 3b e8 cb 64 3c 5a ea d3 bb f2 2f b6 3c
       0.0021425413 0.013964631 -0.006467146 0.022239659
0003e0 ef bf ed 3b 7b e9 58 bc 92 04 05 bc bf 93 74 bb
       0.0072555463 -0.01323926 -0.008118765 -0.003731951
0003f0 52 f2 5b 3b ef 41 21 bc 84 5d 88 bb 27 78 6d bc
       0.0033561182 -0.00984238 -0.0041615386 -0.014493979

action_model._discrete_distribution.branches.1.bias f4 [2]
000000 00 00 00 00 00 00 00 00
       0.0 0.0

network_body._body_endoder.seq_layers.0.weight f4 [128, 118]
000000 08 92 cc 3d a6 34 17 be d7 45 44 bd cb 07 3d bd
       0.09988791 -0.14766178 -0.047918167 -0.04615001
000010 fd 40 5e bc cd 58 eb 3c be b4 90 bd 74 71 5c 3d
       -0.013565299 0.028728867 -0.07065724 0.053819135
000020 99 47 af bd 10 59 d8 3d b0 58 22 3e 0c 0f 0b be
       -0.08558578 0.10563862 0.15854144 -0.13579959
000030 94 ba 5f be 91 8f 12 3d 5c 34 f8 bc 53 00 18 be
       -0.21848518 0.035781447 -0.030298404 -0.14843874
000040 b6 a1 84 3a 45 8d 2a bd 40 e1 9b 3a dd d0 a3 3d
       0.0010118994 -0.04163863 0.0011892691 0.07998822
000050 ea 4a 08 bd 6b c4 ad bd a0 21 52 3c d3 f9 14 bd
       -0.03327457 -0.084847294 0.0128254 -0.036371063
000060 1f a4 a3 3c bd b2 11 bd 98 af 39 bd 42 e3 10 be
       0.01997572 -0.03557085 -0.045333475 -0.14149192
000070 56 53 a8 3d 1e df 49 3d 39 9d a5 3d c4 3e bb 3d
       0.0821902 0.049285047 0.080866285 0.09142831
000080 60 e6 47 bd 20 ac f0 bd 67 7d c5 bb 01 a4 1d bd
       -0.048803687 -0.1175158 -0.006026912 -0.038486484
000090 7d 08 55 bd 04 4a 12 3d 2a ed bc bd 71 6d 2d 3d
       -0.05201005 0.035715118 -0.09224923 0.0423407
0000a0 fe f1 ce bd a3 dd b6 bc 23 66 32 bd ae 29 c6 bd
       -0.1010475 -0.022322481 -0.043554436 -0.096759185
0000b0 36 15 69 3d 62 cb 6b bb f0 e5 aa 3a 75 12 56 bc
       0.056904994 -0.003597938 0.0013038497 -0.013065924
0000c0 4b 21 90 bd 51 2f 35 bd 80 c0 7e bc bd 08 47 be
       -0.070376 -0.044234578 -0.015548825 -0.19436927
0000d0 3f 9d 8d 3b e9 f2 90 bc 88 b1 e5 bd ba 35 1a 3e
       0.0043217237 -0.017693954 -0.11215502 0.15059558
0000e0 8d b7 46 be c1 ae 5c 3c 3c 99 d6 3d 7d 16 a8 3c
       -0.19405957 0.013469399 0.10478446 0.020518536
0000f0 31 bf a8 bb 80 50 51 3e c0 51 90 3d ae af 12 3e
       -0.005149745 0.20440865 0.070468426 0.14324829
000100 18 83 15 bb d8 27 23 3e 74 63 ab bc f1 1a 45 bd
       -0.0022813734 0.15933168 -0.020921446 -0.048121396
000110 74 b7 aa 3d 9b a6 bf bd 89 0f de bd 1c 2b 0a 3e
       0.08335772 -0.09357949 -0.10842807 0.13493007
000120 58 b4 3f bd 87 bf 85 bc 01 15 26 be 7d 44 94 be
       -0.04680285 -0.016326679 -0.1621895 -0.28958502
000130 b1 8b a7 3d cf f5 fb bd a6 22 47 bd a3 9b 23 3c
       0.08180941 -0.12302744 -0.048617028 0.009985837
000140 61 5c cd bd 1d f5 a9 bd 24 9e 98 3d 2d af f3 bd
       -0.100273855 -0.08298705 0.07452038 -0.118986465
000150 f3 11 80 bd db a6 8b be 81 40 26 be 9d 85 a7 bc
       -0.062534235 -0.27275738 -0.16235544 -0.020449454
000160 78 0a 7a bd 96 0c fa 3c b0 7c 1b 3d d5 17 35 bc
       -0.06104514 0.03052358 0.03796071 -0.011053045
000170 8b 50 f9 bd 80 35 40 3d f3 4f fd bc 06 b9 8f 3d
       -0.121735655 0.04692602 -0.030921912 0.07017712
000180 06 76 86 3c 7a 35 0b be e3 9d 7b bd 09 3a 9b 3c
       0.0164137 -0.13594618 -0.06142987 0.018948572
000190 e2 aa 92 3d 91 21 31 bd 41 f6 a7 3d 5e ac 3c 3d
       0.071614996 -0.043244902 0.08201266 0.04606282
0001a0 20 c6 09 3c 8f 65 4f bd 37 5c 75 3c 79 8e c1 bd
       0.008409053 -0.050633963 0.014975599 -0.09451003
0001b0 d5 9a 1a be 0b 07 70 3e 9a c7 7c bc 92 5d 92 bb
       -0.15098126 0.23440187 -0.015428448 -0.004466721
0001c0 1c 7c 82 bd 6a ba 3e bd d8 5b c7 3d bb 98 20 3e
       -0.06371328 -0.046564497 0.09734315 0.15683262
0001d0 a8 47 a8 3d f8 f0 23 be 01 c3 1e 3d e5 45 cd 3d
       0.08216792 -0.16009891 0.03876019 0.10023097
0001e0 44 28 c2 bd 9f 1f 97 3c ff 7c 0f bd 60 f8 a9 3c
       -0.09480336 0.018447695 -0.035031315 0.020748317
0001f0 b5 12 51 bc e5 a6 93 3c 73 3b 6c 3e 13 f6 d6 3d
       -0.012760808 0.018023917 0.23069553 0.10496154
000200 3f 86 52 bd 12 36 8a 3c ca d4 0c 3e 23 10 10 bd
       -0.05139756 0.016871486 0.13753048 -0.03517164
000210 17 35 f2 bd e4 2f bd 3d c5 55 e0 3c 40 d8 5d bd
       -0.11826532 0.0923765 0.027384648 -0.05416131
000220 56 66 fd 3c b1 ba 82 3d c7 19 15 bd 90 14 f4 bd
       0.030932587 0.06383265 -0.036401536 -0.119179845
000230 2d b4 b6 bd 91 81 7c bc de d3 82 3a e0 54 93 bc
       -0.089210846 -0.01541175 0.0009981354 -0.017984807
000240 e4 65 87 3d 5a 71 24 3e 43 e5 e8 bd ef a2 34 bd
       0.06611231 0.16058865 -0.11371853 -0.044100698
000250 9c e4 38 bd 01 e9 1c bd ba d7 48 3d 68 8c 75 bb
       -0.045139894 -0.038308147 0.049033858 -0.0037467722
000260 16 33 10 be a3 92 a9 bd 83 e8 29 be 95 79 62 bb
       -0.14081988 -0.08279922 -0.16592602 -0.0034557332
000270 8d d3 8c 3e ff e2 0d be 6a bb cb bd 24 2b c8 3d
       0.2750515 -0.13856123 -0.09947856 0.097738534
000280 24 9f 4f 3d 97 2a ce 3c 0b 54 97 bd ef b8 cc 3c
       0.050688878 0.025166793 -0.07389077 0.024990527
000290 3f e7 81 bd ae 99 2b bd 6a 83 76 3e 8f bd c8 3d
       -0.06342935 -0.041894607 0.24073568 0.098017804
0002a0 7f 41 e2 3c 7a 45 3f b9 ae a0 26 bc 06 2e f8 bb
       0.027619122 -0.00018241061 -0.010170145 -0.007573846
0002b0 22 6f c2 bd 06 ed 66 be ca 31 13 bd d9 47 50 bd
       -0.09493853 -0.22551355 -0.035936154 -0.05084977
0002c0 3f bb 97 bc ee 8f b4 bd 2e 7a 36 3d da de 95 bc
       -0.018521903 -0.08816515 0.044550113 -0.01829474
0002d0 f9 97 7a bd bb 02 d1 bd e9 07 df bd 7c 22 d9 bc
       -0.06118009 -0.10205599 -0.108901806 -0.026505701
0002e0 d4 fd d2 3c 07 6e c7 bd 00 55 76 bd bf f1 80 3d
       0.0257558 -0.09737783 -0.060139656 0.062961094
0002f0 b5 11 9e bd ee 48 ba bd ad 53 b5 bc 4e 35 a8 bd
       -0.07718221 -0.090959415 -0.022134626 -0.08213292
000300 7e 34 d2 bd 7c 3e e0 bd 05 1c 23 bd 98 7a e1 3d
       -0.10263918 -0.10949418 -0.039821643 0.11009711
000310 61 e4 64 be 31 a7 40 bd af 20 55 bd 8f 42 65 3d
       -0.22352745 -0.047034446 -0.052033123 0.05597168
000320 1b 64 03 3e 64 2c f7 bd 30 4f 61 3d cc 25 62 bc
       0.12831156 -0.12069014 0.05500716 -0.013802957
000330 57 6b 99 bc ff 1c a1 bd f7 57 78 bd 36 44 b6 3d
       -0.018727941 -0.07866859 -0.060630765 0.08899729
000340 4e 15 7f 3d 4c 0b 11 3d 04 85 f0 bd 30 ac de 3c
       0.062276177 0.035411164 -0.11744121 0.027181715
000350 e5 8f 07 be 55 77 1a bc bd 44 df bd f4 d1 a1 bd
       -0.13238485 -0.009427865 -0.10901783 -0.079013735
000360 49 0b 88 3d 1f a5 82 bc 16 16 b3 bd d1 4b 91 3d
       0.066427775 -0.015947876 -0.08744447 0.07094539
000370 4f 33 21 be 9a 2c 62 3d e5 e6 64 bd 75 92 5a 3e
       -0.15742229 0.055218317 -0.05588426 0.21344931
000380 07 e1 a1 ba d4 45 05 be f6 45 f5 bc ad 32 94 3b
       -0.0012350389 -0.13014919 -0.029940587 0.0045226426
000390 3f 0e 44 3d 77 7b 57 bb f8 05 8b bd 95 9d c4 3c
       0.04786515 -0.0032879987 -0.06788248 0.024000922
0003a0 c1 5a 00 be c4 90 db 3d f6 56 f6 3c 67 39 b9 bd
       -0.1253462 0.10720971 0.030070763 -0.09044152
0003b0 12 96 14 3d e1 ce b5 bd ea fe 3e bc ee fe e9 3d
       0.03627593 -0.0887735 -0.011657456 0.11425577
0003c0 40 8e 06 3e 22 bc 74 bd 15 95 e2 bd ce 22 05 bc
       0.13140202 -0.05974973 -0.110635914 -0.008125974
0003d0 a8 9a a9 3d 30 f1 b4 3d 75 a6 8b 3d fe c5 39 bd
       0.082814515 0.08835065 0.068188585 -0.045354836
0003e0 75 8b b9 bc 5e 8f d7 3c e1 45 e6 3c 65 e6 00 be
       -0.022649506 0.02631348 0.028109493 -0.12587889
0003f0 32 6c dd bd 7c 4d 07 3d 8d e5 12 3e f6 e2 23 3e
       -0.10811652 0.03303288 0.14345379 0.16004547

network_body._body_endoder.seq_layers.0.bias f4 [128]
000000 00 00 00 00 00 00 00 00 00 00 00 00 00 00 00 00
       0.0 0.0 0.0 0.0
000010 00 00 00 00 00 00 00 00 00 00 00 00 00 00 00 00
       0.0 0.0 0.0 0.0
000020 00 00 00 00 00 00 00 00 00 00 00 00 00 00 00 00
       0.0 0.0 0.0 0.0
000030 00 00 00 00 00 00 00 00 00 00 00 00 00 00 00 00
       0.0 0.0 0.0 0.0
000040 00 00 00 00 00 00 00 00 00 00 00 00 00 00 00 00
       0.0 0.0 0.0 0.0
000050 00 00 00 00 00 00 00 00 00 00 00 00 00 00 00 00
       0.0 0.0 0.0 0.0
000060 00 00 00 00 00 00 00 00 00 00 00 00 00 00 00 00
       0.0 0.0 0.0 0.0
000070 00 00 00 00 00 00 00 00 00 00 00 00 00 00 00 00
       0.0 0.0 0.0 0.0
000080 00 00 00 00 00 00 00 00 00 00 00 00 00 00 00 00
       0.0 0.0 0.0 0.0
000090 00 00 00 00 00 00 00 00 00 00 00 00 00 00 00 00
       0.0 0.0 0.0 0.0
0000a0 00 00 00 00 00 00 00 00 00 00 00 00 00 00 00 00
       0.0 0.0 0.0 0.0
0000b0 00 00 00 00 00 00 00 00 00 00 00 00 00 00 00 00
       0.0 0.0 0.0 0.0
0000c0 00 00 00 00 00 00 00 00 00 00 00 00 00 00 00 00
       0.0 0.0 0.0 0.0
0000d0 00 00 00 00 00 00 00 00 00 00 00 00 00 00 00 00
       0.0 0.0 0.0 0.0
0000e0 00 00 00 00 00 00 00 00 00 00 00 00 00 00 00 00
       0.0 0.0 0.0 0.0
0000f0 00 00 00 00 00 00 00 00 00 00 00 00 00 00 00 00
       0.0 0.0 0.0 0.0
000100 00 00 00 00 00 00 00 00 00 00 00 00 00 00 00 00
       0.0 0.0 0.0 0.0
000110 00 00 00 00 00 00 00 00 00 00 00 00 00 00 00 00
       0.0 0.0 0.0 0.0
000120 00 00 00 00 00 00 00 00 00 00 00 00 00 00 00 00
       0.0 0.0 0.0 0.0
000130 00 00 00 00 00 00 00 00 00 00 00 00 00 00 00 00
       0.0 0.0 0.0 0.0
000140 00 00 00 00 00 00 00 00 00 00 00 00 00 00 00 00
       0.0 0.0 0.0 0.0
000150 00 00 00 00 00 00 00 00 00 00 00 00 00 00 00 00
       0.0 0.0 0.0 0.0
000160 00 00 00 00 00 00 00 00 00 00 00 00 00 00 00 00
       0.0 0.0 0.0 0.0
000170 00 00 00 00 00 00 00 00 00 00 00 00 00 00 00 00
       0.0 0.0 0.0 0.0
000180 00 00 00 00 00 00 00 00 00 00 00 00 00 00 00 00
       0.0 0.0 0.0 0.0
000190 00 00 00 00 00 00 00 00 00 00 00 00 00 00 00 00
       0.0 0.0 0.0 0.0
0001a0 00 00 00 00 00 00 00 00 00 00 00 00 00 00 00 00
       0.0 0.0 0.0 0.0
0001b0 00 00 00 00 00 00 00 00 00 00 00 00 00 00 00 00
       0.0 0.0 0.0 0.0
0001c0 00 00 00 00 00 00 00 00 00 00 00 00 00 00 00 00
       0.0 0.0 0.0 0.0
0001d0 00 00 00 00 00 00 00 00 00 00 00 00 00 00 00 00
       0.0 0.0 0.0 0.0
0001e0 00 00 00 00 00 00 00 00 00 00 00 00 00 00 00 00
       0.0 0.0 0.0 0.0
0001f0 00 00 00 00 00 00 00 00 00 00 00 00 00 00 00 00
       0.0 0.0 0.0 0.0
