results/Test0601/MoveToGoal/MoveToGoal-3499997.onnx (onnx, 851575 bytes, 11 tensors)

action_model._continuous_distribution.log_sigma f4 [1, 2]
0	0xbe9ddbd4	-0.30831778
1	0xbe8877cf	-0.26653907

action_model._continuous_distribution.mu.bias f4 [2]
0	0x3cded458	0.027200863
1	0x3c86532a	0.016397078

action_model._continuous_distribution.mu.weight f4 [2, 256]
0	0x389ba23f	7.421197e-05
1	0xbcd9fa88	-0.02660872
2	0xbcb0247a	-0.021501768
3	0xbd067eec	-0.032835886
4	0xb9b00fa3	-0.00033580986
5	0xbad15652	-0.001597116
6	0xbbb7c160	-0.005607769
7	0xba943d00	-0.0011309683
8	0xbd004b8e	-0.031322055
9	0xbcec7d1c	-0.02886825
10	0x39ec3d3a	0.00045059045
11	0xbcd5cbf1	-0.026098223
12	0xba3e4ba5	-0.0007259197
13	0xbd0ee054	-0.034881905
14	0xbcaa8490	-0.020815164
15	0xbcf7109e	-0.03015929
16	0xbcbc8c9b	-0.023016265
17	0xbd2879d9	-0.041131828
18	0x3b298caa	0.0025871196
19	0xba771f6d	-0.0009426985
20	0xbcc82076	-0.024429541
21	0xbba0fd82	-0.004913033
22	0xbbd9c4f9	-0.0066457954
23	0xbd001710	-0.031271994
24	0x3b0bd791	0.0021338204
25	0x3a093374	0.00052338024
26	0xbc14fd69	-0.009093621
27	0x3cd3b4c9	0.025843041
28	0xba11d248	-0.00055626454
29	0xbd24e81e	-0.040260427
30	0xbc238cbd	-0.009982285
31	0xbc012651	-0.0078826705
32	0x3ae91476	0.0017782587
33	0xbaf00c16	-0.0018314149
34	0xbc3ac697	-0.011399887
35	0xbd1b5fcb	-0.037933152
36	0xbcedab62	-0.029012386
37	0xbcf91f0c	-0.030410312
38	0xbcf33dc0	-0.02969253
39	0xbb27e2a5	-0.0025617268
40	0x3b086a3e	0.0020815278
41	0x39ee94ad	0.0004550567
42	0xbcf83877	-0.030300362
43	0xbabb0797	-0.001426923
44	0xbd253d7c	-0.04034184
45	0xba691f88	-0.0008892943
46	0x3a77eb6f	0.00094573846
47	0xbd2b93e7	-0.041889098
48	0x3908a23d	0.00013030409
49	0xbcda2589	-0.026629226
50	0xbc063e06	-0.0081934985
51	0x3bc8cf06	0.0061281947
52	0xbd3aa507	-0.04556754
53	0x3aef769d	0.0018269602
54	0xbcb5852d	-0.02215823
55	0xbca72be0	-0.020406663
56	0xbd362435	-0.044468123
57	0x3a9e634e	0.0012084038
58	0xbbd3c893	-0.0064631193
59	0xbd0e8e76	-0.03480383
60	0xbc887c34	-0.016660787
61	0xbcb6f10c	-0.022331737
62	0xbcbf8d6c	-0.023382865
63	0xbce1adea	-0.027548749
64	0xbce35764	-0.027751632
65	0xbc80aebf	-0.015708325
66	0xbc99a8eb	-0.018757304
67	0xbcc09b66	-0.0235116
68	0x39bef4c2	0.00036421983
69	0xbcc04fc2	-0.023475531
70	0xbcb10824	-0.021610327
71	0xbc21b186	-0.009868985
72	0xbbcd546c	-0.0062661674
73	0xbbd7712b	-0.00657477
74	0xbb6f286f	-0.0036492606
75	0xbcffad19	-0.03121047
76	0xba631e22	-0.0008663853
77	0x3a3bbc98	0.00071615865
78	0xbd4c0845	-0.049812574
79	0xbb8987dc	-0.004197104
80	0xbc7e1d3d	-0.015509901
81	0xbcde8313	-0.02716211
82	0xbcdc6dc3	-0.026907807
83	0xbd1384fa	-0.03601549
84	0xbc4b3f22	-0.012405189
85	0xbcca1046	-0.024665963
86	0xbbae37ce	-0.005316711
87	0xbd144bc5	-0.036205072
88	0x3cbbc228	0.02291973
89	0x3abe1fa9	0.0014505285
90	0xbcba694f	-0.022755293
91	0x3b113992	0.0022159559
92	0xbca7ea27	-0.020497395
93	0xba319ba4	-0.00067752064
94	0x3981bca4	0.00024745346
95	0xbc5ffc5f	-0.01367101
96	0xbd061c78	-0.032741994
97	0xb9d5c59d	-0.0004077376
98	0xbd2077a3	-0.039176594
99	0xbcc77c97	-0.024351401
100	0x3a95c6a6	0.0011427
101	0xbcb15255	-0.021645704
102	0xbcd9f0d9	-0.026604103
103	0xbc859b11	-0.016309293
104	0xba9b43a6	-0.0011845722
105	0xbd272607	-0.04080775
106	0xbcf8f0dc	-0.030388288
107	0xbce49759	-0.0279042
108	0x3aa5dd8a	0.0012654525
109	0xbbd56285	-0.0065119886
110	0x3ad4f85a	0.0016248331
111	0xb88ed400	-6.810576e-05
112	0xbd34f6d0	-0.04418069
113	0xbca846f8	-0.020541653
114	0xbc9fb57b	-0.019495716
115	0xbd09bc8b	-0.033627074
116	0xb95e6b34	-0.00021211506
117	0xba207413	-0.0006120812
118	0xbc946ec2	-0.01811922
119	0x3a8eefc0	0.0010905191
120	0xbcac9653	-0.021067774
121	0x38a762e2	7.981599e-05
122	0xbd014b3c	-0.03156589
123	0x3ac62c32	0.0015119372
124	0xbd1c091b	-0.03809462
125	0x393936df	0.00017663416
126	0xbcf9e87e	-0.030506369
127	0xbb27a4c1	-0.0025580379
128	0xbca21539	-0.01978551
129	0xba6c8500	-0.0009022504
130	0xba5d6f02	-0.00084470224
131	0xbbfbc2ed	-0.007683149
132	0xbd49ab5c	-0.049235687
133	0xbb0464ce	-0.0020201686
134	0xbcf12888	-0.029438272
135	0xba103a29	-0.00055018306
136	0xbbb01d4f	-0.0053745876
137	0xbd256843	-0.040382635
138	0xbc68fe6a	-0.014220813
139	0xbcb872a1	-0.022515597
140	0xbaec8e1d	-0.0018047724
141	0xbcefdbc7	-0.029279603
142	0xbcf02a2e	-0.029316988
143	0xba170942	-0.00057615724
144	0xbcf4328b	-0.029809257
145	0xbcf0e865	-0.02940769
146	0xbcf7ed44	-0.030264504
147	0xbbabb672	-0.005240255
148	0xbb54a685	-0.0032447886
149	0xbcbc2a7f	-0.022969482
150	0x3a628d9e	0.00086423184
151	0xbcf200d4	-0.02954141
152	0xbc06d0e9	-0.008228519
153	0xba927c08	-0.001117588
154	0xbc72b763	-0.014814231
155	0xbd0842da	-0.03326688
156	0x38f7462f	0.000117909505
157	0x3ab1a5b5	0.0013553413
158	0xbbc65fe4	-0.0060539115
159	0x3aebfab4	0.0018003793
160	0xbc12cd2c	-0.00896005
161	0xbccf70d2	-0.025322352
162	0x3a3782b3	0.00070003717
163	0xbc20cc09	-0.009814271
164	0x3a9ec61b	0.0012113483
165	0xbd014c66	-0.031567
166	0xbbf81d91	-0.007571884
167	0x3a9dd6b0	0.0012042131
168	0xbc2ddf1d	-0.010612276
169	0xbcff2917	-0.031147523
170	0x39a4a9c5	0.00031407006
171	0xbd103cce	-0.035214238
172	0xbccfed03	-0.02538157
173	0xbbee0ee5	-0.007264959
174	0xbc6c0f5a	-0.014407957
175	0xbc733cff	-0.014846086
176	0xbcb236b8	-0.021754608
177	0x39ff8fa8	0.00048744422
178	0xbd192788	-0.037391216
179	0xbd283ffe	-0.041076653
180	0xbd14f932	-0.036370464
181	0xbd03d2e9	-0.03218356
182	0xbd0a73f0	-0.033801973
183	0xbca10747	-0.01965679
184	0x3a43e33a	0.0007472519
185	0xbc768280	-0.015045762
186	0xbc83d4d7	-0.0160927
187	0x3a9f8742	0.0012171047
188	0x3ad9ee22	0.0016626755
189	0xbce8a596	-0.02839927
190	0xbceb4f64	-0.02872438
191	0xbca2e8ad	-0.01988634
192	0xbcd963d3	-0.026536858
193	0xbc988e59	-0.018622564
194	0xbcc5b702	-0.024135116
195	0xbcb9347b	-0.022608032
196	0xbd60a404	-0.054843917
197	0xbced0e70	-0.028937548
198	0xbae24ba0	-0.001726497
199	0xbcde5b28	-0.027143076
200	0xbd0a9efa	-0.033843018
201	0x3922cdd5	0.00015526202
202	0xbd22fc1e	-0.03979122
203	0xbceb9839	-0.028759109
204	0xba8b10ff	-0.0010609924
205	0x3992a3f4	0.00027969445
206	0xbcffcc70	-0.031225413
207	0xbb2caa9c	-0.0026346808
208	0xbd0d49d3	-0.034494232
209	0xbcfda815	-0.030963937
210	0xbc8c66fa	-0.017138947
211	0xbce4cbf8	-0.027929291
212	0xbd05176d	-0.032493044
213	0xbcc483cc	-0.023988627
214	0xb95ff376	-0.00021357634
215	0xbc19e742	-0.009393515
216	0xbcac9367	-0.02106638
217	0xbd143bf9	-0.036190007
218	0xba9f4c10	-0.0012153406
219	0xbd320484	-0.043461338
220	0x39c77ad5	0.00038047755
221	0xbce2ade7	-0.027670814
222	0xbd0d9de2	-0.034574397
223	0xbcdb7278	-0.026787981
224	0xbc9b1cbd	-0.018934602
225	0xbca6044f	-0.020265726
226	0xbd1b9479	-0.03798339
227	0x3a2ef3e1	0.0006673914
228	0xbc9ae119	-0.018906163
229	0x3a2b6865	0.00065386883
230	0xbcbc770a	-0.023005981
231	0xbbc36152	-0.005962529
232	0xbd016915	-0.031594355
233	0x38903a52	6.877318e-05
234	0x3ac63cfc	0.0015124376
235	0xbce141a3	-0.027497118
236	0xbc536e5c	-0.01290473
237	0x3b1d6012	0.0024013561
238	0x39ca4c01	0.0003858507
239	0xbce34464	-0.027742572
240	0x3b7db657	0.003871342
241	0xbd14e3e8	-0.03635016
242	0xbd06804a	-0.03283719
243	0xba720ac4	-0.00092331716
244	0xbc8b1c77	-0.016981347
245	0xbd13092c	-0.03589742
246	0x3c30d923	0.010793957
247	0xbd29a15b	-0.041413646
248	0xbd13f4db	-0.036122184
249	0xbac6e7f5	-0.001517533
250	0xbd1041d0	-0.035219014
251	0xbca37a2b	-0.019955715
252	0xbd1ad643	-0.037801992
253	0xbbd2c145	-0.006431731
254	0xbcc518cc	-0.024059676
255	0xbcefef24	-0.029288836

network_body._body_endoder.seq_layers.0.bias f4 [256]
0	0xba828af4	-0.0009959624
1	0xbb645204	-0.0034838924
2	0xbcfa00de	-0.030517992
3	0xbd0a2a7b	-0.03373192
4	0xbca5fec1	-0.020263078
5	0xbcb47d75	-0.022032479
6	0xbc7bb851	-0.015363769
7	0xbd27f0d4	-0.041001156
8	0xbd39f658	-0.045400947
9	0x3d177d12	0.03698451
10	0x3c2ac89e	0.010423807
11	0xba5b7780	-0.0008371994
12	0xbcbf9247	-0.02338518
13	0xbc0fdd79	-0.008780831
14	0x3c8f58e7	0.017498447
15	0xbc9ad612	-0.018900905
16	0x3a4c7bed	0.0007800449
17	0xbc9767d8	-0.018482134
18	0xbb4a007d	-0.0030823045
19	0x3b417c52	0.0029523564
20	0x3c0a316c	0.008434635
21	0xbaf720c8	-0.0018854374
22	0x3c1d559f	0.009602933
23	0xbc1dfee6	-0.009643292
24	0xbca4fdba	-0.020140518
25	0xbb9a10a3	-0.0047016903
26	0xbcd92110	-0.026505023
27	0x3be9e923	0.0071383878
28	0xbc925733	-0.017863845
29	0xbc79aa1f	-0.015238314
30	0x3d3212c9	0.043474946
31	0x3c03eda8	0.008052267
32	0xbbc0de43	-0.0058858707
33	0x3c940d6f	0.018072812
34	0xbc7a4f45	-0.015277688
35	0x3a778d44	0.00094433525
36	0x3c9a8bb3	0.018865442
37	0xbc3d55e7	-0.011556125
38	0xbc9d89bb	-0.019230714
39	0xbc5ea0e5	-0.013588165
40	0xbcb360dd	-0.021896774
41	0xbca32f6a	-0.01992007
42	0xbbe38626	-0.006943482
43	0xbd069fd7	-0.03286728
44	0xbcb5ddce	-0.022200491
45	0xbd1ff7b3	-0.039054584
46	0x3ca723a3	0.020402735
47	0xbcf208fe	-0.029545303
48	0xbb57f886	-0.0032954528
49	0xbc915fa9	-0.01774581
50	0xbcae7751	-0.021297129
51	0xbccc0abe	-0.024907466
52	0xbd12d285	-0.0358453
53	0xbd060302	-0.032717712
54	0xbc3d3b9f	-0.011549859
55	0xbc963aea	-0.01833864
56	0xbb9fa2e4	-0.004871713
57	0xbcb402c3	-0.021973973
58	0xbb5635c4	-0.0032685855
59	0xbd3af421	-0.045642976
60	0x3c377470	0.011197194
61	0xbb6dca3e	-0.0036283876
62	0xbc9befec	-0.019035302
63	0xbbdfc969	-0.00682943
64	0xbd03c384	-0.03216888
65	0xbbb90e35	-0.0056474456
66	0x3c0440b4	0.008072067
67	0xbd0f937d	-0.035052765
68	0xbb648967	-0.0034871937
69	0xbc7af56e	-0.015317304
70	0xbd12210d	-0.03567605
71	0xbcc459ca	-0.023968596
72	0xbb50f275	-0.0031882797
73	0x3b9ea970	0.004841976
74	0x384e9cd4	4.9260285e-05
75	0x3c7de681	0.015496851
76	0xbbfcd38a	-0.007715647
77	0xbbfdc582	-0.007744492
78	0xbd075c89	-0.033047233
79	0xbcdd0227	-0.026978565
80	0xbc4918e7	-0.012274004
81	0x3d81a666	0.06330566
82	0x3b911d56	0.004428546
83	0xbd5c9fa9	-0.0538632
84	0xbc34df25	-0.01103953
85	0xbbf11243	-0.0073569133
86	0xbd078779	-0.03308818
87	0xbce6a4e7	-0.028154803
88	0x3b205764	0.0024466151
89	0xbc355838	-0.011068396
90	0xbbb2cb4f	-0.005456365
91	0xbcea697e	-0.028614756
92	0xbbfe3a96	-0.007758449
93	0xbc381cd2	-0.01123734
94	0x3cd967bd	0.026538724
95	0xbc070211	-0.008240239
96	0xbc29c6f5	-0.010362376
97	0xbb1b8c75	-0.0023734842
98	0xbc8efb99	-0.017453955
99	0xbc222d67	-0.00989852
100	0xbd35eb29	-0.04441372
101	0xbc8b23e9	-0.016984897
102	0xbd255f56	-0.040374123
103	0xbbf6bf99	-0.0075301644
104	0xbc4bcc90	-0.012438908
105	0x3b2018ba	0.00244288
106	0xbc269d6b	-0.010169367
107	0xbc97fee5	-0.01855416
108	0xbcaf3b16	-0.021390479
109	0xbc2c1be3	-0.010504696
110	0xbc7e88d7	-0.015535555
111	0xbcfcb4f5	-0.030848006
112	0xbbdd54b9	-0.0067544845
113	0xbcadb3d6	-0.021203917
114	0xbc27a865	-0.0102330195
115	0xbd33cb62	-0.043895133
116	0x3b81bb39	0.0039590863
117	0x3b909639	0.004412439
118	0xbcb3a38d	-0.021928573
119	0x3c037ece	0.008025838
120	0xbc9e995b	-0.019360235
121	0x3c658721	0.014009268
122	0xbc91dd6c	-0.017805777
123	0xbcb9a29f	-0.022660552
124	0xbc40b93c	-0.011762913
125	0xba896cf5	-0.0010484742
126	0xbcdf2e0b	-0.027243635
127	0xbb37b8f7	-0.0028033832
128	0xbc214e6c	-0.009845357
129	0xbd183f5f	-0.03716981
130	0xbc2f7a0c	-0.010710251
131	0xbc8591fa	-0.016304959
132	0x3cce3d52	0.025175724
133	0x3c831c19	0.016004609
134	0xbc843a4d	-0.016141081
135	0xbca5a55a	-0.020220447
136	0xbd0f1a7a	-0.03493736
137	0xbcf4dc2c	-0.029890142
138	0xbce28a12	-0.027653728
139	0xbc29a639	-0.010354572
140	0xbc93f81e	-0.018062647
141	0x3c93ca45	0.018040786
142	0xbc539e65	-0.012916182
143	0xbca274cf	-0.01983109
144	0xbd0f72d4	-0.035021618
145	0xbcaf8387	-0.021425022
146	0xbceca5b6	-0.02888761
147	0x3a95db74	0.00114332
148	0xbca2b838	-0.019863233
149	0xbc9f6f2e	-0.019462194
150	0xbd29bf40	-0.041442156
151	0xbd370da6	-0.04469075
152	0xbb1ea39b	-0.0024206403
153	0x3d0956d0	0.033530056
154	0x3c87cb0c	0.016576312
155	0xb95fb1d1	-0.00021333179
156	0x3ca5c8b0	0.020237297
157	0x3c425c36	0.011862805
158	0x3c529f13	0.012855309
159	0xbb1df0ab	-0.0024099748
160	0xbbdd4c97	-0.006753515
161	0xbcb9cf70	-0.022681922
162	0xbb88b3cf	-0.0041718255
163	0xbd277c93	-0.040890288
164	0xba62c183	-0.00086500513
165	0xbb0be6ea	-0.0021347352
166	0xbba59ae1	-0.0050538634
167	0xbd5499d8	-0.05190453
168	0xbc223ad8	-0.009901725
169	0xb92ea5f2	-0.00016655753
170	0x3c910a5d	0.017705137
171	0xb9861bb6	-0.00025579118
172	0xbbfdfe96	-0.0077512963
173	0xbcaa01a0	-0.020752728
174	0xbc874ad8	-0.01651518
175	0xbcddd387	-0.027078403
176	0xbc238ad1	-0.009981827
177	0xbc8a30af	-0.016868917
178	0xbd067f89	-0.03283647
179	0xbc0d834d	-0.008637262
180	0x3c18fe39	0.009337955
181	0xbc93e314	-0.018052615
182	0xba9e2ea1	-0.001206834
183	0x3d1c19c6	0.038110517
184	0xbd0ee88d	-0.034889746
185	0xbd0d04b7	-0.034428325
186	0xbbaf33ca	-0.00534675
187	0x3c8dac45	0.017294059
188	0xbb7e2e9a	-0.00387851
189	0xbb8b6360	-0.00425379
190	0xbced4e96	-0.028968137
191	0xbc0929b0	-0.0083717555
192	0x3c92c291	0.017915042
193	0xbc883c9d	-0.016630465
194	0x3bca29a5	0.006169515
195	0xba288ba1	-0.0006429498
196	0x3ba5981d	0.0050535337
197	0xbcf482d4	-0.02984754
198	0xbc2dedfe	-0.010615824
199	0xbd121494	-0.035664156
200	0xbb3df16b	-0.0028983008
201	0xbcafe1c5	-0.02146996
202	0xbc278b92	-0.010226147
203	0xbd17bd37	-0.037045684
204	0xbcc416a3	-0.023936575
205	0xbd11c04b	-0.035583775
206	0xbc1395d9	-0.009007894
207	0x3b300c96	0.002686297
208	0xbc8a7d44	-0.016905434
209	0xbb9dc811	-0.0048151095
210	0x3cde2346	0.027116429
211	0xbb388b24	-0.0028159106
212	0xbaa26963	-0.0012391027
213	0xbadc6958	-0.0016816063
214	0xbbdf5629	-0.006815691
215	0xbc94f9f7	-0.018185599
216	0xbc58c455	-0.013230403
217	0xbbfca643	-0.0077102496
218	0xbc12306a	-0.008922676
219	0xbbd31407	-0.0064415964
220	0xbc8ffc73	-0.017576432
221	0x3be62cd6	0.007024388
222	0xbceb592a	-0.02872904
223	0xbcd4aa9b	-0.025960257
224	0xbd232bb7	-0.03983661
225	0x3bc5e4d7	0.0060392427
226	0xbd0ed340	-0.034869432
227	0x3c78f332	0.015194701
228	0xbcdd4aa7	-0.027013136
229	0xbb21277e	-0.002459019
230	0xb9f75931	-0.00047177964
231	0xbd0f205d	-0.034942973
232	0xba4f8c14	-0.00079172966
233	0xbc921b31	-0.017835231
234	0xbcda77cd	-0.026668454
235	0xbca57bdc	-0.020200662
236	0xbbc4228f	-0.005985565
237	0x3a70f218	0.0009191348
238	0xbc7004fe	-0.014649628
239	0xbc908758	-0.017642662
240	0xbc678ce0	-0.014132708
241	0x3d2aed2f	0.041730102
242	0xbca645a7	-0.020296885
243	0xbb1a8230	-0.0023576133
244	0xbcfb3495	-0.030664722
245	0xbd169573	-0.03676362
246	0xbd0fce8d	-0.03510909
247	0xbd12f003	-0.035873424
248	0xbceb6ba4	-0.02873785
249	0xbc3d55ee	-0.011556132
250	0xbd8ae671	-0.067822345
251	0xbc2d77c3	-0.010587635
252	0xbd355dc2	-0.044278868
253	0x3d780f70	0.060561597
254	0x3c0d83d7	0.00863739
255	0xbb80a806	-0.00392628

network_body._body_endoder.seq_layers.0.weight f4 [256, 55]
0	0x3e929705	0.28630844
1	0x3cc0ac79	0.023519741
2	0xbe16ffa2	-0.14745954
3	0x3e77093c	0.24124616
4	0x3dc6ea8d	0.09712706
5	0x3e98928d	0.2979931
6	0x3dd5d85e	0.104416594
7	0xbdc58f38	-0.096464574
8	0x3e799e7e	0.24376866
9	0xbdf52c61	-0.11971355
10	0xbd94ce6d	-0.07265935
11	0xb8de8806	-0.00010611121
12	0xbe5a591e	-0.21323058
13	0x3de82ec9	0.113370486
14	0xbe5a3541	-0.21309377
15	0xbd5f7b1e	-0.054560773
16	0xbda13661	-0.078717
17	0x3d75993c	0.05996059
18	0xba9177f6	-0.0011098373
19	0x3dd4e126	0.10394506
20	0x3e101c16	0.14073214
21	0xbe1834e0	-0.1486392
22	0x3e1b4dd4	0.15166408
23	0xbe990c36	-0.2989213
24	0x3dec13ef	0.115272395
25	0xbd5f6f96	-0.054549776
26	0xbb81f033	-0.0039654016
27	0xbe1bcf1f	-0.15215729
28	0x3da8060d	0.08204279
29	0x3df6e944	0.12056211
30	0x3e76d576	0.24104866
31	0xbd54fc17	-0.051998224
32	0x3e867ef0	0.2626872
33	0xbe0f91f1	-0.14020516
34	0x3c520b66	0.0128201
35	0xbe49bab4	-0.19700128
36	0xbdc22672	-0.09479989
37	0xbe644c41	-0.22294714
38	0xbe30551b	-0.17219965
39	0xbe4fbab6	-0.20286068
40	0x3e262a94	0.1622718
41	0x3e7183d9	0.23585452
42	0xbca8db0e	-0.020612266
43	0xbe37edc3	-0.17961793
44	0x3d80674a	0.06269701
45	0xbe0d50c6	-0.13800344
46	0x3d56a171	0.052400056
47	0xbc51ce35	-0.012805511
48	0xbdc471ac	-0.09591994
49	0x3c4d6269	0.01253567
50	0x3dc23a27	0.09483748
51	0xbea0ef8b	-0.31432757
52	0x3c2bcada	0.010485375
53	0x3d7cc37e	0.061709873
54	0x3cb8d8b3	0.022564268
55	0xbd0e1149	-0.034684453
56	0xbdfb9125	-0.122835435
57	0xbda2e36b	-0.07953533
58	0xbc053de9	-0.008132436
59	0xbe1be246	-0.15223035
60	0xbe13b177	-0.14423166
61	0xbd8aab81	-0.06770993
62	0xbc2e1681	-0.010625483
63	0xbe1be478	-0.15223873
64	0x3d160ad5	0.036631424
65	0xbe3866c6	-0.18007955
66	0xbdaf1142	-0.085482135
67	0xbd8bfba0	-0.06835103
68	0xbe0d2f0a	-0.13787475
69	0x3d85fd02	0.06542398
70	0xbd716427	-0.058933403
71	0xbe44bea7	-0.19213353
72	0x3d729ecb	0.059233468
73	0xbe8a9dab	-0.27073416
74	0xbb287f38	-0.0025710594
75	0xbdc255f0	-0.094890475
76	0xbd1888ef	-0.037239965
77	0x3d4e9fca	0.050445355
78	0xbe72b470	-0.23701644
79	0x3e47484b	0.19461171
80	0xbd881aa5	-0.06645707
81	0xbde3d63e	-0.11124848
82	0xbe8d6a72	-0.27620274
83	0xbd6cf896	-0.057854258
84	0x3d347448	0.044056207
85	0x3b9de868	0.0048189647
86	0xbeb71193	-0.35755596
87	0x3df572cd	0.11984787
88	0x3bba22f8	0.005680438
89	0x3cc1ba98	0.023648545
90	0x3e27d325	0.16389139
91	0xbe0cfaae	-0.13767502
92	0xbcb30ad2	-0.021855745
93	0x3cc75a81	0.024335148
94	0x3d88b516	0.066751644
95	0x3afd1881	0.0019309671
96	0x3db18cad	0.0866941
97	0x3d0e588b	0.03475241
98	0x3dffa1a4	0.124820024
99	0xbe2ce84c	-0.16885489
100	0xbdd62668	-0.10456544
101	0x3d4a3556	0.04936727
102	0xbcec1f27	-0.028823448
103	0xbda91ef0	-0.08257854
104	0x3d11b6e2	0.0355748
105	0x3dc32396	0.09528272
106	0x3e07ce9f	0.13262413
107	0xbede4d28	-0.4341824
108	0x3dec4e64	0.11538389
109	0xbe4566fa	-0.19277564
110	0xbd6db3c0	-0.05803275
111	0x3e4dbebc	0.2009229
112	0x3e0b15f3	0.13582592
113	0xbe6d5e67	-0.23180543
114	0xbd51cffa	-0.051223733
115	0x3ddcdba6	0.10784082
116	0x3de3522b	0.11099657
117	0xbe9d8d62	-0.3077193
118	0x3e5e9710	0.21737313
119	0x3e60f56e	0.21968624
120	0x3dbdc381	0.09265805
121	0xbe22412f	-0.15845178
122	0xbe815c35	-0.2526566
123	0x3e00c1f6	0.1257399
124	0x3e91c0f0	0.28467512
125	0xbe89660b	-0.26835665
126	0xbd97a508	-0.07404524
127	0x3d45fbc1	0.048335794
128	0x3d581130	0.052750766
129	0xbc864307	-0.016389383
130	0xbe18bf61	-0.14916755
131	0xbe8cb069	-0.2747834
132	0x3dd1e9eb	0.102496944
133	0xbdcab0f5	-0.09897033
134	0xbe7f8a6c	-0.24955148
135	0xbc9fb6f2	-0.019496415
136	0x3d3bdfa6	0.045867585
137	0xbda54809	-0.0807038
138	0x3dae4f90	0.08511269
139	0x3dfa2f77	0.122160845
140	0xbd8cf915	-0.06883446
141	0x3e3a8ea2	0.18218473
142	0xbd56c186	-0.052430652
143	0xbd374e38	-0.04475233
144	0xbe4be813	-0.19912748
145	0x3d9334eb	0.07187828
146	0xbca0418a	-0.019562501
147	0xbe2fac4c	-0.1715557
148	0x3d96f7e8	0.07371503
149	0x3d3af6a4	0.04564537
150	0x3d6d422c	0.057924435
151	0xbbe4b2c8	-0.00697932
152	0x3e051ba0	0.1299882
153	0x3e2f2854	0.17105228
154	0xbdda72c5	-0.10666422
155	0xbe6932a9	-0.22773232
156	0x3e02399b	0.12717287
157	0x3ca9652c	0.020678125
158	0x3d9922f4	0.0747737
159	0xbccff575	-0.025385598
160	0xbdba18bb	-0.09086748
161	0xbe95cfef	-0.29260203
162	0x3ebc2e52	0.3675409
163	0xbdf0f534	-0.11765519
164	0x3d44e699	0.048071478
165	0x3e852cc7	0.26010725
166	0xbdbc753b	-0.092020474
167	0x3e228b60	0.1587348
168	0x3e22d3a4	0.15901047
169	0x3e1b7add	0.15183587
170	0xbe31bdbd	-0.17357536
171	0x3dd9739e	0.10617755
172	0x3dd48fec	0.103790134
173	0x3f0e84fa	0.55671656
174	0x3e17d844	0.14828593
175	0xbcdf4c31	-0.02725801
176	0x3d737337	0.05943605
177	0x3dc1aa29	0.094562836
178	0x3dda05d0	0.1064564
179	0x3da1c7bd	0.07899425
180	0xbe460e9d	-0.19341512
181	0x3d9dadcc	0.07699165
182	0xbcf0c177	-0.029389126
183	0x3d1c8089	0.03820852
184	0x3e40112d	0.18756552
185	0xbbe4c887	-0.0069819125
186	0x3e8c6008	0.27417016
187	0x3d69e18f	0.057099875
188	0x3dc4f31d	0.09616683
189	0xbd2658ff	-0.040612217
190	0x3db22f84	0.08700469
191	0xbde40a7f	-0.111348145
192	0xbc9f42da	-0.019441057
193	0xbe1ae117	-0.15124927
194	0x3ddf82d7	0.109136276
195	0x3c9fb379	0.019494759
196	0xbe4e907c	-0.20172304
197	0x3ca90454	0.020631947
198	0xbc40d105	-0.011768584
199	0xbc9654fe	-0.018351074
200	0x3cd343bf	0.02578914
201	0xbdb095b1	-0.08622301
202	0xbe316c7d	-0.17326541
203	0x3e0ac3e6	0.13551292
204	0xbd47d3d3	-0.048785996
205	0x3dcfae32	0.10140647
206	0x3c060cc3	0.008181754
207	0x3d0ba567	0.034093287
208	0x3d49338a	0.049121417
209	0xbcb87953	-0.02251879
210	0x3e3626c4	0.17788225
211	0x3d2c4420	0.042057157
212	0x3d8050e6	0.0626543
213	0xbdbf21c7	-0.093326144
214	0xbdee342d	-0.116310455
215	0x3e31b41c	0.17353863
216	0x3d9bc6ec	0.07606301
217	0x3d1f81d1	0.038942162
218	0xbd98e10a	-0.07464798
219	0x3d3ca046	0.046051286
220	0x3cb260c4	0.021774657
221	0xbe1c037d	-0.15235706
222	0x3c57ca3d	0.013170776
223	0x3dc29763	0.09501531
224	0xbb8f4383	-0.0043720617
225	0xbde6cda3	-0.11269691
226	0x3c1cfac9	0.009581276
227	0xbef4f7ab	-0.47845206
228	0x3e0d71fd	0.13813014
229	0xbe07e424	-0.13270622
230	0x3e638bc2	0.22221282
231	0xbd86d642	-0.06583835
232	0xbd897770	-0.06712234
233	0xbe24010a	-0.16016021
234	0x3ba27fc1	0.004959077
235	0xbe1133a7	-0.1417986
236	0xbe0fb07f	-0.14032172
237	0xbc8bc980	-0.017063856
238	0xbc796fc4	-0.015224401
239	0x3dd688f6	0.10475342
240	0x3be5d612	0.0070140446
241	0x3e8696e5	0.26286998
242	0xbdd84199	-0.10559387
243	0x3d4ec35c	0.050479278
244	0x3d853b3c	0.06505439
245	0x3e0b117e	0.13580891
246	0x3e2a74f0	0.1664617
247	0xbd4ead84	-0.050458446
248	0x3e3d2c66	0.18473968
249	0xbe1a09e2	-0.15042832
250	0x3dacf962	0.084460035
251	0xbe89085f	-0.267642
252	0x3e180c3b	0.14848416
253	0xbe37aeed	-0.17937823
254	0xbbfbfda6	-0.0076901494
255	0xbdbf6fda	-0.09347506

network_body._body_endoder.seq_layers.2.bias f4 [256]
0	0xbc5874d9	-0.013211452
1	0xbce8f9d6	-0.028439444
2	0x3b5f727a	0.0034095333
3	0xbb7d5429	-0.00386549
4	0xbccc2585	-0.024920234
5	0xbc745edb	-0.014915193
6	0xb902f1b3	-0.00012487806
7	0xbcb05b59	-0.021527933
8	0xbc5d8b0e	-0.013521923
9	0xbba8e8c7	-0.0051547023
10	0xbc0ddcc6	-0.0086585935
11	0xbc972b91	-0.018453391
12	0xbc489672	-0.0122429
13	0xbc897d03	-0.016783243
14	0x3bcc6bb1	0.0062384238
15	0xbc8e3eda	-0.017363954
16	0xbcf92c2b	-0.030416569
17	0x3bb0c1e1	0.005394206
18	0xbcc576e8	-0.02410455
19	0xbbb45412	-0.005503186
20	0xbca358d7	-0.019939823
21	0xbc2e26a8	-0.010629334
22	0x3aaef662	0.0013348574
23	0x3a80d02d	0.0009827666
24	0x3d0d7f0d	0.034544993
25	0xbc7ed2c3	-0.015553179
26	0xbc9cf0b1	-0.01915774
27	0xbcca8b51	-0.024724634
28	0xbcaddfa3	-0.021224802
29	0x3bf2d4ab	0.007410606
30	0xbc4f8b16	-0.012667438
31	0xbb83480c	-0.0040063914
32	0xbc99b38a	-0.018762369
33	0xbc90be85	-0.017668972
34	0xbc1ba939	-0.009500795
35	0xbcbf5dbd	-0.023360128
36	0x3c4fdc27	0.012686766
37	0xbc9b2961	-0.01894063
38	0xbc8b2acb	-0.016988179
39	0xbc80f428	-0.015741423
40	0xbbe48dda	-0.006974918
41	0xbcd5e300	-0.026109219
42	0xbcbeea6c	-0.02330514
43	0xbc549c51	-0.012976722
44	0xbc76bc58	-0.015059553
45	0xbc896f1f	-0.01677662
46	0xbc2e4b30	-0.010638043
47	0xbcd659a6	-0.026165795
48	0xbaec6e6f	-0.0018038283
49	0xbc33ef81	-0.010982395
50	0xbb446f8a	-0.002997371
51	0xbc14bdeb	-0.009078483
52	0xbcb4476b	-0.022006711
53	0xbc223328	-0.009899892
54	0xbbf433e5	-0.0074524754
55	0x3d0b9e0a	0.034086265
56	0xbc087f2e	-0.008331103
57	0xbc6c65c3	-0.014428559
58	0xbd02f416	-0.03197106
59	0xbcd77e32	-0.026305292
60	0xbccc757e	-0.024958368
61	0xbaa18cc5	-0.0012325278
62	0xbbb8235e	-0.0056194505
63	0xbb4db511	-0.0031388442
64	0xbcbe13f2	-0.02320287
65	0xbb968103	-0.004593016
66	0xbb0ab5de	-0.002116553
67	0xbc9f01fd	-0.019410128
68	0xbcaeb569	-0.021326737
69	0xbc955c70	-0.018232554
70	0xbbfb55f6	-0.0076701595
71	0xbc85232c	-0.016252123
72	0xbc3ecefe	-0.0116460305
73	0x3a79cf9e	0.00095295336
74	0xbc6ccc62	-0.014453026
75	0xbc7f7626	-0.015592134
76	0xbc1eb85b	-0.009687508
77	0xbd003dbe	-0.031308882
78	0xbceaa5d7	-0.028643532
79	0x3b030aa4	0.0019995356
80	0xbcd22d42	-0.025656346
81	0xbc90d3df	-0.017679153
82	0xbc072691	-0.008248941
83	0xbccea190	-0.025223523
84	0xbd0dd92c	-0.03463094
85	0xbc5c815d	-0.013458577
86	0xbcbae36d	-0.022813523
87	0x3c13e4c5	0.009026711
88	0xbbb7b306	-0.005606058
89	0xbcd95f08	-0.026534572
90	0xbccc50b7	-0.024940832
91	0x39aa81ad	0.00032521543
92	0xbd03d57c	-0.032186016
93	0xbcee652f	-0.029100982
94	0xbc43aa32	-0.011942433
95	0xbc62917b	-0.013828631
96	0xbc8b1cda	-0.016981531
97	0xbcbbfcf2	-0.022947762
98	0xbbc3492d	-0.005959651
99	0xbc4bdba9	-0.012442508
100	0x3bcb733d	0.006208806
101	0xb68b9d5e	-4.1608428e-06
102	0x3cdbd664	0.026835628
103	0xbb7b44a7	-0.003834048
104	0xb9d89bbc	-0.00041314762
105	0xbc1c609e	-0.00954452
106	0xbd083bfa	-0.033260323
107	0xbcb28bb2	-0.021795128
108	0xbbb03406	-0.0053772954
109	0xbc7202f2	-0.01477121
110	0x3c660026	0.014038121
111	0xbcbe312d	-0.023216808
112	0xbc80f5a7	-0.015742136
113	0xbbce724b	-0.006300246
114	0xbca5ad54	-0.02022425
115	0xbc3f8229	-0.011688747
116	0xbc83f7c3	-0.016109353
117	0xbc954942	-0.018223409
118	0xbd1f24da	-0.038853504
119	0x3a439a7c	0.00074616796
120	0xbc505d6a	-0.012717584
121	0xbc11e6bb	-0.008905108
122	0xbc9f03be	-0.019410964
123	0xbc50c1b4	-0.012741495
124	0xbc83c34b	-0.016084334
125	0xbccb6fe9	-0.024833636
126	0xbcac03e9	-0.020997958
127	0xbb1c1729	-0.0023817515
128	0xba8fc550	-0.0010968838
129	0xbcd31025	-0.025764534
130	0xbb856dd7	-0.004071932
131	0x3c1344c1	0.00898856
132	0xbcc8e807	-0.024524702
133	0xbc659a2e	-0.01401381
134	0xbab23117	-0.0013594952
135	0xbb97dff9	-0.004634854
136	0xbc976c5d	-0.018484289
137	0xbcfb282f	-0.03065881
138	0xbbb6f274	-0.005583102
139	0x3c23a09d	0.009987024
140	0xbcd48138	-0.025940523
141	0xbc3281f1	-0.010895238
142	0x3be3ab90	0.006947942
143	0xbc907b50	-0.017636925
144	0xbc76bdf6	-0.015059939
145	0xbb2b3c96	-0.0026128641
146	0xbd072394	-0.032992914
147	0xbc548230	-0.012970492
148	0xbb5714c8	-0.0032818783
149	0xbc86215c	-0.016373329
150	0x3b9e72f1	0.0048354794
151	0xbcd15052	-0.025550995
152	0xbc86a59d	-0.016436392
153	0xbc282d85	-0.010264759
154	0x3b7b0ee2	0.0038308431
155	0xbc23f5cb	-0.010007332
156	0xbbe8c32e	-0.0071033454
157	0xbbb9987e	-0.0056639304
158	0xbcce5924	-0.02518899
159	0xbb56af38	-0.0032758247
160	0xbbb27494	-0.005446026
161	0x3ad8938b	0.0016523463
162	0xbc4dfdbe	-0.012572704
163	0xbba65776	-0.005076344
164	0x3c664b0d	0.014055979
165	0xbc82324c	-0.015893124
166	0xbaabd90f	-0.0013110953
167	0xbca5947c	-0.020212404
168	0x3d0112dc	0.031512126
169	0xbc0fc689	-0.008775362
170	0x3c43b66f	0.011945351
171	0xbcd3cab1	-0.025853487
172	0xbc8f7b4e	-0.017514851
173	0xbcabf53a	-0.020990957
174	0xbca12ceb	-0.019674739
175	0xbc95b598	-0.018275067
176	0xbd008237	-0.031374183
177	0xbcb1dbde	-0.021711286
178	0x3b052a88	0.002031954
179	0xbbd36c26	-0.0064521013
180	0xbba96053	-0.0051689534
181	0xbc0b173e	-0.008489428
182	0xbb2143d1	-0.0024607072
183	0x3aa23baf	0.0012377406
184	0xbac5abbd	-0.0015081089
185	0xbaa9d6eb	-0.0012957727
186	0xbc1f5511	-0.009724871
187	0x3a4a3287	0.00077132176
188	0xbbbe130e	-0.0058006113
189	0xba976dad	-0.0011553072
190	0xbcac0619	-0.020999001
191	0xbc72d344	-0.014820877
192	0xbb61e07a	-0.0034466074
193	0xbc8ed845	-0.01743711
194	0xbc8acb4a	-0.016942639
195	0xbc8a9f8f	-0.016921787
196	0x3b956ef1	0.0045603444
197	0xbc1be5bd	-0.009515223
198	0x3bc68ebe	0.0060594967
199	0xbbee996b	-0.0072814724
200	0xbc05daa7	-0.008169807
201	0xbc9ea481	-0.019365551
202	0x3b5f213a	0.0034046904
203	0x3c82f725	0.015986988
204	0xbce61f50	-0.028091103
205	0xbc6e2ee9	-0.014537551
206	0x3d08a113	0.033356737
207	0x3ac7fdab	0.0015258094
208	0xbd153479	-0.036426995
209	0xbc1a29dc	-0.009409394
210	0xbc8e6eed	-0.017386878
211	0xbc8c6ab0	-0.017140716
212	0xbca4ba67	-0.020108415
213	0xbced529c	-0.028970055
214	0xbd168ab2	-0.036753364
215	0xbb1f1b12	-0.002427761
216	0xbd0f25fb	-0.03494833
217	0xbc14214c	-0.009041142
218	0x3c5ac8d3	0.013353544
219	0xba8ef25e	-0.0010905971
220	0xbc3ed5be	-0.01164764
221	0xbb347891	-0.0027537683
222	0xbccc10b5	-0.02491031
223	0x3be35fef	0.0069389264
224	0xbc46978f	-0.012121095
225	0xbbfd399d	-0.0077278153
226	0xbc95f32b	-0.018304428
227	0xbc6d6b81	-0.014490963
228	0xbcdb80e2	-0.026794855
229	0xbc0764ab	-0.008263747
230	0xbc539daa	-0.012916008
231	0xbc600ef3	-0.013675439
232	0xbcd2c2dd	-0.025727684
233	0x3c07bd53	0.0082848845
234	0xbd047ba7	-0.032344487
235	0xbcaec195	-0.021332541
236	0x3d1abe5b	0.037779193
237	0xbcadbbf6	-0.02120779
238	0xbadd726b	-0.0016895061
239	0xbc019289	-0.007908472
240	0xbb7e12b7	-0.003876848
241	0xbc088ff3	-0.008335101
242	0xbcb2c9b7	-0.0218247
243	0x3c0063fc	0.007836338
244	0xbc848860	-0.01617831
245	0xbaa2128c	-0.0012365147
246	0xbc5e91ab	-0.013584535
247	0xbb975c1b	-0.004619134
248	0xbcda42cd	-0.026643181
249	0x3ba60c81	0.0050674086
250	0xbca72206	-0.020401966
251	0xbccbf803	-0.024898535
252	0xbc78ce2c	-0.015185874
253	0xb9b56d5a	-0.00034604484
254	0xbd1c2475	-0.038120706
255	0xbc5d88f7	-0.0135214245

network_body._body_endoder.seq_layers.2.weight f4 [256, 256]
0	0xbd075275	-0.03303762
1	0x3da75a4d	0.081715204
2	0xbd792249	-0.060823712
3	0x3c78a95a	0.015177095
4	0x3d1337b7	0.035941806
5	0x3c216b21	0.009852202
6	0x3d30b774	0.043143705
7	0xbd91500a	-0.07095344
8	0x3cd940ce	0.02652016
9	0x3d67b4d7	0.056568947
10	0xbcb4e937	-0.022083862
11	0x3daec425	0.08533505
12	0xbe0a75b8	-0.13521469
13	0x3d4d78e4	0.05016412
14	0x3e0c894f	0.13724254
15	0xbcacd527	-0.021097733
16	0xbd7ba80a	-0.06143955
17	0xbd45bb22	-0.048274167
18	0x3c8a98b5	0.01691852
19	0x3c19c891	0.009386198
20	0x3d4184f9	0.047245953
21	0x3cd53faa	0.026031334
22	0xbd07ecb9	-0.03318474
23	0xbc8324f9	-0.01600884
24	0xbd3598e2	-0.044335254
25	0xbc17a389	-0.009255298
26	0x3d603670	0.054739416
27	0xbe01c4f7	-0.12672792
28	0x3da8acc1	0.08236075
29	0xbd771df0	-0.060331285
30	0x3ddf8ccd	0.109155275
31	0xbdbc0c67	-0.09182053
32	0xbe132d37	-0.14372717
33	0xbd6fda93	-0.058558058
34	0x3b91c758	0.0044488125
35	0xbd17f0ab	-0.037094753
36	0xbcc1677b	-0.023608914
37	0x3db2dde8	0.087337315
38	0x3c9bbb4a	0.019010205
39	0xbd67fa93	-0.05663545
40	0x3d804353	0.06262841
41	0xbd151f36	-0.03640672
42	0x3d848305	0.064703025
43	0xbd08dc21	-0.033413056
44	0xbdbf0857	-0.093277626
45	0x3d8062c0	0.06268835
46	0x3e1c2ea3	0.15252165
47	0xbdc474eb	-0.09592613
48	0xbcd61598	-0.026133344
49	0xbd80e1c8	-0.06293064
50	0xbda66bf0	-0.08126056
51	0x3e346a40	0.17618656
52	0xbe2b60c8	-0.16736138
53	0xbc966302	-0.018357757
54	0x3d32e34b	0.043673795
55	0x3d520a98	0.051279634
56	0xbb09875e	-0.0020985226
57	0x3cd600a9	0.026123362
58	0x3d37b642	0.04485155
59	0xbc2adf63	-0.010429236
60	0xbd4e0101	-0.050293926
61	0xbcae48c7	-0.021274937
62	0xbe1f27fd	-0.15542598
63	0xbd363b43	-0.04449011
64	0x3d4f450d	0.05060296
65	0xbc36c4f0	-0.011155352
66	0xbd67295f	-0.05643594
67	0xbc48520f	-0.012226596
68	0xbe1a1b63	-0.1504951
69	0xbda52c47	-0.08065086
70	0xbdb2669c	-0.087109774
71	0xbdc24eeb	-0.09487709
72	0x3d0f216b	0.03494398
73	0xbca93d64	-0.020659156
74	0xbcd5b3b6	-0.02608667
75	0x3d69ef3e	0.057112925
76	0xbcde366b	-0.027125558
77	0xbe024104	-0.12720114
78	0xbd2a7371	-0.041614
79	0xbdba8081	-0.091065414
80	0x3d1efa77	0.03881308
81	0x3c1b7732	0.009488868
82	0x39ee9664	0.00045506947
83	0x3d0f8758	0.035041183
84	0xbd394008	-0.04522708
85	0xbcd8daa6	-0.026471447
86	0x3c9b14d4	0.01893083
87	0xbc261261	-0.010136218
88	0xbd5d21b2	-0.053987212
89	0x3e13d921	0.14438297
90	0x3d10787d	0.035271157
91	0xbd3009c8	-0.042978078
92	0x3d85d9ae	0.0653566
93	0xbcf9cc8d	-0.030493045
94	0xbd521fab	-0.051299732
95	0x3d3e1815	0.046409685
96	0xbd2bb3d7	-0.041919556
97	0xbd38d61d	-0.04512607
98	0xbd9e8bf0	-0.07741535
99	0x3b2585d1	0.0025256763
100	0xbce31351	-0.027719172
101	0x3dc87fbe	0.0978999
102	0xbd80a2b0	-0.0628103
103	0x3ce4111c	0.02784019
104	0x3c81c226	0.015839648
105	0x3d846032	0.0646366
106	0x3dc319d9	0.095264144
107	0xbac6fc92	-0.0015181473
108	0xbdd33e32	-0.10314597
109	0x3d0550eb	0.032547873
110	0x3bb427a0	0.0054978877
111	0xbd1b84ac	-0.037968323
112	0x3c8ea8a7	0.017414404
113	0x3af3d164	0.0018601832
114	0xbd80e1d9	-0.06293077
115	0x3d52cb02	0.051463135
116	0x3ce33e8d	0.027739787
117	0x3d7edd64	0.062222853
118	0x3ce6ed47	0.028189315
119	0x3d5b7b08	0.05358413
120	0xbd5407dd	-0.05176531
121	0x3e0365f6	0.12831864
122	0x3d137bed	0.036006857
123	0x3d60e649	0.054907117
124	0x3d19ef5c	0.037581787
125	0x3b2ac6b1	0.002605837
126	0xbdc5dc96	-0.09661214
127	0xbda39de2	-0.07989098
128	0xbc15dd34	-0.009146977
129	0x3d95c055	0.07312075
130	0xbd404a76	-0.04694601
131	0x3c1e453c	0.009660061
132	0xbda28242	-0.07935001
133	0x3dfb9025	0.12283353
134	0x3b9f8741	0.0048684184
135	0x3d7c2021	0.061554078
136	0x3dae78fb	0.08519169
137	0x3d57d7ce	0.05269604
138	0x3d80cf76	0.0628957
139	0x3d3a5d6f	0.04549926
140	0x3d091875	0.03347059
141	0xba5c4662	-0.0008402822
142	0x3de534b1	0.11191691
143	0x3d1b48a5	0.037911076
144	0x3d2a8036	0.041626178
145	0x3c9230f5	0.01784561
146	0xbcd8139c	-0.026376538
147	0x3d96934e	0.07352315
148	0xbd2115c3	-0.039327394
149	0x3d61e968	0.055154234
150	0x3b7245dd	0.0036967911
151	0xbb681ef4	-0.003541884
152	0xbd2e5068	-0.04255715
153	0xbc2961f2	-0.010338293
154	0xbd567186	-0.052354358
155	0x3d8c27ed	0.06843553
156	0xbd175190	-0.03694302
157	0xbde1220a	-0.109928206
158	0xbda0b963	-0.0784786
159	0xbdb164de	-0.08661817
160	0xbd84754c	-0.06467685
161	0xbd266b1e	-0.0406295
162	0x3d71607d	0.05892991
163	0x3dc4b496	0.096047565
164	0x3bcd2b0e	0.006261236
165	0xbd54f816	-0.051994406
166	0x3da3b1c7	0.07992893
167	0xbda7e569	-0.081980534
168	0xbd62bdf6	-0.055356942
169	0xbd475415	-0.04866417
170	0xbd902609	-0.07038505
171	0x3d9c75f8	0.07639688
172	0xbcb4e4e9	-0.02208181
173	0xba27f3e6	-0.0006406888
174	0x3d8d0b98	0.06886977
175	0xbcc84ab5	-0.024449686
176	0x3cf0b324	0.029382296
177	0xbdc4137f	-0.09574031
178	0xbc857506	-0.016291153
179	0xbc9d86b3	-0.019229269
180	0xbcea24e2	-0.02858204
181	0xbd80c99d	-0.06288455
182	0xbb549710	-0.0032438673
183	0xbc6a3be2	-0.014296504
184	0x3d114272	0.035463758
185	0xba852f75	-0.0010161238
186	0x3d4c3ecf	0.049864586
187	0x3b81c2f3	0.0039600073
188	0xbd877a36	-0.06615107
189	0xbe0fd8a5	-0.14047487
190	0x3db3abcf	0.08773004
191	0x3ce00416	0.027345698
192	0xbd990edc	-0.07473537
193	0xbd20055f	-0.039067622
194	0x3d3c806a	0.046020903
195	0xbddd237e	-0.10797785
196	0x3da64cab	0.08120092
197	0x3a0acb0c	0.00052945386
198	0xbda27853	-0.07933106
199	0x3d56ae39	0.052412245
200	0xbdb47e0c	-0.08813104
201	0xbc6bd623	-0.014394316
202	0x3cb28eb4	0.021796562
203	0x3b41ba1b	0.002956039
204	0x3df2e65e	0.11860345
205	0x3d3798c1	0.04482341
206	0x3c3632eb	0.011120538
207	0xbd6dd775	-0.058066804
208	0xbdd13d45	-0.10216764
209	0xbc60d60f	-0.013722911
210	0x3df224d1	0.118234284
211	0x3dbbdcd0	0.09172976
212	0x3c51572a	0.012777129
213	0x3d90a60f	0.07062923
214	0xbda17c01	-0.0788498
215	0x3d32497d	0.043527115
216	0xbdb0953b	-0.086222135
217	0xbca162ca	-0.019700427
218	0x3da682d0	0.08130419
219	0x3d5a810b	0.05334572
220	0xbb33a171	-0.002740946
221	0x3dcf10aa	0.101106
222	0xbc46587d	-0.012106058
223	0x3da3019e	0.07959293
224	0xbc402c91	-0.011729375
225	0xbcbfe8b2	-0.023426387
226	0xbc198003	-0.009368899
227	0x3d8a271a	0.06745739
228	0xbda9709e	-0.08273433
229	0xbd94e739	-0.07270665
230	0x3d132a9b	0.035929304
231	0xbdcf2fa2	-0.10116507
232	0xbd579326	-0.052630566
233	0xbd64e726	-0.055884503
234	0xbe0ced4a	-0.13762394
235	0xbd88d1a8	-0.06680614
236	0xbd115f34	-0.035491183
237	0x3d78705d	0.060654033
238	0x3e006a5a	0.1254057
239	0x3d1f859e	0.038945787
240	0x3d7cfc52	0.06176407
241	0x3d486876	0.048927747
242	0xbdb4c178	-0.08825964
243	0xbc306ef6	-0.010768643
244	0xbdbbd286	-0.091710135
245	0x3d60baa4	0.054865494
246	0xbd1c49de	-0.038156383
247	0x3dfea7c9	0.12434346
248	0x3d313a48	0.043268472
249	0x3c62b30a	0.013836632
250	0xbca1e5c2	-0.019762877
251	0x3dde9943	0.10869076
252	0x3c92591b	0.017864754
253	0x3cc9fe6f	0.024657456
254	0x3bc02ccd	0.0058647157
255	0xbcf100ca	-0.029419322

network_body._body_endoder.seq_layers.4.bias f4 [256]
0	0xbcd0239c	-0.025407605
1	0xbc207949	-0.009794542
2	0xbcef3c24	-0.029203482
3	0xbd0965ae	-0.033544235
4	0xbb8e4581	-0.0043417816
5	0x3c81c860	0.015842617
6	0xbcc4632b	-0.023973068
7	0xbc28eb3a	-0.010309989
8	0x3b078e8a	0.0020684325
9	0x3ac88828	0.0015299367
10	0x3c5f22aa	0.013619104
11	0x3b86543e	0.004099398
12	0xbd140fde	-0.036147945
13	0xbc5f7f47	-0.013641185
14	0xbabaf52a	-0.0014263738
15	0xbd0211a3	-0.0317551
16	0xbc44190c	-0.011968862
17	0xbcc5a14c	-0.024124764
18	0xbd4e2905	-0.050332088
19	0x3b958a78	0.004563626
20	0xbb53ed9f	-0.0032337678
21	0xbc097fbd	-0.008392272
22	0xbd4252ac	-0.047442123
23	0xbcaa6311	-0.020799192
24	0xbd11d03f	-0.03559899
25	0xbd09e861	-0.03366888
26	0xbcf63f6b	-0.030059537
27	0xbd34177d	-0.043967713
28	0xbc378f25	-0.011203562
29	0xbc07f115	-0.0082972245
30	0xbc8a05cd	-0.01684847
31	0xbc388c4c	-0.011263918
32	0xbc946ab0	-0.018117279
33	0xbd09c318	-0.03363332
34	0xbcfab31b	-0.030602982
35	0xbc44e558	-0.01201757
36	0xbcced64c	-0.02524867
37	0x3c18550c	0.0092976205
38	0xbc512429	-0.012764969
39	0xbcbe12bc	-0.023202293
40	0xbc1d198c	-0.00958861
41	0x3c18b979	0.009321564
42	0xbd317465	-0.043323893
43	0xbccac7da	-0.0247535
44	0xbc79e4e4	-0.015252326
45	0xbcd448f6	-0.025913697
46	0x3d10dfde	0.035369746
47	0xbc928a28	-0.017888144
48	0xbc32e598	-0.010918997
49	0xbc62053f	-0.013795196
50	0xbcd6e1f6	-0.026230793
51	0xbd2fe808	-0.04294589
52	0xbd17de7f	-0.037077423
53	0x3b97214d	0.004612124
54	0xbc56f528	-0.013119973
55	0xbc799ccf	-0.01523514
56	0xbd039684	-0.032125965
57	0xbcc424c0	-0.023943305
58	0xbd461f73	-0.048369836
59	0xbc576845	-0.013147418
60	0xbc9972cf	-0.018731503
61	0xbd1b74ad	-0.037953068
62	0xbc8126c5	-0.015765557
63	0xbd34bd1e	-0.04412567
64	0xbd28d546	-0.04121902
65	0xbcf9c7d0	-0.030490786
66	0x3bb52be0	0.005528912
67	0xbcc00163	-0.023438161
68	0xbc3f8747	-0.0116899675
69	0xbcd4500e	-0.02591708
70	0x3b42f3c7	0.0029747353
71	0xbc1f58cb	-0.00972576
72	0x3a0e5e9f	0.000543097
73	0xbd3538cf	-0.04424363
74	0xbd251635	-0.04030438
75	0x3afe2167	0.0019388617
76	0xbcd919c1	-0.026501538
77	0x3cbb5879	0.022869335
78	0xbc9f4172	-0.019440386
79	0xbc94c0da	-0.018158365
80	0xbc00477b	-0.007829542
81	0xbd10dae1	-0.03536499
82	0xbc9b5f6e	-0.018966403
83	0xbcf4f53c	-0.029902093
84	0xbce9a865	-0.02852268
85	0xbbee5284	-0.00727302
86	0xbccb613e	-0.024826642
87	0xbc84e766	-0.01622362
88	0xbc059332	-0.00815277
89	0x3af84c91	0.0018943717
90	0xbcabbee7	-0.020965053
91	0xbcff4cac	-0.03116449
92	0xbc83cd0d	-0.016088987
93	0x3bf3deb4	0.0074423198
94	0xbb7f80bb	-0.0038986641
95	0xbbc5845d	-0.006027742
96	0x3c347674	0.01101457
97	0xbcbcb84e	-0.023037102
98	0xbcc83dc8	-0.024443522
99	0xbcb252c5	-0.021767983
100	0xbc564ccf	-0.013079836
101	0xbcd62645	-0.026141295
102	0xbcd8b6b7	-0.026454313
103	0x3c61cd21	0.013781817
104	0xbd4341e6	-0.047670268
105	0xbd053340	-0.03251958
106	0xbc8038b4	-0.015652038
107	0xbbb9e4ae	-0.0056730127
108	0xbd1a7e29	-0.037717972
109	0xbca5c050	-0.020233303
110	0xbcdd102d	-0.026985252
111	0xbcc9358f	-0.024561672
112	0xbd19a475	-0.037510354
113	0xbca0f23c	-0.019646756
114	0xbd4d70d8	-0.050156444
115	0xbb564122	-0.003269263
116	0xbd650057	-0.055908527
117	0xbcbdb261	-0.023156347
118	0xbd2fb77a	-0.042899586
119	0xbb707092	-0.003668819
120	0xbc2d3627	-0.010571993
121	0xbb11b585	-0.0022233438
122	0xbc25d6ea	-0.01012204
123	0xbd131a24	-0.0359136
124	0xbc933325	-0.017968724
125	0xbcd1b4cf	-0.025598912
126	0xbc9fb237	-0.01949416
127	0xbd3dd431	-0.04634494
128	0xbbf59899	-0.0074949977
129	0xbd3cb4ad	-0.046070743
130	0xbca1a4bd	-0.019731874
131	0xbd03695a	-0.032082893
132	0x3b8f7d68	0.0043789633
133	0xbc8b59fe	-0.017010685
134	0xbbc0fdb4	-0.005889619
135	0xbcdeefe8	-0.027214006
136	0xbbb31311	-0.0054649194
137	0xbc66b64b	-0.014081548
138	0xbd03f16b	-0.032212656
139	0xbd149969	-0.036279116
140	0xbc840cb9	-0.016119348
141	0xbca01329	-0.019540386
142	0xbd3937d1	-0.045219246
143	0xbd4d432d	-0.050112892
144	0xbccd0068	-0.025024608
145	0xbc2c6eb8	-0.010524444
146	0xbc39694e	-0.0113166105
147	0xbcc944ce	-0.024568941
148	0x3aee842b	0.0018197348
149	0xbcdf903d	-0.027290458
150	0xbc9897c7	-0.01862706
151	0x3ba74518	0.005104672
152	0x3c4106f4	0.011781443
153	0xbb8cc22c	-0.004295608
154	0xbc7eab03	-0.015543702
155	0xbca75cab	-0.02042993
156	0xbc3296f3	-0.010900247
157	0xbcfb4860	-0.03067416
158	0xbcc48a04	-0.023991592
159	0x3cedd134	0.02903042
160	0xbc28737c	-0.01028144
161	0xbc6f14ad	-0.014592332
162	0x3c176012	0.009239214
163	0x3c0296c3	0.007970515
164	0xbd05889f	-0.032600995
165	0xbb88d1d4	-0.004175404
166	0xbcf66b37	-0.03008042
167	0xbce2d3a0	-0.027688801
168	0xbd19a02d	-0.03750627
169	0xbcc5faa5	-0.024167368
170	0xbc208e72	-0.009799587
171	0xbd2cb4ec	-0.042164728
172	0x3c551b56	0.013007006
173	0xbc911d4b	-0.017714163
174	0x3a70fc41	0.0009192862
175	0xbc276030	-0.010215804
176	0xbd06cfd5	-0.032913048
177	0xbc594891	-0.01326193
178	0xbbfc7e22	-0.007705466
179	0xbc7628b8	-0.015024357
180	0xbc03d405	-0.008046155
181	0xbd0f7a2d	-0.035028625
182	0xbb19520c	-0.002339485
183	0xbc9ff006	-0.019523632
184	0xbb6f5b3d	-0.0036522888
185	0xbbfcc7d2	-0.00771425
186	0xbc46c62a	-0.012132207
187	0xbd227ace	-0.039667897
188	0xbb84d030	-0.004053138
189	0xbc7180e3	-0.014740202
190	0xbd3b5c48	-0.045742303
191	0xbcfb9ba5	-0.030713866
192	0x3d031ebd	0.032011736
193	0xbbe46937	-0.0069705504
194	0xbbb19b09	-0.005420093
195	0xbced3fde	-0.028961118
196	0xbc625dd2	-0.013816314
197	0x3b89a8b5	0.0042010196
198	0xbd459dc8	-0.048246175
199	0xbcae34a3	-0.021265334
200	0xbc830f2a	-0.015998442
201	0xbd291adc	-0.04128538
202	0x3b1d4074	0.0023994716
203	0x3b56420f	0.0032693183
204	0xbc997a68	-0.018735126
205	0xbd088c58	-0.033336967
206	0xbaa8a5bb	-0.0012866774
207	0xbbfd279b	-0.0077256686
208	0xbc5c5d60	-0.013449997
209	0xbc77381e	-0.015089063
210	0x3ae96aff	0.0017808377
211	0xbca91470	-0.020639628
212	0xbd2c734d	-0.042102147
213	0xbcc30b42	-0.02380908
214	0xbc86c3c2	-0.016450766
215	0x3aab9bbe	0.001309268
216	0xbbe135b2	-0.006872856
217	0xbd54a998	-0.05191955
218	0xbc8d931d	-0.017282063
219	0xbd1db5ac	-0.038503334
220	0xbb5e9a70	-0.0033966564
221	0xbd2ad03c	-0.041702494
222	0xbc8860cd	-0.01664772
223	0xba98de62	-0.0011662955
224	0xbc70c5f3	-0.014695632
225	0xbd3ff9a7	-0.046868946
226	0xbb44fe76	-0.0030058897
227	0xbcfbad07	-0.030722154
228	0xbd183a83	-0.037165176
229	0x3c8b8811	0.017032655
230	0x3be72c8d	0.0070548714
231	0xbcae8964	-0.021305747
232	0xbb8c15ea	-0.0042750733
233	0x3cd957bf	0.026531098
234	0xbcd321ae	-0.025772896
235	0xbc77bcd0	-0.0151207
236	0xbcb6bb5e	-0.02230614
237	0x379e5840	1.8876162e-05
238	0xbcf37f03	-0.02972365
239	0xbd097cbf	-0.033566233
240	0xbcc2f808	-0.023799911
241	0xbcca3ab4	-0.024686195
242	0xbd636c25	-0.055523057
243	0xbcc72b62	-0.024312679
244	0xbc50d75b	-0.012746657
245	0x3a70dfcd	0.00091886224
246	0xbc28d4fe	-0.010304688
247	0xbc33d416	-0.010975858
248	0xbbeee808	-0.007290844
249	0xbd4ee9c4	-0.050515905
250	0x3bbd72b4	0.005781496
251	0xbbe53727	-0.0069951
252	0xbc96bd12	-0.018400703
253	0xbbd5727f	-0.006513893
254	0xbca896d4	-0.020579733
255	0xbc1af2f4	-0.009457339

network_body._body_endoder.seq_layers.4.weight f4 [256, 256]
0	0xbdb0d42d	-0.08634219
1	0xbcc40d3c	-0.023932092
2	0x3aa83f45	0.0012836239
3	0xbd5c0bbf	-0.05372214
4	0x3db0069d	0.085950114
5	0xbd4f4887	-0.050606277
6	0xbd7ef55a	-0.062245704
7	0x3b58401e	0.0032997201
8	0x3e0a8908	0.13528836
9	0x3d01dc63	0.031704318
10	0x3c868e34	0.01642523
11	0xbbd700ef	-0.0065613906
12	0x3d561ad9	0.052271698
13	0x3d42a1c4	0.047517553
14	0xbbc6ea05	-0.006070378
15	0x3e0f7e0f	0.14012931
16	0x3cad9909	0.021191137
17	0x3dfd64eb	0.12372764
18	0xbdd782df	-0.105230086
19	0xbcf0ab5f	-0.029378591
20	0xbd9867c6	-0.07441668
21	0xbda02f30	-0.078215
22	0xbc015f93	-0.007896322
23	0xbbd49e3c	-0.0064885896
24	0xbde72981	-0.11287213
25	0xbdad378b	-0.084578596
26	0xbc472ffc	-0.012157436
27	0x3d451bb5	0.048122127
28	0x3d901b4f	0.07036459
29	0x3b47639c	0.0030424362
30	0x3d86ec8f	0.06588089
31	0x3e011f22	0.12609532
32	0xbe02c1e4	-0.12769276
33	0xbd2fff55	-0.042968113
34	0x3d8cf170	0.06881988
35	0x3b805e6f	0.0039175074
36	0x3c60d06b	0.013721566
37	0x3caecb39	0.021337138
38	0x3d240853	0.040047
39	0xbda63a84	-0.0811663
40	0x3ca1c871	0.019748898
41	0xbd173068	-0.0369114
42	0xbc7c1fda	-0.015388453
43	0xbd9d15d7	-0.07670181
44	0x3d91e404	0.07123569
45	0x3b24f4c0	0.0025170296
46	0x3d968a32	0.073505774
47	0x3df4cdaf	0.119532935
48	0xbcfa2a94	-0.030537881
49	0x3cd15931	0.025555225
50	0xbd7bef3d	-0.061507452
51	0x3d48d0c0	0.049027205
52	0xbda3764f	-0.0798155
53	0x3daff9b4	0.08592549
54	0x3b972b90	0.0046133474
55	0x3d607beb	0.054805677
56	0x3d75b1e5	0.059984107
57	0x3b1b8455	0.002373
58	0xbd57e824	-0.05271162
59	0xbc1f2390	-0.009713069
60	0x3dbae397	0.091254406
61	0xbcd2f4fd	-0.025751585
62	0x3bc2d5ec	0.0059459116
63	0xbe099490	-0.13435578
64	0xbd6855cd	-0.05672245
65	0x3d6fc916	0.05854138
66	0xbe115891	-0.14193942
67	0x3ce17057	0.027519388
68	0xbd845c95	-0.06462971
69	0xbd47dee2	-0.048796542
70	0x3d0147ec	0.03156273
71	0x3cdc0c4c	0.026861332
72	0xbe125be7	-0.1429287
73	0xbe303879	-0.17209043
74	0xbc50dee4	-0.012748454
75	0x3df6905f	0.12039255
76	0xbc3e13ef	-0.011601432
77	0xbb390c06	-0.0028235926
78	0xbc6c3548	-0.014417
79	0x3d8340fb	0.064088784
80	0x3d119441	0.035541777
81	0xbd885aa8	-0.06657916
82	0xbd44bde3	-0.048032653
83	0x3d425844	0.047447458
84	0xbc632869	-0.013864615
85	0xbd639702	-0.055563934
86	0xbd99f846	-0.075180575
87	0x3d3b754f	0.04576617
88	0xbcb445a0	-0.022005856
89	0xbce1d39f	-0.02756673
90	0x3bac6861	0.0052614664
91	0x3df77bb3	0.12084141
92	0xba2fa083	-0.00066996383
93	0x3d465839	0.04842398
94	0x3da57620	0.08079171
95	0xbd93f9a2	-0.07225348
96	0xbd8ee636	-0.06977503
97	0x3c9974f6	0.01873253
98	0x3ceb3a29	0.028714256
99	0xbd8a48c7	-0.067521624
100	0x3e280f1c	0.16412014
101	0x3d539789	0.051658187
102	0xbe051b34	-0.12998658
103	0x3d10b422	0.035328038
104	0x3d2cf34a	0.042224206
105	0x3be5f93d	0.007018237
106	0x3c7b48bc	0.015337165
107	0x3d64392f	0.055718597
108	0x3d1975a4	0.037465706
109	0xbc595335	-0.013264467
110	0xbe0abf56	-0.13549551
111	0x3c461c34	0.012091685
112	0xbd90bbbf	-0.0706706
113	0xbd32f35e	-0.043689124
114	0xbd868184	-0.06567672
115	0xbc73bc77	-0.0148764765
116	0x3d67f24e	0.056627564
117	0xbd02c1fc	-0.03192328
118	0x3db9415f	0.09045672
119	0x3da93957	0.0826289
120	0x3d0e798e	0.034783892
121	0xbda009df	-0.07814383
122	0x3da5187a	0.08061309
123	0xb993f232	-0.00028218474
124	0x3d7c7a7c	0.061640248
125	0x3d90af91	0.07064737
126	0x3d7887cd	0.060676385
127	0xbcb06183	-0.021530872
128	0xbd44f8e3	-0.04808892
129	0xbc9413e1	-0.018075885
130	0xbcd30be6	-0.02576251
131	0xbd5217d0	-0.05129224
132	0x3d605857	0.054771747
133	0xbd87da95	-0.06633488
134	0x3d7dfd14	0.062008932
135	0x3d1f94be	0.03896021
136	0x3da70209	0.08154685
137	0x3cb15dbe	0.021651145
138	0xbcf0a8e5	-0.02937741
139	0xbd8cbbfc	-0.06871793
140	0xbe1100fb	-0.1416053
141	0xbd700af4	-0.058604196
142	0x3e616c3f	0.22013949
143	0xbd73b675	-0.059500176
144	0xbdb8df48	-0.090269625
145	0xbc29ab28	-0.010355748
146	0x3e0feab5	0.14054377
147	0xbd8e9964	-0.06962851
148	0x3d3600f8	0.044434518
149	0x3dd52ce1	0.104089506
150	0xb9bca98d	-0.0003598448
151	0x3d174adf	0.036936637
152	0x3d12f3a1	0.035876874
153	0x3cbeba54	0.023282208
154	0xbcaa01fd	-0.020752901
155	0x3bb49930	0.0055114254
156	0x3c36d057	0.0111580705
157	0xbc959c56	-0.018263023
158	0x3d7be998	0.06150207
159	0xbc73dfa1	-0.01488486
160	0x3d84392b	0.064562164
161	0x3db971ad	0.09054885
162	0xbcda9b2f	-0.026685325
163	0xbc5826b3	-0.01319282
164	0x3d20d31c	0.03926383
165	0x3e0338e5	0.12814672
166	0xbd8807ea	-0.066421345
167	0x3d05ff5c	0.032714233
168	0xbdce8c12	-0.1008531
169	0x3bc1c04e	0.005912817
170	0x3dc49995	0.09599606
171	0xbdc31073	-0.09524622
172	0x3c002f74	0.007823814
173	0x3c2fab68	0.010722019
174	0xbe0efa01	-0.13962556
175	0xbd24fb1a	-0.04027853
176	0x3cc8c756	0.024509113
177	0x3c914bd7	0.017736359
178	0x3d52761b	0.051382165
179	0xba21338e	-0.0006149345
180	0xbd09d732	-0.033652492
181	0xbdd2404e	-0.102661714
182	0xbcb084fe	-0.02154779
183	0xbca9d97b	-0.020733586
184	0x3c1e0987	0.009645826
185	0x3df6a9de	0.12044118
186	0x3d7cff42	0.06176687
187	0xbdc56fc0	-0.09640455
188	0x3ccfdea6	0.025374722
189	0x3afaea79	0.0019143365
190	0x3e012d73	0.12614994
191	0x3dbc4840	0.09193468
192	0xbd6a53a1	-0.05720866
193	0xbe43f45a	-0.19136181
194	0xbda6e47b	-0.08149048
195	0xbc68b62b	-0.0142035885
196	0xbda5e758	-0.08100766
197	0x3d8c5512	0.068521634
198	0xbdd1afd9	-0.102386184
199	0xbddea4b3	-0.10871258
200	0x3dffcea3	0.12490585
201	0x3db5f835	0.08885232
202	0x3d9452b2	0.072423354
203	0xbc892576	-0.016741496
204	0xbd0582a6	-0.0325953
205	0x3d286707	0.04111388
206	0x3cbe94d6	0.02326433
207	0x3d86a55b	0.06574508
208	0xbd5ff8c6	-0.05468061
209	0x3c1a5544	0.009419743
210	0x3d37cb42	0.044871576
211	0x3d5c8591	0.053838316
212	0xbda8b790	-0.08238137
213	0xbcc0fd49	-0.023558276
214	0x3d5c7384	0.0538211
215	0xbd653679	-0.055960152
216	0x3d30cc11	0.043163363
217	0x3d8cc0ae	0.06872688
218	0xbd5a8e7f	-0.05335855
219	0x3d19a013	0.037506174
220	0xbde335f9	-0.11094279
221	0xbd05aa4d	-0.032633115
222	0x3d47d884	0.04879047
223	0xbdcbf770	-0.09959304
224	0x3d885e20	0.06658578
225	0x3dc93348	0.09824234
226	0xbd15ae4d	-0.03654318
227	0x3a2d2afb	0.0006605831
228	0x3d8f5850	0.06999266
229	0xbcaf6152	-0.02140871
230	0x3d97da63	0.07414701
231	0xbd9f8521	-0.07789064
232	0x3de36255	0.1110274
233	0x3dfcf385	0.12351135
234	0xbd4ddc51	-0.05025894
235	0xbd4a32ad	-0.049364734
236	0x3bcc9411	0.006243237
237	0xbd825037	-0.06362956
238	0x3da9c29c	0.08289072
239	0x3d11974e	0.035544686
240	0x3d77be91	0.060484473
241	0x3c0b878f	0.008516206
242	0xbcf91b1f	-0.03040844
243	0xbc857c75	-0.016294697
244	0x3dcd00ca	0.10009916
245	0xbd1afeff	-0.03784084
246	0x3c11b3a2	0.008892925
247	0x3df32f03	0.11874201
248	0xbd8ab723	-0.06773212
249	0xbd9f720c	-0.077854246
250	0xbda7b293	-0.08188357
251	0xbcce6923	-0.025196617
252	0xbd357290	-0.04429871
253	0xbd59a331	-0.053134147
254	0x3ce877a5	0.028377363
255	0x3d88db99	0.0668251
