results/finalRulesOff/MoveToGoal/MoveToGoal-500036.pt (torch, 440375 bytes, 40 tensors)

discrete_act_size_vector f4 [1, 2]
00000000: 0000 8040 0000 0040
4.0 2.0

network_body._body_endoder.seq_layers.0.weight f4 [128, 4]
00000000: de48 113f f232 48bf 1f01 043f 4d66 f6be
00000010: a00b cfbe dcf8 d33d 10aa 6abf 407c a4be
00000020: 40bc ac3e f0d1 8e3e be45 d83e 966e 94be
00000030: e381 54be 60db 66be d302 ccbe 2737 6a3f
00000040: e348 283e f0ec de3e bb87 bb3d 08b7 8cbe
00000050: a759 04bf 583a 663e b44c 23be a3aa e43e
00000060: 2a77 4cbf e5fe 20bf b3fd 4abf 1efd 1c3f
00000070: 635b 71be 8c4c 5c3e b469 763f e54a 4e3f
00000080: d2e1 133e 0ba6 e83e 708e c23d 983b 9d3e
00000090: 6dac cd3d 1a07 40bc ea25 52bf 52f6 8fbe
000000a0: e8bf 873e 95f9 073f ec93 143f d599 d0be
000000b0: 50e6 de3d 1794 173e da9f 683f 22e4 2ebe
000000c0: 82be 4e3d 7b69 b4be d409 61bf 408a 7f3f
000000d0: a389 0a3d dfe9 363f 9ed3 babf b9d5 ba3e
000000e0: 67de a0be 7249 b3be 5c58 23bf 4fac d0be
000000f0: fe7b b63e 340b 40bf 59fa 37bf cb51 02bf
00000100: 78ad 0ebc ae79 0e3f 7e78 b33e 6e5f d9be
00000110: 59d9 073f 713c ce3d d5c9 903d e14d 65be
00000120: b8c3 9a3e db3c a1be e180 c43e c435 d0be
00000130: 3890 1f3f 6862 73bf cb6a 93be 3127 a13f
00000140: 77f6 393e 160a 56bf 6a3b a63e 92e0 1dbf
00000150: 37e8 13bf 68c2 f33d 5f7f 66bf b70e f9be
00000160: 8c9b aabe 2d3b a6be e740 6e3e 4593 47bd
00000170: cb6a ee3e 00bc ea3d a48e 4ebf f349 473f
00000180: 40e2 6bbd 9858 b8be 211f 93be 3fb5 4abe
00000190: c69f 06bd 2270 12bf 0da7 ba3d 3661 e0be
000001a0: f027 d8bc 98ed 72be 8cb5 83bf 6d87 2dbf
000001b0: 4ec9 f9bd d7dd b8bc 28ba 953c 4c63 2d3e
000001c0: 73e2 ab3e 6b23 1cbf 585e bcbe 5b5c 8dbf
000001d0: f2df 7abe 57ac 173f bc79 393d a19b 5bbf
000001e0: 5441 a13e ce8b 02bf 0587 4e3e c3be 1abf
000001f0: e6da e83e 7f83 40bf 1388 723f 6237 113e
00000200: 4891 b43e dcdb 583f de7c 9e3d 4a3e c43e
00000210: e215 893e fcd2 3cbe bf79 753e 04d6 86be
00000220: b759 8d3e fd23 563f 8cff 29bf c4fa 64be
00000230: a22b d23e dc41 82bf fea4 953d 21bb 893d
00000240: c51c b03d c6ec 293f 762e d13e 449f 2e3e
00000250: 87e7 01be 97fe 4bbf e829 9ebe 19d6 c73c
00000260: 2ac6 8b3c 2dae 893d 98bc 043f f276 babe
00000270: 5086 dcbe 183a 443e 053e e8be 4f77 033f
00000280: afdb bb3e 36a5 923e 755e cbbe 6cab 7cbe
00000290: ff8f 363f a25b 173e 4148 213f 9323 2abf
000002a0: eca2 af3e c8a6 2dbe ca00 d0bd 2235 053f
000002b0: 5624 353f 04a0 333f 97c5 f73e 94a2 093e
000002c0: 9d1e 4ebe 7414 d8be 6472 92be 2ab5 bf3c
000002d0: 0a5d 8b3e cf02 8ebd 546a be3e 78a3 c63c
000002e0: 60b1 b0be 2107 1dbd c86d 373f 11fc 863d
000002f0: 0285 8e3d 79ba ddbe 1966 143f 9de9 013f
00000300: 3124 383f 1e1e b43d a5c5 aabe d63c f6be
00000310: 5c61 cf3e ac0f 4dbf 5351 bfbd 1868 25bf
00000320: 2cc5 7f3e 05ac e7be c904 22bf 615a 48be
00000330: 81e3 7e3e a999 2fbf 825d 8b3d 1ca4 f33e
00000340: f63f 6bbf 1324 da3d 5682 d6be 6f7d ae3d
00000350: 1bbf 23be a6d4 be3e 01b7 82bd 53f9 61be
00000360: 59ee fbbc a636 a6bd 932d 363f ec15 35be
00000370: 480d a13b bfb5 43bf 7b99 a9be 31a1 7fbe
00000380: f957 77bd 2196 30be 4d1b edbe fd19 0c3f
00000390: a87d 8cbe 6786 5e3f 131d 613f c5c3 5d3e
000003a0: 4479 b1be 0095 e8bd 41ae 06bf bd83 1a3d
000003b0: 8b9d d63c 47e3 163f 1739 e5bd 2f7c 15bf
000003c0: 0691 663f 16f8 b93e 0278 38be 563d 48bf
000003d0: 1f8c 1f3f 0ed8 d2be 32be f43e 5a52 863f
000003e0: c303 a23e f347 173f 5d72 bfbe aaf6 25be
000003f0: 16c8 433f 5ce2 7ebf a315 1cbc f6dd 53be
0.5675181 -0.78202736 0.5156421 -0.48124924 -0.40438557 0.103502005 -0.91665745 -0.32126045
0.33737373 0.27894545 0.4224071 -0.2899062 -0.20752673 -0.22544622 -0.39845905 0.91490406
0.16434054 0.43540144 0.09156748 -0.27483392 -0.516993 0.22483194 -0.15947229 0.44661435
-0.7986933 -0.6288894 -0.79293364 0.61323726 -0.23570018 0.21513575 0.9625504 0.8058303
0.14441612 0.4543918 0.09499824 0.3070953 0.10042653 -0.011720443 -0.820891 -0.28117615
0.265136 0.53115207 0.5803821 -0.40742365 0.108837724 0.14802586 0.90868914 -0.17079213
0.05047465 -0.35236725 -0.8790562 0.9982033 0.033822667 0.7145061 -1.459583 0.36491182
-0.3141968 -0.35016972 -0.638067 -0.4075646 0.35641474 -0.75017095 -0.71866375 -0.50906056
-0.00870835 0.5565442 0.35052866 -0.4245562 0.5306602 0.10070122 0.070697464 -0.2239299
0.30227447 -0.31491742 0.38379577 -0.4066602 0.62329435 -0.9507203 -0.28792414 1.2590085
0.18160425 -0.8360914 0.32467204 -0.6167079 -0.57776207 0.119023144 -0.900381 -0.4864404
-0.33321798 -0.32467023 0.23266946 -0.04872443 0.46565852 0.114616394 -0.806864 0.7784721
-0.057588816 -0.36005092 -0.28734687 -0.19795702 -0.032867216 -0.5720235 0.09113894 -0.43824166
-0.026386231 -0.23723447 -1.0289779 -0.6778477 -0.12196599 -0.022566719 0.018277243 0.1693241
0.33571205 -0.60991544 -0.3679073 -1.104381 -0.24499491 0.59247345 0.04528211 -0.85784346
0.31495154 -0.50994575 0.20168693 -0.6044733 0.45479506 -0.7520065 0.9473888 0.14181283
0.3526709 0.8471048 0.0773866 0.38328773 0.26774508 -0.18439859 0.23972224 -0.26335156
0.2760751 0.83648664 -0.6640556 -0.22361284 0.41048914 -1.0176349 0.073068604 0.06725145
0.08599237 0.6637691 0.4085576 0.17052943 -0.12685977 -0.7968535 -0.30891347 0.024394082
0.017062265 0.067226745 0.5185027 -0.36418873 -0.43071222 0.19162786 -0.45359817 0.51353925
0.36691043 0.2864167 -0.39720502 -0.24674767 0.7131347 0.14781049 0.63000876 -0.6646053
0.34303987 -0.16958153 -0.101564005 0.520342 0.7075857 0.7016604 0.48392937 0.13440925
-0.20128866 -0.42203104 -0.28602898 0.023401815 0.2721942 -0.069341294 0.37190497 0.02424787
-0.34510326 -0.038336877 0.7165189 0.065910466 0.06958963 -0.4330633 0.5796829 0.5074709
0.71930224 0.08794807 -0.33353916 -0.4809329 0.40503967 -0.8010204 -0.09341683 -0.6461196
0.24977559 -0.45248428 -0.6328855 -0.19565727 0.24891473 -0.6859384 0.068049446 0.47586143
-0.9189447 0.10651412 -0.41896313 0.08520018 -0.1599087 0.37271613 -0.063825615 -0.22067766
-0.030753301 -0.08115892 0.7116329 -0.17684144 0.0049149133 -0.764492 -0.3312491 -0.24963833
-0.06038663 -0.1724477 -0.4630989 0.54727155 -0.27439618 0.8692383 0.8793499 0.21656711
-0.3466283 -0.113565445 -0.5260964 0.03772329 0.02619817 0.5894055 -0.1119253 -0.58392614
0.9006504 0.36322087 -0.1801453 -0.7821859 0.6232318 -0.41180462 0.47801358 1.0493882
0.31643495 0.5909416 -0.3739194 -0.16207376 0.7647718 -0.99564147 -0.009526643 -0.2069014

network_body._body_endoder.seq_layers.0.bias f4 [128]
00000000: 54e6 953c edbf fabc cef0 a03c c93b dabc
00000010: 82e8 be3c da8e 51bc 8d1f 0bbc 9144 e23c
00000020: 6563 aa3c 3983 b7bc 52e4 d33c 8467 b33c
00000030: 88bb fabc 9e50 c8bc 0e84 cabc e5a2 c1bc
00000040: 1ef7 f83c dca1 a23c 218b 403c 5e43 dc3c
00000050: e43d 833c 9963 caba 61f3 cbbc a4a9 8abc
00000060: d93d efbc c573 d1bc 5387 f4bc 8c1e d9bc
00000070: a1e3 bbbc 8063 fcbc 4d25 c43c e09c f53c
00000080: 55c9 783c 7bb8 9f3c 8fbd bebc 9b05 c73c
00000090: 729b 51bc 6beb 97bc d38c d93c df30 f2bc
000000a0: 4975 91bc e9c9 cf3c 0980 cb3c 216e bd3c
000000b0: d8a9 04bd efcf f73c a00a f43c e228 513c
000000c0: d5d6 9b3c 43db e53c 7bce b2bc 2106 a63c
000000d0: afd1 78bd d15c e3bc 5be0 d23c 6eb1 b1ba
000000e0: dec8 00bb 30cb 2b3b a61b fcbc b6ca d8bc
000000f0: d640 c03c ad36 b13c 7fb1 9abc d8a6 d63c
00000100: 6f1b f2bc 8126 ccbc f820 f13c 649e d83c
00000110: 3b88 9abc bdd6 cc3c 5bf7 d33c d196 41bd
00000120: a003 e63c 03a3 f03c eacc f83c 4e10 9c3c
00000130: 5893 debc e535 933c 37e5 1ebd bd66 f53a
00000140: 9812 cc3c 4b27 cfbc 3a39 543c 9fe1 e3bc
00000150: b923 ab3c c4d8 c6bc 84f6 40b9 902f f03c
00000160: ce87 83bc 1109 ddbc 0fa5 2f3c 19a7 c4bc
00000170: 575e 3abd f755 e83c 40f4 c13c 7b6a d3bc
00000180: 9cdc aebc 8a9e 2e3c 62a7 f93c cc80 9d3c
00000190: a501 ee3c a420 a5bc 597c e1bc 25b7 bebc
000001a0: 9889 e53c 8178 8d3c e290 e5bc 6ac5 ffbc
000001b0: 7604 cd3c c021 d73c 38d3 e0bc 11fb db3c
000001c0: b9c9 903c 337e d4ba 6486 05bd eb8f d4ba
000001d0: 23a3 ef3c 66f8 b23c 30cc f3bc e67c 933c
000001e0: d785 03bc 4265 fa3c f8f1 a03c e9af a33c
000001f0: b916 d7bc 1be1 ee3c da9f d9bc 0e58 51bc
0.018298306 -0.030609095 0.019646075 -0.026639836 0.023304228 -0.012790406 -0.008491409 0.027620586
0.020799348 -0.022401439 0.025865708 0.021899946 -0.030607 -0.024452504 -0.024721172 -0.023637244
0.030391272 0.019852571 0.011751921 0.026887592 0.016020723 -0.0015441059 -0.024896326 -0.016926594
-0.029204296 -0.025567899 -0.029849684 -0.026503824 -0.02293569 -0.030809164 0.023943568 0.02998203
0.01518472 0.019497147 -0.023283748 0.024294665 -0.012793409 -0.018544873 0.026556408 -0.02956432
-0.017756121 0.025364833 0.024841325 0.023123803 -0.032388538 0.030250518 0.029790223 0.012766095
0.019023338 0.028058654 -0.021826973 0.020266594 -0.060746845 -0.02775422 0.025741747 -0.0013556906
-0.0019650976 0.0026213638 -0.030774903 -0.026463848 0.023468416 0.021632517 -0.018883465 0.026202604
-0.029554097 -0.024920704 0.029434666 0.026442714 -0.018863788 0.025004739 0.025874784 -0.04726297
0.0280779 0.029374605 0.030371148 0.019050743 -0.027169868 0.017970035 -0.038792815 0.0018722635
0.02491121 -0.025287291 0.012953097 -0.027817545 0.020891057 -0.024273284 -0.00018402381 0.029319555
-0.016055968 -0.026981862 0.010720505 -0.02400546 -0.045500126 0.028361304 0.023676038 -0.02580761
-0.02134543 0.010657916 0.030475322 0.019226454 0.029053519 -0.020157166 -0.027525114 -0.02328069
0.028019711 0.017269375 -0.028023187 -0.031222064 0.025026541 0.02626121 -0.027444467 0.026853116
0.017674314 -0.0016211927 -0.032598868 -0.0016217207 0.029252594 0.021846961 -0.02976045 0.018003892
-0.008027515 0.030565862 0.01964663 0.019981341 -0.026255952 0.029160073 -0.026565481 -0.0127773415

network_body._body_endoder.seq_layers.2.weight f4 [128, 128]
00000000: f0c5 e63d aff3 75bd 8197 8d3d 5903 b83d
00000010: 5a38 bd3d 74a7 44bd 03f9 afbd 7741 133d
00000020: 10b0 123d 96e1 babd 5df4 883d cbcd 1c3e
00000030: a52f 7a3d b357 f93d e2ab babd df0e c1bd
00000040: 9fc7 8cbd 3c08 8bbd 0b5d ae3c b1cf 8f3d
00000050: 22af 32bd bc1a 25bd e8b5 b1bd 5c43 9cba
00000060: 1689 b4bc 5732 a63d 1bb2 01be 27cc 05be
00000070: 8094 d5bd f910 adbd 0164 9a3d 4ecc 20bd
00000080: 18a0 103e 9160 573e 55d0 0fbc e3e3 da3d
00000090: 0129 c1bd 5bad 38be f4d3 933c 700e 87bd
000000a0: d602 803d 92e5 7d3b 9ead 76bc b1c5 893d
000000b0: 47ad c83d 5a64 863c 99da 1bbe f4b0 cd3d
000000c0: 557d 793c a6b6 3a3e f732 80bc 6a9d 443e
000000d0: 41e4 58bd 8673 99bd 0f42 1dbc d135 4fbd
000000e0: eff0 6ebc 740b f6bd 20f3 98bd 457f f23c
000000f0: 56a7 27bd c9a9 ff3c e145 c13d 162c 1fbd
00000100: d534 10be ea4b 5e3c 8268 2f3e 16ac 8c3d
00000110: c9c6 a2bd c4b0 973d 3ab4 b1bd 8c45 cebd
00000120: aae0 91bc 8bfc 093c ebe8 a4bd 076f 0b3e
00000130: ceeb 0b3e 07fa c03d f8f4 ecbd 07d1 793d
00000140: a4fc 27be a2fa 723d bcaf 9a3d a94b 18be
00000150: 1815 043e aab0 3d3c cac4 03be 244f dcbd
00000160: 1e2c a2bd 3f7a aa3d f47b d4bb a308 4ebd
00000170: f582 b13d 2edb 13bd ba62 c5bb de47 003d
00000180: 2e8a 9d3d a4ca 9ebc 9310 8b3b 2f99 de3d
00000190: e1ba ce3d 9af2 fb3b 3b97 103e 54dc 943d
000001a0: b87c 793b 9dad df3d 0d3b 843b 990f 19be
000001b0: 5ce2 d93d b3ae 90bd 3bd1 0cbe f1e3 0d3e
000001c0: 2c4e 84bd c700 2cbe a2de 0cbe fde8 d23c
000001d0: 0970 bb3d 285a 663e 5dfd 8aba 0ba5 9fbd
000001e0: 084b 1f3d b7de 123d 342a bf3c 887e 16bc
000001f0: 917d ea3d c3b6 c3bd 0deb 913d fb66 e73d
00000200: b70a 8f3d c7b6 3ebd 9b0c 8d3d 716f e1bc
00000210: 3b92 1ebd 6978 593d 4efa b6bd 17a7 29be
00000220: 58dc 853d 3518 d53c 1313 023c 81f7 acbd
00000230: aabe 923d 5833 793d 5c14 373d 7725 73bc
00000240: 321c e0bc 64b3 6d3c 94fa 153d c8cb 99bc
00000250: ccad ab3c af99 463d dec3 87bd 65b8 a33d
00000260: 1ffa 52bc 1ef0 27be 87d3 153d 0019 62bd
00000270: 33da 93bc 1ce5 ea3a ba29 16be 9451 8d3b
00000280: d7f7 0dbd ccbf 27bc a1dc 11be d942 d6ba
00000290: 3259 29bd 43a9 dc3d c662 8d3d 4343 06bd
000002a0: 309b 923d 0396 163d 91e9 69be ab69 b4bd
000002b0: a0f2 df3c 8a81 b4bd 84cb 66bb 899e aabd
000002c0: f560 963d d237 813d 8102 c53d a7e7 93bd
000002d0: 12f3 63bc 1e14 7e3d 18a1 8cbd 9853 9c3c
000002e0: 27cc afbb 8996 803d 8033 13be 1f96 363c
000002f0: 66d4 9fbd 1ad6 123e 76e9 583c a8a7 31ba
00000300: b042 00bd 8a47 d8bc 7d27 3cbd f98f 693d
00000310: d412 9b3d 7520 0c3d df5c a0bd c838 3fbd
00000320: a18f 963c fa1f 1c3b cd90 f33c 9904 13bd
00000330: defd ee3d 2ff1 f23c f084 1dbd 6013 8a3c
00000340: 341d 2d3e 3f96 b33c 0454 0f3d 45dd d23d
00000350: 7f17 0abe 5c0c 0f3d a0ba 02bd 8f3a c73d
00000360: 90e3 663e a373 983b 037f 823d 75c3 3fbd
00000370: 0a90 933b 7bd7 9bbb 38fe 8d3a 99a0 1dbd
00000380: 84fe 913d 6c7f f63d 02a3 a03c fa9f 7ebd
00000390: d6f2 a23c 5aa5 8e3c c855 083e 203d 863d
000003a0: d1b5 8bbc 3d71 483c c49a b0bc a025 a73d
000003b0: 7e21 563d f7c3 35bd f174 423c eec2 693d
000003c0: 0a46 1fbc df16 9fbd 18fa 92bd cffc 023e
000003d0: dd34 c73c 4ffe 26be c316 d3bd c4c7 78bd
000003e0: 25fe 44be 5ccf 0f3e 7399 4fbe 9e7c e73d
000003f0: 402c 533e befa b7bd 622e 863c 9087 a23c
0.11268222 -0.060046848 0.06913663 0.089850135 0.09239264 -0.04801126 -0.08592417 0.035951104
0.035812438 -0.09125058 0.066872336 0.15312879 0.061080594 0.121749304 -0.09114815 -0.094266646
-0.06874012 -0.0678868 0.0212846 0.07022036 -0.04362405 -0.0403087 -0.08677274 -0.001192193
-0.022038024 0.0811507 -0.12665598 -0.13066159 -0.10428715 -0.08450503 0.075386055 -0.03925734
0.14123571 0.21032931 -0.008777698 0.10687997 -0.09431649 -0.1803488 0.018045403 -0.065945506
0.06250541 0.003874157 -0.015056042 0.0672716 0.09798675 0.016405273 -0.15220107 0.10043517
0.015227635 0.18233737 -0.015649302 0.19200674 -0.052952055 -0.074927375 -0.009598269 -0.050588433
-0.01458381 -0.12013903 -0.074682474 0.029601702 -0.04093107 0.03120889 0.094371565 -0.038860403
-0.14082654 0.013567904 0.1712971 0.0686876 -0.079480715 0.07406762 -0.086769536 -0.10071859
-0.017807323 0.008422027 -0.08052238 0.13616572 0.13664171 0.09422689 -0.115701616 0.06099036
-0.16404969 0.059321053 0.0755305 -0.14872612 0.12898672 0.0115777645 -0.12868038 -0.107572824
-0.07918571 0.08324098 -0.006484503 -0.050301205 0.08667556 -0.036097698 -0.006023732 0.031318538
0.07692371 -0.019383736 0.004243919 0.10869061 0.10094238 0.0076888325 0.1412019 0.07268587
0.0038068723 0.10921786 0.0040353597 -0.14947356 0.10638878 -0.07064571 -0.1375169 0.13856484
-0.064602226 -0.16797172 -0.13756803 0.025745863 0.091522284 0.2249533 -0.0010604073 -0.07795151
0.038889915 0.03585693 0.023335554 -0.009185441 0.11449731 -0.095563434 0.071249105 0.11298939
0.069844656 -0.04656103 0.0688717 -0.02751896 -0.038713675 0.053093348 -0.089344606 -0.16567646
0.06536168 0.02601252 0.007939118 -0.08445645 0.071652725 0.06083998 0.04469715 -0.014840475
-0.027357195 0.014508102 0.036615923 -0.018773928 0.020956896 0.048486408 -0.066291556 0.07994155
-0.012877016 -0.16400191 0.03657868 -0.055199623 -0.018048381 0.0017921063 -0.14664355 0.0043127034
-0.034660187 -0.010238599 -0.1424432 -0.0016346826 -0.04134483 0.107744716 0.06903605 -0.03277899
0.07158506 0.036764156 -0.22843005 -0.08809217 0.027337372 -0.0881377 -0.003521652 -0.083310194
0.07342712 0.06309475 0.09619618 -0.072219186 -0.013912933 0.062030904 -0.06866664 0.01908283
-0.005364913 0.06278712 -0.14375114 0.01114419 -0.07804184 0.14339486 0.013239255 -0.0006776997
-0.0313136 -0.0264013 -0.045936096 0.05702207 0.075719506 0.03421064 -0.07830214 -0.04668501
0.018379034 0.002382277 0.029732132 -0.035893057 0.11669515 0.02965602 -0.038456857 0.016854942
0.16905671 0.021922229 0.034992233 0.1029611 -0.13485526 0.034923896 -0.03191626 0.09727966
0.22547746 0.004652457 0.06371882 -0.04681726 0.004503255 -0.004755912 0.0010833209 -0.038483236
0.07128623 0.120360225 0.019608978 -0.062164284 0.019891184 0.01741283 0.13313973 0.065546274
-0.01705447 0.012234029 -0.021558173 0.08161473 0.052278034 -0.04437634 0.011868701 0.057070665
-0.009721288 -0.07768034 -0.07176608 0.12791751 0.0243172 -0.16307949 -0.10307076 -0.060737386
-0.19237573 0.14043945 -0.2027338 0.11303066 0.20622349 -0.08983372 0.016379539 0.019840032

network_body._body_endoder.seq_layers.2.bias f4 [128]
00000000: 0f93 893c 00da 28b7 974e f43c f5e0 c3bc
00000010: 7611 6a3c 9eaa cd3c 114d 9ebc 07a8 acbc
00000020: 7fa5 aabb 0468 d03c 7873 84bc 890b 8fbc
00000030: 7634 e13c aa83 9dbc 2292 d43c 2d5f 37bc
00000040: cd4c 503c b61d 8c3c 2b4d 80bc 3977 62bc
00000050: cb2a b23c d440 a9bc d137 a53b 7055 b8bc
00000060: 45b2 1f3c e0fb e03c 350a 783c 8a46 a73c
00000070: d0f6 b5bc 18fd 95bc e58e cb3c 7134 bdbc
00000080: 211a 8e3c 8a81 a5bc 1706 853c f7e4 aabc
00000090: 215e a3bc 4408 92bc d56b 90bc 264a b1bc
000000a0: 4c31 95bc d80d 863c 4f9d ec3c 130f 563c
000000b0: cae9 88bb 6b05 683c 52aa 97bc 2a23 d33c
000000c0: b30b 8abc 2dbd 4e3c e42f dabc 96d9 513c
000000d0: 56de 70bc 8b30 a6bc 870e 8dbc 9aca f33b
000000e0: f3e4 2bbc e09a d03c 1e32 b2bc 7813 8fbc
000000f0: a9a6 ed3c 9bbd a6bc 0704 313c 56d5 c23c
00000100: ad8f b4bc 8485 a7bc 90c8 dd3c 029b dabb
00000110: 0d27 0d3c f286 bc3c 837a 9fbc 5f59 b33c
00000120: 0a0f 903c c89a a4bc 454c a2bc afa4 d13c
00000130: 65c6 e63c afce 6a3c 9ba5 12ba c131 d93c
00000140: e63a 96bc c4da 4abc 8bdf 51bc 89fa fcbb
00000150: ea3f debb 57ed babc 874e 5e3c 5e85 6ebc
00000160: 1e6f ac3c 2f90 c3bc 7e10 a7bc d2cf a83c
00000170: 6ea4 8dbc 1e34 e03c 0c2b de3c 12ad 9dbc
00000180: 2a22 af3c eba1 883c 2a73 a6bc 7d0b 4fbc
00000190: cc40 14bc 74cb 2a3c ae85 953c 7bc3 a73c
000001a0: 56e4 cbbc 342d f93c 2e4b bfbc 0c47 b73c
000001b0: 4d20 babc 1fe7 e2bc 5ce4 c7bc 2098 c4bc
000001c0: 8c78 cabc 26a8 e53c 5922 b8bc 6a97 b73c
000001d0: 8bde 7cbc a3e6 39bc 85b3 c3bc 979c b4bc
000001e0: 7f6f 833c 0c4d aa3c 3a81 dabc 59b8 41bc
000001f0: 7419 cc3c ad9c 5dbb 6d80 52bc 8b36 99bc
0.016793756 -1.0064337e-05 0.02982263 -0.023910979 0.01428639 0.02510577 -0.019323858 -0.021076215
-0.005207717 0.025440224 -0.016168341 -0.017461555 0.027490836 -0.019227821 0.025948588 -0.011192125
0.012713623 0.017104011 -0.015661797 -0.01382237 0.02174892 -0.020660795 0.005042054 -0.022501677
0.009747093 0.027463853 0.015139152 0.020419378 -0.022212416 -0.018309161 0.02484841 -0.023096295
0.017346444 -0.02020337 0.016238255 -0.020861132 -0.019942345 -0.017826207 -0.017629543 -0.021641802
-0.018211983 0.016364023 0.028883604 0.013065117 -0.0041782605 0.014161448 -0.018513832 0.025773603
-0.016851282 0.012618345 -0.026634164 0.012808224 -0.0147014465 -0.020286819 -0.017218841 0.0074399235
-0.0104915975 0.025464475 -0.021752413 -0.017465338 0.029010134 -0.020354083 0.010804183 0.023783367
-0.022041166 -0.020449407 0.027073175 -0.0066713104 0.008615267 0.023013566 -0.019467598 0.021893201
0.017585296 -0.020093337 -0.019811759 0.025591223 0.028170774 0.014331504 -0.0005594135 0.026512982
-0.018338632 -0.012381259 -0.012809644 -0.007720296 -0.0067825215 -0.02281825 0.013568527 -0.014558164
0.021049079 -0.023872463 -0.020393606 0.020606909 -0.01729032 0.027368601 0.027120136 -0.019247565
0.021378595 0.016678771 -0.020318586 -0.012637016 -0.009048652 0.010424484 0.01825222 0.020478955
-0.024889152 0.030417062 -0.023351278 0.022372745 -0.02272048 -0.027698098 -0.024400882 -0.02399832
-0.024715684 0.028034281 -0.022477316 0.022411067 -0.015433918 -0.011346492 -0.023889313 -0.022047324
0.016044376 0.020788692 -0.026672948 -0.011823737 0.02491448 -0.003381531 -0.012848002 -0.018702766

action_model._discrete_distribution.branches.0.weight f4 [4, 128]
00000000: 18a0 9fbc 88b6 343c d9d4 6abc ab54 a93c
00000010: 4c04 94bc ef8b a9bc 7050 203c 7f51 5e3c
00000020: a20b 393c 5c18 93bc 1858 c83c f84c ad3c
00000030: d167 9abc 87e9 623c a265 a1bc ed29 9a3c
00000040: b550 86bb 1c5e 3abc e797 a63c 3258 86bb
00000050: 54f5 90bc 6fcf 803c 620f 00bc f342 d73c
00000060: 2e27 58bc c760 2dbc 4acc af3b 0d4a 60bc
00000070: 115d 1c3c fc75 093d 78c6 8fbc ab41 e03c
00000080: b6db 37bc 253e b13c 1014 a3bc e047 173b
00000090: 9625 ad3c a0b6 2c3c adad 19ba 69c5 0e3d
000000a0: 0935 463c e400 4fbc a816 ccbc 1165 553c
000000b0: 080d a53b 2763 4b3a 4d02 9bbb 4a77 c5bc
000000c0: 56d6 bf3b 5ab4 a5bc 7b42 963c 9a76 1abc
000000d0: 4539 bd3c 46b3 ca3c 7cf0 0a3d bab9 92bc
000000e0: 20d2 aa3b 2da8 50bc c97d 953c 8de1 833c
000000f0: 6c7d 69bc d120 9a3c 8fa8 48bc 0ea3 aebb
00000100: 7135 943c 9b58 c73c 241f 61bc 3bd2 063c
00000110: b020 91bb f7c1 96bc 4f32 d3bb 81e0 813b
00000120: 7335 b2bc 1b5d 6dba edd1 e43c 8c56 e7bc
00000130: dedc 74bb 2de2 6abc 9fb0 aa3b cac3 61bc
00000140: ce2e b23c 0ac4 a4bc 045f a7bb 2008 73b9
00000150: 5d87 6c3c 2b72 f43b f6f1 ccbc 7fdd 7a3c
00000160: 1706 8dbc 9fa6 acba dab0 a33c 990f f0bc
00000170: 2828 ad3c 110e c7bc c345 6ebb 0e98 133b
00000180: cdfe a6bc 7dc3 80bc 5403 b63c f58f 693c
00000190: c81f d43c ed2e 00bc fa41 0cbc 10d7 ecbc
000001a0: f8b2 993c c6ae 91bc 1ae5 ce3c a3ad 71bc
000001b0: 1bf9 b43c b305 863c b9de 7f3c 52ea 3f3c
000001c0: 9d92 ca3c 4c1e a6bc c113 0d3d 8c1e a8bc
000001d0: 54b8 f13c 2c82 1a39 9ef9 a53c 979a 5f3c
000001e0: fe53 73bb 1e6e 9abc ffce 1a3c 55cd f13b
000001f0: a5f7 33bc 9328 27bc 4a8f 413c d9f7 8f3c
00000200: f5d6 9a3c 71c8 f0bb 6648 d23c dfdf 1fbd
00000210: 9a30 cc3c a57d 133d 8f1e 06bd 24cf 15bd
00000220: eae6 9bbb 3ab1 1d3d 1652 e6bc f4bb d4bc
00000230: 7872 073d 23ad fbbc cda1 e23c 16b8 8fbc
00000240: dff5 cf3c f34b ce3c 180b cabc 5519 a8bc
00000250: 80ed 2f3d ac74 1bbd 104c ab3c 0653 b0bc
00000260: 8dc9 3b3c ed3a 463d a548 ca3c f3c8 2c3d
00000270: bce5 09bd 6c64 a4bc e6ab 033d 061e 1abd
00000280: 2638 003d 35ea f5bc b109 ed3c f9ac f1bc
00000290: 5c27 1cbd 1803 f5bc cea0 3abc b49e 17bd
000002a0: 4e49 10bd 9400 1b3d 75d4 173d 2fc7 113d
000002b0: 729a 903b 3f48 f13c 8c9d f7bc 6820 243d
000002c0: 39d6 02bd fbba e43c df52 00bd f1bc e63c
000002d0: c846 28bd 2f93 03bd a10d 0ebd bb8a ad3c
000002e0: 74a0 b8bc a71b 123d 8a96 3dbd 1983 06bd
000002f0: 7a4e 2f3d 2831 04bd 6cd4 8d3c 3fef 0e3d
00000300: 690f 0fbd e4df c3bc 1845 1b3d 48ed cebc
00000310: df05 ca3c 5f1f 063d 3248 0cbd 6523 333d
00000320: 994b b23c 5531 fcbc ad63 0ebd 8f8d 133d
00000330: 3e9f 4c3d 1792 0f3d 0a26 8bbb 1bcf 0a3d
00000340: 7d49 fbbc efed 53bc 3093 f1bc 78ae f5bc
00000350: 3c5a dbbb b81e 05bd c760 cd3c e2af d8bc
00000360: 6c05 ed3c 8f81 29bd 9bbc 75bc 776f fb3c
00000370: 3476 11bd fb6e 3a3d f326 1f3d 3c52 e5bc
00000380: 7e0e eb3c 4a15 f13c 502e 29bd ae9f 24bd
00000390: 5674 99bc d6cc c73c e2a6 f93c 4828 f83c
000003a0: f434 01bd d64a 193d 172d e3bc 5561 ff3c
000003b0: cffd fdbc af88 62bd 1b34 50bd 4324 11bd
000003c0: 783e 21bd 634c fe3c 955d 14bd 3b00 3b3d
000003d0: 36b1 f1bc ef4e 98bc 13cb 0dbd b34f e2bc
000003e0: c18e 063d d23c f83c c2a5 09bd f7d6 dcbc
000003f0: 989e 113d e9e4 233c ec3d 1abc c5bf c8bc
-0.019485518 0.011029847 -0.014332973 0.020670256 -0.018068455 -0.020696608 0.009784803 0.013569235
0.011294277 -0.017955951 0.024456069 0.021154866 -0.018848332 0.013849623 -0.019701783 0.01881882
-0.0040989765 -0.0113749765 0.020336105 -0.004099869 -0.017695107 0.015723912 -0.007816168 0.026277041
-0.013192935 -0.010582156 0.0053649293 -0.01368953 0.009543673 0.033559784 -0.017550692 0.027375063
-0.011221817 0.021636078 -0.019907027 0.0023083612 0.021136086 0.010541588 -0.00058623665 0.034856234
0.0120976055 -0.01263449 -0.024913147 0.013024584 0.005036954 0.00077586103 -0.004730499 -0.024104733
0.0058544083 -0.0202276 0.018342247 -0.009427691 0.023098597 0.024743687 0.03392075 -0.017910827
0.005213037 -0.012735409 0.018248456 0.016098762 -0.014251094 0.018814476 -0.012247219 -0.005329496
0.01809189 0.024334243 -0.013740335 0.008228834 -0.0044289455 -0.018403037 -0.0064452062 0.0039635305
-0.021754002 -0.00090547063 0.027932132 -0.028239511 -0.0037363092 -0.014336151 0.005209043 -0.01377959
0.021750834 -0.02011301 -0.0051077623 -0.00023177313 0.01443657 0.007459899 -0.02501772 0.015311598
-0.017214818 -0.0013172216 0.01998179 -0.029304313 0.021137312 -0.0242987 -0.00363575 0.0022521052
-0.02038517 -0.015718216 0.022218384 0.014255513 0.02589406 -0.007823688 -0.008560652 -0.028911144
0.018762097 -0.017783534 0.025255729 -0.014750871 0.022091439 0.01636014 0.015617066 0.011713581
0.024728114 -0.020278119 0.034442667 -0.020522378 0.02950684 0.00014735077 0.020260628 0.013647697
-0.003712892 -0.018851336 0.009448766 0.007379214 -0.010984336 -0.010202545 0.011813948 0.017574238
0.018901328 -0.007348113 0.025669288 -0.03903186 0.024925519 0.036008496 -0.032743987 -0.036574498
-0.0047577517 0.038499095 -0.028115314 -0.02596853 0.03306815 -0.030722206 0.027665043 -0.017543834
0.025385795 0.0251827 -0.024663493 -0.020519892 0.042951107 -0.037953064 0.020910293 -0.021523964
0.011461628 0.04839604 0.024692843 0.042183828 -0.033666357 -0.020067416 0.032146357 -0.03762629
0.031303547 -0.030018905 0.028935285 -0.029501425 -0.038123474 -0.029908702 -0.011390878 -0.037016585
-0.03522616 0.03784235 0.03706785 0.035590347 0.0044129426 0.029453395 -0.030226491 0.040069968
-0.03194258 0.02792119 -0.031329032 0.028166266 -0.041083127 -0.032122787 -0.034680966 0.021184316
-0.022537448 0.035670903 -0.046286143 -0.03283987 0.04279945 -0.03227344 0.017313205 0.03489613
-0.034926806 -0.02391047 0.03790769 -0.025259629 0.024661003 0.03274476 -0.03424854 0.043734927
0.021764563 -0.030785242 -0.034763027 0.036023673 0.049956553 0.03505143 -0.004246478 0.033888917
-0.03067469 -0.012935146 -0.02948913 -0.02999042 -0.0066941064 -0.0325 0.025070561 -0.026451055
0.02893325 -0.041383322 -0.01499858 0.030692799 -0.035513118 0.045515995 0.038855504 -0.027993314
0.028693434 0.029429097 -0.041303933 -0.040191345 -0.018732231 0.024389666 0.030475084 0.030292645
-0.03154464 0.037424885 -0.027731461 0.031174341 -0.031004814 -0.055306133 -0.05083094 -0.035434972
-0.039366215 0.031042283 -0.03622206 0.045654517 -0.029503446 -0.018592326 -0.034617495 -0.027625894
0.032850984 0.030302439 -0.033605345 -0.026957972 0.035551637 0.010003307 -0.009414177 -0.024505505

action_model._discrete_distribution.branches.0.bias f4 [4]
00000000: fed2 3fbc db05 e03c f5f5 8cbc 8ee2 17bc
-0.011708019 0.027346542 -0.017207125 -0.009270323

action_model._discrete_distribution.branches.1.weight f4 [2, 128]
00000000: 95d4 bfbb 2c0a 83bc 54dd 473b 18d8 bbbc
00000010: 265b 463b 8943 253c ed6b ec38 621d 31bc
00000020: cc31 6d3b ab9d cb3c 3e79 66bc 8c02 a0bc
00000030: f2bd 8e3b 81d1 bb3b 448e 4c3b 3f7c 343b
00000040: d368 113b 737c bf39 e1b9 69bc 6f56 a63c
00000050: 5251 5abc 939d a03b 3214 e33b 6db3 383b
00000060: 3f25 733c 56b2 16ba a38e 323b 5b09 09bc
00000070: ebd8 6abb 6665 943a 0845 003c 3c8c 91bc
00000080: f4af 433b 87e1 0fbb 2209 1f3c 72d0 fabb
00000090: 766c f8bb b254 2e3c 5d35 09bb 723d a13a
000000a0: 11f8 b5bc 061f 44bc 2ec3 833a 4232 8aba
000000b0: 232f 83bb 8f05 c0bb 2e1a 76ba 5c40 723a
000000c0: c063 6abb 1339 903b d69c 59bb bc47 a83a
000000d0: bbc6 4c3c 2380 983c bd46 45bb 2cee 483c
000000e0: 4d0a b6bb 68e3 0ebb 3825 13b9 9f28 e9bb
000000f0: b6b0 8c3b 5835 f8ba 9329 a03a 4489 6d3b
00000100: 1cee 833c a867 4cbc 2f36 ebba 6361 6bbc
00000110: 5e81 d73b a34f 08bc 3a29 23bb 7268 3f3c
00000120: dc74 403b 34d8 7abb 3eb1 d03a 4cd6 c0bb
00000130: 7ecb 533c af7f d23b ee46 a9bb 2d68 43bb
00000140: 6f64 37bc 487b aa3a 4fc7 06bd 262a bfbb
00000150: 03d0 a3bb ad83 95bb a3d1 803b e9d4 00ba
00000160: e7a6 3abc 1b1e 01bb 6e93 0abb 2564 a93c
00000170: 0548 293b 7f7c 5f3b 2d58 df38 23e4 18bb
00000180: 36cc 2b3b 5aba af3c 54bc c5bb 88a4 523b
00000190: 93e4 313c 4bb6 583b 64f2 2dbc 8394 d13b
000001a0: 06df 3fbc a47c 9fbb 4ce6 aa3a 700e 423c
000001b0: 63a3 c93b 63d9 27bb c7bc 5ebb 7ea3 123b
000001c0: 2832 1dbc c85e 3bbc e60d 05bc f9d4 813a
000001d0: 98f5 573c 6d67 4c3b 66a2 07bb 2020 5cbc
000001e0: e46a 403a 5be4 1ebc b4fa 1a3c 1d28 7f3b
000001f0: 0793 26bb 6be1 363c 6ecb 82bb b964 7ebc
00000200: e65f bdbb 8b03 e3b9 f9d8 1a3a 5a0f 08bc
00000210: 6b92 273c 54fc 5dba 7508 93bb 1fe8 aa3c
00000220: e806 37bc 74fe 9fba 9878 903b 3c50 9b3a
00000230: 689c d13b 1f99 e4bb 5637 d1bb 6163 2c3c
00000240: d6ba 2e3c 4a4b 0abc a4a8 843c 0346 8b3b
00000250: 2d92 5f3c 91ed b6bb 340b c8bb 4d2a 813b
00000260: 1408 0ebc 43d4 50bc de11 5ebc e91c 0dbb
00000270: 6924 56bc f8bc 533c 3c6d e23b 1d99 383b
00000280: ca9a 913c bad7 0cbc 20aa 483c 3954 283c
00000290: a998 2dbc 263e 333c cbbe c6bb c143 463c
000002a0: 2152 0e3c eb4f fe3b 06aa 2b3c 870e 543c
000002b0: 5155 6fbc 15bc 253b e5c1 5b3b 152e 17bb
000002c0: 0a7a a13b d104 59bc 343a 9e3b fe1a fe3a
000002d0: 4397 24bc 6b7e 963b b2af 963b 908d 1c39
000002e0: da52 91bb aa54 e83a fec7 42bc 3cc0 d7bb
000002f0: dbf1 36bc fa85 693c ebdf 42bc 7edd 39bc
00000300: af71 003c 753e db3b d7b1 92bb cf4d 983c
00000310: 7194 6839 3b32 f4b9 90ff 283a 50cc a03b
00000320: 56c3 bbba 3562 fd3b 8d18 a53b f28e 97bb
00000330: c739 36bb c8a0 1cbc 3d1a 4f3b cd8e d3b6
00000340: 97f3 193b 0d2c 27bc 90ab 403b d949 16bc
00000350: 7b9b bfbb 8d54 2b3c d55d 7fbc ba5c a03c
00000360: b969 cdbb ebb3 063b ef5a 0f3c 7d91 87bb
00000370: 9582 94bc 5737 cf3a f435 0dbc 3d3c 9bba
00000380: 97b7 e23a ef43 8f3c 3d62 a53b b30d a0bb
00000390: 4dfc d1bb b029 d1bb 9bc3 bbba 889f 05bc
000003a0: 2d42 6bbc d3cf 00bc 0866 04bc a3c2 16bb
000003b0: 2109 2b3c 0bea b538 ad73 b13c 8a39 0f3b
000003c0: 26b7 babb 6617 98bc d32a c93b 4410 a63c
000003d0: 1062 e83b b6d7 0f3c 2eb1 a23b a489 6a3b
000003e0: 4065 26bc 1047 a5bb 470a 0e3c b120 dabb
000003f0: 49ac 9138 5d9d 46bc d39b 86bc 3d63 ac3a
-0.005854199 -0.015996061 0.0030496912 -0.02293019 0.003026673 0.010086902 0.0001127346 -0.010810228
0.0036193011 0.024855455 -0.014066992 -0.019532464 0.0043561393 0.005731762 0.0031212727 0.0027539877
0.0022187724 0.0003652308 -0.014265508 0.020304887 -0.013325052 0.004901597 0.0069298977 0.0028183118
0.014840423 -0.000574862 0.0027245663 -0.008364047 -0.003583486 0.0011321723 0.007828958 -0.017767064
0.0029859515 -0.0021954493 0.009706767 -0.007654243 -0.007581289 0.01064031 -0.0020936348 0.0012301637
-0.022213014 -0.011970287 0.0010052675 -0.0010543542 -0.004003422 -0.0058600376 -0.00093880564 0.00092411577
-0.0035765022 0.004401335 -0.0033205054 0.0012838761 0.012498553 0.018615788 -0.0030101978 0.012263816
-0.005555427 -0.0021803025 -0.00014032878 -0.007115438 0.0042935265 -0.0018936796 0.0012219421 0.0036245147
0.01610475 -0.012475885 -0.0017945225 -0.0143664805 0.006576701 -0.008319768 -0.00248964 0.011682617
0.0029366529 -0.003827584 0.0015921963 -0.005884921 0.012926934 0.0064239125 -0.005165926 -0.0029816732
-0.011193379 0.0013006711 -0.03290492 -0.005833882 -0.004999162 -0.004562816 0.0039312406 -0.00049145386
-0.011392332 -0.0019701782 -0.0021145004 0.020677635 0.002583028 0.0034101305 0.00010649893 -0.002332934
0.0026214249 0.021451164 -0.0060344134 0.0032141525 0.010857719 0.003306764 -0.010616872 0.006395878
-0.011710888 -0.0048671532 0.0013038605 0.0118442625 0.0061535104 -0.002561175 -0.0033987032 0.002237528
-0.009594478 -0.011436172 -0.008120989 0.000990539 0.013181113 0.0031189576 -0.0020696162 -0.013435394
0.00073401467 -0.009697999 0.009459186 0.0038933821 -0.0025417225 0.011162142 -0.003991536 -0.015526944
-0.0057792543 -0.00043299454 0.0005906965 -0.008304441 0.01022778 -0.0008468081 -0.004487092 0.020862637
-0.01117108 -0.001220657 0.004408907 0.0011849473 0.006396819 -0.0069762613 -0.0063847704 0.010521741
0.010664662 -0.008440802 0.016193695 0.0042502894 0.013645691 -0.0055825193 -0.006104851 0.00394181
-0.008668918 -0.01274592 -0.013554065 -0.0021532124 -0.013070204 0.012923472 0.0069099944 0.0028167435
0.017774004 -0.008596355 0.012247592 0.0102739865 -0.010595479 0.01094011 -0.0060652248 0.012101115
0.008686573 0.007760992 0.010477548 0.012942917 -0.014607743 0.0025289108 0.0033532318 -0.0023068239
0.0049278783 -0.013245777 0.0048287157 0.0019386706 -0.010045829 0.004592707 0.004598581 0.00014930055
-0.0044349255 0.0017725427 -0.011888502 -0.0065841954 -0.011166061 0.014253134 -0.0118942065 -0.011344312
0.007839604 0.006690795 -0.0044767666 0.01859179 0.00022180543 -0.0004657673 0.0006446773 0.0049071684
-0.0014325182 0.0077326545 0.005038327 -0.0046251947 -0.0027805434 -0.009559818 0.0031601333 -6.304914e-06
0.0023491138 -0.010203374 0.0029399134 -0.00917288 -0.005847392 0.01045717 -0.015586336 0.019575465
-0.0062687066 0.0020554017 0.008749708 -0.0041372166 -0.018128673 0.0015809339 -0.00861882 -0.0011843514
0.0017297146 0.017488448 0.0050471113 -0.0048844456 -0.0064082504 -0.0063831434 -0.0014325263 -0.008155711
-0.014359039 -0.007862049 -0.008080967 -0.0023004196 0.010439188 8.6743465e-05 0.021661604 0.0021854364
-0.0056981025 -0.018565845 0.0061391382 0.020271428 0.007091768 0.008779457 0.004964969 0.0035787607
-0.010155976 -0.0050438717 0.0086694425 -0.006656729 6.9462294e-05 -0.012122479 -0.016431725 0.0013152134

action_model._discrete_distribution.branches.1.bias f4 [2]
00000000: b2af ee3a 94af eeba
0.001821032 -0.0018210285

exp_avg f4 [128, 4]
00000000: 4c2c f7b7 e14f a0b5 69b7 02b8 898f a9b5
00000010: 9846 ed33 76e4 9931 5218 8134 1675 2732
00000020: 3fa0 5fb7 560a 11b5 cd2e 82b7 87de 28b5
00000030: dfb2 0f37 c566 ba34 101d 2437 fae1 d434
00000040: 4e84 1535 7df1 c132 f233 79b5 c8a1 21b3
00000050: c0aa e836 62e7 9634 c4c3 0337 afeb aa34
00000060: ac89 5135 09e7 0733 d5c9 8435 9e3f 2c33
00000070: 5774 22b8 feba d2b5 5320 34b8 5ca7 e9b5
00000080: b9af 99b6 285b 47b4 faee c5b6 3660 80b4
00000090: c67c ca35 5c54 8333 2c6e e835 02c0 9633
000000a0: 7fe0 25b8 872b d7b5 fbbb 33b8 3325 e9b5
000000b0: 1e7d 01b8 e9f7 a7b5 b350 0db8 2e4f b7b5
000000c0: cdb7 9736 a0cd 4434 e7e6 a436 aee7 5534
000000d0: 4167 1335 da34 bf32 bf4e 1635 4af9 c232
000000e0: db5d 9636 ec0c 4334 75be ad36 f35f 6134
000000f0: c5b5 8637 cdbd 2e35 91be 8d37 b6dd 3735
00000100: 6de5 a7b7 08ca 59b5 6172 bab7 28da 71b5
00000110: f278 d536 4574 8a34 56ee be36 16ab 7734
00000120: 3697 ee36 e9be 9a34 51fb c936 7400 8334
00000130: bc82 9cb6 7605 4bb4 ff3b b1b6 53e7 65b4
00000140: d6cf 1bb7 2b1d cab4 3e83 27b7 b24a d9b4
00000150: e609 81b5 7e62 27b3 3fb0 35b5 28ae ebb2
00000160: a052 4937 0493 0235 1251 5e37 c830 1035
00000170: 2cae a037 dd6d 5035 7112 a637 4d6c 5735
00000180: 69e9 5f37 bd39 1135 3ce6 7937 a714 2235
00000190: df4a 6537 0eb7 1435 d7d9 6f37 2a90 1b35
000001a0: 473d 6d35 8fde 1933 e363 8b35 e4cf 3433
000001b0: 27a1 2f37 15d2 e334 4965 4437 fac1 fe34
000001c0: d16f 9c37 a3ec 4a35 a04e a637 50ba 5735
000001d0: 3fbf 4a37 807f 0335 e4f4 6a37 7e63 1835
000001e0: 8e03 18b7 1130 c5b4 5e12 2bb7 a8e8 ddb4
000001f0: bf0f 8cb8 e5ae 35b6 b3cf 97b8 b2ec 44b6
00000200: 1f54 0db8 9b53 b7b5 2de6 14b8 9a25 c1b5
00000210: 64f1 c7b7 f8ad 81b5 e45d d3b7 c216 89b5
00000220: 5ee7 9833 355b 4631 9e34 a934 9a7d 5b32
00000230: b071 76b6 6bd7 1fb4 10e2 b4b6 3ea3 6ab4
00000240: 8dfc 2437 cd03 d634 523e 2537 1a59 d634
00000250: aa84 0837 4b16 b134 1306 1837 4033 c534
00000260: d3d1 95b6 2457 42b4 3003 e5b6 7d88 94b4
00000270: 02b5 71b5 40c4 1cb3 f0f5 e7b4 ca71 96b2
00000280: 8919 fdb6 d127 a4b4 41b2 d6b6 783f 8bb4
00000290: fde5 33b7 375c e9b4 6f81 54b7 20d4 09b5
000002a0: b5a8 96b6 c26e 43b4 7c14 d4b6 8b8d 89b4
000002b0: eba7 edb7 af23 9ab5 bae0 00b8 062d a7b5
000002c0: bc7e ec36 1563 9934 0fcf 0537 9792 ad34
000002d0: 20fe 62b7 3e39 13b5 3707 7db7 171c 24b5
000002e0: 43cb 0cb8 1da2 b6b5 5f46 1cb8 e7b6 cab5
000002f0: 6dcf 9137 c623 3d35 8a31 8437 fe79 2b35
00000300: 2716 5536 5634 0a34 8a98 2d36 ac2e e133
00000310: 7429 1537 c37c c134 666e 0837 2bf9 b034
00000320: 7590 b436 2c39 6a34 ad78 cc36 0c9e 8434
00000330: 7324 0238 e4d0 a835 f69b ff37 93c8 a535
00000340: 1f5b b134 500f 6632 96c5 3935 0efa f032
00000350: 310e 4c37 dd58 0435 8dc2 6637 ceaa 1535
00000360: 669f 0a37 fad0 b334 634a f436 4471 9e34
00000370: a586 9536 c1f5 4134 426b a236 2faf 5234
00000380: c2f8 cf36 02e3 8634 a6dc dd36 49e5 8f34
00000390: 8793 85b6 5345 2db4 a261 acb6 869b 5fb4
000003a0: a833 4736 f532 0134 f1f1 7a36 50c2 2234
000003b0: 1d01 f936 1a80 a134 1da0 1037 889a bb34
000003c0: d2be a9b6 2c30 5cb4 c823 b9b6 4628 70b4
000003d0: 9293 a4b6 227c 55b4 e236 d6b6 dcef 8ab4
000003e0: d69a d237 5098 8835 9337 e037 706c 9135
000003f0: 5127 3db7 575d f5b4 3810 56b7 a5d6 0ab5
-2.9465322e-05 -1.1944177e-06 -3.116523e-05 -1.2633255e-06 1.10490134e-07 4.478859e-09 2.4045818e-07 9.747302e-09
-1.3329146e-05 -5.403175e-07 -1.5519001e-05 -6.2908697e-07 8.565111e-06 3.4719974e-07 9.781928e-06 3.9652497e-07
5.5699354e-07 2.2577973e-08 -9.283532e-07 -3.7632873e-08 6.9340167e-06 2.810803e-07 7.853789e-06 3.183645e-07
7.8058906e-07 3.1642262e-08 9.893507e-07 4.010473e-08 -3.873216e-05 -1.5700641e-06 -4.294545e-05 -1.7408561e-06
-4.580212e-06 -1.8566482e-07 -5.898878e-06 -2.391186e-07 1.5086487e-06 6.115508e-08 1.7317411e-06 7.019845e-08
-3.9548144e-05 -1.6031416e-06 -4.2851996e-05 -1.7370679e-06 -3.087252e-05 -1.2514621e-06 -3.3692177e-05 -1.3657607e-06
4.521548e-06 1.8328728e-07 4.9144614e-06 1.9921455e-07 5.491202e-07 2.225936e-08 5.5993945e-07 2.2697936e-08
4.4812746e-06 1.8165491e-07 5.177974e-06 2.0989664e-07 1.6058688e-05 6.509625e-07 1.689725e-05 6.8495444e-07
-2.0014786e-05 -8.1132794e-07 -2.222619e-05 -9.0096955e-07 6.3619746e-06 2.57891e-07 5.690187e-06 2.3065908e-07
7.110556e-06 2.882364e-07 6.019524e-06 2.440098e-07 -4.664382e-06 -1.8907835e-07 -5.2819955e-06 -2.1411442e-07
-9.2871105e-06 -3.7646655e-07 -9.984533e-06 -4.0473748e-07 -9.61413e-07 -3.8972296e-08 -6.7684226e-07 -2.7436798e-08
1.1999771e-05 4.864271e-07 1.3251107e-05 5.3715166e-07 1.9154591e-05 7.764591e-07 1.979733e-05 8.025134e-07
1.3346181e-05 5.410073e-07 1.4895162e-05 6.0379756e-07 1.3666896e-05 5.5400676e-07 1.429623e-05 5.7951786e-07
8.837855e-07 3.5825504e-08 1.0385378e-06 4.209859e-08 1.0468334e-05 4.24349e-07 1.1706093e-05 4.7452323e-07
1.8648718e-05 7.5595216e-07 1.9825355e-05 8.036486e-07 1.2084666e-05 4.898684e-07 1.4004505e-05 5.676919e-07
-9.060734e-06 -3.6729082e-07 -1.0196671e-05 -4.1333737e-07 -6.678653e-05 -2.7072904e-06 -7.238928e-05 -2.934405e-06
-3.3695364e-05 -1.3658895e-06 -3.5500318e-05 -1.4390564e-06 -2.3835055e-05 -9.66188e-07 -2.5196881e-05 -1.0213919e-06
7.120137e-08 2.8864637e-09 3.1516987e-07 1.2776036e-08 -3.6723031e-06 -1.4886398e-07 -5.390735e-06 -2.1852335e-07
9.833963e-06 3.9863372e-07 9.8492765e-06 3.9925436e-07 8.13712e-06 3.298504e-07 9.06132e-06 3.67314e-07
-4.464973e-06 -1.809936e-07 -6.825103e-06 -2.7666457e-07 -9.00429e-07 -3.650007e-08 -4.3206046e-07 -1.7514044e-08
-7.5429602e-06 -3.057635e-07 -6.3984485e-06 -2.5936947e-07 -1.072278e-05 -4.3466727e-07 -1.2666321e-05 -5.134516e-07
-4.4899884e-06 -1.8201084e-07 -6.320477e-06 -2.5621225e-07 -2.8330795e-05 -1.1484279e-06 -3.072687e-05 -1.2455573e-06
7.048102e-06 2.8570562e-07 7.975627e-06 3.233042e-07 -1.3529818e-05 -5.4845066e-07 -1.5081655e-05 -6.1135637e-07
-3.3567903e-05 -1.3607238e-06 -3.7258837e-05 -1.5103404e-06 1.7381937e-05 7.0460044e-07 1.5758695e-05 6.3879986e-07
3.1752368e-06 1.2871291e-07 2.5867798e-06 1.04858685e-07 8.890744e-06 3.6039827e-07 8.131936e-06 3.2963848e-07
5.381235e-06 2.1813747e-07 6.0937223e-06 2.470191e-07 3.102836e-05 1.2577771e-06 3.0470994e-05 1.2351833e-06
3.3035118e-07 1.3391244e-08 6.9205396e-07 2.8053389e-08 1.2162652e-05 4.9303145e-07 1.3754366e-05 5.575538e-07
8.262554e-06 3.34934e-07 7.2804264e-06 2.9512205e-07 4.4562207e-06 1.806393e-07 4.8404627e-06 1.9621505e-07
6.19804e-06 2.5124615e-07 6.612e-06 2.6802653e-07 -3.9808833e-06 -1.61371e-07 -5.1373654e-06 -2.0825073e-07
2.9683379e-06 1.2032599e-07 3.7393731e-06 1.5158116e-07 7.420908e-06 3.0081793e-07 8.620348e-06 3.49439e-07
-5.058807e-06 -2.0506621e-07 -5.517595e-06 -2.2366393e-07 -4.9047603e-06 -1.988233e-07 -6.384086e-06 -2.5879024e-07
2.5106052e-05 1.0177118e-06 2.672876e-05 1.0834901e-06 -1.1274432e-05 -4.570272e-07 -1.275917e-05 -5.1721355e-07

exp_avg_sq f4 [128, 4]
00000000: d529 3133 130d 952e 4941 3133 c220 952e
00000010: daae 562d e09d b428 fcbb 702d d588 ca28
00000020: e0c8 ce33 caf8 2d2f a0d1 ce33 2e00 2e2f
00000030: 6abf 3832 7f6e 9b2d 6c22 3932 d7c1 9b2d
00000040: 4fca 5e33 2070 bb2e 7dd6 5e33 497a bb2e
00000050: e8d2 ba30 ac2d 1d2c 8e4c bc30 596b 1e2c
00000060: 8d9a 602e a9f6 bc29 3f2f 6c2e e3b4 c629
00000070: fd1c 4b34 17e2 aa2f 935e 4b34 3419 ab2f
00000080: 5cb8 3133 ee84 952e bbb4 3133 d781 952e
00000090: e99f 8330 027a dd2b 2cba 8330 28a6 dd2b
000000a0: b0ee 1234 d03b 772f de03 1334 7f5f 772f
000000b0: 658c 6c33 3303 c72e d1da 6c33 3e45 c72e
000000c0: ee08 1831 bcd1 7f2c 6932 1831 cd0b 802c
000000d0: 053b 642c ce03 c027 4438 662c 42b0 c127
000000e0: 0d78 7530 8984 ce2b 02a5 7730 2559 d02b
000000f0: cbfc 0133 d1b8 5a2e 3cfa 0133 63b4 5a2e
00000100: ad07 7d33 0de1 d42e bc4f 7d33 9c1d d52e
00000110: 1d85 c532 6a2d 262e 8e9a c532 633f 262e
00000120: c574 0a33 aef8 682e 6868 0a33 dce3 682e
00000130: 4378 7632 0a5c cf2d 2585 7632 f966 cf2d
00000140: 567a c531 4824 262d 715a c531 7509 262d
00000150: 780d 282f cd62 8d2a 35ec 2b2f 56a4 902a
00000160: c40b 4632 9e9e a62d 0c32 4732 3796 a72d
00000170: 3588 c332 2781 242e 4e73 c332 9b6f 242e
00000180: 9e80 ed32 aed0 472e 1eee ed32 d12c 482e
00000190: adcc c131 1f0c 232d 75b0 c331 06a3 242d
000001a0: 610b 6b2f 51bf c52a 9f11 6c2f da9b c62a
000001b0: 6fcd 6332 80a7 bf2d 9223 6432 ffef bf2d
000001c0: 41d3 0233 9e21 5c2e 23c2 0233 cb04 5c2e
000001d0: 81b0 fb32 4bc0 532e e239 fc32 dc33 542e
000001e0: 737e a832 c0c1 0d2e 2d95 a832 f8d4 0d2e
000001f0: 8bdc e434 b08b 4030 4c2b e534 e8cd 4030
00000200: e1d1 6a33 f08e c52e 5de3 6a33 ab9d c52e
00000210: 08d4 cd32 c12a 2d2e 7dfe cd32 884e 2d2e
00000220: 101d 9e30 2506 052c 2809 9e30 58f5 042c
00000230: 1072 f633 cd56 4f2f 7f78 f633 485c 4f2f
00000240: 876e 9a30 31ed 012c 0d9d 9b30 a2eb 022c
00000250: 7201 ac31 18b6 102d 4841 ac31 e1eb 102d
00000260: 91a1 0834 a1e6 652f 26b6 0834 4909 662f
00000270: ddda 4130 0118 a32b 86ff 4330 98e5 a42b
00000280: 607a 4a33 3c59 aa2e c148 4a33 832f aa2e
00000290: 9485 b733 7866 1a2f b18b b733 b26b 1a2f
000002a0: 8545 bb33 0a8e 1d2f 9759 bb33 079f 1d2f
000002b0: 4ae0 6a34 029b c52f 4fdc 6a34 b797 c52f
000002c0: 2b7b ca31 e259 2a2d 4817 cb31 4add 2a2d
000002d0: 37e0 3933 7761 9c2e 7b0a 3a33 fe84 9c2e
000002e0: 81c2 e933 a3aa 442f cafc e933 97db 442f
000002f0: 3dce 5833 1467 b62e 51df 5833 6875 b62e
00000300: a91a 2033 ddb2 862e 1915 2033 34ae 862e
00000310: a766 d932 48e7 362e d596 d932 c70f 372e
00000320: 2785 9532 8296 fb2d 2d82 9532 9c91 fb2d
00000330: 1ce0 fc32 b6bf 542e b702 fd32 dcdc 542e
00000340: 51b0 9a2d 7c24 0229 bf96 ff2d 1d08 5729
00000350: 1de6 b732 9fb7 1a2e 5c24 b832 0dec 1a2e
00000360: 1ff7 f231 4769 4c2d 990f f431 4e55 4d2d
00000370: 328e 2730 abf7 8c2b 971f 2830 fe71 8d2b
00000380: 4c9c 0e31 26f6 6f2c c478 0e31 90ba 6f2c
00000390: 7f00 fb31 262c 532d b8e2 fb31 97ea 532d
000003a0: 22af f130 5955 4b2c d3af f330 aa04 4d2c
000003b0: 6145 ad32 a1c6 112e f340 ad32 02c3 112e
000003c0: 6fff 0632 e926 632d af1e 0732 7b5b 632d
000003d0: 9b9e 4f33 9dac ae2e 9ea8 4f33 14b5 ae2e
000003e0: 8dc7 9f33 ec6c 062f 56a8 9f33 b952 062f
000003f0: d6de b633 23da 192f 3ce8 b633 23e2 192f
4.124907e-08 6.778058e-11 4.12704e-08 6.7815545e-11 1.22033165e-11 2.0052482e-14 1.36841614e-11 2.2485847e-14
9.6291615e-08 1.5822646e-10 9.630753e-08 1.5825272e-10 1.0753732e-08 1.767053e-11 1.0776244e-08 1.7707542e-11
5.18724e-08 8.523693e-11 5.188348e-08 8.525498e-11 1.3593224e-09 2.2336395e-12 1.3700558e-09 2.251274e-12
5.1068972e-11 8.391666e-14 5.370215e-11 8.824345e-14 1.8916394e-07 3.1083466e-10 1.8940254e-07 3.1122627e-10
4.1378698e-08 6.7993486e-11 4.1375397e-08 6.7988e-11 9.576954e-10 1.5736858e-12 9.584418e-10 1.5749112e-12
1.3684144e-07 2.2485769e-10 1.3691849e-07 2.2498446e-10 5.507572e-08 9.0500406e-11 5.5147044e-08 9.061772e-11
2.2123987e-09 3.6354105e-12 2.2147566e-09 3.639289e-12 3.2433511e-12 5.329483e-15 3.27162e-12 5.375936e-15
8.9301083e-10 1.4673966e-12 9.0092567e-10 1.4804031e-12 3.0265067e-08 4.973161e-11 3.026274e-08 4.9727677e-11
5.8913134e-08 9.680621e-11 5.897867e-08 9.691378e-11 2.2994351e-08 3.7784366e-11 2.3004102e-08 3.780033e-11
3.223683e-08 5.2971565e-11 3.2225586e-08 5.2953072e-11 1.4346429e-08 2.3574049e-11 1.4349358e-08 2.3578904e-11
5.7473626e-09 9.444064e-12 5.7437366e-09 9.438107e-12 1.5284296e-10 2.5115188e-13 1.5636277e-10 2.569357e-13
1.1527792e-08 1.8942455e-11 1.1594704e-08 1.905241e-11 2.2762928e-08 3.7403993e-11 2.2753422e-08 3.738841e-11
2.764892e-08 4.5432706e-11 2.7698714e-08 4.551454e-11 5.640308e-09 9.268169e-12 5.695308e-09 9.358519e-12
2.1377168e-10 3.5126982e-13 2.1470335e-10 3.528001e-13 1.3259849e-08 2.1788571e-11 1.3279434e-08 2.1820766e-11
3.0460118e-08 5.0052067e-11 3.044455e-08 5.0026466e-11 2.930051e-08 4.8146636e-11 2.9362983e-08 4.824928e-11
1.9615277e-08 3.2231773e-11 1.9625611e-08 3.2248842e-11 4.2628776e-07 7.00477e-10 4.2686077e-07 7.0141803e-10
5.4673254e-08 8.9839136e-11 5.4689156e-08 8.98653e-11 2.3961562e-08 3.937362e-11 2.3980869e-08 3.9405396e-11
1.1504273e-09 1.8903848e-12 1.1498615e-09 1.8894521e-12 1.14760155e-07 1.8857378e-10 1.1477186e-07 1.8859325e-10
1.1236388e-09 1.846367e-12 1.1322371e-09 1.8604914e-12 5.006023e-09 8.225885e-12 5.0132805e-09 8.237828e-12
1.2724765e-07 2.0909365e-10 1.2732252e-07 2.0921677e-10 7.0524014e-10 1.1588509e-12 7.130371e-10 1.1716626e-12
4.714309e-08 7.746556e-11 4.709796e-08 7.739145e-11 8.545899e-08 1.4042623e-10 8.547011e-08 1.404448e-10
8.7205116e-08 1.4329529e-10 8.7241624e-08 1.4335565e-10 2.1874544e-07 3.594423e-10 2.1873096e-07 3.594189e-10
5.8929763e-09 9.683339e-12 5.9107244e-09 9.712517e-12 4.327759e-08 7.111372e-11 4.331603e-08 7.117683e-11
1.0885288e-07 1.7886718e-10 1.089589e-07 1.790411e-10 5.047899e-08 8.294712e-11 5.0494524e-08 8.297257e-11
3.727715e-08 6.125387e-11 3.727209e-08 6.124559e-11 2.5308806e-08 4.1587428e-11 2.5330715e-08 4.1623396e-11
1.7406434e-08 2.8602235e-11 1.740508e-08 2.860006e-11 2.9438574e-08 4.8373493e-11 2.9454311e-08 4.839938e-11
1.7586073e-11 2.8897444e-14 2.9057088e-11 4.7746627e-14 2.1408647e-08 3.5178634e-11 2.1436954e-08 3.52252e-11
7.0712214e-09 1.1619434e-11 7.103108e-09 1.1671842e-11 6.095632e-10 1.001634e-12 6.1162936e-10 1.0050292e-12
2.0752564e-09 3.4100583e-12 2.0732367e-09 3.4067506e-12 7.305118e-09 1.2003764e-11 7.3308364e-09 1.2046051e-11
1.7584834e-09 2.8895413e-12 1.7730549e-09 2.9134841e-12 2.01714e-08 3.31456e-11 2.0169386e-08 3.3142385e-11
7.857905e-09 1.2912096e-11 7.865011e-09 1.2923769e-11 4.8340194e-08 7.943266e-11 4.83493e-08 7.94477e-11
7.4403125e-08 1.2225926e-10 7.4346346e-08 1.2216618e-10 8.515569e-08 1.3992767e-10 8.5172786e-08 1.3995609e-10

exp_avg f4 [128]
00000000: c7e9 02b8 574c 8134 3d53 82b7 7b23 2437
00000010: 0cfc 76b5 9eea 0337 e9d2 8435 9261 34b8
00000020: 66e0 c5b6 b7f5 e835 7e04 34b8 8064 0db8
00000030: e620 a536 7472 1635 53d5 ad36 a3f0 8d37
00000040: 9f81 bab7 fdff be36 c829 ca36 7f47 b1b6
00000050: 48aa 27b7 d8c6 35b5 5aa6 5e37 cf4e a637
00000060: 710f 7a37 3224 7037 f96e 8b35 f1d7 4437
00000070: 8b57 a637 17fc 6a37 6531 2bb7 5b04 98b8
00000080: 2b12 15b8 9b94 d3b7 8eb5 a834 6abb b6b6
00000090: fe6c 2537 c306 1837 8392 e4b6 89ee e8b4
000000a0: 37e7 d6b6 37bb 54b7 47b1 d3b6 4021 01b8
000000b0: 87fe 0537 be14 7db7 7e52 1cb8 3553 8437
000000c0: 0b81 2d36 34d1 0837 97f2 cc36 62f3 ff37
000000d0: c0f6 3935 bed9 6637 9b3d f436 7c94 a236
000000e0: 0c08 de36 2c7e acb6 7f38 7b36 67bf 1037
000000f0: 8a76 b9b6 2a35 d6b6 e952 e037 88cf 55b7
00000100: d94e 5836 65db 42b6 39b6 88b7 cfe5 bdb7
00000110: 2055 9237 5569 26b7 22ce 3fb8 f608 4b34
00000120: f6d0 1eb7 31b4 82b8 aad5 01b8 ea3f a6b6
00000130: 4522 0537 2c8c 9ab5 4ac3 4137 57c6 fdb5
00000140: 4027 e3b7 a98c be37 1c7b eab7 19ce 05b6
00000150: baf2 d436 0cc1 6f36 3526 4fb7 c106 8db7
00000160: 2293 c034 fc13 d836 8a52 61b6 010b 8837
00000170: 8c48 cd34 592e e3b6 8f7a 9bb7 cdb0 d736
00000180: 66f9 46b6 470e f4b5 9db0 91b7 5e3a d9b7
00000190: d06f d0b7 76a8 7937 61b0 3435 86ea d236
000001a0: 7bfa bcb7 9a13 92b6 5341 0837 54a6 fd35
000001b0: a50d 0f36 beaa 17b6 27ad 3635 8759 36b8
000001c0: bb21 e1b7 3bc4 a2b4 5a6b c1b3 a4bd 1037
000001d0: 5f81 69b7 2545 09b8 c5de 5236 0735 b4b7
000001e0: 184a 9d36 8a65 e2b7 134e 0cb8 2c61 3138
000001f0: ddc9 a537 517e 62b8 0bb9 7437 e03c 79b7
-3.1212137e-05 2.4083667e-07 -1.5535968e-05 9.783423e-06 -9.200892e-07 7.8628345e-06 9.896149e-07 -4.3006214e-05
-5.897181e-06 1.7356859e-06 -4.2919528e-05 -3.3710618e-05 4.921213e-06 5.6045906e-07 5.180636e-06 1.6920565e-05
-2.2233287e-05 5.692242e-06 6.024933e-06 -5.2833343e-06 -9.993622e-06 -6.771711e-07 1.3270963e-05 1.982544e-05
1.4904756e-05 1.4313542e-05 1.0388604e-06 1.1732788e-05 1.9829507e-05 1.4006181e-05 -1.0203895e-05 -7.248736e-05
-3.554129e-05 -2.522236e-05 3.1424537e-07 -5.4458405e-06 9.860143e-06 9.06148e-06 -6.8119857e-06 -4.3386925e-07
-6.404614e-06 -1.2679774e-05 -6.308928e-06 -3.0786963e-05 7.9866795e-06 -1.50848045e-05 -3.7270125e-05 1.5774373e-05
2.5854122e-06 8.154941e-06 6.107915e-06 3.0511703e-05 6.927694e-07 1.3759765e-05 7.2789385e-06 4.845262e-06
6.6170523e-06 -5.140688e-06 3.74348e-06 8.627633e-06 -5.5272294e-06 -6.383886e-06 2.6741489e-05 -1.2744109e-05
3.2232404e-06 -2.9035957e-06 -1.6297317e-05 -2.2637569e-05 1.7444196e-05 -9.918896e-06 -4.5729925e-05 1.8909108e-07
-9.466186e-06 -6.232446e-05 -3.0954987e-05 -4.954626e-06 7.935397e-06 -1.151469e-06 1.1549166e-05 -1.8907693e-06
-2.7078786e-05 2.2715265e-05 -2.7952301e-05 -1.993851e-06 6.3463494e-06 3.5726143e-06 -1.2347057e-05 -1.6811655e-05
3.586984e-07 6.439628e-06 -3.3575657e-06 1.6217587e-05 3.823701e-07 -6.7705228e-06 -1.853451e-05 6.4280816e-06
-2.9649468e-06 -1.8183572e-06 -1.7367589e-05 -2.5895595e-05 -2.4847599e-05 1.4880779e-05 6.731189e-07 6.28579e-06
-2.2527985e-05 -4.353421e-06 8.121441e-06 1.8898377e-06 2.1316603e-06 -2.2600138e-06 6.8052253e-07 -4.347556e-05
-2.6837797e-05 -3.0317628e-07 -9.00679e-08 8.627223e-06 -1.3918004e-05 -3.272774e-05 3.1422107e-06 -2.1482365e-05
4.6875903e-06 -2.6988582e-05 -3.3451313e-05 4.2290587e-05 1.9763533e-05 -5.400024e-05 1.4586617e-05 -1.485573e-05
