results/finalRulesOff/MoveToGoal/MoveToGoal-500064.pt (torch, 440375 bytes, 40 tensors)

discrete_act_size_vector f4 [1, 2]
000000 00 00 80 40 00 00 00 40
       4.0 2.0

network_body._body_endoder.seq_layers.0.weight f4 [128, 4]
000000 0c 20 3a 3f 6d f9 d1 be 7f f3 30 3e 24 4d bd 3e
       0.7270515 -0.4101061 0.17280386 0.36972916
000010 0e 60 07 3d e8 ec c2 bd c1 0a fa be 86 fe 53 3d
       0.03305059 -0.095178425 -0.4883633 0.051756404
000020 43 45 4e 3f 53 a9 9a be a0 07 84 be c5 4a 0e 3f
       0.80574435 -0.3020731 -0.25787067 0.5558284
000030 c2 cd 70 bb 8a f0 04 be 54 4e 11 bf a3 cf 55 3f
       -0.0036743735 -0.12982383 -0.56760144 0.83519953
000040 34 eb 56 3e 07 66 8e 3e 05 51 53 be d9 56 c3 bd
       0.2098816 0.27812216 -0.20636375 -0.09538049
000050 a9 0a 0c be a7 dc 92 3e 66 ce 92 3d 8e 2a f1 bd
       -0.13675942 0.2868397 0.07168274 -0.11775695
000060 75 85 22 be a5 cb 09 3e e4 e3 73 be 84 fb 10 3e
       -0.15871222 0.1345659 -0.23817402 0.14158446
000070 8e ed 55 3f bb 35 95 3f 47 09 4f 3e 4b 0e a0 be
       0.83565605 1.1657022 0.20218383 -0.31260905
000080 c3 2b 43 bf d3 a2 b0 be 2e 9b a5 3e af da 7a 3f
       -0.7623865 -0.34499225 0.32344955 0.97989935
000090 1d 09 f7 3e 8a ca 01 3f 87 ad cb be ef 87 cf bd
       0.4824914 0.50699675 -0.39780828 -0.10133349
0000a0 a1 23 3d bf f1 38 49 bd 80 fb 84 be 67 14 ea 3d
       -0.7388249 -0.04912657 -0.2597313 0.11429673
0000b0 dc 44 45 3f 42 0a 4b 3e cd 54 1e bf 8f 24 38 3f
       0.77058196 0.19828132 -0.61848146 0.71930784
0000c0 f0 84 2f 3e af e9 87 3e 32 ba 89 3e 07 85 01 3f
       0.17140555 0.26545474 0.26899868 0.5059361
0000d0 3c 5c 53 be 18 cd b5 be 5d e0 b8 bd 2d 4c d2 3e
       -0.20640653 -0.35508037 -0.09027169 0.41073743
0000e0 1b 0c 44 3f 06 bc e2 bd 74 00 25 3e de 16 fe 3e
       0.7658097 -0.11071019 0.16113454 0.4962682
0000f0 9c e3 01 bf 56 34 1f 3f 00 ed ce be be e7 f0 3d
       -0.5073793 0.62189233 -0.40415192 0.11762951
000100 24 ee 1f bf fb f1 fa be aa c3 bc be 02 9a 45 be
       -0.6247275 -0.4901274 -0.3686803 -0.1929703
000110 b2 54 48 bf ec 7f da bc 6d b2 3d be 77 75 c4 3e
       -0.78254235 -0.026672326 -0.18525095 0.3837087
000120 0d bd 2e bf f7 30 15 bf 9d 4f 21 bf bb 3d 81 be
       -0.6825722 -0.5827784 -0.63012105 -0.2524241
000130 d8 dc 21 bd 72 2e 06 3e f4 2e c9 be f0 d3 8a 3e
       -0.039517254 0.13103655 -0.39293635 0.2711482
000140 0d d6 38 3e de a2 4c 3e b6 58 de 3e 45 c8 4b 3e
       0.18050404 0.19984004 0.43427056 0.19900616
000150 c1 30 7b bf 59 1d 20 be 9a 2a 27 3e e6 c1 1c 3e
       -0.9812127 -0.15636195 0.16324845 0.15308341
000160 72 06 d1 3e 2e 6f bf be cb 26 c5 3d e8 e3 7b bf
       0.4082523 -0.3738951 0.0962654 -0.9839463
000170 d5 62 01 3f 3e e0 4f 3e 44 7d e0 bd 05 94 46 3e
       0.5054143 0.20300385 -0.109613925 0.19392402
000180 e4 3d 06 3d 78 94 9e be 42 ec 2e bf e3 99 6e 3d
       0.032773867 -0.30972648 -0.6832925 0.058252227
000190 35 fd 98 be 6e 52 38 3d bf ec b9 be fe 60 b0 be
       -0.29880682 0.045000486 -0.36313435 -0.34449
0001a0 24 05 e3 be e3 17 03 3e 2d 95 b7 3d a7 c1 e0 3e
       -0.4433986 0.12802081 0.08964 0.43897745
0001b0 f8 cf 1f bf e9 f0 3f bd a9 dd 11 3f dc e9 87 3e
       -0.6242671 -0.04686061 0.5697885 0.26545608
0001c0 ad 69 3d bf ae 28 62 3f d9 a5 83 be 69 68 09 be
       -0.73989373 0.8834332 -0.2571247 -0.13418736
0001d0 6e c7 f5 bd 55 94 05 bf 19 8c 03 3f 23 7c 5d be
       -0.12000929 -0.5217946 0.5138565 -0.21629386
0001e0 bb ec f0 3e 3a f1 0b bd eb fe 7d 3f 85 ae df bd
       0.4705561 -0.0341656 0.992171 -0.10921959
0001f0 c2 03 ca 3e fa ca 7b 3e be 28 89 be 7c 6f 55 3f
       0.39455992 0.24589148 -0.26788896 0.83373237
000200 68 96 e6 be e0 d2 88 3f 34 1b 51 bf 3d 84 01 bf
       -0.45036626 1.0689354 -0.81682134 -0.50592405
000210 c0 e2 88 3e e5 0d b3 3d 10 61 cb be 64 82 eb be
       0.26735497 0.087428845 -0.3972249 -0.45997918
000220 3f f0 bd be 95 90 01 bf cb 3b 83 be e7 af e0 bd
       -0.37097356 -0.5061124 -0.25631556 -0.10971051
000230 61 72 02 3f 72 4b f7 3e a9 5f ee bd 08 9a e3 be
       0.5095578 0.48299748 -0.116393395 -0.44453454
000240 29 9b 0c bf 6a f4 b7 bd d8 74 6e 3f 2f 10 03 3f
       -0.54924256 -0.08982165 0.9314704 0.5119657
000250 cd 53 7a 3e 3f 07 a9 3e ae cb fd 3e 3a e7 98 3d
       0.2444603 0.3301334 0.49569458 0.07465978
000260 b0 e1 f0 3d 04 ac 16 bf 74 34 37 bf da 4a 71 bf
       0.117617965 -0.58856225 -0.7156441 -0.9425484
000270 47 32 62 3f cf 8e 6a be fe 70 9e be 9e ec 69 bf
       0.8835797 -0.2290604 -0.3094558 -0.91376674
000280 d2 13 02 be a7 df 91 3e 22 b7 fb be b8 e4 85 bc
       -0.12702873 0.28490946 -0.49163157 -0.016344413
000290 8a 1a bd be bc ce 4a bf 79 a0 87 be 18 44 f8 be
       -0.3693431 -0.792217 -0.26489618 -0.4848945
0002a0 2b 09 72 be ee 49 49 3e 08 ad 36 3f 02 fe dd bc
       -0.2363631 0.19657108 0.71357775 -0.02709866
0002b0 f2 e4 2c be e9 3c 87 3e f1 f3 74 be 89 c9 2c 3e
       -0.1688421 0.26413658 -0.23921181 0.16873755
0002c0 81 b6 84 be 64 ac 00 3f 93 88 f2 3e 75 40 95 3e
       -0.2592049 0.5026305 0.47369823 0.2915074
0002d0 19 4e b0 3e df 91 e0 3e ba a0 03 3f 2d 02 39 3f
       0.34434584 0.4386129 0.51417124 0.72268945
0002e0 9c bc c2 3d 82 31 56 bf 52 92 31 3e 2a ae 22 3e
       0.09508631 -0.8366929 0.17340973 0.15886751
0002f0 f2 b7 13 3f 5c 0a ec be e0 fa 03 3f 0e 79 b8 be
       0.57702553 -0.46101654 0.5155468 -0.36029857
000300 74 ab 15 bf 56 2e d2 be c6 d1 75 3e 44 d7 7d bf
       -0.5846474 -0.41050977 0.24005803 -0.99156594
000310 e6 8e 5d be 99 07 b5 3d 3b 3e ec bd 95 4b 6c be
       -0.21636543 0.0883934 -0.11535307 -0.23075707
000320 0f 7e 3f be 8b 80 9d 3f 7e be 1d 3f ee 56 5b bf
       -0.18700431 1.2304853 0.61618793 -0.8567952
000330 a4 83 19 ba d6 94 38 3e d4 c4 de 3e 60 ab 92 3f
       -0.0005856103 0.18025526 0.43509543 1.145855
000340 fb 2a 0e bf cb 17 6e 3e db 2b af be 05 59 9c be
       -0.55534333 0.23251264 -0.34213147 -0.30536667
000350 d6 8f 0f bf e7 bf 26 bf 64 a9 4a bf 03 12 c4 bd
       -0.5607885 -0.6513657 -0.7916472 -0.09573748
000360 82 de 41 be 39 b4 d5 bd c6 b1 2c 3b f4 a3 d5 bc
       -0.18932536 -0.10434765 0.0026351078 -0.026079156
000370 ed 7b 77 bf 4f 7f 03 3f 8d 18 bc be 4b ac bd 3d
       -0.9667347 0.5136613 -0.3673748 0.09261378
000380 5a a3 26 3f f3 19 84 be 78 3a 73 bd 1a bf 81 be
       0.65093005 -0.25801048 -0.059381932 -0.2534111
000390 42 8e 44 bc 76 65 6a 3e 15 09 15 3f 72 b8 9c be
       -0.0119968075 0.22890267 0.58216983 -0.3060947
0003a0 a3 7c 9c 3c 97 4a 36 be 3a b6 57 bf 6f 33 ec 3d
       0.0191024 -0.17801891 -0.8426243 0.11533248
0003b0 3c 94 6b 3e af c8 5a bf cb 72 ad 3e 79 d9 eb 3d
       0.23005766 -0.8546247 0.33876643 0.11516089
0003c0 fd 95 ae be 09 2d bd 3e 24 d9 22 be 93 fc 2d 3e
       -0.34098807 0.36948422 -0.15903145 0.1699088
0003d0 62 cf 86 be 06 55 c8 3b 0d cf 09 be 8b ed ee 3e
       -0.26330096 0.006113651 -0.1345789 0.46665606
0003e0 84 8b 2a be fd 4e 4a be 4f 0f 17 bf db e6 1e 3f
       -0.16654783 -0.19756694 -0.59007734 0.6207101
0003f0 99 41 50 3c ca ea 4b 3f 28 3e 67 be d7 cf 79 bf
       0.012710952 0.79655135 -0.22582304 -0.97582763

network_body._body_endoder.seq_layers.0.bias f4 [128]
000000 88 79 f0 3c 6b d2 98 bc c5 20 a2 3c ab 71 b3 bc
       0.029354826 -0.018655023 0.019791016 -0.021904787
000010 b5 ba fd bc dc 2f f0 3c 8d b5 ed bc 18 aa e4 3c
       -0.030972818 0.029319696 -0.029017234 0.027913138
000020 d9 40 f3 bc bb 19 0c 3d 68 b6 08 bd f8 3c 66 3c
       -0.029694008 0.034204226 -0.03337708 0.014052622
000030 de 1d b0 3c 4b c6 b8 bc 6f 89 04 3d 57 4b d8 bc
       0.021498617 -0.022555491 0.03235763 -0.026403112
000040 58 dc 0c bd 03 df 5c bc fc d4 b4 bc 7c aa f3 bc
       -0.034389824 -0.0134809045 -0.022074215 -0.02974438
000050 b0 c7 df 3c ed 25 1f bd 80 3f d7 3c 15 8f d2 3c
       0.027316898 -0.03885453 0.026275396 0.025702992
000060 4d 76 01 bc 90 7b 67 3b 9c 42 89 bc e7 f9 d4 3c
       -0.00790174 0.0035321452 -0.016755395 0.025998069
000070 f6 cd 08 bd 4b 64 c3 3c aa 74 fa 3c 34 dc 67 3c
       -0.033399545 0.023851534 0.030573208 0.014151622
000080 eb 61 1c bd 79 24 a2 bc c9 0b bf bc 71 d7 03 bc
       -0.03817932 -0.019792782 -0.02332105 -0.008046971
000090 82 cb b8 3c 8f f3 30 3c 53 a2 94 bb 99 80 f7 3c
       0.022557978 0.010800256 -0.004535952 0.030212687
0000a0 35 9a 94 bb dc dc ee bc 24 54 6c 3c b8 11 c0 bc
       -0.0045349845 -0.029158048 0.014424358 -0.023445949
0000b0 27 1b 0d 3d 66 58 88 3c 0d 06 fe 3c 56 c1 cf 3c
       0.034449723 0.016643714 0.031008745 0.025360744
0000c0 43 63 10 bd 1b 75 cb bc bd 98 ed 3c 85 49 b6 3c
       -0.035250913 -0.024836114 0.029003495 0.022251854
0000d0 56 4c c9 bc 4a e0 32 bc 7c 92 a0 bc be 79 03 bd
       -0.024572533 -0.0109177325 -0.0196011 -0.032098524
0000e0 80 41 3d 3c 9a 67 b2 3c 84 7e bc 3b 59 d5 b5 bc
       0.011551261 0.021777917 0.0057523865 -0.022196459
0000f0 6a 45 d5 bc 72 36 80 bc 16 81 9f bc 46 aa a3 bc
       -0.026034076 -0.015650962 -0.019470733 -0.019978654
000100 e4 c8 b8 38 77 6e fd 3c 02 77 ea 3c cc 75 c8 3c
       8.8112225e-05 0.030936463 0.0286212 0.024470232
000110 5f 09 ea 3c 01 c0 c0 3c b9 c3 9f 3c 8c 80 89 3c
       0.028568922 0.023529055 0.019502508 0.016784929
000120 d6 b4 0b bd a7 ff e7 3c 96 b9 8e 3c 15 78 d5 3c
       -0.034108005 0.028320147 0.017422479 0.026058236
000130 9a e1 3e bc 75 23 99 bb b1 f1 b4 3c fd b8 6a bc
       -0.011650467 -0.0046734163 0.022087904 -0.014326331
000140 ce 72 cc 3c 74 e1 a7 bc 1d 54 1c bd 8e c8 83 3c
       0.024957087 -0.020493247 -0.038166154 0.016086843
000150 7b 9f a3 bc 87 38 38 bc dc 4f d1 bc 00 7d 13 bd
       -0.019973507 -0.011243946 -0.025550775 -0.03600788
000160 ff 2f e1 3c af e4 26 bd c1 66 a7 3c 7c 1c f6 bc
       0.027488707 -0.040745433 0.020434739 -0.03004288
000170 ad 81 d6 3c 65 6f 14 bc 83 b3 bd 3b c7 f4 d1 bc
       0.026184881 -0.009059762 0.0057892217 -0.025629414
000180 ca df 1c bd dc c3 a6 bb 95 9b bb bc 07 b0 b6 3c
       -0.03829936 -0.005089266 -0.022901336 0.022300733
000190 c7 30 c2 3b 52 8e 8f 3c fc 3d 99 3c 15 5c c2 bc
       0.005926225 0.017523918 0.018706314 -0.023725549
0001a0 cb d7 e9 bc c8 8f fd bc a1 8f ac 3c 97 43 f5 b8
       -0.02854528 -0.03095235 0.021064581 -0.000116951
0001b0 ab f7 aa 3b 62 0f d5 bc a8 b7 07 bd 89 f2 03 bd
       0.0052175126 -0.026008312 -0.033134133 -0.03221372
0001c0 e0 21 c1 bc c6 c9 af 3c 2f 12 fe bc 9a a1 fb 3c
       -0.023575723 0.021458518 -0.03101453 0.030716706
0001d0 37 68 8a 3c 1a 90 95 3c 04 6e e0 3c 97 76 a1 3c
       0.016895397 0.01825719 0.02739621 0.019709868
0001e0 a1 79 e5 bc 55 72 6a bc 9f df d8 bc 63 57 a3 bc
       -0.028012099 -0.014309485 -0.026473818 -0.01993913
0001f0 fe 14 a4 3c 4f 67 ba 3c 39 da ea bc eb cf ea 3c
       0.020029541 0.02275434 -0.02866851 0.028663596

network_body._body_endoder.seq_layers.2.weight f4 [128, 128]
000000 b0 6d 3a bc d1 42 a7 3c 0a a2 87 3c df 8b 0e 3e
       -0.011378691 0.020417603 0.016556758 0.13920544
000010 04 2a 13 3e 3d a7 0b 3c 42 9f 8b bd 5f d3 29 bc
       0.14371496 0.008523759 -0.068174854 -0.010365336
000020 f8 b4 9e bd e9 a0 95 3d 8d 1d 51 3d d0 95 b0 bd
       -0.07749361 0.07306082 0.051053572 -0.086223245
000030 46 67 cf 3d a0 dd 12 be a8 e2 89 bd 0b 74 c8 bd
       0.1012712 -0.14342356 -0.067326844 -0.097877584
000040 e7 94 89 bd 47 0c 85 3d e1 66 9c bd 33 76 21 3d
       -0.06717854 0.06496482 -0.0763681 0.039419364
000050 b9 f5 35 be 64 29 08 bd 10 33 6b 3d 2d 45 88 bd
       -0.17769517 -0.0332426 0.057421744 -0.06653819
000060 6b b9 2a be 84 18 54 3d 97 04 c1 b8 c8 92 ad bd
       -0.16672294 0.051781192 -9.203812e-05 -0.08475262
000070 a1 b6 31 3d 48 a0 2c bd 46 d3 5a 3d df 79 e3 3d
       0.04338706 -0.042145044 0.053424142 0.111072294
000080 80 8a fd ba 6a cc 05 3d d3 a8 32 3e 70 a6 40 3d
       -0.0019343644 0.032665648 0.17447214 0.047033727
000090 42 7d ef bd 10 05 13 bd d3 18 7f 3d 89 eb 0a be
       -0.11693813 -0.0358935 0.062279534 -0.13566412
0000a0 d5 96 a4 3d 34 51 b9 bc bc 84 3e bd 40 57 c5 3d
       0.080365814 -0.022621728 -0.046513304 0.09635782
0000b0 08 03 3c bd 58 74 a6 bd b9 b6 52 be 23 b3 83 3d
       -0.04590133 -0.081276596 -0.20577516 0.06430652
0000c0 a3 2a c4 3c 11 c9 99 3d 4d 4b c6 bd db 61 f0 3d
       0.023946112 0.075090535 -0.09682331 0.117374144
0000d0 e1 5b 14 be 2a 5c 22 be 71 2e 86 bc fa ce d8 3d
       -0.14488174 -0.1585547 -0.016379567 0.10586353
0000e0 90 31 66 bc 45 71 35 3d 51 6e 28 bc 6a 43 b1 bc
       -0.014049903 0.044297475 -0.010280208 -0.02163859
0000f0 8a 93 43 bd 34 88 67 3c cb 1b 39 3d a2 01 fd 3b
       -0.047748126 0.014131594 0.04519252 0.007721142
000100 ae 95 0c bd ed 0b 11 bd 2f 56 8e 3d 68 72 2d be
       -0.034322433 -0.035411764 0.06950032 -0.16938174
000110 1d 62 a5 bd ad 01 89 3d e9 2f 84 bd 46 43 18 be
       -0.08075354 0.06689773 -0.06454451 -0.14869413
000120 ed 6a bf 3d f2 0a 02 3d 20 c9 f8 bd 07 d0 60 3d
       0.09346566 0.03174872 -0.121477365 0.05488589
000130 8c cc ae bd f9 00 54 bd 6b c3 7e bd dd 1e f4 3b
       -0.08535108 -0.05175874 -0.062198084 0.0074499683
000140 a1 8c c8 3b 68 0a 07 be 40 81 de bd 3c 2f 55 bd
       0.00612028 -0.13187563 -0.10864496 -0.052047
000150 42 e2 e3 3d 38 b2 22 3e 5d d5 95 3d 32 cd 2d 3d
       0.1112714 0.15888298 0.073160864 0.042432018
000160 5b 38 c2 bd 3c 4c 81 3a ee b8 60 bd 08 0a f3 3d
       -0.09483405 0.0009864639 -0.054863863 0.11867148
000170 8a b2 7c bd 47 ab 82 bd e2 e4 a1 bd 39 53 51 3d
       -0.061693706 -0.06380325 -0.07904984 0.051104758
000180 75 da 00 3e be 12 03 bd c4 6f f4 3d bd 6e 47 be
       0.12583335 -0.032000296 0.1193538 -0.19475837
000190 1a e9 1f bd 91 b6 f2 3d 6e d8 e6 3c 95 a4 f1 3c
       -0.039040662 0.11851228 0.028179374 0.029497424
0001a0 aa de 3c bd d0 7c 19 3d ef 0e ff 3d 16 b9 bb bd
       -0.046110786 0.037472546 0.1245402 -0.09166162
0001b0 5a e1 9e 3d 94 f1 fc 3d ea cf 28 3e 8e f6 db bc
       0.07757826 0.12350765 0.16485563 -0.026850965
0001c0 35 df 8b 3d ae 02 b6 bd 38 d1 6d 3e ae 46 1a be
       0.06829683 -0.0888723 0.23224342 -0.15066025
0001d0 1e 81 d6 bd 1e a8 c3 bc 22 1b a4 bd ff 6a 27 be
       -0.10473846 -0.023883875 -0.08012988 -0.1634941
0001e0 0e 73 81 3a e1 6d 3c be 14 7a 62 bd 06 47 8e bd
       0.0009876208 -0.1840129 -0.055292204 -0.069471404
0001f0 2f ea f6 3d 75 cc 11 3e 52 b1 10 be 5d 26 3e bd
       0.12056386 0.1423815 -0.14130142 -0.046423305
000200 f7 b9 9b 3d 3a cc c7 bd d8 f4 b9 3d 82 e6 a2 38
       0.07603829 -0.0975575 0.09079903 7.7676974e-05
000210 ce d5 c3 3d bb 6f 8c 3d 6f ca 7b 3d 55 75 39 bd
       0.095622644 0.068572484 0.061472353 -0.045277912
000220 59 c5 d4 bc 76 ac 9a 3d a6 c4 dc bc cd ba c3 3d
       -0.025973009 0.075524256 -0.026949238 0.09557114
000230 a5 e6 06 bc 24 15 2f bd 15 f3 16 3d dc 8e 47 3d
       -0.008233701 -0.04274477 0.036852915 0.048720226
000240 32 36 a8 bc d5 c6 b5 3c 9b c5 50 be 57 73 c5 bc
       -0.020533655 0.022189537 -0.2038788 -0.02410285
000250 de 6d 07 bd 68 40 89 3d be 1e 91 bc 75 3f 93 bd
       -0.033063762 0.06701738 -0.017714854 -0.07189838
000260 3c 0a 3f bd 0e 24 2e 3d b2 0b e3 bc 47 29 13 3e
       -0.04664062 0.042514853 -0.027715538 0.14371215
000270 c6 2e 42 3d bb ae 17 3e ad 17 23 bc 51 f8 f7 bd
       0.047407888 0.14812748 -0.009954375 -0.121079095
000280 df 32 4b be f0 88 9d bd a1 15 de 3d ed 30 60 3c
       -0.19843625 -0.076921344 0.10843969 0.01368354
000290 01 5b 07 3e 44 b8 07 3d a4 da 9a bd 80 9d 62 bd
       0.13218309 0.033134714 -0.07561234 -0.055325985
0002a0 cc 7c 7b 3c ff 00 c3 bd 63 9e ad 3d 65 74 13 3d
       0.015349578 -0.09521674 0.084774755 0.035999674
0002b0 0f 05 36 bc d8 e2 07 3d 02 7c 53 bd 58 ac f2 bc
       -0.0111096045 0.03317532 -0.051631935 -0.029623196
0002c0 87 f0 d5 bd c3 11 92 bd 68 04 af 3d c3 18 9a 3d
       -0.104462676 -0.07132294 0.08545762 0.07524254
0002d0 8c 14 13 3e 2b 04 29 3e b3 ec 88 bd ed 47 49 bd
       0.14363307 0.16505496 -0.06685772 -0.04914086
0002e0 fc a7 c8 3b 80 a9 f5 3d fd fc 0b be 07 88 7f bd
       0.006123541 0.1199522 -0.13670726 -0.062385585
0002f0 de 1d de bd 31 7e 57 bd 20 7a a0 bd 59 41 6c bd
       -0.108455405 -0.05261058 -0.078357935 -0.057679508
000300 24 f4 40 bd e1 7f 0c bd 1a 93 9b be 3f d1 9b 3d
       -0.04710783 -0.034301642 -0.30385667 0.0760827
000310 53 f5 c6 bb 45 e2 cc 3d a9 44 99 bd dc a0 3f bd
       -0.0060717254 0.10004095 -0.07483799 -0.046784267
000320 18 41 d2 bd 9d ff e5 39 da 66 fe 3d ce 13 d3 3d
       -0.10266322 0.0004386873 0.12421961 0.10306512
000330 a7 62 13 3e 98 61 79 bd 6c 12 d9 bd 68 be d6 3d
       0.14393102 -0.06088409 -0.10599217 0.10485536
000340 0c c6 17 3d a1 89 c3 bd 5e a0 42 be e5 f6 4d 3d
       0.037054107 -0.09547735 -0.19006488 0.050284285
000350 ab ab cc 3d b0 bd 89 3d 04 a1 c3 bd 17 c0 77 bc
       0.099936806 0.06725633 -0.09552196 -0.015121481
000360 b7 07 11 3e d5 f4 ab 3c 84 ec 2d 3c c5 7c a7 3c
       0.14163099 0.020990768 0.010615472 0.020445237
000370 1c ac 04 3e c2 27 71 bc 05 0c 5c 3c 0f 29 14 3e
       0.1295628 -0.014718952 0.0134306 0.14468788
000380 28 be 86 bd d4 74 3f 3d 56 83 90 3d b6 5f 64 be
       -0.06579238 0.046742275 0.070563 -0.22302136
000390 d6 9d 54 bd 5f 0b 91 bd 00 99 c1 bb a0 e6 06 bd
       -0.051908337 -0.07082247 -0.0059081316 -0.032934785
0003a0 91 92 f2 bd 44 9f 0d be c3 4d 89 bd 89 81 17 3e
       -0.118443616 -0.13830286 -0.06704285 0.14795507
0003b0 0c 60 59 3d ff ab 84 3d a9 5a 7c 3d bb 73 c0 bc
       0.053070113 0.06478118 0.061609898 -0.023492685
0003c0 89 c4 d1 bd cd ca 07 bd 7c 07 cb bd de af 9f bc
       -0.10242564 -0.03315239 -0.09913537 -0.01949304
0003d0 2a 0a fe 3d c7 52 da bd c7 77 88 3d c6 66 3e be
       0.124042824 -0.1066032 0.06663471 -0.18593892
0003e0 e9 ed 02 3e 41 ce c7 3c 25 ef 2c be 02 ce 6c bd
       0.12786068 0.024390342 -0.16888101 -0.05781365
0003f0 fe 35 aa bd 3b 18 8f 3b 7c 7b 6e bd 05 69 a2 3c
       -0.083110794 0.004366902 -0.058223233 0.019825468

network_body._body_endoder.seq_layers.2.bias f4 [128]
000000 aa e2 8d bc 39 de 72 3b 67 2e 8a 3c 38 59 b8 3c
       -0.017319996 0.0037058725 0.01686783 0.02250348
000010 c6 ee fa 3c 2d 66 93 bc 0e ea 65 bc 2c 44 a5 bc
       0.030631434 -0.017993057 -0.014032854 -0.020174108
000020 23 4d db 3c 01 63 be bc a0 a9 a4 ba 5b 59 a4 3c
       0.02677018 -0.023240568 -0.0012562759 0.02006214
000030 d8 97 9b bc 40 28 57 3c da 97 c7 3c d7 50 51 bb
       -0.018993303 0.013132155 0.0243644 -0.0031939053
000040 23 0d b9 3c 91 38 3e 3b 2b ab d5 bc 10 d1 9b bc
       0.022589272 0.0029025415 -0.026082596 -0.019020587
000050 9f 93 b5 bc 0f c9 df 3c 03 07 34 39 bc 7d 7a bc
       -0.022165118 0.027317552 0.0001716875 -0.0152887665
000060 d7 10 a7 bc b2 8c 07 3d dc 6f a6 3c 68 fd 22 ba
       -0.020393772 0.033093162 0.02031701 -0.000621757
000070 9c 4b 0c 3d 3b 52 02 3d ba d5 3f 3c 0d c5 85 bc
       0.034251794 0.031816702 0.011708671 -0.016329313
000080 7c 65 7c bc 0a 70 5a 3c 46 5b a1 bc 67 db 82 3c
       -0.015405055 0.013332376 -0.019696843 0.01597376
000090 9c 7b ab bc ee 45 02 3c 1b c0 36 bc ea 80 e1 bc
       -0.020932965 0.007951243 -0.0111542 -0.027527291
0000a0 99 2c 7c bc 42 d2 cc bc 3b a5 bf bc 87 25 a7 3c
       -0.015391492 -0.025002602 -0.023394218 0.020403637
0000b0 f7 76 ec 3c 49 71 ac bc 41 d0 9c bc ea 5e 98 bc
       0.02886532 -0.021050112 -0.019142272 -0.018599946
0000c0 de 23 a4 bc 7d c1 a6 bc 71 82 6d 3c ee 71 d8 3b
       -0.020036634 -0.020355934 0.014496432 0.0066053784
0000d0 b1 6a 9a 3c 0b e5 88 3c 01 8d d1 3c ce 30 be bc
       0.018849703 0.016710779 0.025579931 -0.023216631
0000e0 07 f1 9f bc 7d 72 f4 3c 2e 21 af bc 27 c7 38 3b
       -0.01952411 0.029839749 -0.021378126 0.0028194876
0000f0 76 11 40 3c d5 8b ad 3c d0 4f 53 3c 57 8d ee 3c
       0.011722913 0.021184841 0.012897447 0.02912013
000100 db ca 0b bc 4e 40 80 bc 2f cb 9b bc 5f 52 0c bb
       -0.008532251 -0.015655663 -0.019017784 -0.0021411402
000110 6b ac 88 b9 07 36 17 3b 91 93 ab bc fb 88 7f bc
       -0.00026068403 0.0023072974 -0.020944389 -0.0155966235
000120 99 4c b9 bc fc d7 bb bc 6a 85 49 3b 2a 1e bc 3c
       -0.022619532 -0.022930138 0.0030749687 0.022963602
000130 a7 ac b2 3c 58 05 de 3a 7c 22 b4 3c 0c c3 ac bc
       0.021810843 0.0016938848 0.0219891 -0.0210891
000140 da b9 e0 3c 29 59 57 3c 30 11 ba bc 34 de 4b 3b
       0.02743237 0.013143816 -0.022713274 0.0031107785
000150 b2 30 42 bc 14 30 34 3b 1d 52 01 3d 34 98 55 3c
       -0.01185243 0.0027494477 0.03157245 0.013036776
000160 58 0b b4 bc 29 2d bc 3b a5 8d 0b bc ec 98 0a bc
       -0.021978065 0.005742688 -0.008517657 -0.008459311
000170 4f c3 e3 bc 6b a9 d1 3c 1e d0 76 bc 11 01 e1 3b
       -0.027803091 0.02559348 -0.015064267 0.006866582
000180 c7 56 a3 bc 8f 56 e2 3c 36 0a 2e bb 1f 83 de 3c
       -0.01993884 0.027629165 -0.002655638 0.027162133
000190 1f 03 fa 3c 5a 1f d1 3c a8 88 59 3c 56 e7 fd 3c
       0.030519066 0.025527645 0.01327721 0.030994099
0001a0 fa ce dd 3c e3 1b 98 bc be c5 e0 3c 4c 72 a9 3c
       0.027076233 -0.018567985 0.02743804 0.020684384
0001b0 84 5f a5 bc 91 82 83 bc 9f 99 92 bc 47 61 49 bc
       -0.020187147 -0.01605347 -0.017895518 -0.012291259
0001c0 4f ce 84 bc 90 52 d1 3c d4 ee 80 bc b8 cf e7 3c
       -0.016211657 0.025552064 -0.015738882 0.02829729
0001d0 bf fa a7 3c 39 e6 f4 bc 9d 09 fd 3c 65 68 12 3d
       0.020505307 -0.029894935 0.030888373 0.03574409
0001e0 c7 4a c1 3c 87 99 e7 3c ca 35 c6 bc a3 53 21 bc
       0.023595227 0.02827145 -0.02419557 -0.009846601
0001f0 bc e3 13 bc 64 8f c5 3c 54 8c bf bc 0d ad 8c 3c
       -0.009026464 0.024116226 -0.023382343 0.01717236

action_model._discrete_distribution.branches.0.weight f4 [4, 128]
000000 84 f9 99 3c e2 10 0a 3a 37 65 71 bc d2 07 b9 bc
       0.018795736 0.0005266798 -0.014733604 -0.022586737
000010 a1 56 68 bc 34 1f 25 bb 68 cb 3b 3c d2 47 9f bb
       -0.01418081 -0.00251956 0.01146207 -0.0048608566
000020 d2 4e a9 bc 6a 06 e2 3a 4f 31 0a 3c a2 ce 06 bc
       -0.020667467 0.0017244343 0.008434608 -0.008227976
000030 97 8f 13 3b 38 c9 c5 ba c0 a2 35 bc 1b 00 81 3c
       0.0022516006 -0.0015089875 -0.011086166 0.01574712
000040 b3 0d 98 bc 51 cb 1a 3a 62 51 bf 3a 96 23 13 3c
       -0.01856122 0.00059049303 0.0014596398 0.008980652
000050 32 af 99 3c 1d 40 9e bc 47 88 4b bb 31 44 b2 3c
       0.018760297 -0.019317681 -0.003105657 0.021761032
000060 ac 0b 9e 3b a0 40 37 bc 82 55 b8 bb 17 c7 89 3a
       0.0048231687 -0.011184841 -0.0056254277 0.0010511604
000070 8d 55 da bb ae b8 52 bc 61 fa 1d bc 85 08 b4 3c
       -0.0066630305 -0.012861414 -0.0096422145 0.021976719
000080 ce b8 a8 3b a5 c5 ac bc 81 e9 17 ba 92 29 62 bb
       0.0051489836 -0.021090338 -0.00057949877 -0.003450964
000090 06 41 fe b9 24 8e 90 bc 51 d0 57 bb d9 e4 2b 3c
       -0.00048495102 -0.017645903 -0.0032930563 0.010491573
0000a0 7b 26 ee 3b 3f e4 92 3c 4f 56 1c 3c db a4 3a bc
       0.007267771 0.017931102 0.009542062 -0.011391844
0000b0 b2 2c f7 bb d6 68 32 3c 98 59 92 3c 0f e7 8b 3b
       -0.00754317 0.010889253 0.017864987 0.0042694877
0000c0 2d 60 f1 3b ba 0c 2c bb 4e 3e 1e bc 85 b5 72 bc
       0.0073662014 -0.0026252703 -0.009658409 -0.014813785
0000d0 c9 dc a4 bc 49 5a 49 bc ce 28 49 bc 14 93 ef 3b
       -0.02012481 -0.012289592 -0.012277795 0.0073112343
0000e0 af 42 16 3c 9d 51 11 bb 20 04 36 3c 5e 19 88 bc
       0.009171172 -0.002217389 0.011109382 -0.016613659
0000f0 9b 26 c6 ba fb f6 2f bc da 1f eb bb de d9 1b bc
       -0.0015117706 -0.010740037 -0.007175428 -0.009512393
000100 48 9f 94 3c 15 f5 b2 ba 4e 64 1b 3c 8d 90 8a 39
       0.018142357 -0.0013653362 0.009484364 0.0002642911
000110 0c 67 3c bb 0c 81 82 bc 9a b4 86 3c de 4c 02 bc
       -0.0028747944 -0.015930675 0.01644354 -0.007952897
000120 cc 47 65 3c c5 02 d0 3b de 28 8b 39 47 ae 81 bb
       0.0139941685 0.0063479864 0.00026542594 -0.003957543
000130 7a 24 1e bc 5d 3b 0d bc e6 07 40 bc 7e d2 40 3c
       -0.009652251 -0.00862011 -0.011720633 0.011768935
000140 b7 0b bf bb d0 4e a9 bc 17 78 99 3c 03 5e 64 ba
       -0.005830254 -0.020667464 0.018734021 -0.00087115186
000150 fe f2 8d 3c e4 15 06 3b 0c 06 09 bc 52 ff 13 bd
       0.017327782 0.0020459825 -0.008363258 -0.036132164
000160 45 6a 8b 3c 25 cb f7 bb 5c 73 82 3b b7 6e 94 bc
       0.017018447 -0.0075620585 0.003981037 -0.0181192
000170 fa 95 90 3c c6 d8 3c bc df 3c 3a 3c 7a 2d 70 bb
       0.01764964 -0.011526292 0.011367052 -0.00366482
000180 6c 5b 6a 3c 10 3c 75 bc 49 7e 91 38 ee 26 b4 bb
       0.014304023 -0.014967933 6.937661e-05 -0.005497805
000190 74 81 49 bc fa 87 9c 3b 00 28 a4 bc 32 86 8b bc
       -0.01229893 0.004776952 -0.020038605 -0.017031763
0001a0 36 cd 48 bc 8d 0c 0f 3c 42 7b b8 bb b5 79 2a bc
       -0.012255957 0.00873102 -0.005629928 -0.010404994
0001b0 ec 46 48 bb b0 99 05 bc 5b aa d9 3c a3 82 db 39
       -0.003055985 -0.008154318 0.02657049 0.00041868267
0001c0 cd ab 7d 3c d5 a9 c0 bc 65 06 17 3c 59 af e9 bb
       0.015482855 -0.023518482 0.009217833 -0.007131499
0001d0 11 19 56 bc 31 1c 39 3c 38 28 40 bc 26 ea 45 bc
       -0.0130675 0.011298225 -0.011728339 -0.012079751
0001e0 b5 d6 94 3a 03 6f 69 bc c2 9a b0 3b 3d 00 df ba
       0.0011355492 -0.014247659 0.0053895423 -0.0017013621
0001f0 13 42 1d ba 00 96 b9 bb c6 12 78 3c 69 99 77 bc
       -0.00059989205 -0.0056636333 0.015141195 -0.015112259
000200 d8 17 01 bd b5 56 7b 3c 67 22 5f 3c c9 d1 0e 3d
       -0.03151688 0.015340497 0.013619042 0.034868035
000210 70 12 47 3d 21 01 29 bd 3c 99 9e bc de f1 07 bd
       0.048601568 -0.041260842 -0.019360177 -0.033189647
000220 00 7a 24 3d 57 c1 10 bd 34 dc 6a bc 53 d9 1d 3d
       0.04015541 -0.035340633 -0.014334727 0.038537335
000230 1f 7d 23 bd 1b a3 d2 3c 00 35 2c 3d e4 fe 74 bc
       -0.039914247 0.02571254 0.042042732 -0.014953349
000240 71 20 dc 3c c2 8d 37 3c 89 51 1c bd cf f7 1b bd
       0.026870938 0.011203231 -0.038163695 -0.038078126
000250 dd 8c c5 bc af d8 4a 3d f4 b8 1e 3c b8 51 09 bd
       -0.02411502 0.04952305 0.009687651 -0.0335252
000260 c0 31 ef bc 43 1c 2c 3d 38 2c 1f 3d 06 a9 30 3b
       -0.029198527 0.04201914 0.03886053 0.0026956215
000270 d1 e9 2b 3d ea cf 3e 3d 37 38 93 3c 08 7d e8 bc
       0.04197103 0.046585 0.017971141 -0.028379932
000280 c6 40 ba bc 61 63 0f 3d 0f 20 15 bd 20 44 eb 3c
       -0.022735965 0.035006884 -0.036407527 0.028719008
000290 11 b1 05 bd 5e a9 51 3c 97 c5 cd bc 4f 11 1d bd
       -0.032639567 0.012796728 -0.025118632 -0.038346585
0002a0 7b 25 72 bc aa da e0 bc 66 d5 30 bd 4e b1 c4 3c
       -0.014779444 -0.027448017 -0.043172263 0.024010327
0002b0 84 f8 46 3d b9 9b 0d bd 41 d6 0e bd dd 6c 3b bd
       0.048576847 -0.034572337 -0.034872297 -0.045758117
0002c0 54 bd 15 bd aa 18 01 bd 04 01 2a 3d fc 65 e5 3b
       -0.03655751 -0.031517662 0.041504875 0.007000683
0002d0 48 ac 0b 3d 2e e1 0c 3d f6 77 ca 3c 37 e1 1a bd
       0.034099847 0.034394436 0.024715405 -0.037812438
0002e0 3c 3a 07 bd 17 81 28 3d a4 be d4 bc fa 01 0c 3c
       -0.03301452 0.041138735 -0.02596981 0.008545393
0002f0 aa e7 cb 3c 8b 1b 26 3d 0a 10 e2 3c 11 14 05 3d
       0.02489074 0.04055361 0.027595539 0.03248984
000300 f9 42 a1 bc 2a cc b9 bc 0e 58 a8 bc 47 02 33 bc
       -0.019685255 -0.02268036 -0.0205498 -0.010925836
000310 e4 18 4f bb 5f 58 5f 3c 73 5f 12 bd c1 a1 13 bd
       -0.003160053 0.013631909 -0.03573556 -0.036042932
000320 a1 c2 42 bd 49 3f 1e bd 27 47 05 bc 9a 08 b9 3c
       -0.047548894 -0.038634572 -0.00813464 0.02258711
000330 05 41 1e 3d 7d 38 16 bb 01 87 b1 3c fa 1c f7 bc
       0.038636226 -0.0022921853 0.02167082 -0.030165184
000340 ba 5b 25 3d 26 14 9b 3c 8e 49 3d bd fb a2 6a 3c
       0.04037068 0.018930506 -0.046212725 0.014321084
000350 ff 4c e7 bc 53 c1 6c 3b a9 9d 16 3d 44 cf a1 3c
       -0.028234957 0.0036125972 0.03677145 0.019752152
000360 ae 44 cc bc 68 fa 8e 3c 8b b7 d3 bc 54 2e ba bc
       -0.024935093 0.017453387 -0.025844356 -0.02272717
000370 5d 28 d8 bc b0 7a ef 3c a1 1e 92 bc c4 49 4a 3c
       -0.026386434 0.029233307 -0.01783687 0.012346689
000380 ee 31 ff bc 8f 61 14 3d 5c c8 1b bc c5 41 13 3d
       -0.031151738 0.03622585 -0.009508219 0.035951395
000390 f7 fe 41 3d 21 46 18 3d c3 23 09 3d 42 e2 41 3d
       0.047362294 0.037176255 0.03348137 0.047334917
0003a0 4e 3f e2 3c 19 b6 a3 bc 12 a3 03 3d b1 27 ac 3c
       0.027618077 -0.019984292 0.032137938 0.02101502
0003b0 c9 9e 03 bd 1e 03 c7 bc 47 45 1e bd 23 c8 89 bc
       -0.03213385 -0.024293479 -0.038640287 -0.016819065
0003c0 31 f5 e9 bc 2d 32 2d 3d 35 a1 c9 bc 0b c8 0b 3d
       -0.0285593 0.04228418 -0.024613002 0.034126323
0003d0 4e c4 21 3d 0c a5 03 bd c3 8a 25 3d c8 ba 17 3d
       0.03949385 -0.032139823 0.040415537 0.037043363
0003e0 ab 22 12 3d 12 07 dc 3c ae 64 18 bd 4e 8f 58 bc
       0.035677593 0.02685884 -0.03720539 -0.01321776
0003f0 08 df bc bb 07 7b 1d 3d 9f 9d 0a bd 09 d8 f1 3c
       -0.005763892 0.038447406 -0.033841725 0.029521959

action_model._discrete_distribution.branches.0.bias f4 [4]
000000 82 5d 0d bc 12 f1 c5 3c 99 5d 90 bc 1d f0 18 bc
       -0.008628251 0.024162803 -0.017622756 -0.009334591

action_model._discrete_distribution.branches.1.weight f4 [2, 128]
000000 09 5e 1d bc dc 2a 05 3c 89 d5 67 39 06 8b 9d 38
       -0.009604939 0.008127894 0.00022109425 7.5122385e-05
000010 17 1b a0 3c 3a a9 06 bc 86 5e a4 3b a6 f9 c1 ba
       0.019544167 -0.008219058 0.005016151 -0.0014799132
000020 a8 ec 37 3c 8b bf 12 3c 99 dd 56 bc 27 6c 2b 3b
       0.011225857 0.0089568 -0.013114356 0.0026156993
000030 19 52 c3 3b 0e ed c4 ba da 29 b0 ba 53 05 2f bc
       0.0059607145 -0.0015024261 -0.0013440207 -0.010682422
000040 a7 f7 bc 3c 3f e2 a5 bb 4f be ac bc 6b 07 f5 3b
       0.023067309 -0.005062371 -0.02108684 0.007477691
000050 ae ac 81 bc d1 e9 90 3b 41 e0 60 ba 43 3a be ba
       -0.01582941 0.0044224043 -0.00085783383 -0.0014513213
000060 de 38 df bb 16 99 68 3c 9f 82 94 3b 72 f4 e2 3b
       -0.006812199 0.014196655 0.004532173 0.006926113
000070 f6 29 0b 3c 23 b9 e4 3b 8a 77 ce 3b 11 ae a0 bc
       0.008493891 0.006980078 0.0063008713 -0.019614251
000080 58 f3 96 3b 24 15 03 bc d0 ac c7 3a 0a d4 fd ba
       0.0046066456 -0.008000646 0.0015233997 -0.0019365561
000090 6c ca f9 bb 63 3c 5e 3c f1 2c 12 3c af 7d 68 bc
       -0.0076230075 0.013564202 0.008921848 -0.014190122
0000a0 d7 69 09 bc d0 1d f1 bb 21 84 6a 3b f7 87 2e 3b
       -0.008387051 -0.0073582903 0.0035784321 0.0026631334
0000b0 ea 0d e9 3b 25 58 03 3b 72 3a a1 bc 34 73 e1 bc
       0.0071122544 0.0020041552 -0.01968119 -0.027520753
0000c0 ec fa 8c 3b 7a 73 06 ba 59 6a 8f bc e2 ff 6c 3b
       0.004302373 -0.00051289017 -0.017506765 0.003616326
0000d0 e6 39 75 ba 10 89 ec ba 11 ff fc 3b 53 fd b4 bc
       -0.0009354636 -0.0018046219 0.007720836 -0.02209345
0000e0 1a 60 e4 3b f4 0b e0 3b f9 67 c3 ba 69 b7 99 3c
       0.006969464 0.0068373624 -0.0014908306 0.018764215
0000f0 19 8c c4 3b ef f2 c2 bb 92 fa 0b bb 38 21 5e 3c
       0.0059981463 -0.00594937 -0.0021359068 0.013557725
000100 b9 9a fc bb e1 4b 1a 3c d6 15 a4 bb 13 a9 f2 b9
       -0.007708874 0.009417505 -0.005007486 -0.00046283807
000110 11 f5 a9 bb f5 07 df bb 8f c3 4f ba 78 b2 fb 3b
       -0.005186685 -0.0068063685 -0.0007925564 0.0076811872
000120 d6 1f d6 bb a4 bd 3e bc e4 95 9f bb 21 13 2b 3c
       -0.006534557 -0.011641894 -0.0048701633 0.010441572
000130 4d 43 e3 bb 15 51 8b bb 8f fa ee 3a 78 30 9b 3b
       -0.006935513 -0.004251609 0.0018232631 0.0047360025
000140 ed e1 50 3c b4 36 4b 3c 95 43 7d bb bb 1a d6 3a
       0.012749177 0.012403179 -0.0038645018 0.0016334871
000150 4e 04 8a bc 5a 45 00 bc ad 86 47 3c ae 6b 22 3a
       -0.016847756 -0.007829035 0.012178105 0.0006195855
000160 bf 54 1d 3c 67 96 63 3c 4b 18 8a bc a6 76 e0 bc
       0.009602725 0.013890839 -0.016857287 -0.027400326
000170 46 17 cf bb be 0a ea 3a 76 03 c8 bb 70 df 87 3a
       -0.006319913 0.0017855985 -0.006103928 0.0010366272
000180 6a b8 7e 3b cf 28 04 3b 46 ff ed 3b 50 b1 6e 3c
       0.0038867244 0.0020165925 0.007263097 0.014568642
000190 eb 87 51 3c e6 91 34 3c c1 8c 3a bc 43 94 88 3c
       0.012788753 0.011021113 -0.011386097 0.01667226
0001a0 09 63 c5 3b dd af 81 bc 93 1e 4f 3c a5 ec 8a 3b
       0.006023769 -0.015830928 0.012641567 0.004239636
0001b0 73 ce 6f bc 7a 33 a1 bc 5a 35 e1 bb 69 d7 b3 ba
       -0.014636624 -0.019677866 -0.006872815 -0.0013720813
0001c0 8e 74 72 bc cd bb 56 3c 92 54 8c 3b ed 21 fa 3b
       -0.014798297 0.013106299 0.0042825425 0.007633439
0001d0 6a a4 c4 3b e7 96 d4 bb 77 c0 bb 3c cd 3c b7 3b
       0.006001045 -0.0064877155 0.022918923 0.005591965
0001e0 05 8f fb 3a 2e 8c 0c 3c 93 03 57 bc 8c a6 2f bc
       0.0019192403 0.008578343 -0.013123411 -0.01072086
0001f0 ac f3 2c bb 76 c7 47 3c 30 c4 c3 bb 67 0b 66 3c
       -0.0026390357 0.012193551 -0.005974315 0.0140408045
000200 84 72 58 bb 10 79 d5 3b 0e df e0 bb bf af 4a bb
       -0.003302724 0.006514676 -0.0068625277 -0.0030927507
000210 0b 96 19 bb df 5d fc 3b c6 c0 1b 3c 52 ad 68 3b
       -0.002343538 0.00770162 0.00950641 0.0035503698
000220 5f ec 5f bc f3 f6 58 3c 43 88 8f 3a dd b4 35 3c
       -0.013667195 0.013242471 0.0010950643 0.011090484
000230 d7 f3 e2 3b ca 32 b5 bb 83 bf 61 bb b9 b7 b6 ba
       0.0069260406 -0.005529736 -0.0034446425 -0.0013940252
000240 93 00 1a 3c cb 33 06 bc ae a4 5a 3b a1 8f ce 3b
       0.009399551 -0.008191059 0.0033362317 0.006303743
000250 70 ce 01 bb db 66 f8 bb 4e bb 49 bc e6 35 3c 3a
       -0.0019806884 -0.0075806207 -0.012312723 0.00071796624
000260 e1 49 87 3c 6f 15 85 bc 78 43 21 bb 1c cc eb bb
       0.01651472 -0.016245572 -0.0024606865 -0.0071959626
000270 90 09 26 bc ad 2f 21 bc 74 5c da bb 74 a8 7b 3b
       -0.010134116 -0.009838027 -0.0066638533 0.0038399966
000280 b7 8a 39 bb 45 67 71 bb d3 c9 37 3b dd ab 01 3c
       -0.002831144 -0.0036835235 0.002804388 0.007914511
000290 e8 fd 7f 3c d5 d5 9c bb cd 1a f7 bb a9 13 31 3c
       0.015624501 -0.004786233 -0.0075410367 0.01080791
0002a0 b5 4a 06 bc ac 49 44 b8 78 9e 07 3c 2f 7f 5f bc
       -0.0081965225 -4.6798654e-05 0.008277528 -0.013641163
0002b0 33 cc b0 bc c8 17 8e bb 90 ea 4c 3c 31 ad 5e bc
       -0.021581745 -0.004336331 0.012507096 -0.013591097
0002c0 f7 79 32 ba f5 54 1c 3b 1a 23 e7 3b 96 21 e4 bb
       -0.00068083353 0.002385435 0.007053745 -0.0069620116
0002d0 b2 83 6b 3b ff a7 a9 ba 80 69 8d bc 04 6f 3a 3c
       0.003593665 -0.0012943743 -0.01726222 0.011379007
0002e0 4f f8 de 3b 44 41 ca bb 3e 48 94 3c c1 74 65 bc
       0.006804503 -0.006172331 0.018100854 -0.014004887
0002f0 92 68 22 bc c1 89 54 bc 6f 11 95 bc 97 a9 18 bc
       -0.009912627 -0.012972296 -0.01819679 -0.009317777
000300 da fb 0e b9 2d 16 31 3c 3d e5 33 3c e1 0f 1d 3c
       -0.00013635997 0.01080851 0.010979948 0.009586305
000310 29 f1 2a 3b 65 c6 5b bb ca ad b6 3b b7 a7 af 3b
       0.0026083684 -0.0033535 0.0055749165 0.0053605693
000320 2b 40 55 3c 48 e7 46 3c 70 e8 fd ba c9 39 33 3a
       0.013015787 0.012140103 -0.001937164 0.0006836919
000330 67 a4 ba ba bc d9 3f 3c da e9 87 bc 75 f8 4f 3b
       -0.001423967 0.011709627 -0.016591001 0.0031733785
000340 d8 ea 19 3b e0 8f 8c bc b9 5e db bb 37 d2 53 3c
       0.0023485925 -0.017158449 -0.0066946414 0.012928537
000350 6b 3b dc ba 2a c4 48 bb 20 27 2b bb 7d 73 13 bc
       -0.0016802376 -0.00306345 -0.002611585 -0.0089997025
000360 e2 2e 64 3c e5 6b be 3a a2 46 06 bc 2d be fd 3a
       0.013927193 0.0014528005 -0.008195551 0.0019359045
000370 2f 60 23 3b ff b7 7f bc 4f 2e bb bb 5b 10 a7 b9
       0.0024929156 -0.015607833 -0.0057123075 -0.00031864908
000380 da c6 1a 3c 64 ed d7 bb 48 02 8b 39 ce 8f d0 3b
       0.009446824 -0.0065895785 0.00026513846 0.006364799
000390 e4 20 43 bc 18 7c ff bb 6c 64 c9 bb 9e ba 15 bc
       -0.011909697 -0.0077967755 -0.0061460044 -0.009138731
0003a0 95 dd 65 bc ce 0a 01 bb 32 b9 45 bb 22 58 30 3b
       -0.01402988 -0.0019690278 -0.00301702 0.0026908
0003b0 8e 1d 8f 3a 37 0a a1 b8 b7 47 a3 3c 69 f7 92 3b
       0.0010918842 -7.678981e-05 0.019931657 0.00448506
0003c0 01 ab 6c 3a 8d 4c 55 bc 4c 9d 19 3c 7f 03 b9 bb
       0.0009028167 -0.013018739 0.009375881 -0.0056461687
0003d0 a2 79 74 3c ba 5d f9 3b e9 55 bc 3b 90 47 42 bc
       0.014921578 0.00761005 0.005747546 -0.011857882
0003e0 87 4a d5 bb 78 66 d8 bb f1 93 af 3c ab 22 8b 3c
       -0.0065091285 -0.006604012 0.021432849 0.016984304
0003f0 2b d0 00 3c 25 b9 97 bc a9 99 c1 3c 7d 69 e2 3b
       0.007862131 -0.018520901 0.023632841 0.006909548

action_model._discrete_distribution.branches.1.bias f4 [2]
000000 59 27 89 3b 55 27 89 bb
       0.004185599 -0.004185597

exp_avg f4 [128, 4]
000000 5f ee 1c b9 ce 90 cb b6 f6 0e 21 b9 62 eb d0 b6
       -0.0001496612 -6.066729e-06 -0.0001535973 -6.226285e-06
000010 71 0f 80 38 89 1d 26 36 b3 3b 84 38 3e 87 2b 36
       6.106392e-05 2.475312e-06 6.30537e-05 2.5559707e-06
000020 e0 35 ca b8 73 26 83 b6 c2 39 cd b8 15 1b 85 b6
       -9.6421456e-05 -3.9085803e-06 -9.78592e-05 -3.9668616e-06
000030 33 12 2f 38 9c 18 e3 35 57 7e 35 38 56 6d eb 35
       4.17402e-05 1.691998e-06 4.3271426e-05 1.7540685e-06
000040 6c 07 cc 38 67 54 84 36 33 a4 d1 38 44 f8 87 36
       9.7288605e-05 3.9437323e-06 9.996481e-05 4.0522154e-06
000050 b2 a4 02 b8 4c 77 a9 b5 ae fb 08 b8 94 b0 b1 b5
       -3.11478e-05 -1.2626201e-06 -3.265932e-05 -1.3238919e-06
000060 24 0f 84 38 74 4d 2b 36 f2 7c 89 38 43 58 32 36
       6.297071e-05 2.552607e-06 6.555942e-05 2.6575442e-06
000070 57 00 77 b9 67 33 20 b7 40 71 7c b9 d1 ba 23 b7
       -0.00023555882 -9.548711e-06 -0.00024074782 -9.759054e-06
000080 b8 e8 46 38 4c 02 01 36 f8 e6 56 38 c0 61 0b 36
       4.7423615e-05 1.9223835e-06 5.1236682e-05 2.0769512e-06
000090 6a 9c 88 b8 02 35 31 b6 f2 00 8b b8 8f 4f 34 b6
       -6.51412e-05 -2.640591e-06 -6.6282126e-05 -2.68684e-06
0000a0 0f ca ef 36 ee 85 9b 34 4c eb 12 37 10 94 be 34
       7.1462778e-06 2.8968446e-07 8.7570625e-06 3.5497987e-07
0000b0 90 8a 8a b8 ff b5 33 b6 e6 30 8c b8 d6 d9 35 b6
       -6.606162e-05 -2.6779014e-06 -6.684828e-05 -2.70979e-06
0000c0 4b 3d 1d b9 2e f7 cb b6 2b 20 22 b9 c4 4d d2 b6
       -0.0001499552 -6.078647e-06 -0.00015461507 -6.267541e-06
0000d0 01 23 0f 38 07 ac b9 35 25 b5 17 38 31 ca c4 35
       3.4126457e-05 1.3833641e-06 3.616991e-05 1.4661983e-06
0000e0 d4 95 7e b9 9d 1e 25 b7 df 15 82 b9 07 be 28 b7
       -0.00024279143 -9.841894e-06 -0.00024811827 -1.00578245e-05
0000f0 dd 1e 87 37 13 46 2f 35 29 f4 94 37 b8 37 41 35
       1.6107626e-05 6.529455e-07 1.775667e-05 7.1979184e-07
000100 28 ea 21 37 b5 07 d2 34 df 03 3f 37 39 c7 f7 34
       9.650867e-06 3.9121156e-07 1.13853885e-05 4.615229e-07
000110 ba ec a5 36 53 3b 57 34 3e d6 c5 36 45 50 80 34
       4.944942e-06 2.0045017e-07 5.8959986e-06 2.3900262e-07
000120 4b 0e 68 b6 e5 81 16 b4 c7 d6 10 b6 4e e1 bb b3
       -3.4579014e-06 -1.4017094e-07 -2.158269e-06 -8.748849e-08
000130 e5 ac 65 38 a6 f6 14 36 9f 8c 6e 38 0d b8 1a 36
       5.4758875e-05 2.2197287e-06 5.6874585e-05 2.305492e-06
000140 fc 9b 39 b9 17 c4 f0 b6 e7 79 3f b9 55 60 f8 b6
       -0.00017701084 -7.1753852e-06 -0.00018260592 -7.4021905e-06
000150 ad 32 43 37 3d 34 fd 34 f2 b6 6c 37 6d 87 19 35
       1.1634705e-05 4.716293e-07 1.4109291e-05 5.719401e-07
000160 bf e7 01 b9 34 82 a8 b6 be d1 04 b9 e2 49 ac b6
       -0.00012388731 -5.021948e-06 -0.00012666636 -5.1346005e-06
000170 56 37 46 b9 41 8f 00 b7 54 7d 4a b9 cc 54 03 b7
       -0.00018903366 -7.662748e-06 -0.0001931091 -7.827952e-06
000180 79 2b d4 37 11 9c 89 35 52 6c db 37 63 50 8e 35
       2.5292613e-05 1.0252717e-06 2.6157275e-05 1.060322e-06
000190 23 6d 70 37 b3 ef 1b 35 93 89 7c 37 98 ca 23 35
       1.4330525e-05 5.809081e-07 1.5052402e-05 6.1017045e-07
0001a0 05 3c 36 38 63 63 ec 35 7b 13 40 38 8a 27 f9 35
       4.344808e-05 1.7612296e-06 4.579451e-05 1.8563453e-06
0001b0 57 20 9b b8 7a 39 49 b6 d4 59 a3 b8 a3 e4 53 b6
       -7.397e-05 -2.998479e-06 -7.7891775e-05 -3.1574534e-06
0001c0 75 6f 9c 37 2f ec 4a 35 7a 86 b4 37 d3 2b 6a 35
       1.864855e-05 7.5594556e-07 2.1520293e-05 8.7235566e-07
0001d0 8b 94 d5 b8 42 86 8a b6 15 7f dd b8 a4 a8 8f b6
       -0.000101843 -4.12835e-06 -0.00010561772 -4.2813645e-06
0001e0 86 70 6a b9 ad 0d 18 b7 61 3f 72 b9 1b 1e 1d b7
       -0.00022357897 -9.06309e-06 -0.00023102529 -9.364939e-06
0001f0 1b 80 25 b8 6e ae d6 b5 ff 94 29 b8 d3 f9 db b5
       -3.9458373e-05 -1.5995008e-06 -4.0431503e-05 -1.638948e-06
000200 70 f1 10 b4 e4 03 bc b1 60 d3 2f 35 32 13 e4 32
       -1.349888e-07 -5.4719624e-09 6.550017e-07 2.6551422e-08
000210 e9 a3 c4 38 30 13 7f 36 dd 11 c9 38 0c 69 82 36
       9.376539e-05 3.800913e-06 9.587754e-05 3.886531e-06
000220 74 36 db 37 75 2d 8e 35 03 61 e9 37 96 5d 97 35
       2.6132191e-05 1.0593054e-06 2.7820939e-05 1.1277614e-06
000230 1a 7a 7d 37 96 66 24 35 86 b6 74 37 6f b7 1e 35
       1.5108404e-05 6.1244043e-07 1.458603e-05 5.912652e-07
000240 8c c0 4a b9 67 80 03 b7 f2 e6 52 b9 98 c9 08 b7
       -0.0001933595 -7.8381045e-06 -0.00020113194 -8.153169e-06
000250 2b 64 80 b8 77 8b 26 b6 90 e5 84 b8 9b 63 2c b6
       -6.122173e-05 -2.4817107e-06 -6.33701e-05 -2.5687975e-06
000260 94 d8 58 37 83 a4 0c 35 e4 51 61 37 7b 23 12 35
       1.2925029e-05 5.239346e-07 1.3430112e-05 5.444087e-07
000270 90 13 3b b9 49 ab f2 b6 64 12 3e b9 fc 8d f6 b6
       -0.00017840997 -7.2321022e-06 -0.00018126663 -7.3479005e-06
000280 1c fd 04 37 22 82 ac 34 6d a1 0c 37 cd 6b b6 34
       7.926745e-06 3.213218e-07 8.382235e-06 3.3978577e-07
000290 bb 4c 95 37 98 aa 41 35 bc be a2 37 73 1b 53 35
       1.7797915e-05 7.214635e-07 1.9400723e-05 7.864357e-07
0002a0 6f af c4 b8 27 22 7f b6 40 67 ce b8 a1 de 85 b6
       -9.378685e-05 -3.801784e-06 -9.842077e-05 -3.9896263e-06
0002b0 8d 4c 36 38 d3 78 ec 35 fb 23 3f 38 e1 f0 f7 35
       4.3463475e-05 1.7618535e-06 4.5571458e-05 1.8473039e-06
0002c0 1b e7 2b b9 7e fc de b6 c1 cf 33 b9 c9 3e e9 b6
       -0.00016393924 -6.6455095e-06 -0.00017148165 -6.9512503e-06
0002d0 2a 88 2d b9 7d 19 e1 b6 f7 89 32 b9 30 98 e7 b6
       -0.00016549291 -6.7084898e-06 -0.00017026799 -6.9020534e-06
0002e0 18 bd e9 b8 4c 99 97 b6 86 e1 f1 b8 39 e1 9c b6
       -0.00011145527 -4.517997e-06 -0.000115337825 -4.6753817e-06
0002f0 a1 cc 63 b9 27 bf 13 b7 61 b0 69 b9 0e 91 17 b7
       -0.00021724637 -8.806389e-06 -0.00022286318 -9.0340745e-06
000300 73 80 91 38 67 bd 3c 36 ed 3c 9c 38 a0 aa 4a 36
       6.938064e-05 2.812443e-06 7.450008e-05 3.0199662e-06
000310 8e 75 68 38 da c4 16 36 c3 6b 72 38 e1 3a 1d 36
       5.542259e-05 2.2466324e-06 5.7797657e-05 2.3429095e-06
000320 e3 04 19 b9 b7 7d c6 b6 d6 90 1e b9 a0 af cd b6
       -0.00014593037 -5.915495e-06 -0.0001512201 -6.1299215e-06
000330 ea 4a 5c b9 c5 e0 0e b7 85 40 62 b9 40 be 12 b7
       -0.00021008743 -8.516193e-06 -0.00021577075 -8.746574e-06
000340 df d1 69 37 ca a6 17 35 58 7c 80 37 d0 aa 26 35
       1.3936747e-05 5.6494594e-07 1.5316691e-05 6.2088384e-07
000350 2c f9 d9 b5 a9 5f 8d b3 07 33 b2 b5 69 27 67 b3
       -1.6240278e-06 -6.5832246e-08 -1.3276884e-06 -5.3819722e-08
000360 69 9a 50 38 e0 4b 07 36 35 d7 5a 38 af ef 0d 36
       4.973487e-05 2.0160733e-06 5.2175677e-05 2.1150151e-06
000370 d4 f4 29 b6 28 76 dc b3 51 5c d2 b4 b3 6f 88 b2
       -2.5325471e-06 -1.0266041e-07 -3.9182717e-07 -1.5883279e-08
000380 89 a6 d5 b8 ee 91 8a b6 ce 60 da b8 e5 a2 8d b6
       -0.00010187651 -4.129709e-06 -0.00010413081 -4.221091e-06
000390 09 7a 28 b9 c8 8a da b6 d4 22 2e b9 1c e2 e1 b6
       -0.0001606719 -6.5130625e-06 -0.00016606908 -6.731845e-06
0003a0 0a f9 10 37 be 0d bc 34 28 10 16 37 1c a8 c2 34
       8.641053e-06 3.5027728e-07 8.944458e-06 3.6257632e-07
0003b0 3b d5 4d b7 ef 7f 05 b5 3f 8f 57 b7 ea ce 0b b5
       -1.2268599e-05 -4.973253e-07 -1.2848351e-05 -5.2082635e-07
0003c0 4f 1e 69 38 53 32 17 36 47 24 75 38 a4 fe 1e 36
       5.5579756e-05 2.2530046e-06 5.8446338e-05 2.3692055e-06
0003d0 87 eb 24 38 b5 ed d5 35 80 dc 2c 38 cd 3a e0 35
       3.932e-05 1.5938919e-06 4.1213352e-05 1.6706414e-06
0003e0 cc 57 81 37 7b c7 27 35 25 20 8a 37 f5 2b 33 35
       1.5418882e-05 6.250263e-07 1.646585e-05 6.674666e-07
0003f0 cf c2 54 38 3a fe 09 36 a5 33 5c 38 ac d1 0e 36
       5.072617e-05 2.056257e-06 5.2500185e-05 2.1281694e-06
